results/3_iid/model_favg_n_1_m_0.pt (torch, 121540 bytes, 8 tensors)

Encoder.enc1.weight f4 [256, 22]
000000 c0 00 3d 3c af 36 09 3c 3f 1d fb 3d 58 1d f1 3b
       0.011535823 0.008374854 0.122614376 0.0073582344
000010 06 0b 05 bc 72 07 26 3c ff c1 ef 3b 30 ae a2 3b
       -0.008120304 0.010133611 0.0073168273 0.0049646124
000020 28 31 3a 3c 77 ed 66 3b 19 1d 84 3c ab 08 a7 3d
       0.011364259 0.0035236755 0.016127156 0.0815595
000030 8f 4f ac 3c 5d 62 8f 3c cf 0b 02 bb a0 6e e6 be
       0.02103403 0.017502958 -0.0019843464 -0.45006275
000040 02 e1 2b 3c ca cd c3 3c cc 62 a2 bc c4 96 b5 3a
       0.010490658 0.023901839 -0.0198225 0.0013854136
000050 49 5f 61 bb 5f c6 d9 3b 77 d6 d6 bc 8e 91 1f bd
       -0.003438907 0.006645962 -0.026225312 -0.03895717
000060 24 87 27 3d 00 b0 ca bb 2e 9d 1b 3c 9d 5e 01 bb
       0.040900365 -0.0061855316 0.009497924 -0.0019740232
000070 df 05 34 3d 72 de 8d 3c d4 16 4f bd ba 6f 6b 3d
       0.04395091 0.017317984 -0.05055888 0.057479598
000080 40 41 8f 3b 26 66 d6 3c 86 ff 00 bc 43 22 c4 bc
       0.004371792 0.026171755 -0.007873422 -0.023942119
000090 b5 03 f9 bc 88 d2 eb bb 61 da 99 3c 3c ed 9d bc
       -0.030397275 -0.007196728 0.018780889 -0.019278161
0000a0 32 d9 99 3c b9 e0 61 3c 20 56 e3 3c 9e ce 04 3c
       0.018780325 0.013786488 0.027751029 0.008105902
0000b0 35 34 98 3c 49 31 ca bb 92 81 7a 3d 8d 28 37 3c
       0.018579582 -0.006170426 0.061158724 0.011179102
0000c0 25 62 f2 3b 32 f5 0d bd 88 90 3e bc a3 bf b7 bb
       0.0073969536 -0.034657665 -0.011631139 -0.0056075617
0000d0 0c 4e 24 bd 63 61 d7 3c 05 61 32 bc 0b df 1c 3e
       -0.040113494 0.026291555 -0.010887389 0.15319459
0000e0 ef e5 e4 3b 1f f3 8e bc 16 66 25 bc 90 ef 2d 3b
       0.006985418 -0.017449914 -0.01009514 0.0026540495
0000f0 91 ee 78 3c 5c e6 e7 3b 11 49 43 bd 9c 4b 3d bc
       0.015193597 0.0070770215 -0.047677103 -0.011553671
000100 45 7e 31 bc fc 3f 85 bc b6 66 04 bc df 9a 48 3c
       -0.010833328 -0.016265862 -0.008081129 0.012243955
000110 4c 7b c9 3c ee 25 31 bc fc 15 e9 bc e5 30 29 bd
       0.024594925 -0.010812266 -0.028452866 -0.041306395
000120 e0 b5 f4 bc 95 31 a6 3c c6 12 73 3b b3 24 d3 3c
       -0.029871881 0.020287314 0.0037090047 0.025774335
000130 86 ea 72 bc 03 39 03 3d 28 cb 4d bd 54 97 cc bb
       -0.014826423 0.032036792 -0.050242573 -0.0062436257
000140 84 6a af bb 62 00 ab bc 2a c4 5a bd 15 14 28 3c
       -0.005353274 -0.020874206 -0.053409733 0.010258694
000150 56 3e 10 3c d8 62 28 3f 99 e6 a4 3c ea 21 9b bb
       0.008803925 0.65775824 0.020129489 -0.0047342675
000160 76 a9 13 bc 5c 78 1f 3b af 62 06 be 9e db 9c 3d
       -0.009012571 0.0024333214 -0.13123582 0.07659076
000170 c7 6f 7a bd 90 28 19 3d 02 2d b1 bd e2 2c ea bd
       -0.061141755 0.0373922 -0.08651163 -0.11434342
000180 77 99 01 3a c2 ef ea bd b2 9a a1 3c 65 94 15 3e
       0.00049438275 -0.114715114 0.019727085 0.1460739
000190 b0 c9 37 3d 46 95 bc 3c d4 cb 88 3d 31 84 97 bd
       0.04487008 0.023020398 0.06679502 -0.073982604
0001a0 2a d7 c3 3b 01 8b 9f bc f5 ef 32 3e 91 1d 32 3d
       0.0059765773 -0.019475462 0.17474349 0.043485228
0001b0 45 01 94 3d d5 e6 80 3d bd 80 0d bd f0 12 3b be
       0.07226805 0.06294028 -0.034546603 -0.18268943
0001c0 2b ab 42 be 27 bf 48 3c 03 88 58 bc 40 fb 47 3c
       -0.19010608 0.0122526055 -0.0132160215 0.012205899
0001d0 14 45 80 bd 8f 16 3d be 40 2e b8 ba 1f fa 88 bd
       -0.062631756 -0.18465637 -0.001405187 -0.06688332
0001e0 77 40 1d 3b a4 4c f3 3b e2 1e 70 bd 7f 46 8f bd
       0.0023994723 0.0074249078 -0.058623202 -0.06995868
0001f0 ba bc a1 bb 40 86 71 3d 79 0d 1b bd 4f 41 a3 bc
       -0.004935828 0.05896592 -0.037854645 -0.019928603
000200 35 bf 0b 3d a9 39 02 3d ff bf 45 3d 38 de 30 bd
       0.034117896 0.03179327 0.048278805 -0.043180674
000210 38 a3 bc 3c 1b e9 18 bc ec 17 0e bd 60 22 de 3a
       0.023027048 -0.00933292 -0.034690782 0.00169475
000220 1c ac e0 3b 2c b6 52 bd b9 96 4f 3c 6e 19 c3 bb
       0.0068564545 -0.051443264 0.012670212 -0.005953959
000230 fe 2b c0 bb 40 5b d9 bc 03 84 a5 3c 08 29 6b bd
       -0.0058646193 -0.02653277 0.02020455 -0.057412177
000240 fc 5f 94 bc 35 f8 82 bb a2 26 13 bc b1 8f 42 3c
       -0.018112175 -0.0039968737 -0.008981379 0.011875079
000250 6b 9f 06 3d 1a 21 4e 3b 2a 8b 4a be 78 f2 21 3b
       0.032866877 0.0031452836 -0.1977965 0.0024711173
000260 ae 48 22 3c 98 60 a1 3b 5d 6c 97 bc 6f cc 49 3d
       0.0099050235 0.004924845 -0.018484289 0.04926723
000270 8e 53 27 bd e7 29 b8 bd 74 12 cd bc 33 11 eb bc
       -0.04085117 -0.08992367 -0.025033213 -0.028694725
000280 ce de 29 3d 09 44 93 3c 3b d2 0b bc 8b ae 8d 38
       0.04147225 0.017976778 -0.00853401 6.755915e-05
000290 b4 e0 87 3c 23 7e a3 be d2 63 34 bd f3 72 1f bc
       0.016586639 -0.31932172 -0.04404051 -0.009731996
0002a0 40 4a 13 3c 49 e9 02 3c d7 ca 99 bc f8 13 97 bc
       0.008989871 0.00799019 -0.01877348 -0.018442139
0002b0 c4 8c 64 3b 44 e2 06 3d e6 d5 f2 bc 11 2c 1f bb
       0.0034873942 0.032930627 -0.02964301 -0.002428774
0002c0 70 5c bf bd 1a bc 9d 39 53 05 ca be 42 0d 4a 3c
       -0.09343803 0.0003008552 -0.39457187 0.0123322625
0002d0 c3 46 9e bd af db c2 bd a5 c6 74 bd 92 33 ad 3d
       -0.077283405 -0.095145576 -0.059759755 0.08457102
0002e0 09 9b 33 bd 5f 3f 1d 3c 08 9f 71 bc 38 de 96 be
       -0.043849025 0.009597628 -0.014747389 -0.29466414
0002f0 d6 c2 36 bd 2f 33 a5 3b 4f 8f b7 bc a8 8c 50 be
       -0.044619404 0.005041502 -0.022407202 -0.20366156
000300 fb 44 a8 bc f0 a8 c5 bd d8 20 dd 3d cd 4e 08 3d
       -0.020540705 -0.09651363 0.1079728 0.033278275
000310 fc 51 a1 3d 58 c7 34 3d 30 fd dc bd c2 82 8f bd
       0.078769654 0.04413542 -0.10790479 -0.07007362
000320 36 fa 99 bd c0 4a 50 bd 3c b7 13 be eb d4 6a bd
       -0.07518427 -0.050852537 -0.14425367 -0.05733196
000330 59 94 d7 3c 02 28 1b be ee ce d1 bc b4 bc e1 3d
       0.026315855 -0.1515198 -0.025611367 0.110223204
000340 f6 4d d0 bc 6e 9d e4 3d d5 fe 9f 3d 01 52 5f bd
       -0.0254278 0.1116284 0.07812277 -0.054521564
000350 20 6a 62 3d a3 31 1b be 47 5e a7 bc 76 ae 71 3d
       0.05527699 -0.15155654 -0.020430697 0.05900427
000360 0f 50 e4 bc 37 eb ef 3d 95 a0 87 bc 80 15 19 3d
       -0.027870206 0.117147855 -0.016556064 0.03737402
000370 27 39 98 ba 79 b9 90 bc 87 e2 1e 3e 02 b1 0c bc
       -0.0011613712 -0.017666565 0.15516101 -0.008587124
000380 98 53 65 3d 52 24 36 3d 34 95 91 3c 8e ac 28 3b
       0.055987924 0.04446823 0.01777134 0.0025737616
000390 73 ae bb 3d c1 96 ea bd d0 0a 44 bc 79 f9 8b 3d
       0.09164133 -0.11454535 -0.0119654685 0.068346925
0003a0 17 fd 35 3d e3 0a 45 3e c9 1a 45 3c 36 8f e3 bd
       0.04443082 0.19242434 0.012030312 -0.111113
0003b0 56 33 7f bd b4 ae ed ba 23 48 b5 3c fe 61 2d 3e
       -0.062304817 -0.0018133731 0.022129124 0.16931912
0003c0 07 e1 20 bc c9 43 58 3d 16 a9 a3 39 27 9f 2b bd
       -0.009819276 0.05279902 0.00031215762 -0.041899826
0003d0 0e 12 ab bd d4 8a a4 bc 33 d2 9d bd 8d fa d0 bc
       -0.08353053 -0.02008573 -0.07706108 -0.025510097
0003e0 96 bb 19 bd 85 42 b1 bc 39 5a 07 be e0 34 30 3d
       -0.03753241 -0.021638164 -0.13218011 0.043019176
0003f0 e4 07 2d bd e9 6d 78 3d fd b8 ae 3b 36 72 09 3d
       -0.042243853 0.060651693 0.005332111 0.033556186

Encoder.enc1.bias f4 [256]
000000 6d ea 09 be cc 0c b6 bd 18 9e 4a be ca f7 1b be
       -0.13468333 -0.088891596 -0.1978687 -0.15231243
000010 17 df 53 3e 03 64 0e bd 19 a7 4a be 40 86 ae 3d
       0.20690571 -0.034763347 -0.19790305 0.085217
000020 2a 5b 31 3e 03 24 9e be d5 9d 5a be 1c a7 78 be
       0.17319933 -0.3088685 -0.2134927 -0.24282497
000030 75 2e ec bd 74 3a 14 3e 80 53 24 be 73 f6 b7 3b
       -0.115322985 0.14475423 -0.16047478 0.005614096
000040 6f 95 06 3d 21 b0 ca bd 1a ec 83 bb 8a fb 7b bd
       0.032857355 -0.09896875 -0.0040259482 -0.061519183
000050 03 e1 d2 3d 1e 64 be 3d e2 03 16 3e 4e 51 2d 3e
       0.10296824 0.092964396 0.14649919 0.16925547
000060 07 c1 dd be 9d d2 6a be e2 2b e1 bc 00 31 76 3e
       -0.4331133 -0.22931905 -0.027486745 0.2404213
000070 b1 f0 3b 3c 2f 0a 33 be 2c 0f 1e be 0e 21 1d 3d
       0.0114709595 -0.17484353 -0.15435475 0.0383616
000080 5b d2 26 be 7f a0 a1 be 77 42 65 be c4 5b 08 be
       -0.16291182 -0.3156776 -0.22388636 -0.13316256
000090 02 94 9d be 11 c2 68 bd f6 40 06 be 91 f4 89 be
       -0.30776983 -0.0568257 -0.13110718 -0.26944402
0000a0 b5 d2 69 be bc 55 8a bd 8d e9 1a be 02 c3 1e bd
       -0.22834285 -0.06754634 -0.15128155 -0.038760193
0000b0 19 b8 bc bd bb df 8b bd 9a 62 5e bc 0b 99 88 be
       -0.09214801 -0.068297826 -0.013573313 -0.26679263
0000c0 01 5d 53 3e cc 24 d3 bd 99 4a 48 bd 0e 18 fa 3c
       0.20640947 -0.10309753 -0.048899267 0.030529048
0000d0 37 56 36 bb da 93 76 3d 74 ab 3b bd 1c 35 92 bc
       -0.0027822384 0.060199596 -0.045817807 -0.01784759
0000e0 67 1e 29 bc f5 1e dd 3c dc a6 39 be 3a e5 58 bd
       -0.01032219 0.0269923 -0.18130058 -0.052952982
0000f0 31 d4 6a 3d 3a 2d cb bc 02 d5 a9 be 3e 79 da 3d
       0.057331268 -0.02480184 -0.33170325 0.10667656
000100 a3 8e 57 bd f6 f3 a8 be ec dc 42 be d5 94 2d 3d
       -0.052626263 -0.32998627 -0.19029588 0.042378265
000110 6a 38 09 be 91 12 46 be 1b ad 27 3c 9e 9a df bd
       -0.13400427 -0.1934302 0.010234143 -0.10918163
000120 32 ef 4a 3e 56 50 2d bd 46 b6 6e be 44 fc 75 be
       0.19817808 -0.042312942 -0.2331172 -0.24022013
000130 2a 79 78 be eb a0 28 be 4b 93 4b 3d 3a c5 73 be
       -0.2426497 -0.16467635 0.049701016 -0.23805705
000140 c7 ae c2 bd 3c 06 70 3d d9 1d 1f 3d c0 e5 58 be
       -0.095059924 0.058599696 0.038846824 -0.21181393
000150 2f fa 2b 3e 94 1a 25 be 1b 47 63 be 60 ac 9a 3b
       0.16794656 -0.1612342 -0.22195093 0.0047202557
000160 4b a6 89 be 93 6b 82 bd 4b 1d 58 be 2a 3b 3c be
       -0.26884684 -0.063681744 -0.21104924 -0.18381944
000170 c2 3b 83 be d1 13 92 be 46 39 87 3c 4f 40 16 be
       -0.2563153 -0.28530744 0.016506802 -0.1467297
000180 b0 73 35 be 10 d5 e0 bd b2 d2 07 be bf 8d 97 bd
       -0.17719913 -0.109781384 -0.13263968 -0.07400083
000190 2e 25 cd be 8d 8b 60 be d4 91 50 be 60 c3 a0 3d
       -0.40067428 -0.21928234 -0.20368129 0.07849765
0001a0 2a f1 16 be 15 5a 79 bc 4d 72 de 3d bc c0 92 3d
       -0.14740434 -0.015219231 0.10861645 0.071656674
0001b0 f9 3c 30 be a6 c2 c5 3d ff d3 15 3e bf b7 39 be
       -0.17210759 0.09656267 0.14631651 -0.181365
0001c0 be 83 40 bd 1e c6 d3 3d 75 36 88 bd cd fc b2 be
       -0.04700064 0.10340522 -0.06651012 -0.34958497
0001d0 47 f0 66 3d dc 61 95 be 73 47 0e be 90 79 f5 bd
       0.05638149 -0.29176223 -0.13894443 -0.11986077
0001e0 dd ae 8b bd 1a 7a c0 be 1d e9 e9 3d 72 54 3d be
       -0.06820462 -0.37593156 0.11421416 -0.18489245
0001f0 5b 6d 2d be ca 13 45 be 01 46 c3 bd 27 93 30 3e
       -0.16936247 -0.1924583 -0.095348366 0.17243634
000200 73 1c 12 3e f4 15 e3 bd a5 b5 56 be d5 a7 a2 bd
       0.14268665 -0.110881716 -0.2096773 -0.07942168
000210 fe d0 1c be 0c 04 2f 3e 8c f1 90 be 2e 24 60 be
       -0.15314099 0.17091388 -0.28309286 -0.21888801
000220 95 43 77 bd fc 7d 96 be 57 f8 8d be 11 35 97 3e
       -0.060367186 -0.29392993 -0.2772853 0.29532674
000230 16 c1 09 be 60 40 15 3e 5d e9 71 be c6 e8 ad be
       -0.13452563 0.14575338 -0.23624177 -0.33966655
000240 de df 40 be c2 80 2f 3c 01 ca 00 3e f5 0c c7 bd
       -0.18835399 0.010711851 0.12577058 -0.09719268
000250 19 d7 48 be 7f 63 07 3e 94 c5 3b 3d c0 4b af bd
       -0.19613303 0.13221548 0.045842722 -0.0855937
000260 4f fa 49 be 8a 3a 8b be 21 ce 35 bb cc 1c 62 be
       -0.19724391 -0.271931 -0.002774127 -0.22081298
000270 a2 9e 87 3c c5 84 55 be dd 8c 3b 3e b1 96 6f 3e
       0.016555134 -0.20851429 0.18315454 0.23397328
000280 49 cb 68 be 84 ba 8a be b1 08 57 be 57 13 48 be
       -0.22733797 -0.27095425 -0.2099941 -0.19538628
000290 41 de aa bd 62 9d 7f 3d 35 b8 65 be 0b 38 2f be
       -0.08343173 0.06240595 -0.2243355 -0.17111222
0002a0 5d 6a 35 be 8e 71 06 be c2 3e 59 3e f6 0c cb 3d
       -0.17716356 -0.13129255 0.21215346 0.099145815
0002b0 b3 05 d1 3c 92 43 30 be a3 7f 8a be 8b 1a 8c be
       0.025515413 -0.17213276 -0.27050504 -0.27364
0002c0 14 a5 a8 bd 29 18 2f be e9 3e d0 3d ff 02 25 3e
       -0.08234611 -0.1709906 0.10168249 0.16114424
0002d0 8c e7 2a be 41 ea db 3d b2 50 a1 be c9 35 7c be
       -0.1668989 0.1073804 -0.31506878 -0.24629892
0002e0 9e f0 ec bd e5 35 9a bc f7 3b e8 3c 76 89 40 3a
       -0.115693316 -0.018824527 0.028348906 0.0007344702
0002f0 8e 9c 36 3d 90 e1 33 be 40 ae 70 3e 14 73 25 be
       0.044582896 -0.17566514 0.23503971 -0.1615718
000300 69 ae 36 be 4b c6 20 3e c0 fa 08 3e 0c 20 e6 3d
       -0.1783997 0.15700643 0.13376904 0.11236581
000310 90 d6 2c 3e 8c b9 b0 be 58 f6 4f 3d 06 8b 0f 3e
       0.16878724 -0.3451656 0.05077204 0.14017877
000320 30 6d d7 3d f1 44 46 be f5 82 a5 be 15 29 5a be
       0.10518873 -0.19362237 -0.32326475 -0.21304734
000330 94 32 4e 3e 36 de 82 3c 02 cd c0 bd 15 26 1e 3c
       0.20136482 0.015975099 -0.09414102 0.009652634
000340 ab 5c d9 3d 86 65 a0 bd 8f ad f5 bd 79 2f 81 bd
       0.10613378 -0.07831864 -0.11995994 -0.06307883
000350 ad 59 bf bd e6 8a 4e bd 5e ac 91 be 55 bb 05 3e
       -0.09343276 -0.050425433 -0.28451818 0.13059743
000360 f2 37 02 3e 6b 92 9c be d7 6b cc bc db df 07 be
       0.12716654 -0.30580458 -0.024953766 -0.13268988
000370 1f a8 37 be 9a d1 28 bd b9 7b 87 be 02 98 93 bd
       -0.17935227 -0.041215517 -0.2646158 -0.072067276
000380 eb 65 2a bd 7d c6 3d 3d ae b8 3f be f9 5b 8a be
       -0.041601103 0.04633187 -0.18722793 -0.27023295
000390 d1 9a 3a be 92 97 33 3e 7f b0 4b be 72 6b a9 bd
       -0.1822312 0.17538288 -0.19891547 -0.08272447
0003a0 9b b9 12 3e af 30 09 be cd b6 58 be 7f a1 18 3e
       0.14328615 -0.13397478 -0.21163483 0.14905356
0003b0 74 40 fc 3d 88 ca 47 3e ba 55 48 be 8b cc b0 bd
       0.12316981 0.19510853 -0.19563952 -0.086327635
0003c0 ef 9b 97 bc c2 88 8c be d2 0c 06 be 4f 11 9b b9
       -0.018506972 -0.27448088 -0.13090828 -0.000295768
0003d0 f9 02 d8 bd 6a c5 b7 bc f9 53 f1 3d d0 46 5f be
       -0.10547442 -0.022433002 0.11783595 -0.21804357
0003e0 d5 e0 48 be e3 22 2e bd 47 1e 99 bc d6 e7 a6 bd
       -0.19617017 -0.04251374 -0.018691195 -0.08149688
0003f0 95 7c 02 bd 56 7b 54 be 05 3f 92 be 21 94 5c be
       -0.031857092 -0.20750174 -0.28563705 -0.21540882

Encoder.enc2.weight f4 [40, 256]
000000 7c dc 4d 3b 92 5e 46 bb 7a 01 3f 39 25 bb 20 ba
       0.0031411937 -0.003026877 0.0001821573 -0.00061314023
000010 c0 77 21 3b 5f 1b 44 bd b1 75 ce ba fc bc 55 bc
       0.0024638027 -0.047877666 -0.0015751628 -0.013045546
000020 64 14 9a 39 f2 be 6b bc 09 b8 91 bb 26 ed 75 bc
       0.0002938836 -0.014388787 -0.0044469875 -0.015010154
000030 3d f4 3c bc 5a 7c b7 bc ae 51 0d 3a 09 67 8c 3c
       -0.01153284 -0.022398163 0.00053908944 0.017138975
000040 ef ff 19 b9 9b 22 be 3c 7f d9 10 3c 82 1a 35 3c
       -0.0001468656 0.02320986 0.008840918 0.011053683
000050 ad 6e 7c ba 55 f6 be bc 0f a2 40 bb 17 32 24 bb
       -0.0009629529 -0.02331082 -0.002939347 -0.002505427
000060 34 9b 77 b9 9e b1 d2 bc 86 13 2d 3c 84 00 16 bc
       -0.00023613573 -0.02571946 0.010563737 -0.009155396
000070 5c 8b ed bb a4 50 b7 3c 1d 7c be ba 04 0c 1e 3a
       -0.007249279 0.02237732 -0.0014532838 0.0006029012
000080 f7 04 31 3b 96 a6 a5 3b b0 4d 46 3c ad 5b 3f bb
       0.0027011016 0.005055259 0.012103483 -0.002919893
000090 e6 56 ab bb d6 a3 a2 bb 97 77 5b bb 47 50 82 3a
       -0.005228865 -0.0049633784 -0.003348803 0.0009942137
0000a0 ce db 20 3c 4f 08 b2 bc cd d9 02 3c 72 cd e0 3b
       0.0098180305 -0.021732477 0.007986498 0.0068604285
0000b0 f3 68 2a 3a 09 1c 8d bc 99 15 a9 bb a2 51 d2 39
       0.0006500624 -0.017225282 -0.0051600453 0.00040115142
0000c0 0f 7c ea bb d5 86 68 bc fe a1 4d bb 73 68 81 bc
       -0.007155902 -0.014192303 -0.0031377072 -0.015796876
0000d0 11 e2 d8 ba 7a 9f 4a bb 17 db 1c 3c 3b 70 b5 3b
       -0.0016546865 -0.003091781 0.009573719 0.0055370606
0000e0 5d 40 45 bb 23 ac 93 3c c4 a1 e5 3b 8d 89 cb bb
       -0.0030098178 0.018026417 0.0070078094 -0.0062114657
0000f0 a6 e8 44 3c 88 f0 b8 bc c5 9f 55 bb 9f 3f 29 3b
       0.012018358 -0.022575632 -0.003259645 0.0025825275
000100 9a 78 9c 3a ae 43 d6 ba 14 59 a4 3c d6 71 23 bb
       0.0011937798 -0.0016347074 0.020062007 -0.0024939678
000110 b8 76 e2 39 d2 6b fa bc e2 8a a6 3c a8 85 a8 3b
       0.00043194531 -0.03056899 0.020329896 0.005142886
000120 00 f3 d0 bb ea f8 05 3b cb 36 cd bb 9c 27 30 3c
       -0.006376624 0.0020442554 -0.0062626353 0.010751631
000130 a0 95 67 bc df c9 ef 3c 0e 44 a3 3c b5 1d 63 bb
       -0.0141347945 0.029271064 0.019929912 -0.0034655158
000140 fc 8a c5 ba f9 ff cd ba 73 d0 02 bc 7f 1f b3 3c
       -0.0015071328 -0.0015716545 -0.0079842685 0.021865604
000150 f5 39 ee 3b 7e 57 03 39 9d 72 76 3b 7e f0 ec bb
       0.0072700926 0.00012525727 0.0037604936 -0.0072308173
000160 61 70 93 3c 53 8c f5 3c 88 42 6b 3c 65 08 02 bc
       0.017997922 0.029974138 0.014359124 -0.007936572
000170 15 2e 1d bd 09 8e a8 ba 02 d4 00 ba 7c a2 85 bc
       -0.038374025 -0.0012859713 -0.0004914404 -0.01631283
000180 fd 5c 90 3c 60 a6 a7 bb a0 1d 61 3c 9a 15 71 3a
       0.017622465 -0.005116269 0.013739973 0.00091966393
000190 95 93 27 3d 91 c3 d9 3a 79 61 78 3c 02 3f 5a 3b
       0.04091223 0.001661407 0.015159958 0.0033301716
0001a0 61 46 a3 3c d9 0c c0 bc 1c a7 d3 bb 0e 00 92 3c
       0.01993102 -0.023443626 -0.00645913 0.017822292
0001b0 04 04 37 3c 6f ed ba 3c 47 4b 1d b7 57 98 e6 ba
       0.011170391 0.022818295 -9.375456e-06 -0.0017593008
0001c0 db 94 7e 3b 10 65 01 3b 09 ca 3e b9 47 3a dc ba
       0.003884605 0.0019744076 -0.00018195076 -0.0016802036
0001d0 02 05 0b 3c 9f f5 c9 bb 10 5a 77 bc b1 01 83 3c
       0.008485081 -0.0061633135 -0.015097156 0.015992017
0001e0 9f d8 c7 bc 60 7e d3 bb 80 b6 c1 3b cc e0 98 3a
       -0.024395285 -0.006454274 0.0059116483 0.0011663674
0001f0 27 4b 6c bc 7e 82 20 3a 02 c7 fc 3b fc 3b 41 bc
       -0.014422215 0.00061229605 0.0077141533 -0.011794087
000200 86 a3 ee bb 7c fe cd 3c db b9 17 3c 67 c3 c8 3b
       -0.007282677 0.025145762 0.00926062 0.0061268094
000210 fe 6a dd 3c 2b ea 14 3c 32 7c 7d 3c 34 cd a2 bc
       0.027028557 0.009089033 0.015471505 -0.01987324
000220 ac c2 55 3c 1d d8 86 3a 06 fa 01 3c 33 8b 58 3a
       0.013046902 0.0010287795 0.007933145 0.00082604884
000230 ac 1d 40 3c 8f 83 7a bb d2 9d 7c 3d 4c 52 13 3c
       0.011725824 -0.0038225388 0.061673947 0.008991789
000240 cf 14 73 3c cb d4 f4 3b f1 f7 db bc 37 1e 93 bc
       0.014836504 0.007471656 -0.026851626 -0.017958743
000250 b4 c4 bc ba 6d b8 73 3c 2a cf ff bb b8 d1 01 bd
       -0.0014401884 0.0148755135 -0.0078066783 -0.031694144
000260 ce 53 9a 3c e0 2b 6d bc 43 6f ec b8 e8 d2 4a 3b
       0.01883879 -0.014475793 -0.00011274081 0.0030948464
000270 fe 69 3b 3c 5f 49 70 3c cc 04 22 3c 6c 01 7d 3b
       0.011438845 0.0146659305 0.009888839 0.0038605584
000280 46 f6 d5 3c b0 5b 46 3b 39 66 e8 b9 c5 97 e1 bb
       0.026118409 0.0030267052 -0.0004432665 -0.0068845474
000290 df c2 7c 39 b4 18 f6 3b 60 9a a7 bc 71 e2 a4 3c
       0.00024105188 0.007510269 -0.020459354 0.020127507
0002a0 97 a2 53 bb 0d 56 88 bb b0 70 7d 3b 21 38 af bb
       -0.0032292956 -0.0041606487 0.0038671903 -0.0053472673
0002b0 43 62 86 3c c8 9d 08 3c 6b d1 88 bc 54 23 ae 3c
       0.016404277 0.008338399 -0.01670142 0.02125708
0002c0 12 9d b7 3a 4f 88 90 bb 09 bb be bc bc 5d b0 3c
       0.0014008603 -0.0044107805 -0.023282545 0.021529071
0002d0 98 bc e0 3c e2 04 a2 bc 58 cf 67 3c a4 45 32 bb
       0.027433679 -0.019777719 0.014148556 -0.0027202154
0002e0 15 59 6e bc d2 df 14 bb 19 53 48 3b 2b 0f a4 bb
       -0.014547606 -0.0022716415 0.0030567108 -0.005006691
0002f0 e3 0e 4b 3c 7e 18 11 3b b8 96 56 bb c8 ed 72 bb
       0.012393686 0.0022139843 -0.0032743644 -0.0037067998
000300 88 ef 89 3c b6 f5 86 3c 5f 7f 36 3c f0 f9 d8 3b
       0.01683785 0.016474586 0.011138766 0.0066215917
000310 b3 57 26 3c dc 50 43 3d 61 24 b3 bb 17 93 be 3b
       0.010152745 0.047684535 -0.005466983 0.0058158743
000320 61 e5 a0 3b d0 47 ed bb 38 ce 47 bc 24 f8 9c 3c
       0.0049101566 -0.0072412267 -0.0121951625 0.019161291
000330 e2 f7 91 3c f8 ff f8 3b 3c 13 e1 3c 20 ed 84 3c
       0.017818395 0.007598873 0.027474992 0.016226351
000340 41 69 97 bc 85 ae f6 bb cc a5 a9 bb 5a ee 70 3b
       -0.018482806 -0.0075281286 -0.005177235 0.0036763162
000350 40 9d 82 3c 81 68 89 3c 29 03 1b bc 77 3c 93 bc
       0.015944123 0.016773464 -0.009461203 -0.017973168
000360 f5 c8 3d bc 5f f6 09 bc 2c f7 2a 3a 92 48 81 bc
       -0.011583556 -0.008420556 0.0006521817 -0.015781675
000370 88 40 20 bc 46 fb 02 3a 66 3e 79 3b c1 76 c2 3c
       -0.00978101 0.0004996549 0.0038031577 0.023738267
000380 01 9d 74 bc 0b 1b ee ba 1b d6 80 bb 72 46 1a 3c
       -0.014930011 -0.0018166018 -0.0039317734 0.0094162095
000390 16 05 9e b9 34 55 9e bb bc 7f 09 3c 89 24 7d bc
       -0.00030139898 -0.0048319343 0.008392271 -0.015450605
0003a0 30 d8 ca ba cb 4e 25 3b 37 5f 20 bc 1a db 92 3b
       -0.0015475806 0.0025223966 -0.009788326 0.0044816853
0003b0 01 d1 3c bc 22 3a a0 b9 19 6c ff 3c 10 3e 48 3c
       -0.01152444 -0.0003056089 0.031179475 0.012221828
0003c0 3b 11 48 b9 59 d7 2f bc 7e cb e8 39 0f 2e 14 bc
       -0.00019079905 -0.010732495 0.00044402102 -0.009044184
0003d0 8b b2 86 bb 61 aa 00 3d 1a 26 13 3c 06 49 47 bb
       -0.0041106394 0.031412486 0.008981252 -0.0030408516
0003e0 04 bf 44 bb ad f0 41 bb 0c b9 f6 3a 3c c3 82 bb
       -0.003002108 -0.0029592917 0.0018823459 -0.003990559
0003f0 62 c8 d0 bb 11 47 92 3c 5a 05 bc bc c8 b0 07 3d
       -0.0063715437 0.017856153 -0.02295177 0.033127576

Encoder.enc2.bias f4 [40]
000000 4d 34 2c 3b 6a 58 be bc d4 0b 8f bd ca e9 a0 bc
       0.002627629 -0.023235518 -0.06984678 -0.01964273
000010 e1 5f cf 3c a8 0f 44 3a 70 04 b1 bc 96 73 d5 bc
       0.025314273 0.00074791396 -0.021608561 -0.026056092
000020 a8 8f d0 bc 54 41 9d 3c 96 59 97 3c c6 89 9e 3b
       -0.025459126 0.01919619 0.018475335 0.004838201
000030 95 31 30 bc 0f bc 3b bb e0 48 c7 3b 2b b5 44 bb
       -0.010754009 -0.0028646027 0.0060816854 -0.003001521
000040 6c 79 7b 3c d2 2e c7 bc 88 cb 00 bd b2 cf 8c 3c
       0.015348773 -0.024314318 -0.031444103 0.01718888
000050 ea 2f 91 bb 6b c4 67 be 31 02 98 be a6 72 d9 bb
       -0.0044307606 -0.22633521 -0.29689172 -0.0066359816
000060 d6 0a f0 bc e9 ae 10 bc cb 58 63 bb 38 36 6d be
       -0.029302042 -0.008830764 -0.0034690376 -0.23165214
000070 40 95 56 bb 0f dc 37 be 32 07 66 3c 7a 8a b3 3a
       -0.0032742769 -0.1795504 0.014039801 0.0013697885
000080 8b 73 a1 3b 22 5c c6 bc e3 f5 85 3c f1 b9 4b be
       0.004927104 -0.024213854 0.0163526 -0.1989515
000090 58 61 70 be 79 98 bb bc 2d 86 45 be 62 c8 2f bc
       -0.23474634 -0.022899853 -0.19289465 -0.010728927

Decoder.dec1.weight f4 [256, 20]
000000 ff f8 ac bb 49 6e 9f bb 4f 08 5e bb 4e a8 6a 3b
       -0.005278706 -0.004865442 -0.0033879464 0.0035805884
000010 f6 e0 05 3b 2b b4 39 bb a7 02 37 ba e0 c2 30 be
       0.0020428277 -0.0028336148 -0.0006981291 -0.17261839
000020 e3 a6 83 bb 0f c5 d6 3d 72 69 0b bb f3 60 3b bb
       -0.004017697 0.10486805 -0.0021272567 -0.0028591722
000030 a7 3b 5a bb 52 3b 40 bb 0a 0f 29 ba e3 31 b1 3b
       -0.0033299716 -0.0029332233 -0.00064490794 0.0054075583
000040 c7 b5 08 bc 1e a4 bd b7 91 4c f7 3a b4 48 d7 b9
       -0.00834412 -2.2606979e-05 0.0018867423 -0.00041062164
000050 8a f0 52 ba e1 5a 02 3c 96 7d 65 b9 48 fa 12 ba
       -0.00080467074 0.0079562375 -0.00021885926 -0.0005606753
000060 35 96 48 3a 12 5e 72 ba ef 02 bb 3a 0d 7e e0 bb
       0.0007651777 -0.0009245585 0.0014267842 -0.006850964
000070 d9 e9 d3 ba dd 45 41 bd 41 60 84 3a 4c e2 06 3a
       -0.0016167714 -0.047185767 0.0010099487 0.0005145415
000080 57 6d 04 ba f6 dd 46 b6 4a 33 1c ba 0e e7 27 3a
       -0.00050516933 -2.9633497e-06 -0.00059585704 0.0006404974
000090 bf 78 48 bb a5 b2 81 ba 7c 5e fd ba b7 a6 86 ba
       -0.0030589548 -0.0009895159 -0.0019330527 -0.0010273074
0000a0 2b 3a 36 bb d7 ba 75 3d 08 15 04 be 92 b1 80 39
       -0.0027805667 0.059992637 -0.12898648 0.00024546363
0000b0 c9 60 57 3b ff 16 54 3c dc 25 63 3b 46 86 be bb
       0.0032864085 0.012944936 0.0034660017 -0.0058143465
0000c0 9a 8d c3 3a cb 3b 45 ba c8 d1 b6 3b e6 df 7f 3b
       0.001491952 -0.00075238635 0.005579207 0.0039043366
0000d0 77 c3 8f ba f6 2b d0 3b dc 6e 72 3b fe 5c 4d 3e
       -0.0010968287 0.006352897 0.0036992347 0.20055005
0000e0 87 df 1e b9 50 ca dd 3b 06 23 b7 3c 84 a8 b3 3a
       -0.00015151325 0.0067685023 0.022355568 0.0013706838
0000f0 49 d3 15 39 98 37 31 3c 61 ae 0c ba 9b 67 dc ba
       0.00014288457 0.010816477 -0.00053665607 -0.0016815545
000100 f6 33 ae 3a 11 86 e2 b9 94 af 89 3a 5a 1e cf bb
       0.0013290632 -0.00043205966 0.0010504597 -0.006320757
000110 bc 56 b4 b8 87 99 40 bd 23 f2 eb 3a 2c 15 9d ba
       -8.5992244e-05 -0.047021415 0.001800124 -0.0011984459
000120 bf 2e 4d 3a ea da 8d 3a e5 15 92 3a ca e4 39 bb
       0.0007827095 0.0010822688 0.0011145441 -0.0028365129
000130 1a fb 23 ba b1 b1 ef b9 2a e4 b8 ba 6f fb 2a 3a
       -0.00062553736 -0.00045718023 -0.0014106084 0.0006522452
000140 7b cf a5 bb 9f 0b 08 3c e0 0e 03 bb ec 92 13 bc
       -0.005060134 0.008303552 -0.001999788 -0.009007197
000150 af a9 61 3b 8c 84 8f ba 05 8b b0 3b fb 75 c5 bb
       0.0034433415 -0.0010949536 0.005387666 -0.0060260273
000160 59 0c d0 ba 78 df 9f bb c2 7f 69 3b 3a 34 34 ba
       -0.001587282 -0.0048789345 0.0035629128 -0.00068742374
000170 3f 7d 21 3a fa 25 6a bb a3 66 8a bb 93 3d be 3b
       0.0006160326 -0.0035728202 -0.004223661 0.00580568
000180 d6 80 d8 bd 64 2d f2 b7 5e ab d6 3c 0f 94 47 bb
       -0.105714485 -2.8869785e-05 0.026204761 -0.003045324
000190 14 2e 25 ba 5d 41 2f 3c 77 17 30 ba 3b 77 b9 b9
       -0.00063011167 0.010696736 -0.0006717364 -0.00035374783
0001a0 94 53 8f b9 67 3d ea 39 93 f3 4e 3a 8b ac 0c bc
       -0.00027337356 0.00044677706 0.0007894572 -0.008586059
0001b0 5b 52 19 bb 3b ee 3b bd e3 5d 55 ba 75 5e 1b ba
       -0.0023395035 -0.04588149 -0.00081392954 -0.0005926856
0001c0 28 f1 c5 39 e2 85 5b 39 b0 c2 76 3a 1e 49 0b ba
       0.00037754443 0.00020935343 0.0009413166 -0.00053133245
0001d0 f1 df 09 bb a5 b1 75 ba 2d c2 77 ba 15 fb 8a 39
       -0.002103802 -0.00093724794 -0.00094512367 0.00026508482
0001e0 cf de 0a ba ab 5a fc bb 2a 3f 37 bb 56 16 cc b9
       -0.00052974833 -0.007701238 -0.0027961233 -0.00038926554
0001f0 42 96 62 3b 3f cb 34 bb b0 97 bd ba 2e d4 8d 3a
       0.0034574424 -0.0027586964 -0.0014464762 0.0010820681
000200 c5 76 d5 3a b4 73 9c b9 a0 00 aa 3a 4a 3a f4 3a
       0.0016286006 -0.00029840844 0.0012970157 0.0018633094
000210 dc cc 4e 3a 76 01 6a 3b bd d5 e7 ba e1 c4 99 b9
       0.0007888803 0.0035706437 -0.00176876 -0.0002932912
000220 4f fb 81 3d ee eb 89 3b 5f cc 27 3b 7d 95 85 ba
       0.063467614 0.004209033 0.0025603992 -0.0010191646
000230 1f a3 43 bb 7f c8 e2 3c 34 dd 9f be 79 40 87 39
       -0.0029851866 0.027683495 -0.31223452 0.00025797242
000240 d8 84 69 bb 3a 44 61 3b cb 04 e7 3a e4 c8 bd bb
       -0.003563216 0.0034372942 0.001762533 -0.0057917703
000250 39 04 96 ba 9f b3 88 bc 45 0c 43 3a 83 41 69 bb
       -0.001144535 -0.016687213 0.0007440488 -0.0035592027
000260 4c ab 45 bb 16 e8 2e ba 6a 76 f7 bb 53 a5 9e bb
       -0.0030161915 -0.0006672157 -0.007551958 -0.0048414855
000270 9b 9c c8 3a 50 ab ad ba e5 a3 18 3c 64 fb 74 3a
       0.0015305461 -0.0013249908 0.009316419 0.00093453215
000280 70 d5 d6 3b 34 ba 32 3d 88 62 bd bd 2b 7e 61 bb
       0.0065562055 0.04363461 -0.09247309 -0.0034407477
000290 a4 fe 1a 3a a0 61 8d 3b 73 f3 d2 3a f9 74 bf bb
       0.0005912578 0.0043146163 0.0016094282 -0.0058428016
0002a0 4d 8b b9 ba ac d2 00 bd 7f 43 c5 ba b5 13 cf 3b
       -0.0014155895 -0.031450912 -0.0015050023 0.006319488
0002b0 28 fc 7b 3a 10 47 d8 ba 2a 3b 9e 3b dd 13 41 3e
       0.00096124643 -0.001650067 0.0048288302 0.18855233
0002c0 66 39 d2 bb 24 dd 63 3c 64 ff 07 3c c6 9e 00 3a
       -0.006415534 0.0139077045 0.008300636 0.00049064716
0002d0 f1 46 38 bb 25 d0 6f bd ac 4d f5 3a 17 33 1a 3b
       -0.0028118456 -0.05854811 0.0018715165 0.0023528987
0002e0 34 00 25 3b 37 9d 6b bb 21 39 0d bb 56 bb 28 3b
       0.0025177123 -0.0035951862 -0.0021548944 0.0025746427
0002f0 12 25 85 b9 cc b7 31 3c af ba 0e 3b 87 78 58 bb
       -0.00025395356 0.010847043 0.0021778753 -0.0033030824
000300 6c 30 84 3b f0 0a ad 3a 82 df a7 b9 03 6e 6e ba
       0.0040340926 0.0013202112 -0.00032019248 -0.00090953725
000310 21 ee 1a bc e4 a6 8b 3b c9 5f a3 3d 0d 0f 90 3b
       -0.009456188 0.0042618383 0.07977254 0.0043963254
000320 44 c2 d5 3a 21 67 45 3b 67 7d 2a 3a 01 e4 5f b6
       0.0016308506 0.0030121284 0.0006503672 -3.3362305e-06
000330 b7 7b 04 b9 2c 18 08 bb 84 99 25 3a 06 63 b0 bd
       -0.00012634588 -0.002076636 0.0006317126 -0.08612637
000340 18 a1 18 bb df a9 9c bb fe 83 0d b9 69 11 5d b9
       -0.0023289379 -0.0047809924 -0.00013495979 -0.00021082688
000350 36 f3 9d 39 bb 4b fd ba cf 67 93 ba 4b e1 f0 ba
       0.0003012658 -0.0019324938 -0.0011246147 -0.0018377689
000360 b7 98 e6 ba 48 b3 b8 b8 12 40 85 ba 7d 65 15 bb
       -0.001759312 -8.8071974e-05 -0.0010166189 -0.0022796087
000370 ef ea 16 bb 2a ef a9 3b e6 c0 1e bb fa bf 13 bb
       -0.0023028215 0.0051859813 -0.0024223863 -0.0022544847
000380 ce eb 0e bb 21 88 2f 3b 80 22 2d bb 72 d4 e8 38
       -0.002180803 0.002678402 -0.0026418269 0.00011102193
000390 29 63 f0 3a f4 2f 8d 3b 0f 0c e4 ba 07 11 76 bb
       0.0018340099 0.004308695 -0.0017398613 -0.003754677
0003a0 c7 ae 3d 3b 52 aa 03 3a c2 cd 85 ba f9 7a b0 39
       0.0028943287 0.0005022633 -0.0010208415 0.00033660958
0003b0 12 9b 72 bd 80 c1 cd 3a 45 46 fa 3b e6 ff 9b 3a
       -0.059229918 0.0015697926 0.0076377713 0.0011901825
0003c0 c6 f9 30 bb 58 9d 35 3c 9a ed 1f 3a 37 4e 41 3a
       -0.0027004345 0.011084877 0.0006100774 0.00073740206
0003d0 80 0a 29 3a fc 1a d3 b9 d1 13 05 ba b5 cb 0a bc
       0.0006448403 -0.0004026516 -0.00050765 -0.008471419
0003e0 47 0a a7 ba 95 73 45 bd 6a 21 5c 3a b7 5c 1b bb
       -0.0012744152 -0.04820593 0.0008397313 -0.0023706385
0003f0 42 af 75 3a 4d b4 2b b9 9f c6 f8 b9 df 7c a2 ba
       0.0009372124 -0.00016374998 -0.0004745023 -0.0012396834

Decoder.dec1.bias f4 [256]
000000 52 1f c5 bd 78 bc e9 3c cb e6 53 be 01 1f ed 3c
       -0.096251145 0.028532252 -0.2069351 0.028945448
000010 9d 64 c3 bc 5d 7e f6 3c d9 5e d9 bb dc 5a 8b be
       -0.023851687 0.030089552 -0.006633621 -0.27217758
000020 86 5c 5f be e1 fa 0b bd e3 a6 c0 3c bb 63 ca 3b
       -0.21812639 -0.034174804 0.023517078 0.0061764396
000030 94 42 00 3d 06 13 68 bd 80 f4 8c 3c 75 49 18 3c
       0.031313494 -0.056658767 0.01720643 0.009294857
000040 11 f1 99 bd e6 51 58 bb eb b7 86 bb e3 ec ed bc
       -0.07516683 -0.00330078 -0.00411128 -0.02904362
000050 ee bc b4 3a cf 3e 93 bc 36 68 da 3b 30 60 f8 3b
       0.0013789216 -0.017974285 0.006665255 0.007579826
000060 3a fe 43 be 6a 52 2e 3c 2c 9d 94 3b 9c 20 0d 3c
       -0.19139948 0.010639766 0.004535338 0.008613732
000070 52 5b 51 bb 9b f8 a7 3c 40 be ea b9 5f 1b 8a 3b
       -0.00319453 0.020504287 -0.00044773705 0.0042146887
000080 ce 81 ce 3c 47 5a 0e 3c c8 b9 0d 3d 5f 39 bc 3c
       0.02520838 0.008688516 0.034601003 0.022976575
000090 c7 7f 85 be 6e af 8a be ce 8d d3 be b7 58 a1 3a
       -0.2607405 -0.27086967 -0.41319126 0.0012309764
0000a0 e5 99 60 bd d1 6c 19 3c fd fd de 3d 6c f2 fc 3c
       -0.054834265 0.009364323 0.10888288 0.030877315
0000b0 bc dd 71 3b 8d f8 8d 3c 2f ba 3b be df 03 47 3c
       0.0036905846 0.017330432 -0.18332742 0.012146919
0000c0 46 4e 67 be 60 71 a5 bd a3 5b 7d 3d e2 d5 79 be
       -0.22588453 -0.08078265 0.06185497 -0.24397996
0000d0 48 be a5 3c cf 7a 0f bd 55 1b b4 bd ce 34 9b 3b
       0.020232335 -0.03502923 -0.08794276 0.0047365194
0000e0 25 09 ed 3b b6 65 73 be 8e d7 17 bd 6a 58 d0 bd
       0.007233756 -0.23769268 -0.037070803 -0.10173114
0000f0 a7 69 5c bc 2b cc 87 bd b2 cf c0 be 0a b5 7a 3d
       -0.013452924 -0.06630739 -0.3765846 0.06120781
000100 6a ea e9 3b b2 83 51 3c 67 2d 15 bc 8f a9 9f be
       0.00713854 0.012787746 -0.009105063 -0.3118405
000110 76 b2 b7 3a 72 df 27 3c 74 51 69 be e2 a0 ea bc
       0.0014014977 0.010246145 -0.22784978 -0.028641168
000120 9b 23 94 bc 9e e9 f4 bd f5 d4 2e 3c c4 bf a8 ba
       -0.018083384 -0.119586214 0.01067089 -0.0012874533
000130 00 11 9c be 17 dd 89 bc 45 bc 9e 3c 02 d6 50 be
       -0.3048172 -0.016829057 0.019376883 -0.20394138
000140 99 2f c1 bd e1 91 37 be 6f 67 b5 3c 7e 1f 4f bf
       -0.09432907 -0.17926742 0.022144048 -0.8090743
000150 52 ac 00 3b 78 e0 b5 3c fd e7 36 3c a3 d2 cb be
       0.001963396 0.022201762 0.011163709 -0.3980914
000160 cd 3a c2 bd ef 98 55 be ac 44 85 3c d8 4f 4f be
       -0.094838716 -0.20859121 0.016268097 -0.20245302
000170 72 90 b1 be 46 b9 04 3d 01 b8 8b bb 6c 6c f7 3b
       -0.34680516 0.032403253 -0.0042638783 0.0075507667
000180 02 3b b8 3c d5 ed f5 bc 45 e4 ea 3b ca e5 3b bc
       0.022489075 -0.030020634 0.007168325 -0.01146836
000190 0c d1 e3 bd ec ca f9 3b 2e 93 a6 3b e4 87 90 3c
       -0.11123857 0.007623067 0.005083463 0.017642923
0001a0 8d d4 3f be 2c 92 98 bd f9 3a 8a be e9 28 8a 3c
       -0.18733425 -0.07449755 -0.26998118 0.01686521
0001b0 6f 64 92 3c 15 75 5c 3c c4 2f 83 3c df 51 a2 3c
       0.017870156 0.013455649 0.016013987 0.01981443
0001c0 cc e3 c4 bc 94 0b cb 3c f5 f6 af 3c d4 76 60 bd
       -0.024034403 0.024785794 0.021480063 -0.054800823
0001d0 30 bb b5 be e8 92 a6 bd 7a b1 a7 be 2c 07 39 bd
       -0.35494375 -0.08133489 -0.3275259 -0.045172855
0001e0 cf bb 40 be 3b 1f 64 bd 09 39 55 3c 1c 19 8d 3c
       -0.18821643 -0.055693846 0.0130140865 0.017223887
0001f0 b4 7d 9f bc 29 8f 8e 3c 83 42 22 3c 35 1f 12 bc
       -0.01946912 0.017402248 0.009903553 -0.008918573
000200 ea 78 a0 3c 35 a8 d6 3b d0 b6 b5 be 02 6e 89 bd
       0.019588906 0.0065508136 -0.35491037 -0.067104355
000210 28 44 2b be a0 0e fc 3c fa ad a4 3b ce e8 de bd
       -0.16725218 0.030768692 0.0050256224 -0.10884248
000220 12 d9 b3 3c 03 e2 91 be c6 b0 4b bd e0 28 52 bd
       0.021954093 -0.28492746 -0.04972913 -0.051308513
000230 db 86 c0 3c b2 d2 9c 3c 26 72 ba 3c 94 0d a9 3c
       0.023501804 0.019143436 0.022759508 0.020636357
000240 4c 67 82 bc 4f 11 d7 3b 98 cc 6e 3c 45 35 de 3c
       -0.015918396 0.0065633426 0.014575146 0.02712501
000250 b2 dc ba be 4a 19 bf 3c c7 6a fe 3a 16 e0 34 3d
       -0.36496502 0.023327488 0.0019410484 0.044159018
000260 06 3a 92 bd 30 78 87 3c 22 97 18 be 0a 2c c1 3c
       -0.07139973 0.016536802 -0.14901403 0.02358057
000270 64 27 8c be 1a ca 46 be 62 d9 1b 3d e5 8e e9 3c
       -0.27373803 -0.19413033 0.03804911 0.02851052
000280 6a a7 2a 3c fe f3 57 3c a6 37 af be 28 44 16 bd
       0.010415891 0.013180731 -0.34222144 -0.036686093
000290 35 2a 43 39 01 6c 80 bb 7f 77 fc 3d 55 c8 ee 3c
       0.00018612373 -0.003919125 0.123274796 0.02914826
0002a0 fd ef 0d 3e 05 64 5b be 98 0f 48 3c 10 dd e5 bb
       0.1386108 -0.21424873 0.012210749 -0.007014878
0002b0 8a 7b 67 be ac 28 91 bd 5d 62 0b 3d 67 f3 f0 bd
       -0.2260572 -0.07087836 0.034029353 -0.11765175
0002c0 bb f4 fc 3c 9a f2 87 be ab e0 97 bb da 9d e5 ba
       0.030878415 -0.26552278 -0.004634937 -0.0017518357
0002d0 6b ff ab bd cd 1c 22 be ce 13 03 bc d2 55 b7 3c
       -0.083983265 -0.15831299 -0.008000327 0.02237979
0002e0 5b c2 a2 3c e4 11 cc 3b 1b d7 d1 3b 9a b7 84 bd
       0.019868067 0.0062277187 0.0064038164 -0.06480332
0002f0 16 45 d2 3b e5 60 b2 3c 79 d2 12 bc cc 73 4b bd
       0.006416927 0.021774719 -0.008961313 -0.04967098
000300 e6 b1 d2 be df 50 0c 3d c1 26 b9 bd 09 1a c2 3a
       -0.4115135 0.034256812 -0.09040595 0.0014808784
000310 f8 c0 14 bf ed 61 6d 3c b1 11 59 3b a9 02 81 3c
       -0.58106947 0.014488679 0.0033122117 0.015748339
000320 b3 6d f2 bc 97 c9 fe bc 53 db 49 bd 67 46 d9 ba
       -0.029593324 -0.031101985 -0.04928143 -0.0016576768
000330 0c 4b b6 3c a2 07 85 3c 0e eb bb 3c b9 e9 bf 3c
       0.022252582 0.016238991 0.022939231 0.023426877
000340 95 cc 7a 3c d7 81 c2 be 27 e9 99 be 6c 0c a7 3b
       0.015307565 -0.37989685 -0.30060694 0.0050979163
000350 7b 4b bf 3c bc 2b ab bd d0 1a 99 3c cf 86 a9 3c
       0.023351422 -0.08357951 0.018689543 0.020694165
000360 7f 79 b7 bd 29 76 b1 3c 55 e4 c6 3d c4 e8 f8 3c
       -0.089587204 0.021662788 0.0971152 0.030384429
000370 61 90 88 3b 61 dd 7a bb 78 ad 7c be 54 d8 56 bd
       0.004167602 -0.0038278925 -0.24675548 -0.0524524
000380 4c 6a 8c b9 b5 ab b7 3c c2 01 b5 bd c3 6b 3b bc
       -0.00026782078 0.022420743 -0.08838226 -0.011439267
000390 b4 e6 09 3c 23 89 2f bc b8 61 9c be 2e 86 2e be
       0.00841682 -0.010713848 -0.30543303 -0.17043373
0003a0 e0 25 15 3e c1 44 d7 bb 1d 5d 77 bd 13 da 28 bc
       0.1456523 -0.0065694754 -0.060391534 -0.010305899
0003b0 b4 76 7f bc 2d c8 2d be b2 94 07 bc 81 f4 52 bd
       -0.015592266 -0.16970892 -0.008275198 -0.05150271
0003c0 5e 18 cf 3c 7c f0 c8 3d 56 f5 23 bc d5 1c ea 3c
       0.025280174 0.09811494 -0.010007223 0.028578201
0003d0 41 79 43 39 08 3f 3d be 8c 01 6d be 17 13 ae 3c
       0.0001864182 -0.18481076 -0.23145121 0.021249337
0003e0 47 19 b8 3c aa e0 83 bf 7e 46 80 be b3 3c 7f be
       0.02247299 -1.0302937 -0.2505378 -0.24925499
0003f0 11 d3 8f be 71 92 94 3a e3 d8 9a ba 02 01 1f 3e
       -0.28090718 0.0011335147 -0.0011813905 0.15527728

Decoder.dec2.weight f4 [31, 256]
000000 84 aa 21 bd 77 e4 a8 3d 0c 78 9a bb ca 2a b0 3d
       -0.039469257 0.08246701 -0.0047140177 0.08601911
000010 ec 6a 42 3e b8 a3 e0 3d 25 0a 20 bf 77 7a 4e bd
       0.189861 0.10968727 -0.6251548 -0.05040976
000020 4c 3a a2 3d a9 b1 39 bf 38 07 a0 3c a9 68 bb 3e
       0.079212755 -0.7253671 0.019534692 0.36603287
000030 21 d2 bd 3d 0c ea a4 3b 59 92 df 3e 85 1c 80 3e
       0.092685945 0.0050327834 0.43666342 0.2502176
000040 98 c7 18 be 2f 9d 49 3e 74 8e bb be ba 07 ea bd
       -0.14919889 0.19688867 -0.3663212 -0.11427255
000050 db d0 5a bf 54 50 2c bd db 7b 61 bf fb 7a 55 bf
       -0.8547494 -0.042068794 -0.88079613 -0.8339078
000060 b4 c5 88 3c 09 07 64 3e e2 9b 15 bf aa dd 07 3e
       0.016695835 0.22268309 -0.58440983 0.13268152
000070 40 d3 27 3f eb 06 87 3d 0b 77 f0 3e 90 28 ca 3e
       0.65556717 0.065931164 0.46965823 0.39484072
000080 4b fd d2 3c ba 79 1b 3f 8d 50 48 be 0c 67 6b 3d
       0.025755545 0.60732615 -0.19561978 0.05747132
000090 70 80 15 bc cc 08 b1 3d 4e 4f 26 bf ef 08 27 bf
       -0.00912486 0.08644256 -0.6496476 -0.65248007
0000a0 b7 75 50 be d2 77 77 bf 5c dc 5f 3e 7f b5 f6 3d
       -0.20357405 -0.96667206 0.21861404 0.120463364
0000b0 a5 8f 01 bf a0 8f 61 bf 12 05 7e 3d b2 5e 31 3e
       -0.5060981 -0.8810978 0.062016554 0.1732128
0000c0 d7 f7 01 bd ef a0 f0 3c 19 ef 42 3d a7 71 a3 bb
       -0.0317305 0.029373614 0.047591303 -0.0049879136
0000d0 19 47 16 3d 4e 8f 25 3e 89 1a 7f 3d f6 66 47 3f
       0.036688898 0.16167948 0.062281165 0.7789148
0000e0 76 12 b4 3e 70 03 b4 3c 33 8a 95 3c 3f 0c 1c 3e
       0.35170335 0.021974295 0.018254375 0.15239047
0000f0 af 03 9e 3e 3c 88 2e 3e 56 ab c8 bd 84 a9 62 3e
       0.30862185 0.17044157 -0.09798305 0.22134978
000100 7d ae 0d bf 8f 30 b4 bf 17 51 06 bf cc 51 b0 bd
       -0.55344373 -1.4077319 -0.52467483 -0.086093515
000110 81 e6 05 bf c3 15 dc bd 91 c3 fa bd d4 66 5b 3e
       -0.52304846 -0.10746338 -0.122443326 0.21425945
000120 33 f0 91 3e 97 cd ba 3c 55 ff 75 3e f1 89 4e bf
       0.2850357 0.022803111 0.24023183 -0.8067923
000130 ce 36 5c 3d 42 14 0c 3e 70 90 82 3d c1 8d 94 bc
       0.053763203 0.13679603 0.063752055 -0.018134
000140 0d 1e 64 3a 85 91 71 bb 09 cb 9c 3d 2d f2 4b bf
       0.00087019877 -0.0036860418 0.076559134 -0.79666406
000150 fb 77 d9 3e 38 a5 98 3a fd ad 6d 3e da dd c0 bd
       0.4247435 0.0011645919 0.23210903 -0.09417315
000160 2f 96 f1 3d 64 5f d4 3c 0a 50 0f bf 38 70 bd 3c
       0.11796223 0.025924392 -0.55981505 0.0231248
000170 89 a7 1a 3d c5 6a 9b 3d 52 18 49 bf 9a e9 b2 3e
       0.03775743 0.07588724 -0.78552735 0.3494385
000180 91 80 bf bc 0c a3 91 3e f1 5c f5 3e 25 39 bf bc
       -0.023376735 0.28444707 0.4792247 -0.023342678
000190 8d 89 9d 3d ad 26 1f bf ce 0f 44 bf 5a b1 49 bf
       0.07692251 -0.6216839 -0.76586616 -0.7878624
0001a0 1b ce c7 3c f4 2c f9 3c ce 74 7a 3d 20 38 45 bf
       0.024390271 0.030416943 0.06114655 -0.77038765
0001b0 38 9f dc 3c 9e da 20 3f 20 71 61 bf 2b 69 89 3d
       0.02693139 0.62833583 -0.8806324 0.06709512
0001c0 35 63 d6 be f7 7a 88 3d 4d 2c 1f bf ee 26 0a 3c
       -0.41872564 0.06664079 -0.6217697 0.008432133
0001d0 54 21 54 bd 35 49 08 3d 95 e5 5e bd f0 a5 17 3e
       -0.051789597 0.03327294 -0.054418165 0.14809394
0001e0 2d 21 8c 3d bc be d0 be bd c9 3c bf cf fe 5f bf
       0.06842265 -0.4077052 -0.7374533 -0.8749818
0001f0 fc 90 36 be 57 e7 80 bf 46 4a 04 3f 50 e0 c6 3e
       -0.17828745 -1.0070599 0.5167583 0.38843012
000200 01 ca 43 3d c0 6b b3 be 1a ac 9e 3d f6 a6 c8 3c
       0.047800068 -0.35043144 0.077476695 0.024493676
000210 1d c4 05 3e fe 57 6e 3d 8c 0e 2f 3f 85 bc 9c 3d
       0.13063093 0.058189385 0.6838157 0.07653145
000220 ed 43 bf 3c 43 eb 5e 3d 35 97 42 3e ea 9d 0f bd
       0.02334782 0.05442358 0.19002993 -0.035062708
000230 a8 af a9 3d c1 cc 10 3d 23 de b4 3c e6 6f dd 3c
       0.08285457 0.03535152 0.02207858 0.027030896
000240 d2 ec 79 3d 47 0a 4d bf 1b 8c 55 bf a3 6d 99 3d
       0.061016865 -0.80093807 -0.8341691 0.07491615
000250 50 52 f3 3c 80 ec 18 3a 00 0c b2 be 16 61 09 bf
       0.029702336 0.0005833581 -0.3477478 -0.53663766
000260 47 9e ee be bf e1 b1 3d 3b dc 0c bd d1 d1 e2 3c
       -0.4660513 0.08685636 -0.034389716 0.027687939
000270 a1 9b 48 bd b0 dd 12 3d 0a f1 b8 3d 17 42 00 be
       -0.048976544 0.03585595 0.090303496 -0.12525211
000280 5c 87 80 3e 7d aa 2f 3f 36 42 e3 bd 2e 40 c7 3e
       0.2510327 0.6861952 -0.11096613 0.38916153
000290 e1 58 86 be 23 43 3b bc 4b 77 11 3e df aa 3c 3e
       -0.26239684 -0.011429581 0.14205663 0.18424557
0002a0 49 bf ba be bd da 46 be af ad 5c bf 1e f0 36 3c
       -0.36474064 -0.1941938 -0.8620252 0.011165647
0002b0 96 3d 68 3c b3 d9 b4 3e 20 86 85 bf 68 69 1b 3d
       0.0141748395 0.3532234 -1.0431557 0.03794232
0002c0 8a 5a 07 3e fe 62 38 bd 32 83 08 3f a1 05 c9 be
       0.13218132 -0.04501628 0.5332519 -0.39262107
0002d0 c4 2d 91 bd 36 7d 1a 3d ab 2a cd 3e 70 af 4f bf
       -0.07088807 0.037717067 0.40071616 -0.8112707
0002e0 5c 2f 38 3f 10 34 90 bf 0f 5d 9f 3e ed 46 5f bd
       0.71947265 -1.1265888 0.31125686 -0.054511
0002f0 f1 75 80 bf f9 4f d9 3d b5 1e 1f 3c fa a2 1e bf
       -1.0035993 0.10610957 0.009711911 -0.6196743
000300 a7 5b c4 bd 01 0d 8a 3e 49 e4 40 3e e7 50 52 bf
       -0.09587794 0.26963046 0.18837084 -0.821547
000310 5a e3 4b bf a7 2d 8d 3d 9f a3 4d bf 3c 68 70 bf
       -0.79643786 0.06893473 -0.8032779 -0.9390905
000320 94 29 2a be 6a c4 85 3e 60 43 8f 3c 03 f4 23 bf
       -0.16617423 0.26126415 0.017488182 -0.6404421
000330 2f 1c 50 3d 63 0b b4 3d 4b df ba bd d7 98 48 3c
       0.050808128 0.08791234 -0.09124621 0.012243471
000340 01 c4 7b bd 85 92 0f 3e af 38 06 bd 29 f6 00 3e
       -0.06146622 0.14020737 -0.0327689 0.12593903
000350 f6 0f 61 bf 52 8d b5 3d 7f 26 1e bf 3e 46 20 3d
       -0.8791498 0.08864845 -0.6177749 0.03912949
000360 e9 08 cb be 0f aa 6b 3d b5 f8 88 3e 6e 11 70 3e
       -0.39655235 0.057535227 0.26752248 0.23444149
000370 25 fa 2a bf be a5 29 3f 44 f2 ca bb e4 61 9a 3c
       -0.6678794 0.6626853 -0.006193431 0.018845506
000380 66 73 19 3f 68 b0 85 3d 04 f6 5e 3c 85 5c 9c 3c
       0.5994171 0.065277874 0.013608459 0.019087086
000390 b4 8e 07 3e 81 c7 88 be d1 9c 91 ba 40 05 e2 3c
       0.1323803 -0.2671471 -0.0011109357 0.027590394
0003a0 ab 63 50 bd af 5d ca 3e 76 9a a1 3d 4d c7 c1 be
       -0.0508763 0.395246 0.07890789 -0.37847367
0003b0 a6 d4 15 3c 54 ef f3 3c 28 99 15 3f d1 7f a8 3d
       0.009144938 0.029777206 0.5843682 0.08227504
0003c0 8c 9f 49 3d 46 3b 6a 3d fe 97 ed 3e 80 66 e1 3d
       0.04922442 0.057185434 0.46405023 0.110058784
0003d0 74 9b e9 be ea 4c 34 be 35 da 37 3d 44 38 7f bf
       -0.45626414 -0.17607465 0.044885833 -0.9969523
0003e0 ce 0d b4 3d dc fa 3e bf 53 47 eb 3b 5c 12 57 be
       0.087916955 -0.7460153 0.0071801334 -0.21003097
0003f0 c9 e3 bf bd e1 2d cf 3d 9a cf 1f bf 7b 4e 84 be
       -0.093696184 0.101161726 -0.6242615 -0.25841126

Decoder.dec2.bias f4 [31]
000000 f1 b5 53 bd d8 62 19 3e f5 b1 05 40 5d 78 22 bd
       -0.051687185 0.14979112 2.0889866 -0.03966557
000010 6f 15 77 40 35 d9 3a 3e 13 66 02 c0 23 0b ed bf
       3.8606832 0.1824692 -2.03748 -1.8519024
000020 0b 16 83 3f ed 6e 8e 3e ed ae 85 3f a6 16 ee bf
       1.0241102 0.27819005 1.0444008 -1.8600662
000030 cf 35 dd 3f e9 83 b2 bf 93 5d 57 bd b6 86 67 40
       1.7282046 -1.3946506 -0.052579474 3.617597
000040 e7 6a b0 bd 3d 57 b0 bf eb e2 c7 bd 8b dc a5 bf
       -0.0861414 -1.3776623 -0.09760078 -1.2957929
000050 2c 98 e8 bf de 20 de bd 00 70 1c 3d 93 03 94 40
       -1.8171439 -0.10846113 0.03819275 4.6254363
000060 0d 5e 47 3e 7a f3 ad 3d 15 dd 1b 3e 5d 18 b9 3f
       0.19469471 0.08493705 0.15221055 1.446056
000070 5f 25 7b 3e 26 b8 e8 bd 2a c4 3f 3d
       0.24525975 -0.113632485 0.046817936
