results/3_iid/model_alone_n_2_m_0.pt (torch, 121552 bytes, 8 tensors)

Encoder.enc1.weight f4 [256, 22]
000000 d7 bb 36 be 14 66 f5 bc 87 79 3a bd 21 4a 62 3c
       -0.17845093 -0.029955901 -0.045526054 0.013811619
000010 0a 56 96 bd 88 2c 57 3d e0 7f 0c bd e1 77 02 bd
       -0.073406294 0.052532703 -0.03430164 -0.031852607
000020 84 66 e7 3c 0a 9c 5f be 29 0f 53 3c ae c3 82 bb
       0.028247125 -0.21836868 0.012882032 -0.003990612
000030 c1 be b0 3a 94 06 d5 3c 2a 9c d6 bc e6 fa 34 3c
       0.0013484583 0.026004113 -0.026197512 0.011046147
000040 cb 9a 6f bd 68 14 cf bd b1 bb c9 3b f8 dc 49 bc
       -0.05849723 -0.10111314 0.0061564078 -0.012320749
000050 3c b8 29 3d e8 75 82 bc e9 d2 03 bb 99 49 84 3c
       0.041435465 -0.015925363 -0.0020114726 0.016148375
000060 7d ed 2a be b9 4c bd 3c 75 57 da 3d a6 fe 7e bc
       -0.16692157 0.023107873 0.10661212 -0.015563643
000070 f5 1d 8d bc 26 9b df bd 32 fc 58 3d b7 57 ea bd
       -0.017226199 -0.10918264 0.052974887 -0.114425115
000080 eb 03 9b 3b 9f c2 7d be 08 ed 9b bd e7 f8 0b 3d
       0.0047306917 -0.24781273 -0.076135695 0.03417292
000090 11 1d e2 3b bc cc 1a 3b 93 af 3f bd 2d 31 e3 bb
       0.0069004376 0.0023620566 -0.0467983 -0.0069333524
0000a0 81 cc 08 3e f3 27 ea 3c 7f 25 eb bc 92 30 da bd
       0.13359262 0.028583502 -0.028704403 -0.10653795
0000b0 16 0e 90 bd b0 b8 25 be bb d2 12 bd d8 41 4f 3c
       -0.07033937 -0.16183734 -0.0358455 0.012649976
0000c0 c2 66 3e be cb aa 85 3d a8 46 2a 3d 1e ac 14 3d
       -0.18593886 0.06526717 0.04157129 0.036296956
0000d0 c9 b2 5d be ad 02 0b bd aa 27 13 be fd 84 10 be
       -0.21650232 -0.0339381 -0.143706 -0.14113231
0000e0 7e fc 68 3d 51 0b 78 bd 85 88 96 bc 54 e3 9a 3c
       0.05688142 -0.060557667 -0.018375644 0.018907227
0000f0 55 49 a4 bd 8d 42 ad bd e7 40 09 3d ce 19 04 bd
       -0.080217995 -0.08459959 0.03350916 -0.03225117
000100 2c 31 74 3d b7 f2 4c 3d 4a b6 14 be f8 7b 90 bd
       0.059617206 0.05003616 -0.14522663 -0.07054895
000110 0f 76 9d bc 0a 35 9a 3b ea e3 64 3a 61 b1 6c bc
       -0.019221334 0.00470603 0.00087314716 -0.014446587
000120 28 4f 0b 3e d7 0d 4e 3c c2 0e 7c bd 45 17 23 bc
       0.13604414 0.012576542 -0.06153751 -0.009954278
000130 dd 82 cd 3b 87 14 f9 bd ab 33 1d be 52 04 90 3c
       0.0062717036 -0.121621184 -0.15351741 0.017580185
000140 52 9b 14 bd fe f1 12 bd e1 d8 14 be 4b b6 17 be
       -0.036280937 -0.035875313 -0.14535858 -0.14815633
000150 89 3e 9a bc 8b 61 db 3c b1 47 be bc 32 6c 30 be
       -0.018828647 0.02677991 -0.023227545 -0.17228773
000160 fb 87 31 3d 3d 92 02 3d 64 21 c0 3b d7 7b 71 3c
       0.04334257 0.031877745 0.0058633555 0.014738998
000170 ac ba 17 bd 21 22 aa bc 58 c8 4c bb 9d 8c d6 bc
       -0.03704326 -0.020768227 -0.0031247344 -0.026190097
000180 1b 0e a3 bc f8 f4 91 bc 26 8a 05 3c 40 c8 17 3d
       -0.019904187 -0.017817006 0.008150613 0.037056208
000190 48 2f f4 3c 01 55 d5 3b 2b 0e 48 bc 97 90 ff bc
       0.029807702 0.0065103774 -0.012210409 -0.031196875
0001a0 45 3f 8c 3d 76 48 f8 3b a7 0f d1 bc 37 8f bc bc
       0.06848005 0.0075769974 -0.025520159 -0.023017509
0001b0 f7 6a 8c 3a dd e1 98 bc 3a ea 8b bc ae 85 73 3b
       0.001071303 -0.018662388 -0.017079461 0.0037158537
0001c0 b5 06 a1 be 1b d6 6d 3c b5 bc b9 bd cf 73 64 3d
       -0.3145043 0.014516379 -0.09069196 0.055774506
0001d0 a3 7b f6 bd 9c fa 18 be 64 22 36 be 41 32 94 bd
       -0.120353006 -0.1493935 -0.17786556 -0.07236148
0001e0 26 ad 95 bc 58 24 27 bd f2 68 68 bd 9e b4 39 bd
       -0.01827104 -0.040806144 -0.05674071 -0.045338266
0001f0 e4 3e a1 3b be eb 19 3d 7c 21 d8 bc fb 96 cd bc
       0.004920827 0.037578337 -0.026383154 -0.025096407
000200 d5 8a 85 3d a3 55 59 3c dc 8a d3 bb 7e d6 bd bd
       0.06520621 0.013265046 -0.0064557623 -0.09269427
000210 95 2d f8 bb 9b 78 30 bc 24 48 85 3b d2 f2 0e 3b
       -0.007573793 -0.010770942 0.0040674377 0.0021812213
000220 ad 41 0f bc 23 25 4a 3c df 65 6c 3c f1 7e a3 bb
       -0.008743686 0.012337956 0.014428585 -0.004989498
000230 57 f2 24 bc 6b cd 89 bb 57 d2 91 3c da 17 bd 3a
       -0.010067544 -0.004205396 0.017800493 0.0014426664
000240 fd 4e 22 bb ac 89 55 bc 9b ac 4d 3e 3b 33 d9 b9
       -0.002476632 -0.013033312 0.20085375 -0.00041427635
000250 c8 7e fb 3b 5c e0 3f 3c e9 1d 86 bb 56 d9 a1 3b
       0.0076750256 0.011711206 -0.004092921 0.0049392385
000260 9b 62 9c b9 de 1a 03 3c c0 8b 20 bd 01 de af bc
       -0.00029828105 0.008002011 -0.039195776 -0.021468164
000270 54 ee 01 be 0c 3b 9c 3c 16 c6 82 bc f6 8a 8c 3c
       -0.12688571 0.019071124 -0.015963595 0.017156105
000280 0c 09 24 bc 65 7b c7 3b 52 8c 33 3c 73 d4 1e bd
       -0.010011923 0.006087708 0.010958748 -0.038776826
000290 8e fd 86 bd 2c d1 e1 bd 53 83 eb bd f4 d1 fa bc
       -0.065913305 -0.110262245 -0.114996575 -0.030617692
0002a0 5a 2f 68 b8 93 cd 3f bc b9 ef 80 bc 96 ec a8 3c
       -5.535721e-05 -0.011706728 -0.015739309 0.020620625
0002b0 7a c8 ee 3d 35 b0 cb 3c 35 fb a1 bd e4 6f b3 bc
       0.116593316 0.024864295 -0.07909242 -0.02190394
0002c0 c7 68 b3 3c 35 53 48 bc 3d 34 a7 bb d0 e8 ea 3a
       0.021900548 -0.012226869 -0.005102663 0.0017922167
0002d0 e8 43 d5 3b 72 1a 8b bd 7a c4 45 3c e6 d6 a5 bc
       0.006508339 -0.067921534 0.012070769 -0.020244073
0002e0 f9 e0 fe bc 51 0c 89 bc 6f 19 93 3d 3b ea b1 bd
       -0.031113135 -0.016729506 0.071825854 -0.08687254
0002f0 5c dc 97 3d 57 b7 97 3c cc 6e 01 be 12 de a7 3b
       0.07415077 0.01852004 -0.12639922 0.0051229084
000300 e7 e5 9e 3c 10 0a 1b bd a3 52 0d bd cd 56 78 3d
       0.019396735 -0.037851393 -0.034502637 0.060629655
000310 09 6e 8b 3b 3f de ec 3c 7f cb 4f bd 30 75 76 3c
       0.0042550606 0.028914569 -0.05073118 0.015042588
000320 05 00 15 3d ba 33 7f bb 32 0e a6 bd aa 38 37 3d
       0.03637697 -0.0038940744 -0.08108176 0.044731773
000330 5c 06 9d 3b 80 04 62 bd 37 27 00 3b 37 dc e8 bd
       0.004792018 -0.055180073 0.0019554624 -0.11370128
000340 0a 46 06 3c d0 64 c4 bd 9a ae 8e bd 01 32 90 bc
       0.00819541 -0.09589541 -0.06966896 -0.017601969
000350 a0 95 f1 3d 62 01 a0 bd 54 f6 49 3c 4e 10 cb bd
       0.11796117 -0.07812764 0.012326796 -0.09915219
000360 ee e6 7a 3b 91 fa 26 bb 6d 30 1a 3d e8 08 96 bd
       0.0038284617 -0.002547894 0.03764384 -0.073259175
000370 f7 f1 1a be 5f fd 5b be e7 cf 99 bd f7 70 55 3d
       -0.15131365 -0.21483372 -0.07510357 0.052109685
000380 26 d4 d9 bd 2f 7a 23 be bf a6 41 bc 80 0c 2b be
       -0.10636167 -0.15964578 -0.0118195405 -0.16703987
000390 cd f7 53 be b9 9d 55 be aa 7f da 3d d7 ad 17 3d
       -0.20699997 -0.20860948 0.10668881 0.03703102
0003a0 dd 6e 18 be 9a 44 ce 3d 2d f8 30 bd 72 06 53 ba
       -0.14886041 0.100716785 -0.04320543 -0.00080499717
0003b0 1d 59 e7 bd a9 d5 99 bd d6 7a 73 bd 31 45 08 bd
       -0.11296294 -0.075114556 -0.059443317 -0.03326911
0003c0 a0 26 34 bd 44 40 e4 3c c0 21 06 be 0e 13 01 be
       -0.04398215 0.027862675 -0.13098812 -0.12604925
0003d0 78 98 33 bd 01 b1 4b 38 b6 0c 22 be ca ec 8d 3d
       -0.043846577 4.856382e-05 -0.15825161 0.069299296
0003e0 87 6d 35 3d 1f 3a 42 be 48 50 43 be e9 82 ae bc
       0.044293907 -0.18967484 -0.19073594 -0.021302657
0003f0 28 89 91 bd 37 a0 d9 bd 15 72 52 bd 8c 94 cc bc
       -0.071062386 -0.10626262 -0.05137833 -0.024973176

Encoder.enc1.bias f4 [256]
000000 d9 55 87 bd 45 00 79 be b2 a9 0c be 2d 8e 3c be
       -0.06608171 -0.24316509 -0.13736609 -0.18413611
000010 87 55 99 be 7d 63 a7 bd 4c 19 06 bf b3 0c 66 be
       -0.29948065 -0.08173273 -0.5238235 -0.22465782
000020 aa 44 88 be 82 9a cf be 99 ee b2 be 08 95 ea bc
       -0.26614887 -0.40547568 -0.3494766 -0.028635517
000030 f3 22 59 bd b9 c0 81 be eb 29 93 be 06 f2 8a 3b
       -0.053011846 -0.25342348 -0.28742918 0.004240277
000040 bd bf 11 be 0e 46 0b 3f 5d b8 3c bd f6 d5 39 be
       -0.14233299 0.5440377 -0.04607426 -0.18148026
000050 f3 7a a2 be 36 23 86 be 31 6d fd bd cc 3f ad bd
       -0.31734428 -0.2619874 -0.12374342 -0.08459434
000060 b8 c4 3a be 2e 47 0f be 8f ad 50 bd 18 f8 85 bd
       -0.18239105 -0.13991997 -0.05094677 -0.06541461
000070 c1 e2 01 be ad cb 22 3c 14 2c cf 3e c9 68 11 be
       -0.12684156 0.009936255 0.40463316 -0.14200129
000080 26 94 ed be 6b 9f 84 3e f0 98 8f be 61 e4 39 3e
       -0.4640209 0.25902876 -0.2804637 0.18153526
000090 d3 ee 22 be 76 b0 b1 bc 23 72 e8 bd a6 dd 60 bd
       -0.15911417 -0.021690588 -0.11349895 -0.05489888
0000a0 98 66 59 be d2 65 1f be 81 f4 e6 be 2e fb b4 be
       -0.21230543 -0.15566185 -0.45108417 -0.35347885
0000b0 de 07 80 be f8 c7 9c be f3 bf 88 be 4e 23 bf be
       -0.25006002 -0.30621314 -0.26708946 -0.37331623
0000c0 e0 89 8d be 58 24 c4 bd b4 91 0e bd 64 61 91 be
       -0.27644253 -0.095772445 -0.034806922 -0.28394616
0000d0 a7 b1 83 be a8 2f f4 bd 2c 6f 90 bd db fd 4f be
       -0.25721475 -0.11923152 -0.07052454 -0.20311682
0000e0 9c 3a 09 3e 17 cf 95 be c0 d3 75 be 0a 0f cd bd
       0.13401264 -0.2925956 -0.24006557 -0.10012634
0000f0 55 31 b2 be 0f 9d 4b be be ae c0 be c4 ec 7f be
       -0.34803262 -0.19884132 -0.37633318 -0.24992663
000100 78 49 b3 be 10 8c 96 be e9 6c 47 be 7c 57 33 bd
       -0.3501699 -0.29403734 -0.1947514 -0.043784603
000110 39 e0 ac bd 28 f4 38 be e5 50 1b 3d 56 48 9d be
       -0.084412046 -0.18061888 0.037918944 -0.3071925
000120 2e 17 1b be 4c a3 de bd cb 98 41 be 52 68 0b be
       -0.15145561 -0.1087099 -0.18905942 -0.13614014
000130 6e 44 98 be c0 51 91 3d ee b1 d3 bd 4b 8b 18 be
       -0.29739708 0.07095671 -0.10336672 -0.14896886
000140 83 3b 40 3f b8 c2 0a bd af 9c 01 bd e2 d6 93 bd
       0.7509081 -0.033877105 -0.031643566 -0.0721872
000150 14 5c 37 be 7a f5 9b bd 91 72 95 be 6c 57 b7 bd
       -0.17906219 -0.0761518 -0.2918897 -0.08952221
000160 72 46 a5 be 63 6f 38 bd b3 f3 9c bd 66 dd 17 be
       -0.32280308 -0.0450281 -0.076636694 -0.1483055
000170 8c 8e c3 be d0 95 15 be f7 11 8a be 57 8c 0f 3f
       -0.38194692 -0.1460793 -0.2696683 0.56073517
000180 52 2a b5 bd 6e c5 e5 bd 2b 05 aa bd b5 4c ef be
       -0.088459626 -0.11219297 -0.08301767 -0.4673821
000190 12 6c a8 bd a9 42 f8 bd 16 91 8b 3d 8d b7 2d be
       -0.08223738 -0.121220894 0.06814782 -0.1696455
0001a0 c4 af 7b be 93 0d c4 bd 0a de 42 bc 37 0d 88 be
       -0.24578768 -0.095729016 -0.011893759 -0.26572582
0001b0 06 84 15 be 78 0c 06 bc 4b 52 25 be 6c bf 97 be
       -0.14601144 -0.008181684 -0.16144674 -0.2963823
0001c0 0b 32 71 be 8b cc 90 be 29 31 8e be 8c 5c 67 bd
       -0.23554246 -0.28281054 -0.2777188 -0.056484744
0001d0 ae f2 0e be 3b b3 51 be 12 d8 de bd 43 14 c3 bd
       -0.13959762 -0.20478527 -0.10881056 -0.09525349
0001e0 c7 69 4d be 27 9b 11 bd 83 85 75 bc 19 26 16 be
       -0.20059882 -0.035548355 -0.014985445 -0.1466297
0001f0 9b 12 61 be 9b 63 10 bf ad cb 79 bc de f6 ae bd
       -0.21979754 -0.56401986 -0.015246314 -0.0854318
000200 bb b6 65 be e7 46 40 bc 7f c4 89 bd 20 a6 95 be
       -0.22432987 -0.011735654 -0.06726932 -0.29228306
000210 7c 5d 08 be 24 6c 78 be ce 0e 1c bd c4 79 f0 bd
       -0.13316911 -0.24260002 -0.038100056 -0.11741975
000220 22 b7 29 bd 32 91 91 be e2 d8 d8 bd 88 4b e9 bd
       -0.041434415 -0.28431088 -0.10588242 -0.113913596
000230 a9 92 20 be 8c d4 ca bd 8f f2 03 be 24 f4 3f be
       -0.15680946 -0.09903821 -0.12885498 -0.18745476
000240 b7 6c 62 be 44 24 ab 3d f4 06 6c be d7 f8 ff bd
       -0.22111784 0.083565265 -0.23049527 -0.12498634
000250 c3 06 de bd 9d d6 92 be 58 28 9e be 3c 17 84 be
       -0.108411334 -0.28679362 -0.30890155 -0.25798976
000260 cd 42 4f 3c db 17 ee bb e7 0a 77 bc 6e d8 97 be
       0.012650204 -0.0072660274 -0.015078283 -0.2965731
000270 b7 59 1d bd 01 23 6e be 02 c2 72 be 4c 3c 40 be
       -0.038415637 -0.2325554 -0.2370682 -0.18773001
000280 a0 c3 02 be e9 1c 5c bc b8 eb 4d be 72 b3 37 be
       -0.12769938 -0.013434627 -0.20109451 -0.17939547
000290 c1 f5 69 be 88 70 58 be fb 2d a1 bd 0b bd 41 be
       -0.22847654 -0.21136677 -0.07870098 -0.1891977
0002a0 80 2f bb bc cd 92 5c be 6e 5f d9 bd 59 0c 18 be
       -0.022849798 -0.21540375 -0.10613905 -0.1484846
0002b0 90 d1 e7 b9 0f 7f 15 bd 3d d4 16 be 0b 0b e8 be
       -0.0004421589 -0.036498126 -0.147294 -0.45320925
0002c0 73 90 3d be 80 2e 95 bd 99 13 46 3d 5a 34 c6 bd
       -0.18512134 -0.0728426 0.048358534 -0.09677954
0002d0 d9 fa 53 be f3 6a eb bc 99 55 a1 ba 88 27 48 be
       -0.2070116 -0.02873752 -0.0012308835 -0.1954633
0002e0 f0 e0 8f be 02 98 81 be 5f 2e 90 be ec 80 8e be
       -0.281013 -0.25311285 -0.28160378 -0.27832735
0002f0 5f 3a 80 be 44 3f f9 3b c6 43 45 be 5b 9a cc bd
       -0.25044534 0.007606419 -0.19264135 -0.099903785
000300 19 e3 ce be 17 6e 96 be b8 2b 42 bd 28 e6 3e be
       -0.40407637 -0.29380867 -0.047404975 -0.18642485
000310 76 d7 a3 be 47 45 24 bb ae 02 86 be bd 81 7a be
       -0.3200032 -0.0025065707 -0.2617392 -0.24463554
000320 e6 5f 02 be c2 cc 87 be a6 02 83 be 79 cd dc bd
       -0.12731895 -0.26523405 -0.25587958 -0.10781378
000330 07 78 55 be 33 82 7d be 1e c6 ae be 01 f0 b1 bd
       -0.20846568 -0.24756698 -0.34135526 -0.08688355
000340 8a 54 17 bb 04 f0 b3 bd c2 a8 4c be 76 1c 2a be
       -0.002309116 -0.08786014 -0.19986251 -0.1661242
000350 95 e9 f5 3d 67 02 3f be e4 fb a9 be 69 f1 0d 3e
       0.12007443 -0.1865326 -0.3319999 0.13861622
000360 b9 c7 5b be 7d 32 60 bd e7 e0 10 bd 36 d5 4b be
       -0.21462907 -0.05473565 -0.035370734 -0.19905552
000370 d5 31 e9 be 92 34 13 be 32 8d 48 be 3c 61 39 be
       -0.4554583 -0.14375523 -0.19585112 -0.18103498
000380 08 5c 08 3e fc 5b f7 3d b5 59 85 be e5 43 da bb
       0.13316357 0.120780915 -0.26045004 -0.0066609257
000390 e0 d6 b9 be a5 70 be bd 8c 7a e5 3e db 03 cb be
       -0.3629675 -0.09298829 0.44820058 -0.3965138
0003a0 69 09 5b be 62 8f 86 be 45 22 23 be 2d 9c 9c be
       -0.21390308 -0.26281267 -0.15931042 -0.30587903
0003b0 86 58 f4 bd 3a 6e 1c bf 3c ba f5 bd da bb 2d bd
       -0.11930947 -0.6110569 -0.11998412 -0.042415477
0003c0 44 e0 89 3d 7e a3 3d be 38 56 50 be 59 14 ac be
       0.067322284 -0.18519399 -0.2034539 -0.33609274
0003d0 d5 88 83 be d5 fa 5c be a8 16 b6 be 13 da 0c be
       -0.25690332 -0.2158006 -0.3556416 -0.13755064
0003e0 00 6b be 3d 06 25 bb 3d 7c 49 59 be cd 0c 93 bc
       0.092977524 0.09137921 -0.21219438 -0.01795044
0003f0 02 68 84 be 46 0a a1 be 70 25 ef be 70 ba 07 be
       -0.25860602 -0.3145315 -0.4670825 -0.13254714

Encoder.enc2.weight f4 [40, 256]
000000 fa 7c 7b bc a2 6f fd bc 9d fa 01 bd 90 5b d6 ba
       -0.015349621 -0.03093702 -0.031733144 -0.0016354192
000010 5c 1c 1b 3c c7 f9 0a bd 78 f5 13 3c b3 e5 32 bb
       0.009467211 -0.033929612 0.009030692 -0.0027297556
000020 2c 7c 2f 3d 25 3d e9 bc 91 a2 58 3a e8 e9 56 3a
       0.04284303 -0.028471539 0.00082639704 0.0008198307
000030 ca f9 6a bd ee 5d 9e bc 61 5c 25 3d 49 39 11 3c
       -0.057367124 -0.019331899 0.040371303 0.0088637555
000040 63 cf ec bc 4b 75 55 bb 67 d2 c4 3a 89 35 49 3d
       -0.028907483 -0.0032571133 0.0015016318 0.04912332
000050 25 b7 09 bd a9 b9 ba bc a1 42 7b 3b c9 77 2e 3c
       -0.033621926 -0.022793608 0.0038339274 0.010648676
000060 45 78 0f 3b fe 78 0c 3d 0d 56 13 bb 83 c8 13 3d
       0.0021891755 0.034295075 -0.002248171 0.036079895
000070 6b 91 ec 3c e4 c0 b5 bd c6 ef 9b bb bb 29 82 bc
       0.028877934 -0.088746816 -0.004758808 -0.01588904
000080 05 ba 66 3c 8e f6 d5 39 b9 d3 fc 3c a6 3b d7 ba
       0.014082436 0.00040810223 0.030862676 -0.0016420975
000090 48 e5 b8 3c bd 4f 14 bc e3 f7 11 3b 9d 2e 2f 3d
       0.022570267 -0.009052214 0.0022272996 0.042769063
0000a0 0a 32 27 bd a0 e8 09 3b dc bc e5 bb a4 71 80 3c
       -0.040819205 0.0021043196 -0.007011039 0.015679188
0000b0 2e 23 c1 bc 8d 3e 4b bd 1d 85 8f bb c9 2b f5 bc
       -0.023576345 -0.0496202 -0.004379882 -0.029928105
0000c0 0b 62 f9 3c 51 b0 b8 3a 99 44 42 3c 25 32 63 3c
       0.030442258 0.0014090632 0.011857175 0.013866936
0000d0 26 48 96 bc eb be 91 bd 7c 38 6d bd 69 05 96 3c
       -0.01834495 -0.07116493 -0.057915196 0.018313127
0000e0 a6 18 b0 bb 71 c5 3c 3d 06 2d 89 bd a7 1c 83 bc
       -0.005374032 0.046086732 -0.06698041 -0.016004873
0000f0 81 34 5f 3d aa 46 9f bc 59 21 d2 3a 4c b9 8f ba
       0.05449343 -0.019442875 0.0016031667 -0.0010965257
000100 46 22 16 bd 85 f4 22 3c 0c 2f d8 3b 68 28 46 bd
       -0.03665378 0.009945993 0.0065974053 -0.04837838
000110 74 81 f9 3c d1 70 49 3b f7 55 73 3c bb 03 20 bb
       0.030457236 0.003073741 0.014852039 -0.0024416286
000120 ab 2c 7f 3c 43 38 f6 3c ef d9 cd 3b da 4c 8f 3c
       0.0155746145 0.030056125 0.006282083 0.0174927
000130 20 77 9a 3b 17 96 1d bc 6e a6 de bc 49 82 64 bd
       0.004713908 -0.009618304 -0.02717897 -0.055788312
000140 04 12 36 bc c7 f6 5a bb b8 5b a8 bc 4c 03 95 3c
       -0.011112694 -0.003341125 -0.020551547 0.018190049
000150 18 91 04 bb 06 75 bf 3c a5 cc 1d 3d 6b 22 fe bc
       -0.0020228084 0.02337123 0.038525242 -0.031022271
000160 cf 4e 8b bc aa 70 35 b9 26 47 c2 bc 6e 3d b8 bc
       -0.017005352 -0.00017303476 -0.023715567 -0.02249023
000170 eb 37 34 bd 79 82 b0 3c 47 7e 20 3c b1 68 c8 ba
       -0.04399864 0.02154659 0.009795732 -0.001528999
000180 96 59 32 bb 56 95 79 bc d7 9e 0b bd e0 04 e8 3c
       -0.0027214042 -0.015233358 -0.03408703 0.028322637
000190 f8 74 76 bc c6 19 1e 3d 9b 01 83 bb 99 a4 41 bd
       -0.015042536 0.0385988 -0.003997994 -0.047276113
0001a0 53 ca 37 bd 08 04 aa bc 27 b4 86 bc 04 8d 2f 3c
       -0.044870686 -0.020753875 -0.016443325 0.010714773
0001b0 79 85 2a 3d 0c 1a 4f 3a fa ce f1 3c 30 3a 94 3c
       0.041631196 0.00079003046 0.02951764 0.018094152
0001c0 c7 a2 a7 bb 78 99 a6 3d 4c 21 2a bb fb d6 83 3c
       -0.00511584 0.081347406 -0.0025959788 0.016093722
0001d0 97 c0 a5 3b a6 66 2c bc 2c 3d 3d 3d 88 3b ad bc
       0.005058359 -0.01052252 0.046200916 -0.02114655
0001e0 69 c6 55 3c 22 3d 8f bd 37 7b 57 bd 41 ae 4d 3b
       0.013047793 -0.06994082 -0.05260774 0.003138438
0001f0 82 af 6c 3c 1d 4a 42 bc 09 f4 58 bd 38 0b 64 3c
       0.014446141 -0.01185849 -0.052967105 0.01391869
000200 79 90 b6 3c 49 33 4e bb 49 28 d2 39 2d 6b 2e bb
       0.022285687 -0.0031463674 0.00040084336 -0.0026614175
000210 4d 38 d6 bc 08 27 c7 3c 81 5f aa ba 0c db 1a 3d
       -0.026149893 0.024310604 -0.0012998433 0.037806556
000220 ee 5f 7f bc 77 47 a8 3c 76 7e 4b 3b dd 5e 1d bd
       -0.015586836 0.02054189 0.0031050718 -0.038420547
000230 67 21 97 3c c3 24 b0 ba 37 d5 55 3c f9 12 cd 3c
       0.018448545 -0.001343869 0.013051323 0.02503346
000240 7f 23 93 bc 69 3e f0 3c 8b 3d 94 3c 81 ff e7 3a
       -0.017961262 0.029326634 0.018095752 0.0017700047
000250 0d 62 bc ba 35 dc b3 3c cb a4 63 3d 00 a7 99 bc
       -0.0014372483 0.021955589 0.05557708 -0.01875639
000260 73 1f 46 bc a2 26 88 3c 6a e8 09 3c 4c c9 84 3c
       -0.012092459 0.016619984 0.008417228 0.016209267
000270 e8 5c 00 3b 9c 36 17 bd 11 1b 29 3c 6c 07 ca 3c
       0.0019586626 -0.036917314 0.010321395 0.024661742
000280 ea aa 82 bd e4 00 2e 3d 02 05 1e bb 2c 24 94 bc
       -0.063802555 0.042481318 -0.0024111872 -0.018083654
000290 d6 fe bf 3d 2d d1 0c 39 b5 21 01 3b 37 b6 12 3c
       0.09374778 0.00013429364 0.001970393 0.008954576
0002a0 eb 8a 96 3b 28 a5 31 3c e3 5f 66 3c 7a 72 7d bc
       0.004594197 0.010842599 0.014060947 -0.015469188
0002b0 94 20 1a 3d c5 fb 69 bc de ed 84 3b 27 06 5a bc
       0.037628725 -0.014281218 0.0040566763 -0.013307131
0002c0 bd 32 08 bb 36 56 52 bc fe d1 4a 3d ef 6b 5b bc
       -0.0020782195 -0.012837937 0.04951667 -0.013392433
0002d0 9e c9 2c 38 f0 1e e2 3c e0 9a b4 bc c6 b5 8f 3c
       4.1195766e-05 0.027602643 -0.022046506 0.017542731
0002e0 4f f7 12 bb 98 f3 7b 3c 69 ab a3 3c c7 f0 6a bc
       -0.002242524 0.0153779015 0.019979196 -0.014339632
0002f0 67 32 5c 3d 99 b2 76 bc 30 09 16 3c 9f d2 9a bc
       0.053759005 -0.015057229 0.009157464 -0.01889926
000300 d3 13 8b 3c c6 51 73 3d 38 c6 0c bd 22 5a 81 bd
       0.016977226 0.059404157 -0.034368724 -0.063160196
000310 79 a9 81 bb ce 5f 1d 3c cd f9 11 bd a0 94 69 3c
       -0.0039569703 0.009605361 -0.03563862 0.014256626
000320 28 d0 8a 3c 83 3e b3 3c d1 05 a3 3c 72 cb 0b bd
       0.01694496 0.021880394 0.019900234 -0.034129567
000330 ae 9a 4a bc c4 b0 b7 bd cd 87 cf 3b c0 39 a9 3c
       -0.01236598 -0.08969262 0.0063333274 0.02065742
000340 29 37 17 bc 4e 00 9f bc 0f 72 df bb 5b f4 31 3d
       -0.00922946 -0.019409325 -0.0068190168 0.043445926
000350 9c 81 2d bb 19 f1 89 3b e2 f1 92 bc a5 e6 2d 3b
       -0.0026474958 0.0042096493 -0.017937604 0.002653518
000360 08 3a 3d 3b ef 40 21 bc 22 28 5b 3c b8 46 ba bd
       0.00288737 -0.0098421415 0.013376268 -0.0909552
000370 94 da 1c 3d 52 b6 2e 3d d0 8c a1 3c 2d 40 41 3c
       0.03829439 0.042654343 0.019720465 0.011795086
000380 72 8d b9 bb 70 86 81 bb 76 16 78 bc 27 d6 f9 bb
       -0.0056626135 -0.003952794 -0.015142074 -0.007624406
000390 a3 5b bc 3c da bb 23 bc f0 b3 0b bc 5d 48 32 3b
       0.022992915 -0.009993518 -0.008526787 0.0027203776
0003a0 91 95 26 3c ff b1 95 bc 00 28 3d 3d 09 73 09 bc
       0.010167495 -0.018273352 0.046180725 -0.008389243
0003b0 33 88 87 3a 97 ee 13 bb 01 03 4f 3b 0a f8 b3 3b
       0.0010340273 -0.002257263 0.0031587484 0.005492215
0003c0 de 18 7a 3c 7c 0a 3f bd 14 e6 2f bc a4 9f c0 3c
       0.015264718 -0.046640858 -0.010736007 0.023513623
0003d0 c6 ef 60 bc 97 31 10 bc b3 1b f8 3b 82 05 d9 3c
       -0.013729041 -0.008800886 0.0075716614 0.026491884
0003e0 c1 4d 7e 3c 2d 88 14 3c c2 c6 cb 3a b1 6d 96 bc
       0.015521468 0.00906567 0.0015546905 -0.018362852
0003f0 f1 cc 74 bc 01 3a 5b 3d 64 8d ad 3b 65 79 d2 bc
       -0.01494144 0.053522114 0.005296396 -0.025692651

Encoder.enc2.bias f4 [40]
000000 26 f1 4b 3c 6c 54 17 3b f7 23 19 bc 89 69 74 3c
       0.012447631 0.002309109 -0.009346954 0.01491774
000010 80 66 da 3b 66 33 37 3d 84 c1 6a bc db 23 99 bb
       0.006665051 0.04472675 -0.014328364 -0.0046734638
000020 dd 11 47 3d 44 d9 bc bc 0d da dd 3c db e3 59 3c
       0.04860102 -0.02305282 0.027081514 0.013298954
000030 b3 f0 c9 3a dc f4 9c bd 01 fd 0b bc 19 ad 9d 3c
       0.0015406817 -0.07663891 -0.008544208 0.019247578
000040 d6 73 91 bc c4 c2 da bb b1 12 70 bc 40 6a 1a bd
       -0.01775543 -0.00667605 -0.014652894 -0.037698984
000050 bd 5a b2 bc aa 03 80 bb b0 a1 d5 be 67 c5 ce bc
       -0.021771783 -0.003906687 -0.4172492 -0.025240613
000060 0c 4a af bc de 8b 9e be b5 7a d1 bc dd 5e 60 bc
       -0.021397613 -0.30966085 -0.025571207 -0.013694492
000070 23 e4 cb be 1f 4a 74 bb b4 43 91 be af fa 9c bc
       -0.39822492 -0.0037275625 -0.28371966 -0.019162504
000080 8e a2 a9 bc d9 b1 b3 be e5 97 fa 3a b5 ba c5 bc
       -0.020707395 -0.35096624 0.0019118754 -0.02413688
000090 4b 45 c4 be 82 cf 02 bc fb 8d 30 bc a1 fa bc be
       -0.38334116 -0.007984044 -0.010776038 -0.36909965

Decoder.dec1.weight f4 [256, 20]
000000 c2 51 88 bb e1 e3 48 bb 7f 53 8f 3d 78 68 7b 3b
       -0.004160137 -0.0030653405 0.069983475 0.0038361829
000010 ed e0 82 bb 6c 77 9d 3c ac 8d 14 bb 36 8f e6 3b
       -0.0039940984 0.019221984 -0.002266745 0.007036115
000020 c7 a4 ff b8 8c 0b 59 3b 95 1d 2b bc 01 8d 4a bb
       -0.0001219004 0.0033118455 -0.010444065 -0.0030906799
000030 6d 04 93 ba 60 34 68 3b c7 42 d2 bb 8b 2c 60 bb
       -0.0011216529 0.0035431609 -0.006416652 -0.0034206237
000040 b2 69 5f bb 1a 9d 6b 3b ee de 58 b9 b7 6a 5a bb
       -0.00340901 0.0035951794 -0.00020682413 -0.0033327767
000050 09 b4 b4 3b 83 4b 8e 39 1a c8 7b b9 e9 ca 2f bb
       0.005514626 0.0002714061 -0.00024011769 -0.0026823825
000060 34 5f e7 ba fc 1e c3 3a 8e af 02 bb 4d f8 a3 39
       -0.0017652274 0.0014886553 -0.0019941065 0.0003127478
000070 d7 c5 58 3a 21 88 5b bb 52 5a 06 bb 86 cb ad bb
       0.00082692265 -0.0033497887 -0.0020500612 -0.005303803
000080 40 ec 85 bb 3e 4c 31 3b 19 9b dd ba 15 12 c1 bb
       -0.004087001 0.00270535 -0.0016907185 -0.005892048
000090 a0 4e a2 bb 9c 04 f6 3a d5 69 8d 3a 92 44 e8 bd
       -0.0049532205 0.0018769684 0.0010788987 -0.11341204
0000a0 98 46 83 bb 39 99 85 bb b2 62 3d 3c e8 f6 48 3b
       -0.004006218 -0.0040771035 0.011559175 0.0030664746
0000b0 ec e5 2c 3c 6c 8b 29 3d d4 37 aa 3c f1 89 02 bc
       0.0105528645 0.04139273 0.020778574 -0.007967458
0000c0 7c 3b 71 3e 8e 1f cc ba 97 4b 33 3d c3 c1 5c 3b
       0.23557848 -0.0015573369 0.04377326 0.0033684827
0000d0 9b 35 b6 bb 55 6e 41 ba 40 29 1c bc aa 75 11 3a
       -0.0055605895 -0.00073788065 -0.009531319 0.00055488443
0000e0 ca d9 22 b9 80 d9 17 bc 5a 69 41 bc 3d 97 2e 3c
       -0.00015530657 -0.009268165 -0.011804903 0.010656175
0000f0 73 ef f8 39 d1 bf 15 bc 45 81 54 bd 2b 0c ae bb
       0.0004748065 -0.009139971 -0.051881094 -0.005311509
000100 da 2c a1 3b 09 7b a6 3c 23 f7 18 bc cb f3 81 bb
       0.004918677 0.02032234 -0.009336266 -0.00396583
000110 41 65 0e bb f6 8a 75 ba a9 98 18 ba 52 27 a9 b9
       -0.0021727832 -0.0009366715 -0.0005821088 -0.00032263488
000120 87 15 a3 3a d0 94 77 39 54 30 dd ba 72 08 9e bb
       0.0012442329 0.00023611193 -0.0016875365 -0.004822784
000130 17 b1 6d 3b ee f4 41 3b 16 98 dd bb 83 9e 47 3b
       0.0036268884 0.0029595452 -0.006762515 0.003045947
000140 26 1d 8e bb 79 de a0 bb 81 36 65 bc f8 38 38 bb
       -0.004336971 -0.0049093333 -0.0139900455 -0.0028110128
000150 c4 c8 11 bc 6a 5c 00 be 5a a0 ef 3a 0b 8e 0b ba
       -0.008897964 -0.12535253 0.0018282041 -0.0005323595
000160 8f 13 f9 3b 55 22 30 3b a0 f0 c8 bd b5 94 c8 38
       0.0076012085 0.0026875932 -0.098115206 9.564442e-05
000170 fc 76 6d 3b 67 8d 1f 3c 1c 88 b6 bb 68 ca 41 bc
       0.003623425 0.009738303 -0.0055704247 -0.011828043
000180 0d 12 b2 bb 40 af 10 3c fe a6 9c 3b 04 60 56 be
       -0.0054342807 0.008830845 0.004780649 -0.20935065
000190 cb f3 d9 ba eb b0 38 bb 5a 6b 49 bd a6 cb 36 3b
       -0.0016628442 -0.0028181623 -0.049174644 0.002789238
0001a0 e3 e2 ec ba ad 49 49 bb 7e 84 37 38 c2 dc 46 3b
       -0.0018072989 -0.003071408 4.3753993e-05 0.0030343984
0001b0 d8 43 8e 39 7f 11 73 bb 7d 7a cd 3b 23 9e b1 3b
       0.00027134898 -0.0037089286 0.0062707053 0.0054204627
0001c0 de 12 b3 ba ec ee 76 3b e0 95 7e 3b 94 66 3b bb
       -0.0013662239 0.003767903 0.0038846657 -0.0028595077
0001d0 ec 68 0e 3a c3 e9 0f 3b e4 cb 1a bb 0f 11 99 ba
       0.00054325047 0.0021959401 -0.0023620063 -0.0011678057
0001e0 e5 99 d3 bb 4d f4 3d 3c 89 04 37 bb 46 08 70 bc
       -0.0064575546 0.01159389 -0.0027926287 -0.01465041
0001f0 54 c3 44 bc ad f6 50 3c 9a 24 a0 3c dd 8e 9a bc
       -0.0120094605 0.012754125 0.019548703 -0.01886695
000200 ef 82 55 3e 7c 6a 95 3a 23 56 e4 ba 83 45 4c 3c
       0.20850728 0.0011399533 -0.001742069 0.012467745
000210 03 38 89 3b 93 55 da ba ae 02 be bb ec 1e e6 3a
       0.0041875853 -0.0016657583 -0.0057986593 0.0017556823
000220 77 aa 68 bd 92 2f ab ba 85 51 0a 3c 98 b9 c0 bc
       -0.056803193 -0.0013060442 0.008442287 -0.023525998
000230 12 16 96 3b c2 8f 30 bb 53 35 2a 3d 56 02 61 3b
       0.0045802677 -0.0026941155 0.04155476 0.0034333668
000240 02 45 22 bb c3 9f 7f 3d de 34 2e bc b9 60 22 bc
       -0.002476037 0.06240822 -0.010632722 -0.009910756
000250 ec 13 6d 3c 46 44 7b 3b e9 59 3a 3d 61 db 7d 3b
       0.014470082 0.0038340255 0.0454959 0.0038735496
000260 b3 e4 1d bc 3e 06 7f be e9 42 2a 3c 6c 1a 8d 3c
       -0.009637046 -0.24904725 0.010391929 0.017224513
000270 7d 81 24 bd c5 a4 a8 bb b5 ab 35 bb 97 8e bd bc
       -0.040162552 -0.005146595 -0.0027720754 -0.023139281
000280 a4 7d b1 3a 57 82 b2 b8 7a de ae bb 1f 3d 19 bb
       0.0013541472 -8.511979e-05 -0.00533658 -0.0023382378
000290 b8 e7 65 ba 5a 89 d1 bc d4 d7 1c 3a ef 6c 58 ba
       -0.00087701855 -0.02557819 0.00059830886 -0.00082559785
0002a0 6d df eb 39 de e1 c7 ba 3b 26 01 bd 43 fd 15 39
       0.00044989158 -0.0015249809 -0.0315306 0.00014304095
0002b0 64 a9 a5 b9 81 75 cb 3a 14 b1 ab 38 e7 0a f7 b8
       -0.00031597458 0.001552269 8.186899e-05 -0.000117799085
0002c0 1a 5f 9d 3b e5 98 8e bb b9 4e d7 ba f7 66 1e 3b
       0.0048025968 -0.0043517225 -0.001642666 0.0024170259
0002d0 6b 44 71 ba 3e 89 29 bb f0 3a a3 3d 53 ea a0 3a
       -0.00092036155 -0.0025869156 0.07970226 0.0012276865
0002e0 03 63 07 bc 8c 8b 4a 3c db da 0e 3b 39 19 c9 bb
       -0.008263352 0.012362372 0.0021797928 -0.00613704
0002f0 31 7f 94 b9 72 97 e7 3a ef 97 88 bb 85 40 d6 3a
       -0.00028323525 0.0017669036 -0.0041685025 0.0016346133
000300 ba 5b f2 3b e5 2c 93 39 ad 45 05 bc cf 50 95 bb
       0.0073961886 0.00028071474 -0.008134288 -0.0045567523
000310 03 87 b0 bb 93 ce bc b8 91 53 77 3a 63 5d e6 3b
       -0.0053871884 -9.003016e-05 0.00094347546 0.0070301755
000320 6d 95 20 3a a8 02 23 39 a4 b8 58 b9 5a a0 a6 3a
       0.0006125782 0.00015545881 -0.00020668149 0.0012712583
000330 d2 33 00 bb 22 7d 28 3a a2 dc 1d 3a 99 31 12 bb
       -0.0019562137 0.00064273376 0.00060219516 -0.0022307395
000340 26 96 48 3b b6 78 4d 3b 07 7f 85 bb 37 d6 ad ba
       0.0030607074 0.0031352467 -0.0040739807 -0.0013262694
000350 82 1a 2d bb f0 52 c0 3b cc 45 45 ba db 4d 27 3a
       -0.0026413505 0.005869262 -0.0007525354 0.0006382146
000360 f3 44 73 bb 81 22 62 3b f0 93 66 3b f1 c7 df bd
       -0.0037119954 0.003450543 0.0035183392 -0.10926808
000370 ba 2a 33 3a 02 03 81 3b 8d 58 bb bb 98 86 56 bb
       0.0006834675 0.003937126 -0.005717343 -0.0032734033
000380 08 a5 a0 ba 00 f4 46 3d c6 2b 0e 3c ff b1 a9 39
       -0.0012256214 0.04857254 0.008677429 0.0003236681
000390 d1 26 34 3b 92 0a 35 3a 89 47 48 bd 88 88 22 b9
       0.0027488957 0.0006906177 -0.048896346 -0.00015500386
0003a0 dd 2b 60 3b c0 34 00 3a f0 ea 70 3b cc ee a1 bb
       0.0034205832 0.0004890673 0.0036761127 -0.004941797
0003b0 d2 76 55 bb c9 49 79 ba 08 d9 8b 3a 3f 9a e1 3a
       -0.0032572043 -0.0009509591 0.0010669539 0.0017212107
0003c0 c1 92 aa ba 01 5b 14 3c cf d7 01 bc 1a d1 10 bc
       -0.0013013707 0.0090549 -0.007924988 -0.008838916
0003d0 35 a4 ef bb 1b 7e a7 3c ce b9 62 bc bb 83 bc 3b
       -0.007313276 0.020445874 -0.013838245 0.005753008
0003e0 ce 19 2f 3c c2 06 8e 3c b6 03 09 bd 7a 06 b2 3a
       0.010687305 0.017337207 -0.033450805 0.0013582252
0003f0 cc 46 6b ba 70 75 cc ba b3 4a a6 bb d2 5b 90 b8
       -0.0008975088 -0.0015598964 -0.005074823 -6.883558e-05

Decoder.dec1.bias f4 [256]
000000 1a 0c de bb 27 1b bc 3c 3f 34 b8 be 45 aa 81 bb
       -0.006776345 0.022962166 -0.3597736 -0.0039570653
000010 77 b1 17 be 75 a7 92 3b fd 8d be be 54 60 c4 be
       -0.14813791 0.004475529 -0.37217703 -0.38354743
000020 64 8b 86 3c da fb 6a bc 8c 9c 9c 3c 31 49 47 bc
       0.016423889 -0.014342273 0.019117616 -0.012163446
000030 11 dd 1c bd 30 d6 88 3c 27 bc c4 bd 4d 40 f1 3a
       -0.038296763 0.016703695 -0.096062 0.0018406004
000040 dc 5a 5f 3b 02 10 93 bb 48 b6 d3 ba e6 6d 9e 3c
       0.0034081256 -0.0044879923 -0.0016152347 0.019339513
000050 0b b3 10 bc 12 b2 e7 3c 62 9f 54 b6 36 c6 c6 be
       -0.00883175 0.028283153 -3.1683235e-06 -0.38823098
000060 31 57 41 bc ff 3c dd 3b f5 42 5a bf 92 ef bf 3c
       -0.011800573 0.006751656 -0.8525842 0.023429666
000070 75 4e 99 bb 00 b1 81 bb 5f 95 eb 3c 0a c3 c2 3c
       -0.0046785423 -0.0039578676 0.02875775 0.023774642
000080 aa 3e cc bd 5c 5e ad bc dd 00 5b 3b 2f 43 ed be
       -0.0997289 -0.021163158 0.0033417263 -0.4634032
000090 48 4f ff ba ae 08 b2 be 3a 8b d3 be b4 9b bd 3c
       -0.0019478584 -0.34772247 -0.4131716 0.023145534
0000a0 9a 98 ad 3a c5 d4 62 bb fb c6 9c bb 07 fc 41 3b
       0.0013244331 -0.0034611684 -0.0047844625 0.0029599683
0000b0 55 75 88 bd 99 d2 c3 3c 5a d3 8d ba 68 be b9 39
       -0.06663004 0.023904132 -0.0010820434 0.00035427813
0000c0 d4 11 04 3d 09 03 f2 ba f5 dc 48 ba 01 34 29 bd
       0.032243565 -0.0018464039 -0.00076623197 -0.04130936
0000d0 62 b6 88 3c 4f 43 a6 bc 7a 2d a8 3b 6d 55 e2 be
       0.01668853 -0.020295767 0.0051323744 -0.442058
0000e0 0f 8b 6f 3b 1a b1 47 bd 40 68 fe bd a2 50 97 be
       0.0036551391 -0.04875288 -0.12422228 -0.29553705
0000f0 e3 70 13 3d 16 ec 48 be fc 05 bc 3c c7 fd 39 bd
       0.03599633 -0.1962131 0.022952072 -0.045408037
000100 65 8b a3 3c 86 f7 d1 3c a6 b6 5d be ea f7 1a be
       0.01996393 0.025630724 -0.21651706 -0.15133634
000110 23 6f c4 3b 23 c5 bb bc 83 3c b6 3b 35 01 67 3b
       0.005994694 -0.02292115 0.005561413 0.0035248522
000120 13 e5 09 bd 52 cc 8f be 8c aa b9 3c e2 e9 f5 be
       -0.033665728 -0.28085572 0.02266433 -0.4803
000130 d3 29 32 bf 2e fd 21 bc 23 da 2b 3b 84 e2 29 bc
       -0.6959507 -0.009887023 0.002622255 -0.010368947
000140 6d 9c b9 be e2 5e ce bb 9a 86 aa 3c b4 24 33 bc
       -0.36252156 -0.006297932 0.020816136 -0.010934044
000150 2b be d6 3c 6c 25 20 3a 7c ad 3f bd 18 70 c7 3c
       0.026213726 0.0006109092 -0.046796307 0.024345443
000160 35 41 dd be 78 55 80 ba f6 e5 a1 bd 81 98 1a bc
       -0.43213812 -0.0009791097 -0.0790519 -0.009435774
000170 8c 9a 00 3b 9d db 09 bf 90 b0 49 3b 77 fb 36 bb
       0.0019623367 -0.5385073 0.0030775405 -0.002792088
000180 56 13 b2 3b cd 07 94 be 6b 45 ab be 13 46 e7 be
       0.005434434 -0.28912202 -0.334514 -0.4517065
000190 c1 87 a6 bd 0e c1 a3 3c 8d 28 09 3b 13 a4 2a bf
       -0.08131362 0.019989517 0.0020928711 -0.6665661
0001a0 cc 28 c3 bb 92 cb 2d 3c 59 3e 2b bb 41 e9 6b bb
       -0.005955791 0.010607617 -0.0026129691 -0.0035997184
0001b0 4e 12 74 bb f9 0c da be ed ae f3 be b3 f1 a6 3c
       -0.0037242356 -0.42588022 -0.47594395 0.020378923
0001c0 2a 9b 93 3c 4e ab e0 3c ad 77 14 be 5d a3 82 bc
       0.018018324 0.027425434 -0.14498778 -0.015947038
0001d0 80 63 96 be bf 74 c7 bd 8a 6d 26 bc 41 ff 1e bb
       -0.29372787 -0.097390644 -0.010157952 -0.002426103
0001e0 3c c3 a9 3b f2 f9 40 ba 2e 57 aa 3c db 0c 82 3c
       0.0051807445 -0.00073614635 0.020793524 0.01587527
0001f0 c4 7f b1 bc 46 de 25 bc 21 ff 06 bf 87 62 d8 3c
       -0.021667369 -0.010123795 -0.52733046 0.026414169
000200 04 65 4f bd b0 ad cb be e1 c7 d7 bb 17 85 55 bd
       -0.050633445 -0.3978095 -0.0065851067 -0.052128877
000210 fe 1a 6c be 67 20 9d be f9 38 58 3b a3 82 4b be
       -0.23057172 -0.30688784 0.0032992943 -0.19874053
000220 00 b1 7d bc 7f 97 13 3c db 8d a2 3b 84 11 bc 3c
       -0.015484095 0.009008287 0.004960758 0.02295757
000230 78 5e e2 3c 03 03 c5 3a 9d f3 b8 3c fa 85 14 3c
       0.027632937 0.0015030805 0.022577101 0.009065146
000240 a1 b2 ce be e8 c3 1a be ff da d8 be e7 23 16 3c
       -0.40370658 -0.15113795 -0.4235458 0.009163833
000250 c7 95 0d be fb 6a b3 3c 01 e9 b8 bb 57 9d a3 bb
       -0.13826667 0.021901598 -0.0056430106 -0.0049931216
000260 f0 9a bf bc 12 83 c7 be 5c aa c1 bd cd a6 97 be
       -0.02338931 -0.38967186 -0.094563216 -0.29619446
000270 c1 84 25 be 27 13 59 bb e1 9f 80 bd 18 86 79 bc
       -0.16163923 -0.0033122988 -0.062804945 -0.015229724
000280 de 1e 92 bc c5 22 a5 3c 34 b8 c5 3c 13 bb a2 39
       -0.017836984 0.020158181 0.024135686 0.0003103843
000290 d3 b4 ce bd 1a 04 a9 be c8 e5 eb be 96 41 bb 3b
       -0.10093083 -0.33010942 -0.46073747 0.0057146056
0002a0 6d f8 96 3c ae 13 e3 3c a2 36 2c bb ae b9 dd 3c
       0.018429006 0.027719345 -0.002627768 0.027066078
0002b0 6b 0b c0 3c 05 18 be 3c 76 0b 04 bc 0b 48 26 bc
       0.023442945 0.023204813 -0.008059373 -0.010149012
0002c0 f2 60 dc 3c 1e d5 e3 bd 16 e9 4a ba 8a b5 8f bc
       0.026901696 -0.11124633 -0.0007740421 -0.01754262
0002d0 be 03 89 bf c5 dc e5 be 21 32 10 bc 7a 50 9f bd
       -1.0704267 -0.44894996 -0.008801014 -0.077790216
0002e0 46 66 dc bc 42 b7 47 3b d0 f6 47 bc fe 43 dd 3c
       -0.026904237 0.003047422 -0.012204841 0.02700996
0002f0 04 a6 ea ba 3d 3f 14 bd 0d 3a f1 be 99 50 4f 3b
       -0.001790226 -0.03619312 -0.47114602 0.0031633733
000300 14 1b 14 bb 6c 07 0b bf 66 f3 e1 be f1 7a e0 bd
       -0.0022599148 -0.543082 -0.4413101 -0.10960949
000310 30 8d 04 bf a4 e6 dc 3c a9 d3 d1 3c 8f 26 ee 3a
       -0.51777935 0.026965447 0.025613623 0.001816945
000320 a8 5e 57 bb 15 7d e1 be 6d 66 c0 be 70 bb cc bd
       -0.0032862816 -0.44040743 -0.37578145 -0.09996688
000330 8d 08 5d bb bb a1 f0 3c 53 e9 8f 3c 58 34 f7 3c
       -0.003372702 0.029373994 0.017567312 0.030176327
000340 bb 73 46 bd de f6 ba bd 09 07 3c 3b 9b 52 a4 3c
       -0.048450213 -0.091291174 0.0028690717 0.02005892
000350 b0 75 0c bb d2 7a 2a bc 88 0c ba be f4 7d c1 be
       -0.0021432452 -0.010405259 -0.36337686 -0.37791407
000360 8d 0f 24 bf a0 02 d1 3c bc 7b 87 3c c0 ef a6 bc
       -0.6408623 0.025513947 0.016538493 -0.020377994
000370 a7 60 07 bf 83 3a dd 3c d6 a0 82 3b e2 75 df 3b
       -0.52881855 0.02700544 0.0039864583 0.0068194726
000380 f2 ce d0 be 8a d9 8f bf 6b e0 aa be a0 0c c7 3a
       -0.40782887 -1.1238263 -0.33374342 0.0015186258
000390 f7 f2 42 bd 44 df 55 bb df f7 df 3c ee cc 6b bb
       -0.04759499 -0.0032634297 0.027339874 -0.0035980302
0003a0 1b 91 0c 3c 5c 27 da be 33 cb 81 bd 1f 55 7e 3a
       0.008579518 -0.42608154 -0.06337585 0.0009702015
0003b0 c4 df 40 bc e5 cf d1 3c 3f bf 6a 3b 1d f5 23 3c
       -0.0117721 0.025611827 0.0035819558 0.01000717
0003c0 40 b7 a7 3c 82 8d 27 bf 43 a7 96 be c8 79 22 3c
       0.020473123 -0.654503 -0.29424486 0.00991673
0003d0 7b 3c a5 bb ad 09 d5 be 6d 7f d2 bb b5 27 cf 3c
       -0.00504261 -0.41608945 -0.0064238817 0.025287488
0003e0 a3 f5 d4 3c 76 03 57 bb 4a 6c 17 ba da aa ba 3c
       0.025996035 -0.003280846 -0.0005776329 0.022786546
0003f0 1a 39 08 bf 11 62 ca 3c 42 4a 9d 3b e6 4d db ba
       -0.5321213 0.024704965 0.004800112 -0.001673159

Decoder.dec2.weight f4 [31, 256]
000000 2a 30 c3 3e 5c 6f b9 3d 8e b2 f1 3c f8 85 12 be
       0.38122684 0.09054443 0.029504087 -0.14308918
000010 c5 56 9a 3d 7b d2 7a bf 92 04 41 3d 3f 5a a1 bc
       0.07536081 -0.9797742 0.0471235 -0.019696353
000020 1e 5a 4f bf a6 c7 ce 3e 59 eb 84 3d 78 c4 be 3e
       -0.8099688 0.40386695 0.064902015 0.3725927
000030 66 02 d6 3c ff 44 8a 3d b2 64 9a 3e 8c f9 5e bf
       0.02612419 0.06751441 0.3015495 -0.8709953
000040 b8 cc 16 bf 1d b1 b3 3e 3c aa 3d bf d8 e8 e3 3d
       -0.58906126 0.35096064 -0.7408788 0.11128396
000050 63 fa 55 bf 04 5c 70 3d cb 74 c3 3e d3 f0 b8 3d
       -0.83585185 0.058681503 0.38175043 0.090303086
000060 ea cf 23 bc fa 76 6b bf 16 ef 17 bf 79 39 13 3e
       -0.009998301 -0.9197842 -0.5934919 0.14377393
000070 75 5f 20 3f 45 21 15 3e ee 37 cc 3d a8 cc 30 3e
       0.62645656 0.14563473 0.09971605 0.1726557
000080 ea c8 91 3d 75 a1 e9 3e 29 b1 3f bf 77 ac 42 bc
       0.071183994 0.45630994 -0.748797 -0.011881939
000090 8b fd d2 bd 06 38 2e 3d 12 bd e8 3c 70 7b bc 3d
       -0.10302266 0.042533897 0.028410468 0.09203231
0000a0 a6 3c 12 bf 0c a5 48 3f 56 ee 05 3e 08 1c 40 bf
       -0.5712379 0.7837684 0.13079199 -0.7504277
0000b0 50 54 2a 3e 98 c2 90 3d 87 a6 fc 3e e5 e6 08 be
       0.16633725 0.07068366 0.493458 -0.1336933
0000c0 86 b3 36 3e 19 f3 3a bf 3e 2d 4f 3f 3b be 92 3d
       0.1784192 -0.7302719 0.8092841 0.0716519
0000d0 e4 50 b0 3d 54 b4 76 bd 42 06 f2 3e fc 2b 37 3d
       0.08609179 -0.060230568 0.472704 0.04471968
0000e0 07 ef e0 be 61 bf 88 be 2a c3 03 be fe c0 44 3d
       -0.43932363 -0.2670851 -0.12867418 0.048035614
0000f0 d7 9e 80 3d 19 55 60 be 99 0d 15 3d a8 19 b8 be
       0.06280296 -0.21907462 0.03638992 -0.35957074
000100 43 76 12 3e 81 29 23 3e 3f 18 01 3d 8e 55 1d 3d
       0.14302926 0.15933801 0.031517264 0.03841167
000110 da d2 16 bf f0 77 f9 bc 2f ee 14 3f 85 6f 3f bf
       -0.58915484 -0.030452698 0.5817594 -0.7477954
000120 50 2e 5c 3d cf c9 4a 3d ba 4e 04 3e 3f e2 e1 bd
       0.053755105 0.049508866 0.12920657 -0.11029481
000130 84 0e 0f bf 02 fc 13 3e f5 48 26 bf 37 12 ad 3e
       -0.55881524 0.14451602 -0.64955074 0.3380296
000140 7e 26 03 3c bc 8e a8 3e 0a 97 00 3e 5f 1d 12 3f
       0.008004783 0.32921398 0.12557617 0.57076067
000150 df df 05 3e bf a8 18 bf 78 c5 6b 3e 17 7a 12 3e
       0.13073681 -0.59632486 0.23024547 0.14304386
000160 c2 a0 0a 3e 05 22 4e 3f 2f 13 69 be 02 a2 21 be
       0.13537887 0.8052066 -0.22761224 -0.15784457
000170 f5 86 c1 3e d2 fc b3 bc f9 d5 57 bf 52 ef 46 bf
       0.37798277 -0.02197114 -0.8431087 -0.77708924
000180 20 05 8b bf a5 8e 21 3d 11 a5 9f 3d 42 e4 c3 3b
       -1.0860939 0.039442677 0.07795156 0.005978138
000190 dc 62 a8 bd b2 d0 d5 3d c5 f4 fb be f7 79 39 3d
       -0.08221981 0.10440196 -0.49210182 0.04528233
0001a0 b1 5b 12 3f 53 c3 cb 3e 2b a8 3a 3e 35 2d 54 bf
       0.5717116 0.39797458 0.18228213 -0.8288148
0001b0 00 ca 2a 3e 6a 71 57 bd 17 c9 41 3d 6b 4e ad 3d
       0.1667862 -0.052598394 0.047310915 0.08462223
0001c0 a6 16 ce 3d 57 ab 6a 3d ec e4 c7 bd 6c f6 d5 bd
       0.100629136 0.05729231 -0.0976046 -0.10447392
0001d0 86 28 fa 3c 27 a1 c4 3c ad dd 4f bf 6b 15 0a 3f
       0.030536901 0.024002625 -0.81197625 0.5393893
0001e0 ac 12 2e bf d6 72 2f bf 4c 6f 12 3e 52 df 67 3d
       -0.6799724 -0.685346 0.14300269 0.05660946
0001f0 31 48 06 3e 2b 49 ba 3e f3 75 60 3e ee 7b ad 3d
       0.13113476 0.36383948 0.21919994 0.08470903
000200 4e 9f b7 be de e8 48 3e 5b 9d 2d 3e 77 d9 54 3d
       -0.35863727 0.19620082 0.16954558 0.051965203
000210 79 cd 30 bd 13 07 18 3d bd 6f 37 bf 2e e9 90 bc
       -0.043164704 0.03711612 -0.71654874 -0.017689314
000220 46 d0 ac 3e 07 ae 27 bf 2e 43 50 bf b9 86 08 3e
       0.3375265 -0.6549992 -0.8135251 0.13332643
000230 cc fd e1 3d b5 d1 5a bf 04 04 a3 3d 8e 0c 59 bf
       0.11034736 -0.8547624 0.0795975 -0.8478478
000240 8d 2b 4b bd e2 55 e7 3c c9 db 68 bd 66 47 e5 be
       -0.04960208 0.028239194 -0.05685023 -0.44781035
000250 30 6d 7a be 27 aa cd 3d fb de 83 3e 1a e8 4f bf
       -0.24455714 0.100422196 0.25756058 -0.81213534
000260 62 19 0c 3f 33 5e bd be 58 68 ef bf 41 fd a2 bc
       0.5472623 -0.3698593 -1.8703718 -0.019896151
000270 44 62 32 be 3c 4f b4 3d 71 11 a3 3d d1 fd 59 be
       -0.17420298 0.08804175 0.07962311 -0.2128823
000280 33 ce f2 3e a6 8d be 3d 7e b1 b7 3d 34 a9 aa be
       0.47422943 0.09304361 0.08969401 -0.33332217
000290 c2 90 7a 3e a9 33 f8 bc ed c4 16 bd ef ba d2 3f
       0.24469283 -0.030298071 -0.036808897 1.6463298
0002a0 38 2c e1 3d 10 bc 6f 3d d9 c0 0e bf 81 09 94 3d
       0.10994762 0.05852896 -0.5576301 0.07228375
0002b0 e4 93 d8 3d 38 43 b9 3d 01 0a 32 3f 84 54 2d 3f
       0.10575083 0.09046024 0.69546515 0.67707086
0002c0 ac 8d e8 3d ae 8f a1 bd a0 7d 14 bf 9e 93 5f 3e
       0.11355147 -0.07888733 -0.5800419 0.21833655
0002d0 fc 2c 2d bf ef 75 86 3c 6e 3d fe be 79 83 26 bd
       -0.67646766 0.016413657 -0.49656242 -0.040652726
0002e0 08 50 f1 3d 16 3a 78 bf 47 c8 eb be 29 34 a8 3d
       0.11782843 -0.9696363 -0.46051237 0.08213074
0002f0 c3 04 78 3e 99 0b b2 3d 42 40 a9 bd b1 fa b8 3d
       0.24220566 0.08693618 -0.08264209 0.090321906
000300 7e 10 38 3f cc 9b 2f be 64 27 f3 3c af 69 a6 bd
       0.71900165 -0.17149276 0.029681869 -0.08125626
000310 74 05 95 bd 6e a5 04 3e 69 3e c5 3d 03 85 81 bf
       -0.07276431 0.12953731 0.096310444 -1.0118717
000320 51 7a 50 3e 74 40 2b 3e 96 54 bb bc 96 7b 3d bd
       0.2035916 0.16723806 -0.022867482 -0.04626044
000330 ca 97 10 bf a4 35 c5 3d a1 a2 83 bf f8 cf 08 3e
       -0.5648161 0.09629372 -1.0284005 0.13360584
000340 d7 ac 92 3b 58 90 dd bc e1 c2 86 3f 1b dc 59 3d
       0.0044761705 -0.027046368 1.0528222 0.053188425
000350 4b 54 0f 3f 9b 09 32 3f ef 4a 0f 3e c5 73 26 3e
       0.55987996 0.69545907 0.13993429 0.162551
000360 8a 76 22 bf 02 14 24 3e 23 cb 01 3e eb 79 10 3f
       -0.63462126 0.16023257 0.12675147 0.5643603
000370 6d 27 29 bd 54 3a ec 3d 81 44 46 3f fa 30 d5 bd
       -0.041297365 0.11534563 0.7744828 -0.10409732
000380 4b 02 01 3d b1 3b 3c bf 8a c5 e5 be 7d 99 2d bf
       0.031496327 -0.7352858 -0.44877273 -0.6781233
000390 98 90 22 3d 99 f1 10 bf ac a3 60 3d 30 70 54 bf
       0.039688677 -0.5661865 0.05484359 -0.82983685
0003a0 f5 d5 17 bf fc e3 41 3d 2a a2 4c bd 7e d0 9a 3e
       -0.5931085 0.047336563 -0.04995934 0.30237192
0003b0 0a ad 2d 3f 20 e8 03 3e 05 c4 97 bf 33 e7 fd 3e
       0.6784216 0.12881517 -1.1856695 0.49590454
0003c0 0f 8f b8 3d 3b 96 48 bd 39 b2 39 3d 7c be 5f bf
       0.09011661 -0.048971396 0.045335982 -0.8740003
0003d0 36 20 fe 3e 9c e2 fa 3c 71 3e a6 3e 25 b5 19 3e
       0.4963395 0.030625634 0.32469514 0.15010507
0003e0 ef 68 e7 3d ad 67 2f 3e 7a 76 ec be 8d ce cb 3d
       0.11299311 0.17129393 -0.4618414 0.09951506
0003f0 96 13 1c be ad 08 e3 3d 13 db 58 bf 30 d7 69 3f
       -0.15241846 0.11085639 -0.8470928 0.91343975

Decoder.dec2.bias f4 [31]
000000 2f 26 0d bf 74 10 85 bd 9e 42 28 40 2a 06 3e bd
       -0.5513639 -0.06497279 2.629066 -0.046392597
000010 df 50 e5 40 8f f2 ef be f4 b5 45 c0 5a 8d 25 c0
       7.166122 -0.46864745 -3.0892305 -2.5867524
000020 3e 15 e7 3f 44 42 f3 3e cc ab dc 3f ea 2e 15 c0
       1.8053358 0.47511494 1.7239928 -2.3309884
000030 05 22 3e 40 40 1a 40 c0 d6 f2 b1 bd 2d b3 01 3f
       2.9708264 -3.0016022 -0.086888954 0.50664026
000040 6c 5c b0 bd 8b 95 53 c0 ea 1f c8 bd f9 2e 42 c0
       -0.08611378 -3.3060024 -0.09771712 -3.034117
000050 34 7e 43 c0 67 dc 6b 3b e2 4a de 3c 17 71 26 41
       -3.0545778 0.0035989524 0.027135316 10.40261
000060 46 b3 47 3e 83 fd 34 c0 80 67 42 3e 5f 35 35 c0
       0.19501981 -2.8279731 0.18984795 -2.8313825
000070 9b 9f 80 3f 7d 04 f2 3e 98 0c 10 3f
       1.0048708 0.4726905 0.56269217
