results/3_iid/model_alone_n_2_m_2.pt (torch, 121552 bytes, 8 tensors)

Encoder.enc1.weight f4 [256, 22]
00000000: da24 07bc 1f61 d0bd a103 1cbd f2aa f23b
00000010: d897 c43d 5765 8bbd 1517 d3bd 49d2 c8bd
00000020: d73a ae3c 9efd 8bbc fea9 aabd 2e96 56be
00000030: d702 633b 7494 f0bb 68a5 71bb 26d0 0f3d
00000040: 2d28 1fbe e953 d4bd e081 363d deda 5cbc
00000050: ac8e ab3d 8307 07bd f5a7 efbd fa8b 02bd
00000060: aa5b 82bd db5f 90bd 3441 aebd 87ce c33d
00000070: 6b00 ae3d 81b6 a1bd 8ee0 893d 74b0 f7bd
00000080: cd98 723d 2948 91be 295e 563d 6b56 f7bd
00000090: 55f9 353c fdab a93d 32e7 42be d836 40bd
000000a0: a39d e1bc 705b 5fbd 3420 e13d 5880 c33d
000000b0: ae82 6cbd 6578 12be e82d 1fbd c964 90bd
000000c0: 576e 72be f46f dcbd 4f3b 49bd 2715 f2bc
000000d0: b4d0 b6bd 720e 1f3e a95d 09be 4d2b 6cbe
000000e0: 56fe 2b3e e82d 4fbd 2e8e e33c 0569 f23c
000000f0: d244 bb3d a37f f2bc 8cba ee3d 14f5 1a3d
00000100: 6385 633d 2575 b0bd 3b03 acbd a172 963c
00000110: 1537 42be 66f1 803d e4b8 0bbe 2157 e33d
00000120: e3a2 b5bd 1ae1 17be 041a 243c 6dba 1cbe
00000130: 988c 01be ac59 f0bb 3631 863d 98e7 3c3d
00000140: 9c6f 74bc c7de c1bd d885 583c b2fb 9f3d
00000150: c9f9 383e 28dc 3f3e 9d25 09be cc73 c6bd
00000160: 8b96 b8bc bc5b 1dbc ab65 1bbd 6031 33bd
00000170: c88d aabb 8cc5 003d 5112 e03c fe5b 4fbd
00000180: 0582 86bc c841 5abd 4587 ae3c 2b8c c7bd
00000190: 8bc6 3e3c d59c cabc 125d afbb cc37 15bd
000001a0: ce8f fa3c 9511 1abc ea7a dfbc 6987 c93d
000001b0: a773 4c3e 4770 d63c 952d f23d e794 d83d
000001c0: 4086 c6bd a702 d43d a14f 333c b25b 13bd
000001d0: 6335 8b3d 5e0c f9bc 5828 4dbd bdaa fc3d
000001e0: c25c 56ba ccff ec3d 60d4 47bd 64f5 dc3c
000001f0: 0b5f f9bc 6c76 e13b 6b00 e33c 0349 a8bd
00000200: cc0b 023d a709 ccbc 49e7 46bc ba11 94bd
00000210: 67bc e8bd 56d5 16bd af2e 0c3c a8f9 253d
00000220: 497a da3c 6b36 7e3d affe ca3d ffc9 46be
00000230: f361 41be d22c 3ebd 8011 ffbc 156f b6bd
00000240: fe03 49be b05e 843d da94 f0ba 696a 5dbc
00000250: 172b 10be 6572 fabb 0e8c 073d fe3a 803d
00000260: f814 fc3c b65c 10be 1399 3dbb 3895 203d
00000270: 789b 0dbe 6dd9 253d ede8 83bc fb92 22bd
00000280: b04c a13d 8dd5 f63b abac 48bc a857 a4bb
00000290: 34a6 893d ea08 b3bd fe1f afbc 25d4 523c
000002a0: bd3b 0e3c 1134 93bc 7cd2 493c 38d1 0c3d
000002b0: 65e2 5e3d b122 813c 9d81 93bc c3d6 113d
000002c0: 81c8 b6bd d1cd b0bb d5af 24be 0c34 eabd
000002d0: 064a 83bc 3e14 39bd 850b c63b c806 76bd
000002e0: 2602 b5bb f043 dd3d 4dac 58bc d837 6bbe
000002f0: 041f dfbc 8a7a 96bb 9b34 99bc 7dc5 2b3c
00000300: 922e 86bc 8bab 14bd 7d92 123c 19cc 523e
00000310: c0c4 fa3d 1ae8 3fbd ed0f e9bb 7acb 9ebc
00000320: ac2e 1cbd e32d 853c 0947 ed3b 0691 6d3d
00000330: 161c 5a3d 6820 543b b889 043c 418f 57bd
00000340: c95c 363d bb90 cebd b72f c8bc eb5e ccbd
00000350: f811 663b a9e6 52bc b5fc 363d 1b72 31bc
00000360: fede 483e 88ee e73d 9e88 aa3d 6e36 a23c
00000370: a8b9 d03c e600 d93c 260f b73d 6990 2dbd
00000380: e457 6a3c 757a c53c ef83 533d 3ce5 053d
00000390: 8370 9e3d d5f2 0dbe 56d1 a93c 1018 6ebb
000003a0: 7301 f8bc c983 abbc f712 21bc fc2e cebc
000003b0: 4104 c73c 763c 993c 77c0 b3bc 208a 423d
000003c0: 0a62 db3c 36ed 8f3c 62bc abbc 9641 f9bc
000003d0: 9341 af3c 1b9e ebbd 3031 1fbd 4c38 3d3d
000003e0: d20a d5bc ec34 03bd 6fef 85bc a328 0fbd
000003f0: f998 7e3d 1e1b 923d b0f0 f23b ef5d d4bc
-0.008248532 -0.101747744 -0.0380894 0.007405632 0.095992744 -0.068064384 -0.10307137 -0.09805734
0.021268291 -0.017088708 -0.08333205 -0.20955727 0.0034639144 -0.0073419157 -0.0036872271 0.035110615
-0.1554267 -0.10367567 0.044557452 -0.013479916 0.08376822 -0.032966148 -0.11701957 -0.031871773
-0.0636514 -0.07049533 -0.0850853 0.09560876 0.084961735 -0.07896138 0.067322835 -0.12094203
0.059227753 -0.28375366 0.052335892 -0.1207703 0.011106809 0.08284757 -0.19033507 -0.046927303
-0.027540987 -0.05453056 0.109924704 0.09545964 -0.057741813 -0.1430374 -0.03886214 -0.07050473
-0.23674904 -0.10763541 -0.049128827 -0.029551102 -0.08926526 0.15532854 -0.13414635 -0.23063393
0.1679624 -0.05058089 0.027777757 0.029591093 0.09143986 -0.029601878 0.11656675 0.03783138
0.05554713 -0.086160935 -0.08399054 0.018365206 -0.18966325 0.06296043 -0.13644749 0.11100603
-0.08868959 -0.14831963 0.010015968 -0.15305491 -0.12651289 -0.0073349085 0.06552355 0.046119303
-0.014919188 -0.094663195 0.013215505 0.07811679 0.18064035 0.18736327 -0.13393255 -0.09690055
-0.022532722 -0.009604391 -0.037938755 -0.04374826 -0.00520489 0.031438395 0.027352484 -0.05062484
-0.01641942 -0.05328539 0.021304736 -0.09743532 0.011644016 -0.024732986 -0.005351671 -0.036430165
0.03058615 -0.009403606 -0.02728029 0.098402806 0.19965993 0.026176585 0.118251 0.10575276
-0.09693575 0.103520684 0.010944278 -0.03597612 0.06797292 -0.030401405 -0.050087303 0.12337253
-0.0008177274 0.11572227 -0.04878652 0.02697248 -0.030440828 0.006880572 0.02771016 -0.08217051
0.03174953 -0.024906946 -0.012140104 -0.072299436 -0.1136406 -0.036824547 0.008556052 0.040521294
0.026669638 0.062063616 0.09911858 -0.19412993 -0.18885021 -0.046429463 -0.031136274 -0.08907906
-0.19630429 0.06463373 -0.0018354908 -0.01351414 -0.14078937 -0.0076430314 0.03309255 0.06261252
0.030771717 -0.14097866 -0.002893035 0.039204806 -0.13828838 0.040490557 -0.016102279 -0.039690953
0.07875955 0.0075327815 -0.0122481985 -0.0050153323 0.06721154 -0.087419346 -0.02137756 0.012867962
0.008681235 -0.017969163 0.01231825 0.034379214 0.054415125 0.015763612 -0.01800614 0.035605203
-0.08924962 -0.005395629 -0.160827 -0.114357084 -0.016026508 -0.04518532 0.0060438537 -0.06006506
-0.0055239378 0.10803974 -0.013224673 -0.22970521 -0.02723647 -0.0045922445 -0.018701842 0.010484097
-0.016379628 -0.03629641 0.008946058 0.2058567 0.12244558 -0.04685221 -0.007112494 -0.019384135
-0.038130447 0.016257232 0.007241134 0.057999633 0.05324944 0.0032367948 0.008089475 -0.052626852
0.04452208 -0.10086199 -0.024436815 -0.09979042 0.0035105925 -0.0128723765 0.044674594 -0.0108304275
0.19616315 0.11324793 0.08326839 0.019801345 0.025479153 0.026489686 0.08938436 -0.04237405
0.014303181 0.024106244 0.051639494 0.032689318 0.07736304 -0.13862164 0.020729702 -0.003633026
-0.030274129 -0.020936863 -0.009831182 -0.025168888 0.02429402 0.018705588 -0.02194236 0.047495008
0.026780147 0.017569166 -0.020963851 -0.030426782 0.021393573 -0.115047656 -0.03886527 0.046196267
-0.026006136 -0.032032892 -0.016349522 -0.034950864 0.062157605 0.071340784 0.007413946 -0.025923697

Encoder.enc1.bias f4 [256]
00000000: 2d58 f0bd a338 c5bd 7e56 a7be 8272 5a3e
00000010: e34b 5fbe a751 8a3e 37d0 0cbe c541 94be
00000020: f773 19bd 5a22 b3be a218 50be 040a b1bd
00000030: 6709 4dbe 424c 45be 6ab3 093e a9fe 5e3e
00000040: 17f8 e0bc 8aa5 893e ed14 30be 35ab 3dbe
00000050: 0a3c abbe 8298 4d3d 7568 a9bd 97b4 8ebe
00000060: 7e4d ab3d 2b36 b8bd 91d8 0e3e 7ba7 9dbe
00000070: 0fa0 b4bd 99d4 10be 9726 16be 4426 febd
00000080: 9032 7dbe e0f3 10be d1f8 50be 939c 2fbe
00000090: adb5 21bd c558 aabe 8bc0 8ebd d077 3bbc
000000a0: d117 7f3c 15d6 50be 6e0f a13e 2e4a 5c3e
000000b0: 9e60 12be 069c 23be 0914 d5bd 98ba cabd
000000c0: eb3b 34be 9a0b 44be 1c09 02bd 043d afbd
000000d0: abd2 0a3e 190c 573e 1e66 a3be af2d 19be
000000e0: 51e9 07be def2 f2ba cf8f 83bd 8455 86be
000000f0: be88 4c3e fbbc 953d 6bc3 9fbe ec08 bf3d
00000100: 8e52 47be 18f3 63be 285a 75be f0f2 8ebe
00000110: 9254 22bc eb1c 12be 6fe2 763d 3689 4a3d
00000120: 783c d1bd b76c ee3d 7a4b 92be 2980 333e
00000130: b66a 30be 6df0 cbbd 8103 99be f84b 18be
00000140: 4264 f4bd d9bd 9fbd a868 45bd bc8d 8abe
00000150: 4294 8cbb 914a b9be a984 9bbe bec6 a1be
00000160: 4a76 053e ad8f c7bd a965 9cbe 0e80 b73d
00000170: c503 39be fa3b d6be 7751 763c 1676 34be
00000180: cd3f 88be 0936 c6bd 8cce aabd 5974 3dbe
00000190: 4128 283e fa20 dabe 9224 693d 9ac3 cfbd
000001a0: bc33 64be 6d19 91be 5cf6 4b3e 7b0c 8abe
000001b0: 3545 28be ef38 8dbe 0ee0 9abe d80a afbe
000001c0: 64f2 9e3c cc13 8cbe d5e2 39be 837d 8fbb
000001d0: ff72 6ebd 20d2 9dbe 1ee7 afbd a1e4 31be
000001e0: b35d a8bd 471e 6b3a 68c6 38be 783e d7bd
000001f0: d303 b9bc cd3c 4f3d a77c 033e 73fb 0f3e
00000200: bf5c 36be ff04 6fbe 1563 cdbd 0c5b 9abe
00000210: 2f71 32be 9004 8ebe e850 32be f584 81be
00000220: c994 52be 212c 803d e876 16be 7916 703c
00000230: c38a 44be 1850 4a3e 8ab9 53bc 04ae 133e
00000240: 2ed1 b23d 9cb4 00be fd37 58be 2658 adbe
00000250: b03a a23e acd2 97bd 85fd 68be 42db 623d
00000260: 0f32 ecbd 4be0 963d 481d 3d3e 29a5 85be
00000270: 47f6 003e e295 57be ef2d eb3c 51d9 1abd
00000280: b6a4 72bd c862 17be 6788 11be d98b 7cbe
00000290: 3bf4 ccbd 48ea 97be a7fe abbe e859 98be
000002a0: 4b01 e3be ec9b 1fbe 6c5a cabb 18a6 73bd
000002b0: 30a0 fabd 8752 b93d 42af bfbe e7cf 9d3d
000002c0: 7b93 50be eb75 0dbe 475e cb3b 0d65 21be
000002d0: 5fdd 67be 95bf 97be ef09 133e 724b 4dbe
000002e0: befe f9bc 8349 77be f335 b7bc e09a 51be
000002f0: 39a6 92be f4be 7bbe 0ea8 3e3e 2bb4 cebd
00000300: dd91 d6bd dbbc a3be 1634 3fbd cd74 83be
00000310: 49ed 2fbd 342b 3abe f303 e23c 7e71 70be
00000320: 261b d53d 9ccc df3a 9ed1 5fbe 395a c93d
00000330: bc0b 31be 7335 d3bd d685 e73c 6349 b4bd
00000340: 5670 bfbe 7c06 30bd d8b6 adbe d7dd 76be
00000350: d62d 58be f77e c6ba 4cd4 61be 1a1a 1bbe
00000360: 960a 7cbe f42f dcbd c233 bebe a34f 983d
00000370: 46ff 0d3e 3934 d03d b543 d03d 662f ce3d
00000380: 941f 313e 0bc2 a93d d5b0 94be f4bc 2b3e
00000390: 8e8c 94bd 59ef c1bc 3201 41be 3cdf 87be
000003a0: 580a 56be ab86 0dbd 3c89 36be 6e64 593d
000003b0: 3c37 9cbe 35e8 2bbe c2f6 17be 14da 13bd
000003c0: 2175 86be a190 babe 0454 12be 1c0a a13d
000003d0: ad3a 503e c512 93be 8ed4 65be f9b7 873e
000003e0: cf24 0abd cc4b a4be fe85 e4bd 269e 18be
000003f0: 1f10 09be a325 003e eac5 72be c6d2 c0be
-0.11735568 -0.09629943 -0.32683176 0.21332744 -0.21806292 0.2701542 -0.13751303 -0.28956428
-0.03746411 -0.34987146 -0.20321897 -0.086444885 -0.20023118 -0.19267371 0.13447347 0.21776833
-0.027462048 0.2688411 -0.17195483 -0.18522342 -0.33444244 0.05019427 -0.08271877 -0.27872154
0.0836439 -0.08994707 0.13949801 -0.3079184 -0.08819591 -0.141436 -0.14663158 -0.12409642
-0.2472632 -0.14155531 -0.20407416 -0.17149572 -0.0394799 -0.3327085 -0.069703184 -0.01144214
0.015569643 -0.20394166 0.31457084 0.21512672 -0.14294669 -0.15977487 -0.10404212 -0.09898871
-0.17600982 -0.1914505 -0.03174697 -0.0855656 0.13556926 0.21000709 -0.31913847 -0.14958833
-0.13272597 -0.0018535515 -0.06423914 -0.26237118 0.19974038 0.07311436 -0.3120378 0.093278736
-0.19465086 -0.22260702 -0.23960173 -0.27919722 -0.009907858 -0.14268844 0.060274538 0.04944726
-0.102166116 0.116418295 -0.2857321 0.17529358 -0.17228207 -0.09957967 -0.29885486 -0.1487273
-0.11933185 -0.077998824 -0.04819551 -0.2706126 -0.0042901346 -0.36189702 -0.3037465 -0.3159694
0.13033405 -0.09744201 -0.3054631 0.08959971 -0.18067844 -0.41842633 0.015034071 -0.17623171
-0.26611176 -0.09678275 -0.08340177 -0.18501414 0.16421606 -0.42603284 0.05691964 -0.1014473
-0.2228536 -0.2833971 0.19918197 -0.26962647 -0.1643265 -0.275825 -0.30249065 -0.3418796
0.01940269 -0.27358854 -0.18152936 -0.004378976 -0.058215138 -0.30824375 -0.08589004 -0.17372371
-0.08220997 0.000896905 -0.18044436 -0.10509962 -0.022584831 0.050595094 0.1284052 0.14060764
-0.17808817 -0.2334175 -0.10028664 -0.30147588 -0.17425989 -0.27737856 -0.17413676 -0.2529675
-0.2056457 0.06258417 -0.14693797 0.014653795 -0.19193558 0.19757116 -0.012922654 0.1442185
0.08731304 -0.12568897 -0.21115108 -0.33856314 0.316854 -0.07413229 -0.2275296 0.05538488
-0.115329854 0.07366999 0.18468201 -0.2610257 0.12593947 -0.2105327 0.028708426 -0.037804905
-0.05923911 -0.14783776 -0.1421219 -0.24662723 -0.10007521 -0.2967093 -0.33592722 -0.29756093
-0.44336924 -0.15586823 -0.00617533 -0.05948457 -0.122375846 0.09048944 -0.374384 0.0770567
-0.2036876 -0.13814513 0.006206307 -0.15761204 -0.2264304 -0.29638353 0.14359258 -0.20048311
-0.030516978 -0.24149136 -0.022364592 -0.20469236 -0.28642443 -0.24584562 0.18618795 -0.10092958
-0.1047704 -0.31980023 -0.046680532 -0.2567505 -0.042950902 -0.18180543 0.027589774 -0.23480794
0.10405569 0.0017074528 -0.21857306 0.09831662 -0.17289633 -0.10312929 0.02826206 -0.0880306
-0.37390393 -0.042974934 -0.3392856 -0.24108063 -0.21111235 -0.001514404 -0.22053641 -0.15146676
-0.24613413 -0.10751334 -0.37148863 0.074370645 0.1386691 0.10166211 0.10169164 0.10067634
0.17297202 0.08288964 -0.29041162 0.16771299 -0.07253371 -0.0236737 -0.18848112 -0.26537502
-0.20902383 -0.034552258 -0.17825788 0.053074293 -0.3051089 -0.16787799 -0.14840224 -0.036096647
-0.26261237 -0.36438468 -0.14289862 0.07863256 0.20334883 -0.28725258 -0.22444364 0.26507547
-0.03372651 -0.32089078 -0.111583695 -0.14904079 -0.13385056 0.12514357 -0.2370831 -0.37660807

Encoder.enc2.weight f4 [40, 256]
00000000: 263e 903c a0c7 813c 3782 2cbd 52d7 5cbb
00000010: 8bf6 6a3b 368f d5bc 56ce e63c 2600 393a
00000020: b962 1f3c 7c08 93bb 4afa a7bb 95c0 a4bc
00000030: eb70 8c3c ec0b 92bb 4226 c3ba 0378 9fba
00000040: 4195 ef3b 9dcd ddbb ff2b 5bbd 75f9 5c3b
00000050: fe44 38ba 40c4 cf3c fc24 cf3a 3a88 a0bc
00000060: bbd8 fdbc 4b91 4d39 b7f4 2cbc 4d95 b53b
00000070: 2a1d 9abb 4d74 4c3d 270d 0cbc a354 323c
00000080: e7b3 2c3b 7525 d23b 73b4 b43c ec65 723c
00000090: c139 87bb fc47 93ba cfbe 2f3b c181 523c
000000a0: 827d 8e3b bcbf 0fbc 4945 183c 3f41 e3bc
000000b0: b372 eb3c da82 1dbc 9fb7 013d 849b 5bb9
000000c0: 8711 a7bb fe84 8b3c dab4 0b3c 256d 60bb
000000d0: f294 a03c 588f 25bc 0e8b a1bb 6b2e 993b
000000e0: f93c 59bc 0edd 5a3c 7df2 0c3d a304 79bc
000000f0: dfc5 ce3c b9eb 00bc f9ce 273d 9739 193b
00000100: 1813 18bd a0e3 0bbc ea1f d9bc 8995 5cbc
00000110: 81da 0cbd 4483 273c 8175 f2ba f333 e13c
00000120: 1e20 86bc 51ef b53b 2347 68bc f56f 80bb
00000130: bbc3 26bb 924e 86bb f3cf 9239 bc0d 9b3c
00000140: dbac cb39 f322 ae3b 5668 a4bb 5d3d 8b3c
00000150: 9721 243b eaf1 41bb 1946 10bb 4841 da3c
00000160: ad79 bc3a 54a6 2cbb 5f21 fcbc 7097 62bb
00000170: 9348 2cbd 01c4 f9bb 0ac0 fdbc 0103 1b3c
00000180: e2c5 5d3a c28a 513c d198 913a 3e1c fa3c
00000190: 5a6b 0bbb bfaa e83b b69a 9d3a 25f6 7dbc
000001a0: 2770 22bd c339 863b 7103 6cbc 12f9 df3b
000001b0: 1f6d d73b 2b63 243d 5b10 93bc 0607 83bc
000001c0: 5ecb d23b 7c79 113c ac67 cdbc efbe cfba
000001d0: b5a4 043b 5e12 86bb f9b1 353b 5ff2 27b9
000001e0: bc64 973c aa96 023b 651b 64bb 4f08 b3bb
000001f0: aacb 9ebc 76d3 acba e21c cebb 951f c5bb
00000200: 57e4 d03a d99d 163c 1d2a 863b 5bba 68bc
00000210: 0f1a 8dbb 7999 803c 20bd ca3c 5eed 0ebc
00000220: 99b4 ae3b 3b5f a5bb 0045 443c 0692 fcbc
00000230: 7656 0f3c 628d 87bc 754d efbc 9781 413b
00000240: ac4a be39 d721 4bbc d63d e6bc f0d2 ea3b
00000250: e0a5 d3bb 7510 c0bb 44c5 813c 72a6 4abb
00000260: 1bf3 c6ba 123e 2b3b 029a e5bb 3bb8 c8bb
00000270: ef6a c239 306b ecbb 4335 8b3b b53a 643b
00000280: bbdc 563d 64e3 f73b 30c9 3fbc 99dd 5e3a
00000290: 6a94 d23b 0161 0b3c 1c3e fe3a 0062 163b
000002a0: a089 ecbb 8f12 91ba e54d 1bbc f249 683c
000002b0: f89d 423c 9d6f 5eb9 3d6a 103d 26df 383b
000002c0: 7cbc 14bc 49a8 0e3c 3a03 843c a18f 0c3d
000002d0: 609f c6bb c2da b03d 36aa 9abb 0058 b63d
000002e0: da69 243d 3ed6 79bb ca79 51bb 55e5 433c
000002f0: c151 013c ae29 a63b 8801 143c c0dd 523c
00000300: 8091 dbba c004 913a b6d6 0fba 0b11 143c
00000310: 22d7 ce3b 6082 a9bc f170 c43b 11ea 7fbc
00000320: a73c a83c 78a2 a9bc ed91 df3b f0fe 39bc
00000330: 8eb5 933b d414 47bc 08a4 e539 f60a d839
00000340: b5b3 903c 1dca 053d 875f 2bbd 7fd9 b5bb
00000350: 5547 df3b 77ad 1cbc 35ba 33bb e73e 84bc
00000360: d0e1 92bb 93f9 f93b 74f8 4d3b af54 16bd
00000370: 3663 343c 7672 523b 7c81 a63c c580 8f3c
00000380: d9c2 9b3c fc99 263b 3234 60bc 7923 da3c
00000390: 6e12 9c3c d8f0 41bc d6e7 723d 1aa3 dc3c
000003a0: 52a0 71bd 2803 1dbc bf18 58bc 9a67 0e3a
000003b0: 0739 31bc ed55 193c 30e8 70bc 79b3 e1bb
000003c0: 60e8 0ebc 8b93 56bb 8447 49bb 4208 f8bb
000003d0: 990a ef3b 61db f3bc 6c9b 57bc 86bf 083b
000003e0: 691a 8bbc faca 0d3b 6fe7 003c db80 ddbb
000003f0: f3a2 383b 349b 9a3b 46aa bdbb 8ef0 5dbb
0.01760776 0.015842259 -0.04211637 -0.0033697677 0.0035852517 -0.026069265 0.02817456 0.0007057212
0.009728127 -0.0044870954 -0.0051262723 -0.020111362 0.017143687 -0.0044569876 -0.0014888721 -0.0012166504
0.0073114936 -0.006768896 -0.053508755 0.0033718024 -0.00070293236 0.025362134 0.0015803869 -0.019596208
-0.030987134 0.0001960445 -0.010556391 0.0055414797 -0.0047031837 0.0499156 -0.008548058 0.010884437
0.0026352347 0.0064131566 0.022058701 0.014794808 -0.004126758 -0.0011236663 0.0026816612 0.012848319
0.004348458 -0.00877374 0.009293863 -0.027741073 0.028741216 -0.009613717 0.031669255 -0.00020943402
-0.005098525 0.017031189 0.008527005 -0.0034244743 0.019602273 -0.010104977 -0.0049299067 0.004674723
-0.013259166 0.013358368 0.034410942 -0.015198859 0.025240837 -0.007868701 0.04096887 0.0023380273
-0.037127584 -0.008538157 -0.026504476 -0.013463386 -0.03438807 0.010224167 -0.0018498154 0.027490592
-0.016372737 0.0055522104 -0.014177117 -0.0039195963 -0.0025446254 -0.004098722 0.00028002224 0.018927447
0.00038847965 0.005314225 -0.0050173206 0.016997034 0.0025044435 -0.0029593655 -0.0022014438 0.026642457
0.0014379524 -0.0026344256 -0.030777631 -0.0034575127 -0.0420614 -0.0076222424 -0.03097536 0.009461165
0.0008459968 0.01278943 0.0011108165 0.030531045 -0.0021273703 0.0071004326 0.0012024257 -0.01550058
-0.039657738 0.004096241 -0.014405117 0.0068351114 0.0065742875 0.040133636 -0.017952135 -0.01599456
0.0064329347 0.008879062 -0.025073849 -0.0015849749 0.0020239775 -0.004091545 0.0027724488 -0.00016016651
0.018480651 0.0019926229 -0.0034806367 -0.005463637 -0.019384224 -0.0013185579 -0.006290064 -0.0060157278
0.0015937191 0.009192907 0.0040943758 -0.014204587 -0.004306085 0.015698181 0.024748385 -0.008723585
0.0053315875 -0.0050467527 0.0119793415 -0.030831348 0.008748641 -0.016546909 -0.02921174 0.0029526704
0.0003629526 -0.012398205 -0.028105658 0.007166259 -0.006458983 -0.005861337 0.015841134 -0.0030921963
-0.0015178652 0.0026129526 -0.0070068846 -0.0061254776 0.00037082235 -0.007214926 0.0042482927 0.0034825031
0.0524566 0.007564949 -0.011705682 0.00085016486 0.0064263837 0.008507014 0.0019397172 0.0022946596
-0.0072185546 -0.0011068153 -0.009479021 0.014177786 0.011878483 -0.00021213149 0.035257567 0.0028209179
-0.009078141 0.0087071145 0.01611482 0.034316663 -0.0060614794 0.08635475 -0.0047199978 0.089035034
0.04014001 -0.0038122083 -0.003196346 0.0119565325 0.007893027 0.0050708866 0.009033568 0.012870252
-0.0016751736 0.0011064038 -0.00054870115 0.0090372665 0.006312267 -0.02069205 0.005994909 -0.015619771
0.020536734 -0.020707354 0.0068228156 -0.011352286 0.004507727 -0.012150962 0.00043800496 0.00041206897
0.017663816 0.032663453 -0.04183915 -0.005549609 0.0068139234 -0.009562842 -0.002742422 -0.016143275
-0.0044824854 0.0076286285 0.0031428607 -0.036701854 0.011009982 0.003211168 0.020325415 0.017517457
0.019013809 0.0025421372 -0.013684319 0.026628243 0.019051757 -0.011837207 0.059303127 0.026933242
-0.058990784 -0.009583272 -0.013189494 0.0005432308 -0.010816819 0.009358865 -0.014703795 -0.00688785
-0.008722395 -0.003274175 -0.0030712793 -0.007569344 0.0072949645 -0.029767694 -0.013159614 0.002086611
-0.016980367 0.0021635876 0.007867678 -0.0067597455 0.0028173297 0.0047182087 -0.0057881204 -0.0033865306

Encoder.enc2.bias f4 [40]
00000000: 661a 693c 8d9d b03b 818b ce3b 61a7 aebc
00000010: 9b96 37bd 45b9 5fbd 719e 353d b05f 0ebd
00000020: 8876 1fbd cca1 9d3c 9448 ab3c 5a42 9ebd
00000030: c738 623d 6135 093d b097 04bd 753c 783b
00000040: a0e0 c0bc b97b 8a3c 07e7 22bb 3ed0 abb8
00000050: dbec efbc 0136 58be 2fc3 cebc b829 90bc
00000060: ea1e 81be 2680 4ebe e3ea 39be 04c6 65be
00000070: b0eb f5bc 0659 40bc 2af4 823c 1306 78be
00000080: 3a0f 43be fa5b f7bc 5028 823c ff08 8d3c
00000090: 84b0 8dbc 7b46 e23b 8b26 383c 60a3 e8bc
0.014227485 0.0053898753 0.0063032513 -0.021320047 -0.044821363 -0.054620046 0.044340555 -0.034759223
-0.0389314 0.01924219 0.020908631 -0.07727499 0.05522993 0.03349817 -0.032371223 0.0037877832
-0.02354461 0.016904699 -0.0024856941 -8.1927035e-05 -0.029287746 -0.21114351 -0.025239555 -0.017598018
-0.25218898 -0.20166072 -0.18156008 -0.22438818 -0.030019611 -0.011739975 0.015985567 -0.24221067
-0.19048777 -0.030195225 0.015888363 0.017216204 -0.017296083 0.0069053746 0.011239658 -0.028398216

Decoder.dec1.weight f4 [256, 20]
00000000: 46da 193c d487 46bd 0bdb 533b 5596 fdba
00000010: 25a0 4fbc d8bd 22bd 26f8 54bc 0023 853b
00000020: 9730 1ebb 6a97 cdbb 4002 93bb c3ab 00bf
00000030: 7a7b 0c3c 6c46 afbb d56b ba3b e26d b63b
00000040: a6a2 f939 7fa9 08bc c3bc d939 6766 8f3b
00000050: 7c10 853b 4907 30be a145 c839 dcbe 8cbb
00000060: dfe4 1f3d 1bf5 043d 8f39 34bd 31b7 8b3c
00000070: 7bb4 e23b 89ef f8ba 743c 12bb 10f3 b8bc
00000080: 5899 243c 06c8 083b abaf b43a 1f08 5fbb
00000090: fc9f 8b3b 0980 233c 8e21 63bb 34c8 e03b
000000a0: 7e43 03bb cf9e 2f3a 717f a339 7b0d a2ba
000000b0: e8f2 d4bc 4775 eaba 7bda 84bb a658 4c3d
000000c0: f180 c839 f26b bdba 7f4c 6fba 4d7e 9bba
000000d0: b3c8 583a 8465 3eba 2216 a03a 7ebd 37bb
000000e0: 0266 0239 ebc8 523b 8ad5 a0ba d91b 3e3a
000000f0: b1c2 8bba 6206 adba dfb5 1c3b eced 01b9
00000100: 500c 34bb 50c5 1ebe ff4c 893b 96b4 d13c
00000110: 4974 ec39 02ff eeba bc93 723b 0613 88ba
00000120: 4d2e 8e38 bb0b 56bb cd3c b0bb c547 dc3a
00000130: 858d 3ebb e5ff e13b cf1e 5f3b 35e4 bd3a
00000140: bfcf 2236 b1fa 1cbd 68e4 42bb ce7b 4d3a
00000150: 746d 8ebd d304 13bc d84d 20bc e7fd 283c
00000160: 7b1b 1dbb dcc6 d3b9 9664 acba 2529 4d3b
00000170: 5ead 6bba fac3 a83a 8e8f 05bb fc0c aa3b
00000180: 1623 9639 00cb 213a 64db 1f3b 4dd9 2f3b
00000190: 8d94 553a d371 76bb fbb3 4a3b af92 ddba
000001a0: ab0a 28bc 9ffc 2ebc a9ad fcbb d42f 183c
000001b0: fd23 01bb 477d 533b 6df4 4bbb 58bc 75be
000001c0: a77e cbbb 0853 dfba 2795 c93a 4728 1aba
000001d0: c5a6 cc3b 366c 5d3b 839b 1abc 931a 893b
000001e0: f758 c63a ba9c dbbd 8785 963b 4b57 5cbb
000001f0: 7013 413d 5838 2bbd 269b 09bd 70be 323e
00000200: 6528 bc3b 32cc d93a d6e4 17bc 0b39 b9bc
00000210: 8cb5 2f3c 4820 a8bb 9974 b33a 7f8a 06bb
00000220: ebba 953b 3d3f 9e3b 7f08 d7ba 9478 bb3b
00000230: 1240 033b 1be7 a0ba 115b 1fbb 4ff4 ba39
00000240: 89fc 3cbc fa0d 2dbb f663 79ba fde7 3c3d
00000250: dc61 fe39 c7ea d93a 85fe 70b9 6365 0e3b
00000260: fa4e 97ba f3fd 2e3b 9b29 fdba 1d6c 983a
00000270: 0682 c9ba b90e 30bb 9ad4 ed39 ed36 21bb
00000280: 07ad 683b fdc7 683c 057b 50ba 88d3 8a3a
00000290: 6a06 5a3b cfc3 cb3b 09c6 26bd f395 d73a
000002a0: 055d 42bb 0168 d83a 7402 58ba 6940 523a
000002b0: 506f 98ba 4a4a 1a3b 4f65 c2ba 00e2 423b
000002c0: 4550 19bb 477b 8dbb cbe9 943a b448 ffba
000002d0: badc 1fba 3d6c e8bb c130 1b3b 49b0 4c3b
000002e0: e776 dcbb 30f3 1abe 5f94 ce3c 1d92 01bc
000002f0: 4d49 b53a a4df 5cbb 461e 8cbb 7682 15bc
00000300: 0417 313c a34e d83a b3ec d83b 3980 3bbb
00000310: 97e4 743a 910a 953b 9017 3ebc 9db0 e439
00000320: 5f11 5bbc 57ef cdbb 9abe 64bb bb66 4fbb
00000330: 9975 d3bc 940e 17bc fc63 35bc 2e5b a2bb
00000340: cc55 2d3a 877b c63b a173 e7bb becb a2be
00000350: ac2f c13b 1a81 5a3b 4457 87b9 2b3f c03b
00000360: 6b51 b9bb 5fea 53bb 6842 b839 6146 8437
00000370: 6ddc a53a df35 84bc dd89 b53a f696 873b
00000380: 9f31 8dbb 606c adbc 4b62 1f3c 5403 a63c
00000390: 494b 5d3b 9de1 6ebb c9fe d0ba 27e2 adbb
000003a0: 6128 823e 545d be39 1ada 873a d2f1 b03b
000003b0: eda2 883a e9d1 66bb 9171 e03b 0fa5 7a3a
000003c0: a1fb f939 229e 313d f5e8 87ba 62e3 b3b8
000003d0: 4d67 063b 628c ef3b 92b1 133c d7b1 953c
000003e0: abe9 49ba 26f1 143b f2ca 0eb7 1315 2039
000003f0: 1dea 5a3a 763d 7a39 777e b23a e403 f839
0.009390419 -0.04846938 0.0032326605 -0.0019347171 -0.012672459 -0.03973183 -0.012998616 0.00406301
-0.0024137849 -0.0062741535 -0.004486352 -0.5026209 0.008574361 -0.005348971 0.005689124 0.0055672983
0.00047614163 -0.008341192 0.00041530104 0.004376221 0.004060803 -0.17190279 0.0003819885 -0.004295213
0.039036628 0.032460313 -0.044000205 0.017055126 0.0069184876 -0.0018992285 -0.0022313865 -0.022576839
0.010046326 0.0020871176 0.0013785263 -0.003403194 0.004261015 0.009979256 -0.0034657451 0.0068598036
-0.0020029242 0.00066993845 0.00031184734 -0.0012363637 -0.025994733 -0.0017887735 -0.004054365 0.04988923
0.00038243041 -0.0014451726 -0.0009128525 -0.0011863202 0.00082696526 -0.0007263052 0.0012213627 -0.002803653
0.00012435767 0.0032163213 -0.0012270671 0.00072520744 -0.0010662881 -0.0013200755 0.0023912115 -0.00012391031
-0.002747316 -0.15504956 0.004190087 0.025598805 0.00045100067 -0.0018233957 0.0037014326 -0.0010381646
6.779712e-05 -0.00326608 -0.005378342 0.0016806057 -0.0029076051 0.00689696 0.0034045463 0.0014487567
2.4260805e-06 -0.038325015 -0.0029738192 0.0007838578 -0.0695447 -0.008973318 -0.009784184 0.010314441
-0.0023972678 -0.00040393218 -0.0013152536 0.0031305042 -0.00089903723 0.0012875788 -0.0020379755 0.005189536
0.0002863637 0.0006171912 0.0024392242 0.0026832402 0.0008147441 -0.0037604466 0.003093003 -0.0016904677
-0.01025645 -0.010680347 -0.0077111316 0.009288747 -0.0019705289 0.0032270716 -0.003112103 -0.23997629
-0.0062101665 -0.0017038295 0.0015379534 -0.00058806356 0.0062454664 0.0033786423 -0.009436491 0.004184076
0.0015132715 -0.107232526 0.0045935544 -0.0033621367 0.047137678 -0.04180178 -0.033595227 0.17455459
0.00574212 0.0016616641 -0.009270867 -0.022610208 0.0107244365 -0.0051308013 0.0013691365 -0.0020529327
0.0045694015 0.004829316 -0.001640573 0.005721161 0.0020027203 -0.0012275906 -0.0024315754 0.0003565871
-0.011534818 -0.0026406036 -0.00095134915 0.04611968 0.00048519566 0.0016625755 -0.00022983 0.0021727912
-0.0011543923 0.0026701658 -0.0019314768 0.00116289 -0.0015373833 -0.0026864244 0.00045362563 -0.0024599389
0.0035503523 0.014207837 -0.00079529017 0.0010591606 0.0033267983 0.0062184106 -0.040716205 0.0016447887
-0.0029657495 0.0016510488 -0.00082401116 0.0008020462 -0.0011629853 0.0023542815 -0.0014831218 0.0029736757
-0.0023393792 -0.0043176743 0.001136118 -0.0019476623 -0.00060982595 -0.007092981 0.0023680183 0.0031233004
-0.0067280415 -0.15131831 0.025217233 -0.007908371 0.001383105 -0.0033702636 -0.00427607 -0.009125343
0.01080871 0.0016502928 0.0066200136 -0.0028610362 0.0009341924 0.0045483788 -0.011602297 0.00043619136
-0.013370841 -0.006284635 -0.0034903646 -0.0031646925 -0.02581291 -0.009219784 -0.011071201 -0.004954717
0.0006612211 0.006057206 -0.0070633446 -0.31796068 0.0058955755 0.003334111 -0.00025814225 0.005866905
-0.0056554577 -0.003233574 0.0003514469 1.5768399e-05 0.0012654193 -0.016138969 0.001385029 0.004137869
-0.004308894 -0.021169841 0.009728025 0.020265259 0.0033766797 -0.0036450394 -0.0015945073 -0.0053065005
0.25421432 0.0003630916 0.0010364682 0.005399921 0.0010424532 -0.003522033 0.0068494757 0.0009561339
0.0004768046 0.043363698 -0.0010369109 -8.5777385e-05 0.002050835 0.007310436 0.009014504 0.018273277
-0.0007702361 0.0022726743 -8.511111e-06 0.0001526664 0.00083509256 0.00023864754 0.0013618012 0.00047305145

Decoder.dec1.bias f4 [256]
00000000: 1542 2cbe 64a6 d7bd bf04 ba3c cc7a 6abd
00000010: 7bab 2ebc f314 72be c0f1 10be 4c6f fc3c
00000020: 8887 d93b 42a8 86bd 05ef b5be 5652 b8be
00000030: 3f95 87bb a4eb 3f3b 9c05 80be 1d47 0ebc
00000040: f13b ee3b 5b34 b0bc c14b b7be 5bd5 98be
00000050: ebb0 103c f393 ac3c 0fab ac3d 6c84 10bd
00000060: f066 0dbc 8f22 09bd 33e7 103d cbfb 953c
00000070: 1427 fb3c ae8a 28bd d8fc 82bd 2b4a 07be
00000080: 4909 b03c 443e a0be 67a3 f13b af08 f83b
00000090: a684 213c fcff a93c 04e8 acbe 6218 813c
000000a0: 3ca2 b93c 3ef5 cbbe de58 a5be 1f9d b9be
000000b0: db0d 37be 2325 b0bc 6533 b83c aabc e2bc
000000c0: c730 8a3a 771f a63c e5d7 5bbf 8ef7 bf3b
000000d0: 2958 80be e69e d4bd 86a9 fb3c af83 c83d
000000e0: ba2b cf3b 5895 88be ea96 8bbb 202b acbe
000000f0: ddf6 19be 2edf ffbd ca37 debc 1b80 24be
00000100: 8eb8 d03c acab 873b 9e83 e83c 49d9 f5bb
00000110: c223 9cbc 5f4e fe3c ce64 88bf 1aca adbd
00000120: 0c25 ac3b 2f12 ba3c bf3c 9b3c 5576 563c
00000130: 5f9a da3b eac4 a73c b412 4d3c aba4 fcbd
00000140: be7f a23d da20 31bd 1beb c83b 89f3 4b3c
00000150: 51e6 06be 40d7 e1bb e489 13be 3c7c ff3b
00000160: 75cb 8dbd 6b71 c5be 69eb b93c 5e40 b63c
00000170: a346 85be 8f14 0bbb 910a b3be dd69 8bbe
00000180: 086a 253c ddf4 9d3c ffc6 1e3c 11ae b1be
00000190: 3d23 bc3c b726 e3bd 6c24 9a3c c481 e93b
000001a0: 805e d3be 483c 0e3c c619 90be 9868 8d3b
000001b0: a084 cf3c 9418 29bd a5f6 853c 8207 86be
000001c0: 97ad 06bd a5a0 9bbe e84f 8d3a 6842 a5be
000001d0: 16d5 a53c a26c 413c 2c58 d5bb ed8b ddbb
000001e0: 1885 f13c 4acc 523c 2fe5 99be 7561 f33b
000001f0: 13e4 19be f2b5 70bc 7e2d 0a3e 6a2e 393c
00000200: 4b5c 793b 4b3d 24bd c7eb 3a3a 0f23 26be
00000210: d448 fb3c c7a2 dc3b f2ec 003d 51b2 9bbe
00000220: aea7 bd3c 72bf be3c 83d9 81bc e705 85be
00000230: 149a 1539 3f1a ad3c ae37 23bc 5111 d13b
00000240: dc3a 5ebd 082a 123c f2f8 12bc 9cef 46be
00000250: b965 c8be bcf8 053d fafe 493c 3e8c c83c
00000260: b3b8 b73c dc1b 11bc 04e1 c1be 4191 103c
00000270: 06de 24be ceb1 a1be bfac 2e3c 49e9 6a3a
00000280: 9d9a 853d 435d d3be 757d 27be 5794 b03b
00000290: 4fa6 b23c 7bbf 0fbc ca40 9abb 9e0e eabd
000002a0: 11e8 9bbe b09f 30be 4a4f 88be 3451 0ebe
000002b0: a299 33be 414b 653c bac3 14be 1212 97be
000002c0: 7414 ba3b a08d b0bc bb51 7ebd 9504 bbbd
000002d0: 35c9 c73c b177 e13d 979e b93c a16e 84be
000002e0: 113d 0c3c 0028 5bbd 01e6 3c3c 825f 31be
000002f0: a26f 53bd 4ccc d63c 92ff 7b3b 2da6 bd3c
00000300: 4655 0cbe e82b f2bd c781 21be 1aae f73c
00000310: 8dcd c1bd cdc7 323c f4fc f7bb 9979 d73b
00000320: cf01 2ebf c6e6 c8bd 6cb4 d63c 2f69 f23c
00000330: c3d8 51bc 7289 c9be eb5b bc3c facc 113d
00000340: e3e6 e63b 9de7 cb3c 385b e73b 0f90 2dbd
00000350: 0a90 b6bc 30e9 053d bdc2 4ebe 0547 5f3c
00000360: 0cac 95ba f804 973c dec7 d53c fb0e d4be
00000370: 370a 463d b3e9 993c 84bf ca3c 597c c2be
00000380: ec15 8b3c ee78 c13c 06d2 f13c 59dc 213c
00000390: 5ae1 a73c a097 7ebb b545 f3be e07e 94be
000003a0: 5fcc 293b 3bfb e9bb 7a16 da3c 1389 fcbb
000003b0: cf12 d2bd 8c06 52bb edf6 77be 7b7d c23c
000003c0: 55f7 80be 4f6b b6be a422 973c 1d56 b03d
000003d0: 52f8 823c e862 4c3b cec8 3ebe 4875 c03c
000003e0: d4bc bb3b 2461 95bc d023 a73c f41d da3b
000003f0: 6def fc3c d100 dbbe c96d b13b 9b01 ad3c
-0.16822083 -0.10529783 0.022707341 -0.057246014 -0.010661001 -0.23640804 -0.1415472 0.03081479
0.006638471 -0.065750614 -0.3553392 -0.36000317 -0.0041376646 0.002928474 -0.2500428 -0.008683947
0.007270329 -0.02150934 -0.35799983 -0.29850277 0.008831243 0.021066641 0.08431064 -0.035282537
-0.008630499 -0.033480223 0.03537674 0.01830854 0.030658282 -0.04114788 -0.06395882 -0.13211887
0.021488803 -0.31297505 0.0073742154 0.0075693945 0.009858286 0.020751946 -0.33770764 0.015758697
0.022660367 -0.39835542 -0.32294363 -0.36252686 -0.17876379 -0.021502083 0.022485444 -0.027677853
0.0010543101 0.020278675 -0.85876304 0.0058583682 -0.2506726 -0.1038187 0.030720484 0.09790742
0.0063223513 -0.2667644 -0.0042599337 -0.33626652 -0.15035577 -0.1249374 -0.027126212 -0.16064493
0.025478628 0.004140338 0.028383072 -0.007502709 -0.01906002 0.03104323 -1.0655763 -0.084858134
0.00525344 0.022713749 0.018949864 0.013089736 0.0066712345 0.020479638 0.012516666 -0.123360954
0.07934521 -0.04324422 0.0061315424 0.0124482 -0.13173796 -0.006892115 -0.1440807 0.0077967923
-0.06923572 -0.38563094 0.02269526 0.02224749 -0.26030454 -0.002122197 -0.34969 -0.27229205
0.010096081 0.019281799 0.009690999 -0.34703115 0.022966022 -0.11091369 0.018816195 0.007126065
-0.41283035 0.008681364 -0.28144664 0.004315447 0.025331795 -0.041283205 0.01635296 -0.26177603
-0.032880392 -0.30396 0.001078126 -0.32277226 0.020243209 0.011805685 -0.006510755 -0.006761065
0.02948241 0.012866089 -0.30057666 0.0074273893 -0.1502841 -0.014691817 0.13493916 0.01130257
0.0038049396 -0.040097516 0.00071304705 -0.16224311 0.030674376 0.0067332718 0.03147597 -0.30409482
0.023151245 0.023284648 -0.015850788 -0.25981066 0.00014267146 0.02113068 -0.009962006 0.006380238
-0.05425535 0.008921154 -0.008970486 -0.19427341 -0.39140108 0.032707915 0.012328858 0.024480935
0.022426939 -0.00885674 -0.37866986 0.008823694 -0.1610032 -0.31580967 0.010661303 0.0008961154
0.06523631 -0.4128209 -0.16356452 0.0053887772 0.021807818 -0.00877368 -0.0047074305 -0.11428569
-0.3045049 -0.17248416 -0.26622993 -0.13898164 -0.17539075 0.013994993 -0.14527789 -0.29505974
0.0056787077 -0.021551907 -0.062089663 -0.09131733 0.024387935 0.110091574 0.02265863 -0.25865653
0.008559481 -0.053504944 0.011529447 -0.1732159 -0.051620133 0.026220463 0.0038451892 0.023150528
-0.13704404 -0.11824781 -0.15772162 0.030234385 -0.09463034 0.010911894 -0.007567996 0.006575775
-0.6797151 -0.098096415 0.026209079 0.029591171 -0.012808028 -0.39362675 0.022993049 0.03559587
0.007046567 0.024890715 0.0070604347 -0.042373713 -0.02228548 0.032693088 -0.20191474 0.013627772
-0.0011419072 0.018434986 0.02609628 -0.4141768 0.048349585 0.018788194 0.024749525 -0.37985495
0.016978227 0.023617234 0.029519092 0.009879195 0.020493198 -0.00388477 -0.4751412 -0.29003048
0.0025909168 -0.0071405447 0.026622046 -0.00770677 -0.10257494 -0.003204736 -0.24215288 0.023741474
-0.251887 -0.35628745 0.018449135 0.08610175 0.015987549 0.0031186882 -0.18631288 0.023493424
0.005729297 -0.018234797 0.020402819 0.0066564027 0.030875886 -0.4277406 0.0054146987 0.02111893

Decoder.dec2.weight f4 [31, 256]
00000000: ff4e 093d 78e2 38be 3270 103e ae3a aa3d
00000010: 6b11 783d fca7 e33d e0c1 3a3e e60f 023e
00000020: 5a38 0c3f 3c05 ee3d 524f ef3d e2f5 afbc
00000030: e0d8 edbe 3aaa 2bbd b6ff bf3c c408 2abf
00000040: 58be 283f 747a 5d3e 8940 81be fa59 27bc
00000050: 65bd 123f 8dca c13e bafb 83be bc94 07bf
00000060: 1051 31bf af35 33be 689d 8fbf f101 45bf
00000070: 2105 f03d 5f75 bebe 70b0 e5be 321e b8bc
00000080: f5e9 c93d a625 5b3d eb87 40bf 1cbc af3d
00000090: 1436 d83d 1fbd 3ebf e4ef d8bc 1369 023f
000000a0: 77bf 9b3d 26ed 65bd 642f 8d3c 6f8f cc3d
000000b0: 93ad 133d 0818 353e bde9 643d 3f78 d1bc
000000c0: 8cbc db3e 26dc 48bf 127c 45bf 9594 a33e
000000d0: 6c3d c6bd f52b 91be 51dd db3d 9395 fbbd
000000e0: 6c65 873e e1f6 5d3c 1ba0 c13e c4ce 973d
000000f0: 036f e53e 304b 89bd 864c 21be 2a04 03bd
00000100: a099 0e3f f1a8 7b3e 5599 cc3d d130 b13e
00000110: 5862 ad3c 3ae8 c63d effd 37bf 95d1 59bc
00000120: 3dce 8e3e ca29 ab3d 60c7 5ebf b3d7 74bf
00000130: 38b7 033f e51c 39bf 7ea4 74bf e970 9fbd
00000140: 6a46 9f3e 591e ac3d 504f 983e d8a5 1c3f
00000150: 5d95 2f3d 312d f33d 00e3 9d3d e46f c83e
00000160: f205 7e3d 3bc9 1abd abd2 b23d 2a1e aa3d
00000170: 2f0a d1bd eb6e 96be bf8a de3d a726 a13c
00000180: 6627 1c3f 7955 34bf b7fd 693e f0f0 f1bd
00000190: da3a 3ebf 7c94 9bbe 572f 303e dd0b c93c
000001a0: 122d 873a 7839 75bf 9184 9d3b b3f8 26bf
000001b0: cf21 283d 660f 733e e8ee 6cbe fb60 4b3d
000001c0: b0d9 97be 093a 91bd 2588 de3e 26f1 afbd
000001d0: b457 d6be ae17 e43e ab8c 883e 9d3c 753e
000001e0: 25f3 333d 8970 2dbf 8b42 e3bd e8b7 173e
000001f0: 2b44 0c3d a044 0dbf 08bb e93c cd3c d23e
00000200: 00d0 bb3e ac22 523c cd72 29bf 4092 65bc
00000210: ce50 df3d 9a45 533e fb23 35bf 4827 dc3d
00000220: 9192 013e b041 c83d 7cc5 94be c075 3c3c
00000230: 5f85 4ebf 311e 45bf 46f5 4ebf 8522 133f
00000240: 6e9c 583d c7c0 af3d 54d1 18be 1c4c e9bd
00000250: 71f9 b2bd ad86 923d 6ed2 96bf 8da6 453d
00000260: f117 c63d 0bd0 1bbf bc60 573c 8220 503d
00000270: c2ff 143d 7572 dd3c 74a7 963d e3ff e83e
00000280: b081 18bf bdb8 e1bc 6752 1f3c df1b 493d
00000290: bdbe 9c3d 0fc6 bcbe 0949 3abf 6723 34bc
000002a0: 5471 2b3d c905 563d cdc3 133c a1ba 16be
000002b0: 3c3d 5c3e b092 d63e f24d 83be 13cf ef3b
000002c0: 44ad 5ebe 2b05 0f3e b61e dc3d f86c 92be
000002d0: 0d58 f4bd 448c 893e 63f0 e83d dc09 383c
000002e0: 7592 82bf 0120 103d 9929 74bf aa5f ff3c
000002f0: 9981 c6bd e18d 4fbf 204e 153f c3f5 fb3d
00000300: c1f1 ef3e 364d e2bc 9a98 ff3c 15df 0b3e
00000310: b4e4 a23e 2319 5dbd 46a2 f5b7 bd2d 953e
00000320: 34a0 38bf 4408 fa3a 7c76 853d 1ca3 783e
00000330: bfe1 593d af2a ecbc 6b1b 95ba 5f50 2ebf
00000340: c882 873e 8c2e 193d ede3 683e 66e0 7ebf
00000350: 8de6 29bf c7cc c43d c367 21be 01b5 143f
00000360: 4a92 83be edc7 043f 0576 66bd a3f0 a2bc
00000370: 4d4a dcbe c626 f3be f7d1 a03c d14d f7bd
00000380: 818c 0c3f 683b e03d 321e a43d f2b7 1f3f
00000390: eb9b d93d c5db d83e 37c6 21bf 84f6 913c
000003a0: 304b 24bf 1044 25bf 12ce 14bf b8db 3cbd
000003b0: d4af 743e 001a 36bf 3a3e 913d 05df f43d
000003c0: 65d1 3b3d eb52 3e3d d833 57bf 84e7 acbe
000003d0: 6c2a 34bf ba45 103f cda7 c93c 911e ad3d
000003e0: d03f ed3e 0a1c 04bf f1ec 5f3f ea67 eebe
000003f0: b4d1 bd3d 50ae 22bd b509 d73e e0ef 033e
0.033522602 -0.18055141 0.14105299 0.083119735 0.060563486 0.11116025 0.1823802 0.12701377
0.54773486 0.11622092 0.11685051 -0.02147955 -0.46454525 -0.041910388 0.023437362 -0.66419625
0.6591544 0.21628743 -0.2524455 -0.010214323 0.57320243 0.37849846 -0.2577799 -0.52961326
-0.69264317 -0.17500947 -1.1219912 -0.7695609 0.11719728 -0.37198922 -0.44861174 -0.022475336
0.09859077 0.0535027 -0.75207394 0.08580801 0.105571896 -0.74507326 -0.026481576 0.5094158
0.076048784 -0.056134365 0.017234512 0.09988295 0.036054205 0.17684948 0.055886973 -0.025570033
0.42917287 -0.7846092 -0.7714244 0.31949297 -0.09679684 -0.2835385 0.10735572 -0.122843884
0.26444566 0.01354763 0.37817463 0.07412484 0.44811258 -0.06703794 -0.15751848 -0.031986393
0.55703163 0.24576165 0.09990183 0.34607556 0.021165058 0.097122625 -0.71871847 -0.013294597
0.27891722 0.0835758 -0.8702297 -0.9564163 0.51451445 -0.72309715 -0.95563495 -0.07785208
0.3110841 0.08404226 0.2974801 0.6119056 0.042867053 0.11873854 0.077093124 0.39147866
0.06201739 -0.037789565 0.08731588 0.083065346 -0.102070205 -0.293815 0.108663075 0.019671751
0.6099762 -0.7044292 0.22850691 -0.11813533 -0.7430855 -0.30386722 0.17205559 0.02454179
0.0010313115 -0.95790815 0.004807063 -0.65223235 0.041047867 0.23736343 -0.2313801 0.049653035
-0.2965827 -0.070911475 0.43463245 -0.08590917 -0.41863787 0.44549316 0.2666982 0.23948903
0.043933053 -0.6774984 -0.110966764 0.14816248 0.034244698 -0.5518284 0.028531566 0.41062012
0.3668213 0.012825649 -0.661908 -0.0140119195 0.10904084 0.2063202 -0.70758027 0.1074968
0.12653567 0.09778154 -0.2905692 0.011502683 -0.8067226 -0.76999193 -0.8084301 0.5747455
0.052883558 0.08581691 -0.14923602 -0.1139147 -0.087389834 0.071545936 -1.1782968 0.04825454
0.09672535 -0.60864323 0.013145622 0.050812252 0.036376722 0.027032116 0.07356158 0.45507726
-0.5957289 -0.02755391 0.009724236 0.049098846 0.07653568 -0.36869857 -0.7276769 -0.010994769
0.041856125 0.05225161 0.0090188505 -0.14719631 0.21507734 0.4190879 -0.25645405 0.0073183863
-0.21745783 0.13966815 0.10748045 -0.28598762 -0.11930857 0.26864827 0.11373975 0.011232819
-1.0200945 0.03518677 -0.95375973 0.031173546 -0.096926875 -0.81075865 0.58322334 0.12302735
0.4686413 -0.027624708 0.031200696 0.13659318 0.31815112 -0.05397905 -2.928184e-05 0.29136458
-0.7211945 0.001907595 0.0651674 0.24280971 0.053193804 -0.028828947 -0.0011375969 -0.68091387
0.26466966 0.037397906 0.22743197 -0.99561155 -0.6636742 0.09609371 -0.15762238 0.5808869
-0.25697547 0.5186756 -0.056264896 -0.019890135 -0.43025437 -0.4749052 0.019631369 -0.12075389
0.5490189 0.10948831 0.08013572 0.62390053 0.10625442 0.4235517 -0.63193077 0.017817743
-0.6417723 -0.6455698 -0.5812694 -0.046107978 0.23895198 -0.7113342 0.07091947 0.119566
0.04585399 0.046465795 -0.8406348 -0.33770382 -0.7037723 0.56356394 0.024616146 0.08453096
0.46337748 -0.51605284 0.8747092 -0.46563655 0.09268513 -0.03971702 0.41999593 0.12884474

Decoder.dec2.bias f4 [31]
00000000: 0975 d6bd 6b20 153e 99f3 0b40 1c2a 22bd
00000010: 467e 7540 eb6d 3d3e 3fef 07c0 3690 f4bf
00000020: a95e 863f 7371 673e 0d8f 8c3f 0c05 f5bf
00000030: c38c d63f 7e7f bcbf c49f 84bd a5a0 4240
00000040: 8d87 b0bd 75c3 cabf b10f c8bd 8dae cbbf
00000050: cda2 ecbf f416 bdbd 3ab8 fe3c 021d a540
00000060: 6ab9 183e b406 3c40 ce5c 233e b6ba a63f
00000070: edb9 873e 84ea 9fbd c928 be3d
-0.104715414 0.14563148 2.186743 -0.03959094 3.835832 0.18498962 -2.1239774 -1.910651
1.0497638 0.22601871 1.0981156 -1.9142165 1.6761707 -1.4726408 -0.064757854 3.041055
-0.08619604 -1.5840899 -0.09768618 -1.5912644 -1.8487183 -0.092328936 0.031093705 5.159791
0.1491448 2.9379091 0.15953371 1.302573 0.26509038 -0.07808402 0.09285123
