results/3_iid/model_favg_n_0_m_0.pt (torch, 121540 bytes, 8 tensors)

Encoder.enc1.weight f4 [256, 22]
0	0x3cc6d72b	0.024272522
1	0xbdbec6d2	-0.09315266
2	0xbe3e164e	-0.18563196
3	0xbde92884	-0.11384681
4	0xbdd2f111	-0.10299886
5	0x3d939656	0.07206409
6	0x3d0f3131	0.034959022
7	0xbd1fdab7	-0.039026942
8	0xbda0c9e4	-0.078510076
9	0xbd86b976	-0.065783426
10	0x3de5e27f	0.11224841
11	0xbe1846e0	-0.14870787
12	0xbdf78bc4	-0.12087205
13	0x3d5252db	0.05134855
14	0x3b60aee8	0.003428394
15	0x3ceffd68	0.029295638
16	0x3da109ab	0.07863172
17	0xbdb27df1	-0.08715428
18	0xbbebc643	-0.0071952655
19	0x3cf15ddb	0.0294637
20	0x3ccb7f35	0.02484093
21	0xbe29ae21	-0.16570331
22	0xbe0c031f	-0.13673066
23	0xbd9969be	-0.07490872
24	0xbe318d75	-0.17339118
25	0x3cdd2491	0.026994975
26	0x3c986311	0.018601926
27	0xbe29dd53	-0.16588335
28	0xbdacca38	-0.08437008
29	0xbdd473c1	-0.10373641
30	0xbca354c3	-0.019937878
31	0xbcb1670b	-0.02165558
32	0x3d89ea7c	0.067341775
33	0xbe5cc26c	-0.21558541
34	0xbdddd03d	-0.10830734
35	0xbd1ae16f	-0.037812646
36	0x3c90387e	0.017605063
37	0x3cd80e67	0.026374055
38	0xbe1b1fa9	-0.15148796
39	0xbe17d3aa	-0.14826837
40	0x3db20d20	0.0869391
41	0xbd541741	-0.05177999
42	0x3da49a16	0.08037202
43	0xbd8b61cf	-0.06805765
44	0xbceb22ad	-0.028703058
45	0xbd11f28d	-0.035631705
46	0xbcef3b4d	-0.029203082
47	0x3c917e9f	0.017760573
48	0xbd249161	-0.040177707
49	0xbd16d9bd	-0.036828745
50	0xbc952a00	-0.018208504
51	0xbd05158b	-0.032491248
52	0xbd2c5281	-0.04207087
53	0xbd2bf159	-0.041978214
54	0xbd3f6cfe	-0.046734802
55	0xbd9691af	-0.07352006
56	0xbd42b404	-0.047534958
57	0xba9e19f8	-0.0012062183
58	0xbd904ab6	-0.070455
59	0x3d838333	0.06421509
60	0xbd0b5e57	-0.034025516
61	0xbd131046	-0.03590419
62	0xbde5a0e1	-0.11212326
63	0xbbc7feab	-0.006103357
64	0x3cd149d8	0.025547907
65	0xbcbf2c01	-0.023336412
66	0xbdb18af0	-0.08669078
67	0x3976b9cc	0.00023529603
68	0xbd77a9d7	-0.060464706
69	0x3d2e0312	0.042483397
70	0xbe0e372f	-0.13888238
71	0x3d550313	0.052004885
72	0x3c8d3322	0.017236296
73	0xbe193541	-0.14961721
74	0x3ce9e08b	0.028549453
75	0xbe152f13	-0.14568739
76	0x3e256d4b	0.16154973
77	0xbe8d96ab	-0.27654013
78	0xbe3f4506	-0.18678674
79	0xbe06a0c3	-0.13147263
80	0x3d157ee9	0.036497984
81	0x3d9acfca	0.07559164
82	0xbda23a11	-0.079212315
83	0xbceb000c	-0.028686546
84	0x3c75f48a	0.015011916
85	0x3b1e4fea	0.002415652
86	0x3e36f6fd	0.17867656
87	0xbe409374	-0.18806249
88	0xbbd33dcb	-0.0064465753
89	0xbde726b2	-0.112866774
90	0xbe5b3215	-0.21405824
91	0xbc26bc12	-0.010176675
92	0xbe3bcfc5	-0.18340977
93	0x3ddd98c5	0.10820154
94	0xbd777937	-0.060418334
95	0xbe0307db	-0.12795965
96	0xbde7f66a	-0.11326297
97	0xbe45bcb7	-0.1931027
98	0xbd95cb34	-0.073141485
99	0xbe6085d2	-0.21926048
100	0xbda35ee6	-0.07977085
101	0xbbad83c9	-0.005295251
102	0x3cd908f6	0.02649353
103	0xbc94e740	-0.018176675
104	0x3bdced5c	0.0067421626
105	0xbc0d9ff9	-0.0086440975
106	0xb8a8cc6f	-8.048943e-05
107	0x3bebaa98	0.007191967
108	0x3d18e447	0.037327077
109	0x3c8d78de	0.017269548
110	0x3d2beec4	0.04197575
111	0xbd39c6a2	-0.045355447
112	0xbc653add	-0.013991085
113	0x3c409c2c	0.011755984
114	0xbd1d5eee	-0.03842061
115	0xba1297c7	-0.00055920746
116	0xbcea4639	-0.028597938
117	0x3cbcca9c	0.02304583
118	0xbd1ab5dc	-0.03777109
119	0x3c82076a	0.015872676
120	0xba222ea8	-0.0006186762
121	0xbdaede15	-0.085384525
122	0xbd003f13	-0.031310152
123	0xbb6b8639	-0.0035938157
124	0x39fb4a09	0.0004792961
125	0xbbe63bc6	-0.0070261685
126	0x3cca4b62	0.024694148
127	0xbd4054b9	-0.046955798
128	0x3c435bdd	0.011923757
129	0xbc3dd71e	-0.011586932
130	0x3d5362b2	0.051607795
131	0xbc3c3a33	-0.011488485
132	0xbb695718	-0.003560489
133	0xbcfb6f49	-0.030692713
134	0xbd870c31	-0.06594122
135	0xbb30bc3f	-0.0026967672
136	0xbc45dd5f	-0.012076705
137	0x3c294374	0.0103310235
138	0xbc82ea76	-0.01598094
139	0xbd323ede	-0.043516986
140	0xbcb2f2d2	-0.021844301
141	0xbcbc4431	-0.022981735
142	0x3d336f8e	0.04380756
143	0xbbafde09	-0.005367045
144	0x3caa5afa	0.020795334
145	0x3ac65b71	0.0015133453
146	0x3bbc74e5	0.0057512396
147	0xba8def10	-0.0010828692
148	0xbcbb2bf9	-0.022848116
149	0x3c5b10bd	0.01337069
150	0x3bb21969	0.005435158
151	0x3c3ada99	0.011404657
152	0x3a860c6a	0.0010227088
153	0x3b9445fb	0.004524944
154	0xbd54503a	-0.051834323
155	0x3d68768a	0.056753673
156	0xbda0e6c5	-0.07856516
157	0x3d0d3746	0.03447654
158	0xbe53c8f3	-0.20682125
159	0x3de078c5	0.10960535
160	0xbe32044a	-0.17384449
161	0xbe4ab757	-0.19796501
162	0x3ccb9f11	0.024856122
163	0xbe1528a5	-0.14566286
164	0x3c918dce	0.017767813
165	0xbdc2eac1	-0.09517432
166	0x3b844f78	0.0040377937
167	0xbcc43c56	-0.023954552
168	0xbd00893e	-0.031380884
169	0x3b0b92f0	0.0021297298
170	0xbd986a1a	-0.07442112
171	0xbc21b8c8	-0.009870715
172	0x3db7414c	0.08948001
173	0xbaf28865	-0.0018503784
174	0x3d58d1e3	0.05293454
175	0xbd52de4b	-0.051481526
176	0xbe1978f9	-0.14987554
177	0xbc1a2556	-0.009408316
178	0xbcb1b84d	-0.021694327
179	0x3c3602b5	0.011109044
180	0xbad1df3d	-0.0016011965
181	0xbcb9f80b	-0.022701284
182	0xbc3359a9	-0.01094667
183	0xbd97f99b	-0.07420655
184	0xbd448779	-0.04798076
185	0xbd4781bb	-0.048707705
186	0xbd374114	-0.044739798
187	0xbe22caf6	-0.15897736
188	0xbda44874	-0.08021632
189	0x3d4f4fb8	0.050613135
190	0x3bb42656	0.005497734
191	0xbdcb42db	-0.09924861
192	0xbc2e0869	-0.010622122
193	0xbd980017	-0.07421892
194	0x3b59cb53	0.0033232763
195	0x3d72216e	0.059113912
196	0x3b992df4	0.0046746675
197	0xbaa0114f	-0.001221219
198	0xbd0a5a17	-0.033777323
199	0xbc174602	-0.009233
200	0xbda21d9c	-0.07915804
201	0xbd3bdc39	-0.045864318
202	0x3c9724ee	0.018450227
203	0x3d40ceb7	0.04707214
204	0xbcda5b72	-0.026654933
205	0xbcd3a725	-0.025836537
206	0x3bbf75b7	0.00584289
207	0x3cb2b52c	0.021814905
208	0x3d59eafc	0.053202614
209	0xbce4e6fc	-0.027942173
210	0x3c6ad319	0.014332556
211	0x3b40eddb	0.0029438648
212	0xbe0c2b74	-0.13688451
213	0xbe095816	-0.13412508
214	0x3d3b9ccc	0.04580383
215	0xbd20f7aa	-0.03929869
216	0x3c949f4c	0.018142365
217	0xbc515fa9	-0.012779155
218	0x39fa1cb1	0.00047705093
219	0x3d0f8cce	0.03504639
220	0xbd9e5c14	-0.07732406
221	0xbdb38261	-0.08765102
222	0xbda6f066	-0.08151321
223	0xbdf3c4fc	-0.11902806
224	0xbe017201	-0.12641145
225	0xbdbf6518	-0.09345454
226	0xbddff3b0	-0.109351516
227	0xbdcc8e0c	-0.09988031
228	0xbdfb78a2	-0.12278868
229	0xbdba5029	-0.090973206
230	0xbe29ed23	-0.16594367
231	0xbe08ffd5	-0.13378842
232	0xbe1c6901	-0.15274431
233	0xbe0e7f6a	-0.13915792
234	0x3e0f16c1	0.13973524
235	0x3dc80211	0.09766019
236	0xbdd5eabb	-0.10445162
237	0xbdf52a95	-0.119710125
238	0x3e3ab337	0.18232428
239	0x3d89d814	0.06730667
240	0x3bbe7246	0.0058119623
241	0xbdb3d50f	-0.08780872
242	0x3da8779c	0.08225939
243	0x3dae49c0	0.085101604
244	0x3e288d72	0.16460207
245	0xbe54c58c	-0.20778483
246	0x3def5253	0.11685624
247	0x3da785f9	0.0817985
248	0x3dca587c	0.09880158
249	0x3db11aea	0.086477116
250	0x3dd49c53	0.10381379
251	0x3daf482d	0.08558688
252	0x3e2422fd	0.16028972
253	0x3e054a26	0.13016567
254	0x3e118333	0.14210205
255	0x3da04bbc	0.07826945

Encoder.enc1.bias f4 [256]
0	0xbde5e7b0	-0.112258315
1	0xb99a198a	-0.00029392197
2	0x3cd95ea7	0.026534392
3	0xbe3a92e2	-0.18220094
4	0x3cd032ce	0.02541485
5	0xbdc1051b	-0.09424802
6	0xbd7d466b	-0.061834734
7	0xbddbe12f	-0.1073631
8	0xbdb864b0	-0.090035796
9	0xbe914960	-0.28376293
10	0x3ed45770	0.4147296
11	0x3f77114d	0.96510774
12	0x3cca37fe	0.024684902
13	0xbe0f981e	-0.14022872
14	0xbe311437	-0.17292868
15	0xbea71ce2	-0.32639223
16	0xbe12664e	-0.14296839
17	0xbe04508e	-0.12921354
18	0xbe69ee1e	-0.22844741
19	0xbddaeed6	-0.106900856
20	0x3f59f747	0.8514294
21	0xbe8293ba	-0.2550333
22	0xbe8ed833	-0.27899322
23	0xbe777835	-0.24166949
24	0xbd98d5f2	-0.07462682
25	0xbe62eb49	-0.22160067
26	0xbe275b15	-0.16343339
27	0xbe9f6b42	-0.3113652
28	0xbeb3f431	-0.3514724
29	0xbe5cf133	-0.21576385
30	0x3d4048a9	0.046944294
31	0xbe2ff433	-0.17182998
32	0xbe944f2c	-0.28966653
33	0xbdc708e0	-0.0971849
34	0xbe8f273a	-0.27959615
35	0xbdb94c1a	-0.09047718
36	0xbd095d0c	-0.033536002
37	0xbcc1b8d7	-0.023647709
38	0x3baa26f7	0.0051926333
39	0xbd962482	-0.07331182
40	0xbe07955d	-0.13240571
41	0xbea318bf	-0.31854817
42	0xbe1b56e0	-0.15169859
43	0xbddc3fc2	-0.10754348
44	0x3c4d4966	0.012529707
45	0x3c0e1778	0.008672588
46	0xbe561978	-0.20908153
47	0xbe084485	-0.13307388
48	0xbe817728	-0.25286222
49	0xbeaf2e05	-0.34214798
50	0xbde6251c	-0.11237547
51	0xbe868e6e	-0.2628054
52	0xbe85fb53	-0.26168308
53	0xbe4b6a64	-0.19864804
54	0xbea12e8f	-0.31480834
55	0xbf0ecd91	-0.5578242
56	0xbccc690b	-0.024952432
57	0xbe1825fb	-0.14858238
58	0xbdada98a	-0.08479603
59	0xbea4ecd4	-0.32211936
60	0xbf017d03	-0.5058138
61	0xbe6dc56c	-0.23219842
62	0xbded4c3e	-0.11586808
63	0xbe0762f4	-0.13221341
64	0xbc2bdec1	-0.01049012
65	0xbc95189a	-0.018200208
66	0xbdd32e3e	-0.10311554
67	0x3e816bd1	0.2527757
68	0xbe881c45	-0.26584068
69	0xbe1b2d86	-0.15154085
70	0xbda22f82	-0.07919218
71	0xbbf30ce5	-0.0074173086
72	0xbe4defac	-0.20110959
73	0xbd748ec6	-0.05970647
74	0x3d99030f	0.074712865
75	0x3c8bc6ab	0.017062506
76	0xbdd9f145	-0.10641722
77	0xbe3c7da5	-0.18407305
78	0xbe2e19dc	-0.17002052
79	0xbdaf81af	-0.08569657
80	0xbf4aaea7	-0.7917275
81	0xbe97a04e	-0.2961449
82	0xbe050417	-0.12989841
83	0x3f091f48	0.53563356
84	0xbcbb5161	-0.022865953
85	0xbe53afa5	-0.20672472
86	0xbd8b6bb4	-0.06807652
87	0xbe74a7d6	-0.2389215
88	0xbe861c36	-0.26193398
89	0xbdb325d8	-0.087474525
90	0xbe189de3	-0.14903979
91	0xbe0e4a29	-0.13895477
92	0xbe8ddf92	-0.27709633
93	0x3cc9add5	0.024619022
94	0xbc6ea627	-0.014565981
95	0xbe9df0eb	-0.30847868
96	0xbdeb5f77	-0.11492818
97	0xbe13da9b	-0.1443886
98	0x3c23ff89	0.010009655
99	0xbe3e5e3d	-0.18590637
100	0xbc8b3005	-0.016990671
101	0x3f362404	0.71148705
102	0xbd96f7cd	-0.07371483
103	0xbea1ccb5	-0.31601492
104	0xbe52135d	-0.20515199
105	0xbef05553	-0.46940097
106	0xbe6c2567	-0.23061143
107	0xbe9e4187	-0.30909368
108	0xbd43a250	-0.047762215
109	0xbea27f8f	-0.31737944
110	0xbe4153e2	-0.18879655
111	0xbe8480c2	-0.25879484
112	0x3f0d4d20	0.5519581
113	0xbe8ebc58	-0.2787807
114	0xbbba9664	-0.0056941975
115	0xbc2938e7	-0.010328508
116	0xbe816ebe	-0.25279802
117	0xbd90a702	-0.07063104
118	0xbe810d38	-0.25205398
119	0xbe9eeb39	-0.31038836
120	0xbe5045d0	-0.20339131
121	0xbde9cee2	-0.11416413
122	0xbe2c7d3d	-0.1684465
123	0xbe6b7ec6	-0.22997579
124	0xbd128de5	-0.035779852
125	0xbd9a69df	-0.075397246
126	0xbe2ab167	-0.16669236
127	0xbcf44c7d	-0.029821629
128	0xbc636bfd	-0.013880727
129	0xbe59a583	-0.21254544
130	0xbe8e007f	-0.27734753
131	0xbe066374	-0.13123876
132	0xbeb290e1	-0.3487616
133	0xbe904a3f	-0.28181645
134	0xbef34e85	-0.47520843
135	0xbe5b0d71	-0.21391846
136	0xbda856f4	-0.0821971
137	0xbf01e1a9	-0.50734955
138	0xbd5af506	-0.05345633
139	0x3ca4f5eb	0.020136794
140	0xbdd5f29d	-0.104466654
141	0x3e5f55e5	0.2181011
142	0xbc684494	-0.014176507
143	0xbe9e0f75	-0.30871168
144	0xbe262806	-0.16226205
145	0xbe905884	-0.28192532
146	0xbed01811	-0.4064336
147	0xbe97d18d	-0.29652062
148	0xbf0fe82c	-0.5621364
149	0xbe68a9ad	-0.22720976
150	0xbe40824c	-0.18799704
151	0xbe6dd23f	-0.23224734
152	0xbed82e2c	-0.42222726
153	0xbe76845f	-0.24073933
154	0xbe6868ae	-0.22696182
155	0xbdb11b42	-0.08647777
156	0xbe873da5	-0.2641422
157	0x3b5a190c	0.003327909
158	0xbe3540de	-0.17700526
159	0xbe8fdaf0	-0.28096724
160	0xbd886f10	-0.066618085
161	0xbe8f03fd	-0.2793273
162	0xbe8144ce	-0.25247806
163	0xbed7815a	-0.42090875
164	0xbf0e0d27	-0.5548882
165	0x3bbce33a	0.005764392
166	0xbe483a69	-0.19553532
167	0xbe8091d9	-0.25111273
168	0xbdfbd87a	-0.12297149
169	0xbdd4b903	-0.10386851
170	0xbe87b8d8	-0.26508212
171	0x3d449e08	0.048002273
172	0xbeb43e32	-0.352037
173	0xbe8b0d78	-0.27158713
174	0xbee3d288	-0.4449656
175	0xbe497bce	-0.19676134
176	0xbe4d545b	-0.2005171
177	0xbda1db5c	-0.079031676
178	0xbe3e3962	-0.18576577
179	0xbe1ae1c2	-0.15125182
180	0xbe30a9c2	-0.17252257
181	0xbeb6657c	-0.356243
182	0xbe033bb2	-0.1281574
183	0xbe2bea2b	-0.16788547
184	0x3d501b59	0.05080733
185	0xbe0fb87f	-0.14035223
186	0xbd15d119	-0.036576364
187	0xbe3b16a5	-0.18270357
188	0xbddd7423	-0.10813167
189	0xbe54e373	-0.2078989
190	0xbe913d99	-0.28367308
191	0xbe6770fe	-0.22601697
192	0x3d93aa71	0.072102435
193	0xbdb523ef	-0.088447444
194	0xbe0b270c	-0.13589114
195	0xbd7e6e9a	-0.062117197
196	0xbecfca1c	-0.40583885
197	0xbe78362f	-0.2423942
198	0xbc9e71a0	-0.01934129
199	0xbdff99cc	-0.12480506
200	0xbe1f5b31	-0.1556213
201	0xbd3422f3	-0.043978643
202	0xbdf40646	-0.11915259
203	0xbd9c2938	-0.07625049
204	0xbe453770	-0.19259429
205	0xbde79f43	-0.11309674
206	0xbd191814	-0.03737648
207	0xbe966ecc	-0.29381406
208	0xbdc47c34	-0.09594002
209	0xbe1e056a	-0.15431753
210	0x3d01fd15	0.0317355
211	0xbe6c1de7	-0.23058282
212	0xbe70fcf2	-0.23533991
213	0xbdd71fa6	-0.10504083
214	0xbd796d9a	-0.06089554
215	0xbe8a3710	-0.26995134
216	0x3ccb9126	0.024849486
217	0x3ca1417d	0.019684548
218	0xbb42abe4	-0.0029704506
219	0xbd372cbb	-0.044720393
220	0xbe9cbeed	-0.30614415
221	0xbdac75df	-0.084209196
222	0x3d3836bc	0.044974074
223	0xbe208351	-0.15675093
224	0xbe661c42	-0.22471717
225	0xbe68b9b7	-0.22727095
226	0xbe344868	-0.17605746
227	0xbda3b423	-0.07993343
228	0xbdf6f794	-0.120589405
229	0xb943166b	-0.00018605
230	0xbec8e81a	-0.3923958
231	0xbdabc16e	-0.08386503
232	0xbe9596e3	-0.2921668
233	0xbf0e76da	-0.55650103
234	0xbe23c895	-0.15994485
235	0xbe828981	-0.25495532
236	0xbe842561	-0.25809768
237	0xbe895269	-0.26820686
238	0xbdfc3917	-0.123155765
239	0xbde1b141	-0.110201366
240	0xbd81f6b3	-0.06345882
241	0xbe91e271	-0.28493074
242	0xbdc0c766	-0.09413032
243	0xbe87c648	-0.26518464
244	0xbe14003e	-0.14453217
245	0xbd9796eb	-0.07401832
246	0xbe2e02b6	-0.16993222
247	0xbdc6fda0	-0.09716344
248	0xbe8f094c	-0.2793678
249	0xbefecd21	-0.49765876
250	0xbd9f8b44	-0.07790235
251	0xbc0cf3f5	-0.008603086
252	0xbf5208c1	-0.8204461
253	0xbd8b5ec7	-0.06805187
254	0xbe5ff534	-0.21870881
255	0xbf12a386	-0.57280767

Encoder.enc2.weight f4 [40, 256]
0	0xbccc771c	-0.02495914
1	0x3be2e64b	0.0069244257
2	0xbe881af3	-0.2658306
3	0x3b173dca	0.00230776
4	0x3d115baa	0.03548781
5	0xbcb09b0f	-0.021558313
6	0xbcae8e34	-0.021308042
7	0xbc7a151c	-0.015263822
8	0x3cb38b3d	0.02191698
9	0xbbaa5e40	-0.0051992238
10	0x3dc3b621	0.09556223
11	0xbe074f3d	-0.13213821
12	0xbd3ceaba	-0.04612229
13	0xbbcd0095	-0.006256173
14	0xbc3b5caa	-0.011435667
15	0xbc8035ee	-0.015650716
16	0x3b0dd7cd	0.002164352
17	0x3d54cb4a	0.051951684
18	0xbbe20c2c	-0.0068984237
19	0x3bc296ce	0.0059383875
20	0x3d338ca2	0.04383529
21	0x3b6f8361	0.0036546814
22	0xbdbc5b80	-0.0919714
23	0xbcc508a9	-0.024051981
24	0x3cfe1bc2	0.031019095
25	0xbec2cdad	-0.38047543
26	0x3d14c1d6	0.03631767
27	0xbc14b629	-0.0090766335
28	0x3d3db0f8	0.04631135
29	0xbc9b9315	-0.018991033
30	0x3bd864a2	0.0066037932
31	0x3b1ae412	0.0023634476
32	0x3d49b0aa	0.049240746
33	0x3cade4da	0.021227289
34	0xbc998f90	-0.018745214
35	0xbbaafbdf	-0.0052180137
36	0xbbef59fe	-0.007304429
37	0x3d29043f	0.041263815
38	0xbcf7405c	-0.030182056
39	0xbcf53899	-0.029934214
40	0xbdbb020e	-0.09131251
41	0xbc83d9af	-0.01609501
42	0xbcf8e529	-0.03038271
43	0xbc869220	-0.0164271
44	0x3b0c3d68	0.0021398906
45	0xbb90df23	-0.004421131
46	0x3cbe2c13	0.023214376
47	0x3c868cda	0.016424585
48	0x3d1143ca	0.03546504
49	0x3a90a7c4	0.0011036326
50	0xbc0312df	-0.008000105
51	0x3cce07c2	0.025150184
52	0xbca80aac	-0.020512901
53	0x3d6eab1b	0.058268648
54	0x3c8001cb	0.015625855
55	0xbdbaea18	-0.09126681
56	0x3cf8ca60	0.030369937
57	0xbaaba3ff	-0.0013095139
58	0xba95bf62	-0.0011424834
59	0xbb67648b	-0.003530773
60	0x3c1b5f59	0.009483182
61	0xbd9feb9b	-0.0780861
62	0x3b7ea6fa	0.003885685
63	0x3d59416e	0.053040914
64	0xbcfda141	-0.03096068
65	0xbce0afa8	-0.02742751
66	0xbc9f1247	-0.019417895
67	0x3d5d3918	0.054009527
68	0x3d216710	0.03940493
69	0x3c7e1de1	0.015510053
70	0x3cbae4da	0.022814203
71	0x3d9dfcc3	0.07714226
72	0x3bd403a1	0.006470159
73	0x3d8507a2	0.064955965
74	0xbd50de0f	-0.05099302
75	0x3d160876	0.036629163
76	0xb95a1411	-0.00020797575
77	0x3d1ec0c0	0.03875804
78	0xbc90281c	-0.01759725
79	0xbd142b1a	-0.036173917
80	0xbc9ffa4a	-0.019528527
81	0xbca86952	-0.020558033
82	0xbcd1e478	-0.025621638
83	0x3d7954bf	0.060871836
84	0xbbf012b9	-0.0073264507
85	0x3c55f103	0.01305795
86	0x3d4375b9	0.04771969
87	0x3b83012d	0.003997943
88	0xbd219c69	-0.039455805
89	0x3e1fc08e	0.15600798
90	0xbcb7cf0b	-0.022437593
91	0xbc8d9325	-0.017282078
92	0x3c11c4b6	0.008896997
93	0xbc1757b9	-0.009237223
94	0x3cb4cbb8	0.022069797
95	0xbca99617	-0.020701451
96	0x3d09f5b6	0.033681594
97	0xbca022b9	-0.019547807
98	0xbcc38d53	-0.0238711
99	0xbc78984f	-0.015173032
100	0x3c439df0	0.011939511
101	0x3be7fd71	0.007079773
102	0x3cbaca9e	0.022801694
103	0xbb962879	-0.0045824614
104	0x3cb2565f	0.0217697
105	0x3c7c9ce2	0.015418263
106	0xbcc132e7	-0.023583842
107	0x3cc94fa2	0.024574105
108	0x3d11e371	0.035617296
109	0x3b63323a	0.0034667389
110	0x3d98339e	0.0743172
111	0xb997a598	-0.0002892434
112	0xbc27ecf9	-0.01024937
113	0xbca8a582	-0.020586733
114	0xbdd17ae6	-0.10228519
115	0xbc0753dc	-0.00825974
116	0x3cdfd65b	0.027323892
117	0x3c6e35f5	0.014539232
118	0xbbdd1cf6	-0.006747837
119	0xbd902804	-0.070388824
120	0x3b8a69c9	0.0042240364
121	0x3c2b2beb	0.010447483
122	0xbbd966ed	-0.006634584
123	0x3dae8694	0.085217625
124	0xbcc633c4	-0.024194606
125	0x3c28cbc9	0.010302492
126	0x3c93147e	0.017954107
127	0x3d43a779	0.047767136
128	0x3c433621	0.011914761
129	0x3c88b25b	0.016686609
130	0xbd0dd309	-0.034625087
131	0xbce0c706	-0.027438652
132	0xbbec17df	-0.007204994
133	0xbd9497bc	-0.072555035
134	0x3b8beb44	0.004269989
135	0xbbb2db8c	-0.005458301
136	0x3c5c3aab	0.013441722
137	0xbc10a8d9	-0.008829319
138	0x3dc5f503	0.09665873
139	0x3a5eaff0	0.00084948447
140	0x3aeee2a1	0.00182255
141	0x3d879ee0	0.066221
142	0xbcc6efc4	-0.024284251
143	0x3c2f37bf	0.010694443
144	0x3d791d9d	0.060819257
145	0x3cd58900	0.026066303
146	0x3c1d5e48	0.009604998
147	0xbc46766a	-0.012113193
148	0xbc85aaf4	-0.016316868
149	0xbd08d366	-0.03340473
150	0xbcb04357	-0.021516485
151	0x3f12e73b	0.5738408
152	0xbdfa00c8	-0.1220718
153	0xbcec86bf	-0.028872846
154	0x3d01e615	0.031713564
155	0x3d40d04d	0.04707365
156	0xbd5fcb05	-0.054636974
157	0xbbca2b59	-0.006169718
158	0x39ccff14	0.0003909996
159	0xbcfd27f2	-0.030902836
160	0xbcc3e440	-0.023912549
161	0xbb90b59e	-0.0044161817
162	0x3cd74c1c	0.026281409
163	0xbdc71493	-0.09720721
164	0x3c71ce9e	0.014758734
165	0xbc8b9100	-0.017036915
166	0xb99398d0	-0.0002815188
167	0xbc4a3683	-0.012342098
168	0x3cbab077	0.022789223
169	0xbd4efe54	-0.050535515
170	0xbd23d83b	-0.040001135
171	0xbd0506ce	-0.032477193
172	0xbe38ea4d	-0.18058129
173	0x3d825bb9	0.06365151
174	0xbc4afcd0	-0.012389377
175	0xbce081d0	-0.02740565
176	0x3ceb80eb	0.028747996
177	0xbb8fa7fd	-0.0043840394
178	0x3c41d6a3	0.011830959
179	0xb9b75348	-0.0003496653
180	0xbc16173f	-0.009160816
181	0xbda890d9	-0.082307525
182	0x3c8d1884	0.017223604
183	0x3cf0e773	0.029407239
184	0x3d2b3acb	0.041804116
185	0xbc684b28	-0.014178075
186	0x3c14b9f9	0.009077542
187	0xbc936fbe	-0.017997619
188	0x3d43e611	0.04782683
189	0xbd641e25	-0.05569281
190	0xbbf66695	-0.007519553
191	0xbbff9139	-0.0077992943
192	0xbc371412	-0.011174219
193	0xbc2a8c20	-0.010409385
194	0xbb14eae9	-0.0022723025
195	0xbbff499a	-0.0077907564
196	0xbb2fcd98	-0.0026825424
197	0xbb5692f4	-0.00327414
198	0x3d2d8ad1	0.042368714
199	0xbc9bad8b	-0.01900365
200	0xbab3d722	-0.0013720731
201	0x3c9ef10f	0.019402055
202	0xbb0621d8	-0.002046695
203	0xbbe7d70c	-0.007075196
204	0x3c97b80a	0.018520374
205	0xbc50fa99	-0.01275506
206	0xbcace100	-0.021103382
207	0xbdcd19a7	-0.100146584
208	0x39ab0f5b	0.00032627102
209	0x3c704b18	0.014666341
210	0x3a9107ff	0.0011065005
211	0xbc923aed	-0.017850364
212	0xbc9cc2c0	-0.019135833
213	0x3ce97e2a	0.028502543
214	0x3dada18c	0.08478078
215	0x3c459c3b	0.012061174
216	0x3cdeea95	0.027211467
217	0xbc435bfa	-0.011923784
218	0xbd06966d	-0.0328583
219	0xbb9e0d83	-0.004823388
220	0x3d63a04c	0.055572793
221	0xbc8872fc	-0.016656391
222	0x3c31b7b1	0.010847018
223	0x3cb29df9	0.021803843
224	0x3d5e3e5f	0.0542587
225	0x3c4c91c1	0.012485922
226	0x3d11788f	0.035515364
227	0x393bbfcb	0.00017905158
228	0x3d0782e4	0.03308381
229	0x3d59e9fe	0.053201668
230	0x39481cf2	0.0001908427
231	0xbceb4b2e	-0.028722372
232	0x3c3a34c4	0.011365119
233	0xbb03cb91	-0.0020110349
234	0x3b297567	0.002585733
235	0xbc286341	-0.01027757
236	0xbc840367	-0.016114904
237	0xbcdec861	-0.027195157
238	0x3cb0caad	0.021581018
239	0xbd52aa39	-0.05143187
240	0x3d918946	0.07106261
241	0xbaf89882	-0.0018966349
242	0xbc89fc3c	-0.016843908
243	0x3d136461	0.0359844
244	0x3d2017ef	0.039085325
245	0x3d3e5110	0.046464026
246	0xbc84e162	-0.016220752
247	0x3c0a678c	0.008447539
248	0xbcb0f466	-0.021600913
249	0xbc1195d0	-0.008885816
250	0xbd330a69	-0.0437111
251	0x3cd6853d	0.02618658
252	0x3c4d8985	0.012544994
253	0x38d5ea70	0.00010200299
254	0x3abe2ff4	0.0014510141
255	0xbbf24833	-0.0073938607

Encoder.enc2.bias f4 [40]
0	0xbcd85c86	-0.026411306
1	0x3d2d089a	0.04224453
2	0xba6575bd	-0.0008753201
3	0x3b969f06	0.004596594
4	0xbb8cefcf	-0.0043010483
5	0xbb297f87	-0.0025863366
6	0xba75425f	-0.00093558984
7	0xbd2a4a86	-0.041574977
8	0x3d628e86	0.055311702
9	0xbadda1d6	-0.0016909193
10	0x3befc237	0.0073168534
11	0xbc2c3605	-0.010510926
12	0x3be6f678	0.0070484243
13	0xba7dd766	-0.0009683281
14	0x3bd75dd8	0.0065724663
15	0xbd2f79d0	-0.04284078
16	0xbbd874e4	-0.0066057313
17	0xbac5a918	-0.0015080301
18	0xbc057866	-0.008146381
19	0x39c7ef73	0.0003813464
20	0xbed2bbe2	-0.41158968
21	0xbe5f8016	-0.21826205
22	0xbc234f08	-0.009967573
23	0xbc38ca36	-0.01127868
24	0xbb583a85	-0.0032993865
25	0xbb3f6f08	-0.0029210467
26	0xbc3e017a	-0.011597032
27	0xbeeb2d9f	-0.45933244
28	0xbeec83e0	-0.46194363
29	0xbc0ec80e	-0.008714689
30	0xbe5c591a	-0.21518365
31	0xbbfd74f1	-0.007734888
32	0xbbb627e4	-0.0055589546
33	0xbc4684af	-0.012116595
34	0xbeea4d20	-0.45761967
35	0xbeea8c2f	-0.45810077
36	0xbba23fa0	-0.0049514323
37	0xbbe4f1a1	-0.006986812
38	0xbc130fb5	-0.008975913
39	0xbc16a633	-0.009194898

Decoder.dec1.weight f4 [256, 20]
0	0xbdac3afe	-0.08409689
1	0xbe295d64	-0.16539532
2	0x3bf78d30	0.0075546727
3	0xbbe2f877	-0.006926592
4	0xbc0f6c63	-0.008753869
5	0x3a089bb4	0.000521119
6	0xbc285cf1	-0.010276065
7	0x3ccd08e4	0.025028653
8	0x3e2161b7	0.15759932
9	0xbbd516c7	-0.0065029594
10	0x3bdc5b49	0.006724749
11	0xbc413187	-0.011791593
12	0xbb0d2a52	-0.0021540117
13	0x3c495332	0.012287902
14	0xbc3934a3	-0.0113040535
15	0xbd389b14	-0.04506977
16	0xbb676448	-0.0035307575
17	0x3b87c5e6	0.0041434644
18	0x3b6acd83	0.003582806
19	0x3c250940	0.010073006
20	0x3d628d55	0.055310566
21	0xbb13228e	-0.0022451016
22	0x3b87bc6a	0.0041423338
23	0xbb506af3	-0.0031802028
24	0xbae2b2cc	-0.0017295717
25	0xbaef3277	-0.0018249293
26	0xbad6c287	-0.0016384878
27	0xbc0b9491	-0.008519308
28	0x3d2839e7	0.041070845
29	0xbb286a67	-0.0025698186
30	0xbaa49403	-0.0012556318
31	0x3a9d65aa	0.0012008448
32	0x3b43c198	0.002987003
33	0xbab5c050	-0.0013866518
34	0xbc035def	-0.008018001
35	0x3b9a73d9	0.004713517
36	0x3a2d6eb1	0.00066159206
37	0x3a868b6c	0.001026494
38	0xba2612ed	-0.00063352176
39	0x3a0f20fb	0.00054599316
40	0x3cb85fcf	0.022506623
41	0xb906465b	-0.00012805445
42	0xba850f26	-0.0010151609
43	0x3b6aa6b1	0.0035804922
44	0xbbd9c792	-0.006646105
45	0x3b67802d	0.0035324201
46	0x3b39f6a9	0.002837578
47	0xba4626e6	-0.0007558897
48	0x3d4dcaf0	0.050242364
49	0x3c3954fe	0.011311768
50	0xbaf4db6c	-0.0018681115
51	0xbc57edeb	-0.013179283
52	0x3bab306c	0.005224278
53	0x3b0969d9	0.002096763
54	0x3e684f6d	0.22686549
55	0x39ec5006	0.0004507305
56	0xbb933aeb	-0.0044931076
57	0x3b983ef5	0.004646177
58	0xbbadf69a	-0.005308938
59	0x3b05d4b9	0.0020420982
60	0xbd27fe91	-0.041014258
61	0xbb9c28e0	-0.004765615
62	0xbaaceb66	-0.0013192713
63	0x39fc932e	0.00048174843
64	0xbae2ee46	-0.0017313443
65	0x3ad5acb1	0.0016302076
66	0x39340df7	0.0001717134
67	0x3ac2daac	0.0014866195
68	0xbd063531	-0.03276557
69	0xbb56f198	-0.003279781
70	0xb9f21fbc	-0.0004618148
71	0x3a2fec28	0.000671091
72	0xbb8f4b1d	-0.004372968
73	0xbafc13ef	-0.0019232015
74	0x3be2019f	0.006897166
75	0xba2ee823	-0.00066721643
76	0x3b262501	0.0025351646
77	0x3b9704c6	0.0046087233
78	0xbba70186	-0.005096617
79	0x3901b737	0.00012370652
80	0x3da1c386	0.07898621
81	0xbbea0a80	-0.007142365
82	0xb79a8779	-1.8421315e-05
83	0x3a578cdf	0.00082225905
84	0x3b45da6c	0.0030190004
85	0x3ab88695	0.0014078195
86	0x3abd8eeb	0.0014462149
87	0x3be0564e	0.006846226
88	0x3d79a2fa	0.060946442
89	0x3c493dbf	0.012282788
90	0x3b934d50	0.0044953004
91	0x3c02627a	0.007958049
92	0xbaa2f697	-0.0012433109
93	0xbaa36a1e	-0.0012467538
94	0x3b836111	0.004009374
95	0xba9ec160	-0.0012112074
96	0x39a588ba	0.00031573122
97	0xbb67ca48	-0.0035368372
98	0x3b8d50e6	0.0043126224
99	0x36ee7de3	7.107608e-06
100	0xbd93eb77	-0.07222646
101	0xba297a83	-0.0006465094
102	0xba761b9c	-0.00093882694
103	0xba89677d	-0.0010483112
104	0xbaa6f8fe	-0.0012739
105	0xb927c233	-0.00015998706
106	0xbae594d7	-0.0017515671
107	0x3b90fcad	0.0044246526
108	0x3e008b2d	0.12553091
109	0xbac27c60	-0.0014838092
110	0xbb1ee4e8	-0.0024245325
111	0xba3e5623	-0.000726076
112	0xb51b575d	-5.786913e-07
113	0xba97b255	-0.0011573533
114	0x39d314b6	0.00040260487
115	0xbb854a19	-0.004067671
116	0x3ab947b8	0.0014135754
117	0x3a92a981	0.0011189432
118	0x3a54f323	0.00081233884
119	0x3a88f851	0.0010449981
120	0x3c4b02c2	0.012390794
121	0xbc3c2ecd	-0.011485768
122	0xbc1b121c	-0.009464767
123	0xbc158fa0	-0.009128481
124	0x3c23c148	0.009994812
125	0xbaed36a8	-0.0018097954
126	0x3bd72975	0.0065662214
127	0x3be8af86	0.007101002
128	0x3cd8eb65	0.026479432
129	0xb8ded94d	-0.0001062626
130	0x3c25bf91	0.010116474
131	0xbb368508	-0.002785029
132	0xba0adb37	-0.0005296948
133	0x39b4e62c	0.00034503767
134	0x3e2eba04	0.17063147
135	0xbbb25c0e	-0.0054431027
136	0x3c148977	0.009065977
137	0xbc99967a	-0.01874851
138	0xbc04e56c	-0.008111339
139	0xbc2f8218	-0.010712169
140	0xbbe60aa7	-0.007020313
141	0x3afda9b0	0.0019352939
142	0xb9d4dea7	-0.0004060168
143	0x3add007c	0.0016861106
144	0xbb24ca74	-0.0025145086
145	0x3992d473	0.00028005577
146	0xbadf1dab	-0.0017022392
147	0x3c1e0421	0.009644539
148	0x3c8fb7f4	0.01754377
149	0x3b4e04c9	0.0031435958
150	0x39db8d99	0.00041876434
151	0xba871ccc	-0.0010308265
152	0x3b0bd7bc	0.0021338305
153	0xbbb9d8e1	-0.005671606
154	0x3ae7382c	0.0017640642
155	0xbdbd863a	-0.09254117
156	0x3b3cd681	0.0028814378
157	0x3b05e34f	0.0020429676
158	0xba0b34d8	-0.00053103035
159	0xbaa1ba48	-0.0012338841
160	0x3b33a61e	0.0027412246
161	0xb88842f1	-6.497454e-05
162	0xbb8e3f0c	-0.004341012
163	0xbbc6945b	-0.006060166
164	0x3aff321d	0.0019469891
165	0xbb9809da	-0.0046398463
166	0xbadfa5b4	-0.0017062933
167	0x3ae68f23	0.0017590265
168	0x3c7f465e	0.015580742
169	0xba171325	-0.00057630456
170	0xba4d1f5f	-0.0007824804
171	0x3aae76c8	0.0013310546
172	0xbb53b03e	-0.0032301093
173	0xbb0c6fb8	-0.0021428894
174	0x3d9f65c7	0.07783084
175	0x3b28eb2e	0.0025774944
176	0x3b09f881	0.002105266
177	0xbbc59ab4	-0.006030405
178	0x3a314bd4	0.00067633134
179	0xbb0a49de	-0.0021101157
180	0xbb907af5	-0.004409189
181	0xbaa9d32b	-0.001295661
182	0xbba53a18	-0.0050423257
183	0xb97b9337	-0.00023992067
184	0xbabe0377	-0.0014496882
185	0x3b94927a	0.004534063
186	0xbaf343e6	-0.0018559664
187	0x3bc5c5c7	0.00603554
188	0x3c8f9da5	0.017531225
189	0xbb2845c7	-0.0025676356
190	0x3b4f218a	0.0031605684
191	0x3a5d2d68	0.0008437247
192	0x3893ed6f	7.053732e-05
193	0x3b072cc6	0.0020626052
194	0xb9bbfbd1	-0.00035855037
195	0xbdca8ccc	-0.09890136
196	0xba8d2538	-0.0010768538
197	0xb95bb76f	-0.00020953802
198	0x3b5662fa	0.0032712803
199	0xbb20b60b	-0.0024522569
200	0xbd97a92a	-0.07405312
201	0x394f198d	0.00019750577
202	0xbb1dd1c4	-0.002408133
203	0xbb84b18d	-0.004049486
204	0xb9e66fc8	-0.00043952302
205	0xb95c0667	-0.0002098322
206	0x3a3ecc5d	0.00072783773
207	0x3b745531	0.0037282223
208	0x3e055cb7	0.13023649
209	0xbad9dbd4	-0.00166213
210	0xba7eaeaa	-0.0009715358
211	0xba8437b3	-0.00100874
212	0x3acbb323	0.0015541058
213	0x3b0da9f1	0.0021616186
214	0x39880ceb	0.00025949566
215	0xbbaadab2	-0.005214059
216	0x3ace8dad	0.0015758775
217	0x3a27e865	0.0006405174
218	0xb91f0708	-0.00015166041
219	0x3ac44ae5	0.0014975934
220	0xbaadd2fa	-0.0013261728
221	0x3abdb429	0.0014473248
222	0xbb9167eb	-0.004437437
223	0xbb26415f	-0.0025368554
224	0xbbb2e9fb	-0.0054600216
225	0xbafb976f	-0.0019194911
226	0x3b5379fe	0.0032268758
227	0x3b4c18bb	0.003114267
228	0x3c93675f	0.017993627
229	0x3a2ca94a	0.00065865053
230	0xbb59959f	-0.0033200753
231	0xbb0e311f	-0.002169676
232	0xbb82c395	-0.0039906004
233	0x3a267916	0.00063504407
234	0x3a22d3e3	0.0006211383
235	0xbdc76f4b	-0.09738024
236	0xba1cee0f	-0.0005986401
237	0xba82de60	-0.0009984486
238	0xbb3d954a	-0.0028928095
239	0x3b16d27a	0.0023013637
240	0xbd8f81b6	-0.07007162
241	0x3a066819	0.0005127206
242	0xbb20a1bc	-0.0024510464
243	0xbb51bcc9	-0.0032003394
244	0x3a957e4e	0.001140544
245	0x38888a39	6.510731e-05
246	0x3b600b26	0.0034186332
247	0x3bdc704c	0.006727254
248	0x3e03e1f1	0.12879159
249	0x3ac0cd67	0.0014709652
250	0x3a452b74	0.00075214286
251	0x3afb2d04	0.0019163196
252	0x3bc29f87	0.0059394273
253	0xbb1336db	-0.0022463116
254	0x3b4ee6d1	0.0031570683
255	0xba30cd0f	-0.00067444233

Decoder.dec1.bias f4 [256]
0	0xbede3f90	-0.4340787
1	0xbca82c7f	-0.02052903
2	0xbee26977	-0.44221088
3	0x3b8ff1fe	0.0043928614
4	0xbce59dff	-0.02802944
5	0xbd3eada6	-0.046552323
6	0xbe8c5b42	-0.27413374
7	0x3cbcbe18	0.023039863
8	0xbc78067d	-0.015138266
9	0x3c9c35dd	0.019068653
10	0xbd449522	-0.047993787
11	0x3cdedc8e	0.027204778
12	0xbd3fefae	-0.046859436
13	0xbda1bb74	-0.07897082
14	0xbc783d6b	-0.015151362
15	0x3c201a3c	0.00977188
16	0xbe9c3fbc	-0.30517375
17	0x3b66c946	0.0035215183
18	0xbf3a7565	-0.7283538
19	0xbeb70849	-0.3574851
20	0x3c5da4be	0.013528047
21	0xbeb53b1e	-0.35396665
22	0xbeb7367c	-0.35783756
23	0x3c8e367d	0.017359966
24	0x3cc045d8	0.023470804
25	0xbb5d9ea4	-0.003381648
26	0x3cac7580	0.021052122
27	0x3c3ce58a	0.011529336
28	0x3c0c22a4	0.008553181
29	0x398d58ef	0.00026959876
30	0xbc4b7247	-0.012417383
31	0xbca18ba7	-0.019719912
32	0x3cb60c4a	0.022222657
33	0xbd38c0c8	-0.045105726
34	0xbc8c4980	-0.017124891
35	0xbb0b8d1a	-0.002129382
36	0x3cacc547	0.021090163
37	0xbde02dc5	-0.1094623
38	0xbd3d1a04	-0.04616739
39	0x3cc50e4d	0.02405467
40	0x3cd402cc	0.02588024
41	0x3c5569ee	0.013025744
42	0xbb8f6c05	-0.0043768906
43	0xbddcff46	-0.10790877
44	0x3c963db3	0.018339967
45	0x3c8e3de1	0.01736349
46	0xbd45ba1f	-0.048273202
47	0xbeb8ef9a	-0.361203
48	0xbd3f6a16	-0.04673203
49	0xbef40f6e	-0.47668022
50	0xbf29e98a	-0.6637198
51	0xbdd91ae0	-0.10600829
52	0x3cac9bc6	0.021070372
53	0x3ca758cd	0.020428086
54	0xbd04fe35	-0.032468993
55	0xbd5f9203	-0.054582607
56	0x3b63249f	0.003465928
57	0x3ccbf87c	0.02489876
58	0xbbca18da	-0.0061675133
59	0xbc1921a0	-0.009346396
60	0xbf1bd300	-0.60868835
61	0xbcca6d37	-0.02471028
62	0xbf0e7924	-0.55653596
63	0x3caa7331	0.02080688
64	0xbdff7b0f	-0.124746434
65	0x3c6b6d33	0.014369297
66	0xbdde0ee8	-0.10842687
67	0xbd54e59f	-0.051976796
68	0xbd9c3d9f	-0.07628941
69	0xbd418b34	-0.047251895
70	0xbf286207	-0.6577458
71	0xbf041aaf	-0.51603216
72	0x3c9cd228	0.019143179
73	0x3cad2923	0.02113778
74	0xbd35c0c5	-0.044373292
75	0xbdb7d887	-0.08976846
76	0x3c9851fe	0.018593784
77	0xbebd1b7d	-0.36935034
78	0xbedefea4	-0.4355365
79	0x3c3f3d4b	0.011672328
80	0xbdbf76f6	-0.09348862
81	0xbcde9759	-0.027171778
82	0xbd41ea6d	-0.047342706
83	0x3ac53486	0.001504556
84	0xbc7262d4	-0.01479407
85	0x3cc748ed	0.024326766
86	0xbed4f69f	-0.41594407
87	0x3ca2cae4	0.019872136
88	0x3c9eae9f	0.019370375
89	0xbd365418	-0.04451379
90	0xbd925ae3	-0.071462415
91	0xbdad932d	-0.08475337
92	0x3c9a68b7	0.01884876
93	0xbf04efe8	-0.5192857
94	0xbd387eae	-0.045042686
95	0x3c9b6098	0.018966958
96	0xbdcdc673	-0.10047617
97	0xbdc67329	-0.09689934
98	0xbd3ef560	-0.046620727
99	0x3c9e2b3f	0.01930773
100	0xbcb65200	-0.022255898
101	0xbc87d8d4	-0.016582884
102	0xbd16cc2b	-0.036815803
103	0x3c81cea2	0.0158456
104	0xba1c45e2	-0.0005961341
105	0xbb8d8b97	-0.004319619
106	0xbd37c041	-0.044861082
107	0xbf87f2d6	-1.0620983
108	0x3c1dd3a2	0.009632977
109	0xbed95011	-0.42443898
110	0xbd3e0231	-0.04638881
111	0x3cd79df1	0.02632043
112	0x3c085605	0.00832129
113	0x3cc92449	0.024553435
114	0x3cb53fd8	0.02212517
115	0xbd4573be	-0.048206083
116	0x3cae95f5	0.02131174
117	0xbc46d1a2	-0.012134941
118	0xbed4313b	-0.4144381
119	0xbc9992c0	-0.018746734
120	0xbbb719c3	-0.005587788
121	0xbebec0e2	-0.37256533
122	0xbed296f7	-0.41130802
123	0xbf0f8cdc	-0.5607431
124	0xbd42ca8c	-0.047556445
125	0x3c0e5a3a	0.008688504
126	0xbee54278	-0.44777274
127	0xbed44f95	-0.41466966
128	0x3c5358dd	0.012899605
129	0xbde01645	-0.109417476
130	0xbeee2c1e	-0.46518034
131	0xbeafe2cc	-0.3435272
132	0x3c8e1047	0.017341746
133	0xbbb173ac	-0.0054154005
134	0x3cbf7efe	0.023375984
135	0xbe1ec84b	-0.15506093
136	0xbd3d0601	-0.046148304
137	0x3cc688e1	0.02423519
138	0xbd45ae24	-0.048261777
139	0x3c95ef89	0.018302696
140	0x3b9bf7b0	0.0047597513
141	0xbf157747	-0.5838513
142	0x3c862216	0.016373675
143	0xbc6fd99d	-0.014639285
144	0x3c81f913	0.015865838
145	0xbece3002	-0.40271002
146	0xbdb9a9ba	-0.09065576
147	0xbdcbcbdd	-0.09950993
148	0x3c9c945e	0.019113716
149	0xbecac1f6	-0.39601105
150	0xbf0b0e86	-0.54319036
151	0xbd147253	-0.03624184
152	0xbf54a7ef	-0.83068746
153	0xbd37c8bd	-0.044869173
154	0xbcafe538	-0.021471605
155	0xbf038e0a	-0.5138861
156	0xbc8de059	-0.017318891
157	0xbef3344c	-0.47500837
158	0xbc4754fa	-0.012166256
159	0x3aca1372	0.0015417172
160	0xbbcbf8c5	-0.006224724
161	0x3ca28a81	0.019841434
162	0xb9e5b15a	-0.0004381042
163	0xbea1ae4e	-0.31578296
164	0xbdb3fb04	-0.08788112
165	0xbd522205	-0.051301975
166	0xbf06edc0	-0.5270653
167	0xbf2cb074	-0.67456746
168	0x3bf53728	0.007483382
169	0x3c96d0e7	0.01841016
170	0x3bc6022b	0.006042739
171	0xbdc6cbdb	-0.09706851
172	0x3b59ffe4	0.0033264095
173	0xbf0f7868	-0.560431
174	0xbf279656	-0.6546377
175	0xbf043444	-0.5164225
176	0xbd358a82	-0.044321544
177	0x3b8ee2df	0.0043605412
178	0xbf832da7	-1.0248307
179	0x3c8aa868	0.016926005
180	0x3c1223ca	0.008919666
181	0xbee27399	-0.4422882
182	0xbf0603f8	-0.52349806
183	0xbb2a8021	-0.0026016312
184	0xbbab9ee0	-0.0052374452
185	0x3c87a4cd	0.016558075
186	0xbf203f7a	-0.6259686
187	0xbebb0388	-0.36526132
188	0x3c110be8	0.008852936
189	0x3c76f1ea	0.015072325
190	0x3cbb0dc7	0.022833718
191	0xbec6cca2	-0.38827997
192	0x3bf7b1be	0.0075590303
193	0xbb4c5917	-0.0031181031
194	0xbf0659ac	-0.5248058
195	0xbd4f90fe	-0.050675385
196	0xbf9185ee	-1.1368997
197	0xba145b41	-0.000565935
198	0xbdb8466f	-0.08997809
199	0x3c6e072d	0.014528078
200	0xbda789c6	-0.08180575
201	0x3cbf0d7a	0.023321856
202	0xbb3904d4	-0.0028231638
203	0xbcd3f0c2	-0.025871638
204	0xbe8c1ad8	-0.2736423
205	0xbdd465a8	-0.10370952
206	0xbf0fde18	-0.56198263
207	0x3c99ef5a	0.01879089
208	0xbba33a5e	-0.004981323
209	0xbedb2cc4	-0.4280759
210	0xbbc874e3	-0.0061174496
211	0x3c567c07	0.013091094
212	0xbf0b8d5c	-0.5451257
213	0xbdd70998	-0.10499877
214	0xbaf30ff0	-0.0018544178
215	0xbd45abaa	-0.048259415
216	0x3c03c3bd	0.008042273
217	0x3cb81cad	0.022474611
218	0x3c885970	0.01664421
219	0x3c9d1a8b	0.019177696
220	0xbd407963	-0.046990763
221	0x3cc23c8f	0.023710517
222	0xbf1f3bac	-0.6220043
223	0xbd507157	-0.05088934
224	0x3c8cc9c2	0.01718605
225	0xbc8bf781	-0.017085792
226	0xbc1e50fa	-0.009662861
227	0xbeec1673	-0.46110877
228	0xbdf037bd	-0.11729381
229	0xbd336063	-0.043793093
230	0xbc89dee6	-0.01682992
231	0xbc6e5538	-0.014546685
232	0x3cbfb9a6	0.023403954
233	0x3cbd08a3	0.023075407
234	0x3b1c80b0	0.0023880415
235	0xbef516e3	-0.47869024
236	0x3ca4ccf5	0.020117262
237	0xbccbdf5c	-0.02488678
238	0x3c100c5e	0.008792011
239	0xbf055e06	-0.52096593
240	0x3c23ac40	0.009989798
241	0xbd3c03e2	-0.04590214
242	0x3c95a688	0.018267885
243	0xbc3a8476	-0.01138412
244	0xbdd132a9	-0.10214741
245	0xbc7f5a57	-0.015585504
246	0xbd2a2a88	-0.041544467
247	0xbb8e3839	-0.0043401984
248	0xbcc90f9d	-0.024543578
249	0xbc0bd4b6	-0.008534601
250	0xbc9feeba	-0.019523013
251	0xbdd0f569	-0.10203058
252	0xbb947a49	-0.004531179
253	0x3cba5e6d	0.022750104
254	0xbdf51f01	-0.11968804
255	0x3b5c9bc5	0.0033662182

Decoder.dec2.weight f4 [31, 256]
0	0xbd9ae88c	-0.07563886
1	0x3f7e489f	0.9932956
2	0xbf796a4e	-0.97427833
3	0xbf4b64bb	-0.7945058
4	0x3d9a1e21	0.07525278
5	0x3e514a23	0.20438437
6	0xbf476ca8	-0.7790017
7	0x3da5a79c	0.080886096
8	0x3ea321b6	0.31861657
9	0x3d962704	0.073316604
10	0x3e55332b	0.208203
11	0x3e04ab4a	0.12955967
12	0x3e41d62d	0.18929358
13	0x3f6e850a	0.9317175
14	0x3f081279	0.5315319
15	0xbf48026c	-0.78128695
16	0xbde4a772	-0.1116475
17	0xbf428e47	-0.7599835
18	0xbd86d62b	-0.06583818
19	0x3d69c25e	0.05707013
20	0xbee0459a	-0.43803102
21	0x3da6c4c7	0.08143001
22	0x3d0642f0	0.03277868
23	0x3d904162	0.07043721
24	0x3dc08779	0.09400839
25	0x3ef433b3	0.47695693
26	0x3d6c339e	0.057666413
27	0xbec22ba9	-0.37923935
28	0xbeeb0dff	-0.45909116
29	0x3eaf47a0	0.34234333
30	0x3e9b1d6a	0.3029588
31	0x3f322320	0.69584846
32	0x3dd05aa7	0.101735406
33	0xbe9ffc5d	-0.31247225
34	0xbf3d0f0b	-0.7385108
35	0xbf7037cb	-0.93835133
36	0x3dba662d	0.0910152
37	0xbf5654d2	-0.83723176
38	0xbf084c2d	-0.53241235
39	0x3de61404	0.112342864
40	0x3d9939cd	0.07481728
41	0xbf4a158b	-0.7893912
42	0xbef3882a	-0.47564822
43	0xbdddebaa	-0.10835965
44	0x3d69f490	0.057118
45	0x3cf0f49f	0.02941352
46	0x3dffda16	0.124927685
47	0x3d7ae5e3	0.061254393
48	0x3e6f660d	0.23378773
49	0x3d8f4d72	0.069971934
50	0xbe421c20	-0.18956041
51	0x3f0dc924	0.5538504
52	0x3d37e925	0.04490008
53	0x3db5bb50	0.08873618
54	0x3f024deb	0.50900143
55	0xbebd9e6c	-0.3703493
56	0xbf2fc18f	-0.6865472
57	0x3e00f390	0.12592912
58	0xbf341a16	-0.70352304
59	0x3ed7047e	0.41995615
60	0x3e447949	0.19186892
61	0x39bc0d0e	0.0003586788
62	0xbdc99a86	-0.09843926
63	0x3dffb0a7	0.12484866
64	0xbf949f81	-1.1611177
65	0xbf6fba5e	-0.9364375
66	0xbf2a258d	-0.6646355
67	0x3daa2f2d	0.08309779
68	0xbe3fadd4	-0.18718654
69	0xbf19aca4	-0.60029054
70	0xbd608fa2	-0.05482448
71	0xbdd3a344	-0.10333875
72	0x3cf0ae12	0.029379878
73	0x3d9bd5d2	0.07609142
74	0x3e456e59	0.19280376
75	0x3e2095ef	0.15682195
76	0x3c74fb59	0.014952504
77	0xbcf1ba3f	-0.029507754
78	0x3d823353	0.063574456
79	0xbf18c1fd	-0.59671
80	0x3f034602	0.512787
81	0xbe2dea5f	-0.16983937
82	0xbf001f0a	-0.5004736
83	0x3de31edc	0.1108987
84	0x3f5ec260	0.8701534
85	0x3dc29b82	0.09502317
86	0x3d55f342	0.05223394
87	0x3d5d8cc9	0.05408934
88	0x3dd5058c	0.104014486
89	0x3e369eaf	0.1783397
90	0xbeceb53a	-0.4037264
91	0xbf319b04	-0.6937716
92	0x3db1a58b	0.08674153
93	0x3d82dc4a	0.06389673
94	0x3edd819c	0.43262947
95	0x3d8ac3b8	0.06775612
96	0xbf2048db	-0.6261117
97	0x3ede49f0	0.43415785
98	0x3e64b73a	0.2233552
99	0x3d9ab3d5	0.075538315
100	0x3f4bdc3e	0.7963294
101	0x3f40ad05	0.75264007
102	0x3eff10fa	0.4981764
103	0x3dd2a3e0	0.10285163
104	0x3e091030	0.13385081
105	0xbf3c22ce	-0.7349061
106	0x3e8d9c93	0.2765852
107	0xbf1d17c4	-0.6136439
108	0xbf55c489	-0.83503014
109	0xbe0c8a8a	-0.13724723
110	0x3e5c6dfa	0.21526328
111	0x3d58955c	0.052876815
112	0xbf1ca8f6	-0.61195314
113	0x3d842e38	0.06454128
114	0x3dc8066e	0.09766851
115	0xbeceef57	-0.40416977
116	0x3dd7a76b	0.10529979
117	0x3f4d1c73	0.80121535
118	0xbac94ea5	-0.0015358521
119	0xbdbe6dcc	-0.09298286
120	0x3f1d1310	0.6135721
121	0x3d2847fd	0.04108428
122	0x3d83f930	0.06444013
123	0xbd967bed	-0.07347856
124	0xbf1415fe	-0.5784606
125	0xbf945b9e	-1.1590459
126	0xbd3f56a6	-0.046713494
127	0x3e361729	0.17782272
128	0x3db8608a	0.09002788
129	0xbdd27f62	-0.102782026
130	0x3d2a2f24	0.041548863
131	0x3db4ab95	0.08821789
132	0x3d8fa233	0.07013359
133	0xbf2ddc29	-0.6791406
134	0x3d96e848	0.07368523
135	0x3e8dbb82	0.2768212
136	0x3e6511dd	0.22370096
137	0x3df614f1	0.12015713
138	0x3e40fbcb	0.18846051
139	0x3c9fbc9f	0.019499121
140	0xbf8e14de	-1.1100118
141	0xbde8efe9	-0.11373884
142	0x3db23bb5	0.087027945
143	0x3f707312	0.93925583
144	0x3d9293e2	0.07157113
145	0xbe32b1d1	-0.17450644
146	0x3ed39570	0.4132495
147	0xbdd915f8	-0.10599893
148	0x3e0cfba1	0.13767864
149	0x3ceacf17	0.028663201
150	0x3d8c0865	0.06837539
151	0xbe2acdeb	-0.16680114
152	0xbf04c303	-0.51860064
153	0x3e869099	0.26282194
154	0x3f701811	0.9378672
155	0xbe0fd2b3	-0.14045219
156	0x3f5a2035	0.85205394
157	0x3d21c301	0.03949261
158	0x3f3b4ea6	0.73166883
159	0xbf14ea1b	-0.58169717
160	0xbf4f7455	-0.81036884
161	0x3de82d5e	0.11336778
162	0x3ef28927	0.47370264
163	0x3cf11db6	0.029433113
164	0xbf3445b6	-0.7041887
165	0xbf442e10	-0.76632786
166	0xbb30683f	-0.0026917604
167	0xbdaf9da7	-0.08574992
168	0xbf4c1aba	-0.7972828
169	0x3d28d664	0.041220084
170	0xbf1b111e	-0.60572994
171	0x3e2074ad	0.15669508
172	0x3ef90545	0.48636833
173	0x3d5647f2	0.052314706
174	0xbf6e563a	-0.9310032
175	0xbce3038c	-0.027711652
176	0xbefac20b	-0.48976168
177	0xbf433372	-0.76250374
178	0x3f3ead9d	0.7448366
179	0x39f69fa5	0.0004703972
180	0xbf4ad28b	-0.79227513
181	0xbd71df96	-0.05905112
182	0xbdca4943	-0.09877255
183	0x3ec84604	0.39115918
184	0xbf483979	-0.78212696
185	0x3d6d684f	0.057960805
186	0x398eed8d	0.0002726134
187	0x3cd7df5e	0.026351627
188	0xbf56837c	-0.8379438
189	0x3d5c1d7b	0.053739052
190	0x3dd355f4	0.10319129
191	0x3d36affe	0.044601433
192	0xbf70b73b	-0.9402959
193	0xbf572586	-0.8404163
194	0x3d1725e3	0.036901366
195	0x3f034ffd	0.5129393
196	0xbf678b0b	-0.9044654
197	0x3dbd8608	0.0925408
198	0xbf8df502	-1.1090395
199	0x3d9275fe	0.071514115
200	0xbfecb250	-1.8491917
201	0xbb964ef9	-0.004587051
202	0x3f126e47	0.5719952
203	0x3ee59c48	0.44845796
204	0xbe25138c	-0.16120738
205	0xbdbc530f	-0.0919553
206	0x3d5ef5eb	0.054433744
207	0x3ddc3b15	0.107534565
208	0xbf4d5611	-0.8020945
209	0xbc9165b7	-0.017748697
210	0xbf4763ca	-0.7788664
211	0xbf3581ac	-0.7090099
212	0xbdba1ef6	-0.090879366
213	0xbdcc03e6	-0.09961681
214	0x3e9fdfb6	0.31225365
215	0x3ef43969	0.4770005
216	0xbf62cecc	-0.88596797
217	0x3d88d2d1	0.06680835
218	0x3de9e2e4	0.11420229
219	0x3dc0504f	0.09390318
220	0x3e68c6e7	0.22732125
221	0x3d1c0515	0.038090784
222	0xbc0092b0	-0.007847473
223	0x3e57d649	0.21077837
224	0x3d74a785	0.05973007
225	0x3e29d3ea	0.16584745
226	0xbfba3088	-1.454606
227	0xbc8191b3	-0.015816545
228	0xbf697ab7	-0.91202873
229	0xbed409eb	-0.41413817
230	0x3e0ec062	0.13940576
231	0x3f3893eb	0.72100705
232	0x3d9eab06	0.07747464
233	0x3d3cc50a	0.04608635
234	0x3eff03a8	0.49807477
235	0x3b130634	0.0022434117
236	0x3deb0982	0.11476423
237	0x4046542e	3.098888
238	0x3d4ec22d	0.05047815
239	0x3c8e7239	0.01738845
240	0xbf259c42	-0.64691556
241	0x3e9ffbd9	0.31246832
242	0x3de75731	0.11295927
243	0x3e89e947	0.2693579
244	0xbf0fe167	-0.5620331
245	0x3f728fda	0.9475075
246	0xbf2e8cb5	-0.6818345
247	0xbf37967c	-0.71713996
248	0x3eeca1f3	0.46217307
249	0x3e7c5aa4	0.24643952
250	0x3f497bd1	0.78704554
251	0xbdab8bb3	-0.08376255
252	0xbf1e44f3	-0.6182396
253	0x3d8d734c	0.06906757
254	0xbfd35e81	-1.6513215
255	0x3eaba672	0.33525425

Decoder.dec2.bias f4 [31]
0	0xbf1fcc58	-0.6242118
1	0xbd9b895a	-0.07594557
2	0x4044cfcb	3.0751827
3	0xbd4b03a7	-0.04956403
4	0x4115b1e5	9.355931
5	0xbf12def8	-0.57371473
6	0xc073dfaf	-3.8105276
7	0xc03fa39c	-2.994361
8	0x40019523	2.0247276
9	0x3f138d9d	0.5763796
10	0x3ff21643	1.8913044
11	0xc024b65e	-2.5736308
12	0x406cbadf	3.6989057
13	0xc063affc	-3.5576162
14	0xbdc471f6	-0.09592049
15	0xc0520035	-3.2812626
16	0xbdb084b8	-0.08619064
17	0xc087f79e	-4.2489767
18	0xbdc8277e	-0.097731575
19	0xc084f5db	-4.1550117
20	0xc0653234	-3.5811892
21	0x3e377054	0.17913944
22	0x3cb2eb8c	0.021840833
23	0x41662f55	14.386556
24	0x3e47bb97	0.19505154
25	0xc08287a2	-4.0790567
26	0x3e42f3fc	0.19038385
27	0xc08042ac	-4.0081387
28	0x3fc3833e	1.5274427
29	0x3f0c7820	0.54870796
30	0x3f378bc7	0.7169766
