results/3_iid/model_drs_n_0_m_1.pt (torch, 121528 bytes, 8 tensors)

Encoder.enc1.weight f4 [256, 22]
-0.0068160463 0.018356398 -0.21846649 -0.09992317 -0.054334436 -0.06456759 0.03228252 0.010915221
-0.04263945 -0.014585764 -0.0039163604 -0.109965354 -0.07000699 -0.14091335 0.022432001 0.07678142
-0.009083461 -0.02605878 -0.002699899 -0.028663373 0.022656681 0.034299593 -0.08155064 0.06277192
-0.27655408 0.02440976 -0.24376607 0.00424312 -0.06927053 -0.07888826 -0.13169363 -0.26309508
0.016714528 -0.2370726 -0.15017146 0.12953223 -0.10840754 0.01859066 -0.1020762 -0.09892256
0.17127782 0.049838252 -0.047840826 -0.109101765 -0.11400761 -0.1391906 0.017627584 -0.027469218
-0.07079933 -0.0031252385 -0.014986228 -0.06278649 -0.07429143 -0.1867281 -0.076891 0.038795743
0.02450087 0.034830354 -0.03396139 -0.015448572 -0.07843837 0.010183219 0.058372505 0.06956224
0.01764577 -0.044263933 -0.0756681 0.062816806 -0.23324291 -0.0470951 -0.20000125 -0.09756027
-0.034542628 -0.09933461 -0.043443963 -0.19289123 0.048348524 -0.20925725 -0.042082943 0.060966294
-0.043664288 0.029326843 -0.14802752 -0.054824095 -0.010543133 0.0034845364 0.13455036 0.02916162
-0.14127554 0.0622033 -0.21377969 0.118800454 0.037968945 0.07796799 0.07439754 0.04600806
-0.13762678 -0.108021066 -0.026898503 -0.08793317 0.077958755 -0.052096695 0.003649288 -0.015949063
-0.09083084 -0.07140254 0.19349948 0.125104 -0.09351822 0.044955704 -0.022079306 0.014303973
-0.033505883 -0.0108245 0.0061442866 -0.017469663 -0.0002659875 -0.0072575686 -0.021659 -0.014420685
-0.0035083704 -0.07462546 -0.0075020185 0.0042131147 0.20239915 -0.020614535 -0.0031903188 0.0034455333
0.005144904 0.017801119 0.0022091062 0.0029538302 0.066346906 0.053329833 0.062189646 -0.08089137
0.052497353 -0.02119669 0.011660065 0.0274006 0.11109862 -0.10342445 0.09224753 0.11445393
-0.046644036 -0.07433195 -0.06789985 -0.046969403 0.11729664 0.029346947 0.010038035 -0.029449195
-0.079461545 0.005848242 0.0049403687 -0.0097373165 0.14024997 -0.048510864 -0.017860154 -0.06521092
0.08671679 -0.027438032 0.077980526 0.12474718 -0.035337023 0.11038299 0.042740244 -0.0148708625
0.0069972076 0.07880785 -0.047732323 -0.07605478 -0.0071940753 0.09830841 -0.07813368 0.025448294
-0.0013073741 -0.010467534 0.11156977 0.0034264808 -0.00855807 -0.0038128209 0.0055979337 -0.03129341
-0.011470946 -0.0016473257 0.0039026157 0.016597856 -0.009049684 -0.00170834 0.01809911 -0.54939765
-0.0074769105 -0.007345562 -0.006389126 0.0053465418 0.0036436904 -0.00438351 0.006906213 0.012542515
-0.0009803266 -0.0071139317 0.0022292098 -0.037884865 0.010502869 -0.008114393 0.0031143716 -0.010332066
0.0017660069 0.013852565 0.019223705 0.001360192 0.09944068 -0.0130293295 0.023174815 -0.0074069356
0.006692641 0.0034895164 -0.002227066 -0.006696941 0.097649194 0.023036111 0.19396174 0.015631279
0.13195083 0.065287806 0.04244804 0.08809286 0.13342957 0.009943785 0.17470089 -0.06387236
0.06552058 -0.086798385 -0.03187946 -0.015733879 -0.017023299 0.05198564 0.12807623 -0.05144726
-0.13165124 0.09714069 0.059583243 -0.006372072 0.055299614 0.10564735 0.07506908 0.011178647
-0.04017964 0.094822966 -0.1162475 0.049973678 -0.024246404 0.16473617 -0.058021776 0.05005402
00000000: 2459 dfbb 2860 963c aeb5 5fbe 85a4 ccbd
00000010: c98d 5ebd 033c 84bd ad3a 043d c1d5 323c
00000020: b4a6 2ebd 21f9 6ebc d054 80bb 8435 e1bd
00000030: d35f 8fbd 974b 10be 51c3 b73c 943f 9d3d
00000040: ccd2 14bc 3979 d5bc caf0 30bb 73cf eabc
00000050: 819a b93c bb7d 0c3d 0604 a7bd 908e 803d
00000060: 7f98 8dbe faf6 c73c d09d 79be df09 8b3b
00000070: b5dd 8dbd 2b90 a1bd b2da 06be 66b4 86be
00000080: e8ec 883c 29c3 72be 8cc6 19be 19a4 043e
00000090: c604 debd 714b 983c 540d d1bd e997 cabd
000000a0: 7463 2f3e 3223 4c3d bef4 43bd bf70 dfbd
000000b0: d27c e9bd fb87 0ebe b967 903c 2007 e1bc
000000c0: 3dff 90bd cdd0 4cbb cc88 75bc 3496 80bd
000000d0: 1b26 98bd a735 3fbe 0779 9dbd 49e8 1e3d
000000e0: 0cb6 c83c 46aa 0e3d 191b 0bbd 021c 7dbc
000000f0: 4ca4 a0bd 84d7 263c 0218 6f3d a676 8e3d
00000100: dd8d 903c 194e 35bd e0f7 9abd 19a6 803d
00000110: 3bd7 6ebe cbe6 40bd 21cd 4cbe aecd c7bd
00000120: 927c 0dbd f26f cbbd 4cf2 31bd 4785 45be
00000130: 1a09 463d 8847 56be 2a5f 2cbd cbb7 793d
00000140: 53d9 32bd d93e f03c 8794 17be 3b8f 60bd
00000150: 1bbd 2cbc d25c 643b 92c7 093e 5ae4 ee3c
00000160: 89aa 10be e3c8 7e3d 10e9 5abe a74d f33d
00000170: 5385 1b3d aead 9f3d bd5d 983d f372 3c3d
00000180: 09ee 0cbe 263a ddbd 405a dcbc 4e16 b4bd
00000190: d7a8 9f3d 5863 55bd e528 6f3b 9ca7 82bc
000001a0: 8505 babd 7f3b 92bd ba24 463e 431b 003e
000001b0: 7b86 bfbd 7923 383d a9df b4bc 365b 6a3c
000001c0: 773d 09bd 3e59 31bc 0356 c93b 8a1c 8fbc
000001d0: 3d74 8bb9 e6d0 edbb 376e b1bc bd44 6cbc
000001e0: b0ec 65bb 3cd5 98bd 7ed3 f5bb 2b0e 8a3b
000001f0: b941 4f3e d0df a8bc ab14 51bb 75ce 613b
00000200: 9596 a83b a7d3 913c a7c6 103b 0c95 413b
00000210: e3e0 873d 6270 5a3d 92ba 7e3d 60aa a5bd
00000220: 7707 573d aea4 adbc db09 3f3c 3977 e03c
00000230: ac87 e33d 33d0 d3bd 46ec bc3d d266 ea3d
00000240: d10d 3fbd 593b 98bd 140f 8bbd fd62 40bd
00000250: 3939 f03d 0269 f03c 9276 243c 703f f1bc
00000260: bcbc a2bd 9ca2 bf3b d1e2 a13b 4489 1fbc
00000270: b09d 0f3e 54b3 46bd 754f 92bc 4e8d 85bd
00000280: 9398 b13d b9c5 e0bc 41b4 9f3d 737b ff3d
00000290: 8ebd 10bd 7a10 e23d 6510 2f3d eba4 73bc
000002a0: d548 e53b 0366 a13d f882 43bd 9cc2 9bbd
000002b0: 47bc ebbb eb55 c93d 8d04 a0bd f178 d03c
000002c0: 325c abba 0580 2bbc b17e e43d cf8e 603b
000002d0: 2637 0cbc 85e0 79bb df6e b73b 852d 00bd
000002e0: a2f0 3bbc 14eb d7ba 07c3 7f3b 3af8 873c
000002f0: 2045 14bc 61ea dfba 9644 943c 53a5 0cbf
00000300: df00 f5bb 0ab3 f0bb e05b d1bb 0b32 af3b
00000310: fbca 6e3b 8ca3 8fbb 834d e23b 1f7f 4d3c
00000320: 4d7e 80ba fc1b e9bb ef17 123b 292d 1bbd
00000330: 3a14 2c3c 3bf2 04bc 7c1a 4c3b d347 29bc
00000340: 5c79 e73a def5 623c 087b 9d3c 7848 b23a
00000350: 8ea7 cb3d f878 55bc 1cd9 bd3c e1b5 f2bb
00000360: f14d db3b 5fb0 643b f8f3 11bb 0372 dbbb
00000370: 4dfc c73d 3ab6 bc3c e89d 463e 2b0d 803c
00000380: 1e1e 073e 9db5 853d ffdd 2d3d 086a b43d
00000390: c3a1 083e 42eb 223c cae4 323e 83cf 82bd
000003a0: a72f 863d 5ac3 b1bd 0994 02bd 56e4 80bc
000003b0: 7274 8bbc e5ee 543d 6a26 033e 5dba 52bd
000003c0: 95cf 06be b3f1 c63d 8f0d 743d d0cc d0bb
000003d0: d981 623d a35d d83d d1bd 993d a526 373c
000003e0: 6893 24bd 8b32 c23d 2b13 eebd 33b1 4c3d
000003f0: 65a0 c6bc 99b0 283e 3ea8 6dbd 7205 4d3d

Encoder.enc1.bias f4 [256]
0.16508737 -0.11199147 -0.08137087 0.07560269 -0.20447443 -0.4700917 -0.09712237 0.08431472
-0.24208334 -0.39151436 0.1384678 0.13669169 0.026731377 0.11834446 0.06984029 0.08371393
-0.07558315 -0.03408902 -0.1907924 -0.19488838 -0.14591788 -0.07609965 0.20578457 -0.11137975
-0.2211563 -0.3722178 0.07334585 -0.27733973 -0.24008572 -0.19055709 -0.29164866 -0.27958387
0.12925953 -0.41297567 -0.3096998 -0.22112103 -0.21935566 0.007741103 -0.31670234 -0.019982085
0.060292825 -0.05226073 -0.31075528 -0.14769119 0.15796766 -0.3160677 0.13434093 -0.19731782
-0.11048716 0.086682744 -0.1881351 -0.0038862722 -0.112786174 0.054986607 -0.20626561 -0.027934823
-0.081596576 0.11781418 0.06414777 -0.24403371 -0.3698819 0.00957183 -0.3861701 -0.08021358
0.048082814 -0.3072737 -0.2143199 -0.21963196 -0.2642305 -0.26845172 -0.18446149 0.12706606
-0.08305218 -0.11135953 0.14079803 -0.095946744 -0.25185564 -0.17086802 -0.21207844 0.18246906
0.06373978 -0.22789825 -0.16196045 -0.07792153 -0.064049624 -0.09149875 -0.14373532 0.15604095
-0.19800504 -0.23185468 -0.19665344 -0.23234236 -0.40716863 -0.16580066 0.057642803 -0.25021
0.040469784 -0.4788932 -0.25477642 -0.28128475 0.064649105 0.24081385 -0.21653518 -0.035622608
-0.07713834 -0.12774675 0.00857979 0.18541276 -0.05051937 -0.31733152 0.0037768832 0.10752735
0.23056912 -0.3749565 -0.25426066 -0.08909229 -0.25486705 0.04158372 -0.2779345 0.19771595
-0.012531544 0.05233817 -0.040923372 0.043149553 0.11365117 0.29806352 -0.10529799 0.20442393
-0.023826484 -0.13757381 0.03964434 -0.21420543 -0.21320942 0.12105593 -0.15510477 -0.24634857
-0.019917069 -0.08606502 -0.09939252 -0.2772754 -0.08100994 0.14307086 -0.20365909 0.21518816
0.2194118 -0.1460807 0.23238643 -0.17284453 0.14935009 0.18344112 -0.25664526 0.058568817
-0.0048378063 -0.19399592 0.12905025 -0.22243391 -0.24250601 0.23532939 -0.38684464 -0.15198112
-0.3006574 0.06290034 -0.09239548 -0.2314556 -0.41752768 -0.040577423 -0.011563032 -0.19156687
-0.10531717 -0.31822997 0.082374506 -0.24495594 0.013943044 -0.08938462 -0.001246275 -0.21485952
-0.16065899 -0.117832355 -0.24795032 0.068209045 0.13396445 0.24239051 -0.048122488 -0.04246245
-0.22447401 0.05022884 -0.22893761 0.029771741 -0.01681391 0.04404252 0.15151523 -0.008693033
-0.18777731 -0.17124724 -0.20890418 -0.30000848 -0.0016681742 -0.057698898 -0.1226089 -0.12306024
-0.16808131 0.030753154 -0.019015472 -0.32465604 -0.30751753 -0.100612104 -0.30874765 0.08353733
-0.011707497 0.12355973 -0.19508266 -0.004970459 -0.010742448 -0.122056805 -0.38702273 0.17320313
0.032683983 -0.10110762 -0.4175772 0.23731385 -0.17638227 -0.27258557 0.01803364 -0.1406738
-0.037979163 -0.09512866 -0.1717873 -0.17767888 -0.2197657 -0.13142075 -0.17690842 0.16806623
0.06754127 -0.14800334 -0.072117254 0.15407692 0.13203667 0.05450017 -0.1381343 -0.22681993
-0.003316827 -0.068654574 -0.26173678 -0.11455261 -0.04266997 0.26087707 0.061014 -0.28095588
-0.20081124 0.21767601 0.004495571 -0.15264058 -0.22294717 -0.5115218 0.09636774 0.11426751
00000000: aa0c 293e c95b e5bd c5a5 a6bd 95d5 9a3d
00000010: bf61 51be dcaf f0be 18e8 c6bd 32ad ac3d
00000020: b2e4 77be 9274 c8be 81ca 0d3e e8f8 0b3e
00000030: c3fb da3c 955e f23d 6d08 8f3d 3572 ab3d
00000040: 57cb 9abd eea0 0bbd 155f 43be d290 47be
00000050: 7f6b 15be 22da 9bbd 31b9 523e 111b e4bd
00000060: cc76 62be 5593 bebe 5936 963d 79ff 8dbe
00000070: 08d9 75be 6621 43be f952 95be 9e25 8fbe
00000080: 9c5c 043e 8c71 d3be f990 9ebe 8d6d 62be
00000090: c59e 60be 14a9 fd3b cf26 a2be 78b1 a3bc
000000a0: 9cf5 763d 590f 56bd 511b 9fbe 5c3c 17be
000000b0: 46c2 213e a0d3 a1be ab90 093e af0d 4abe
000000c0: 1847 e2bd b986 b13d 7da6 40be d4b0 7ebb
000000d0: 70fc e6bd a339 613d 4b37 53be 92d7 e4bc
000000e0: 1b1c a7bd 9048 f13d e85f 833d f9e3 79be
000000f0: 2961 bdbe 2ad3 1c3c 16b8 c5be 0447 a4bd
00000100: 7cf2 443d fa52 9dbe ad76 5bbe 33e7 60be
00000110: 3849 87be 8172 89be 79e3 3cbe 9b1d 023e
00000120: 4317 aabd 7710 e4bd 5c2d 103e ba7f c4bd
00000130: 39f3 80be 07f8 2ebe 172b 59be 2bd9 3a3e
00000140: 008a 823d 295e 69be f6d8 25be 5395 9fbd
00000150: 732c 83bd b263 bbbd 5a2f 13be 33c9 1f3e
00000160: d5c1 4abe 506b 6dbe 855f 49be 28eb 6dbe
00000170: 6878 d0be a6c7 29be dc1a 6c3d 861b 80be
00000180: a5c3 253d 7d31 f5be 0e72 82be 8e04 90be
00000190: c066 843d e897 763e 66bb 5dbe 03e9 11bd
000001a0: b5fa 9dbd 0bd0 02be 3f92 0c3c d8dc 3d3e
000001b0: 66ed 4ebd 4779 a2be 9685 773b 4d37 dc3d
000001c0: 501a 6c3e 4cfa bfbe 742e 82be 0576 b6bd
000001d0: ef7d 82be b153 2a3d 6e4d 8ebe 0d76 4a3e
000001e0: 1b51 4dbc 8d60 563d 449f 27bd 96bd 303d
000001f0: f2c1 e83d c89b 983e 79a6 d7bd 8254 513e
00000200: c22f c3bc 26e0 0cbe 1a62 223d ab58 5bbe
00000210: 9253 5abe 2cec f73d c9d3 1ebe cd42 7cbe
00000220: 1f29 a3bc db42 b0bd 4e8e cbbd 0bf7 8dbe
00000230: 8ae8 a5bd 2b81 123e 028c 50be 495a 5c3e
00000240: 7dad 603e 2e96 15be b5f6 6d3e 28fe 30be
00000250: 3bef 183e fdd7 3b3e 0267 83be dbe5 6f3d
00000260: 7686 9ebb dea6 46be c025 043e b7c5 63be
00000270: 7f53 78be 30fa 703e 8010 c6be f0a0 1bbe
00000280: c4ef 99be e5d1 803d d739 bdbd b202 6dbe
00000290: 30c6 d5be 8334 26bd df72 3dbc 1b2a 44be
000002a0: 87b0 d7bd 0aef a2be f7b3 a83d bbd5 7abe
000002b0: 5d71 643c 490f b7bd 0d5a a3ba 2204 5cbe
000002c0: ca83 24be 1752 f1bd b0e6 7dbe 2fb1 8b3d
000002d0: fa2d 093e 3835 783e 161c 45bd 1bed 2dbd
000002e0: 84dc 65be c2bc 4d3d 9f6e 6abe dee3 f33c
000002f0: 53bd 89bc ee65 343d cf26 1b3e 396d 0ebc
00000300: b248 40be 705b 2fbe faea 55be b69a 99be
00000310: a3a6 daba ae55 6cbd 601a fbbd 0207 fcbd
00000320: 821d 2cbe 0aee fb3c 56c6 9bbc 5139 a6be
00000330: f072 9dbe b80d cebd 2c14 9ebe 9f15 ab3d
00000340: cdd0 3fbc e20c fd3d c0c3 47be 3bdf a2bb
00000350: 1801 30bc ebf8 f9bd d827 c6be 295c 313e
00000360: a4df 053d 8311 cfbd aecc d5be 6702 733e
00000370: 8e9d 34be 5690 8bbe 49bb 933c cb0c 10be
00000380: 0a90 1bbd d1d2 c2bd 03e9 2fbe 74f1 35be
00000390: 420a 61be 2993 06be 7b27 35be 8e19 2c3e
000003a0: 1453 8a3d 308e 17be 36b2 93bd 57c6 1d3e
000003b0: 9f34 073e 923b 5f3d 1473 0dbe 7c43 68be
000003c0: 1f5f 59bb c59a 8cbd 5d02 86be 8f9a eabd
000003d0: b5c6 2ebd ae91 853e d1e9 793d 73d9 8fbe
000003e0: 76a1 4dbe 76e6 5e3e 954f 933b d04d 1cbe
000003f0: 434c 64be 18f3 02bf 735c c53d 1605 ea3d

Encoder.enc2.weight f4 [40, 256]
0.0061027813 -0.044713702 -0.03178785 0.041090753 -0.018186718 0.0026604098 0.0033284014 -0.004561688
0.0015764458 -0.0026006964 0.029799692 0.04115073 0.030191293 -0.0025089434 0.0029127856 0.00034747648
-0.012237624 0.006808511 -0.0013916349 -0.02096608 -0.0047776443 0.014811435 -0.013709708 -0.0010484812
-0.0025503507 -0.0035495292 0.0022643546 -0.015648881 -0.0055683097 0.012299784 0.002099275 0.010141571
-0.00022895324 -0.0011660237 0.0012920618 -0.010378488 0.0035640674 -0.0059432676 0.0043894355 0.04287092
0.014154309 0.01688923 -0.0057285214 0.020442989 0.0036345858 -0.021066047 -0.003995288 -0.010258207
-0.024698894 0.02005402 0.00093314226 -0.019546682 0.0033505799 0.010452686 -0.07673247 -0.022720236
0.007175565 -0.042164102 0.012997374 -0.00059639505 0.022169894 -0.03047208 0.0039847507 -0.0014497169
0.02699524 0.005597134 0.00071864127 -0.00270493 0.00976766 0.0056318487 0.029246725 -0.0015555493
0.031407688 -0.0037666943 0.025865637 -0.0012369116 -0.006509835 -0.0017713944 -0.004029482 -0.0063603143
0.056015678 -0.010598228 0.0001702227 -0.008850955 -0.0120517025 -0.0029835706 -0.009132495 0.0011909605
0.028396457 -0.00141871 -0.0015415603 -0.000371007 -0.0014379662 0.00492302 -0.0022539494 -0.0006860508
0.019599823 -0.0023813883 -0.0017383924 0.0026041078 0.010456733 -0.012422391 -0.009627006 -0.00017770911
-0.0179284 0.002265901 -0.02346638 0.01856431 -0.00030720953 -0.008505704 -0.00024022274 0.019337278
0.0009849827 0.00034915272 0.014529808 0.021397687 0.027133401 -0.015351727 0.0068066907 0.0012195061
0.015311598 -0.017258087 -0.0081188 0.008920595 0.020035787 0.0069743167 0.00026156378 -0.0036371853
0.016510343 -0.00072617055 0.028986258 -0.023212392 -0.0032348884 -0.0045590396 0.025624465 0.0048462995
-0.006743278 0.044624645 0.053238757 -0.018636245 0.012090876 0.008908353 0.0052595716 0.014411589
0.0070293806 -0.002830799 0.011558582 -0.058566928 -0.0056887176 0.0018397346 -0.024601726 0.043657232
0.007240931 -0.0021306004 0.005962413 0.0047621927 -0.020862818 0.01006763 -0.032309514 -0.015538021
0.002043562 0.00073818647 0.007695605 -0.008928616 0.010608256 -0.0054804827 -0.0010010476 -0.0036188967
0.036118705 0.0040764892 -0.0027521998 0.013874868 -0.013411394 0.0069400454 -0.001668449 0.0014329123
-0.00016207517 0.021115301 -0.0027037393 -0.019771174 0.000341854 -0.028366994 0.001429987 -0.010951875
0.0062405244 0.007800921 0.004126538 0.002948722 -0.0050729276 -0.016341863 0.00797389 0.0006036022
-0.0001228757 0.008315259 0.011882103 -0.0088357385 -0.013472723 -0.01948155 -0.00060445815 0.0010207806
-0.0029879373 -0.001590936 -0.009436262 0.007409811 0.0074307397 -0.0071334466 0.023198443 0.012412272
0.012670768 0.0060132397 -0.0060611074 -0.033417076 0.00075987785 0.0032227247 0.00029000445 0.006776177
-0.019149452 0.0078019775 -0.0021565016 -0.010361162 0.0070299674 -0.022233993 4.7295387e-05 0.033356775
-0.0072865663 0.016001023 0.03179015 -0.02760757 -0.00461799 -0.020517047 -0.005917362 -0.0034450663
0.0026453151 0.005415585 -0.0014138543 0.004995873 -0.00654018 0.0024179209 -0.02074771 -0.021852454
-0.048465136 0.012365261 0.001633744 -0.001152596 0.010946739 0.011331874 -0.0007447936 -0.007665751
0.009428851 0.0016568307 -0.00064730947 0.022773113 -0.035161756 -0.023693653 -0.018728398 0.010316652
00000000: d7f9 c73b b725 37bd fa33 02bd c74e 283d
00000010: 50fc 94bc 455a 2e3b 4f21 5a3b 367a 95bb
00000020: bea0 ce3a 7270 2abb 7c1e f43c ab8d 283d
00000030: bb53 f73c 166d 24bb 6fe4 3e3b 812d b639
00000040: 5180 48bc ee19 df3b 8567 b6ba 0ec1 abbc
00000050: c98d 9cbb a9ab 723c af9e 60bc 316d 89ba
00000060: c923 27bb 389f 68bb 9165 143b 1532 80bc
00000070: 5e76 b6bb 0985 493c fd93 093b d528 263c
00000080: 2b13 70b9 43d5 98ba 665a a93a 890a 2abc
00000090: 2193 693b bebf c2bb 41d5 8f3b 6b99 2f3d
000000a0: 7ae7 673c 485b 8a3c 52b6 bbbb 0e78 a73c
000000b0: 3b32 6e3b b492 acbc e8ea 82bb 0a12 28bc
000000c0: 5655 cabc 5448 a43c 1e9e 743a 5d20 a0bc
000000d0: 6795 5b3b be41 2b3c ea25 9dbd ca1f babc
000000e0: 0121 eb3b 44b4 2cbd f0f2 543c 6557 1cba
000000f0: a39d b53c 95a0 f9bc 8392 823b 6d04 beba
00000100: 1f25 dd3c 2a68 b73b 3363 3c3a 3245 31bb
00000110: 8908 203c 5f8b b83b d496 ef3c 93e3 cbba
00000120: 59a5 003d a5da 76bb 2ce4 d33c de1f a2ba
00000130: 7450 d5bb 222e e8ba bf09 84bb 2f6a d0bb
00000140: b270 653d 31a4 2dbc cf7d 3239 9903 11bc
00000150: 8174 45bc 0288 43bb 76a0 15bc 011a 9c3a
00000160: b09f e83c 02f4 b9ba 2e0e caba b783 c2b9
00000170: 247a bcba 4951 a13b ffb6 13bb 17d8 33ba
00000180: cf8f a03c 1111 1cbb c5da e3ba aea9 2a3b
00000190: b852 2b3c 4987 4bbc 97ba 1dbc 6d57 3ab9
000001a0: 94de 92bc 837f 143b 913c c0bc 2e14 983c
000001b0: f710 a1b9 825b 0bbc 4de4 7bb9 3669 9e3c
000001c0: 891a 813a 7c0e b739 6f0e 6e3c 344a af3c
000001d0: de46 de3c cf85 7bbc a90a df3b d6d7 9f3a
000001e0: 7fdd 7a3c d560 8dbc b704 05bc b027 123c
000001f0: 1722 a43c cf88 e43b 7f22 8939 d85d 6ebb
00000200: b340 873c 7b5c 3eba 9774 ed3c ea27 bebc
00000210: 6c00 54bb ff63 95bb 66ea d13c b5cd 9e3b
00000220: b7f6 dcbb 55c8 363d e210 5a3d 0aab 98bc
00000230: cf18 463c 57f4 113c 7c58 ac3b 961e 6c3c
00000240: b856 e63b ed84 39bb 3560 3d3c e0e3 6fbd
00000250: 6c68 babb 4023 f13a 8f89 c9bc edd1 323d
00000260: 5545 ed3b 8ba1 0bbb 5860 c33b 2b0c 9c3b
00000270: 80e8 aabc b3f2 243c fb56 04bd 2f93 7ebc
00000280: 48ed 053b db82 413a 6a2b fc3b 5449 12bc
00000290: 40ce 2d3c 9f95 b3bb 9535 83ba 032b 6dbb
000002a0: 35f1 133d 1294 853b 405e 34bb 6a53 633c
000002b0: 77bb 5bbc 5269 e33b dcaf daba 8fd0 bb3a
000002c0: b9f2 29b9 fff9 ac3c 3831 31bb 28f7 a1bc
000002d0: de3a b339 e661 e8bc 676e bb3a 7e6f 33bc
000002e0: 507d cc3b de9e ff3b e937 873b 593f 413b
000002f0: cd3a a6bb 5fdf 85bc eba4 023c 0f3b 1e3a
00000300: 32d8 00b9 b93c 083c 27ad 423c c6c3 10bc
00000310: b2bc 5cbc c697 9fbc 8074 1eba b7cb 853a
00000320: 45d1 43bb f486 d0ba 8d9a 1abc 00ce f23b
00000330: 907d f33b b0bf e9bb a90a be3c d85c 4b3c
00000340: 0e99 4f3c b60a c53b 419c c6bb 58e0 08bd
00000350: 8a32 473a 5934 533b bd0b 9839 b10a de3b
00000360: 50df 9cbc bba7 ff3b 1854 0dbb ddc1 29bc
00000370: a45b e63b 1024 b6bc 095f 4638 1da1 083d
00000380: 26c4 eebb 9414 833c 6336 023d 4529 e2bc
00000390: 8252 97bb 5e13 a8bc 6ee6 c1bb 9fc6 61bb
000003a0: 065d 2d3b 3875 b13b 1451 b9ba 6cb4 a33b
000003b0: 024f d6bb fb75 1e3b 1af7 a9bc eb03 b3bc
000003c0: 6183 46bd aa97 4a3c 5a23 d63a b412 97ba
000003d0: f459 333c 53a9 393c 413e 43ba fb30 fbbb
000003e0: 787b 1a3c 032a d93a 34b0 29ba ae8e ba3c
000003f0: c605 10bd 3119 c2bc 4c6c 99bc 2d07 293c

Encoder.enc2.bias f4 [40]
-0.02176636 -0.0060288403 0.004965264 0.02284122 -0.03396006 -0.025465883 0.042684224 0.03878578
0.043101396 0.014844263 -0.025662638 0.0103526125 -0.021277998 -0.025086641 0.009473035 -0.007162555
-0.029064357 -0.014401016 0.00076038815 -0.010449414 -0.025683707 -0.12624587 0.011544847 0.008854021
0.0049456134 -0.12411332 -0.2100403 -0.15174112 -0.10360067 0.026452202 -0.023001125 -0.20301062
-0.017776348 -0.0015760006 0.015267786 -0.1524866 -0.008663561 0.009204865 0.022515573 -0.029488662
00000000: 5e4f b2bc 948d c5bb a7b3 a23b 831d bb3c
00000010: b419 0bbd d49d d0bc a7d5 2e3d d7dd 1e3d
00000020: 178b 303d 5a35 733c 743a d2bc 019e 293c
00000030: 324f aebc 8082 cdbc ca34 1b3c deb3 eabb
00000040: 6018 eebc 3df2 6bbc c954 473a 0534 2bbc
00000050: a366 d2bc 9946 01be 9926 3d3c 7510 113c
00000060: d00e a23b 202f febd ce14 57be 0662 1bbe
00000070: 972c d4bd 4ab2 d83c db6c bcbc 04e2 4fbe
00000080: b49f 91bc ce91 ceba bc25 7a3c 7325 1cbe
00000090: 9cf1 0dbc 01d0 163c 9472 b83c 3592 f1bc

Decoder.dec1.weight f4 [256, 20]
-0.006684355 0.049070694 -0.00038564604 0.0027575945 0.0033338408 -0.096330516 -0.04986914 0.0045952373
-0.22735871 -0.0004106181 -0.008735624 0.033289094 -0.0023042697 -0.0027018003 -0.005017896 -0.014351157
-0.006997815 -0.00122465 0.0015666484 0.008225682 0.0024124803 -0.012276587 -0.0025360514 0.00056217785
-0.0003044688 0.004731125 0.012757453 0.014530386 0.000994652 0.0030103812 0.010955061 0.06801375
0.0015347956 0.0007230807 0.004876415 0.33811873 -0.0008131172 0.0050403215 0.006192476 -0.001143225
-0.0070008026 -0.15504417 0.00489159 -0.004081757 0.0027080986 -0.055144668 -0.026395245 -0.0026849345
-0.04590436 -0.00039989996 -0.006618171 -0.07855042 0.0021895175 0.00314251 -0.0032583517 -0.0035373252
-0.0032755516 -0.002067124 0.0030910005 -0.0018728214 -0.0034748572 -0.11754032 -0.0048941644 0.0028253375
-0.009526494 -0.16606748 -0.004974972 -0.010130595 -0.08313073 0.0010547859 0.0023747897 0.089015536
0.00010707338 -0.0050405315 0.0004278959 -0.00025987977 0.004513003 -0.0029756702 0.0005577854 0.0018016582
-0.00018099937 -0.023459403 -0.0054010134 0.000692108 0.008660747 0.0061787926 0.015852112 0.036756206
-0.015406025 0.0014206324 0.0052179466 0.094408706 0.004365646 0.0051958035 -0.0072846613 0.26027554
0.006764049 0.0021472848 -0.007568426 -0.002360594 -0.00010544286 0.013597056 0.0052447952 -0.0050760084
0.0010398163 0.10834328 -0.007218499 0.0025045956 0.10896916 0.0043758135 0.0052986015 -0.16551685
0.004524316 0.0013365474 -0.0014700313 0.005520956 -0.0029521028 -0.00016137025 0.00036511582 0.0019402584
-0.00784268 -0.0080548255 -0.000328453 0.00058922265 -0.0027599027 0.13671501 -0.020544238 -0.0020516457
0.12664218 -0.0007516389 0.0022231308 -0.14064391 -0.0010054907 -0.0024072255 1.3104114e-05 0.00881441
0.008028964 -0.00074752985 -0.003494254 0.0054298467 -0.0041442914 0.16178402 0.003426243 -0.006592371
0.00366044 -0.09421202 0.010373232 0.0024417678 -0.03776055 0.0060405303 -0.0030963393 0.19906338
0.00505056 0.0064969286 0.0034862685 0.0053514303 -0.0102064805 -0.0033988913 -0.0077460045 -0.0023874156
0.0038149 0.043201372 -0.0013111738 0.0012804703 0.00021860545 -0.09149422 -0.028628703 -0.002482356
-0.0902378 -0.004303667 -0.0038846575 0.20607156 0.008488084 0.008263176 -0.001070142 -0.009087027
0.0020634683 -1.436309e-05 -0.0006752083 -0.002025579 0.001350942 -0.040901445 -0.0047638947 0.0045246393
-0.0013544034 0.16375066 -0.027584404 -0.00937778 0.09548677 9.292714e-05 0.0021568397 -0.0054985574
-0.00096445257 0.00035985972 -0.0022220581 -0.0011471589 -0.0031396542 0.003348987 0.00084804074 0.0009768272
0.0028090721 0.031987112 0.010470547 0.0014800281 0.0027938972 -0.0009910539 -0.015198378 -0.32571805
0.009055499 0.0021893887 0.0055323956 0.0028035012 -0.0039898185 -0.0022442336 0.0017354126 -0.034347065
0.005018925 -0.0025614907 -0.006243873 -0.002848227 -0.0064783012 0.060463376 0.0036109313 -0.0074280878
0.001605318 0.055597402 -0.18080959 0.005456746 -0.20362695 -0.006280779 -0.0032585778 -0.089685656
0.0011201233 0.005747907 0.00025137607 0.01069746 -0.0015785901 0.0032571515 -0.0021671676 -0.0016098232
-0.00061103655 0.06266349 -0.0005097832 -0.0084992 -0.008471433 -0.15227626 0.0025785824 0.0044379304
-0.07266357 -0.008063788 0.0027876783 0.13924707 -0.0050976695 0.0021049124 0.0038744924 -0.007920145
00000000: 6f08 dbbb 5afe 483d 8930 cab9 c2b8 343b
00000010: 917c 5a3b ef48 c5bd 9543 4cbd a593 963b
00000020: b9d0 68be 3a48 d7b9 dd1f 0fbc 255a 083d
00000030: 3b03 17bb b010 31bb 2a6d a4bb 1d21 6bbc
00000040: ed4d e5bb 6f84 a0ba ff57 cd3a 03c5 063c
00000050: b41a 1e3b bd23 49bc e233 26bb 1e5f 133a
00000060: 1ca1 9fb9 8e07 9b3b a304 513c db10 6e3c
00000070: fc5e 823a d149 453b db7c 333c cb4a 8b3d
00000080: 322b c93a 208d 3d3a 55ca 9f3b e61d ad3e
00000090: 5f27 55ba 4829 a53b 41ea ca3b 44d8 95ba
000000a0: fd66 e5bb e6c3 1ebe a249 a03b 42c0 85bb
000000b0: 5b7a 313b 60df 61bd d73a d8bc baf5 2fbb
000000c0: 3606 3cbd aaa9 d1b9 3edd d8bb 0bdf a0bd
000000d0: 027e 0f3b 92f2 4d3b 128a 55bb 78d2 67bb
000000e0: a3aa 56bb 9678 07bb 6292 4a3b 7579 f5ba
000000f0: 6eba 63bb fbb8 f0bd 3a5f a0bb 4c29 393b
00000100: 0315 1cbc 980d 2abe 1705 a3bb ccfa 25bc
00000110: 7240 aabd be40 8a3a 5ca2 1b3b c74d b63d
00000120: 958c e038 0b2b a5bb 3757 e039 7940 88b9
00000130: d0e1 933b 7603 43bb 5838 123a 9e25 ec3a
00000140: a6ca 3db9 ef2d c0bc fcfa b0bb 956e 353a
00000150: cee5 0d3c 7877 ca3b 4adc 813c ad8d 163d
00000160: 8d69 7cbc 8334 ba3a 4ffb aa3b 5a59 c13d
00000170: b10d 8f3b 8f41 aa3b 2bb4 eebb d642 853e
00000180: f5a4 dd3b 76b9 0c3b 8f00 f8bb 32b4 1abb
00000190: 3421 ddb8 30c6 5e3c 88dc ab3b a554 a6bb
000001a0: 724a 883a 15e3 dd3d 2989 ecbb 2424 243b
000001b0: 392b df3d fc62 8f3b e49f ad3b 407d 29be
000001c0: b740 943b 172f af3a 11ae c0ba 23e9 b43b
000001d0: 1178 41bb 7f35 29b9 046d bf39 4550 fe3a
000001e0: 967e 00bc 63f8 03bc 3734 acb9 1076 1a3a
000001f0: 7cdf 34bb 05ff 0b3e 644c a8bc e774 06bb
00000200: 7dae 013e a209 45ba f2b1 113b f504 10be
00000210: abca 83ba 8bc2 1dbb bed9 5b37 516a 103c
00000220: ea8b 033c e1f5 43ba dbff 64bb dbec b13b
00000230: d6cc 87bb b6aa 253e d28a 603b d104 d8bb
00000240: fee3 6f3b 3bf2 c0bd 7df4 293c 1106 203b
00000250: ceaa 1abd a4ef c53b f4eb 4abb 45d7 4b3e
00000260: 2b7f a53b 30e4 d43b e179 643b 0d5b af3b
00000270: 1539 27bc efbf 5ebb 32d2 fdbb 3076 1cbb
00000280: 6703 7a3b ecf3 303d b1db abba 74d5 a73a
00000290: 7439 6539 5261 bbbd be86 eabc 06af 22bb
000002a0: 98ce b8bd c705 8dbb bd95 7ebb 6c04 533e
000002b0: 9b11 0b3c 4662 073c 0244 8cba c1e1 14bc
000002c0: 413b 073b 00f9 70b7 7600 31ba 94bf 04bb
000002d0: 1712 b13a 4688 27bd 721a 9cbb 6d43 943b
000002e0: 3d86 b1ba 41ae 273e b0f8 e1bc 43a5 19bc
000002f0: 918e c33d e1e1 c238 c459 0d3b 3e2d b4bb
00000300: 51d3 7cba 8eab bc39 f39f 11bb 445c 96ba
00000310: a8c2 4dbb ae7a 5b3b 0d4f 5e3a e208 803a
00000320: 6918 383b eb04 033d a88c 2b3c 81fd c13a
00000330: d119 373b 40e6 81ba 9e02 79bc 84c4 a6be
00000340: 845d 143c d97b 0f3b 1949 b53b f2ba 373b
00000350: 06bd 82bb fe13 13bb c976 e33a 82af 0cbd
00000360: cb75 a43b afde 27bb 6799 ccbb 52a9 3abb
00000370: ee47 d4bb 72a8 773d 60a5 6c3b 5167 f3bb
00000380: 8969 d23a 1aba 633d 2626 39be 81ce b23b
00000390: 9583 50be fece cdbb dd8d 55bb 1dad b7bd
000003a0: 1ad1 923a f058 bc3b 20cb 8339 6644 2f3c
000003b0: b2e8 ceba ef75 553b 0a07 0ebb b400 d3ba
000003c0: f82d 20ba b755 803d f9a2 05ba 3b40 0bbc
000003d0: c4cb 0abc 4fee 1bbe 6ffd 283b 0f6c 913b
000003e0: a3d0 94bd fa1d 04bc 7bb1 363b c996 0e3e
000003f0: 5a0a a7bb 92f2 093b 32eb 7d3b 7fc3 01bc

Decoder.dec1.bias f4 [256]
-0.0816868 0.1414526 0.016313484 -0.04667074 -0.03236236 -0.006060019 -0.008401094 -0.039298475
0.017452467 -0.005997629 -0.32735252 -0.04025691 -0.01672821 -0.27920583 -0.338658 -0.30466875
-0.018732049 0.04473327 0.043262947 0.06762229 0.01203523 0.0231147 -0.032716174 0.012093384
0.03306507 -0.1596558 -0.26931557 0.0030015528 -0.039536454 -0.012041737 -0.008779862 -0.0111233
0.023932822 0.012395631 0.0054781386 0.0549647 0.0021178382 -0.019461298 0.0038979515 -0.13109018
0.0735025 -0.014188265 -0.062135167 0.015687464 -0.19444565 -0.018684708 -0.08191717 0.02260471
-0.04442872 -0.016145276 0.012552269 -0.012616501 0.0018564538 -0.010935599 -0.27766114 -0.03244248
0.01825255 0.08234461 0.028219607 -0.012426447 -0.10542659 0.0220939 0.060840193 -0.014734367
-0.025974626 -0.2924826 0.010765369 0.014329891 -0.003930979 -0.063150026 -0.076941505 0.056775607
0.0337883 -0.72075117 1.8747844e-06 -0.038472317 0.014678304 -0.008588137 -0.0165758 -0.18571666
-0.024696704 -0.0015254278 -0.091721095 -0.26446313 -0.42133853 -0.025590174 -0.0117161935 0.0086915055
-0.23345566 0.026762119 -0.027307346 0.03354154 0.017718187 -0.26305613 -0.25576425 -0.010462591
0.018309038 0.022634955 -0.008551242 -0.017785318 0.004752688 -0.0070875306 -0.047225747 0.0138289295
-0.049943034 0.017260525 -0.037182827 0.0692906 -0.007990117 -0.124660835 0.016839867 0.07131804
0.019848023 -0.02870928 -0.005121243 -0.082807414 -0.01781223 -0.19513601 0.08863022 -0.024238555
-0.13384107 -0.09050327 -0.2832431 -0.026287815 0.026059885 -0.01730293 -0.00843488 0.03312524
-0.3039807 -0.0031852194 -0.023712542 0.010009821 -0.15406257 -0.027371371 0.027802652 -0.070875734
-0.23591654 -0.33909887 -0.0074361 -0.012908833 -0.25030196 -0.21796943 -0.051495925 -0.15929289
-0.05894574 0.004284203 0.03761602 0.018339045 0.031128783 -0.03227885 0.018616091 -0.011136889
-0.09714672 0.020973947 0.008816444 0.0035385638 -0.21731625 -0.061287854 -0.28721035 0.026455846
0.013016146 -0.19757272 -0.12104363 -0.051515106 0.015483082 -0.1720278 -0.029069891 -0.11072997
-0.27333367 -0.019950435 -0.0001297526 0.007523998 -0.014226552 0.103467114 -0.029631823 -0.09513828
0.025873503 -0.17195775 0.035534587 0.08372183 -0.011823331 -0.022294536 -0.16633071 -0.109784916
-0.039279137 0.03520898 0.022860328 -0.06773688 -0.55320317 -0.065931804 -0.028310144 0.0055501396
-0.059366293 -0.023222718 -0.2544882 0.02018674 -0.005924256 -0.28254905 0.018813338 -0.0035070786
-0.3329636 0.007881185 -0.042774823 -0.09450529 0.107065864 -0.2737656 0.034159604 -0.29512
0.010727524 0.009509684 0.05029921 -0.20892555 -0.23744658 -0.0033510895 -0.03905446 -0.08495991
-0.042113297 -0.04625553 -0.10404692 -0.03887485 0.009334204 -0.29774156 -0.06670885 0.079050735
0.013520896 -0.017515728 0.02757233 0.05836372 -0.30230662 -0.020348547 -0.019953523 -0.01696115
0.024772754 0.026780114 -0.2872242 0.025029227 0.02248033 0.00910889 -0.023975648 -0.104154214
-0.14619586 -0.016056918 -0.1044963 -0.061785877 -0.23018584 0.0063358312 0.011268234 0.043858785
-0.016790692 0.025504338 -0.010913618 0.057587206 -0.24088974 0.0014586312 0.07314532 0.082185045
00000000: 694b a7bd f3d8 103e dba3 853c d129 3fbd
00000010: 658e 04bd 2093 c6bb bea4 09bc 70f7 20bd
00000020: 7af8 8e3c c287 c4bb c09a a7be 6ee4 24bd
00000030: 9909 89bc 11f4 8ebe 9564 adbe 8bfd 9bbe
00000040: f473 99bc 3c3a 373d 7d34 313d 8e7d 8a3d
00000050: 6a2f 453c 0a5b bd3c 6501 06bd 5423 463c
00000060: 3d6f 073d cf7c 23be bbe3 89be b3b5 443b
00000070: faf0 21bd b54a 45bc 69d9 0fbc 803e 36bc
00000080: c40e c43c 0b17 4b3c f581 b33b aa22 613d
00000090: 6ecb 0a3b 4d6d 9fbc c674 7f3b 813c 06be
000000a0: 7b88 963d e675 68bc 7281 7ebd ff82 803c
000000b0: c31c 47be ac10 99bc 30c4 a7bd 832d b93c
000000c0: e4fa 35bd 1943 84bc 08a8 4d3c 71b5 4ebc
000000d0: 4154 f33a 3a2b 33bc 9a29 8ebe 68e2 04bd
000000e0: 5f86 953c 4aa4 a83d ce2c e73c 4c98 4bbc
000000f0: e5e9 d7bd 44fe b43c 9133 793d 6a68 71bc
00000100: bdc8 d4bc 48c0 95be 3b61 303c ebc7 6a3c
00000110: 71cf 80bb cd54 81bd 8293 9dbd 8a8d 683d
00000120: 9a65 0a3d 2683 38bf 1aa1 fb35 2695 1dbd
00000130: 457d 703c 42b5 0cbc f9c9 87bc 822c 3ebe
00000140: be50 cabc ddf0 c7ba 45d8 bbbd b667 87be
00000150: afb9 d7be 7ca2 d1bc 47f5 3fbc d166 0e3c
00000160: 000f 6fbe 3b3c db3c a8b3 dfbc db62 093d
00000170: bb25 913c 4baf 86be 88f3 82be 4a6b 2bbc
00000180: d6fc 953c f16c b93c 821a 0cbc 84b2 91bc
00000190: 70bc 9b3b 843e e8bb c96f 41bd bc92 623c
000001a0: 1191 4cbd f265 8d3c 054d 18bd 3be8 8d3d
000001b0: fbe8 02bc 2e4e ffbd c3f3 893c 310f 923d
000001c0: 5298 a23c b92f ebbc 1ad0 a7bb ef96 a9bd
000001d0: f4ea 91bc bcd1 47be c383 b53d ef8f c6bc
000001e0: a20d 09be c759 b9bd 3d05 91be 8b59 d7bc
000001f0: 8a7b d53c e0be 8dbc 7332 0abc 55ae 073d
00000200: 5ca3 9bbe 1dbf 50bb ce40 c2bc 3b00 243c
00000210: 94c2 1dbe ed39 e0bc 63c2 e33c 4c27 91bd
00000220: 1b94 71be 5e9e adbe 87aa f3bb 927f 53bc
00000230: 9427 80be 6133 5fbe 64ed 52bd ad1d 23be
00000240: 1771 71bd 8062 8c3b 4113 1a3d c43b 963c
00000250: ca01 ff3c d436 04bd c680 983c 8077 36bc
00000260: dcf4 c6bd 8ed1 ab3c d972 103c 40e7 673b
00000270: 2788 5ebe f908 7bbd 3c0d 93be eeb9 d83c
00000280: ac41 553c 8150 4abe b9e5 f7bd 8101 53bd
00000290: c1ac 7d3c 0e28 30be fb23 eebc 65c6 e2bd
000002a0: 64f2 8bbe 186f a3bc 330e 08b9 df8b f63b
000002b0: 7c16 69bc 91e6 d33d 70be f2bc dcd7 c2bd
000002c0: abf4 d33c b115 30be b78c 113d 5a76 ab3d
000002d0: a5b6 41bc 08a3 b6bc 9952 2abe ead6 e0bd
000002e0: 29e3 20bd 4b37 103d 9545 bb3c a2b9 8abd
000002f0: b99e 0dbf 4107 87bd adea e7bc f2dd b53b
00000300: 122a 73bd 923d bebc 474c 82be aa5e a53c
00000310: 4320 c2bb 45aa 90be 6e1e 9a3c 04d7 65bb
00000320: 347a aabe 1620 013c a734 2fbd fd8b c1bd
00000330: 5945 db3d 012b 8cbe f1ea 0b3d f819 97be
00000340: 7fc2 2f3c 81ce 1b3c 8b06 4e3d 94f0 55be
00000350: 3225 73be f49d 5bbb 92f7 1fbd 76ff adbd
00000360: fe7e 2cbd 7076 3dbd 8d16 d5bd 3c3b 1fbd
00000370: 7dee 183c 9571 98be a69e 88bd 5ae5 a13d
00000380: c086 5d3c 257d 8fbc 5edf e13c cc0e 6f3d
00000390: efc7 9abe ffb1 a6bc 9275 a3bc 1cf2 8abc
000003a0: 3bf0 ca3c f861 db3c 0d0f 93be 180a cd3c
000003b0: ab28 b83c 743d 153c 9468 c4bc ce4e d5bd
000003c0: 5eb4 15be cc89 83bc 2802 d6bd 3013 7dbd
000003d0: d6b5 6bbe ce9c cf3b 669e 383c 45a5 333d
000003e0: a28c 89bc 79ee d03c 08cf 32bc 90e0 6b3d
000003f0: cdab 76be 8b2f bf3a 37cd 953d a250 a83d

Decoder.dec2.weight f4 [31, 256]
-0.12395745 -0.0016968849 -0.13694482 -0.019661034 0.0341499 -0.11180197 -0.007978445 -0.022370584
0.017028334 0.1324722 0.10787676 -0.10000324 0.015100546 0.07802213 -0.03726876 -0.042868707
0.1828666 0.028260358 -0.005306691 0.0027036383 -0.032981817 -0.07067606 0.088847026 0.110901356
-0.03314594 -0.026480353 0.087798566 0.050559018 0.17542383 0.2167884 -0.2067425 -9.986446e-05
-0.049877755 -0.08702839 -0.052751243 0.03180733 -0.20498492 -0.011569388 0.122260034 0.07659763
0.0020085378 0.14360033 -0.09447051 0.04727283 -0.045798574 -0.18118913 0.10353559 -0.17790923
-0.120025955 0.060606856 0.036547255 0.08007177 0.12890087 -0.21024992 -0.0021918637 -0.019399913
-0.16771209 0.038659573 0.1291197 -0.18987009 -0.009429763 0.049124323 0.010197475 0.0183496
0.15404613 -0.023548648 -0.14879023 -0.000420834 -0.33852094 0.11982768 -0.020510284 0.0017071206
0.041450657 -0.7729741 0.055758722 -0.18659076 -0.17281914 0.05161059 -0.01431629 0.11533102
-0.009151764 -0.22622374 -0.08103983 0.05489533 -0.22406723 0.00777842 0.24785078 0.1151143
0.06783504 -0.24518918 0.07926417 -0.018638039 0.054203458 -0.023398366 -0.009250993 -0.109045185
-0.032130312 -0.19822195 -0.009056707 -0.06024522 0.081620276 -0.27022117 -0.1844321 0.06816478
-0.1246292 -0.29757842 0.15066467 -0.015762046 0.047217455 -0.04580227 -0.021203414 -0.007638264
-0.27297506 0.0059052366 -0.1308977 0.018812457 -0.0135029815 0.02913584 0.033396166 -0.09560543
-0.031334523 0.020360924 -0.004288375 0.29626918 -0.15488644 -0.17023422 0.17954667 0.022603163
-0.09070506 -0.00086727727 -0.08216858 -0.11414674 0.01086265 0.2813581 0.034081154 0.035972506
0.020381846 0.033472434 -0.033682644 0.030120635 0.082746826 0.04547262 0.15009944 -0.021656053
-0.021165114 0.05589926 0.1069031 -0.14989184 0.0215252 -0.20635188 0.10331987 -0.008038895
0.009079757 -0.08185713 0.06459657 0.07565814 -0.031845823 0.058155745 -0.0041638105 0.05024174
-0.15798803 -0.026485648 -0.060072858 -0.010370811 -0.055058632 0.006955635 -0.09836553 -0.034172654
0.010108121 0.13510852 0.038606048 -0.14048532 -0.060909983 2.3311144e-05 -0.020762132 -0.027155725
0.14726175 0.033615023 0.0006084706 0.010143792 -0.01058402 -0.15408634 0.11293408 -0.0071125706
-0.018073376 0.0026380005 -0.08783266 0.013394799 -0.47334763 0.16343197 0.013114046 0.04976141
-0.1207015 0.16003175 0.1907139 0.10760655 0.025893383 0.005152573 -0.2599121 0.08926602
0.09637811 -0.21225365 0.0015277206 0.016974384 0.008257928 0.07663142 0.074213624 -0.01765925
-0.154264 -0.14632495 -0.067930944 -0.060406707 -0.03438601 -0.061655283 0.12407244 0.031147227
-0.11532131 0.12684964 -0.29694104 0.06481285 0.028009225 0.046183076 -0.021993695 0.03014381
-0.16122574 -0.21178702 -0.027463863 0.038229126 0.03951568 -0.06395717 -0.13107266 -0.037093136
0.12620546 -0.18010446 0.067180574 0.08885522 -0.12904824 -0.079052106 0.053523123 0.036516342
0.14466187 -0.17713067 0.08889368 -0.026275309 -0.005300561 -0.16535889 -0.1873294 -0.03377089
0.058730323 -0.0018998544 -0.0856653 0.0035711138 -0.041721247 0.12935755 0.026830642 -0.024130642
00000000: 67dd fdbd 026a deba 433b 0cbe 2d10 a1bc
00000010: c4e0 0b3d 6ef8 e4bd 06b8 02bc 8442 b7bc
00000020: 017f 8b3c cba6 073e 7eee dc3d 80ce ccbd
00000030: 4868 773c 11ca 9f3d 21a7 18bd 1997 2fbd
00000040: 6241 3b3e 4482 e73c c0e3 adbb 862f 313b
00000050: f117 07bd 9cbe 90bd 6ef5 b53d 4020 e33d
00000060: 0ac4 07bd 53ed d8bc bccf b33d f916 4f3d
00000070: 4ea2 333e c7fd 5d3e 4eb4 53be 536e d1b8
00000080: 9e4c 4cbd f13b b2bd b011 58bd 6748 023d
00000090: 91e7 51be 888d 3dbc 7863 fa3d 38df 9c3d
000000a0: aca1 033b f70b 133e c179 c1bd 28a1 413d
000000b0: 4997 3bbd a589 39be 780a d43d d62d 36be
000000c0: 2bd0 f5bd e53e 783d 93b2 153d abfc a33d
000000d0: 97fe 033e c14b 57be 5fa5 0fbb 91ec 9ebc
000000e0: b8bc 2bbe 8059 1e3d f437 043e 4e6d 42be
000000f0: 4b7f 1abc 9636 493d 4f13 273c e651 963c
00000100: 45be 1d3e 18e9 c0bc 775c 18be 62a3 dcb9
00000110: 9e52 adbe 3768 f53d 2f05 a8bc 76c1 df3a
00000120: 2ac8 293d a1e1 45bf 4263 643d a611 3fbe
00000130: 80f7 30be a065 533d df8e 6abc ab32 ec3d
00000140: 48f1 15bc 32a7 67be 36f8 a5bd edd9 603d
00000150: e171 65be 1ee2 fe3b 98cc 7d3e 0cc1 eb3d
00000160: 19ed 8a3d df12 7bbe 4155 a23d cdae 98bc
00000170: 7204 5e3d eead bfbc 7a91 17bc 1553 dfbd
00000180: 139b 03bd b2fa 4abe 9562 14bc b1c3 76bd
00000190: 8828 a73d 6e5a 8abe c5db 3cbe fa99 8b3d
000001a0: 983d ffbd 335c 98be d747 1a3e 681f 81bc
000001b0: 1767 413d 299b 3bbd c8b2 adbc 674a fabb
000001c0: 63c3 8bbe b780 c13b 0c0a 06be 951c 9a3c
000001d0: 9c3b 5dbc 49ae ee3c 6bca 083d c8cc c3bd
000001e0: a158 00bd f4cb a63c 7f85 8cbb 98b0 973e
000001f0: 8d9a 1ebe e151 2ebe 15db 373e 452a b93c
00000200: 93c3 b9bd fe59 63ba 0048 a8bd c4c5 e9bd
00000210: 42f9 313c 2b0e 903e ae98 0b3d e857 133d
00000220: d4f7 a63c 641a 093d d0f6 09bd 8dbf f63c
00000230: 2b77 a93d 7f41 3a3d abb3 193e 0968 b1bc
00000240: 7662 adbc 9ff6 643d 03f0 da3d 3f7d 19be
00000250: 9e55 b03c e84d 53be 5e99 d33d 92b5 03bc
00000260: 43c3 143c b6a4 a7bd 354b 843d a8f2 9a3d
00000270: c470 02bd b834 6e3d 9370 88bb 48ca 4d3d
00000280: 9dc7 21be 6ef8 d8bc f50e 76bd 56ea 29bc
00000290: 2985 61bd 18ec e33b de73 c9bd a0f8 0bbd
000002a0: 889c 253c e359 0a3e 6021 1e3d 62db 0fbe
000002b0: bf7c 79bd 4d8c c337 5915 aabc af75 debc
000002c0: c9cb 163e e8af 093d c581 1f3a 2632 263c
000002d0: 9968 2dbc cfc8 1dbe fc49 e73d 9110 e9bb
000002e0: 9e0e 94bc 4ee2 2c3b 9ce1 b3bd dc75 5b3c
000002f0: 9f5a f2be b65a 273e 4cdc 563c 9fd2 4b3d
00000300: 5932 f7bd 5ddf 233e 814a 433e d360 dc3d
00000310: 5c1e d43c ead6 a83b 3313 85be 1ad1 b63d
00000320: e361 c53d 0559 59be cc3d c83a dd0d 8b3c
00000330: 434c 073c eff0 9c3d 50fd 973d 22aa 90bc
00000340: 62f7 1dbe 35d6 15be 611f 8bbd 066d 77bd
00000350: 58d8 0cbd 408a 7cbd b119 fe3d 7828 ff3c
00000360: 942d ecbd dfe4 013e a808 98be 99bc 843d
00000370: 9a73 e53c 772a 3d3d 1f2c b4bc 27f0 f63c
00000380: 5c18 25be b2de 58be e5fb e0bc 2596 1c3d
00000390: 32db 213d fafb 82bd e937 06be f9ee 17bd
000003a0: 013c 013e 4e6d 38be f895 893d baf9 b53d
000003b0: 3925 04be 12e6 a1bd 103b 5b3d 2992 153d
000003c0: 3e22 143e be61 35be e40d b63d 513f d7bc
000003d0: 54b0 adbb d753 29be 47d3 3fbe 5853 0abd
000003e0: 358f 703d 8904 f9ba 4a71 afbd 5909 6a3b
000003f0: e6e3 2abd 4e76 043e efcb db3c a0ad c5bc

Decoder.dec2.bias f4 [31]
-0.15296797 0.16069 1.893268 -0.026604429 1.4895006 0.13040137 -1.916821 -1.6729013
1.2087266 0.26662055 1.2480025 -1.8137896 1.7928234 -1.6778777 -0.03426946 1.8827133
-0.08651364 -1.111709 -0.09684429 -0.9242527 -1.7283425 0.03610929 0.024638629 2.1348855
0.07764127 2.6917396 0.07836476 1.2062901 -0.03455808 -0.28349677 -0.20193276
00000000: a3a3 1cbe eb8b 243e 9b56 f23f 88f1 d9bc
00000010: f5a7 be3f f087 053e 645a f5bf a121 d6bf
00000020: 8eb7 9a3f 7d82 883e 8cbe 9f3f 422a e8bf
00000030: 3d7b e53f b2c4 d6bf 225e 0cbd c0fc f03f
00000040: 102e b1bd 7b4c 8ebf 4d56 c6bd d39b 6cbf
00000050: 543a ddbf 56e7 133d f3d6 c93c f7a1 0840
00000060: 6302 9f3d 7645 2c40 b47d a03d b767 9a3f
00000070: c68c 0dbd 7d26 91be 76c7 4ebe
