results/3_iid/model_alone_n_1_m_0.pt (torch, 121552 bytes, 8 tensors)

Encoder.enc1.weight f4 [256, 22]
00000000: 2b40 c1bd 734c bf3d fbdc 393e 4eb0 e0bd
00000010: 7472 ca3d d30f 2c3d 0054 c7bc a1f7 f3bc
00000020: 0b09 1f3e 07ab 3f3d e19b babc 0a1f d439
00000030: 771a d4bd 6835 503e 6445 1dbe 1d12 2ebe
00000040: 64ca b8bd f89d 1fbe 8d85 f4bd f38c 60bd
00000050: ee01 e53d 0b0a f5bd af23 22be b62f 94bd
00000060: cb9a 64bd 0f71 7b3d a587 343e 65a0 9fbc
00000070: 08a4 9f3d 2c29 b73d 0775 73bd c90c ea3d
00000080: 70f4 be3d 2872 243e 0db1 043e 0148 333e
00000090: 7dca 3dbd 2a36 73bd af0b bf3d 1f47 363d
000000a0: 36f9 233e 8efa 063d 2ea3 59bd 86c7 173e
000000b0: 16d0 03be e1b5 823d d2ef d7bd 2ca9 1d3e
000000c0: f6c6 7b3d a21f 9bbd 33bb 30bd e45e 5a3d
000000d0: a671 b83d 3e0f 043d 2976 a23d a3f6 a33d
000000e0: 65bc a5bd 8b35 ebbd d6c5 313e bcf4 043e
000000f0: 7a2f da3d 947a 29bd 875f 073e d19e dabd
00000100: 02f5 d2bd c05d 073e 485a 113e bc2a a1bd
00000110: 0349 efbc efb8 853d b719 403d e056 e2bc
00000120: 04d9 d4bd 3e3e 243c 7a40 05be eb63 8ebc
00000130: 3315 1abe b5c4 57be f134 3dbc 0739 dd3d
00000140: 63fc 87bd 5aa8 7cbd 31d3 abbd ca73 493e
00000150: a18e e53d cdf7 11be 1be5 153e e2ec 1bbd
00000160: 1d39 46be c040 61be 7566 03be b5a9 8dbb
00000170: 1709 40bd e866 fe3d cce8 8cbb 2b6f 1ebd
00000180: 25e3 4e3d 92b2 50be 31e6 c0bd 04f6 00be
00000190: 2b4b 8e3e c6cf 98bd 995c 1bbe 9a57 17b9
000001a0: 4f82 e5bd 8d68 0b3e 07f2 7c3d 6492 973d
000001b0: fc2c 143e 191e 05be 5f5a 343d 6869 bbbd
000001c0: a791 f1bd ceb8 0ebe 7af1 debd ce46 aa3c
000001d0: 04bc debd 6775 c53d 1770 063d 5047 22bd
000001e0: 4a65 c83b bbfe e93c 9a7c 8dbd 3db9 58bd
000001f0: 8831 96bd 8944 c2bd dc61 23be a991 8e3d
00000200: 730a 063e bc32 0d3e b755 c43d c76f 57bd
00000210: 3c2d dabd a7c9 703d 2d79 b0bb 4584 0ebe
00000220: bcdf 7dbd caa7 d13c 6de5 8d3c fe68 763d
00000230: 9a9e 30be e1b1 32be 53e5 85bd e7fc 3f3e
00000240: bfac 8b3e e369 193e 5b40 39bb 5f4d 023e
00000250: 949c 923d 7b07 563e 344f 8bbd c929 2a3e
00000260: 1cbc 8a3d cdba 27be 26fc a03b d796 2abd
00000270: 9cb1 163e 4482 673c 2f82 e83c 863e 6dbe
00000280: 2e14 95bd eb29 f03d 8693 28be 1a51 8f3a
00000290: f599 d7bd 7868 c83b 1a83 0a3b b883 01be
000002a0: 81b1 273e 782e 7d3d e891 173e b330 fcbd
000002b0: 6819 b33d c58b 673d 88fa 2b3d a39b bf3c
000002c0: 1d0c d9bd df69 2e3d ad1e 7b3b afb6 efbd
000002d0: 28d3 4ebc 95c0 d4bd 5ac8 7d3e 8044 37bd
000002e0: a51d 06bd 3e0e 2bbe 6692 153d 930c 29bd
000002f0: 349e 4f3e 73f7 2fbe a1dc 1dbe 2ca1 ef3d
00000300: 6e81 c4bd 61ae 4ebe 0bd4 d13d e155 d4bd
00000310: 7763 083e fd53 2e3e e31c 7abd d8d5 0c3e
00000320: 7093 333e c48c 40bc d9bd 893c eadc e3bd
00000330: 1e2c 183e 13ac 19be 699f d33d 94b1 cb3d
00000340: 39fa 1dbc d82a 1bbe 64ad 9d3d b29f 21bc
00000350: cffb bdbb 750f 8dbd a3a7 82ba fdd5 8f3d
00000360: 53c6 ac3d fd7b 88bd 9f53 13be cbd2 063d
00000370: c56d 043e 99a3 b8bd 51d0 a53d ed73 163d
00000380: d7d3 22bd f853 ff3d c953 3ebd 84c2 f6bd
00000390: 6f09 7abd 8b95 5fbd 4fb0 ec3d 8f63 febd
000003a0: 89fa 563e 7e95 16be 3675 c23d 689c b4bd
000003b0: 56bb e63d 469e fa3d 57b2 42bd 043c 4bbd
000003c0: d42f 663e 8301 aabc ec2a 293e 88b7 103e
000003d0: 4554 fd3d b7fa 03be 03e4 ff3c 9219 b63d
000003e0: 300c 153e 9c02 403d 65d3 e63d 01dd d93d
000003f0: 740c a63d 1172 dcba 5da6 313d 2ae0 ce3d
-0.09436067 0.093407534 0.18150704 -0.109711275 0.098851115 0.04200728 -0.024332047 -0.029781165
0.15530793 0.046793964 -0.022779407 0.00040458917 -0.1035661 0.20332873 -0.15358502 -0.16999097
-0.09022978 -0.15587604 -0.11939535 -0.05482192 0.11182009 -0.11964806 -0.15833925 -0.07235663
-0.055811685 0.061387118 0.1762987 -0.019485662 0.07794958 0.089434 -0.059437778 0.1142822
0.093239665 0.16059172 0.12958165 0.17507936 -0.046335686 -0.059377827 0.093284 0.04450142
0.16013035 0.03295379 -0.053134136 0.14822206 -0.12872347 0.06382347 -0.10543789 0.15396565
0.06146904 -0.07574393 -0.043147277 0.05331315 0.09006052 0.0322411 0.079326935 0.080060266
-0.08092574 -0.11484822 0.17360625 0.12983984 0.10653587 -0.041376665 0.13220035 -0.10674823
-0.10300638 0.13219357 0.14194596 -0.07869479 -0.02920962 0.06529414 0.046899524 -0.027629316
-0.10392955 0.010024605 -0.13012877 -0.017381629 -0.1504715 -0.21071132 -0.011548267 0.10801893
-0.06639936 -0.06168399 -0.08389891 0.19673076 0.11208845 -0.14254685 0.14638178 -0.038067706
-0.19357724 -0.21997356 -0.12832053 -0.004323209 -0.04688367 0.124219716 -0.0043002125 -0.038680237
0.05050959 -0.20380619 -0.094189055 -0.12593848 0.27791724 -0.07461505 -0.15172042 -0.00014433116
-0.11206495 0.13614102 0.061754253 0.07400969 0.14470285 -0.12999763 0.044031497 -0.09150964
-0.11795359 -0.13937685 -0.10885902 0.020785715 -0.10875705 0.09641533 0.03282174 -0.03961879
0.00611559 0.028563848 -0.069085315 -0.052911032 -0.07333666 -0.09485728 -0.15955299 0.06961376
0.13089924 0.13788885 0.09586661 -0.052596834 -0.10653159 0.05878606 -0.005385539 -0.13917644
-0.061980948 0.025592703 0.017321313 0.060158722 -0.17248002 -0.17450668 -0.06537881 0.18748818
0.27280232 0.14981799 -0.0028267119 0.12724827 0.07158771 0.20901291 -0.06802216 0.16617502
0.0677416 -0.16379853 0.004912871 -0.04164776 0.1471619 0.014130179 0.028382389 -0.23168382
-0.072792396 0.11726745 -0.16462526 0.0010934204 -0.10527412 0.0061159693 0.0021135272 -0.12647903
0.16376306 0.061811894 0.14801753 -0.12313976 0.0874508 0.05652978 0.041986972 0.023389643
-0.105980136 0.042581435 0.0038317845 -0.11704766 -0.012623586 -0.103882946 0.2478346 -0.04474306
-0.032743115 -0.16704652 0.03651657 -0.041271757 0.20275193 -0.17184238 -0.15416194 0.11700663
-0.09594999 -0.20183708 0.10245522 -0.103679426 0.13319193 0.17024226 -0.061062705 0.1375345
0.17536712 -0.011752311 0.01681416 -0.111261204 0.1486058 -0.15007047 0.103331394 0.0994598
-0.009642177 -0.15153062 0.07699087 -0.0098647345 -0.00579784 -0.06887714 -0.0009968173 0.07023237
0.08436265 -0.06664274 -0.14387368 0.03291587 0.12932499 -0.09015579 0.08096374 0.03673165
-0.039752807 0.12467188 -0.046466623 -0.1204882 -0.061044153 -0.054585975 0.11557066 -0.12421333
0.20994009 -0.14705464 0.094950125 -0.088188946 0.112662 0.122372195 -0.04753336 -0.049617782
0.22479182 -0.020752674 0.1652028 0.14132512 0.12369589 -0.12888609 0.031236654 0.08891596
0.1455543 0.04687749 0.11270789 0.10637856 0.08107844 -0.0016818662 0.043371547 0.1010135

Encoder.enc1.bias f4 [256]
00000000: 1090 323c 44cc 59be 9e49 aabd 6c18 6cbd
00000010: 7994 09bd 06f4 713c d49a 8c3d ed0f 0a3e
00000020: e760 0b3e 2a0f 213d 2e9a e13d c333 a33d
00000030: 34ee 5e3e b24a d3bd 4528 b0bc 7b4d 063e
00000040: e806 c0bd 6c7c c8bc 79e4 e5bd 11cb 5cbe
00000050: b9d6 9f3c 46d1 88bd 706d 51be a753 4b3d
00000060: 5774 06be 2391 213d e82c 01be 8c64 403e
00000070: 351f d3bd aca0 c6bd 28d9 273d aaf8 62bd
00000080: 7cd1 503d 13f1 a43d 27bb 3fbe 0cc2 08be
00000090: 119c 123e 57fb a03b 386e c43a d73f 993c
000000a0: 41f4 573e ec3a 39bc 8fd0 8cbd e2f3 083b
000000b0: d3b8 c33d 5b5c 953c a35b 373d 2fb7 d1bd
000000c0: 1a0d 493d 62a7 44be abca 633e 2b80 323e
000000d0: d02d 5fbd 7378 163e 95ce 21bd f523 b43d
000000e0: c324 b93d 3580 76be ead3 66be e064 9dbd
000000f0: aed4 cf3d 59fc 48be dc63 60be 202d c6bd
00000100: a7d7 2c3e 1d66 7fbd 452d 1c3e 4874 9abc
00000110: 17ae 5fbd 3aae e9bc 0b2e 65be cd02 2dbe
00000120: b917 f9bc 0fbc 3cbb 2f19 a0bd 55a5 303e
00000130: fa71 00be 9f56 f8bd 6e13 b6bd e092 4f3c
00000140: 960f 4fbd 20b6 22be 49c9 273e 9e9d a8bd
00000150: a6fe dc3c c0d3 193e e3b9 4e3d 2ae4 a8bd
00000160: 4b4c 6f3d c4ed 61be 593d 1cbe 7b4e 96bd
00000170: f638 55be 97aa 113d 165b 943d 42be 06be
00000180: e40b 283e f2fc 293e 2f96 3ebe e29f 99bd
00000190: 9f73 67be 2519 423e dc51 ce3d 874c 36be
000001a0: 86e5 e4bd 8811 623d 347d 213d 80ba cbbd
000001b0: 4908 aebd 70b4 06be a15b 983d 589c 24be
000001c0: c092 683b e7fc a6bd 5fdb 13be f3a3 273d
000001d0: 7c65 8d3b 1af4 2c3e 5738 f8bd 9530 afbc
000001e0: 2bf6 a93d 65db e73c 8d02 07be 833e d13d
000001f0: 91c5 0a3e 9f7c f53b eb01 86bd 641a 13be
00000200: 01ba e23d b185 153e d84d 00be ba42 683d
00000210: 0a14 0d3e cfe7 27be c6b9 68bd b4b3 143e
00000220: 2448 00be 6b65 173e ed6a 39be 7b15 b8bd
00000230: 4432 e3bd c2e9 1abe 316c 2cbe c0bf fb3d
00000240: ad77 e93d c52f 023e e8f3 4f3e f458 24bd
00000250: c715 c9bc e90f 3ebe cfab a9bd d3f5 4cbe
00000260: aff4 d63d db5c 34be 8217 d2bd cf32 12be
00000270: 9109 453c 3df0 bcbd fd99 19be 1135 bb3d
00000280: bee4 0abe db53 ba3c a61f 0ebe 0457 453e
00000290: 5172 b0bd c09f d7bd 9c71 a1bd f791 3cbe
000002a0: 3657 313d 757e 01bd 847f 39be 62d7 6dbc
000002b0: 1816 77bd 6dc2 59bc 5181 6bbe b51e 5f3d
000002c0: 2274 7bbd a622 0b3e a506 4abe 14b9 0d3d
000002d0: 238e 08be 0678 01bd 4e76 273d d430 4abd
000002e0: 38c4 873b f078 49be 8f31 cb3d 473f 773d
000002f0: 0fb5 6c3d eedb 5cbe 2605 3dbe 36fd b03d
00000300: b989 1abd aeab 42be 2e77 c2bc 6d13 a13d
00000310: e47c 6a3d daf6 e53d ecb5 b13c 7d50 81bd
00000320: 066b b7bd 8c76 b1bb fad0 b6bd 1eda 53be
00000330: 35ab ac3d 6fbb 493e bd18 4fbe 106c febd
00000340: 3817 23bd 66e9 dbbd 3011 4cbe 7302 1c3e
00000350: d3d0 4ebd 76c5 983d 7bff bfbd 4697 1a3e
00000360: c217 163e 941c 1f3e 0cca 073d 0a08 1e3d
00000370: db38 0bbc 72eb 523e 5c42 c53c dfcd 6b3d
00000380: 713b 5a3e ab3a 2dbd 65f7 bcbd 74ca db3c
00000390: 1ce4 35be 2fa4 2d3d 45a2 01be 50c9 643d
000003a0: c097 9ebd 70a8 dd3d c107 223e beb9 453d
000003b0: 67c5 8f3c 55f5 8ebd 26fd 6cbe 65eb 023e
000003c0: 9870 00be 50f2 37be 3568 2fbe 84cb 123e
000003d0: 02b9 2abc 2a24 62bd b941 21bd 1515 1b3e
000003e0: 383b d23d 6019 03bd 643d 6abd 5dcc db3d
000003f0: d4d5 193e f97e ef3d 07f2 ae3d 7e13 11be
0.010898605 -0.21269327 -0.083148226 -0.057640478 -0.03358886 0.014767652 0.068654686 0.13482638
0.13611184 0.039321102 0.110157356 0.07968857 0.21770555 -0.103169814 -0.021503577 0.13115494
-0.09376317 -0.024473391 -0.11225218 -0.21561839 0.019511567 -0.06680541 -0.20451903 0.049640324
-0.13130318 0.039445054 -0.12614787 0.18788356 -0.10308687 -0.096986145 0.04097858 -0.055412926
0.05098103 0.08053794 -0.18723737 -0.13355273 0.14317347 0.0049127745 0.0014986461 0.018707199
0.21089269 -0.011305552 -0.06875717 0.0020897319 0.09556737 0.018232515 0.044765126 -0.102400176
0.04908476 -0.19204476 0.2224528 0.17431705 -0.05448705 0.14694385 -0.039503653 0.08795921
0.09040215 -0.24072345 -0.22541776 -0.07685256 0.10147987 -0.19627513 -0.21913093 -0.09676576
0.1687914 -0.062353242 0.15251644 -0.018854275 -0.054609384 -0.02852546 -0.22380845 -0.168956
-0.03040682 -0.0028798615 -0.078173034 0.17250569 -0.12543479 -0.12125897 -0.08890425 0.012669295
-0.050551973 -0.15889788 0.16385378 -0.08233188 0.026976895 0.15022182 0.050470244 -0.08246644
0.058422368 -0.22063357 -0.15257777 -0.07339188 -0.2082251 0.035563078 0.07243936 -0.13158515
0.16410786 0.16600397 -0.18611978 -0.07501198 -0.226027 0.18954904 0.10074207 -0.1780263
-0.111765906 0.0551925 0.039426044 -0.099476814 -0.08497674 -0.13154769 0.07439352 -0.16075265
0.003548786 -0.08153706 -0.14439152 0.04092784 0.0043150764 0.16889992 -0.12120121 -0.02138547
0.08298906 0.028302858 -0.13184567 0.10217001 0.13551928 0.0074916626 -0.065433346 -0.14365536
0.11070634 0.1460178 -0.12529695 0.05670426 0.13777176 -0.16397022 -0.056817792 0.14521676
-0.1252752 0.14784782 -0.18107195 -0.08988472 -0.11093572 -0.15128234 -0.16838147 0.12292433
0.113997795 0.12713535 0.20307887 -0.040123895 -0.024546517 -0.18560757 -0.08284723 -0.2001565
0.104958884 -0.17613547 -0.1025839 -0.14277194 0.012026207 -0.09225509 -0.15000148 0.09140981
-0.1356382 0.022745064 -0.1387926 0.19271475 -0.08615554 -0.10528517 -0.078829974 -0.18415056
0.04329606 -0.03161474 -0.1811505 -0.014516683 -0.060323805 -0.013290984 -0.22998549 0.054472644
-0.06139005 0.13587436 -0.19729097 0.034600332 -0.13335471 -0.031608604 0.04088431 -0.049362972
0.004143264 -0.1967504 0.09921562 0.06036308 0.05778986 -0.21568272 -0.18458995 0.08642046
-0.037729 -0.19010803 -0.02373847 0.07865033 0.05724801 0.11228724 0.021693192 -0.0631418
-0.0895596 -0.005415743 -0.08926578 -0.20688674 0.08431093 0.19700406 -0.2022428 -0.12422955
-0.039817065 -0.107378766 -0.19928432 0.1523531 -0.05049212 0.07459538 -0.09374901 0.15096769
0.146575 0.15538245 0.03315167 0.038581885 -0.008497442 0.20597628 0.024079494 0.05756938
0.21311738 -0.04229228 -0.09226874 0.026829936 -0.17762798 0.042392906 -0.12659557 0.05585605
-0.07743788 0.108231425 0.1582327 0.04827284 0.017550183 -0.06980387 -0.23143443 0.12785108
-0.12542951 -0.17963529 -0.17129596 0.14335448 -0.010420086 -0.05521027 -0.03936932 0.15144761
0.10265201 -0.03200662 -0.057187453 0.107323386 0.15022975 0.1169414 0.08542257 -0.14167592

Encoder.enc2.weight f4 [40, 256]
00000000: db0b df3c 29cc b13a 6bbe be3c 5518 dabc
00000010: 3d8f 0bbd a3ab 24bd aeb3 bf3b bcf0 18bd
00000020: eee5 54bc d2aa e43c 89f2 b23c 8a44 4bbd
00000030: 9ba2 023d 6eb0 3c3c 56ce a6bb d769 ec39
00000040: 1343 a9ba b21c 5dbc dc2c 3d3d 1bb1 68bd
00000050: dba5 aa3c f179 4d3c 11b9 cf3b 57e2 8f3b
00000060: 6275 c63c ea9c 5dbc f73c 0b3c a5a1 afbc
00000070: 6548 e63b 45f1 85bc 1b7f 963c 6ac3 6cbc
00000080: 4af3 363c 4352 f3bb a972 9a3c b9a5 403b
00000090: aec0 8dba 0c73 833c c471 ccbc c268 99bb
000000a0: 8b2f 083d e09f 24bb 8509 3cbc 67a3 4ebc
000000b0: e983 f93c 3ac9 703b c99c 9c3c ea89 6e3b
000000c0: ce59 033c 3982 85bc acb5 0a3d 4f58 46bd
000000d0: 1e8f a23c 3a51 25bd 6fc0 5c3c cda0 22bc
000000e0: cf1e a63c 7d44 b03b b330 b73c 6dea be3c
000000f0: e808 1d3d 43ce efba c4de cab9 ebda 16bc
00000100: fd2d 31bd a302 1abd 4119 aa3c 2395 833b
00000110: f506 6fbc 2305 2abc e21c 54bb f9ea d23b
00000120: 01c1 c63b ce5a 063d 4bf9 a13c 5a13 dd3c
00000130: 9d2c e03c 134f a83c 9cfd 0f3c 68ca 333d
00000140: 1720 9f3c 9675 b93c ba7e b7bc 96b4 65bc
00000150: c529 8b3c c55a 693c b8b8 82bc 6a78 353b
00000160: 117f 263c 6052 7dbc fe37 e13c 9288 8e3b
00000170: a668 2dbc a58e 33bc 4507 b13c f70a 90bc
00000180: 6895 253d a648 1d3a 2d79 9d3a 9dd4 aabb
00000190: 5cbf a8bc d87f 013d 38c6 333c 07c5 2ebc
000001a0: ec61 b83c 877c 203c 9dc6 30bd 4014 c6bb
000001b0: a821 4abd a0b8 16bc 04ab 993c 7651 cc3b
000001c0: 8349 133c 6478 44bd 1899 90bc 4277 763c
000001d0: f170 a33c 30d8 45bd 3c17 d4bc 7fb3 d8bb
000001e0: 9801 28bc 710b bf3c b7a5 98bc 1eaa 983c
000001f0: e2a6 e6bc 43f6 71bc 7e84 37ba 5d12 66bb
00000200: a638 b73c dd3b b0bb 75d8 0b3c 4a36 f4bc
00000210: e64a 963c 3da2 25bc 90a6 58bb 9f96 5eba
00000220: 9b05 d8bc bfad d6ba 95fa 23bd 9b62 913c
00000230: b2dd 11bd baae 88bc ac98 d53c c1d1 b3bc
00000240: 20c5 353c e52c 953c 2ab5 cdbc 73fa 35bc
00000250: dbd2 9e3b d3ef cf3c 19c4 fe3a 4ca0 11bc
00000260: df6a ea3c 5885 853b e75a ddbc 33b2 453c
00000270: dfb5 0bbd 4adc aa3c c106 98bc b0e0 93bc
00000280: 6973 3a3c 1a82 113d ce8d a73c c3e3 f0bb
00000290: d3a3 5d3b 83ff 803c 5079 e3bb 87d2 28ba
000002a0: 46c8 83bb 99f5 9bbb 3a96 42ba de25 c33c
000002b0: 1d57 6f3c 1313 b33c 1c64 12bc 8f42 ce3c
000002c0: 4214 bdbc 0c89 363d 001c 64bc fd40 2c3c
000002d0: a95e e53b e558 d0bc 5400 d43c 8858 7c3d
000002e0: 636c be3b 31b3 e4bb b6fb 68bc cbf8 023d
000002f0: 4154 d2bc a8ee c53c 8a3b ecbc 835d 80ba
00000300: 39c3 9fbc 460f b3bc 75fa 3ebb 5ad2 e63b
00000310: 44a6 133c cab9 963a 9106 2e3d b99c e3bc
00000320: b01f 8cbc 64c5 0abc 8432 0bbd 7b5b 3c3c
00000330: 1b88 96bc 4a2c 313d cc16 18bc d294 a6bc
00000340: b82b 163d c9c5 80bc 2977 a03c e63d 773c
00000350: 6423 a1bb 2763 4abc b032 28bd 89d1 0cbd
00000360: e235 5fbb e687 c03b 0ea6 d539 b7c6 213c
00000370: d05a dfbb 4d6c d0bc 5866 66bc cb29 34bd
00000380: 578c cb3c fa9b bf3b b913 dc3a 0fbf 77bd
00000390: e5f0 1b3b f102 323c 451a d5bc 0689 15bd
000003a0: cbb7 c9bc c3f8 3e3b e130 b33c 9549 d5bc
000003b0: 1e92 a5bb 9237 7bbc 984f 413d 168c 013d
000003c0: 6b5e 83bc fe21 9cbc 2b1f 113d 75fe eb3b
000003d0: c3ac acbc 7ef1 f8bc 56a7 a43c 950f c3bb
000003e0: 5b9c 05bd 4ce3 f7bc f365 c5bc e8c3 bbbb
000003f0: cc10 e13c fc07 ba3c c174 7b3b aedb b83b
0.027227333 0.0013564873 0.023284158 -0.02662293 -0.03407215 -0.040202748 0.005850277 -0.037338957
-0.012994273 0.027913485 0.021844165 -0.04962591 0.031893354 0.0115166735 -0.005090515 0.00045092285
-0.0012913666 -0.013495611 0.04618536 -0.056809526 0.02083104 0.01254128 0.0063392003 0.0043909955
0.024225894 -0.013526181 0.008498422 -0.021439383 0.007027673 -0.016350398 0.018371155 -0.014450887
0.011166403 -0.007425578 0.018853502 0.0029395653 -0.0010814869 0.01604607 -0.024956591 -0.0046816776
0.033248466 -0.0025119707 -0.011476879 -0.0126122 0.030458407 0.0036741034 0.01911773 0.003639812
0.008017017 -0.016297447 0.033864662 -0.04842406 0.019843634 -0.040360667 0.013473614 -0.009926033
0.020278363 0.005379258 0.022362089 0.023305142 0.03833857 -0.0018295724 -0.00038694416 -0.009207468
-0.04325675 -0.03760017 0.020763995 0.004015581 -0.014589061 -0.010377201 -0.0032365848 0.0064367023
0.0060654883 0.03280144 0.019772192 0.026986767 0.027365023 0.020545518 0.0087884925 0.0438942
0.019424481 0.022639077 -0.022399295 -0.014020106 0.01698769 0.014242833 -0.015957221 0.002769018
0.010162131 -0.015461534 0.02749252 0.0043497765 -0.010584032 -0.010959302 0.021609912 -0.017583353
0.040425688 0.00059999 0.0012014263 -0.0052133338 -0.02059906 0.031616062 0.010972552 -0.010667092
0.02250763 0.009795315 -0.043158162 -0.0060448945 -0.049348503 -0.0091992915 0.018758304 0.006235297
0.0089896945 -0.047966376 -0.017651126 0.015043082 0.019951316 -0.048301876 -0.025889985 -0.0066131945
-0.010254286 0.023320885 -0.018633706 0.018635806 -0.028155748 -0.014768186 -0.0007000639 -0.003510616
0.02236588 -0.00537823 0.008535494 -0.029811043 0.018346261 -0.010109481 -0.0033058263 -0.0008491072
-0.02636986 -0.0016378685 -0.040033896 0.017747214 -0.035611816 -0.016684879 0.026073776 -0.021950604
0.011094362 0.018209884 -0.0251108 -0.011107075 0.0048469133 0.025382912 0.0019437104 -0.008888315
0.028615413 0.0040747337 -0.027020885 0.012066412 -0.034108993 0.020856995 -0.018557908 -0.018051475
0.011380055 0.035524465 0.02045336 -0.00735137 0.003381957 0.015746837 -0.006941952 -0.00064400624
-0.004021677 -0.004759502 -0.0007422898 0.023821767 0.014608172 0.021859681 -0.008935001 0.025178222
-0.023080949 0.04456429 -0.013922691 0.010513541 0.0069998098 -0.025433013 0.025879063 0.061607867
0.0058112605 -0.006979369 -0.014220169 0.03197555 -0.025674941 0.024161652 -0.028836984 -0.0009793494
-0.01950227 -0.021857869 -0.0029140983 0.007044119 0.009011809 0.0011499461 0.04248673 -0.027784692
-0.017104954 -0.008469913 -0.033983722 0.01149642 -0.018375447 0.043255128 -0.009282779 -0.020334635
0.036662787 -0.015719311 0.01958807 0.015090441 -0.004917549 -0.012352741 -0.041063964 -0.034379516
-0.0034059216 0.0058755754 0.00040750246 0.0098740375 -0.0068162456 -0.025442267 -0.014062487 -0.04398517
0.024847193 0.0058474513 0.0016790546 -0.060484942 0.0023794707 0.010864959 -0.026013503 -0.03650763
-0.024623772 0.0029139973 0.021873893 -0.026036063 -0.005052819 -0.015333073 0.047195047 0.031627737
-0.016036233 -0.019059177 0.035430115 0.0072019645 -0.021078473 -0.03038859 0.020099323 -0.0059527853
-0.032619815 -0.03025975 -0.024096465 -0.005730141 0.02747383 0.022708885 0.0038369151 0.0056414222

Encoder.enc2.bias f4 [40]
00000000: facf 6ebb 20b0 893c 450f 193c a352 ac3c
00000010: 10e3 43bd 3e05 1d3c 678e a43c 62a5 8abb
00000020: b830 d2bb 5821 773d b102 87ba 94c3 cd3c
00000030: c6c9 47bd c99e 3939 cc99 933c 1ac0 69bd
00000040: 212b 1d3d 3df3 83ba 3220 963a 5c9c 2bbd
00000050: 780d ccbd 936d c53c e96e 7abd 0eae 2b3d
00000060: 11bb ffbd 0f55 00bd 7ddb 90b8 fb35 07be
00000070: 7f9f 42bd bd30 8cbc 8476 a1bd 50ce 77bc
00000080: cdbb 983c f5a0 8f3c c861 b7bd 41d1 85bd
00000090: 632c 64bd 9717 26bd 7864 b0bc c4c0 88bd
-0.0036439882 0.016807616 0.009342019 0.021035498 -0.047823966 0.009583769 0.020087434 -0.004231141
-0.006414499 0.060334533 -0.0010300485 0.025117673 -0.04877641 0.00017702127 0.018017672 -0.057067968
0.03837121 -0.0010066997 0.0011453687 -0.041897163 -0.099635065 0.0241001 -0.06114093 0.04191404
-0.12486852 -0.03133112 -6.907338e-05 -0.13204186 -0.04751539 -0.017113084 -0.07883933 -0.015124872
0.018644238 0.017532805 -0.08954197 -0.06534053 -0.055706393 -0.04054984 -0.021532282 -0.06677392

Decoder.dec1.weight f4 [256, 20]
00000000: c893 38be 6d4d 0abd 43da 283e 6fa6 dc3c
00000010: 752c 7f3e b538 e03c b9c4 10bb 0c83 96bd
00000020: db77 9339 2b98 22bd 25ec 413e 5354 81bc
00000030: 6c41 59bc ee01 ea3b 1158 333e 12a4 56bd
00000040: 3b19 c93c b371 6bbd 1c33 3d3c e1d4 033e
00000050: 0964 50bd 629b 423d c39b 47be f609 d43c
00000060: 1649 30bd 7808 06bd 812b 71bd e196 863d
00000070: 3bb3 91bc 62bc 8e3b 7758 cebe a6a2 703c
00000080: 22f4 15bb e801 2a3d 63a0 acbc 207b e6ba
00000090: 42a4 36be 42a6 a93c bb0a 873c 8981 85bd
000000a0: 20aa 21be d571 793c 6a6f 2a3e 3923 92bc
000000b0: 06fa 0e3e 2cb8 23bd e586 273c 0545 a43d
000000c0: e029 113d ce06 89bc 9e86 0c3e 2d39 0fbc
000000d0: a7c3 f7bc ceb4 4cbd 7990 843e 0f7e 48bd
000000e0: cfb4 2c3d fad7 39bc 8633 4b3c 36c3 aa3c
000000f0: ee4c 80bd 5ef0 c83a cfbb 393e 785a d43c
00000100: 5275 593e 4c9c 083d ac64 623c cf66 b43d
00000110: 2fa9 86ba 54e9 08bd 4814 433e b6c3 783c
00000120: 1b95 2dbc 4612 47bc 2ec8 28bd 2c97 1cbe
00000130: 8452 b13c bbfd 0c3d aff9 843c 6d67 34bd
00000140: 73fc 9b3d dd20 4d3c b0e7 76be 4804 c63b
00000150: 74b6 8ebe 74eb a9bc 049b 7db9 dd34 653c
00000160: 867a e53a 51c2 0b3b 496a 6cbd 5ca4 5abb
00000170: de0b 0b3c 1313 b13c d556 873e a46b b63d
00000180: e330 883d ba82 27bd c28c 463c 165e ff3a
00000190: 9725 ab3e eca5 08bd 68e7 123e 87d3 443c
000001a0: a114 8f3c c7d7 f1bb 2905 b0bc 6ce5 07be
000001b0: bc00 d63c 90e0 0dbc e48d 6d3e 028f 0f3c
000001c0: b37a 70bc 876b 883c ed2b ec3d 39ac 79bd
000001d0: b87e bf3c 8e3a 943c f56a 38bb d008 de3d
000001e0: c923 fcbd 91f9 46bb 1c0d 873d 7b58 a2bb
000001f0: 43b6 9abe ac25 1e3b 2acb b7bc 3463 8fbd
00000200: 089a 143c 64d3 2f3c f2e2 c5bb 0fbf babb
00000210: c5f5 aa39 cb7a 8fbc d252 dc3c a3a7 2d3c
00000220: 13f2 cd3a 5b41 f23b e254 483c 77de e3bc
00000230: 5a62 69bd 3df9 9bbc acb4 abbd 4e40 c438
00000240: 0e13 d63c 8ccf 9b3a 137f a63c de58 a33d
00000250: 52ad 233d 7344 0a3c 1e73 873e 2de7 02bb
00000260: e268 d33c 0953 cf3c 69ad 12bd 0c79 c1be
00000270: 7781 67bd a308 a13a f3db 363b a151 83bd
00000280: 0da9 7dbd 73e9 7d3c 6285 85bc 4650 393c
00000290: f348 70be 8e59 03bb 4d48 52bc d7d2 8c3d
000002a0: d03c 8abc 3482 6e3c 0f41 dabc 5dcc b7bb
000002b0: 80fc 7b3c 7042 813c cc73 523e fca0 41bc
000002c0: be61 72bc 914e 28bc a714 da3b 3e1e 763d
000002d0: 5691 88bd 8883 92ba 870b f93d eb3c 1f3a
000002e0: 1cda 283e a1a0 b7bb 0389 85ba 68ee bfbb
000002f0: b90f 8f3c b604 1bbc 2274 6e3e 0571 2fbc
00000300: febc 87bc 56ee ebbc baa8 683e cabc ba3d
00000310: 033a 74bd ee34 863c aef4 4bbc e86c 3d3d
00000320: 73c1 86be 6849 253d 296b 063e 5d2d 37bc
00000330: 84e1 0cbe d23c d53c 29e5 2ebc 1a72 55bd
00000340: 9dde 823c 2795 213c 150d 0e3e f95d 16bc
00000350: 2386 f7bc c075 723c c1bf 503e 4395 a03d
00000360: 89b7 833c f48a 103c 9ee2 d2bc 933a 49bc
00000370: afa5 bfbd 0949 11bd 8514 153e df75 e3bb
00000380: a828 4a3e 9dcc 053c dd85 efbb 74a6 afbd
00000390: 697b f9bb 3802 4fbc e341 8f3e bd77 a5bc
000003a0: 027d 483c 25af 3bbc 3e3c 82be 1aa5 0abe
000003b0: 1248 b63c 8e93 4bb9 991b a03b 51ab a33c
000003c0: afe5 b03d 59ca f0b9 fa11 953e 89e1 16bd
000003d0: ff72 d33d 8211 6c3d 8215 a6bc 99a3 133d
000003e0: 0b4a 15bd dc8c 703c 55eb 9b3e d52e 25bd
000003f0: 63dc 2a3c 6f26 92bd 5469 363e 73e6 bbbd
-0.18025124 -0.033765245 0.1648951 0.02693483 0.24919303 0.02737079 -0.0022089912 -0.07349214
0.00028127324 -0.0396959 0.18937738 -0.01578728 -0.013260227 0.0071413433 0.17514063 -0.052402563
0.024548164 -0.05748148 0.01154783 0.12874176 -0.05087665 0.047511466 -0.19493012 0.025883656
-0.04303845 -0.03272292 -0.05887938 0.065717466 -0.017785659 0.004355953 -0.40301868 0.014687216
-0.002288111 0.041505724 -0.021072572 -0.0017584302 -0.17836097 0.02070916 0.016484609 -0.065188475
-0.15787554 0.015224894 0.16644064 -0.017839061 0.13962564 -0.03997056 0.010225032 0.08020977
0.035440326 -0.016726878 0.13723227 -0.008741659 -0.030244661 -0.049977116 0.25891474 -0.048948344
0.04216462 -0.011342997 0.012402421 0.020845037 -0.06264673 0.0015330424 0.1813805 0.025922045
0.2123616 0.03335218 0.013817947 0.08808672 -0.0010273809 -0.033425644 0.19050705 0.01518338
-0.010594632 -0.012150353 -0.04120653 -0.15292042 0.021645792 0.034421664 0.01623234 -0.044043947
0.0761651 0.012520042 -0.2411182 0.006042991 -0.27873576 -0.020742156 -0.00024185708 0.013989654
0.0017507828 0.0021325538 -0.05771855 -0.0033362126 0.008486716 0.02161554 0.26433435 0.089072496
0.066499494 -0.040896155 0.01211852 0.0019482996 0.33427116 -0.03336136 0.14346087 0.012013323
0.017465891 -0.007380459 -0.021486836 -0.13271111 0.026123397 -0.008659497 0.23198658 0.008762123
-0.014677691 0.016652836 0.11531816 -0.06095526 0.023375854 0.018094327 -0.0028139923 0.108415246
-0.12311513 -0.0030361156 0.06594297 -0.0049543954 -0.3021718 0.002413134 -0.022435743 -0.07001343
0.009069927 0.010731552 -0.006039017 -0.0056990455 0.0003260804 -0.017514607 0.02689496 0.01059905
0.0015712403 0.007393045 0.012227269 -0.02781604 -0.05697856 -0.019039745 -0.0838407 9.357986e-05
0.026132133 0.0011887415 0.020324266 0.079759344 0.039960213 0.008439171 0.26455015 -0.0019974217
0.025806848 0.025308149 -0.035809908 -0.37787664 -0.05651995 0.0012285899 0.0027902096 -0.06412054
-0.061928798 0.015497553 -0.016298953 0.011310643 -0.23465328 -0.0020042392 -0.012834621 0.06876152
-0.0168747 0.01455741 -0.02664235 -0.005609079 0.015380025 0.01577875 0.20551986 -0.011818167
-0.014793811 -0.010272638 0.006655294 0.060087435 -0.06668346 -0.0011178115 0.12160402 0.0006074446
0.16489452 -0.0056038653 -0.0010187927 -0.0058572777 0.017463552 -0.009461572 0.23286489 -0.010708098
-0.01656961 -0.02880017 0.22720614 0.0911804 -0.059625637 0.01638266 -0.012448473 0.04624644
-0.26319465 0.04035321 0.13126816 -0.011180249 -0.13757902 0.026029978 -0.010674753 -0.05211077
0.01597529 0.009862221 0.13872178 -0.009177678 -0.030215329 0.014798582 0.20385648 0.078409694
0.016078727 0.0088221915 -0.025742825 -0.012282032 -0.093577735 -0.035470042 0.14558609 -0.0069415416
0.19742072 0.008166459 -0.007309659 -0.0857667 -0.0076135886 -0.012634806 0.27979955 -0.020198697
0.012236835 -0.011455332 -0.25436586 -0.13539544 0.022251163 -0.00019414557 0.0048861024 0.019979151
0.08637559 -0.00045927128 0.29115278 -0.03683618 0.10324668 0.057633884 -0.020273928 0.03604469
-0.036447566 0.014682021 0.30452982 -0.040327866 0.010428521 -0.07136237 0.17813617 -0.09174814

Decoder.dec1.bias f4 [256]
00000000: 6847 e3bd e657 9b3c c1e6 c43c 6092 1cbe
00000010: 08b9 cb3d f703 21be cfc4 32be f4ba 43be
00000020: db58 073e 9d99 6d3d 8835 093e ef2a 81bc
00000030: 1b6e edbd bf11 5d3d 034a d83d 3956 fbbd
00000040: 265e 13be 6874 a0bd 6a42 e7be a222 25be
00000050: 0297 82be 09cc 7ebe 6f8f 0ebe ad3c b2bd
00000060: e356 aebb 905b a7bd 022b 75be 6024 e8bd
00000070: 0f27 033c a903 023d 07b5 ae3d 56dc 863d
00000080: c7f4 123c 5246 11bb f08b 65bc 3740 b13b
00000090: c295 44bd 1db0 0ebe 9f03 32be ee14 08be
000000a0: 07ed ef3d dc9c 0fbe 1c13 c8ba c503 2b3d
000000b0: f56a 943d b8cd 21be a768 16be dc69 b4bd
000000c0: c92a ae3d 7571 80bc 9ece 14be e966 56bd
000000d0: 070b 9b3d d3b8 c03c f9fe 54bd 45c9 203e
000000e0: 4ea9 423e f896 643d cd91 2bbc ff2b 3dbe
000000f0: 83e5 3bbe 5808 413d 05a5 89bd b0f4 62be
00000100: f2f9 61be 4746 6ebd 5445 cc3d 6aff 093d
00000110: 9b98 d0be 277e 0d3e 96d8 56be b751 a23c
00000120: 7596 0ebe a7ae 88be 02e8 dd3b 3b3a 673d
00000130: 91f7 d5bd 6aeb cebd 5d23 563e 34f3 1e3e
00000140: a088 753b b770 593d 77cc 25bc e391 c83d
00000150: f8c1 83be 4b62 5abd bcb0 45bd a816 1f3e
00000160: 1b59 223e 23cb 04be 1bf8 5abe 3e28 29be
00000170: 743f 993b 2d3c 333d af9c 2fbc 8eb5 8d3e
00000180: c8d9 5bbe de94 abbd 1661 02bd 56b9 ddbd
00000190: 8838 2b3d 86ea 1b3d 21d8 31be 1cc5 36bd
000001a0: da51 15be d95a cb3d c596 303d 80c0 b83a
000001b0: e31d d83d 5380 d2bd 43ba 2d3e 2a3a 7cbd
000001c0: 64bb 9d3d 9f83 24be aa00 f9bd b7ba 5c3c
000001d0: 1245 c5bd c6f4 ab3b 985b 8ebd 4599 823c
000001e0: 81d7 e6bb 25fd 123e 58e4 1a3e 6708 c53d
000001f0: 688b 9ebb 294a 853e a163 1abd 9c2c ffbc
00000200: 62eb 20be 78e5 44be c928 64be 7d33 b93d
00000210: b5eb 48be 60a5 903d f32f 71bb 9511 58be
00000220: edee f0bd 1c35 ebbd 3e41 23be 9fdc 9e3c
00000230: 0494 713e 1181 39bd 6155 ac3d 057c debd
00000240: ba1b 253e b298 6bbe 18ee 123b 384b 78bd
00000250: e232 02be 2837 d33d c559 7dbe 67ac bebd
00000260: f7ce 833a 0321 233d 3472 0abe 71e1 c8bc
00000270: c797 473e a8bc 923c 9754 90bd d07b 9e3b
00000280: ee46 c2bc ec1a d63c 03d7 9abd 51cc 03bc
00000290: f97a 013c 5d5e 023d 5791 76bd 961a debd
000002a0: 2404 fcbc a3e3 d1bd c604 1ebe 834c 063e
000002b0: 2360 fbbd cc44 07be 54f8 97bd 7cba 403e
000002c0: f8ac 24be 3513 db3b c849 2abe 8ade 28be
000002d0: 6dae 1b3d 6fed 33be 0d56 83bc 3cef d93d
000002e0: 3870 6a3e cabd 083d 4b0d ccbb 02fc 21bc
000002f0: 6fb4 b2bc b3a4 75be a422 11be 751f 79bc
00000300: ea20 50be 363b f43d cad3 ff3d 6462 413d
00000310: 7fe6 39be 0681 51be 8f02 77bd 6314 0ebc
00000320: ef32 f1bc 69f1 233d e1c1 163d 9e2b 45bd
00000330: f753 3dbe 221e 903d fa46 33be c100 b4be
00000340: ef27 0cbe 2571 f7bd 7136 7abe 95b4 a93b
00000350: 6544 283e 893f 19be 47a4 3cbe a0ee 213e
00000360: b921 b93d 6fd0 ffbd d964 a5bc cd41 f2bd
00000370: 598f 623d e1cb c83c 011c 1ebd 9adb 47be
00000380: 3fb7 fb3d 3ce1 71bd ef42 2ebd bcf0 2ebe
00000390: 6222 a53d f001 02be 96c6 5a3e e3d0 cbbd
000003a0: a92e e73d addf 7abe d3bb 643d d0c0 efbd
000003b0: 4255 3e3e 147d 16bd 63d1 cc3d c049 bf3c
000003c0: 8bbb d0bd 66d0 fd3c 8156 0ebd 93cd f13d
000003d0: 451f a23d 1141 54be 964d f9bd 495a af3d
000003e0: 4b8d 023d 323b 1abe 2cc0 4dbe 1538 dcbc
000003f0: 2f16 8cbd 6ef0 9dbd b1e9 51bd 6bd7 e7bd
-0.11097604 0.018962812 0.024035813 -0.15290213 0.09947401 -0.15724169 -0.17457889 -0.19114286
0.1321749 0.058007825 0.13399327 -0.015767543 -0.115932666 0.053972002 0.105609916 -0.12272305
-0.14391384 -0.07834703 -0.45167857 -0.16126493 -0.25505835 -0.2488252 -0.13921903 -0.08702979
-0.0053204163 -0.08171761 -0.23942187 -0.11335063 0.008004918 0.03174177 0.08530622 0.065849945
0.008969492 -0.0022167158 -0.0140104145 0.0054092663 -0.047994383 -0.1393437 -0.17384194 -0.13289234
0.11715131 -0.14024681 -0.0015264484 0.04175164 0.07246963 -0.15801132 -0.14688359 -0.088092536
0.08504254 -0.0156791 -0.14531943 -0.052344237 0.07570463 0.023525631 -0.052000973 0.15701778
0.19009897 0.055808038 -0.010471773 -0.18473814 -0.1834927 0.047127098 -0.06720928 -0.22163653
-0.22068003 -0.05817249 0.09974161 0.033690847 -0.4074143 0.13817655 -0.20981058 0.019814355
-0.13924582 -0.2669575 0.0067720423 0.056452017 -0.1044761 -0.101034954 0.20911928 0.15522462
0.0037465468 0.05308601 -0.010119549 0.09793451 -0.25733924 -0.053316396 -0.04826425 0.15535986
0.15854304 -0.12968116 -0.21383707 -0.16519257 0.0046767537 0.04375856 -0.010718509 0.27677578
-0.21469796 -0.083780035 -0.03183087 -0.10826366 0.04180196 0.038065456 -0.17367603 -0.044621572
-0.14582005 0.09929437 0.043112535 0.0014095455 0.105525754 -0.10278382 0.16965584 -0.061578907
0.077017576 -0.16065834 -0.1215833 0.013472251 -0.09632315 0.005247685 -0.06951064 0.015942225
-0.007044733 0.1435438 0.15126169 0.09620743 -0.004838396 0.26033142 -0.03769267 -0.031149201
-0.15714791 -0.1922816 -0.22281183 0.09043024 -0.19621165 0.07062793 -0.0036802262 -0.21100457
-0.117643215 -0.11484739 -0.15942857 0.01939231 0.2359162 -0.045289103 0.08414722 -0.108634986
0.16123858 -0.23007467 0.0022419747 -0.06061861 -0.12714723 0.103132546 -0.24741276 -0.09310227
0.0010056187 0.039826404 -0.13520128 -0.024521561 0.19491492 0.017912224 -0.07047384 0.004836537
-0.023715463 0.026135884 -0.075605415 -0.008044318 0.007902854 0.031828273 -0.0601972 -0.108449146
-0.030763693 -0.102484964 -0.15431508 0.13115124 -0.12274196 -0.13209838 -0.07420412 0.18821138
-0.16081607 0.0066856393 -0.16629708 -0.16491142 0.038008142 -0.17571042 -0.016032243 0.106413335
0.2289437 0.033384122 -0.0062271706 -0.0098867435 -0.021814553 -0.23988609 -0.1417337 -0.015205254
-0.20325056 0.11925356 0.124915674 0.047212973 -0.18154334 -0.20459375 -0.060305174 -0.008671853
-0.029443232 0.04002515 0.03680599 -0.0481373 -0.18489061 0.070369974 -0.17507544 -0.35156825
-0.13687108 -0.120821275 -0.2443483 0.0051789978 0.1643234 -0.14965643 -0.18422042 0.15813684
0.09039635 -0.124909274 -0.02018969 -0.11828957 0.05531249 0.02451128 -0.038600925 -0.19517365
0.12290811 -0.05905269 -0.0425443 -0.1708402 0.080631986 -0.12696052 0.21364817 -0.09951951
0.112881966 -0.24499388 0.055843186 -0.11706698 0.18587211 -0.036740378 0.10000875 0.023350596
-0.10192021 0.030983161 -0.034750465 0.11806788 0.079161204 -0.20727946 -0.121730015 0.085621424
0.03187303 -0.15061644 -0.20092839 -0.02688221 -0.06840169 -0.07711874 -0.051248256 -0.113203846

Decoder.dec2.weight f4 [31, 256]
00000000: 8e6b 1c3e 974b 2a3d 27ff cc3d 6af2 38be
00000010: 8c79 debd f9f6 88bb 5b63 3b3c 477a 693d
00000020: 41d3 213e e486 4e3e 26b1 113e b7c1 8039
00000030: 09ad 96bc cd3f 323e 71c9 d8bd a90d 4fbd
00000040: fac5 b73c 2eed 4f3c 9467 0fbe 6f22 303e
00000050: 2281 e13d cbf3 4b3e 9869 1cbd 3a1b 633e
00000060: 0108 2b3e 972a 89bd d469 efbc b336 613e
00000070: 0686 0cbd a584 1bbe 6668 0abe e914 823e
00000080: 67d5 edbd 8863 08be d48d 89be 813a 92bd
00000090: c988 e23d a04e 82be 0d76 71bd ad24 e1bd
000000a0: 265b ffbd 3cac a63d 776b da3d 83dd 5cbe
000000b0: 6863 5abe c9eb 30be fc12 30be d350 083d
000000c0: 4edb 92bd 9fc3 dbbb 2448 bcbd 5395 aa3d
000000d0: f156 0d3e 9216 9e3d a23e b13e 25de b63d
000000e0: 9ce8 b33c 5b36 93bd b849 953c 241d d6bd
000000f0: f785 8c3d 840b a6be b4a4 423e 3100 f9bc
00000100: 76e4 293c 97ac 0b3e 6eae a73d d3af 86be
00000110: 0be5 88be d22b 10be 5d31 a1bd ec63 9fbd
00000120: 8c26 fcbc c4e0 3bbe 99b9 0d3d 9edc a53d
00000130: d686 73be 582f cc3a 17d6 25be 567e 803d
00000140: f17a 283d b290 74bc 9031 433d 8248 47be
00000150: 2259 653e f95d 69bd 37ca 95be 7d8d df3b
00000160: 71c6 0a3e 3384 b43d e0ec 61bd 3a62 cebe
00000170: 85b5 413e 89f4 e5bc 4832 a33d bdf0 ee3c
00000180: 2eb6 56be bf38 4cbe f851 3e3e bc7d 8c3e
00000190: 2afe 603c 9d4c 523e bb53 cd3d 74d6 e8bd
000001a0: 3370 143d 1ed1 a3bb bb80 cf3c a6e5 08bd
000001b0: 164f 553d ed47 b8bd ed78 d53c 96ac 7f3d
000001c0: fd21 68bc 70f5 6bbe 0958 5a3e b25c 28be
000001d0: 7111 a3bd 8c16 f1bd 696a 76bd 43a8 45bd
000001e0: 3118 3c3d 4ca8 43be 277f 06be bf57 f53c
000001f0: 2255 273e a2b7 5dba c00b ca3d 66ec 19be
00000200: 79d0 a23e 7f5f 86be 9d2a bdbd c557 80bc
00000210: 9956 a33c 09ad 0fbd 2afe 18bc dd3f 0ebd
00000220: 545a b4bb 79a6 573d ef0d 193e ac7c dabd
00000230: a615 d3bc 42b9 983c 820e 613d d21e 37be
00000240: 4acd 0a3d b144 253e fa74 a83c e415 a03d
00000250: 44c4 be3d 16f7 f3bb 31a7 56be fff3 86bd
00000260: f7a8 f83d a411 93be dc79 b0bd b599 a03e
00000270: e328 84bc 58af d43b 77d3 d4be cdb0 db3d
00000280: d016 0ebe b19b 1c3e 0cc3 12be 3416 063e
00000290: 2ef7 06bd 8f07 053d 5f77 3fbd 63d0 4ebd
000002a0: 58c9 1f3e a7d5 3f3e 9a19 d9bd e537 4cbd
000002b0: 7d09 f3bd 52aa 353d cdd9 fbbd 3644 013e
000002c0: 8220 903e c525 f53d 456c 953e f9fd e1bd
000002d0: a7bd 04be e8f3 083e fd55 9bbe f818 2b3e
000002e0: ba6b 323e 4ef8 75be 8a33 493e 5ada 5a3e
000002f0: bc4c 4bbe 4468 14be 90af 42bd 6839 26bb
00000300: 18c3 d7be 9a2a 5fbc 6b00 edbd 16f4 a4bd
00000310: 8022 24be 4144 823e a95b 263e 3dd1 ec3a
00000320: d603 763d 25a0 a53a 23d5 54be 3458 99bd
00000330: 7496 ae3d bbf2 893e f7bd c13d bd4b 233e
00000340: d432 0d3e a982 1b3e 7e93 debd 92f4 9a3d
00000350: 26d2 2fbe 0e11 eabd 91bc aebd 89fc 31bc
00000360: 6279 213e fc46 02bf 6f30 86bd 8e7f 5dbc
00000370: 246b 4a3d daa6 ad3d c344 e43d fa0f eebc
00000380: 45f7 24be 79d5 8dbd 2c9d 3e3d c883 293e
00000390: ccd3 15be efa9 d43d be85 bb3d caf7 cd3e
000003a0: d0f2 4fbe 23ec 84be 0523 023d 84be 0e3e
000003b0: 3ad5 ca3d 98f2 a7be 86aa 143e afff ddbd
000003c0: 7ff9 d13d 663f 0b3e cf59 16bd 5085 1f3c
000003d0: 7c62 47bd f9ea f7be 6b45 7bbd 97da 1a3d
000003e0: 887c a9bc dc85 f53d 451e 38be fec9 6bbe
000003f0: c1b0 12be db5a 01be 4e98 363e 8fe7 8dbc
0.15275404 0.041575994 0.10009604 -0.18061224 -0.10863027 -0.004179832 0.011437262 0.05700138
0.15803243 0.20168644 0.14227733 0.0002455839 -0.018393056 0.1740715 -0.10585297 -0.050550137
0.02243327 0.012690825 -0.14004356 0.17200635 0.11010958 0.19917218 -0.03818664 0.22178355
0.16702272 -0.066975765 -0.029225267 0.21993522 -0.034307502 -0.15187319 -0.13516387 0.25406578
-0.11612969 -0.13319218 -0.2686602 -0.07140065 0.11061246 -0.2545061 -0.058950473 -0.109933235
-0.12468557 0.0813832 0.106650285 -0.21568875 -0.21326983 -0.17277445 -0.17194742 0.033280205
-0.07170735 -0.0067066695 -0.09193447 0.083292626 0.13802697 0.07719149 0.34618098 0.089290895
0.021961503 -0.07188102 0.018223628 -0.10454777 0.06861489 -0.3243066 0.19008142 -0.0303956
0.010369411 0.13640057 0.08187567 -0.26306018 -0.26737246 -0.14079216 -0.078707434 -0.077827305
-0.0307801 -0.1834746 0.034600828 0.0809872 -0.23781905 0.0015578074 -0.1619495 0.06274097
0.04113287 -0.014927076 0.04765469 -0.19461253 0.22397283 -0.056974385 -0.2925584 0.0068222866
0.13552262 0.088142775 -0.055157542 -0.40309316 0.189169 -0.028070705 0.07968575 0.029167527
-0.20967934 -0.19943522 0.18585956 0.27439678 0.013732472 0.20537038 0.10025736 -0.11369029
0.036239814 -0.004999294 0.025329938 -0.033422135 0.052077375 -0.08998094 0.026058638 0.06242045
-0.01416826 -0.23042846 0.21322645 -0.1644161 -0.07962311 -0.117718786 -0.060160074 -0.04825617
0.04592151 -0.19107169 -0.13134442 0.029949067 0.1634107 -0.00084578444 0.098655224 -0.15031585
0.31799677 -0.26244733 -0.092366435 -0.015666852 0.019938754 -0.03507713 -0.009337941 -0.034728874
-0.005503932 0.052648995 0.14946721 -0.106683105 -0.025767159 0.018643025 0.054945476 -0.17882851
0.033887185 0.16139485 0.020563591 0.07816675 0.093147784 -0.0074452264 -0.20962216 -0.06589507
0.121416025 -0.28724396 -0.08616993 0.3136727 -0.016132778 0.006490629 -0.41567585 0.107270814
-0.1387589 0.15293767 -0.14332217 0.13094407 -0.032950573 0.03247791 -0.0467447 -0.0504917
0.1560415 0.18733846 -0.10600586 -0.049857993 -0.11867044 0.044351883 -0.122974016 0.12623677
0.28149801 0.119700946 0.29184166 -0.110347696 -0.12962972 0.13374293 -0.3033904 0.16708744
0.17423907 -0.24020502 0.19648567 0.21372357 -0.1985349 -0.14492899 -0.04753071 -0.0025363807
-0.42141032 -0.013620997 -0.11572345 -0.08054368 -0.16028786 0.254427 0.16245903 0.0018067729
0.060062252 0.0012636228 -0.2078443 -0.074875265 0.085247904 0.26943 0.09460061 0.1594686
0.1378892 0.15186562 -0.10867976 0.07566179 -0.17170009 -0.11429034 -0.0853206 -0.010863432
0.1576896 -0.50889564 -0.06552207 -0.013519181 0.049418584 0.0847909 0.11145928 -0.029060353
-0.16109951 -0.06925482 0.04653661 0.16554177 -0.14631575 0.10383975 0.09156369 0.4022811
-0.2030747 -0.25961408 0.03177168 0.13939863 0.09903951 -0.32802272 0.14518175 -0.108397834
0.10252666 0.13598403 -0.036706742 0.009736374 -0.048677906 -0.48421457 -0.0613455 0.03780612
-0.020689264 0.11988422 -0.17980297 -0.23026273 -0.14325239 -0.12632315 0.17831537 -0.01732233

Decoder.dec2.bias f4 [31]
00000000: a931 593d 8c08 ad3e 20fb 6a3f cbaa 35bd
00000010: 9e26 253f 92ac b83e 3c76 48bf b3ea 0abf
00000020: 7c13 f73e b433 9ebd b23d b93e 8954 62bf
00000030: ca86 573f 90c2 01bf 3221 d3bc fe0b 263f
00000040: f855 a1bd 4511 9b3d 392a 8bbd 85a3 963e
00000050: 168a 2abf 31b9 1bbd 112b 883c e9de 2c3f
00000060: ef71 343d 6bc5 3b3f 04c4 563d 114c 223f
00000070: 5ca4 5a3e 177e 223d 187b d8bd
0.053025875 0.33795583 0.91789436 -0.044352334 0.6451205 0.3606916 -0.7830541 -0.5426437
0.48257053 -0.07724705 0.36179882 -0.8841024 0.84190047 -0.50687504 -0.025772665 0.6486205
-0.07877725 0.07571653 -0.06795163 0.2942163 -0.6661695 -0.03801841 0.016622098 0.67527634
0.044053968 0.7334811 0.05243303 0.6339732 0.2135176 0.03967103 -0.10570353
