results/3_iid/model_alone_n_1_m_0.pt (torch, 121552 bytes, 8 tensors)

Encoder.enc1.weight f4 [256, 22]
0	0xbcbcefa8	-0.023063496
1	0x3baaaec4	0.005208822
2	0x3c5fce00	0.013659954
3	0xbc4152c5	-0.011799519
4	0xbe77c623	-0.24196677
5	0xbce61005	-0.02808381
6	0x3da1e32a	0.07904656
7	0xbd605545	-0.05476882
8	0x3dbc60c8	0.09198147
9	0xbdfb4bf5	-0.12270347
10	0xbe0c9f24	-0.13732582
11	0xbde34951	-0.11097968
12	0xbe58c988	-0.21170628
13	0xbdae37e8	-0.08506757
14	0x3c540be0	0.012942284
15	0x3d0255a9	0.031819973
16	0x3ca15bc5	0.01969708
17	0xbe219b06	-0.15781793
18	0xbc5f16e6	-0.013616299
19	0xbcc205f8	-0.023684487
20	0x3c26c33c	0.010178383
21	0x3a5d6dab	0.0008446823
22	0xbb329039	-0.0027246608
23	0x3d79475f	0.06085908
24	0x3dd39190	0.10330498
25	0xbd2c7aca	-0.04210929
26	0x3babd690	0.0052440837
27	0xbddbe248	-0.10736519
28	0x3dd2f731	0.10301054
29	0xbd97eb9d	-0.074179865
30	0xbd08161d	-0.033224214
31	0x3d948b84	0.07253173
32	0x3b42fdde	0.0029753367
33	0xbe0ade75	-0.13561423
34	0xbcf5fe95	-0.03002862
35	0x3d3a7d3c	0.04552959
36	0xbd6d1f3d	-0.05789112
37	0x3c80e47b	0.015733948
38	0x3e059aa7	0.13047276
39	0x3d3905da	0.045171596
40	0x3e67eb92	0.22648457
41	0xbe161c7b	-0.14659302
42	0x3dffe775	0.12495319
43	0xbbcf6c50	-0.0063300505
44	0x3db17649	0.08665139
45	0xbac50dba	-0.0015033998
46	0x3d3f68ab	0.04673068
47	0x3cf5c437	0.03000079
48	0xbd790780	-0.06079817
49	0x3ccf990a	0.02534153
50	0xbd5ebede	-0.054381244
51	0x3e1e1cf0	0.15440726
52	0xbe084f87	-0.13311587
53	0xbd89bb01	-0.06725121
54	0x3ca709de	0.020390447
55	0xbd9b7a0a	-0.075916365
56	0xbd32036d	-0.0434603
57	0xbe0934c5	-0.13399036
58	0x3d54296b	0.05179731
59	0xbd6ab5b2	-0.057302184
60	0x3d2cc5ca	0.042180814
61	0x3df464aa	0.11933263
62	0xbe250f0d	-0.16119023
63	0x3e29c499	0.16578902
64	0xbde18024	-0.11010769
65	0x3d543dde	0.051816814
66	0xbdd86250	-0.105656266
67	0xbd517b4f	-0.051142987
68	0xbdb5faac	-0.088857025
69	0x3da87bb8	0.082267225
70	0xbc667989	-0.014067062
71	0xbd86dece	-0.06585465
72	0xbdb60b78	-0.08888906
73	0xbe1c79dc	-0.1528086
74	0x3cb8fbd0	0.022581011
75	0x3bef6479	0.0073056784
76	0xbe0043f4	-0.12525922
77	0x3ddca944	0.10774472
78	0x3d81bae4	0.06334475
79	0xbda75aa4	-0.08171585
80	0xbcaa64a0	-0.020799935
81	0xbdc07068	-0.0939644
82	0x3dd666ca	0.10468824
83	0x3ce69bb4	0.028150417
84	0x3cb6bf63	0.022308057
85	0xbdbb3ea5	-0.09142808
86	0x3d968a36	0.073505804
87	0xbca7eaf0	-0.02049777
88	0x3d521db4	0.05129786
89	0xbb51ee68	-0.003203297
90	0xbdf677d7	-0.120345764
91	0x3d8b811c	0.06811735
92	0xbe5c51fc	-0.2151565
93	0x3dc88dc7	0.09792667
94	0xbd79cae5	-0.06098451
95	0x3d8dd0a7	0.06924563
96	0xbe8995e3	-0.26872167
97	0xbd8d1e1e	-0.0689051
98	0xbdb245dd	-0.087047316
99	0xbe496e23	-0.1967092
100	0xbe1a6553	-0.15077715
101	0xbe6354f9	-0.22200383
102	0x3de4a17c	0.11163613
103	0x3decbfca	0.11560018
104	0xbcf24ab3	-0.029576635
105	0x3d6f3dce	0.05840855
106	0x3db95d77	0.0905103
107	0x3d6d8b1d	0.057993997
108	0x3df4122f	0.11917531
109	0xbe184aa3	-0.14872222
110	0xbd7ea701	-0.062170986
111	0x3d057a7c	0.032587513
112	0xbe989de7	-0.2980797
113	0x39b597eb	0.00034636198
114	0x3dcb8f18	0.09939402
115	0xbe5f1692	-0.21785954
116	0xbb695a2b	-0.0035606723
117	0xbd8eef5d	-0.06979249
118	0x3bdcfe79	0.0067442027
119	0x3d5cfd14	0.05395229
120	0x3cc78fdf	0.024360595
121	0x3d1f8476	0.038944684
122	0xbd9d1613	-0.07670226
123	0x3d78458e	0.060613208
124	0xbcb3211a	-0.02186637
125	0xbdd3a67b	-0.10334488
126	0x3b494d67	0.0030716301
127	0x3dd9ebd5	0.106406845
128	0xbd7a944a	-0.061176576
129	0x3d1ffb63	0.0390581
130	0x3d952cdb	0.07283946
131	0x3d224198	0.039613336
132	0xbe1640b3	-0.14673118
133	0xbdc94744	-0.09828046
134	0x3d820850	0.06349242
135	0x3c31bfe5	0.010848974
136	0x3ddf6f3c	0.10909888
137	0xbd86d02f	-0.065826766
138	0x3dfd1301	0.1235714
139	0xbd95983e	-0.073044285
140	0x3dcb6b07	0.09932523
141	0xbd1798fe	-0.03701114
142	0x3d4b9eca	0.04971198
143	0xbe89de07	-0.26927206
144	0xbd28cc99	-0.041210745
145	0xbcc5751d	-0.024103696
146	0xbdbf44a4	-0.09339264
147	0xbd74b668	-0.05974427
148	0x3d299972	0.041406102
149	0xbd9a2796	-0.07527082
150	0x3a78e493	0.00094945094
151	0x3e116d4d	0.14201851
152	0xbdb2e223	-0.087345384
153	0x3de985ba	0.114024594
154	0xbe829f1f	-0.25512025
155	0xbde23ac7	-0.11046367
156	0xbe8ee1bc	-0.27906597
157	0x3d86ec43	0.06588032
158	0x3dd71f86	0.105040595
159	0xbe416809	-0.18887343
160	0x3c3f89d7	0.011690578
161	0x3d9d428a	0.07678707
162	0xbe306734	-0.17226869
163	0xbe6ac3d9	-0.22926272
164	0x3d8dd226	0.06924848
165	0x3d275c2b	0.040859383
166	0xbe9de413	-0.3083807
167	0x3d74b2a9	0.059740696
168	0x3ce1baa5	0.02755482
169	0xbdca0e42	-0.09866001
170	0xbe078c5e	-0.1323714
171	0xbc74bfa0	-0.014938265
172	0xbde51040	-0.1118474
173	0xbb89e988	-0.0042087473
174	0xbdb56be3	-0.088584684
175	0xbd2f27ad	-0.042762447
176	0x3d02a42a	0.03189484
177	0x3d1c5720	0.038169026
178	0xbe3324aa	-0.17494455
179	0xbd52609f	-0.051361676
180	0xbc288d3f	-0.010287582
181	0x3e073547	0.13203917
182	0xbd5805e1	-0.05273998
183	0xbe392ac6	-0.18082723
184	0xbd48d661	-0.049032573
185	0x3bb2c934	0.005456114
186	0x3de2ea19	0.11079807
187	0xbe0e5f56	-0.13903555
188	0xbdf133b2	-0.11777438
189	0xbd57f928	-0.05272785
190	0x3cf95a72	0.030438635
191	0xbcd76718	-0.026294276
192	0x3d4ca49b	0.049961668
193	0xbcd8c877	-0.026462777
194	0x3d3991d0	0.045305073
195	0x3da91456	0.08255832
196	0xbd7fd150	-0.062455475
197	0xbdb716c5	-0.0893989
198	0x3d3470e3	0.04405297
199	0xbc2aa7a2	-0.010415943
200	0x3ce999ee	0.028515782
201	0x3d97f5da	0.07419939
202	0xbe058c40	-0.13041782
203	0xbb8af221	-0.00424029
204	0x3df77d8a	0.120844916
205	0xbd97ce8e	-0.07412444
206	0xbd0748d5	-0.033028442
207	0xbe037400	-0.12837219
208	0xbd0e8a0f	-0.03479963
209	0xbd9ae5be	-0.07563351
210	0x3dd81dd0	0.10552561
211	0xbdcb3627	-0.09922438
212	0x3daf3eb3	0.08556881
213	0xbdfbb8de	-0.1229112
214	0x3d994690	0.07484162
215	0xbcc3c9c3	-0.023899918
216	0x3ccefdf4	0.025267579
217	0xbe046631	-0.12929608
218	0xbe16f85d	-0.1474318
219	0xba8fb864	-0.0010964987
220	0xbcb641ab	-0.02224811
221	0xbe847a2b	-0.25874457
222	0x3af2dd38	0.0018529063
223	0x3ccbc4c8	0.024874106
224	0x3d4efdab	0.050534885
225	0x3d817701	0.06321526
226	0xbcc4153b	-0.023935905
227	0xbe3d33f1	-0.18476845
228	0xbdf2c21d	-0.118534304
229	0xbe6edb86	-0.23325929
230	0x3d95b86e	0.07310568
231	0xbdf34945	-0.118792094
232	0xbe20c2da	-0.1569933
233	0xbd9c8e7d	-0.07644365
234	0xbcfcbda7	-0.030852152
235	0x3c392375	0.0112999575
236	0xbc824a0b	-0.015904447
237	0xbe1e2c3b	-0.1544656
238	0x3d90f9ca	0.070788935
239	0x3d4631cd	0.048387337
240	0xbd35b458	-0.044361442
241	0xbdb30009	-0.08740241
242	0x3d51210b	0.051056903
243	0xbde32bcd	-0.11092339
244	0xbdd6fb8a	-0.10497196
245	0xbda8f5df	-0.08250021
246	0xbc1d050b	-0.009583722
247	0x3ccfeb9b	0.0253809
248	0x3d5b784f	0.053581532
249	0xbe02c4d4	-0.12770396
250	0xbd2daf54	-0.042403534
251	0xbda35c8c	-0.07976636
252	0x3ddffc12	0.109367505
253	0xbde14e27	-0.110012345
254	0xbe2f496d	-0.17117853
255	0xbd906451	-0.07050384

Encoder.enc1.bias f4 [256]
0	0xbe1403cc	-0.14454573
1	0x3dd8daca	0.10588606
2	0x3ce94051	0.028473051
3	0x3e322361	0.17396308
4	0xbe96c514	-0.29447234
5	0xbd2b9132	-0.041886516
6	0xbe5b3815	-0.21408112
7	0xbe81beab	-0.2534078
8	0xbda6f5ff	-0.08152389
9	0xbe4f3cfd	-0.20238109
10	0x3d328289	0.04358152
11	0x3dfafa4b	0.12254771
12	0xbe0f2478	-0.13978755
13	0xbe95b2a6	-0.2923786
14	0xbe55def6	-0.20885834
15	0xbe2b8908	-0.16751492
16	0xbd3d7ecb	-0.046263497
17	0x3de5039f	0.11182331
18	0xbb98d440	-0.004663974
19	0xbe4f46d4	-0.20241863
20	0xbe3ba159	-0.18323268
21	0xbe250c18	-0.16117895
22	0xbe1dbf5b	-0.15405028
23	0x3df811e9	0.12112791
24	0x3de3a7c6	0.111159846
25	0x3e2650ed	0.16241808
26	0xbe9e9abf	-0.30977437
27	0xbe21eb68	-0.15812457
28	0x3cfcf969	0.030880647
29	0xbe829009	-0.25500515
30	0x3bd2c9be	0.006432741
31	0xbe60ae2b	-0.2194144
32	0xbdfa48bc	-0.12220904
33	0x3e148c3d	0.14506622
34	0xbd4b9d00	-0.049710274
35	0xbd12d101	-0.035843853
36	0x3e0b200a	0.1358644
37	0xbe131d82	-0.14366725
38	0x3cfa423e	0.030549165
39	0xbe5db568	-0.21651232
40	0x3dacdd5f	0.08440661
41	0x3da02448	0.0781942
42	0xbe990826	-0.2988903
43	0x3d6684ad	0.056278873
44	0xbd8c2ffd	-0.068450905
45	0x3ac9a70e	0.0015384869
46	0xbe8186d6	-0.25298184
47	0xbe9e66aa	-0.309377
48	0xbdf378b8	-0.1188826
49	0xbe8f1b6a	-0.27950603
50	0xbe33f9bc	-0.17575735
51	0xbdf27c69	-0.118401356
52	0xbc56cc17	-0.013110182
53	0xbe3da592	-0.18520191
54	0x3c458bca	0.012057254
55	0xbe0e31bc	-0.1388616
56	0x3dc06c72	0.09395684
57	0xbe5419bf	-0.20712946
58	0x3de44590	0.111460805
59	0xbe5c70f7	-0.21527468
60	0xbd809488	-0.0627833
61	0xbcaf7dba	-0.021422256
62	0xbe371713	-0.17879896
63	0xbe1780fc	-0.14795297
64	0xbe62b3ca	-0.22138897
65	0x3df25cda	0.11834116
66	0xbc9a19fb	-0.018811217
67	0xbd509f78	-0.05093333
68	0x3e1e8ff0	0.15484595
69	0x3daefea7	0.08544665
70	0xbda77c82	-0.08178045
71	0xbe242bc6	-0.16032323
72	0xba83cee4	-0.0010056165
73	0x3d2a38cb	0.04155807
74	0xbd0d3f08	-0.03448394
75	0xbdd25090	-0.10269272
76	0xbd3b6654	-0.045751885
77	0xbdd65330	-0.104650855
78	0xbdeae446	-0.11469321
79	0xbdd043fb	-0.10169216
80	0x3cc0cfc8	0.023536578
81	0xbdcde20e	-0.10052882
82	0xbe906a0b	-0.28205904
83	0xbdb9da83	-0.09074881
84	0xbd6517a0	-0.055930734
85	0xbe52ab07	-0.20573054
86	0xbe3e1d1f	-0.18565796
87	0xbdfbfd3d	-0.12304161
88	0xbca4266b	-0.02003785
89	0xbe275d83	-0.16344266
90	0x3e3529dd	0.17691751
91	0xbe50a0a9	-0.20373787
92	0x3e1412a7	0.1446024
93	0xbeaac8c0	-0.33356285
94	0xbdb63398	-0.088965595
95	0xbcc1e8f8	-0.023670658
96	0xbd81a199	-0.063296504
97	0x3d683357	0.056689586
98	0xbdd976cf	-0.10618364
99	0xbeb323be	-0.34988207
100	0x3da2672d	0.079298355
101	0xbe485bf3	-0.19566326
102	0xbd61d10e	-0.05513101
103	0xbd4dd152	-0.05024845
104	0xbe60d916	-0.21957812
105	0xbe80ab99	-0.2513092
106	0xbe43c181	-0.19116785
107	0xbe552c29	-0.20817627
108	0xbe63be8b	-0.22240655
109	0xbdc3acd7	-0.09554451
110	0xbeaa7470	-0.3329196
111	0xbe86a823	-0.26300153
112	0x3e1812df	0.14850949
113	0xbe420637	-0.18947683
114	0xbdb23e7d	-0.08703325
115	0xbdef416c	-0.116824
116	0xbdb645bc	-0.089000195
117	0xbe6b77da	-0.22994938
118	0xbe15a5d4	-0.1461404
119	0x3d4ae1be	0.04953169
120	0xbda0be73	-0.07848825
121	0xbd854981	-0.065081604
122	0xbd2760b4	-0.040863708
123	0xbe813121	-0.25232795
124	0xbd87f99b	-0.06639405
125	0xbdd68dfe	-0.104763016
126	0xbe705b9d	-0.23472448
127	0xbe833463	-0.25625905
128	0x3db81b0e	0.08989535
129	0xbd4ea3aa	-0.05044905
130	0x3e5fc58c	0.21852702
131	0xbe0ca710	-0.13735604
132	0x3cd3ac6b	0.025839051
133	0x3def49bd	0.11683986
134	0x3e3336b7	0.17501341
135	0xbe7bd556	-0.245931
136	0xbe17ea0c	-0.14835376
137	0xbce9c20e	-0.028534915
138	0x3d576e44	0.052595392
139	0xbe0e09d7	-0.13870941
140	0xbe332b4a	-0.17496982
141	0x3dbc77a3	0.092025064
142	0xbd9d8c95	-0.076928295
143	0xbe3ff27e	-0.18744847
144	0x3e21642d	0.1576087
145	0xbea9f7b3	-0.33196792
146	0xbe06098c	-0.1308958
147	0xbe023e70	-0.1271913
148	0xbe84be5f	-0.25926492
149	0xbd8ca546	-0.06867461
150	0x3d9bd391	0.076087125
151	0xbc02ca61	-0.007982821
152	0xbe5a71f8	-0.21332538
153	0xbcdf6db9	-0.027274
154	0xbe1df503	-0.15425496
155	0xbe535493	-0.20637731
156	0xbeb771c7	-0.35828993
157	0xbe923d36	-0.28562325
158	0x3e66e16b	0.22546928
159	0xbda99769	-0.08280832
160	0x3d53a63f	0.051672217
161	0xbdd9d32e	-0.106359825
162	0xbd94bfa3	-0.07263114
163	0xbe49579f	-0.19662331
164	0xbe82f98f	-0.25581023
165	0xbe6c0542	-0.2304888
166	0x3d942606	0.07233815
167	0xbbf85894	-0.0075789187
168	0x3bff2548	0.0077864267
169	0xbdb191e1	-0.08670402
170	0xbe0bce42	-0.136529
171	0xbe71edf4	-0.23625928
172	0x3d477913	0.04869945
173	0x3da6e2b2	0.081487074
174	0xbdcbb93e	-0.099474415
175	0xbe0f11dc	-0.13971657
176	0xbe155245	-0.14582165
177	0xbbfa6fbb	-0.007642714
178	0xbe575b35	-0.21030886
179	0x3c89010b	0.01672413
180	0xbd4e5516	-0.050374113
181	0xbe423b67	-0.18967973
182	0xbe2fa053	-0.17151003
183	0x3e06faf8	0.13181674
184	0x3dbb9af2	0.09160413
185	0xbdebae31	-0.11507834
186	0x3d1e98bf	0.03871989
187	0xbe36b203	-0.17841344
188	0x3c8943b4	0.016755916
189	0x3cc80853	0.024418032
190	0xbe8b23c2	-0.2717572
191	0x3bbbf96d	0.005736521
192	0xbe6854bd	-0.22688575
193	0xbe6a0b85	-0.22855957
194	0xbdcc9b30	-0.09990537
195	0xbe87223f	-0.26393315
196	0xbdcde185	-0.1005278
197	0xbdfce61f	-0.123485796
198	0xbea238ec	-0.31684053
199	0xbd693de6	-0.056943797
200	0xbd57d605	-0.05269434
201	0x3d0f13d7	0.03493103
202	0xbe2f6c58	-0.17131174
203	0xbe37ef47	-0.17962371
204	0xbe4a2466	-0.19740447
205	0xbcc8cb20	-0.02451092
206	0x3e343616	0.17598757
207	0xbd31caf5	-0.043406446
208	0xbe581cd9	-0.21104755
209	0xbc207bcd	-0.009795141
210	0x3d3b3283	0.04570247
211	0xbe48b6ae	-0.19600937
212	0xbd9fa089	-0.077942915
213	0xbd06f218	-0.032945722
214	0xbbc84de1	-0.0061127995
215	0x3c88ee20	0.01671511
216	0x3d9634f8	0.07334322
217	0x3d519372	0.051166005
218	0xbe8f5b73	-0.27999458
219	0xbdec7191	-0.115450986
220	0xbe63d412	-0.22248867
221	0x3dea1a9a	0.11430855
222	0xbe4aa1be	-0.19788262
223	0x3dbf1043	0.093292736
224	0xbe446253	-0.19178133
225	0xbe309894	-0.17245704
226	0x3dcddbca	0.10051687
227	0xbda9d26c	-0.08292088
228	0xbd5ee1d1	-0.054414574
229	0xbe8135bf	-0.25236318
230	0xbd74db92	-0.05977971
231	0xbe0af1fc	-0.13568872
232	0x3e302b54	0.17204028
233	0x3dbbae5d	0.091641165
234	0xbdb6ddd1	-0.08929027
235	0x3d14479f	0.036201116
236	0xbe89e59a	-0.26932985
237	0xbe820fff	-0.2540283
238	0xbc98607b	-0.018600693
239	0xbe2e86f5	-0.1704367
240	0x3d690577	0.056889977
241	0x3cd99038	0.026558027
242	0xbe8230d5	-0.2542788
243	0xbdd6c04a	-0.10485895
244	0xbdbb0b3e	-0.09133004
245	0x3c675c94	0.014121193
246	0xbe30f605	-0.17281349
247	0x3db66b0a	0.08907135
248	0x3b9e97d7	0.004839878
249	0x3dd4a77b	0.10383507
250	0x3cc42396	0.02394275
251	0x3d9be674	0.07612315
252	0xbdedc81c	-0.116104335
253	0x3e0308fd	0.12796398
254	0xbe1d0682	-0.15334514
255	0xbe8176ad	-0.25285855

Encoder.enc2.weight f4 [40, 256]
0	0x3bd2f355	0.006437699
1	0x3b23a218	0.0024968442
2	0xbb46d52f	-0.003033947
3	0xbc17640f	-0.009240164
4	0x3d17f0b7	0.037094798
5	0xbbd95c8c	-0.006633347
6	0x3ca862a4	0.020554848
7	0xbd11f8ac	-0.035637543
8	0x3caad544	0.020853646
9	0x3b197ee3	0.0023421578
10	0x3c8d0a5f	0.01721686
11	0xbb84adbb	-0.0040490306
12	0x3c5f399d	0.013624576
13	0x3b104898	0.0022015925
14	0x3cb1129e	0.021615323
15	0xbb14597c	-0.0022636345
16	0x3884e782	6.337372e-05
17	0xbb7b3c51	-0.0038335512
18	0xbbc23bc2	-0.005927534
19	0xbb5b25c7	-0.0033439265
20	0xbc22b82b	-0.009931604
21	0x3c99bfc5	0.0187682
22	0xbb53d671	-0.0032323862
23	0x3a248c7e	0.00062770385
24	0xbae8422b	-0.0017719915
25	0xbc78e3d9	-0.015191042
26	0x39671208	0.00022036594
27	0xbd016c79	-0.03159759
28	0xbbaddaf9	-0.0053056446
29	0xbb74a58d	-0.0037330121
30	0x3aff9895	0.0019500429
31	0x3ae93c30	0.0017794427
32	0x3d131028	0.03590408
33	0xbb01e304	-0.001981915
34	0x3c00b482	0.007855536
35	0x3c0b0332	0.008484649
36	0x3bc1b092	0.0059109414
37	0xbd6f4b42	-0.05842138
38	0x3c2d27ef	0.010568603
39	0x3ac46959	0.0014985009
40	0xbc580676	-0.013185134
41	0x3bebf3d5	0.007200698
42	0xbb34f967	-0.0027614476
43	0xbc8c707a	-0.017143477
44	0xba47d7dd	-0.00076234137
45	0x3b8b9f08	0.0042609014
46	0xbd399e94	-0.045317248
47	0xba0f426d	-0.00054649153
48	0x3905208c	0.00012695993
49	0x3bdd059b	0.006745053
50	0x3b468477	0.0030291358
51	0x3c50f4d1	0.012753681
52	0x3cb2d349	0.021829264
53	0xbbc48a94	-0.005997965
54	0xbd01ae5c	-0.031660423
55	0x3cf3324c	0.02968707
56	0xbc13dff0	-0.009025559
57	0x3ca12978	0.019673094
58	0xbc8ff73c	-0.017573945
59	0xbb61d0ae	-0.0034456658
60	0xbcbc1601	-0.022959711
61	0x3c46a24e	0.012123657
62	0xbbb15abd	-0.005412428
63	0x3c002d19	0.007823252
64	0x3cd015ed	0.02540108
65	0xbb5d2051	-0.0033741186
66	0xbd0f305c	-0.03495823
67	0x3c017126	0.007900512
68	0xbc8c3c03	-0.01711846
69	0xbbba1910	-0.005679257
70	0xbbb09d71	-0.005389862
71	0xbc149535	-0.009068777
72	0x3c14548c	0.009053361
73	0xba0bdc52	-0.00053352595
74	0xbba6af6e	-0.005086831
75	0xbb40cf0d	-0.0029420287
76	0x3a464a17	0.0007564141
77	0xbbb3b6f3	-0.0054844557
78	0x3b2069e9	0.002447719
79	0x3a36817f	0.00069620454
80	0xbd0a1d50	-0.03371936
81	0xbafd28fa	-0.001931458
82	0x3c2ba01c	0.010475185
83	0xbc2cf098	-0.010555409
84	0xbafc02eb	-0.0019226944
85	0x3c25b89d	0.010114816
86	0xbc2aae06	-0.010417467
87	0x3c608c6b	0.013705353
88	0xbbd1007b	-0.006378231
89	0x3c6f3e0c	0.0146021955
90	0xbb9b9bc1	-0.004748792
91	0x3c6ba63a	0.014382893
92	0x3c174540	0.009232819
93	0x3c1b7f14	0.009490747
94	0xbb292219	-0.0025807677
95	0xbb9efa93	-0.004851648
96	0x39d524c2	0.00040653913
97	0xbbfa9cc7	-0.007648084
98	0x3b242fc5	0.0025052887
99	0x3caf5924	0.02140481
100	0x3c496687	0.012292511
101	0xbadc750d	-0.0016819552
102	0x3c84b867	0.016201211
103	0x3a27be27	0.00063988793
104	0xb9c6ae11	-0.00037895193
105	0x3c07e31e	0.008293895
106	0xbac9d90f	-0.0015399772
107	0x3bea5980	0.0071517825
108	0x3bdf7e0a	0.006820445
109	0xbbb737b1	-0.0055913557
110	0x3ba11b0b	0.004916554
111	0x3d19f432	0.0375864
112	0x39b9159f	0.0003530206
113	0x3be576ff	0.007002711
114	0x3b7880bb	0.0037918526
115	0xbbf53020	-0.0074825436
116	0x3c6db6e6	0.014508938
117	0x3cfdd282	0.030984167
118	0xba74d746	-0.00093399396
119	0x3c8df2ac	0.017327629
120	0xbb1618f0	-0.0022903048
121	0xbc20afac	-0.009807508
122	0x3bedad8a	0.0072533535
123	0x3b8682e0	0.004104957
124	0x3b3d2d32	0.002886605
125	0x3c3de139	0.011589342
126	0x3986628a	0.0002563189
127	0xbc3e7631	-0.011624859
128	0xba2d3fe5	-0.00066089473
129	0xbb7f0807	-0.0038914697
130	0x3b48b7d9	0.003062716
131	0xbcd0c334	-0.025483705
132	0xbbd1534a	-0.0063881027
133	0x3bf6923d	0.007524757
134	0xbc5420c0	-0.012947261
135	0xbca562a2	-0.020188633
136	0x3c996bbe	0.018728133
137	0x3c54cbc7	0.012988037
138	0x3c79b413	0.015240687
139	0x3c110993	0.00885238
140	0xbc5e1a5e	-0.013556091
141	0xbba2f782	-0.004973353
142	0x3b925c11	0.0044665416
143	0x3c8ff248	0.017571583
144	0x3b98e556	0.004666011
145	0x3bbba8dd	0.005726917
146	0xbb4be8fa	-0.0031114207
147	0xbb357d11	-0.0027692954
148	0x3cd8214d	0.026383067
149	0x3c9b7628	0.01897724
150	0x3bb7630d	0.0055965246
151	0xba57dbf6	-0.0008234376
152	0x39d445b8	0.00040487736
153	0xbafb36e9	-0.0019166145
154	0x3c1c04bb	0.009522612
155	0x3b1f24d8	0.0024283435
156	0xbcb096e9	-0.021556335
157	0x3cc9913f	0.024605392
158	0xbbfaa845	-0.007649454
159	0x3bb53af2	0.0055307085
160	0x3af51181	0.0018697233
161	0x3cfdd624	0.0309859
162	0x3c803e47	0.015654696
163	0xbb32490e	-0.0027204189
164	0xbc79f1c8	-0.015255399
165	0x3d2e2bd8	0.04252228
166	0xbbaadf9e	-0.0052146455
167	0x3ccd2e5e	0.025046524
168	0xbaaa1d4c	-0.0012978702
169	0x3bf7a2cb	0.007557248
170	0x3bad2549	0.0052839858
171	0xbb971da0	-0.004611686
172	0x3893d978	7.050013e-05
173	0x3c409aae	0.0117556285
174	0x3ba4b0f7	0.0050259787
175	0xbc67c4e5	-0.014146064
176	0x39c15254	0.00036873168
177	0xbaff6149	-0.0019483949
178	0x3b87af46	0.0041407673
179	0x38a2a690	7.755787e-05
180	0xbb672f6e	-0.0035276073
181	0x3cdeb021	0.027183594
182	0x3a66bdfe	0.0008802115
183	0xb8e0782c	-0.00010703536
184	0xbb614d74	-0.003437844
185	0xbb1c6748	-0.0023865271
186	0xbb27d841	-0.0025611075
187	0x3d09382f	0.033500846
188	0x3c4df7b6	0.012571266
189	0x3b9d4e41	0.0048005884
190	0xbc85ab43	-0.016317016
191	0xbbeba067	-0.0071907523
192	0x3cae7772	0.02129719
193	0xbb9375a3	-0.0045001074
194	0xbc1e2a0b	-0.0096535785
195	0x3b7eb049	0.0038862398
196	0xb976100a	-0.00023466363
197	0xbb7277bb	-0.0036997634
198	0xbbc0c554	-0.0058828983
199	0x3ba02afe	0.0048879376
200	0x3b5c8a42	0.0033651744
201	0x3cd8795c	0.026425056
202	0x3bcc62af	0.00623735
203	0xbb39afb7	-0.0028333494
204	0xbba1100c	-0.004915243
205	0xbb1876fa	-0.0023264275
206	0xbb78154c	-0.003785449
207	0x3c7070d2	0.014675336
208	0x3b8c44c1	0.004280657
209	0xbc8ab3cb	-0.016931435
210	0x3ce58d45	0.028021464
211	0x3b71eb13	0.0036913797
212	0x3bd09e8b	0.006366556
213	0x3bf1e407	0.0073819193
214	0xbbaa689a	-0.0052004578
215	0xbaa1612c	-0.0012312285
216	0xbc19e835	-0.009393741
217	0x3c3ed5b5	0.011647631
218	0x3c0d0612	0.008607404
219	0x3c2f1ef7	0.010688535
220	0x3b0f4c8a	0.002186569
221	0xbc290603	-0.010316375
222	0xbbc687f9	-0.0060586897
223	0xbb51d3a6	-0.0032017021
224	0x3bd914bf	0.0066247876
225	0xbc99c67f	-0.018771408
226	0x3b99b057	0.004690211
227	0xbd2ba118	-0.041901678
228	0x3bc283d6	0.005936126
229	0x3cc2e5a5	0.023791144
230	0xbc1f3583	-0.009717348
231	0x3cca6d23	0.024710244
232	0xbc40840f	-0.011750235
233	0xbbe16672	-0.0068786675
234	0x3b8fe001	0.004390717
235	0xbcbcf941	-0.023068072
236	0x3a9d4a7d	0.0012000349
237	0x3cd5ae40	0.026084065
238	0x3c5ddb6e	0.013541086
239	0x3b4c0db7	0.0031136104
240	0xbbf921d0	-0.0076029077
241	0x3b452004	0.0030078897
242	0x3d0c10c6	0.034195684
243	0xbb06412f	-0.002048563
244	0xbb887292	-0.0041640485
245	0x3cbb8ab4	0.022893287
246	0xbb15f5f6	-0.00228822
247	0x3d5fe1de	0.054658763
248	0x39f74fc6	0.00047170947
249	0x3bae985e	0.005328222
250	0x3be04607	0.0068442854
251	0xbc42036f	-0.011841639
252	0xbd131f13	-0.035918307
253	0x3b1220c1	0.0022297355
254	0xbbe240d0	-0.006904699
255	0x3b4a683f	0.003088489

Encoder.enc2.bias f4 [40]
0	0x3cbf91a7	0.023384882
1	0x3ca837aa	0.020534355
2	0x3c060521	0.008179934
3	0xbc305362	-0.0107620675
4	0xbbfe064e	-0.0077522164
5	0xbc77d38d	-0.015126121
6	0x3b6fe337	0.0036603936
7	0x3c6f03c9	0.014588305
8	0x3cbb8e1b	0.02289491
9	0x3bc89894	0.0061217044
10	0x3ba41bde	0.005008205
11	0x3968d528	0.00022204651
12	0xbcdb029f	-0.026734648
13	0x3c1aeea0	0.009456307
14	0x3c98f963	0.018673604
15	0x3d2209e2	0.039560206
16	0xbcfb1a57	-0.030652208
17	0x3cf9ce2a	0.030493814
18	0x3bace316	0.005276094
19	0x3bd4521e	0.0064795157
20	0xbc17e855	-0.009271701
21	0x3bace236	0.00527599
22	0xbe64915f	-0.2232108
23	0x3be1be06	0.0068891076
24	0xbe719f50	-0.23595929
25	0x3c154cbd	0.009112534
26	0xbe700152	-0.23438004
27	0xbb8904ba	-0.0041814717
28	0xbcbe2601	-0.023211481
29	0x3c582839	0.013193184
30	0xbc69cfdf	-0.014270752
31	0xbb77b158	-0.0037794914
32	0x3c058b1e	0.008150844
33	0xbe6e0b65	-0.23246534
34	0xbc305409	-0.010762223
35	0xbe758bf5	-0.2397917
36	0xbe4fe896	-0.20303568
37	0xbe836bb3	-0.25668105
38	0xbc572010	-0.013130203
39	0xbc36e958	-0.011164032

Decoder.dec1.weight f4 [256, 20]
0	0xbb187bd9	-0.0023267178
1	0x3c6bf07b	0.014400597
2	0x3de7b8e1	0.1131456
3	0x3c58b936	0.0132277515
4	0x39dacec4	0.00041734253
5	0xbc6c4c30	-0.014422461
6	0x3e5509ed	0.20804568
7	0x3a895b4d	0.001047948
8	0x3c8153f3	0.0157871
9	0x3c26d3ec	0.010182362
10	0xbba6958f	-0.0050837467
11	0xbbbdadd5	-0.0057885447
12	0xbc3fbaa6	-0.011702215
13	0xbe107ba0	-0.14109659
14	0x3c208ab9	0.009798699
15	0xbe02235d	-0.12708803
16	0xbd31fd09	-0.043454204
17	0x3c2834e6	0.010266518
18	0x3bbdfefc	0.005798219
19	0xbb6f2db9	-0.0036495759
20	0xbb3001ee	-0.002685662
21	0xbb81952f	-0.0039545516
22	0xbc986a89	-0.018605487
23	0x3c44adaf	0.0120043
24	0xbe770e55	-0.24126561
25	0x3b17c655	0.0023158987
26	0xbcf086bf	-0.029361127
27	0xba9ba969	-0.001187605
28	0xbb87f326	-0.0041488586
29	0xbaeb7b54	-0.0017965832
30	0x3b42d430	0.0029728524
31	0x3c1ae526	0.009454047
32	0x3b05f8d5	0.0020442505
33	0xbcd0ae1d	-0.025473649
34	0xbba20202	-0.004944087
35	0x3d85c483	0.06531622
36	0xbc6a27e0	-0.0142917335
37	0xbc57fcaa	-0.013182798
38	0xbb0cd885	-0.002149136
39	0xb99d7abc	-0.00030036818
40	0x3b0a8f70	0.0021142624
41	0x3b1b77d6	0.002372255
42	0xbcfebb9e	-0.031095322
43	0x3a8da30c	0.0010806038
44	0x3bac883f	0.0052652652
45	0x39944496	0.0002827986
46	0xbdbc082f	-0.091812484
47	0x3ad32dda	0.0016111687
48	0x3c0ea7c1	0.008706988
49	0xbb4e20c0	-0.0031452626
50	0x3ba6b355	0.005087296
51	0x39797db6	0.00023793321
52	0x3b5c5169	0.003361786
53	0x3c7f50d0	0.015583232
54	0x3adf1086	0.0017018474
55	0xbd19f803	-0.037590038
56	0x3cd57664	0.02605743
57	0x3b21ca16	0.0024687103
58	0xbb8c80a4	-0.004287796
59	0xbb00226a	-0.0019551762
60	0xbaa39e31	-0.0012483058
61	0xbbc91b36	-0.006137277
62	0xbc46bd4b	-0.012130092
63	0xbc1e1cf7	-0.00965046
64	0xbe565f81	-0.2093487
65	0xbc03d1f1	-0.008045659
66	0xbd0c5124	-0.03425707
67	0xba99e355	-0.0011740724
68	0xba973e08	-0.0011538872
69	0x38b95259	8.836826e-05
70	0xbc14510b	-0.009052525
71	0xbc0b5560	-0.008504242
72	0xba77180b	-0.0009425885
73	0x3bb69f5c	0.0055731963
74	0xbade2883	-0.0016949329
75	0x3dd0ce9f	0.1019566
76	0x3cbd2ff3	0.023094153
77	0xbbd49298	-0.006487202
78	0xbc1ebbb5	-0.0096883075
79	0x3be54b03	0.0069974675
80	0xbc619201	-0.01376772
81	0x3a8431e8	0.0010085674
82	0x3dd988eb	0.10621818
83	0xba6cd807	-0.0009034876
84	0x3c31eb55	0.01085933
85	0x3bdc0ab6	0.006715144
86	0x3b87af8c	0.0041408
87	0xba95bf4a	-0.0011424806
88	0x3bd79b86	0.006579819
89	0xbb630a27	-0.0034643502
90	0x3ba1712a	0.0049268203
91	0x3bd45fee	0.0064811623
92	0x3beeb0eb	0.007284274
93	0x3d8d75ea	0.06907256
94	0xbbfd349c	-0.007727219
95	0x3dd21645	0.10258154
96	0x3d140bd5	0.036144096
97	0x3e834793	0.25640544
98	0x3bddd1f0	0.0067694113
99	0xbc15e3fc	-0.009148594
100	0xbb96d372	-0.004602843
101	0x3ba7509c	0.005106045
102	0x3dae8bc0	0.08522749
103	0x3bef8e18	0.00731064
104	0xbd4f8baa	-0.050670303
105	0x3b6ccc45	0.0036132496
106	0x3bff336f	0.007788114
107	0xbc97e869	-0.018543439
108	0x3bf56bf0	0.007489674
109	0xbb47fca0	-0.0030515566
110	0x3c27b373	0.010235655
111	0x3a88420c	0.001039566
112	0x3c8857d4	0.016643442
113	0x3d0a259f	0.033727285
114	0x3c4fa5c9	0.012673804
115	0x3df20310	0.118169904
116	0xbcd40738	-0.025882348
117	0x3e6b7bb7	0.22996412
118	0xbbf5961b	-0.0074947006
119	0x3be69743	0.007037075
120	0xbb1ebae9	-0.0024220294
121	0x3ab0bbc9	0.0013483699
122	0x3d091f6f	0.033477243
123	0xbb21c022	-0.002468117
124	0x3cc40056	0.023925941
125	0x398c411b	0.00026751388
126	0xbd8f5a9c	-0.06999704
127	0x3a8c7209	0.0010715137
128	0xbb8684d2	-0.004105189
129	0x3b9ae099	0.004726481
130	0xb9ca0fce	-0.00038540218
131	0x3a48e6e6	0.0007663801
132	0xbb74e80f	-0.0037369763
133	0x3d40188a	0.046898402
134	0x397840b5	0.00023675228
135	0x3e11e068	0.1424576
136	0xbcf62374	-0.030046202
137	0xbcd417d3	-0.025890267
138	0xba0dff93	-0.00054168067
139	0x39a5f232	0.00031651702
140	0x3c52ffb1	0.012878344
141	0xbb88b5c4	-0.004172059
142	0xbc2ce6d6	-0.010553082
143	0xba4c78a4	-0.0007799959
144	0xbe6fc43a	-0.23414698
145	0x3bee7a1a	0.0072777392
146	0x3caf64cb	0.021410367
147	0x3afdd846	0.0019366823
148	0x3c847d0a	0.016172905
149	0x3b030bba	0.0019996003
150	0xbc2d3835	-0.010572483
151	0x3c09f51b	0.008420254
152	0xbc827f60	-0.015929878
153	0x3d9bfd6e	0.07616697
154	0xb86ec3a0	-5.692581e-05
155	0x3df2d8b3	0.11857738
156	0x3d8ae683	0.06782248
157	0xbb250b70	-0.002518382
158	0x3aeb8d13	0.001797112
159	0x3bde88c5	0.0067912065
160	0x3b7450e5	0.0037279662
161	0xbc574c19	-0.013140702
162	0x3e1cdcb0	0.1531856
163	0xba9a7ce3	-0.0011786487
164	0xbcc5eaec	-0.024159871
165	0x3ba1caa9	0.004937489
166	0x3e56215a	0.2091116
167	0xbc46c880	-0.012132764
168	0xb99ffe1e	-0.00030516175
169	0x3c30a0ca	0.010780523
170	0x3c0e4d47	0.008685417
171	0x3b8bea12	0.0042698467
172	0xbc6e5102	-0.014545681
173	0xbdb9e0a1	-0.09076048
174	0x3c0e0725	0.008668696
175	0x3e228c46	0.15873823
176	0xbdde2969	-0.10847742
177	0xbca57194	-0.02019576
178	0xbb772328	-0.0037710164
179	0xbc829d31	-0.015944095
180	0xbb2b3177	-0.0026122013
181	0x3a7c80ce	0.00096322305
182	0x3e16af16	0.14715227
183	0x39e95dfc	0.00044511247
184	0xbb8c5f1d	-0.0042837993
185	0xbc529e48	-0.01285512
186	0x3e0fe5fb	0.14052574
187	0xbb4d68ee	-0.003134306
188	0xbba348f9	-0.0049830643
189	0x39f37653	0.0004643673
190	0xbbaaa231	-0.005207323
191	0x3c3cf6a6	0.011533415
192	0x3ba107a3	0.0049142404
193	0x3c247702	0.010038139
194	0x3bf536c8	0.007483337
195	0x3d4a146e	0.04933589
196	0xbe4ba476	-0.19886956
197	0xbc9964c4	-0.018724807
198	0x3ad60c63	0.0016330596
199	0x3a919e0a	0.0011109721
200	0xbc198010	-0.009368911
201	0xbae561d8	-0.0017500473
202	0x3dedc344	0.116095096
203	0xba9b6561	-0.0011855775
204	0xbdf06060	-0.11737132
205	0xbab91a91	-0.0014122297
206	0x3c33db21	0.010977537
207	0x3bf25b78	0.007396158
208	0x3a492849	0.00076735445
209	0x3abaf3b2	0.0014263301
210	0xbc610935	-0.013735105
211	0x3bca03f2	0.006165021
212	0xbd082f0c	-0.033247992
213	0x3d3ee95b	0.046609264
214	0xba5f2129	-0.0008511716
215	0x3e0280a0	0.12744379
216	0x3ba8f07a	0.00515562
217	0x3e5aa564	0.21352154
218	0xbc84040b	-0.01611521
219	0xbca9af0a	-0.020713348
220	0x3b107194	0.0022040354
221	0x39427f4f	0.00018548708
222	0x3e059fba	0.13049212
223	0x3b511ecf	0.0031909232
224	0x3c53d682	0.012929561
225	0x3ba8043a	0.005127457
226	0x3c8162c6	0.01579417
227	0xbbaedc03	-0.005336286
228	0x3b351ae0	0.0027634427
229	0xbc5ae3d8	-0.013359986
230	0xbbe934a7	-0.0071168724
231	0x3b574b3a	0.0032851235
232	0x3bd8cbb6	0.006616081
233	0xbc9f1eba	-0.019423831
234	0xbc1c62d3	-0.009545046
235	0x3dfc1d95	0.1231033
236	0x3deef1db	0.11667224
237	0xbc4d7d62	-0.012542101
238	0x3a4a5718	0.00077186665
239	0x3b8344ec	0.004006019
240	0xbbd6f650	-0.0065601245
241	0x3b22a033	0.0024814724
242	0x3d177ee1	0.036986236
243	0xbc3200dc	-0.010864463
244	0xbaba9f9b	-0.001423824
245	0x3a102971	0.00054993393
246	0x3c28cf70	0.010303363
247	0xbc01bcf2	-0.007918583
248	0x3bd83266	0.006597805
249	0xb9f0cf6d	-0.0004593091
250	0x3a95128b	0.0011373324
251	0x3bba6260	0.0056879967
252	0xbb326c25	-0.0027225104
253	0xbc017e01	-0.007903577
254	0xba41c053	-0.0007391024
255	0xbdeb9be6	-0.11504345

Decoder.dec1.bias f4 [256]
0	0xbe20491d	-0.1565289
1	0xbe08f906	-0.13376245
2	0x3d069570	0.03285736
3	0x3cc40a84	0.023930795
4	0xbe435d87	-0.19078647
5	0xbeb0a644	-0.3450185
6	0x3d0b1534	0.033955768
7	0xbe0b57eb	-0.13607757
8	0xbe6c40ea	-0.23071638
9	0xbe2994e6	-0.16560706
10	0xbed0bc89	-0.4076884
11	0xbd1b586c	-0.037926123
12	0x3d1ccf33	0.038283538
13	0xbcbccedb	-0.023047855
14	0xbf648377	-0.892631
15	0xbc0fc4d9	-0.0087749595
16	0xbd16405e	-0.03668248
17	0xbd890efd	-0.06692312
18	0xbdd12d16	-0.102136776
19	0xbe91333f	-0.2835941
20	0x3d567f24	0.052367344
21	0xbd2f787e	-0.04283952
22	0xbc06c86c	-0.008226495
23	0xbe059373	-0.13044529
24	0xbd7adad0	-0.061243832
25	0x3da90776	0.08253376
26	0xbcd6a38f	-0.026201038
27	0xbb2ae8fd	-0.0026078813
28	0xbe473621	-0.19454242
29	0x3e06af7c	0.1315288
30	0xbe2bbabc	-0.16770452
31	0xbd24cd9f	-0.040235158
32	0xbbbae28e	-0.005703277
33	0x3cda967a	0.026683081
34	0xbdffe368	-0.12494546
35	0xbe36910c	-0.17828768
36	0x3c18e9f7	0.009333125
37	0xbe5f79d8	-0.21823823
38	0xbe036645	-0.12831981
39	0x3cffacb8	0.031210288
40	0x3d090b4c	0.03345804
41	0xbd0f4a40	-0.03498292
42	0xbd80a68e	-0.06281768
43	0xbe8989c2	-0.26862913
44	0xbec82fe8	-0.3909905
45	0x3cd73612	0.0262709
46	0xbe61ca22	-0.22049764
47	0xbeac49eb	-0.33650145
48	0xbeba8283	-0.36427698
49	0x3ac63264	0.0015121219
50	0xbcc58391	-0.024110587
51	0x3c245b37	0.010031513
52	0xbd73b8b0	-0.059502304
53	0xbd37d1db	-0.04487787
54	0xbe3e938e	-0.18610975
55	0xbc703786	-0.014661675
56	0xbdf3d36f	-0.11905562
57	0xbc5ede42	-0.013602795
58	0x3d224636	0.03961774
59	0x3dc5751b	0.09641477
60	0xbc880dd9	-0.016608166
61	0xbde43485	-0.1114283
62	0xbc92f4ef	-0.017939059
63	0xbde13a3e	-0.10997437
64	0xbc28e403	-0.0103082685
65	0x3bc7eb20	0.006101027
66	0xbd94b030	-0.072601676
67	0xbdeda3b9	-0.11603493
68	0xbe6b759e	-0.22994086
69	0xbd7452a8	-0.05964914
70	0xbe80c9b5	-0.2515389
71	0xbb8283ca	-0.0039829956
72	0xbdb4af9b	-0.088225566
73	0xbdd3a60e	-0.10334407
74	0x3c477550	0.012173966
75	0xbe02beed	-0.12768145
76	0xbe1e7790	-0.15475297
77	0xbdda7895	-0.106675304
78	0xbe93afd2	-0.28845078
79	0xbe6dc6f7	-0.2322043
80	0x3d2f83cd	0.042850304
81	0xbd8177e1	-0.06321693
82	0xbdf2a164	-0.11847189
83	0xbe6099e2	-0.21933702
84	0xbd0a7b39	-0.03380892
85	0xbe8666c8	-0.2625029
86	0xbd5a6d20	-0.053326726
87	0x3d047bb5	0.03234454
88	0xbd6658bd	-0.05623697
89	0x3c1d9919	0.009619021
90	0x3aaac0dc	0.0013027447
91	0xbdeda5e8	-0.1160391
92	0x3c2d3f39	0.0105741555
93	0xbc57006d	-0.01312266
94	0x38bc8ae4	8.990409e-05
95	0x3cd0a3c2	0.02546871
96	0xbd17eb4e	-0.03708964
97	0x3c99dcde	0.018782075
98	0xbe8f3b76	-0.27975053
99	0xbcf52521	-0.029924931
100	0xbdeab132	-0.114595786
101	0xbdfb8f9b	-0.1228325
102	0xbe039dc7	-0.12853156
103	0x3cd5bc3c	0.026090734
104	0xbe65aa29	-0.22428192
105	0xbd440670	-0.0478577
106	0x3d06f8b8	0.03295204
107	0xbb41a0ea	-0.0029545375
108	0xbd06195c	-0.03273903
109	0x3d1e5c26	0.0386621
110	0x3c5dd0d6	0.01353856
111	0xbe2b55b5	-0.16731913
112	0x3c1bea80	0.009516358
113	0xbd5fc436	-0.05463048
114	0xbdbaa449	-0.09113366
115	0xbe0a7b30	-0.13523555
116	0x3b6f4c6d	0.003651406
117	0xbd258bdf	-0.040416595
118	0xbe16e526	-0.1473585
119	0xbc0500a6	-0.00811783
120	0xbdf62bf3	-0.120201014
121	0xbdf367e1	-0.11885048
122	0xbe8d3559	-0.27579764
123	0xbcd3f40c	-0.025873207
124	0xbd2fe786	-0.042945407
125	0xbe09c35f	-0.13453434
126	0x3bb8ce45	0.0056398236
127	0xb820959f	-3.8286318e-05
128	0xbd86a115	-0.06573693
129	0x3c3e3c49	0.011611053
130	0xbd9e0490	-0.07715714
131	0x3c697829	0.01424984
132	0xbddc35ff	-0.107524864
133	0xbd03fba0	-0.03222239
134	0xbcff29af	-0.031147806
135	0xbec21801	-0.3790894
136	0x3dbf7c57	0.09349888
137	0x3c237a3c	0.009977873
138	0x3d7a604c	0.061126992
139	0x3da91fe4	0.08258036
140	0xbcf6afe2	-0.030113164
141	0xbe930e04	-0.2872163
142	0x3d270358	0.040774673
143	0xbd30d7c5	-0.043174524
144	0x3d2c3269	0.042040262
145	0x3cb8bce5	0.02255101
146	0xbea12db7	-0.3148019
147	0xbda88c1a	-0.08229847
148	0xbec21833	-0.37909088
149	0xbe87c7f4	-0.2651974
150	0xbcb8f05b	-0.022575548
151	0xbdf6def7	-0.12054246
152	0xbd0000e3	-0.031250846
153	0xbc8894b4	-0.01667247
154	0x3d8c7681	0.0685854
155	0x3ca5097f	0.02014613
156	0x3cf3c851	0.029758604
157	0x3db091fb	0.086215936
158	0x3d19db62	0.037562735
159	0xbdcc7d43	-0.09984829
160	0xbbd04883	-0.0063563003
161	0xbbac6254	-0.005260745
162	0xbe6c088f	-0.2305014
163	0xbdff4f34	-0.12466279
164	0xbea3304f	-0.31872794
165	0xbe202f74	-0.15643102
166	0xbe19728f	-0.14985107
167	0x3c9d8a8d	0.019231105
168	0x3ccce8d2	0.025013361
169	0x3cb10857	0.021610422
170	0xbc7e5801	-0.015523911
171	0xbd22a4ff	-0.039708134
172	0xbde66371	-0.11249436
173	0x3d144257	0.03619608
174	0xbd1bd00c	-0.038040206
175	0xbd840d65	-0.06447867
176	0xbe198dc5	-0.14995487
177	0xbc8a89a6	-0.016911339
178	0xbce4a7a7	-0.027911974
179	0x3d2df0f9	0.042466138
180	0xbb5794b5	-0.0032895033
181	0x3c45ee22	0.012080701
182	0xbd020a09	-0.03174785
183	0xbe6338ca	-0.22189632
184	0xbd9c3068	-0.0762642
185	0xbd5a91ef	-0.05336183
186	0x3bcb9873	0.0062132417
187	0xbdb4af8a	-0.08822544
188	0x3c582ed8	0.013194762
189	0xbe209daf	-0.15685152
190	0x3d296c3a	0.04136298
191	0x3cb2e799	0.02183895
192	0x3ca18a9e	0.019719418
193	0xbebfb110	-0.37439775
194	0xbe78cba2	-0.2429643
195	0xbd906129	-0.07049782
196	0x3cd6c871	0.026218625
197	0x3c046902	0.008081676
198	0x3d507b20	0.05089867
199	0xbc3e94cc	-0.011632156
200	0x3d1377c9	0.036002908
201	0xbc97b2cc	-0.018517874
202	0xbe74b85d	-0.23898454
203	0x3c9e3dce	0.01931658
204	0xbc974dff	-0.018469809
205	0x3d57a7fd	0.05265044
206	0xbd11c3d2	-0.03558714
207	0x3c58b799	0.013227367
208	0xbf356200	-0.7085266
209	0x3c93478b	0.01797845
210	0x3cb9018a	0.022583742
211	0xbcf0ad2b	-0.029379448
212	0xbed6bcf6	-0.4194104
213	0xbdcfd57d	-0.101481415
214	0x3d10f626	0.035390995
215	0xbcb1f26a	-0.021722037
216	0x3b097ac5	0.0020977717
217	0x3b847abf	0.004042953
218	0x3d42706b	0.04747049
219	0xbe047c74	-0.129381
220	0x3d305ce3	0.043057334
221	0x3cdcaa50	0.02693668
222	0xbd706a08	-0.05869487
223	0xbebead9e	-0.37241834
224	0xbde0d15e	-0.109774336
225	0xbdfe4be1	-0.124168165
226	0x3d00f5bf	0.03148436
227	0xbd6bc901	-0.05756474
228	0x3db00103	0.08593943
229	0xbe806208	-0.25074792
230	0xbd9072e6	-0.07053165
231	0x3d29c8ca	0.041451253
232	0x3cf0cf33	0.029395675
233	0x3cb94177	0.022614224
234	0xbc3f1074	-0.011661638
235	0x3d09e4b2	0.033665366
236	0xbe6f6907	-0.23379909
237	0x3ba5d77b	0.0050610877
238	0xbe1d47ce	-0.15359423
239	0xbd9bc0ee	-0.07605158
240	0xbd5742c0	-0.052553892
241	0xbcb31011	-0.021858247
242	0xbd89dab7	-0.0673117
243	0xbe9ec3a7	-0.31008646
244	0xbe8919c9	-0.26777485
245	0x3c9cdec0	0.019149184
246	0xbe45e65c	-0.19326156
247	0xbd9f2046	-0.077698275
248	0xbb325f97	-0.002721762
249	0x3cef247a	0.029192198
250	0xbe42e2f8	-0.19031894
251	0xbdad78e5	-0.084703244
252	0x3cf539de	0.02993482
253	0x3cc36939	0.023853885
254	0x3dae8638	0.08521694
255	0xbda89bc3	-0.08232834

Decoder.dec2.weight f4 [31, 256]
0	0x3e8a933c	0.27065456
1	0x3df21ced	0.118219234
2	0x3ad9fd7b	0.0016631329
3	0x3d8e3072	0.06942834
4	0x3cfda530	0.030962557
5	0xbe4a1493	-0.19734411
6	0x3e460936	0.19339451
7	0x3e0914c4	0.13386828
8	0x3d588fb1	0.05287141
9	0x3e88264a	0.26591712
10	0xbe36f5c7	-0.17867194
11	0xbf006177	-0.5014872
12	0xbf0e8f4f	-0.5568742
13	0xbe752115	-0.23938401
14	0xbf6f3956	-0.9344686
15	0x3df1910b	0.11795243
16	0x3aa392c1	0.0012479649
17	0xbdd97659	-0.10618276
18	0xbd803d34	-0.062616736
19	0xbe33fdb1	-0.17577244
20	0x3e390375	0.18067725
21	0xbf189771	-0.5960608
22	0xbe874a8e	-0.26424068
23	0x3f1b103a	0.60571635
24	0x3ee4a201	0.4465485
25	0x3c37409b	0.011184837
26	0xbe1fdb3e	-0.15610978
27	0xbdfbcb67	-0.12294655
28	0xbe4c576e	-0.19955227
29	0x3cc29d30	0.023756593
30	0xbdc8ec7a	-0.09810729
31	0xbf12a031	-0.5727568
32	0xbda88967	-0.082293324
33	0xbe9c43d1	-0.3052049
34	0x3d8a5137	0.06753772
35	0x3e918e50	0.28428888
36	0x3ee46d29	0.44614533
37	0x3ee482ae	0.4463095
38	0xbd194780	-0.037421703
39	0x3e847e70	0.25877714
40	0xbf2ba2b9	-0.6704517
41	0xbe993f92	-0.29931313
42	0x3d6a16b5	0.05715056
43	0xbcd167ee	-0.025562253
44	0xbe914ce7	-0.28378984
45	0x3e3bdad7	0.183452
46	0x3bcbcf84	0.006219806
47	0xbe9c87be	-0.30572313
48	0xbc99bfd6	-0.018768232
49	0xbdbcbbe3	-0.09215524
50	0x3b0722fa	0.0020620213
51	0xbee8cf75	-0.45470777
52	0xbc835e16	-0.016036075
53	0xbd5c72b9	-0.053820346
54	0xbe1efee1	-0.15526916
55	0xbdd7c716	-0.105360195
56	0xbdd30c3e	-0.103050694
57	0x3e9ab81e	0.30218595
58	0x3d6e0fd0	0.05812055
59	0xbd14d77e	-0.036338322
60	0xbf4c9b00	-0.7992401
61	0x3e2a1efe	0.16613385
62	0x3d73151a	0.059346296
63	0xbe81a9f0	-0.25324965
64	0x3e23f40c	0.16011065
65	0x3d14a085	0.036285896
66	0x3d2ba56a	0.041905798
67	0xbe792d29	-0.24333633
68	0xbe4e91c7	-0.20172797
69	0x3df20b2a	0.118185356
70	0xbd79faff	-0.061030384
71	0x3e618b74	0.22025853
72	0x3e1f2a64	0.15543514
73	0x3d30e65c	0.043188438
74	0xbe524b9d	-0.20536657
75	0x3ced64ad	0.02897867
76	0x3efc1a2d	0.4923872
77	0xbe6ae492	-0.22938755
78	0xbee8f5f8	-0.4550016
79	0xbc9309df	-0.017949043
80	0xbe89830d	-0.26857796
81	0x3eae5038	0.34045577
82	0xbc40bc27	-0.011763609
83	0xbe87a868	-0.2649567
84	0x3d1aca40	0.037790537
85	0x3e635c93	0.22203283
86	0xbf267934	-0.6502869
87	0xbdd0e129	-0.10199196
88	0x3e340ad0	0.1758225
89	0x3d73ab76	0.05948969
90	0x3d981f13	0.07427802
91	0x3e4f9946	0.20273313
92	0xbe935306	-0.2877428
93	0x3e3754d4	0.17903453
94	0x3d8ee9a8	0.0697816
95	0x3e7f1117	0.24908863
96	0xbe433e87	-0.19066821
97	0xbe57cef1	-0.21075036
98	0x3beda919	0.007252824
99	0xbd536619	-0.05161104
100	0x3da197d7	0.07890289
101	0xbe9d8b0a	-0.3077014
102	0xbf64f9e6	-0.89443815
103	0x3e69ee2c	0.22844762
104	0xbdd473df	-0.10373663
105	0x3ee91d57	0.45530197
106	0xbe8bc1c5	-0.27296272
107	0xbe2cfaa5	-0.16892488
108	0xbe43fcbb	-0.19139378
109	0x3dd42dd0	0.103603005
110	0x3e963944	0.29340565
111	0x3f084fa8	0.53246546
112	0x3d23e46b	0.04001276
113	0xbec09d50	-0.3762002
114	0xbc0453d4	-0.008076627
115	0x3eb6141f	0.35562226
116	0x3e2bfff5	0.16796859
117	0xbf0aa729	-0.54161316
118	0x3edd2a2b	0.43196234
119	0x3e15b4cb	0.14619748
120	0x3e1f9025	0.1558233
121	0xbe368e39	-0.17827691
122	0x3e0ed73e	0.13949296
123	0x3db3bd76	0.08776371
124	0xbde549a2	-0.11195685
125	0x3dad1346	0.08450942
126	0xbd22fcc8	-0.039791852
127	0xbd1f6d1d	-0.038922418
128	0x3f249293	0.64286155
129	0xbdd741d9	-0.10510606
130	0xbe3ef24c	-0.18647116
131	0x3ec67999	0.38764647
132	0xbe93bf6c	-0.2885698
133	0x3d9f49cd	0.07777748
134	0x3d47f215	0.04881485
135	0xbf0c5b9a	-0.5482727
136	0x3d7de01a	0.061981298
137	0x3ddafe98	0.10693091
138	0x3df45f51	0.11932243
139	0x3e2d9cc4	0.16954333
140	0xbca97b66	-0.020688724
141	0xbef573b5	-0.4793984
142	0x3df27bd5	0.11840025
143	0x3ee41058	0.4454372
144	0xbe75bb7b	-0.239973
145	0x3e3f70bb	0.18695347
146	0xbeb70f8f	-0.35754058
147	0x3e9f31cb	0.31092677
148	0xbec26484	-0.37967312
149	0x3e13f7c5	0.14449985
150	0xbe1a6b7d	-0.15080066
151	0xbee6beae	-0.45067352
152	0x3d1ea087	0.03872731
153	0x3d750e38	0.059828013
154	0xbea8a4eb	-0.32938322
155	0xbee992ce	-0.45619816
156	0xbe46181f	-0.19345139
157	0x3db2f77b	0.087386094
158	0xbf5e6009	-0.8686529
159	0x3ef5125a	0.47865564
160	0x3ea6b43a	0.32559377
161	0x3e09f4fa	0.13472357
162	0x3ea7c086	0.3276407
163	0xbe9d4fa8	-0.30724835
164	0xbea3aa78	-0.31965995
165	0x3deaec99	0.11470909
166	0x3dc9c143	0.09851315
167	0x3e95b889	0.29242352
168	0x3e4dcc8f	0.20097564
169	0x3e79d95b	0.24399321
170	0x3dc8f8d5	0.09813086
171	0x3d622061	0.05520666
172	0x3e429e77	0.19005762
173	0x3d7f4a73	0.06232686
174	0xbe85ee7b	-0.2615851
175	0x3e9b18fb	0.30292496
176	0x3e88a5aa	0.26688892
177	0x3ed7ac08	0.42123437
178	0xbe226e71	-0.15862443
179	0xbeba32ff	-0.36367032
180	0xbc6b67bc	-0.014367994
181	0xbe854567	-0.26029512
182	0x3e76303a	0.24041834
183	0xbf2eb439	-0.6824375
184	0xbd7ce66c	-0.061743185
185	0x3e6babb4	0.23014718
186	0xbe149b75	-0.14512427
187	0xbf225b18	-0.6342025
188	0xbeb941c3	-0.36182985
189	0x3da1e5c9	0.07905156
190	0xbf9b9566	-1.2154968
191	0xbf56d36e	-0.83916366
192	0x3d88459b	0.06653901
193	0x3c88d73f	0.0167042
194	0xbe03c541	-0.12868215
195	0x3d6e02ca	0.05810813
196	0x3e5ad81a	0.21371499
197	0xbe714727	-0.23562299
198	0x3ec3463a	0.38139516
199	0xbd145829	-0.03621689
200	0x3ecb2156	0.3967387
201	0x3e6208da	0.22073689
202	0x3d88ca88	0.06679255
203	0x3db5df4c	0.08880481
204	0x3db4b373	0.0882329
205	0x3e029b23	0.12754492
206	0xbea3f5b4	-0.32023394
207	0xbf4c0725	-0.796984
208	0xbeddd0cf	-0.4332337
209	0xbef2cee1	-0.4742346
210	0x3dce64dd	0.10077832
211	0x3f13eddb	0.57784814
212	0x3d7b9119	0.061417673
213	0x3d1cecf7	0.038311925
214	0xbe44406f	-0.19165204
215	0x3e625440	0.22102451
216	0x3e3c360b	0.18379991
217	0x3e68bbdf	0.22727917
218	0xbece9282	-0.40346152
219	0x3e6e69d1	0.23282553
220	0x3e70b7f5	0.23507674
221	0xbf5231d2	-0.8210727
222	0xbe216ab8	-0.15763366
223	0x3e45e3e1	0.1932521
224	0x3e8a1a63	0.26973256
225	0x3c7e4c6d	0.015521151
226	0x3dc1f7ef	0.09471118
227	0x3ce2f58c	0.027704976
228	0x3e06c592	0.13161305
229	0x3c075ca6	0.008261835
230	0xbd70f2ce	-0.058825307
231	0xbe1d4282	-0.15357402
232	0x3e5d8cc0	0.21635723
233	0xbe26739a	-0.16255036
234	0x3e8165c6	0.2527296
235	0xbd1dfa31	-0.03856868
236	0x3e48e24a	0.19617572
237	0x3ed43306	0.41445178
238	0xbec712f2	-0.38881642
239	0xbe58f4f0	-0.21187186
240	0xbe36d834	-0.17855912
241	0xbe0823a4	-0.13294846
242	0xbef80adb	-0.48445782
243	0x3e35d616	0.17757449
244	0xbea2df86	-0.3181116
245	0xbe6eee05	-0.23332985
246	0x3d38f4b4	0.045155242
247	0xbe1b572f	-0.15169977
248	0xbd4753bf	-0.04866385
249	0x3d78cdd3	0.060743164
250	0x3e3dfca0	0.185534
251	0x3ea54c89	0.32284954
252	0x3e628a23	0.22123007
253	0x3ca14116	0.019684356
254	0x3daf8e80	0.085721016
255	0x3d95dc6b	0.07317432

Decoder.dec2.bias f4 [31]
0	0xbc1a1922	-0.009405406
1	0x3e55c5a2	0.20876172
2	0x3fde16c6	1.73507
3	0xbd339bf5	-0.043849904
4	0x3f980869	1.1877567
5	0x3e3348f8	0.17508304
6	0xc006bafa	-2.1051621
7	0xbf67b81f	-0.9051532
8	0x3f80d477	1.0064839
9	0x3d911599	0.070841976
10	0x3f83d17b	1.0298303
11	0xc02504a6	-2.5784087
12	0x3f93142e	1.1490533
13	0xbf57a894	-0.84241605
14	0xbd817ece	-0.06323014
15	0x3f5305af	0.8243055
16	0xbdb018cf	-0.08598482
17	0xbf609034	-0.87720037
18	0xbdc7f0c9	-0.09762723
19	0xbf40fe05	-0.75387603
20	0xbfe6d9dd	-1.8035237
21	0xbdb9ef44	-0.090788394
22	0x3c28ad5e	0.01029524
23	0x3ffbc425	1.9669234
24	0x3da32577	0.0796613
25	0x4021523f	2.520645
26	0x3da508b8	0.080583036
27	0x3fd89f96	1.6923702
28	0x3e655d87	0.22398959
29	0xbcae38a9	-0.021267252
30	0xbdb917e6	-0.090377614
