results/3_iid/model_alone_n_1_m_1.pt (torch, 121552 bytes, 8 tensors)

Encoder.enc1.weight f4 [256, 22]
000000 51 f9 8e 3c d8 c6 df 3d 54 93 4f 3c 03 51 e7 3a
       0.017452868 0.10926598 0.012669403 0.0017648045
000010 b2 c6 2c be d5 0e 5f 3d fd bf 1e bd f2 d7 ac bc
       -0.16872671 0.054457504 -0.038757313 -0.021099064
000020 20 ab 04 3d 68 43 0a be 52 96 e3 3b 2f 05 7f 3d
       0.03238976 -0.13502276 0.00694541 0.062260803
000030 71 5f 5d 3d 6a a4 71 3d 77 d6 06 bd 97 9f 1a 3d
       0.0540461 0.058994688 -0.032919373 0.037749853
000040 e2 db c1 bd 32 05 07 be e2 24 d1 3d a5 95 8e 3c
       -0.094657674 -0.13185576 0.10212113 0.01740534
000050 95 e2 a1 bd 5a ad f8 3d 68 28 fd bd 7b 5d 9d bd
       -0.07904545 0.12142439 -0.123612225 -0.076838456
000060 ae fe f0 bb d9 86 90 3d f1 f6 a1 bb 81 1c 50 bd
       -0.007354579 0.0705697 -0.004942768 -0.050808433
000070 3f 73 2b 3d dc 89 18 3e 52 32 e1 3d 7c bb 23 3d
       0.041857954 0.14896339 0.10995926 0.03997372
000080 e2 e6 0c be 93 96 11 3e 91 13 5a 3d 68 d2 ee bd
       -0.1375995 0.14217596 0.053241316 -0.116612256
000090 5a 74 59 3d 2e 85 52 be c0 7d 0d 3e ea 35 b9 bb
       0.053089477 -0.20558617 0.13817501 -0.005652179
0000a0 d7 17 19 bd 42 c8 cd 3c 66 dc 98 3d f6 dc 09 be
       -0.03737625 0.025119904 0.07463913 -0.13463196
0000b0 e3 dc 3c 3e 89 09 bb 3d c6 59 fc 3d 4c 9c 1b 3d
       0.18443637 0.09132678 0.123218104 0.037990853
0000c0 93 2f 94 3d 56 f6 ec bd d6 76 20 bd 17 39 95 bc
       0.072356366 -0.11570422 -0.03917583 -0.0182157
0000d0 51 40 f0 bd 5a a3 1a be 9f 8c 22 be ed 7b 24 3d
       -0.117310174 -0.15101376 -0.15873955 0.040157247
0000e0 87 0c b8 bd 34 fa af 3d 01 9a dd bd 77 73 89 3d
       -0.089867644 0.08592644 -0.108203895 0.06711476
0000f0 e1 0d 96 3d 6b e4 19 3e 0e 4c 82 3d 12 4f ef 3d
       0.07326866 0.15028541 0.063621625 0.11685003
000100 a0 ec 25 3e f3 e4 3e 3e ce 9b 37 bd 1f 43 de 3d
       0.16203547 0.18642025 -0.04482632 0.10852646
000110 4d 4c 7a bd b0 16 ae bc b9 e1 3f be 2c 1b a1 bd
       -0.061107922 -0.021251053 -0.1873845 -0.07866511
000120 b5 63 87 bc d9 68 32 3e 2b 29 b2 bb 39 cf 53 3d
       -0.016527036 0.17422809 -0.0054370365 0.051711295
000130 4e c3 ca bd ea 4f 2a 3a 81 b8 a7 bc 02 a3 6e be
       -0.09900533 0.00064968935 -0.02047372 -0.2330437
000140 a1 fb 64 3a e2 a1 21 3e 78 e9 a1 bd 73 e6 05 be
       0.00087350054 0.1578441 -0.07905859 -0.1307619
000150 c8 60 fa 3c 07 db 44 3e 5a 26 f5 bd a9 c4 e7 bd
       0.030563727 0.19224177 -0.119702056 -0.11316807
000160 74 f7 e0 bc 69 1e aa bb 87 bc d8 bd 65 27 41 3e
       -0.027461745 -0.0051916135 -0.10582834 0.18862684
000170 8f 08 35 be 04 01 21 be 52 8e f3 bc 8f 2f a1 bc
       -0.17679046 -0.15723044 -0.02973095 -0.019675998
000180 69 ca 10 bd b1 ff 5d be 3f 2a 2d be a6 fd 0f be
       -0.035349283 -0.2167957 -0.16910647 -0.14061603
000190 52 f2 f9 3c b4 57 21 3d c5 fa b9 bd f4 2c 17 3d
       0.030511055 0.03939028 -0.090810336 0.036908105
0001a0 96 f2 1c 3c f4 56 fc bc 09 a0 11 3d cb e1 09 3d
       0.009579321 -0.030803181 0.035553012 0.0336626
0001b0 58 b3 fa 3b 75 54 e5 3d 06 81 82 bd 78 ba bf 3d
       0.007650774 0.111977495 -0.063722655 0.09361738
0001c0 f5 89 40 3c 0d 12 99 bd fe 90 a3 3d e9 a8 47 be
       0.0117516415 -0.07474146 0.079866394 -0.19498028
0001d0 dd 97 e2 bd 61 dd 72 be bc c6 e8 bd 3b ad 24 bc
       -0.11064122 -0.23717262 -0.113660306 -0.010051067
0001e0 1e 72 9d bc df 46 47 be 8c ea 35 bc 61 53 03 bd
       -0.019219454 -0.19460629 -0.011103284 -0.03206194
0001f0 a8 f5 29 3e 95 94 8b bd 87 ec e4 bd 69 b3 2a bc
       0.16597617 -0.06815449 -0.111779265 -0.010418751
000200 5f 48 06 3e d7 f8 81 bb a6 26 ce bb 32 2e 2b bd
       0.13113545 -0.0039664316 -0.0062912283 -0.041792102
000210 2e 1f e4 bd 11 0a 8d bd 6e 67 23 3e cb fe 3d 3c
       -0.111387596 -0.06886686 0.15957424 0.011596392
000220 45 b8 5f 3d c8 62 e5 bd ea 2e 26 3e 55 a9 f0 3a
       0.054619092 -0.11200482 0.16228834 0.0018361012
000230 d9 78 29 be 4d 28 17 3e 21 28 e3 bb e5 ae 62 bd
       -0.16550006 0.14761467 -0.006932274 -0.055342574
000240 eb 3e 5b 3c c4 f0 c9 3b cd 27 b6 3d 81 be ad bd
       0.0133817 0.0061627347 0.0889431 -0.08483601
000250 cc 53 58 3d 72 d5 82 3b 1c 5d 11 bc a8 0a 31 3c
       0.05281429 0.00399273 -0.008872297 0.010805763
000260 cb 31 50 3d a0 d5 25 3e 64 53 b2 bd 0a 6d 63 3d
       0.050828736 0.16194773 -0.08707312 0.05552391
000270 f0 a5 44 bd f3 40 0a be 0e 47 44 bd 0f 50 f9 3c
       -0.048009813 -0.13501339 -0.047919326 0.030433683
000280 46 d2 6e 3b e4 59 26 be e8 20 25 be 18 5d 06 3e
       0.003644125 -0.16245228 -0.16125834 0.1312145
000290 8c fd 01 3e f2 40 a0 3d 06 bb 01 3e c0 89 7c bd
       0.12694377 0.07824887 0.12669 -0.061654806
0002a0 a0 5a f5 3d 9e 25 61 bd 07 63 ef 3c d4 bc 38 be
       0.11980176 -0.054967515 0.029222025 -0.18040782
0002b0 e1 4f fc 3d 0f eb 14 be 96 21 00 3e be 66 9b bd
       0.12319923 -0.14542793 0.12512812 -0.07587956
0002c0 c7 83 1d 3e 17 f3 59 bd 6e 16 5c be e2 34 29 3e
       0.153823 -0.053210344 -0.21492931 0.1652408
0002d0 ae e3 ae bd 3c d8 28 be ef cb 2d be 6a 2d 4c be
       -0.0853952 -0.16488737 -0.16972326 -0.19939199
0002e0 b2 12 03 be d5 bf dc bd f5 27 43 3d 40 73 48 be
       -0.128001 -0.107787766 0.047645528 -0.19575214
0002f0 10 23 68 bd 2d 95 88 3c 32 56 67 3d 2c 5b 16 3d
       -0.056674063 0.016672695 0.056478687 0.036708042
000300 62 ae 13 b9 05 01 ba 3d 92 16 28 be 5b c6 fd bc
       -0.00014083975 0.09082226 -0.1641486 -0.030978372
000310 48 a9 7d 3d d8 8e 87 bd 3d 73 26 be 45 76 2f 3e
       0.061929017 -0.06619042 -0.16254897 0.1713496
000320 13 77 10 3e 80 ef 97 3d ce 4f 9b bd 9a 51 f3 3d
       0.14107923 0.07418728 -0.07583581 0.11880799
000330 d6 f2 bc 3c 8d a1 1a bc 54 5d c4 bc 94 6f c2 bc
       0.023065012 -0.009437931 -0.023970284 -0.023734845
000340 5f 12 3c 3d 81 8f dd 3d f6 1e dc 3b e1 05 fa 3c
       0.045915958 0.10818387 0.006717558 0.030520381
000350 9e 98 2e bc 01 a9 4b 3e c4 a8 67 bc db 15 47 39
       -0.010656504 0.19888689 -0.014139358 0.0001898626
000360 09 e1 0b 3b 5f aa c4 bd 2a a4 fc 3c 6d 0d 85 bd
       0.0021343848 -0.09602808 0.030839998 -0.064967014
000370 a1 c5 6b bc 51 1e f4 bd 71 96 2e 3e 9e 6d 24 bc
       -0.01439038 -0.11919845 0.17049576 -0.0100359
000380 6d 43 e6 bd 85 91 9e 3d 30 76 98 3d 21 03 34 be
       -0.11243329 0.077425994 0.074444175 -0.17579319
000390 38 f1 37 3d 63 b1 fd 3d ad 9e eb 3d b2 d7 b7 bc
       0.04490778 0.123873495 0.115048744 -0.022441719
0003a0 f5 4f 22 be 07 24 8f 3d 36 2c 19 3d 1c 2b 68 bd
       -0.15850814 0.069892935 0.03739568 -0.056681737
0003b0 66 23 33 3e 0d c8 df bd 5f ab f0 3d cd 68 17 3e
       0.17493972 -0.109268285 0.117514364 0.14786072
0003c0 eb 6a 4a 3d 6d 73 74 bd 8d c8 61 bd a0 7e 3c bd
       0.04941837 -0.05968039 -0.0551229 -0.046019197
0003d0 61 16 6d bd a1 51 56 be aa a5 50 bd 5f 34 ba bc
       -0.05788267 -0.20929576 -0.05093924 -0.02273005
0003e0 3c e5 f9 bd da a5 ff 3d e6 ce bc bd f5 4f 29 be
       -0.12201926 0.124828056 -0.0921915 -0.16534407
0003f0 2f 15 37 be c8 4e 39 3d 17 20 db bd cb 39 01 3e
       -0.17879175 0.045241147 -0.1069948 0.12619703

Encoder.enc1.bias f4 [256]
000000 11 98 ad bc 31 70 2c 3d 3a f7 1b 3e 3c a7 1d be
       -0.021190675 0.04209918 0.15231028 -0.15395826
000010 bc 8e e5 3c 61 ae 0c 3e d4 17 cc bc fa b9 42 3e
       0.028022163 0.13738395 -0.024913706 0.19016257
000020 33 9d 47 3d 73 7e 0d 3e d6 4c 6a be e1 0b fc 3b
       0.0487339 0.13817768 -0.22880873 0.0076918458
000030 42 9a 9d 3d 94 ce 32 be da cb d8 bd 4a 11 1f be
       0.07695438 -0.17461616 -0.105857566 -0.15533939
000040 32 42 a6 3d 39 ee 15 be 85 9e 58 be de 4b 00 3d
       0.081180945 -0.14641656 -0.2115422 0.031322353
000050 d7 4c 80 bd 30 29 15 3b f4 fc 09 be 4a 4e 71 3d
       -0.06264656 0.0022760145 -0.134754 0.058912553
000060 71 ab 6d be e9 e4 34 be 41 de 16 be 8a 1a 2f be
       -0.23209931 -0.17665447 -0.1473322 -0.17099968
000070 f7 5f a4 3d 78 11 31 be 1b c1 bf bc ba c9 1d bc
       0.08026116 -0.1729182 -0.02340751 -0.009630615
000080 bc 1a 16 be 8d 0b 5a be 14 45 16 3e f7 77 87 bd
       -0.14658636 -0.21293469 0.14674789 -0.06614678
000090 b6 80 7c 3c 8a 2e 5c 3e e3 e5 f1 3d 6a e4 0e 3e
       0.015411546 0.21502128 0.118114255 0.1395432
0000a0 40 9a dc 3c 62 4a a0 bd cb f3 39 be 94 af db 3d
       0.02692902 -0.078266874 -0.18159406 0.10726848
0000b0 76 c0 24 be 02 93 bf bd ed 13 1a be 43 eb cb bd
       -0.16089043 -0.093542114 -0.15046664 -0.09956982
0000c0 10 45 43 3e 87 03 e2 3d fa 1c be bd 44 f9 8d bc
       0.19069314 0.11035829 -0.092828706 -0.017330773
0000d0 50 34 56 be 1b 64 e1 bd f0 2d 53 be 79 2c 2c 3e
       -0.20918393 -0.11005422 -0.20622993 0.1681384
0000e0 32 70 36 be 4e 09 19 be a6 6c 6a bd 7e c4 e0 3d
       -0.17816237 -0.14944956 -0.05723252 0.10974978
0000f0 16 22 b3 bd aa a7 b7 bd 90 69 17 bc 1a c1 5b bd
       -0.08746736 -0.08967526 -0.009241477 -0.053650953
000100 c0 a7 24 3e 53 57 26 3e 7f 1d 41 bd 92 f0 9f bd
       0.16079617 0.16244249 -0.04714727 -0.07809557
000110 2a 3c 26 3a 6a be 08 3e 8b 4e f3 3c e2 38 cc bd
       0.00063413626 0.13353887 0.029700538 -0.09971787
000120 8f ff 2e 3d 31 7a cc bd bc 86 98 bd 0c ab 06 be
       0.04272419 -0.09984244 -0.074475735 -0.13151187
000130 ea d2 05 be e2 7a 4d be 24 a2 01 be 3c c7 eb 3d
       -0.13068739 -0.20066407 -0.12659508 0.1151261
000140 c6 00 03 be 33 a3 08 be 12 f0 21 be 7a d0 ef bd
       -0.12793264 -0.13343506 -0.15814236 -0.117096856
000150 26 ee 4b bd ad b2 5c be b2 80 18 ba 28 6b 4b 3d
       -0.049787663 -0.21552534 -0.0005817517 0.04966274
000160 94 92 29 3d c2 b8 62 3e c2 48 88 39 ab 7c 62 be
       0.041399553 0.22140792 0.0002599415 -0.2211787
000170 c4 15 32 bc 27 5a 1b 3e f3 1f 9e bc fe 95 c4 bd
       -0.010869447 0.15171109 -0.019302344 -0.09598921
000180 10 93 2e be 58 87 2b be 4a 6f 6a 3d 6f dd a6 3d
       -0.17048287 -0.16750848 0.05723504 0.08147704
000190 8e 31 38 3d 8e 87 28 be a7 f9 83 3b e8 53 4f 3d
       0.044969134 -0.1645796 0.0040275636 0.05061713
0001a0 39 81 ce 3d af bd 16 3e 09 55 9c bd 69 44 a4 bd
       0.10083241 0.14720796 -0.07633407 -0.08020861
0001b0 72 40 14 be 5b 7a ec 3d f5 36 f5 3c 61 d6 78 bd
       -0.14477709 0.11546775 0.029933432 -0.060751323
0001c0 c3 34 22 bb df 75 d3 3b 5e 2b 21 3d ee d0 d8 bd
       -0.0024750687 0.0064532603 0.039348 -0.10586725
0001d0 22 86 c3 bc 77 81 34 bd 03 c5 45 be 7e 70 8e 3d
       -0.02386767 -0.04406878 -0.19313435 0.0695505
0001e0 af ac db bc f4 24 4c bd c8 ce f1 3b c5 dd 0d be
       -0.02681574 -0.04983993 0.0073793866 -0.1385413
0001f0 91 e4 d4 3d 5c f9 01 bd 3b ef b6 3d 34 10 92 bd
       0.10395158 -0.03173195 0.08932348 -0.07131997
000200 dc b5 43 3e 50 86 77 3d 4c 2e 9b 3d 40 72 c5 bd
       0.19112343 0.060430825 0.0757719 -0.09640932
000210 73 10 07 be 4c d9 64 be 42 06 49 be 12 a7 7f be
       -0.13189869 -0.22348517 -0.19631293 -0.24966076
000220 e2 c7 06 3e 90 37 14 3e cb f7 1a be 6f c7 53 bd
       0.13162187 0.1447432 -0.15133588 -0.051703867
000230 82 d2 1c 3d c2 4d b7 bc c1 51 b1 bd b8 1d 98 3d
       0.038286693 -0.022375945 -0.086581714 0.074275434
000240 54 16 9c bd 90 25 fb bd 3b a7 5f be 47 25 eb bd
       -0.07621446 -0.12263024 -0.21841137 -0.114817195
000250 3f ac d7 3b 21 df 85 3c b9 ec 61 be 00 73 28 be
       0.0065818126 0.016341748 -0.22062959 -0.16450119
000260 22 52 fa bd 95 5f 11 3e a1 1d 09 3d d5 7c 6e be
       -0.12222697 0.14196618 0.033475522 -0.23289807
000270 fc 9e de 3d 77 8a 30 3e d9 27 d4 bd c1 a0 6a 3d
       0.108701676 0.1724032 -0.10359163 0.057282213
000280 65 1f f4 3d b8 88 99 bb 51 2d 46 3e 1b d4 a3 3d
       0.119200505 -0.0046854876 0.19353224 0.0799944
000290 2c ac 00 3e c6 f1 70 3d 00 ae 3a 3d 5a 36 dd bd
       0.12565678 0.058824323 0.045576096 -0.10801382
0002a0 b8 99 fb 3c b9 ef 2a be 0d f0 ef 3d da 90 87 bc
       0.030712947 -0.1669301 0.11715708 -0.016548563
0002b0 40 a3 12 be f8 2b 1d 3e ff 81 fa bc 80 df 3d 3d
       -0.14320087 0.15348804 -0.030579565 0.046355724
0002c0 8e 5b 82 bd 85 c5 67 bc 16 93 d1 3d 55 6a 22 3e
       -0.06365119 -0.014146213 0.102331325 0.15860875
0002d0 4e bb 28 be ee 34 d2 3d 8e 55 29 3d da cf 13 be
       -0.16477701 0.10264002 0.041341357 -0.14434758
0002e0 aa 10 29 3c 65 b0 f2 3d 38 c3 1d 3e 16 52 20 be
       0.010318914 0.11850051 0.15406501 -0.15656313
0002f0 2a 97 57 3e cb 63 b8 3d 42 33 44 3c 1f 03 ed bd
       0.21053758 0.09003409 0.011975111 -0.11572861
000300 88 60 0c 3e 1b bc 49 bd c6 46 85 bc 72 88 ae 3d
       0.13708699 -0.049251657 -0.016269099 0.08522119
000310 3a 06 24 3e b0 9c 5f be 68 ce 0c be c0 34 88 3d
       0.16018 -0.21837115 -0.13750613 0.06650686
000320 82 e6 ec 3d 82 e2 0b be ed 69 4d be 30 0f 13 bd
       0.115674034 -0.13660625 -0.20059939 -0.035903156
000330 73 32 13 3e 40 07 cb bd 22 d7 a7 bd 19 cf 3a be
       0.14374714 -0.09913492 -0.0819533 -0.18243064
000340 6d c1 f3 bd 44 5e 22 bd 8c e5 03 be b6 14 a6 3d
       -0.119021274 -0.03964068 -0.12880534 0.08109419
000350 c0 d6 e7 3d db 1d 87 be 31 62 c6 bd cd 27 04 3e
       0.11320257 -0.26389965 -0.09686697 0.12905808
000360 4a cc c4 bd 66 d8 31 3e 90 7f 52 be 7f 00 40 bd
       -0.096092775 0.17367706 -0.20556474 -0.046875473
000370 f3 fb c9 3d ff eb 4d bd 8a 23 ae bd ef b5 5e be
       0.098625086 -0.05027389 -0.08502872 -0.2174909
000380 ce ed 29 be 46 b5 1c bc 66 54 48 be df 0f 07 3e
       -0.16594622 -0.009564703 -0.19563445 0.13189648
000390 3a a9 d0 bc 35 bc bf 3d b6 6a 20 be bc fb a7 3d
       -0.025471319 0.093620695 -0.15665707 0.082023114
0003a0 46 38 26 be b2 94 7d 3d 1c fd f7 3c c3 ae ec bd
       -0.16232404 0.061909385 0.03027206 -0.11556771
0003b0 61 59 df ba c8 99 21 3e 7a 93 4d be d7 35 0e be
       -0.0017040187 0.15781319 -0.20075789 -0.13887726
0003c0 16 c4 d0 3d fb a3 55 be 02 60 0a be 02 b5 db bd
       0.101936504 -0.20863335 -0.13513187 -0.10727884
0003d0 96 b5 3c 3c c1 d0 17 bb 23 88 58 be 30 fd 11 3e
       0.011517903 -0.0023165199 -0.21145682 0.1425674
0003e0 b1 d5 0d be 7c 14 22 bd 4f 7d e4 bd bd 8b a6 3d
       -0.13851048 -0.039570317 -0.11156713 0.08132122
0003f0 0f de 1d be 94 49 15 bd 13 ce 24 bc 45 05 50 be
       -0.1541674 -0.036447123 -0.010058898 -0.2031451

Encoder.enc2.weight f4 [40, 256]
000000 db 8f 4b 3c d6 b6 7f 3c a1 be d1 bc 1e b6 c8 bb
       0.012424435 0.015607556 -0.025603594 -0.0061252257
000010 25 ec e4 bb af 9d d0 3c 10 bc 5f 3c bd 61 a6 3a
       -0.0069861584 0.025465814 0.013655677 0.0012693923
000020 9f dc 3f bc 6f cc e2 bc 08 de 09 bc 6e 50 1e 3c
       -0.011710315 -0.027685372 -0.008414753 0.009662731
000030 93 08 e3 bc f8 00 03 3c a0 50 fd 3a 7d 72 c1 ba
       -0.02771405 0.007995836 0.0019326396 -0.0014758852
000040 43 18 4f bc 0e c4 85 bb bf 19 cb bc 21 3a 38 bc
       -0.012640062 -0.0040822094 -0.02479255 -0.011244328
000050 20 4e 15 bd aa 13 10 bd e7 50 58 bc e4 87 96 bc
       -0.03645146 -0.035175003 -0.013202882 -0.018375345
000060 98 bb 4a 3c 74 b0 3a 3d 9a c9 3d bc 4a 8d 26 3c
       0.012373827 0.045578435 -0.01158371 0.010165522
000070 71 ee 35 bd bd c8 3b bc 30 3a 93 bb 4a f7 f5 bc
       -0.04441685 -0.011461434 -0.0044930205 -0.030025143
000080 1a 12 a6 ba e5 71 73 3a c1 a6 1f 3d 84 96 15 3d
       -0.001267019 0.0009286686 0.03897739 0.036520496
000090 22 f7 ed bc fa 50 e4 3c d2 fd 91 bb f9 24 00 bd
       -0.029048506 0.027870644 -0.0044553066 -0.03128526
0000a0 04 b1 b6 3b 82 d2 db 3c 18 2b 99 3b d7 78 7a bd
       0.005575301 0.026833776 0.0046743266 -0.061150398
0000b0 c9 46 ac bc 06 b5 75 3c 58 b9 78 bc ef ca 83 ba
       -0.021029847 0.014996773 -0.015180908 -0.0010054986
0000c0 f1 3b dc bc 9f dd e2 3c f9 cc 24 3c 23 e8 76 3c
       -0.026884051 0.027693568 0.010058635 0.015069994
0000d0 7c 09 53 bb 0f 4d 6f bc 69 ab 4c 3b ed 33 19 bb
       -0.0032201698 -0.014605775 0.0031230098 -0.0023376897
0000e0 cd 7f 44 bd e6 f4 b3 bb 63 34 6b bd 4f f9 d3 bc
       -0.047973443 -0.0054918407 -0.057423007 -0.025875716
0000f0 ed bf 22 3a 9f 53 bd bb 98 e3 bb 3c 03 0f 22 bc
       0.0006208409 -0.0057777907 0.022935674 -0.009891274
000100 2e e5 64 bb a6 ca a6 bc b7 c1 4d 3c e9 35 16 bd
       -0.003492664 -0.020360302 0.012558392 -0.036672506
000110 7d 34 50 3c 4d 4f c1 3c e1 22 27 3b b1 49 25 3b
       0.012707827 0.023597384 0.0025502967 0.0025220925
000120 b7 69 83 3c d1 80 23 3d e8 1d 37 ba 0d bd bf bc
       0.01604162 0.03991777 -0.00069853524 -0.023405576
000130 45 df 13 3c 1f d7 ee bc b6 d4 19 bb 50 c8 b0 3b
       0.0090254 -0.029155312 -0.0023472733 0.005394973
000140 fd b8 cc bc 58 6b ff ba d5 c4 84 3b 77 a9 85 bd
       -0.024990553 -0.0019486947 0.0040517845 -0.065264635
000150 22 57 a9 3c c3 77 8a 3c 6e 5c d8 3c 43 51 46 bc
       0.020671431 0.01690281 0.026411261 -0.012104335
000160 b9 fd bb 3c 65 ba bf 3c 01 0c 4d bc e1 50 48 bd
       0.022948133 0.02340431 -0.012515069 -0.048905257
000170 26 0e 86 3d 95 ae 01 3d a6 fc 59 bc c0 c1 08 bc
       0.06545667 0.031660635 -0.013304865 -0.008346975
000180 44 6b c1 bc 36 49 80 3c 00 3e 2e 3c 81 0c a1 3c
       -0.023610719 0.01565991 0.010634899 0.019659283
000190 11 98 fc 3a 76 b6 5d bc cf 6e 8b 3c 86 bb 90 bc
       0.0019271394 -0.013532272 0.017020611 -0.017667543
0001a0 fe b6 6e bc 12 ef 8d bc 70 50 83 bc 90 70 82 3c
       -0.014569996 -0.017325912 -0.016029567 0.015922815
0001b0 cb 21 d7 3c e1 33 92 3c 53 7c 51 ba a3 d6 29 bc
       0.02626123 0.017847003 -0.0007991243 -0.010366115
0001c0 27 1a 09 3a 50 67 6f bc 0d 08 e1 bc a8 1e 1a bd
       0.0005230032 -0.014612034 -0.02746966 -0.037626892
0001d0 8f 7a 18 3d d8 dd c7 bb 83 e4 0d bc ca b3 8d bc
       0.037226256 -0.006099444 -0.0086604385 -0.017297644
0001e0 2c 7c 54 3d 34 31 55 bc 39 de 87 3c 23 fe 6d bb
       0.051876232 -0.013012219 0.016585456 -0.0036314807
0001f0 3c e7 6c 3c 99 fc e3 3b ab 5f 29 3d d2 56 31 bd
       0.014459427 0.006957602 0.041351 -0.04329569
000200 45 dd 94 bc 82 ba da bc fc 6d 45 bd 5d 98 b8 bc
       -0.018171916 -0.026700262 -0.048200592 -0.02253359
000210 70 18 9b 3c ea 27 d7 3b 4b c7 d4 bc fe 41 ac 3c
       0.018932551 0.0065660374 -0.025973937 0.021027561
000220 9b 51 80 3b ae 5b 35 bd 74 8f 70 bc 3e 24 2a 3d
       0.003915978 -0.044276886 -0.014682639 0.04153847
000230 38 25 b2 bc 31 67 bc 3a f2 b1 ad 3b 5f f0 28 bc
       -0.021746263 0.0014374015 0.0053007537 -0.010311215
000240 fe 6d b5 bc ef ab 20 3c b0 1c a5 bc f6 3c 3f bd
       -0.022147175 0.009806617 -0.02015528 -0.046688996
000250 b7 3e c9 3b a4 81 0a bd 69 17 ef 3c 0b ba 70 3c
       0.0061415094 -0.03381504 0.029185968 0.014692794
000260 63 e2 24 3c 7d 35 00 3d cf 0d 80 bb 52 67 32 bc
       0.01006374 0.03130101 -0.003907896 -0.010888891
000270 c2 1f 3b bd f7 d9 29 3c 88 bd d6 3c 76 e7 1f 3d
       -0.045684583 0.010366908 0.026213422 0.039039098
000280 b0 6f d8 bb 47 bc 00 3d 1b 23 19 3d 00 4f 14 3c
       -0.006605111 0.031429555 0.037386995 0.009052038
000290 bc 9f 12 3d 25 4a 20 bd 87 f0 21 3c 5e 7f d3 3c
       0.035796866 -0.03913321 0.009884006 0.02581757
0002a0 53 97 60 bc 43 23 cd b9 3a 09 1c 3b 5b 26 a7 3c
       -0.0137079535 -0.0003912692 0.002380921 0.020404032
0002b0 86 71 99 3c cb e8 ec 3c 5e 87 42 3c ce cf d4 3b
       0.01873089 0.028919598 0.011873094 0.006494499
0002c0 e9 22 55 3c 7b a2 6d bb d6 9d 29 3b 30 fe 81 3c
       0.0130088115 -0.0036260176 0.002588143 0.015868276
0002d0 9f b6 b0 3c 95 22 35 bc 94 a4 ab 3c 4e 7b f6 3b
       0.021571456 -0.011055608 0.0209525 0.0075220233
0002e0 74 c5 0a 3d 7f dd dd bc 2c ed 79 3c 66 fe 52 bd
       0.033879712 -0.027083157 0.0152543 -0.051512145
0002f0 c4 dd 8c bb af 94 ca bc a6 da 03 bd 60 41 7b bc
       -0.0042988975 -0.024729101 -0.03219094 -0.015335411
000300 db 20 2f bc 86 85 25 bc 22 d9 e9 bc b0 69 c0 bc
       -0.010688986 -0.010102635 -0.02854592 -0.023487896
000310 47 a0 dc bb 93 fd 23 3d 4f a9 af 3c 3c 68 5a bc
       -0.0067329737 0.04003675 0.021443037 -0.0133305155
000320 ad a0 e7 3a 18 1c d3 3c 9d 3a 32 3d 21 9b b2 bc
       0.0017671786 0.025770232 0.04351293 -0.021802487
000330 f9 14 a7 bc 53 06 a2 bc a7 39 1e 3c 3b 14 a0 bb
       -0.020395743 -0.019778406 0.0096573 -0.004885224
000340 ab e9 79 bc 04 51 9e bb 52 ee 5b 3d 19 28 43 bb
       -0.015253465 -0.004831435 0.053694077 -0.0029778539
000350 ac b6 2f bd b9 e0 d9 3b 7f 09 ff 3c 08 70 1b 3c
       -0.04289882 0.0066491035 0.031132458 0.00948716
000360 4f 13 00 bd 86 72 10 bb 5b 99 8a bb 11 a3 04 3c
       -0.031268414 -0.0022040918 -0.004229707 0.008095519
000370 ee 87 20 bd 86 f1 0a bc 6f c4 04 bd 11 a9 f5 3c
       -0.039192133 -0.008480435 -0.032413896 0.029987844
000380 68 f0 8c ba 00 1a 81 bc 87 31 62 bd 2e 43 1b bd
       -0.0010752799 -0.015759468 -0.055223014 -0.037905864
000390 05 ad 5d 3c 34 0f 25 3c 94 c7 74 3a 91 c4 26 bd
       0.013530021 0.0100744255 0.0009337601 -0.040714804
0003a0 15 2f 86 3c 30 43 ca bc 18 2b 18 bd 1a 4f ea 3b
       0.016379872 -0.02469024 -0.037150472 0.007150543
0003b0 1b 31 73 3d 12 dd 66 ba 70 f0 cf bc 89 c7 6b 3c
       0.059373002 -0.0008806746 -0.025383204 0.014390835
0003c0 c1 67 2b bd 09 22 3c 3c 99 a6 2d bc b8 22 30 3d
       -0.041846994 0.011482724 -0.010598802 0.04300186
0003d0 7e a4 63 3d 76 cf ee bc 52 75 96 3c 9f c3 16 3d
       0.055576794 -0.02915166 0.01836649 0.036807653
0003e0 42 57 d9 bc d5 af ff 3c 4a 2e 2a 3d 21 46 0b bb
       -0.026530866 0.031211773 0.04154805 -0.0021251517
0003f0 97 da 9f 3c 62 e7 32 3d 49 3b 82 bc 03 b8 ca 3b
       0.019513411 0.043677695 -0.01589741 0.0061864867

Encoder.enc2.bias f4 [40]
000000 5a 05 54 3d 24 75 07 bd f0 4e f5 bc 65 75 10 3d
       0.051762916 -0.0330707 -0.029944867 0.035268206
000010 62 9f 96 3c a7 c0 2c 3d 93 36 12 3d ad 31 1d bd
       0.018386547 0.042175915 0.035696577 -0.038377453
000020 94 00 a1 bc 74 3b 1b 3d a6 04 14 3d 91 92 79 3b
       -0.019653596 0.037898496 0.036137246 0.0038081745
000030 65 fa 5a bd a9 68 79 bc b9 68 c0 bc 4e 98 66 bc
       -0.05346145 -0.015222707 -0.023487436 -0.014074398
000040 6a ac e0 3c 57 4d 7c bd 4a d7 10 3c 44 ac 4d 3d
       0.027425963 -0.061597195 0.008840391 0.050213113
000050 26 40 11 3c 67 60 f1 bd 82 a6 e9 3c f3 bb ea 39
       0.008865392 -0.117859654 0.02852178 0.0004477199
000060 c2 1b bb bd 95 84 82 3c 94 c8 2f bc 33 42 0e bd
       -0.09136154 0.01593236 -0.010728974 -0.0347311
000070 57 c5 13 be a1 bb e5 bd 56 bd c9 bd d2 eb 93 bc
       -0.14430748 -0.11217428 -0.09850566 -0.018056784
000080 34 7e 90 bd 3f 1d 91 bd 58 f3 d7 bb c5 bc 88 bc
       -0.07055321 -0.070856564 -0.006590288 -0.016691575
000090 69 e9 e0 bb 94 51 8b bd df 9f a5 bc 86 53 1f bd
       -0.006863762 -0.06802669 -0.020217834 -0.038898014

Decoder.dec1.weight f4 [256, 20]
000000 11 7e 29 3d fd 0d d2 bd 51 f8 fd bb 58 52 8a 3d
       0.041379992 -0.10256574 -0.007750549 0.06753987
000010 26 eb be be a5 90 70 bd ca a0 c8 bb 9d 5d f9 3c
       -0.3728878 -0.058731694 -0.006122683 0.030440146
000020 6b 38 70 bd 4d 28 68 be 25 4e 08 be 34 49 91 3d
       -0.058647554 -0.22671624 -0.1331106 0.070940405
000030 d5 e5 94 3d ba f2 62 bc 67 40 8b bd 33 30 1b bd
       0.072703995 -0.013851816 -0.06799393 -0.037887763
000040 50 ff 6b 3c 1b 52 09 3e f6 9c 0e 3c d7 a5 ac bd
       0.014404133 0.13410227 0.008704415 -0.08430069
000050 35 69 39 3c e0 07 af 3d f3 52 4f bc e7 75 94 bd
       0.011316587 0.08546424 -0.012654054 -0.072490506
000060 df 09 d9 3d 14 6f 52 3c dd 1b 2a bd e9 df a9 3c
       0.10597586 0.012843866 -0.04153048 0.020736651
000070 e1 de 05 3e 50 00 36 3e e6 e0 32 be 14 52 ed 3c
       0.13073303 0.17773557 -0.17468604 0.028969802
000080 dd 30 7e bc c0 7c 94 3d d8 35 00 3d 5a 28 b4 bd
       -0.01551458 0.07250357 0.03130135 -0.08796759
000090 39 7c 22 bc 82 67 75 be b7 1b b1 3d 09 fa 4e 3d
       -0.009917312 -0.23965266 0.08647864 0.05053142
0000a0 46 69 e2 bc 3b 7b 3c 3d a2 82 34 bb 90 05 f2 bc
       -0.027638089 0.04601596 -0.0027543684 -0.029543668
0000b0 aa 73 4a 3c 66 0c 0e 3c 9a 07 89 3c ef 18 c6 bc
       0.012356678 0.008669948 0.016727258 -0.024181811
0000c0 44 60 ff 3d f7 d8 72 be d7 34 2e bd f5 f9 81 38
       0.12469533 -0.23715578 -0.04253086 6.1977575e-05
0000d0 96 5e f3 bd 4c d6 6d bb 07 88 3f 3d c4 e2 46 3c
       -0.11883275 -0.003629106 0.046760585 0.012139026
0000e0 89 9f 3b bc ad 8c 09 be 91 87 4f bd f3 e9 e2 bb
       -0.01145161 -0.1343257 -0.050666396 -0.0069248616
0000f0 d8 a8 1d 3c 0e cf b1 3d 6f 32 fe 3c cd d0 74 bd
       0.009622775 0.08682071 0.031029908 -0.05976944
000100 01 89 4d bd 00 8f 54 3d a6 08 1e 3c a1 89 e4 bb
       -0.050179485 0.051894188 0.009645617 -0.0069744145
000110 9e 64 86 be 55 9c 51 be 28 81 e8 bd c7 b4 db 3c
       -0.2624864 -0.20469792 -0.113527596 0.0268196
000120 31 43 e6 bc 45 ad ae 3d 43 e5 26 3d 69 30 62 3c
       -0.028108211 0.08529142 0.040745985 0.013805487
000130 ef fc 2f 3d 94 16 a6 3d 47 f7 0b bc 01 58 4f 3d
       0.042965826 0.08109775 -0.008542842 0.050621036
000140 87 1f 07 3d f2 25 9f be 55 eb d4 3a f5 a3 85 bc
       0.03298905 -0.31083637 0.0016244451 -0.016313532
000150 9a b2 d0 3d 19 9a 17 3c db fb d4 bb 5b 03 83 bc
       0.101903155 0.009253048 -0.00649975 -0.015992811
000160 cc f0 0b 3e 3f a6 a3 bd 62 cc 24 be 7a 30 3c bc
       0.13666075 -0.07990693 -0.16093591 -0.011486167
000170 11 c2 82 bd 5d 47 2e bd c5 40 ba bc b0 10 00 bd
       -0.063846715 -0.042548526 -0.022735963 -0.031265914
000180 15 87 00 3b 58 f6 26 3e 3f 0b 8e bd 67 bb bd bc
       0.0019611765 0.1630491 -0.06935739 -0.02316065
000190 c4 66 b6 bc b6 e4 07 3e 8a c8 0b 3c 22 63 05 bd
       -0.0222658 0.1327084 0.008531699 -0.032565244
0001a0 02 9c 4e 3d 53 f5 35 3d 14 30 b4 bc 60 45 43 3b
       0.05044175 0.044423413 -0.021995582 0.002979599
0001b0 83 0a 26 3e 13 0b 24 3e a6 a7 23 3e 5a 72 f1 bb
       0.16214947 0.1601985 0.15981922 -0.007368368
0001c0 ae 95 c7 3d 01 27 58 3d 3f de cc 3c 4a 28 a4 3d
       0.09745346 0.052771572 0.025008319 0.08015497
0001d0 dc 86 fb bc 3f b5 40 be 0f ea 44 3c e3 e0 7c bc
       -0.030703954 -0.1881914 0.012018695 -0.015434477
0001e0 95 67 d7 3d a0 9c 3c be ce f6 10 bd 20 f9 ba 3d
       0.105178036 -0.18419123 -0.03539162 0.09129548
0001f0 eb e6 80 3e 2e fb 8b 3d bc 2b 43 bd 3d 0e 27 bc
       0.25176176 0.06835018 -0.04764913 -0.010196266
000200 ef 4b 39 be 3a 1a 8f be 7c 93 3b be ff a8 95 3d
       -0.18095373 -0.27949697 -0.1831798 0.07307624
000210 48 18 a8 be cc 48 bd bd 43 f0 8f 3d cf 3b 38 bc
       -0.32831025 -0.092424005 0.07028248 -0.011244728
000220 d0 aa f4 3d 77 2c 73 3d bd 86 a3 bb 8f 0b dd bd
       0.119466424 0.059368577 -0.0049904273 -0.1079322
000230 9d 3e 91 bd 90 e6 fb 3d 96 7a 99 bb d9 fb ec 3b
       -0.07092021 0.12299836 -0.004683803 0.007232171
000240 6d a6 42 3e 3e 81 64 bd c2 01 67 bd cf fe 2e bc
       0.19008799 -0.055787317 -0.05639816 -0.010680868
000250 3b f6 21 3e cd 79 a6 bd a4 38 22 be f8 6e 90 bc
       0.15816586 -0.081287004 -0.15841919 -0.017631039
000260 f8 cc 38 be 3a 10 51 3d e2 7d d5 3c b1 57 fb 3c
       -0.1804694 0.051040865 0.026061002 0.030681463
000270 6c ff 60 3d 59 cc 04 3e e7 c3 a8 bc 31 1a e6 bb
       0.05493109 0.12968577 -0.020601226 -0.007022165
000280 15 26 54 bc e2 f9 26 3e 59 76 63 3d 01 c8 97 3d
       -0.012948533 0.1630626 0.055532787 0.074111946
000290 4a 50 84 3e cd d0 87 bd f8 84 96 bc f4 d3 23 3d
       0.25842506 -0.066316225 -0.018373951 0.039997056
0002a0 74 98 11 3e 26 67 8e 3b a7 6d a3 3d 3c b9 93 3c
       0.14218313 0.0043457923 0.07979899 0.018032663
0002b0 fc c5 03 be 88 95 81 bd 62 44 2c 3d f5 1d dd bd
       -0.12868494 -0.06327349 0.042057402 -0.107967295
0002c0 ac 2f 85 3d 68 6a b6 3e 7c 6c c3 bb f7 c7 77 3d
       0.06503233 0.35628057 -0.00596386 0.060493436
0002d0 9d 1c 28 3d 99 ab 39 3d 85 00 c0 3b 72 62 96 3c
       0.041042913 0.045329664 0.005859437 0.01835749
0002e0 95 2b 48 3e 9a fc 88 3d 27 62 6b 3c 59 bc 7f bd
       0.19547875 0.06688805 0.014366663 -0.06243548
0002f0 25 f9 4c 3e de 5a 62 be b4 fc 6f 3d f4 bb 80 bd
       0.20016916 -0.22104976 0.058590606 -0.06285849
000300 d3 9d b6 bd b8 a0 14 bd c1 ec 0a bc b9 3e a8 3d
       -0.08916821 -0.036286086 -0.008479298 0.082150884
000310 cd 51 83 3b b3 ea ba 3d 37 9e c1 3c b6 b7 a0 3d
       0.004007554 0.091267966 0.023635013 0.0784754
000320 f5 65 bf bc 04 51 09 bd 9b 94 16 3d 0c 86 8e bd
       -0.023364047 -0.03352453 0.036762815 -0.06959161
000330 d5 2e 77 3d 55 2b 30 3d 78 79 8b bb eb ca a1 bc
       0.060347397 0.043010075 -0.0042564236 -0.01975008
000340 fb 8b 02 be b9 19 bb bd da 8e 2c 3e 9a d8 d5 bd
       -0.12748711 -0.091357656 0.16851369 -0.10441704
000350 5b 8a 99 bd 26 4b c2 3d 58 c1 f3 bc ba 5c a7 bd
       -0.07497092 0.0948699 -0.02975528 -0.08171983
000360 7a 90 ab bd 3c b6 71 3e de ce 83 3d 7a 87 07 bd
       -0.08377166 0.23604673 0.06435941 -0.033088185
000370 28 ac bf 3c 5e be b5 3d 6d 82 90 bb 62 4c 2b bc
       0.02339752 0.088742 -0.004410079 -0.010455223
000380 e6 fe 2f 3c 56 1d 86 bd 75 d4 66 3d 2e e7 b6 3d
       0.010741925 -0.06548564 0.05635496 0.08930813
000390 4d a5 69 3d 11 7e 0e 3e 7d bb 90 3e 70 b7 08 bd
       0.05704241 0.13915278 0.28268042 -0.033378065
0003a0 a5 1a f0 bb 1f 9a b7 3d 74 73 09 bd 8a f6 28 bc
       -0.007327395 0.08964943 -0.03355737 -0.010312686
0003b0 45 7a 8f 3d 21 d3 08 3e d5 db 82 3d 56 ba 6d 3d
       0.07005743 0.1336179 0.06389586 0.058039032
0003c0 10 2d b7 bc 92 fc a7 3d 29 77 ad bc 02 97 9b bd
       -0.022360355 0.08202471 -0.021174984 -0.07597162
0003d0 0d 4f 05 be 5a c4 9d 3d 1d ab d3 bb 22 f7 43 bd
       -0.13018437 0.07703467 -0.0064596073 -0.047843106
0003e0 9d 75 88 3e b6 31 8e 3e c0 a2 c9 bd de 78 23 bb
       0.26652232 0.277723 -0.09845495 -0.0024943869
0003f0 eb 7a 38 be 6a e1 f9 3c 6f 4e 20 3d 6c ac 00 3c
       -0.1801564 0.030502994 0.0391373 0.007853609

Decoder.dec1.bias f4 [256]
000000 8b ab c0 3d 74 92 53 be d3 16 3e bd 95 98 a5 bb
       0.09407719 -0.20661336 -0.046408486 -0.0050535896
000010 72 2d 25 be 56 18 fc 3d ae 65 d5 ba 04 99 4c be
       -0.16130617 0.12309329 -0.0016280913 -0.19980246
000020 e5 d5 ba 3d d7 33 12 be 39 00 78 3d 9e 34 b2 3d
       0.091228284 -0.14277588 0.060547087 0.08701442
000030 09 e1 cd 3d 93 a9 0c 3e 23 84 ec bd 5f e9 8d 3d
       0.10052688 0.13736562 -0.115486406 0.06929278
000040 f6 e3 16 3e fa 6b ca 3d 30 79 0d be 1d 13 1c be
       0.14735398 0.09883876 -0.1381576 -0.15241666
000050 ac 44 65 bc a1 a3 89 bd 90 cf 2b 3d 17 85 60 be
       -0.013993423 -0.06720663 0.041945994 -0.2192577
000060 97 5c d4 3d 2c 94 85 3d 51 a7 15 3e 59 9a 76 bb
       0.103692226 0.06522402 0.14614607 -0.003762862
000070 b2 20 ad ba e1 ba 90 3d fb e9 2e 3d 8c 52 b3 3e
       -0.0013208597 0.07066894 0.04270361 0.35023916
000080 16 62 01 be 4a f3 c6 3d 76 26 31 be 32 0b c5 bd
       -0.12635073 0.097143725 -0.17299828 -0.09621276
000090 43 8f dc 3d 94 fe 8f bd c3 5b 09 3e 4a bf c2 bc
       0.107695125 -0.07030979 0.1341391 -0.023772854
0000a0 c8 57 20 3d 4f 20 ba 3d 3b 16 57 be c9 22 a6 bd
       0.039146215 0.090881936 -0.21004574 -0.081121035
0000b0 38 7b e1 3d 14 b1 15 3e 2b 2e c6 3d 43 69 09 be
       0.1100983 0.14618331 0.096767746 -0.1341906
0000c0 e7 ed 20 bd 2c 0d 2b 3e ed 61 cf bd a9 16 99 bd
       -0.03928938 0.16704243 -0.101261 -0.07475025
0000d0 ea 7d 5e be 71 55 f7 bd ae 80 49 be d8 cb 3e be
       -0.2172772 -0.120768435 -0.19677994 -0.18632448
0000e0 04 92 c5 b9 1f 05 9b bd 97 10 18 be 4b 03 b3 3d
       -0.00037683558 -0.07569336 -0.14850079 0.087408625
0000f0 41 fc 78 be 92 af 8d be df 3d d0 3d 12 54 94 3d
       -0.24314977 -0.27673012 0.10168051 0.07242598
000100 6a 05 16 3c 2e f6 66 3d 52 1a 3d bd 79 9c 92 be
       0.009156564 0.05638712 -0.04616768 -0.28635004
000110 e4 61 46 3c 0e 00 bb bd 28 78 13 bd 9e 8e 1c be
       0.0121083 -0.0913087 -0.03600326 -0.15288779
000120 e3 7a 57 3d 7e 6b 10 be 93 e7 6f bb 4a bb ba bd
       0.05260743 -0.14103505 -0.0036606535 -0.09117754
000130 e0 2b 4b be 36 c6 c5 bd 6c 6c c5 bd d7 68 12 3c
       -0.19840956 -0.09656946 -0.096398205 0.008936129
000140 24 1f 6e be 85 d5 d4 3d 20 e9 79 be 87 31 36 3e
       -0.23254067 0.10392288 -0.24405336 0.1779233
000150 74 1b 25 be 42 62 5e 3c a9 5b 33 be 63 f0 0f 3d
       -0.16123754 0.013573231 -0.17515434 0.03514136
000160 94 01 39 3e 72 4f 29 3d 68 3d 2b bc 14 60 61 be
       0.18067008 0.04133553 -0.010451652 -0.22009307
000170 4a 8a f5 3d dc 3c 22 3e 42 69 a6 bd d1 4a d7 3d
       0.11989267 0.15843529 -0.08125545 0.10512317
000180 ec ad 59 be e0 a8 14 3d 8a ac 57 be 42 67 38 be
       -0.21257752 0.036293864 -0.21061912 -0.1800814
000190 0b 02 dd 3d 74 06 35 be 33 16 21 be 23 2a 9b be
       0.10791405 -0.17678243 -0.15731125 -0.30305585
0001a0 f4 5c b9 bd 68 3e 4e bd 9d 5d 8d 3d 39 94 b7 3d
       -0.090509325 -0.050352484 0.06902621 0.08963818
0001b0 f4 e3 f8 3d a1 75 9e bd 5e 5f ab 3d 97 78 8a 3d
       0.121528536 -0.0773728 0.08367799 0.06761282
0001c0 f5 3e 43 be a4 13 1d bd 91 62 dd 3d 7d 28 82 bd
       -0.19066985 -0.03834881 0.10809816 -0.06355379
0001d0 2e 27 0b 3d e2 3e be 3d 39 00 1f bd 3f 1a b1 bc
       0.03397291 0.09289338 -0.03881857 -0.02161896
0001e0 e9 54 28 be f7 cf ad 3b cd f6 0e be 1f 8f 9f 3d
       -0.1643864 0.0053043324 -0.13961335 0.0779097
0001f0 a0 2e c0 bc 6d 81 8b be 9d 91 ef bd 6d b2 c6 3c
       -0.023459733 -0.27247182 -0.116976954 0.024255002
000200 99 bd df 3d 8b 8e 1f be e4 b6 0b 3d 99 c0 0c be
       0.10924835 -0.1558172 0.034109965 -0.13745345
000210 65 5b 4a bd fe 10 45 be 57 0b 8e bc 8e 79 ee bd
       -0.049403567 -0.19244763 -0.017339392 -0.116442785
000220 32 a3 2f 3c b1 d2 02 3e c6 8a 34 3e 6b ef 12 3d
       0.010720061 0.12775685 0.17631063 0.035872858
000230 04 c5 12 be ea 7d 04 3e 4e f3 53 be ea 57 04 3e
       -0.14332968 0.12938657 -0.20698282 0.12924162
000240 f0 99 71 be d8 2a f5 3d ee 14 cd 3d 08 78 39 3e
       -0.23593879 0.119710624 0.10013758 0.18112195
000250 6d a5 7a be b0 40 fa bd 61 67 1b 3e 0e 19 06 be
       -0.24477167 -0.122193694 0.15176155 -0.13095495
000260 8d d2 5e be 25 0e 21 be 82 5d ac bd 2e a4 ba 3d
       -0.21760006 -0.15728052 -0.08416273 0.09113346
000270 5f 0f 01 3e 88 1c 65 bd 67 4a ca 3d c0 d1 1b be
       0.1260352 -0.055935413 0.09877472 -0.15216732
000280 5e 6c f9 bd 83 f1 7f 3c 5a 65 ce 3d 45 d8 e8 3d
       -0.121788725 0.015621546 0.10077925 0.11369375
000290 a0 f1 36 bd 5b 3f 40 3d b6 72 3f 3e 99 1c a8 3e
       -0.044664025 0.04693542 0.18696102 0.32834318
0002a0 80 90 d6 bd ce d5 d8 bd 7c 73 b7 bd 16 e7 65 be
       -0.1047678 -0.10587655 -0.08957574 -0.22451434
0002b0 d0 0f 52 be 1a fb 4e be f3 46 b5 3d 45 b8 23 be
       -0.20513844 -0.20212975 0.08851423 -0.15988262
0002c0 28 16 f8 be c6 85 45 be 7e 3e 0a 3e 3b d4 92 3d
       -0.48454404 -0.19289312 0.13500401 0.07169386
0002d0 98 ac 14 3e 12 4e de bd 74 cd 9a be fc 87 3e be
       0.14518964 -0.108547345 -0.30234873 -0.18606561
0002e0 31 62 8b bd d0 f1 2b be 07 57 09 3e 6b 2f 2e be
       -0.06805838 -0.16791463 0.13412105 -0.17010276
0002f0 f0 c8 4f be e5 55 20 be 27 b3 88 bd 74 b9 48 be
       -0.20291495 -0.15657766 -0.066747956 -0.19601995
000300 db c0 1c bc e6 ab 6f bd 1b 1e 85 3d d7 f6 b0 3c
       -0.009567465 -0.058513544 0.06499883 0.021602077
000310 36 42 ad 3d c1 1c 1f 3e a4 68 9a 3e 38 3b 97 bd
       0.08459894 0.15538312 0.3015796 -0.07384342
000320 53 75 ee bc f9 3c b8 bc dd 49 b3 3d 64 2b f0 ba
       -0.029108679 -0.022490012 0.08754323 -0.0018323478
000330 6d 12 16 3e 62 47 19 bd 84 9d c3 3c 76 84 af bb
       0.14655466 -0.03742159 0.02387882 -0.0053563667
000340 e6 06 64 be b3 10 22 3d cb ed 4c bd 76 f3 f5 3d
       -0.22268257 0.039566707 -0.050031465 0.12009327
000350 7f d6 b7 bd f7 14 73 be a1 95 db 3c e8 d0 42 3d
       -0.08976459 -0.23738466 0.026804747 0.04756251
000360 73 9b a2 3d 90 33 ca 3e 6f 95 12 3e 57 6c 13 3e
       0.07939806 0.39492464 0.14314817 0.14396797
000370 49 b9 32 bd 8b 8e 54 3b 43 b1 20 be b7 10 19 be
       -0.043633733 0.0032433595 -0.1569262 -0.14947782
000380 02 a5 65 bd e0 9d bb bc 98 b2 81 be 1c eb d6 bd
       -0.056065567 -0.02290243 -0.2533157 -0.10494062
000390 9d f1 ab bd ff 45 23 3d eb 92 40 be 41 90 8f 3e
       -0.083956935 0.039861675 -0.18806045 0.28039744
0003a0 66 57 08 3e 88 04 16 3e 4d 5c 89 be 4f 4f 5f 3d
       0.1331459 0.14650166 -0.26828232 0.054518994
0003b0 98 f9 de 3d 9d 0b 31 be d8 44 ed 3d 74 a0 f1 bd
       0.1088745 -0.17289586 0.115853965 -0.11798182
0003c0 85 f2 a1 bc e9 f1 55 be c8 a9 89 be 74 a5 33 bd
       -0.019768963 -0.20893063 -0.26887345 -0.04385896
0003d0 96 d0 02 3d 25 17 15 bd 72 65 c8 bd 51 c4 5c bc
       0.031937204 -0.036399025 -0.09784974 -0.01347454
0003e0 1f 6e 27 be c3 7f ba 3d 10 ff d0 bc 63 02 15 be
       -0.16350602 0.091064 -0.025512248 -0.14551692
0003f0 23 fa 59 3d d7 23 97 bd 2b d8 df bd c2 a7 88 3e
       0.053217065 -0.07379883 -0.10929903 0.2669049

Decoder.dec2.weight f4 [31, 256]
000000 c9 66 d0 3d 97 ef d2 bb 65 dd 85 3d 95 f6 51 3d
       0.10175855 -0.0064372527 0.06536368 0.05126055
000010 c3 32 3a be 3e a0 e6 bd d1 ab 44 bd 47 14 db bd
       -0.18183427 -0.112610325 -0.04801542 -0.10697227
000020 b9 0d f5 bc 43 43 53 bd dc c8 95 3e cd e7 d6 bd
       -0.02991377 -0.051577818 0.29254806 -0.10493431
000030 92 50 8b 3d fe 02 ad 3c c1 c8 7f 3c f9 ea 3f 3c
       0.06802477 0.02111959 0.015611828 0.011713737
000040 d9 1f 1c be 67 1a 84 bb 8f 99 38 bd 80 fd be be
       -0.15246524 -0.0040314677 -0.04506832 -0.3730278
000050 ca 99 32 be 86 d6 e0 bd 2c 43 1f 3e b8 11 b0 3e
       -0.17441478 -0.10978417 0.15552968 0.34388518
000060 56 3d 76 3d f9 d9 80 3d b2 b3 74 3c ed 18 13 be
       0.06011709 0.06291575 0.014935421 -0.14364977
000070 0c 0e f3 3d 36 df 68 3d 24 2f 18 be 2e da 6c 3d
       0.118679136 0.056853496 -0.14861733 0.05782526
000080 c5 4a 40 3d 44 dd 6e bd 96 53 69 3e 4d 75 06 3e
       0.046946306 -0.058316484 0.22785792 0.13130684
000090 bb 02 3f be b5 b9 24 3d 9e d9 09 be e3 e3 82 3b
       -0.18653385 0.040216167 -0.1346192 0.0039944514
0000a0 a4 46 30 3d 39 e6 03 3e 4a df cd 3d 5c 78 9f bc
       0.04303612 0.12880792 0.10052355 -0.019466572
0000b0 b5 6d c5 3d 34 c0 80 3c db 63 39 3d 63 ed 81 3c
       0.096400656 0.01571665 0.045261245 0.015860265
0000c0 35 76 22 bc 29 0c 4a 3e 33 e7 2b 3d dc cf 60 be
       -0.009915878 0.19731201 0.041968536 -0.21954292
0000d0 1e c1 09 3d 16 ea 0f be 18 d4 2b 3e 88 c1 b8 3c
       0.033631437 -0.1405414 0.16780126 0.02255322
0000e0 d8 42 44 3e 57 fb bf 3d fb 56 4c 3e fa eb fd 3b
       0.19166124 0.09374111 0.19955055 0.007749078
0000f0 81 d6 1d be 15 d6 71 3d 68 45 fb bd 48 f5 89 bd
       -0.15413858 0.059042055 -0.122690976 -0.06736237
000100 c4 d8 5e 3a a3 6f 02 3d fc 26 a9 be 8f 9a 97 bd
       0.00085009285 0.031844746 -0.33037555 -0.074025266
000110 a6 70 95 3d 5c bf 00 bd 48 41 25 bc ec 92 35 be
       0.072968766 -0.031432495 -0.010086365 -0.17731827
000120 f6 54 13 3e 91 89 bf bc 53 ee 9c 3d 36 38 02 be
       0.14387879 -0.023381026 0.07662644 -0.12716755
000130 df 47 a5 3d 31 63 9f bd e1 c5 22 3e 95 42 53 bc
       0.08070349 -0.07782591 0.15895797 -0.012894292
000140 1c 57 50 be 83 56 4f bd 36 3f 7a be a0 98 5d bd
       -0.2034573 -0.050619613 -0.24438176 -0.054100633
000150 ac 49 17 be d6 da 65 be 50 ee 81 bd 60 dc 16 bd
       -0.14774197 -0.2244676 -0.063442826 -0.03683126
000160 8d 49 5a 3b 47 f7 db bb 03 e7 32 3e ec 2d 1d 3d
       0.0033308 -0.0067128274 0.17470936 0.038373873
000170 56 0e 19 3e b1 19 0e 3e 27 b4 15 3d 0b ae a2 3b
       0.14946875 0.13876988 0.03654876 0.004964595
000180 3b aa 83 bd 4c e4 c9 3d 4d 1d 8b 3e a4 b3 67 3e
       -0.06428953 0.09857997 0.27170792 0.22627121
000190 70 22 34 be 7f 64 7d 3e a2 1f e9 bc 95 6c 46 be
       -0.17591262 0.24745367 -0.028457467 -0.19377358
0001a0 d5 4e 10 3d c6 ec 90 bd e3 d4 c8 3d 8c 0c b6 bd
       0.03523143 -0.07076411 0.0980623 -0.08889112
0001b0 ce c5 86 3d 5b 95 11 be 8a e5 3c 3e 3d 43 33 be
       0.06580697 -0.14217131 0.18446937 -0.17506118
0001c0 5e 01 cb 3d 2b bf c6 bd 4e ef f0 3c a6 3d 28 be
       0.0991237 -0.09704431 0.029410984 -0.16429767
0001d0 79 9c 27 be ba 21 ac 3d ef 76 5a 3c 0f b2 11 3b
       -0.16368283 0.0840487 0.01333402 0.0022231375
0001e0 e1 10 8a bd 6e 89 99 3c d0 58 91 3d 3e ad d3 3d
       -0.06741501 0.01874229 0.07097018 0.10335778
0001f0 9a 2f 96 3d 2d 56 ec 3b 23 38 96 be d2 8c b8 bc
       0.07333298 0.0072124214 -0.29339704 -0.022528086
000200 bb f5 d5 3c 54 7d 01 3e ad 00 ac 3e cb 33 b2 3d
       0.02611815 0.12645465 0.33594266 0.08701285
000210 37 94 a4 3c 6e c2 d8 bd a7 5e 07 bd 9f 18 b8 3a
       0.020090206 -0.105839595 -0.033049252 0.0014045424
000220 16 29 05 bd 0e f2 52 bd b3 c8 63 3c c0 a4 cd 3c
       -0.032509886 -0.051500373 0.013902831 0.025102973
000230 23 4c 92 be c8 0c 7d bc ca 67 73 be 99 fc 7c bc
       -0.28573713 -0.015444942 -0.23770061 -0.015441083
000240 88 f6 4a 3e 73 d6 10 be 57 4d a7 bd ef 69 43 3d
       0.19820607 -0.14144306 -0.08169048 0.047708448
000250 d2 5d 01 3e 11 ed d3 bd b9 65 7a 3d ea e9 a3 3d
       0.12633446 -0.10347951 0.061132167 0.080036
000260 18 0e 72 be c4 dd cd bd d2 4c 46 3e 3c a2 91 3d
       -0.23638189 -0.10052064 0.19365242 0.07111022
000270 68 07 57 3d bc 81 83 be 66 b3 1c 3d 7b 9b 19 bb
       0.052497298 -0.25684917 0.038257025 -0.002343862
000280 58 4b 70 be 14 d7 29 3e 17 ec 05 3d 70 c6 79 3d
       -0.23466241 0.16585952 0.032695856 0.06098026
000290 ce a0 3c 3d 99 10 09 3e 38 60 5c 3c 74 f6 4c 3d
       0.046051793 0.13385238 0.013450675 0.050039724
0002a0 d2 e3 0a 3e 8a 6a 4a be a0 00 dc be 96 a2 d4 bd
       0.13563469 -0.19767204 -0.42969227 -0.10382573
0002b0 f5 b1 f8 bd 9c 1a de 3d fa b3 cf bd 56 34 37 be
       -0.121433176 0.10844919 -0.1014175 -0.17891058
0002c0 c7 80 95 be 14 9b 9f 3e 13 54 b6 bc 49 28 01 be
       -0.29199812 0.31173003 -0.022256887 -0.12613024
0002d0 0d ed 1c 3e 50 76 84 3d 37 e2 08 be ed de b6 bd
       0.15324803 0.06467879 -0.13367544 -0.089292385
0002e0 f3 4f 44 be b7 56 43 3c 38 81 a8 3d b6 49 5f bd
       -0.19171123 0.01192253 0.082277715 -0.054513656
0002f0 a3 69 79 be 9f eb 1e 3e 57 bc 89 3e e1 63 8a 3d
       -0.24356703 0.1551957 0.26901504 0.06757332
000300 7f 8e 2e 3d 42 ca 24 bd 94 06 89 3e 39 51 2d bd
       0.042616364 -0.04023195 0.2676283 -0.042313788
000310 dd 37 01 3e 3d 1b 2d be 4f 81 b5 bd c5 d8 01 bd
       0.12618966 -0.16904922 -0.08862554 -0.03170087
000320 db cc ce be fa 99 b3 3b 25 7c 7b be 23 47 a4 bb
       -0.40390667 0.005481002 -0.24559076 -0.005013363
000330 51 20 bf 3d f2 45 b6 bd 3d bd ff 3c e8 14 a3 bd
       0.09332336 -0.0890006 0.031218166 -0.07962972
000340 bb 09 18 3e e2 3a a4 3a 73 92 bb be b9 d8 41 be
       0.14847462 0.0012529755 -0.3663517 -0.1893033
000350 3a 48 b2 bb ee d3 30 be 27 22 82 3e da c8 40 3c
       -0.005440739 -0.17268345 0.2541668 0.011766637
000360 57 e2 04 3d 4c b2 ac 3d 49 76 c6 bd 8b 91 d7 3d
       0.032442417 0.08432445 -0.0969053 0.10525807
000370 12 cd 20 3e 1f 0e a7 3c a5 0a a1 3d cd 4f 14 3e
       0.15703228 0.020392476 0.078633584 0.14483567
000380 c3 5a 84 bd db 46 f7 bd 4b ab ed 3d 25 ae b1 3d
       -0.06462624 -0.120740615 0.11604937 0.086757936
000390 07 c5 9f 3c dc 1b 55 3e b2 34 d0 bc 88 8f b9 3c
       0.01950313 0.20811409 -0.025415752 0.022651449
0003a0 ef cc e2 3b 93 01 c5 3d e5 a0 b6 bd 50 fc 24 3e
       0.0069214026 0.09619441 -0.08917407 0.16111875
0003b0 40 0b 93 3c cf 1d 6a 3d 25 68 f3 bd 2e 24 11 3e
       0.0179497 0.057157334 -0.11885098 0.14173958
0003c0 02 66 90 bd 2a 2c a0 3d f4 48 62 be 5f 71 c3 bd
       -0.070507064 0.078209236 -0.22098142 -0.09543108
0003d0 68 12 2f bc 0b 4b 48 be 21 c4 86 be 1f c2 af 3c
       -0.010685541 -0.19559877 -0.2632151 0.021454869
0003e0 94 53 17 3d 78 ab 9b be 09 22 a0 bd c8 11 68 3d
       0.03694494 -0.30404258 -0.07818992 0.056657583
0003f0 5d 32 db 3b 22 ac ab be 0b 46 12 3e 56 e6 d5 bd
       0.0066893534 -0.33529764 0.14284532 -0.10444324

Decoder.dec2.bias f4 [31]
000000 7e d9 2f 3d 09 0c ce 3d e4 9c 17 3f e2 bb f8 bc
       0.042932026 0.10060889 0.5922377 -0.030363027
000010 d3 20 19 3f 7b 9a 45 3e ac e2 16 bf d7 03 03 bf
       0.5981571 0.19297211 -0.58939624 -0.51177734
000020 f4 3a bb 3e 29 03 25 bd 6b 96 68 3e d8 64 33 bf
       0.36568415 -0.040286217 0.2271363 -0.7007575
000030 69 0f 02 3f ff a0 b6 be e2 cb 4d bc a8 32 12 3f
       0.50804764 -0.35669705 -0.0125608165 0.57108545
000040 ad 35 89 bd 10 01 1b 3e 1f 6e 07 bd ff 8b 8d 3e
       -0.06699691 0.15137124 -0.033064004 0.2764587
000050 b0 78 f8 be 82 0c 74 be 2b f1 ce bb 65 7a 16 3f
       -0.48529577 -0.23832896 -0.0063153706 0.5878051
000060 bf 67 4d 3d e6 ec 20 3f 65 29 4a 3d 5d 92 eb 3e
       0.050147768 0.6286148 0.049355883 0.46010104
000070 e3 cf 24 3e 53 24 97 3d 62 7d a9 3c
       0.16094927 0.07379975 0.02068967
