results/7_niid/model_drs_n_0_m_0.pt (torch, 121528 bytes, 8 tensors)

Encoder.enc1.weight f4 [256, 22]
0	0x3d13e3bb	0.036105853
1	0x3c57b926	0.013166701
2	0xbe8caba1	-0.27474692
3	0x3d712305	0.058871288
4	0xbd7fec75	-0.062481362
5	0x3d8af114	0.06784263
6	0x3d924bb8	0.071433485
7	0xbd458314	-0.04822071
8	0xbd3b917a	-0.045793034
9	0xbda7b028	-0.08187896
10	0xbb2dd58d	-0.0026524991
11	0xbe782a4f	-0.2423489
12	0x3dd3753f	0.10325097
13	0xbd3fb2e2	-0.046801455
14	0x3d9955a3	0.07487037
15	0x3d7cc350	0.061709702
16	0xbda68c67	-0.08132248
17	0xbd68e6bb	-0.056860667
18	0xbd52e361	-0.051486377
19	0xbd84a2d6	-0.06476371
20	0x3bfe0a99	0.007752728
21	0xbb4fc071	-0.0031700397
22	0xbc4bb8d7	-0.012434206
23	0xbb6c8d62	-0.0036095013
24	0x3d8f1fd4	0.069884926
25	0x3c2db362	0.01060185
26	0x3c779808	0.015111931
27	0xbc6de047	-0.014518804
28	0xbce24bcf	-0.027624039
29	0xbca430f5	-0.020042876
30	0x3d05e0f4	0.032685235
31	0x3bf06f2a	0.0073374705
32	0xbbc08755	-0.005875508
33	0xbe77b540	-0.24190235
34	0x3cf806fa	0.030276764
35	0x3db19b25	0.086721696
36	0xbd00b9b1	-0.03142709
37	0xbc741574	-0.014897693
38	0x3d513cc9	0.05108336
39	0xbc681a7d	-0.014166472
40	0x3b46a631	0.003031146
41	0x3d198614	0.037481382
42	0x3d8c6169	0.06854517
43	0x3d00ef2e	0.0314781
44	0xbcbb7e4a	-0.022887368
45	0xbe1b530c	-0.15168399
46	0xbea48339	-0.32131365
47	0x3d762738	0.060095996
48	0xbc2e75ed	-0.010648233
49	0x3ca61f2d	0.020278538
50	0xbcab5944	-0.020916589
51	0xbd3801c8	-0.044923574
52	0x3bc00116	0.0058595045
53	0xbd043c89	-0.032284293
54	0xbe13f9c0	-0.14450741
55	0xbe097215	-0.13422425
56	0x3bfa96ab	0.0076473556
57	0x3d86a7fb	0.065750085
58	0xbcc2ab02	-0.023763184
59	0xbcfe19a9	-0.031018095
60	0x3d4cd680	0.05000925
61	0x3d6814a6	0.056660317
62	0x3c323320	0.010876447
63	0xbc47537c	-0.0121659
64	0x3c924420	0.01785475
65	0xbe198edd	-0.14995904
66	0x3d92af9e	0.071624026
67	0xbdce787e	-0.10081576
68	0xbdc77d0e	-0.09740649
69	0x3be448ca	0.006966685
70	0xbd0efa53	-0.034906697
71	0xbddd60f3	-0.10809507
72	0x3d3af87c	0.04564713
73	0xbd5000d1	-0.05078203
74	0xbc4e6f11	-0.0125997225
75	0xbe7fa73c	-0.24966139
76	0xbdff1594	-0.124552876
77	0xbe71c4f2	-0.23610285
78	0x3d37a3d8	0.044833988
79	0x39cec4fc	0.00039438147
80	0xbcff6a01	-0.031178476
81	0x3c18f0da	0.009334767
82	0x3dd676d4	0.104718834
83	0xbd4aa61b	-0.049474817
84	0xbbb58950	-0.0055400506
85	0xbd179158	-0.037003845
86	0x3db05e4c	0.08611736
87	0x3d6db223	0.058031213
88	0xbd9e2eb5	-0.077237524
89	0x3c99b544	0.018763192
90	0xbe3b4743	-0.18288903
91	0xbd264568	-0.040593535
92	0xbcd02d2a	-0.02541216
93	0xbc06e89b	-0.008234168
94	0xbd8faef6	-0.07015793
95	0x3b9add7f	0.0047261114
96	0xbdc617cf	-0.0967251
97	0x3cf8059a	0.030276109
98	0xbdc1aaf7	-0.09456437
99	0xbe45391e	-0.1926007
100	0xbdac7dd6	-0.08422439
101	0x3d110dba	0.03541348
102	0xbe01d9be	-0.12680718
103	0x3d9ee519	0.07758541
104	0xbe4582b1	-0.19288136
105	0x3c0760ab	0.0082627935
106	0x3c4c8844	0.01248366
107	0x3db43082	0.08798315
108	0x3d0081d3	0.03137381
109	0x3cba1285	0.022713909
110	0x3e1a67e3	0.15078692
111	0x3df97069	0.12179644
112	0x3e15d18a	0.14630714
113	0x3d9d2e75	0.076748766
114	0xbdc2f04c	-0.09518489
115	0xbd2979a8	-0.041375786
116	0xbd6414a8	-0.05568376
117	0x3bb57037	0.0055370587
118	0xbcee719c	-0.029106908
119	0xbe2a3291	-0.16620852
120	0x3d528c5e	0.051403396
121	0x3e3633f1	0.17793252
122	0x3c1a5293	0.009419101
123	0xbb51b98c	-0.0032001464
124	0x3e01d242	0.12677863
125	0x3d9e2eaf	0.07723748
126	0x3decc353	0.11560693
127	0xbd697563	-0.056996714
128	0x3d82dccb	0.06389769
129	0x3cceabe6	0.025228452
130	0xbc133e88	-0.008987077
131	0xbd67985a	-0.05654178
132	0xbb9b23da	-0.0047344984
133	0xbb9664c1	-0.0045896475
134	0xbdcf0717	-0.10108774
135	0xbc72aa0d	-0.014811051
136	0xb9c78f52	-0.0003806302
137	0xbcc98460	-0.024599254
138	0xbc488582	-0.012238862
139	0xbde50395	-0.11182324
140	0xbc7569e7	-0.014978862
141	0xbb967c4b	-0.0045924536
142	0xbcdcca6d	-0.026951993
143	0xbd415a81	-0.047205452
144	0xbc3aefa4	-0.011409674
145	0x3b410031	0.0029449577
146	0x3acf04b0	0.0015794244
147	0x3b1a3982	0.0023532812
148	0xbba57252	-0.0050490284
149	0xbc002dc3	-0.00782341
150	0x3c2043bd	0.009781775
151	0x3ec1b0c6	0.3783018
152	0x3d0a5677	0.033773866
153	0xbc49fe60	-0.012328714
154	0xbe51fe3c	-0.20507139
155	0xbdf9a412	-0.12189497
156	0x3d23f80f	0.04003149
157	0x3c8d3ffc	0.017242424
158	0xbd6b8bfd	-0.05750655
159	0xbd421fd1	-0.047393624
160	0xbd436b54	-0.047709778
161	0xbdae901d	-0.08523581
162	0xbe232775	-0.1593302
163	0xbd1ae956	-0.037820183
164	0xbd5f024c	-0.05444555
165	0xbd83dce7	-0.06438618
166	0x3d1621d2	0.036653347
167	0x3c5da45b	0.013527955
168	0xbbc6d5a2	-0.0060679475
169	0xbc9acbd6	-0.018896025
170	0xbca5d588	-0.020243421
171	0x3aadde0d	0.0013265029
172	0x3d104370	0.035220563
173	0x3bb3b91f	0.0054847146
174	0xbc0aae14	-0.008464355
175	0xbd30d10b	-0.04316811
176	0x3cb72099	0.022354411
177	0x3c8fac69	0.017538266
178	0xbe0715ce	-0.13191912
179	0x3cc9290d	0.024555707
180	0x3d36a92f	0.04459494
181	0x3d6691df	0.056291457
182	0xbbbfb75a	-0.0058507146
183	0xbd181a22	-0.037134297
184	0xbaa06cee	-0.0012239495
185	0x3d41d0bd	0.04731821
186	0x3d3c7bbf	0.04601645
187	0x3c8fbde8	0.017546609
188	0xbe632a93	-0.2218421
189	0xbe063731	-0.13106991
190	0xbd0bc4a7	-0.03412309
191	0x3ce2123c	0.027596585
192	0xbd3a55a7	-0.04549184
193	0x3d10ff39	0.03539965
194	0x3cc63eaa	0.024199802
195	0xbc97e5c8	-0.018542185
196	0xbd221b03	-0.03957654
197	0xbdec16a1	-0.115277536
198	0x3c86c12d	0.016449535
199	0xbdbc2e85	-0.091885604
200	0x3e044837	0.12918173
201	0xbda0918b	-0.0784026
202	0xbd3b3855	-0.04570802
203	0x3c0fa94d	0.008768392
204	0x3d7ba7f0	0.061439455
205	0xbc455dfb	-0.0120463325
206	0xbd90e5eb	-0.07075103
207	0xbd364db7	-0.04450771
208	0xbc13e2d3	-0.009026247
209	0x3dc6c6ad	0.09705863
210	0xbc7d28ce	-0.015451623
211	0x3dc88308	0.09790617
212	0x3db23b92	0.087027684
213	0xbd9dfb38	-0.07713932
214	0x3e032b15	0.12809403
215	0xbd0cfbb3	-0.034419727
216	0xbdac9e4b	-0.084286295
217	0xbd2d030a	-0.042239226
218	0x3da0c482	0.07849981
219	0x3dac9fd4	0.08428922
220	0xbc37c527	-0.011216438
221	0xbdba0039	-0.09082074
222	0xbd080850	-0.033211052
223	0x3c805504	0.015665539
224	0xbcab2a58	-0.020894215
225	0xbca28732	-0.019839857
226	0xbddecd0e	-0.10878955
227	0xbe38512e	-0.17999718
228	0x3c55998d	0.013037098
229	0xbd613f4e	-0.054992013
230	0x3cf634fd	0.030054564
231	0xbe138efe	-0.14410016
232	0x3d76c83e	0.06024956
233	0x3d792407	0.060825374
234	0xbe13806b	-0.14404456
235	0x3c7b4e0b	0.015338431
236	0xbd813281	-0.06308461
237	0xbd6497e3	-0.055808913
238	0x3d854171	0.065066226
239	0x3dec0257	0.11523884
240	0x3daf50fa	0.08560367
241	0x3da30f24	0.07961872
242	0x3beefbb1	0.0072931875
243	0x3cc33671	0.02382967
244	0xbbde3969	-0.006781746
245	0xbcbd119d	-0.023079688
246	0x3c685b7c	0.014181968
247	0x3c80e03e	0.015731927
248	0xbb6ca6ee	-0.003611024
249	0x3cf5d800	0.030010223
250	0x3ca110c5	0.019661317
251	0x3d3306c5	0.043707628
252	0x3c9b6c1d	0.01897245
253	0x3d70bcb1	0.0587737
254	0x3b1aef74	0.002364126
255	0x3ce8da1f	0.02842432

Encoder.enc1.bias f4 [256]
0	0xbe14a7c6	-0.14517125
1	0x3e0ca876	0.13736138
2	0x3e1c9b73	0.15293674
3	0xbd453821	-0.04814923
4	0xbe89a57f	-0.26884076
5	0x3e904bf9	0.28182963
6	0xbd8cf728	-0.06883079
7	0xbd83b028	-0.064300835
8	0xbe403b30	-0.18772578
9	0x3e3c13f2	0.18366984
10	0xbe8e09a8	-0.27741742
11	0xbe9e9373	-0.3097187
12	0xbc8063a1	-0.015672507
13	0xbe0734c5	-0.13203724
14	0xbe1dc55e	-0.15407321
15	0xbea59f73	-0.32348213
16	0x3ddad5b0	0.10685289
17	0xbe896c44	-0.26840413
18	0x3d8e2588	0.06940752
19	0xbe67d8cf	-0.226413
20	0xbd90017b	-0.070315324
21	0xbe432a76	-0.19059166
22	0xbcdb542e	-0.026773538
23	0x3c5ac2cb	0.013352106
24	0xbe7ac5fc	-0.24489588
25	0xbe92b87a	-0.2865637
26	0xbea18759	-0.31548575
27	0xbe95d2d4	-0.29262412
28	0xbe715c81	-0.23570444
29	0x3da6390f	0.08116352
30	0x3d0a1396	0.033710085
31	0xbe5cb339	-0.21552743
32	0xbd1aa30c	-0.03775315
33	0xbe1955b9	-0.14974107
34	0xbe46bcfe	-0.19408032
35	0xbe1719ac	-0.14755887
36	0x3e2c37db	0.16818182
37	0x3ca3adc4	0.019980319
38	0x3d997011	0.07492078
39	0x3e0bcdd1	0.13652731
40	0x3df3bd76	0.11901371
41	0xbe27f0d8	-0.16400468
42	0xbe6da6ee	-0.2320821
43	0xbc78690d	-0.015161765
44	0x3d01dfab	0.031707447
45	0xbd11a99b	-0.03556214
46	0x3de66fc6	0.11251788
47	0xbd62ab22	-0.055338986
48	0xbde5f647	-0.11228614
49	0x3d7302b2	0.059328742
50	0xbddfecd0	-0.1093384
51	0xbe459f8f	-0.19299148
52	0xbd7c8937	-0.061654296
53	0xbdcd1dd7	-0.10015457
54	0xbb066fee	-0.0020513493
55	0xbde2d39b	-0.11075517
56	0x3d8f48f1	0.06996334
57	0xbd70e0f3	-0.05880828
58	0x3cd744f3	0.026277995
59	0xbe023fd5	-0.12719662
60	0xbcd21f5b	-0.025649717
61	0x3e6344f3	0.22194271
62	0xbcb3823a	-0.021912683
63	0x3e8741d7	0.2641742
64	0x3dce4cda	0.10073252
65	0xbe8dd08d	-0.27698174
66	0xbdf92876	-0.121659204
67	0xbd6f9424	-0.058490887
68	0xbe9ee391	-0.31032994
69	0x3d9d9525	0.07694463
70	0xbe07db6f	-0.13267301
71	0xbd8737b1	-0.06602419
72	0xbe211edc	-0.15734428
73	0x3d087bfc	0.033321366
74	0xbe833c8b	-0.25632128
75	0x3d0a7eb4	0.03381224
76	0x3c82f635	0.015986541
77	0xbdf5c2bf	-0.120000355
78	0x3d9bfe29	0.076168366
79	0x3d6fea26	0.05857291
80	0x3e3ea98b	0.18619363
81	0xbe5ee1b4	-0.21765786
82	0xbe8974fe	-0.2684707
83	0xbe6286e9	-0.22121777
84	0xbdb07126	-0.08615331
85	0xbe21099c	-0.15726322
86	0xbdb5480e	-0.08851634
87	0x3ccfda40	0.025372624
88	0xbe1ce415	-0.15321381
89	0x3d054623	0.03253759
90	0xbe577844	-0.21041971
91	0xbd9331dc	-0.07187244
92	0x3e2e60eb	0.17029159
93	0x3d837746	0.06419234
94	0x3e07251c	0.1319775
95	0xbdb14744	-0.08656171
96	0xbe57f8aa	-0.21090952
97	0x3def1707	0.11674314
98	0xbe6ba9cf	-0.23013996
99	0xbd0000aa	-0.031250633
100	0x3e0aa1b2	0.13538244
101	0xbe37fb18	-0.17966878
102	0xbce504bd	-0.027956361
103	0xbe10f19f	-0.14154671
104	0xbe4ad35c	-0.1980719
105	0xbe5d8c04	-0.21635443
106	0xbe7b7f13	-0.24560194
107	0x3d785916	0.060631834
108	0xbe81f3fb	-0.25381455
109	0xbe9890bf	-0.29797933
110	0xbe0a109b	-0.13482897
111	0xbd9f498d	-0.077777006
112	0x3e32be08	0.17455304
113	0xbcc69a4a	-0.024243493
114	0xbe56e079	-0.20984067
115	0x3bec0936	0.0072032465
116	0x3dabd9ee	0.08391176
117	0xbee5f596	-0.4491393
118	0xbdf9daad	-0.12199912
119	0x3da19528	0.078897774
120	0xbd145ac7	-0.036219385
121	0xbe103000	-0.1408081
122	0xbd8c528c	-0.06851682
123	0x3d83bca9	0.064324684
124	0xbd2ff9a9	-0.042962704
125	0xbdcdcb82	-0.10048582
126	0xbea455b9	-0.3209665
127	0x3dbe3d9c	0.09289095
128	0x3e074949	0.1321155
129	0xbe42de05	-0.19030006
130	0xbe7b7be6	-0.24558982
131	0xbed3401f	-0.41259858
132	0xbe8849e0	-0.26618862
133	0x3c828a5e	0.01593512
134	0xbe161651	-0.1465695
135	0xbc9a4796	-0.018832963
136	0x3c41ee67	0.011836625
137	0xbe096581	-0.13417627
138	0xbe3f9647	-0.1870967
139	0xbd82dfda	-0.063903525
140	0x3da4c3ee	0.08045183
141	0xbe8c945f	-0.27456948
142	0xbe622d73	-0.2208765
143	0xbdb4ab6f	-0.08821761
144	0xbe389085	-0.1802388
145	0x3e68997c	0.227148
146	0xbe498145	-0.19678219
147	0xbe5fe77c	-0.21865648
148	0xbef9b3bc	-0.4876994
149	0xbdfac6d0	-0.12244952
150	0x3c718339	0.014740759
151	0x3e80dfa5	0.25170627
152	0x3df11147	0.117708735
153	0xbe9bf384	-0.30459225
154	0xbe2a5a47	-0.16636
155	0xbe619f0a	-0.22033325
156	0xbc32bc37	-0.010909132
157	0xbe116a13	-0.1420062
158	0xbe04417d	-0.12915607
159	0xbe404fec	-0.18780488
160	0xbe582c0f	-0.21110557
161	0xbe011ce0	-0.12608671
162	0xbeaccb70	-0.3374896
163	0x3da3bc61	0.07994915
164	0x3dc2c7d5	0.09510771
165	0xbe554f40	-0.20831013
166	0xbec103e9	-0.37698296
167	0xbe0d1680	-0.13778114
168	0xbe239ff0	-0.1597898
169	0xbe0a7e78	-0.13524806
170	0xbecb376f	-0.3969073
171	0xbd22e7a7	-0.039771702
172	0xbe8dd3aa	-0.2770055
173	0xbe1fb251	-0.15595366
174	0xbe8036e7	-0.25041887
175	0xbe45587c	-0.19272035
176	0xbca2c7e6	-0.01987071
177	0x3e128815	0.14309724
178	0xbe498f54	-0.19683582
179	0x3e54493c	0.20731062
180	0x3c5eff43	0.013610664
181	0xbe97d452	-0.29654175
182	0xbe573195	-0.21015008
183	0xbd0516a0	-0.03249228
184	0xbe20f802	-0.15719607
185	0xbe65c5d3	-0.22438745
186	0xbeb1aef4	-0.3470379
187	0xbd7c2c53	-0.06156571
188	0xbeb1061d	-0.34574977
189	0xbe552900	-0.20816422
190	0xbe26acfc	-0.16276926
191	0x3e350c0a	0.17680374
192	0x3e0b6103	0.13611226
193	0xbe94cf50	-0.29064417
194	0xbd62bf51	-0.055358235
195	0xbe9aec0d	-0.30258217
196	0x3cfee8af	0.031116812
197	0x3e17d76d	0.14828272
198	0xbdfda4c0	-0.12384939
199	0x3e1e4979	0.15457715
200	0x3d80fbf2	0.06298055
201	0xbd861c94	-0.065484196
202	0xbe24bc8e	-0.16087553
203	0xbe00f721	-0.12594272
204	0x3e2126ea	0.15737501
205	0xbe8067ec	-0.25079286
206	0xbdf4e85d	-0.11958382
207	0xbe8a40b5	-0.27002493
208	0xbe375831	-0.17904736
209	0xbe1666e3	-0.14687686
210	0xbe40aab8	-0.18815124
211	0xbc642c93	-0.013926643
212	0x3e41a1e6	0.18909416
213	0xbe46e6a4	-0.1942392
214	0x3d144719	0.036200617
215	0xbd0e42cf	-0.034731682
216	0xbe8d111f	-0.27552125
217	0xbe169068	-0.14703524
218	0xbea0dd46	-0.31418818
219	0xbda3cc0c	-0.07997903
220	0xbdb6f8c6	-0.089341685
221	0xbdb40607	-0.08790212
222	0xbea6cecb	-0.32579646
223	0x3b704cc0	0.003666684
224	0xbe83e498	-0.2576034
225	0x3d31cc65	0.043407816
226	0xbe5f7689	-0.21822561
227	0x3cf0b2ae	0.029382076
228	0x3d9736b2	0.07383479
229	0xbead6158	-0.3386333
230	0xbe709fb3	-0.2349842
231	0xbd4b5da8	-0.049649864
232	0xbd922542	-0.071360126
233	0xbe2d3f4f	-0.16918682
234	0xbe3fcd50	-0.18730664
235	0xbe426a07	-0.18985759
236	0xbd71d849	-0.059044156
237	0xbe63d673	-0.22249775
238	0x3d4a97e1	0.04946125
239	0xbe319f0d	-0.1734583
240	0x3d8d34c1	0.06894828
241	0xbd81f6d1	-0.063459046
242	0x3e458a7b	0.19291107
243	0x3e4c1d48	0.19933045
244	0xbe09ea97	-0.13468395
245	0x3cbae95d	0.022816354
246	0x3de0f95c	0.109850615
247	0x3c830188	0.015991941
248	0xbe1e422a	-0.15454927
249	0x3e2e04c0	0.16994
250	0xbe817f2c	-0.25292337
251	0x3e321395	0.17390282
252	0xbdacb3c6	-0.084327266
253	0xbe076391	-0.13221575
254	0x3e02c903	0.12771992
255	0x3dcdd6d2	0.10050739

Encoder.enc2.weight f4 [40, 256]
0	0xbbd954fc	-0.0066324454
1	0x3b0877df	0.0020823402
2	0x3b57dc1a	0.0032937587
3	0x3ba8879e	0.00514312
4	0x3d80b537	0.06284564
5	0xbc76de06	-0.015067583
6	0xba419a6b	-0.0007385376
7	0xbd44ba8f	-0.04802948
8	0xbc403b40	-0.011732876
9	0x3c521cea	0.012824276
10	0xbca081e8	-0.019593194
11	0x3b907725	0.0044087344
12	0xbc7c02e6	-0.01538155
13	0xbc889720	-0.016673625
14	0x3c812757	0.015765829
15	0x3b0b5684	0.0021261284
16	0xbce1e14f	-0.027573256
17	0x3c3cac54	0.011515696
18	0x3c2289c7	0.009920544
19	0xbb4f03c6	-0.0031587943
20	0xbcf22673	-0.02955935
21	0xbbc898de	-0.006121739
22	0xbbcd58ce	-0.00626669
23	0xbb874fc1	-0.0041293805
24	0xbc1f2581	-0.0097135315
25	0xbcba5365	-0.022744844
26	0x3cda9ec6	0.026687037
27	0x3b86487e	0.004097997
28	0xbc523bc7	-0.012831635
29	0x3c144f35	0.009052088
30	0x3aa643ea	0.0012685035
31	0x3b6b9491	0.0035946707
32	0xbce690ec	-0.028145276
33	0x3c6a57a5	0.014303123
34	0xbb8e6a34	-0.0043461565
35	0x3c05c172	0.008163797
36	0xbc2c586f	-0.010519131
37	0x3c7dab2d	0.015482706
38	0xbc9dd51c	-0.019266658
39	0xbb57e4d7	-0.0032942796
40	0xbb690704	-0.003555716
41	0xbb4ea39f	-0.0031530631
42	0xbcc431fb	-0.023949614
43	0xbcb6776c	-0.022273742
44	0xbac62ef3	-0.0015120193
45	0xbc8f4aba	-0.017491687
46	0x3ad2dba7	0.001608719
47	0xbc17810d	-0.009247077
48	0x3c8f34e1	0.01748127
49	0xba63d65c	-0.0008691305
50	0xbcb0e7c0	-0.021594882
51	0x3d145ca7	0.036221173
52	0xba2f74ce	-0.00066931255
53	0xbc4af81c	-0.012388255
54	0x3bee4d28	0.0072723813
55	0xbac9223c	-0.0015345286
56	0xbcbdb417	-0.023157163
57	0xba9065ec	-0.0011016703
58	0xba767e07	-0.0009402935
59	0xba8b9ea1	-0.0010652133
60	0x3b024720	0.001987882
61	0x3c8e2956	0.017353695
62	0xbcb5c55c	-0.022188835
63	0x3b7ce4ef	0.0038588603
64	0x3b905add	0.004405363
65	0x3b6e505f	0.0036363823
66	0xbbfa7fcb	-0.0076446286
67	0xbd2586af	-0.040411647
68	0x3bc139c1	0.0058967774
69	0x3b6cfa12	0.0036159796
70	0x3b25ab73	0.0025279194
71	0x3b431202	0.0029765372
72	0xbb157e83	-0.0022811003
73	0xbc9fc6ca	-0.01950397
74	0x3a73567b	0.0009282601
75	0x3d16a493	0.036778044
76	0x39b61a63	0.00034733405
77	0x3b02dced	0.0019968108
78	0x3c8d6d32	0.017263982
79	0x3bb615b9	0.0055567888
80	0x3a69d2c5	0.0008919652
81	0x3b937216	0.004499684
82	0x3b721c06	0.0036942973
83	0x3d035ca0	0.032070756
84	0x3bca250e	0.006168968
85	0xbc40e6c4	-0.011773769
86	0xbb2ba599	-0.0026191233
87	0xbc831f21	-0.016006054
88	0x3ceab8e5	0.028652618
89	0x3ac986f7	0.0015375306
90	0xbb93bc94	-0.0045085642
91	0xba260a50	-0.0006333934
92	0xbc4edf38	-0.012626462
93	0x3b8414a7	0.0040307823
94	0x3a274cdd	0.0006381998
95	0x3d104edd	0.03523146
96	0xbc8a286e	-0.016864982
97	0xbc408f94	-0.011752982
98	0x3c10500a	0.008808145
99	0xba9769a8	-0.0011551874
100	0xbcb09729	-0.021556454
101	0x3aec0144	0.0018005748
102	0x3a66215a	0.00087787735
103	0xbc24164b	-0.010015081
104	0x3afeb8e2	0.0019433761
105	0x3bdbed9e	0.006711676
106	0xbbf26431	-0.0073971977
107	0x3c5a7c59	0.013335311
108	0xbc26a3a3	-0.01017085
109	0xbc859426	-0.016305994
110	0xbcba3eac	-0.022734962
111	0x3b64552a	0.00348408
112	0x3c4d79f3	0.012541282
113	0xbc0133a3	-0.007885846
114	0x3a3bbec8	0.00071619125
115	0xbc2697bb	-0.010168011
116	0xb9e649eb	-0.00043924092
117	0xbc10d4ac	-0.008839767
118	0x3ca42a56	0.020039719
119	0xbbc5a306	-0.006031397
120	0xbace37e9	-0.0015733215
121	0xbc94dcb0	-0.018171638
122	0xb99bc05d	-0.00029707226
123	0x3c1a9511	0.009434954
124	0x3bcd1d66	0.006259608
125	0xbba069de	-0.004895433
126	0xbb86c77e	-0.004113137
127	0x3b494754	0.003071268
128	0xbb863ee6	-0.0040968535
129	0x3be5b2ab	0.0070098243
130	0xb8523357	-5.0115716e-05
131	0x3bb0e4b6	0.005398358
132	0x3ba7ccd9	0.0051208553
133	0xbafee4ad	-0.0019446813
134	0x3c622f11	0.013805167
135	0xbba4f138	-0.0050336383
136	0x3cd44789	0.025913017
137	0x3aa9826e	0.0012932548
138	0x3a69bb32	0.0008916139
139	0x3b9a5686	0.0047100214
140	0xbbc7a8a7	-0.006093103
141	0xbab20f76	-0.001358493
142	0xbc161f9c	-0.00916281
143	0x3c2065a4	0.009789858
144	0xbae390e9	-0.0017361912
145	0xbb662b93	-0.0035121187
146	0x3b3da16b	0.0028935324
147	0x3d563bbf	0.052303072
148	0x3ad7db9e	0.0016468649
149	0x3d57ea4e	0.052713685
150	0x3bfede48	0.007777963
151	0x3c2022ef	0.009773954
152	0xbabde312	-0.0014487228
153	0x3b25f284	0.0025321553
154	0xbb0da648	-0.0021614004
155	0xbb151e48	-0.0022753645
156	0x3c96c0a2	0.018402401
157	0xbd123d63	-0.035703074
158	0x3a89a398	0.0010501025
159	0xbc48cd9c	-0.012256052
160	0xbce5c7e4	-0.028049417
161	0xbb66cd5a	-0.0035217614
162	0x3c80186b	0.015636643
163	0x3a725246	0.0009243827
164	0xbb1483f7	-0.0022661665
165	0x3b3223a8	0.0027181897
166	0x3b50d375	0.003186432
167	0xbc3f54a4	-0.011677895
168	0xb5f5ac53	-1.8304075e-06
169	0x38b969a6	8.841166e-05
170	0xbb083828	-0.0020785425
171	0x3c03bfae	0.0080413055
172	0xbcf2d6fb	-0.029643526
173	0x3be5a68b	0.007008379
174	0xb976918f	-0.00023514613
175	0x3919a195	0.00014651411
176	0xbc7b7f09	-0.015350112
177	0x3c54be38	0.012984805
178	0xba961836	-0.0011451307
179	0x3ca2287f	0.0197947
180	0x3cca9467	0.024728967
181	0xbb079909	-0.0020690581
182	0xbd039365	-0.03212299
183	0x3cbbf0be	0.022941943
184	0xbb021ab4	-0.0019852342
185	0x3b710234	0.0036774995
186	0xbc7e732f	-0.015530392
187	0x3a7c02be	0.0009613446
188	0x3cbf707d	0.023369068
189	0xbb9ddcc6	-0.004817578
190	0x3c8fd3e0	0.017557085
191	0xbc6ada06	-0.014334207
192	0x3b8d2023	0.0043068095
193	0x3c8599ff	0.016308783
194	0x3c2a25ff	0.010385036
195	0xbc1b32f1	-0.009472595
196	0xbce27f4c	-0.02764859
197	0x3ba545a0	0.0050437003
198	0x3b93fd3c	0.004516272
199	0xbbc1f005	-0.005918505
200	0x3b72a04c	0.0037021814
201	0xbaa2cbac	-0.0012420318
202	0x3c3685e0	0.011140317
203	0xbc373a2e	-0.011183305
204	0xbafcd8f2	-0.0019290729
205	0x37fd1334	3.0168892e-05
206	0xba3815be	-0.0007022283
207	0xbc625491	-0.0138141075
208	0xbae2d644	-0.0017306288
209	0x3bf0b639	0.0073459414
210	0x3b9efab4	0.0048516635
211	0xbbbf0430	-0.0058293566
212	0x3b698996	0.0035634986
213	0x3bee7ded	0.007278195
214	0xbac48fb4	-0.001499644
215	0x3c9f852e	0.019472685
216	0xbae03b47	-0.001710751
217	0xbab3047b	-0.0013657951
218	0x3c2e3c84	0.010634545
219	0x3b6f030d	0.0036470324
220	0x3b28b7bc	0.002574428
221	0x3ced52ec	0.028970204
222	0xbb413f27	-0.0029487105
223	0xbd0a3d9b	-0.033750158
224	0xbc34ec43	-0.011042657
225	0x3b8c5c85	0.00428349
226	0xbc6adb71	-0.0143345455
227	0x3cdcfce2	0.026976053
228	0xbbaae805	-0.005215647
229	0x3a2b75d8	0.00065406924
230	0x3bc50ff3	0.006013864
231	0xbc85891b	-0.016300729
232	0x3ad99e29	0.0016602922
233	0x3c839038	0.01605998
234	0xbbf4428c	-0.007454222
235	0xbab0cd59	-0.0013488933
236	0x3c351956	0.011053404
237	0x3b2d2f9f	0.002642609
238	0x3b960380	0.004578054
239	0xbd1297d2	-0.03578932
240	0xbadfc22a	-0.0017071415
241	0x37d86a02	2.579857e-05
242	0x3bffa74c	0.0078019258
243	0xbbea26df	-0.007145747
244	0x3c1c0804	0.009523395
245	0x3b7a9c70	0.0038240217
246	0x3a958154	0.0011406341
247	0xbc0e4f35	-0.008685877
248	0xbc86b6d1	-0.016444596
249	0xbb153b59	-0.002277097
250	0xbb9c3467	-0.004766989
251	0xb9b18803	-0.00033861407
252	0xba2f29ce	-0.00066819496
253	0x3cdd38e9	0.027004676
254	0x3c82cfd4	0.01596824
255	0x3c3edb1b	0.0116489185

Encoder.enc2.bias f4 [40]
0	0xbb6b5860	-0.003591083
1	0xba8423b0	-0.0010081436
2	0xbce048f5	-0.027378539
3	0x3c09c361	0.008408398
4	0xbd05b3f1	-0.03264231
5	0xbc04ee48	-0.008113451
6	0xbbc66556	-0.0060545607
7	0x3ca5cdf2	0.020239804
8	0x3ced0147	0.028931273
9	0xbc2d2474	-0.010567773
10	0xbc93943a	-0.018015016
11	0xbc2ea4cf	-0.010659411
12	0xbc940190	-0.018067151
13	0x3c330cb5	0.010928323
14	0x3d3031c4	0.04301621
15	0xbca8586f	-0.02054998
16	0x3c19dd4a	0.009391138
17	0xbd17f9d9	-0.037103508
18	0x3c27c81f	0.010240584
19	0x3c5c181b	0.013433482
20	0xbc16d708	-0.009206541
21	0x3ca65006	0.02030183
22	0xbe2d8c9f	-0.16948174
23	0xbbbd7a67	-0.0057824138
24	0x3bff7fb3	0.0077972054
25	0xbaacd110	-0.0013184864
26	0x3c92c91f	0.017918168
27	0x3c95e4a2	0.018297497
28	0x3c0c8d10	0.008578554
29	0xbccc6d11	-0.02495435
30	0xbe3208a7	-0.17386113
31	0xbc94419d	-0.018097693
32	0xbbbdb9e9	-0.0057899845
33	0xbc944be0	-0.018102586
34	0xbe59a80f	-0.21255516
35	0xbe1f41b0	-0.15552402
36	0xbe2d5f63	-0.16930918
37	0xbc013591	-0.007886306
38	0xbe084199	-0.13306274
39	0xbe8e6e5b	-0.2781857

Decoder.dec1.weight f4 [256, 20]
0	0x3adf1a23	0.0017021339
1	0x3a87168d	0.0010306403
2	0xbde01364	-0.109411985
3	0xbb6ceb7d	-0.0036151104
4	0x3b2c034e	0.0026247087
5	0x3a332169	0.00068332866
6	0x387aa9c4	5.976275e-05
7	0x39311e50	0.00016891328
8	0xbab0b71d	-0.0013482306
9	0xbac46232	-0.0014982878
10	0x3a5ac558	0.00083454465
11	0x3b5cfb26	0.0033719032
12	0xbb54ad8c	-0.0032452075
13	0xbb8d08b9	-0.0043040183
14	0x3c10671b	0.008813645
15	0x3ce0714c	0.027397774
16	0xbd8c9a21	-0.06865335
17	0x3b42dbd6	0.0029733083
18	0xbc5b7568	-0.013394691
19	0x3e612ee1	0.21990539
20	0xbc2c02a6	-0.010498678
21	0x3a3b75a9	0.00071510166
22	0x3e5e534c	0.21711463
23	0x3bb73abe	0.0055917194
24	0xbbbd20d5	-0.005771736
25	0x3b2f3524	0.0026734555
26	0x3b8302f3	0.0039981543
27	0x39c04a05	0.00036676243
28	0xbb2b77b1	-0.002616387
29	0x3b8f6ab2	0.0043767327
30	0x3bef4225	0.007301586
31	0x3b9ca5e3	0.0047805174
32	0x3a997059	0.0011706456
33	0xbbbac421	-0.00569965
34	0xbb05a625	-0.002039322
35	0xb9961ac8	-0.00028630183
36	0xbdba6b38	-0.091024816
37	0xbba8cc3e	-0.0051513007
38	0x3ad52470	0.001626147
39	0x3d951230	0.072788596
40	0xbafa490c	-0.0019095256
41	0x3ba7ce40	0.0051210225
42	0x3e21bb05	0.15793999
43	0xbb889efa	-0.004169342
44	0xbb529cc5	-0.00321369
45	0x39cbf4f8	0.00038901693
46	0xbbd4f4f3	-0.006498927
47	0xbb3a9de5	-0.002847546
48	0x3b4405e3	0.0029910735
49	0xb96275ad	-0.00021596877
50	0x3b7c29b2	0.0038477
51	0xbb022670	-0.0019859336
52	0x3b14ae0f	0.0022686755
53	0x39b415d1	0.0003434853
54	0xbbc36dd2	-0.0059640193
55	0x3b7e725b	0.0038825485
56	0xbd81bdca	-0.063350275
57	0x38a6273c	7.922805e-05
58	0x3c19df98	0.009391688
59	0x3d8c0d51	0.068384774
60	0x3bbd1c3a	0.005771187
61	0xbb75e2a7	-0.0037519129
62	0xbb2f5e15	-0.0026758958
63	0x3c709a8c	0.014685284
64	0x3c41a663	0.011819455
65	0xbaf7021c	-0.0018845233
66	0x39b77cc0	0.00034997426
67	0x3c5dc923	0.013536724
68	0xbbe4b792	-0.006979891
69	0xbbd13c9a	-0.006385398
70	0x3c2b764c	0.010465216
71	0xbb304b90	-0.0026900508
72	0x3ba5731a	0.0050491216
73	0x3bc33f03	0.0059584393
74	0x3ea6ce33	0.32579193
75	0xbbb89257	-0.0056326794
76	0xbc53f305	-0.012936358
77	0x3b64fe32	0.0034941551
78	0xbc0e6b27	-0.008692539
79	0x3dd3bdf6	0.103389665
80	0xba391505	-0.0007060322
81	0x3b5d0086	0.0033722236
82	0x3a53beb9	0.0008077431
83	0xb9921d75	-0.00027869237
84	0x3bb51444	0.0055260975
85	0xbbb7da9f	-0.0056107785
86	0x3a1ecdfc	0.0006057916
87	0x3b3b7e3b	0.0028609175
88	0x3ae33581	0.0017334671
89	0x39a751c0	0.0003191363
90	0x3bf054ab	0.007334312
91	0x3ada96bf	0.0016677006
92	0xbb496f99	-0.0030736683
93	0xbbac7402	-0.0052628526
94	0x3ac2c0a1	0.0014858433
95	0xbd7c6ac1	-0.061625246
96	0x3db4bffc	0.088256806
97	0x3a14f7d3	0.00056826806
98	0x3c15b6dd	0.009137836
99	0x3dd042ea	0.10169013
100	0x3bc95d99	0.006145191
101	0xbb2ab408	-0.0026047248
102	0x3ca6efeb	0.020378074
103	0xbaefaebf	-0.0018286331
104	0x3aba60b7	0.0014219497
105	0xbaa15e73	-0.0012311473
106	0x3bc32f91	0.005956598
107	0x3b2f477e	0.0026745494
108	0xbb8dc347	-0.0043262574
109	0x3a36479a	0.00069534185
110	0xbbe8a830	-0.0071001276
111	0x3abc3ce5	0.001436141
112	0x3b93d7a3	0.00451179
113	0x3bfdb7dd	0.0077428655
114	0xbbda5d31	-0.0066639413
115	0x3dcb73df	0.0993421
116	0x3e06cf2f	0.13164972
117	0x393de395	0.00018109225
118	0xbd2d976d	-0.04238074
119	0x3dec1c66	0.11528854
120	0x3b396629	0.0028289652
121	0xbbf1cb2e	-0.0073789572
122	0xbc36e620	-0.0111632645
123	0x3b60f16b	0.0034323584
124	0x3b931bce	0.0044893986
125	0xbb125551	-0.0022328685
126	0xbb1e98d9	-0.002419999
127	0x3b3b9c5c	0.0028627133
128	0xbaabb2ef	-0.0013099591
129	0xbbb056a8	-0.005381424
130	0xbbdc6f00	-0.0067270994
131	0xbb93d313	-0.004511246
132	0x3ba758de	0.0051070293
133	0xbb7c5505	-0.0038502824
134	0x3e8d23bc	0.27566326
135	0xb7a81529	-2.0037014e-05
136	0xbb34b3b4	-0.0027572932
137	0x3a6ebee7	0.0009107426
138	0x3bc092cb	0.005876874
139	0x3da61a11	0.081104405
140	0xbbccabaa	-0.00624605
141	0xba8290b7	-0.0009961341
142	0xbe6e8ebd	-0.23296638
143	0xbb6b16ed	-0.003587182
144	0x3b82a0eb	0.003986468
145	0xbb1f9789	-0.0024351797
146	0xbb1bcab3	-0.0023771941
147	0x3a8129ad	0.0009854339
148	0x3aeadde1	0.0017918908
149	0xbb28857f	-0.0025714335
150	0xbc66b822	-0.014081987
151	0x3b1b58db	0.0023704085
152	0xbc005524	-0.007832799
153	0x3b8d9e06	0.0043218164
154	0xbc450c34	-0.012026835
155	0xbb9b3c00	-0.004737377
156	0x3d3302fa	0.04370401
157	0xbac8e0dc	-0.0015325802
158	0x3cff8105	0.031189451
159	0xbd6c03b0	-0.057620704
160	0xbb02aec1	-0.0019940587
161	0xbb1e6d56	-0.0024174056
162	0x3b9b141d	0.0047326223
163	0xbad4656e	-0.0016204545
164	0x3b1183d5	0.0022203822
165	0x3aa6275f	0.0012676528
166	0xb7ce7c6c	-2.4615052e-05
167	0x3b4a25b6	0.0030845231
168	0x3ad057c6	0.0015895299
169	0x3921c60c	0.00015427935
170	0x3b84dd92	0.0040547336
171	0x3ad0a247	0.0015917503
172	0x3acde474	0.0015708343
173	0xb9e553b2	-0.00043740642
174	0x399daea1	0.00030075482
175	0xbd7ca09d	-0.06167661
176	0x3d9fdd6e	0.07805906
177	0x3adbc390	0.0016766656
178	0x3c06dd38	0.008231454
179	0x3dc2c7dc	0.095107764
180	0x3b079d97	0.0020693296
181	0x3c229779	0.009923809
182	0xbcca0500	-0.024660587
183	0x3b113f17	0.0022162849
184	0x3bf938d7	0.007605653
185	0x3c08eb63	0.008356902
186	0x3b0cb269	0.0021468645
187	0xbaba9677	-0.0014235516
188	0xbaaf9c85	-0.0013398087
189	0xbbc2b516	-0.0059419973
190	0xbea473c6	-0.32119578
191	0xbb313948	-0.00270422
192	0x3b9ac8b8	0.0047236346
193	0x39d58e59	0.00040732583
194	0x3c8f5825	0.017498085
195	0xb96bb7a7	-0.00022479762
196	0xbb90c886	-0.0044184355
197	0x3b54bcfd	0.0032461279
198	0xbb168441	-0.0022967013
199	0x3d567ff8	0.052368134
200	0x399baafc	0.00029691297
201	0x3b77d07e	0.003781348
202	0x3e2f2e28	0.17107451
203	0xbb1c5f20	-0.002386041
204	0xb924fb9c	-0.0001573399
205	0x3a7e8496	0.0009709088
206	0x3b5a4a0e	0.00333083
207	0xbba8e968	-0.0051547773
208	0xbb0aaa47	-0.0021158622
209	0xbb53038c	-0.003219816
210	0x3bcf66e8	0.006329406
211	0xbb77b2d5	-0.0037795801
212	0xbab56f1f	-0.0013842321
213	0xbb1b7564	-0.0023721093
214	0xbbb99988	-0.0056640543
215	0xbb437e67	-0.002982998
216	0xbd7c70e4	-0.0616311
217	0x3ab60fbf	0.0013890191
218	0x3c3e2151	0.011604623
219	0x3d679d87	0.056546714
220	0x3bb92260	0.00564985
221	0xbb97cbfe	-0.004632472
222	0xbcfcd15f	-0.030861555
223	0x3b368237	0.002784861
224	0xbb269d70	-0.002542343
225	0xbb2cf3fb	-0.002639054
226	0xb92dd40d	-0.00016577561
227	0xbadb6210	-0.0016737599
228	0x3a2a6663	0.0006500242
229	0x3c116718	0.008874677
230	0xbe95107a	-0.29114133
231	0x3b0a2ae3	0.0021082691
232	0xbb8eae06	-0.0043542413
233	0xbbbb9b88	-0.005725328
234	0x3ae0417b	0.0017109358
235	0x3c1021aa	0.008797089
236	0xbb6f1fc9	-0.0036487451
237	0x3b2c6cbd	0.002630993
238	0x3a799a28	0.0009521567
239	0x3d29dd7c	0.04147099
240	0xbc053eb0	-0.008132622
241	0x3c25e282	0.010124804
242	0xbc9b1f0d	-0.018935705
243	0x3c2d1a32	0.0105653275
244	0x3b78cc3f	0.0037963537
245	0xba29e22b	-0.000648054
246	0xbb4d8194	-0.0031357752
247	0xbba77e12	-0.0051114643
248	0x3a047d35	0.00050540577
249	0xbb89fe5b	-0.0042112297
250	0xbcbc90ad	-0.023018206
251	0x3b2caf8b	0.002634975
252	0xb9cce3cf	-0.00039079643
253	0x3afba390	0.0019198526
254	0x3e6a462e	0.22878334
255	0x3c4aec36	0.012385419

Decoder.dec1.bias f4 [256]
0	0xbc98c85e	-0.01865023
1	0xbd08415f	-0.033265468
2	0xbba9038b	-0.005157893
3	0xbea70057	-0.32617447
4	0x3d8ecf6f	0.069731586
5	0x3d3c9f5b	0.04605041
6	0xbe8f356b	-0.27970442
7	0xbccc4ef7	-0.024939997
8	0x3d92ee59	0.071743675
9	0xbeab8e50	-0.33507013
10	0x3b21fc7f	0.002471715
11	0xbe6071e8	-0.21918452
12	0xbe56c356	-0.20972952
13	0xbae3a5d2	-0.0017368144
14	0x3d9bc19e	0.07605289
15	0xbdd96c0a	-0.1061631
16	0x3dd407f8	0.103530824
17	0xbda24393	-0.07923045
18	0x3cae2757	0.021258993
19	0x3cdc1fb2	0.026870582
20	0xbd6a6747	-0.0572274
21	0xbce6f067	-0.028190805
22	0xbbc9cb57	-0.006158273
23	0xbc3ea213	-0.011635321
24	0xbbb444af	-0.005501352
25	0xbc7b9487	-0.015355236
26	0x3c24fbf3	0.010069835
27	0xbd4e7ce5	-0.050412077
28	0x3d308d50	0.043103516
29	0xbb7be498	-0.0038435813
30	0x3c209145	0.00980026
31	0xbdbdf353	-0.09274926
32	0x3c02d84f	0.007986142
33	0xbec56746	-0.38555354
34	0xbdaf7ef1	-0.08569134
35	0xbe875b2f	-0.26436755
36	0xbe815b16	-0.25264806
37	0x3d8a0345	0.06738905
38	0x3dbd086a	0.092301205
39	0xbddd7a04	-0.10814288
40	0xbe90f6ad	-0.283132
41	0xbce3f07c	-0.027824633
42	0xbe38d608	-0.18050396
43	0xbb83b982	-0.004019917
44	0x3d8503d4	0.06494871
45	0xbe349211	-0.17633845
46	0xbe475a98	-0.19468153
47	0x3d34fe6b	0.044187944
48	0xbcd286c0	-0.02569902
49	0xbcd55ddc	-0.026045732
50	0xbe51332f	-0.20429681
51	0x3cb72af0	0.022359341
52	0x3c15a22a	0.009132901
53	0xbd81c387	-0.06336122
54	0x3c6da508	0.014504679
55	0xbc59988a	-0.013280997
56	0xbde90143	-0.11377194
57	0xbe2c98c2	-0.16855147
58	0xbd5cd7e1	-0.053916816
59	0xbebe32c8	-0.37148118
60	0xbe52a5f0	-0.20571113
61	0x3bd8d49d	0.0066171424
62	0xbcb83b29	-0.022489147
63	0x3daae647	0.08344703
64	0xbd831e8c	-0.06402311
65	0x3d2cd082	0.042191036
66	0xbd6a2162	-0.057160743
67	0xbc2dd9ce	-0.010611011
68	0xbccbabd5	-0.02486221
69	0x3c96d9a9	0.018414335
70	0xbc97c55f	-0.018526731
71	0xbd02d2c3	-0.03193928
72	0xbe69c957	-0.22830711
73	0xbc9e149e	-0.01929694
74	0xbc9a9dd0	-0.018874079
75	0xbda52236	-0.08063166
76	0xbe83c229	-0.2573407
77	0xbcb4bb03	-0.02206183
78	0xbdcae3c9	-0.09906728
79	0x3c5afc14	0.013365764
80	0xbc21e115	-0.009880324
81	0xbbbc7eef	-0.0057524364
82	0xbec0d5da	-0.37663156
83	0xbbfae5c0	-0.007656783
84	0x3d920a41	0.07130862
85	0x3d20aebf	0.03922915
86	0xbb2b05b0	-0.002609592
87	0xbc1fdbdf	-0.009757011
88	0xb973d371	-0.00023253054
89	0xbd34be2e	-0.044126682
90	0xb9cf9b8f	-0.00039598017
91	0x3c28ffcd	0.010314894
92	0x3d038775	0.032111604
93	0xbe8e5baf	-0.27804324
94	0x3d5be394	0.053683832
95	0x3db06d12	0.086145535
96	0xbe752d19	-0.23942985
97	0xbb32e79b	-0.0027298692
98	0xbe244bed	-0.16044588
99	0xbe331eca	-0.17492214
100	0x3b1d3606	0.00239885
101	0x3c9c051e	0.019045409
102	0xbe14db79	-0.14536847
103	0x3cc58944	0.024113305
104	0xbdd85fed	-0.105651714
105	0xbe2a5592	-0.16634205
106	0xbace84f4	-0.0015756176
107	0xbddb53a1	-0.1070931
108	0xbc21dee1	-0.009879799
109	0xbe746584	-0.2386685
110	0x3c70f7f2	0.014707552
111	0xbe987c6d	-0.2978243
112	0xbd1a091c	-0.037606344
113	0xbcb930bc	-0.022606246
114	0xbdd620e8	-0.10455495
115	0x3cda7614	0.026667632
116	0x3cae11cc	0.02124872
117	0xbe01d8a5	-0.126803
118	0xbcf070ee	-0.029350724
119	0xbcb85c0f	-0.022504834
120	0xbcd60472	-0.026125167
121	0xbd7d622e	-0.06186121
122	0x3ce06245	0.027390609
123	0x3c8e2b05	0.017354498
124	0x3db2a380	0.087225914
125	0xbe7d3652	-0.24727753
126	0xbda94b6d	-0.082663395
127	0x3ccc679c	0.024951749
128	0xbc9e3929	-0.019314365
129	0x3ca30880	0.019901514
130	0x3cc8544b	0.024454257
131	0xbe8aa243	-0.2707692
132	0x3d6ae3e7	0.05734625
133	0xbda41121	-0.080110796
134	0xbd86abac	-0.065757126
135	0xbcf1d13e	-0.02951872
136	0x3c7bec80	0.01537621
137	0x3c4b8b08	0.012423284
138	0xb9df948b	-0.00042644548
139	0x3cc24608	0.023715034
140	0xbc951781	-0.018199684
141	0xbb7420da	-0.0037251026
142	0xbed57cbd	-0.4169673
143	0xbd31a115	-0.04336651
144	0x3c824f35	0.01590691
145	0xbde9ccf6	-0.11416046
146	0xbe2a6878	-0.16641414
147	0xbc87073d	-0.016482944
148	0xbded1c25	-0.11577634
149	0xbe292474	-0.16517812
150	0x3c41ccd6	0.011828622
151	0xbe72c9c2	-0.23709777
152	0xbe44e911	-0.19229533
153	0x3d6f09d2	0.058358975
154	0xbe7e92fb	-0.24860756
155	0x3cdd9ff3	0.027053809
156	0x3c1a6a4c	0.009424757
157	0xbc7ab714	-0.015302438
158	0xbd69c6ac	-0.057074234
159	0x3db6d372	0.08927049
160	0xb9f86142	-0.0004737471
161	0x3c62604b	0.013816903
162	0x3c426f23	0.011867317
163	0xbc043b4f	-0.008070781
164	0x3cbd4396	0.023103517
165	0x3dc07008	0.09396368
166	0xbd69a204	-0.057039276
167	0xbeac9e32	-0.33714443
168	0xbd714b09	-0.05890945
169	0xbce2c6ab	-0.027682623
170	0x3ca60a89	0.020268695
171	0x3ab16e95	0.0013536984
172	0x3da98225	0.08276776
173	0xbea9d0ec	-0.33167207
174	0xbca03d04	-0.019560345
175	0x3c84217b	0.016129246
176	0xbea04189	-0.313
177	0x3ca81876	0.020519476
178	0xbcdb3bd3	-0.026761925
179	0xbe30d4ac	-0.17268628
180	0xbdc5356e	-0.096293315
181	0x3d093903	0.033501636
182	0x3cbcfda0	0.023070157
183	0xbd1e9d5b	-0.038724285
184	0x3914e837	0.00014200887
185	0x3b15d3b5	0.0022861783
186	0xbe99a8e5	-0.3001167
187	0xbeae4cc1	-0.34042934
188	0xbcaa5714	-0.020793475
189	0xbebd6165	-0.3698837
190	0x3b8aa4b1	0.0042310585
191	0xbb8b5b93	-0.00425286
192	0xbd616151	-0.05502445
193	0xbd396269	-0.045259867
194	0xbd1628d8	-0.036660045
195	0xbd99f41c	-0.07517263
196	0x3b261246	0.0025340482
197	0x3c0cba9b	0.008589412
198	0xbea4e594	-0.32206404
199	0x3c54e29a	0.012993479
200	0xbb19fa4c	-0.0023495136
201	0x3b556a16	0.0032564453
202	0x3da1543e	0.07877396
203	0x3db85535	0.09000627
204	0xbc4dd135	-0.012562086
205	0x3ce670d1	0.028129967
206	0x3ccd2d09	0.025045888
207	0xbcf5546a	-0.029947478
208	0xbd732ee5	-0.059370894
209	0x3b316581	0.0027068558
210	0xbaeaf0ff	-0.0017924606
211	0xbdd8e465	-0.10590438
212	0xbad62daf	-0.0016340519
213	0xbb5ee931	-0.0034013505
214	0xbf0408b0	-0.51575756
215	0xbd0da468	-0.03458062
216	0xbd14256d	-0.036168505
217	0x3b877a23	0.004134433
218	0xbb5f4738	-0.003406955
219	0x3ca29d34	0.01985035
220	0xbddf7238	-0.109104574
221	0x3caa9910	0.020824939
222	0xbe9069d8	-0.28205752
223	0xbd4e93cd	-0.050433923
224	0x3caad812	0.020854983
225	0xbcf49c27	-0.029859615
226	0x3c21295e	0.009836523
227	0xbd56c307	-0.052432086
228	0xbd5c6d45	-0.053815145
229	0xbe2410cf	-0.16022037
230	0xbc1f015a	-0.009704912
231	0xbcb4dc51	-0.022077711
232	0xbc7c0f60	-0.015384525
233	0xbe8072c9	-0.25087574
234	0xbc3945d6	-0.011308154
235	0xbca413d1	-0.02002898
236	0xbcdf8d71	-0.027289124
237	0x3dab48be	0.08363484
238	0xbc1005cf	-0.008790447
239	0x3ca859c3	0.020550614
240	0x3cb30cd4	0.021856703
241	0xbe39a2ef	-0.1812856
242	0xbe9ccd17	-0.3062522
243	0xbaefc034	-0.0018291534
244	0xbc1af436	-0.0094576385
245	0xbdebf3f8	-0.11521143
246	0xbb36d9db	-0.0027900848
247	0xbc43b5b8	-0.011945181
248	0xba58c338	-0.0008268836
249	0x3dc8a501	0.09797097
250	0xbdf00c4e	-0.11721097
251	0xbcf2b15a	-0.029625583
252	0x3cf0824e	0.02935901
253	0xbe65bb60	-0.22434759
254	0xbe8fad6f	-0.28062007
255	0xbe7ea49e	-0.24867484

Decoder.dec2.weight f4 [31, 256]
0	0x3d0a7fde	0.03381335
1	0x3e2eb23a	0.17060176
2	0x3e52ce86	0.20586595
3	0xbc9dd6e0	-0.0192675
4	0xbbb5964d	-0.005541599
5	0xbd5e708c	-0.05430655
6	0x3d7d99d0	0.061914265
7	0x3dd963de	0.10614751
8	0xbd2a158d	-0.04152446
9	0xbcdee6a3	-0.027209586
10	0x3e37634b	0.17908971
11	0x3c890b20	0.016728938
12	0x3dded33e	0.10880135
13	0x3d9bbafb	0.07604023
14	0xbc652469	-0.013985732
15	0xbbca1be9	-0.006167878
16	0x3bb03673	0.0053775846
17	0xbe0cc4d8	-0.13746965
18	0xbe52bcb4	-0.20579797
19	0xbdce46dc	-0.10072109
20	0x3d57ba9d	0.052668203
21	0xbd7f218b	-0.06228785
22	0x3e68b841	0.22726537
23	0x3e0d5116	0.13800463
24	0x3d941c81	0.07231999
25	0x3e2d2f8c	0.16912669
26	0x3c19d02a	0.009388009
27	0x3e1850f4	0.14874631
28	0xbc8f0022	-0.017456118
29	0x3e115ea4	0.14196259
30	0x3e40dabe	0.18833444
31	0x3dc0296c	0.093829006
32	0xbe6f156a	-0.23348013
33	0xbd0b259c	-0.033971414
34	0xbd98f2a9	-0.07468159
35	0x3dd462d1	0.1037041
36	0x3d2dba52	0.042414017
37	0x3d1a298f	0.03763729
38	0xbceb0e44	-0.028693326
39	0xbd063330	-0.03276366
40	0x3dbd54e9	0.09244711
41	0x3d0f4fc8	0.034988195
42	0xbcfe49fb	-0.031041136
43	0x3ca576b0	0.020198196
44	0xbc6de640	-0.014520228
45	0x3de708c1	0.112809666
46	0x3d8107d2	0.0630032
47	0xbd23602b	-0.039886635
48	0x3d47a138	0.048737735
49	0x3e761c0d	0.24034138
50	0x3b1d3706	0.0023989095
51	0x3dbfdc02	0.09368135
52	0xbe26295c	-0.16226715
53	0x3d020f66	0.031752966
54	0xbe651b70	-0.22373748
55	0x3d585a3d	0.052820433
56	0x3b9b7863	0.004744576
57	0x3d1efa96	0.038813196
58	0xbd533965	-0.051568408
59	0x3b4d5120	0.0031328872
60	0x3de8996f	0.1135739
61	0xbddd1a64	-0.10796049
62	0xbd75419a	-0.059877016
63	0xbc59e197	-0.013298414
64	0x3d89e7f8	0.06733698
65	0x3d6b0f46	0.057387613
66	0x3dbaea81	0.09126759
67	0x3d91e1ce	0.07123147
68	0xbbbcb3c7	-0.005758736
69	0xbddfaf3f	-0.109220974
70	0x3d2186c3	0.03943516
71	0x3ba13cc9	0.0049205762
72	0x3e667502	0.22505572
73	0x3c65dd80	0.0140298605
74	0xbce848a4	-0.02835495
75	0x3d0b7a47	0.03405216
76	0x3d0e5fde	0.034759395
77	0x3de45f33	0.1115097
78	0x3debab59	0.11507291
79	0x3e3778e5	0.17917211
80	0xbde7bf9f	-0.11315846
81	0x3c7aeab2	0.015314745
82	0xbe482736	-0.19546208
83	0xbd659f8e	-0.056060366
84	0x3d5090d7	0.05091938
85	0x3ce137c5	0.027492413
86	0xbe22f792	-0.15914753
87	0x3e149ca2	0.14512876
88	0xbd9146ad	-0.070935585
89	0x3db17717	0.08665293
90	0x3d3d027e	0.046144955
91	0xbcd4b46c	-0.025964938
92	0x3a376cf9	0.0006997134
93	0xbc7a3302	-0.01527095
94	0x3b663d4e	0.0035131755
95	0x3b8555cc	0.0040690657
96	0x3d5d6c33	0.054058265
97	0xbe9b94b6	-0.30386895
98	0x3d27d0e4	0.040970698
99	0xbc7dd489	-0.015492567
100	0xbe419bbe	-0.18907067
101	0xbe397d39	-0.18114175
102	0xbddf884a	-0.10914667
103	0xbe73dc27	-0.2381445
104	0x3da39c9c	0.07988855
105	0x3dde826b	0.10864719
106	0xbcc3890a	-0.023869056
107	0xbc720139	-0.014770799
108	0x3dd88853	0.10572877
109	0x3d971006	0.07376103
110	0xbe36b7ca	-0.17843547
111	0xbbcf21ac	-0.0063211527
112	0x3dfa7651	0.12229598
113	0x3e026c34	0.12736589
114	0x3d70d86f	0.058800157
115	0xbd3d1c08	-0.04616931
116	0xbd04f5dd	-0.032461036
117	0xbe95ff22	-0.29296213
118	0xbdfcf9b5	-0.12352315
119	0x3d55c3fa	0.05218885
120	0x3d6f4d69	0.058423433
121	0x3e246da1	0.16057445
122	0xbed90b41	-0.423914
123	0xbced7955	-0.02898852
124	0xbc8fa7ee	-0.01753613
125	0xbd307ba5	-0.043086667
126	0x3c2a4f70	0.010394916
127	0xbe393b70	-0.1808908
128	0xbbd285c1	-0.006424636
129	0xbe5586ae	-0.20852157
130	0xbe26e57c	-0.16298479
131	0x3dff8ad7	0.124776535
132	0xbbe0bb99	-0.006858301
133	0xb9ae84c4	-0.00033286784
134	0x3e65e466	0.22450408
135	0xbd0be778	-0.034156293
136	0xbecb884a	-0.39752418
137	0x3de45522	0.1114905
138	0x3db7815f	0.089602225
139	0xbee2007f	-0.44141003
140	0x3e0930d7	0.13397537
141	0xbe18c864	-0.14920193
142	0xbe217e28	-0.15770781
143	0x3c094048	0.008377142
144	0xbdec556f	-0.11539733
145	0x3d4eacbd	0.050457705
146	0x3d2f501e	0.042801015
147	0xbd0b090e	-0.033944182
148	0x3dadedfd	0.08492658
149	0x3d792b51	0.060832325
150	0xbcb31f2b	-0.021865448
151	0x3dc4531a	0.09586163
152	0x3d105924	0.03524126
153	0x3cc61c3d	0.024183387
154	0x3c0fe78a	0.008783231
155	0xbe430884	-0.19046217
156	0xbe40edb4	-0.18840677
157	0x3d86c99b	0.06581422
158	0xbcc17314	-0.023614444
159	0xbc892188	-0.016739622
160	0x3db6e9cd	0.08931313
161	0xbe1e7fc3	-0.15478425
162	0xbe0d38aa	-0.13791147
163	0xbe44c297	-0.19214855
164	0xbe585ade	-0.21128413
165	0x3b7f0233	0.0038911223
166	0x3c9e8075	0.019348362
167	0xbe126379	-0.14295758
168	0x3b2e4d29	0.0026596284
169	0x3e0828dd	0.13296838
170	0xbdbc375c	-0.091902465
171	0xbe52964d	-0.20565148
172	0x3b68c7c1	0.0035519453
173	0xbc1fff19	-0.00976541
174	0x3d7ad201	0.06123543
175	0xbd506d19	-0.050885294
176	0xbde8a589	-0.11359698
177	0xbe1a8d20	-0.15092897
178	0x3e3dcca7	0.185351
179	0xbdcb6dee	-0.09933077
180	0xbc8bcb20	-0.017064631
181	0xbd2fd293	-0.04292543
182	0xbe828bb0	-0.25497198
183	0x3c74f5d8	0.014951192
184	0xbe879a8c	-0.26485097
185	0xbdd348c9	-0.10316617
186	0xbd8a5515	-0.06754509
187	0xbd5f3bba	-0.05450032
188	0x3d2a9b88	0.041652232
189	0xbc475c34	-0.012167979
190	0xbe479a9b	-0.19492571
191	0x3da4fa55	0.080555595
192	0x3d85bde9	0.06530363
193	0xbd7c474a	-0.061591424
194	0x3da5cccb	0.08095702
195	0x3d84180c	0.06449899
196	0xbdcf1c26	-0.10112791
197	0xbdcf22df	-0.10114073
198	0xbd864b72	-0.06557359
199	0xbe800670	-0.2500491
200	0xbd3f711c	-0.04673873
201	0xbd23de1a	-0.040006734
202	0xbc862153	-0.016373312
203	0xbcf021a3	-0.029312914
204	0x3d54cca6	0.05195298
205	0x3ce3deb9	0.027816163
206	0xbe050e31	-0.12993695
207	0xbcf5a6fd	-0.029986853
208	0xbd4d9321	-0.05018914
209	0xbe7b5190	-0.24542832
210	0x3dcd1b3b	0.100149594
211	0x3d2e4592	0.042546816
212	0xbc8718b5	-0.016491273
213	0x3d3364a8	0.043797165
214	0xbecb1441	-0.3966389
215	0xbd4a9caf	-0.04946583
216	0x3da858e8	0.082200825
217	0xbe025ac1	-0.12729932
218	0xbe7b83d4	-0.24562007
219	0xbdfd0d51	-0.123560555
220	0x3c019c32	0.007910775
221	0xbe07e112	-0.13269451
222	0x3d50a996	0.05094298
223	0x3cd0a255	0.025468031
224	0xbe85d719	-0.2614067
225	0xbd726ed5	-0.05918773
226	0xbe3379b5	-0.17526896
227	0x3d12265d	0.035681117
228	0x3db8859a	0.090098575
229	0x3d5a0d1b	0.053235155
230	0x3ddaf20f	0.106907
231	0x3dc586aa	0.09644826
232	0x3e004227	0.12525235
233	0xbd49ffdb	-0.04931627
234	0x3e71ab7f	0.23600577
235	0xbdc0c8c6	-0.094132945
236	0x3e318425	0.17335565
237	0xbcf32094	-0.02967862
238	0x3d79bd7d	0.060971726
239	0xbe160d6e	-0.1465356
240	0xbda39cbf	-0.07988881
241	0x3e0636d8	0.13106859
242	0xbd111456	-0.035419784
243	0xbd552a9b	-0.052042585
244	0xbb014189	-0.00197229
245	0x3d5a7a88	0.05333951
246	0x3deae1ee	0.11468874
247	0x3d39579a	0.04524956
248	0xbe034970	-0.12820983
249	0x3b80a2f1	0.003925674
250	0x3db2a18a	0.087222174
251	0x3e21776a	0.15768209
252	0xbe191260	-0.14948416
253	0x3d45f831	0.048332397
254	0x3dac9266	0.08426361
255	0xbc0931bc	-0.008373674

Decoder.dec2.bias f4 [31]
0	0xbed864e1	-0.42264464
1	0xbe2687c6	-0.16262731
2	0x400279c2	2.0386815
3	0xbdf464db	-0.11933299
4	0x3f4d7960	0.8026333
5	0x3d19f1d9	0.03758416
6	0xc01192cd	-2.274585
7	0x3e31c1ad	0.17359038
8	0xbda21b5c	-0.07915375
9	0x3c34991b	0.011022831
10	0x3fac164e	1.3444307
11	0x3eeb06bf	0.45903584
12	0x3fb20ab9	1.3909522
13	0xbfe74be4	-1.8070035
14	0x3fe1ca67	1.7639893
15	0xbfee54a6	-1.8619583
16	0xbd8b014b	-0.06787356
17	0x3f8c412a	1.0957386
18	0xbdaefd4c	-0.08544406
19	0xbf97e088	-1.1865396
20	0xbdc65a85	-0.09685234
21	0xbf825857	-1.0183209
22	0xc00bb654	-2.1830034
23	0xbe22ef7c	-0.15911669
24	0x3cb4c01b	0.02206426
25	0x401802cf	2.3751714
26	0x3dca478a	0.09876926
27	0x4041ae0a	3.0262475
28	0x3dc07b64	0.09398535
29	0x3fa50001	1.2890626
30	0xbff954cc	-1.9479003
