results/7_niid/model_favg_n_2_m_0.pt (torch, 121540 bytes, 8 tensors)

Encoder.enc1.weight f4 [256, 22]
000000 30 ef cb bc 6b 04 f2 b9 3b 3e 95 bd 87 1b 22 3d
       -0.024894327 -0.0004616113 -0.0728726 0.039577033
000010 a3 50 82 bd de 5e d0 3d 8e c0 4f 3c 36 21 c8 3d
       -0.063630365 0.101743445 0.012680186 0.097719595
000020 bd a1 22 3c 0f 4b f3 3c ad d3 8f bc 9d 74 78 3d
       0.009926257 0.029698877 -0.01755699 0.060658086
000030 df 4a 94 3c a1 e9 8c 3d 79 d5 22 bc f9 46 12 3d
       0.018102108 0.06880499 -0.009938591 0.035712216
000040 fe 8c 93 bd 74 5d 5f bc c1 45 a0 3d 99 a8 58 bd
       -0.072046265 -0.013633121 0.078258045 -0.052895162
000050 f0 b3 cb 3c 86 33 d0 bd e1 09 62 3d 3c cb c8 bd
       0.024866074 -0.10166077 0.055185203 -0.09804389
000060 c9 67 a1 bd 36 51 c9 3d f3 54 3b bd 01 01 26 be
       -0.078811236 0.09829943 -0.04573531 -0.1621132
000070 1d 38 0e 3d b0 1d 91 bd 1e f7 b5 bd 0a 0b 7b 3d
       0.034721483 -0.070857406 -0.088850245 0.061289825
000080 88 79 08 be a3 6d 4d be 09 4e 6e 3b a2 cc 9b 3d
       -0.1332761 -0.20061354 0.003636243 0.0760739
000090 55 0c af bd 9b 6d 34 be 93 4c 0b bb b4 17 93 3d
       -0.08547274 -0.17619936 -0.0021255359 0.071822554
0000a0 e9 0e 86 3b 51 d8 e2 3d a9 ad 0b bc f9 7c c9 bd
       0.004091133 0.11076415 -0.0085252905 -0.0983829
0000b0 a5 0d ad bb f0 4a cf 3c 42 2c a9 bd 1f 40 1c 3c
       -0.0052811676 0.025304288 -0.08260395 0.009536772
0000c0 2a 7f 51 3c 5f b0 16 bc 8e f9 2e ba fc 01 46 bd
       0.012786666 -0.009197324 -0.000667476 -0.048341736
0000d0 41 7e 54 bc 49 8f 0d bd ca ef 74 bb 30 d8 80 bd
       -0.012969554 -0.034560475 -0.003737437 -0.062912345
0000e0 07 fc e9 bc 7d 99 14 bd d4 7b de bb 88 b7 c1 ba
       -0.028562559 -0.03627919 -0.006789664 -0.0014779428
0000f0 db 70 e3 3c bd 38 51 bc d5 74 63 be 9e fa 4f 3c
       0.027763775 -0.012769875 -0.22212537 0.012694029
000100 5e 76 d2 3c de f1 36 3d 30 62 b9 bd f1 0d 76 3d
       0.025691207 0.044664256 -0.09051931 0.06007189
000110 2f fa ad bc ca 8a 42 bd d9 18 4f 3d f7 85 72 3d
       -0.02123746 -0.04749564 0.050560806 0.05920979
000120 8c 0a 2d 3c 9e e5 c1 3d d2 f5 97 3d d3 e7 2b be
       0.010561597 0.09467624 0.074199334 -0.16787653
000130 cd ce b5 3c ce 40 7a 3d 13 a3 cb 3c 06 3b ac bd
       0.022193337 0.06109696 0.024858033 -0.08409695
000140 eb 2e 9d bb 12 a9 4b 3d d8 e0 47 bd a6 9b 21 3c
       -0.004796853 0.049721785 -0.048798412 0.00986377
000150 0d 6f 6b 3d 66 a1 5a 3d 99 9b 65 bd 4a 87 93 bc
       0.057478953 0.053376578 -0.056056593 -0.018008847
000160 48 db ff bb ff 3d 6a bc 3b 1d 06 3d 46 4e 6f 3d
       -0.007808123 -0.014297008 0.03274272 0.058424257
000170 9d 15 c8 bc 6f 5d 3e bd 40 7f 35 bc f2 2a 0c bd
       -0.024424369 -0.046475824 -0.011077702 -0.034220643
000180 4b 35 7f bc eb 4d 03 bd 51 e7 8d 3b ec dd e2 bb
       -0.015576671 -0.03205673 0.0043305536 -0.006923428
000190 24 99 c6 bc db ef 80 3b fd 99 51 3c cf ab 80 bc
       -0.024242945 0.003934843 0.012793061 -0.015706925
0001a0 b7 ae 21 bd 1b 84 30 3a 0a f8 0e 3e 3c f0 9a bc
       -0.03947326 0.00067335524 0.13961807 -0.01891338
0001b0 e8 54 ca 3d 66 4d 26 bc 9a e6 e3 bd 7e a5 ee 3d
       0.09879476 -0.010150289 -0.11127968 0.11652659
0001c0 b2 b1 7b be 35 fc 60 3c 30 e7 6b bc 20 4d 0f be
       -0.24579504 0.013732006 -0.014398381 -0.13994265
0001d0 7c 91 d1 39 c0 60 e8 3d 8a 27 21 3d e8 89 14 be
       0.0003997198 0.113465786 0.039344348 -0.14505732
0001e0 25 83 03 be 72 64 35 be 0c ac b1 3a d3 f5 35 3c
       -0.12842996 -0.17714098 0.0013555302 0.011105972
0001f0 2a b2 59 3a f3 23 8f bd 50 b5 48 bd 6f fb 84 3c
       0.00083044416 -0.06989279 -0.049001038 0.016233174
000200 62 13 13 3d fc 0c e9 bc af 6a 07 3c 71 89 5e bd
       0.035907157 -0.028448574 0.008265181 -0.054330293
000210 16 d1 fc 3c 6e 58 ba bc 42 c1 6b bc fb 38 eb bb
       0.030861419 -0.022747245 -0.014389338 -0.0071784235
000220 b3 51 93 3b e9 20 85 3c 9a 8e d1 3b 12 f0 e6 ba
       0.0044958233 0.016251044 0.0063951733 -0.0017619154
000230 ed a4 c1 bb ff 8f e0 3a 1a c2 79 bc 0c e4 00 bd
       -0.0059095533 0.0017132758 -0.015244031 -0.031467482
000240 a4 1a c9 3b c7 93 a4 bc 39 eb d6 3b be 24 56 3e
       0.006137209 -0.020089997 0.0065588024 0.20912454
000250 dc f5 22 bc af 00 38 3b 83 4d 0e 3b 80 7c 24 bb
       -0.009946313 0.002807658 0.002171368 -0.0025098622
000260 34 9d b0 bb c9 7b 4a 3c 8e 02 5b bd 5b 07 83 3d
       -0.005389834 0.012358614 -0.053469233 0.06397887
000270 a6 96 5c 3d f9 ef e6 bb 32 5a 85 bc 72 05 ce 3c
       0.053854607 -0.00704765 -0.01627836 0.02514908
000280 66 84 09 bd 80 1c be 3c e2 64 ae bd 32 50 1d be
       -0.03357353 0.02320695 -0.085153356 -0.15362623
000290 a3 f5 15 3d e3 51 f2 3d 18 60 4e 3d 26 bf b3 bd
       0.03661121 0.11832025 0.05038461 -0.08776693
0002a0 f5 a1 d3 3d d4 f1 3d 3d aa 50 55 3d 9b 7a 26 bd
       0.10333625 0.046373203 0.05207888 -0.04064427
0002b0 2a 38 b1 3b fd 20 1c 3d f4 e9 69 bd 14 7f 23 bd
       0.0054083066 0.038117398 -0.05710788 -0.039916113
0002c0 56 9d 0c 3d 6c 35 91 bc 08 38 26 bd 61 f6 f6 3c
       0.034329735 -0.017725669 -0.04058078 0.03014678
0002d0 b6 bb b5 3c 93 0b 93 3d bb 08 25 3c 10 2c 9d 3d
       0.022184234 0.07179942 0.010072882 0.0767442
0002e0 ee dd 92 3d 1c b2 09 3c 7c df 72 bc ac c9 02 be
       0.07171236 0.008404281 -0.014823791 -0.12772244
0002f0 3a 4e 25 bc e2 5e 78 3d cf 4d 65 3c 0a bc 2b bd
       -0.010089451 0.060637362 0.013995602 -0.041927375
000300 fd 99 ea 3c b6 a4 9e bb 36 ff c0 bd 5c cc 09 bc
       0.02863788 -0.0048414124 -0.094236776 -0.0084105395
000310 f2 e6 9d 3d a5 0f a6 bd 55 1a 05 bc 0c e5 a3 bb
       0.07710065 -0.08108453 -0.008123954 -0.0050016697
000320 ff 05 e5 3c a7 bc a2 3d c1 c5 e4 3b a3 61 3c 3b
       0.02795696 0.07946139 0.006981582 0.002874472
000330 e7 9b d6 bc 51 e3 4b bd 12 27 52 b7 f4 d0 be bd
       -0.026197387 -0.049777333 -1.2526072e-05 -0.093171984
000340 15 6b ba ba 54 d0 1b be 06 fa d6 bc c7 3e 90 be
       -0.0014222587 -0.1521619 -0.026242267 -0.28172895
000350 ba 13 83 3a fc d0 97 3c 8a 4a a8 38 f5 4a 5f bc
       0.0010000386 0.018532269 8.024748e-05 -0.013628711
000360 b1 92 02 3c d1 b9 5d 3b 24 d6 59 39 68 7b ae bc
       0.007969544 0.003383268 0.00020774506 -0.021299079
000370 19 60 5f bd 0e 34 52 be cc 45 5e 3c 76 c3 e4 3c
       -0.054535005 -0.2052767 0.013566446 0.027925234
000380 b0 ed 5f bd 18 85 97 3d a2 1a 2f bc ae d8 ab bd
       -0.054670036 0.073984325 -0.010687502 -0.08390938
000390 ab c6 8f 3c cb e4 e9 bd 15 55 d0 3d a0 77 9f bc
       0.017550787 -0.11420592 0.10172478 -0.019466221
0003a0 f9 86 4e bd 3d 9d 1d 3d ed 5a 83 bb e8 e4 01 3d
       -0.05042169 0.038480032 -0.004008642 0.031712443
0003b0 a9 c1 80 3b b3 06 a7 bb 5b 46 d6 bc 65 16 f9 bd
       0.003929336 -0.005097234 -0.026156595 -0.121624745
0003c0 d7 66 1b 3d 2f 10 05 bd b7 9c 16 bc 91 57 36 3c
       0.037939873 -0.032486137 -0.009192637 0.011129276
0003d0 58 a8 61 bd 83 2d 0f 3d e3 58 8e bd 6a 5f 2d bd
       -0.055092186 0.034955513 -0.069505475 -0.042327322
0003e0 84 bd 14 3c 86 03 ce bc 4f 00 4f bd 87 74 e4 3b
       0.009078387 -0.025148164 -0.050537404 0.006971899
0003f0 b4 fe f7 bb c6 61 e8 ba c9 b1 91 bd 9c 52 61 3d
       -0.007568205 -0.0017729334 -0.07113988 0.055010423

Encoder.enc1.bias f4 [256]
000000 b2 5e 1b 3e 15 b2 63 be 75 4f 10 be f4 07 07 3e
       0.15172842 -0.22235902 -0.1409281 0.13186628
000010 ac 99 dc 3b 4b 53 80 bd 1f c8 a0 be 0b 97 cc 3d
       0.0067321863 -0.06265887 -0.3140268 0.09989747
000020 96 2b 52 be a1 4b 46 3e 64 7a b6 be d6 b3 bd 3a
       -0.20524439 0.19364788 -0.35640252 0.0014473151
000030 2d 60 65 3e 6b 37 4b bd b2 ab 2a be ac 24 c6 bd
       0.2239997 -0.049613398 -0.16667059 -0.09674963
000040 5c 87 e6 3c e7 07 62 be 4f 49 cb bd f8 77 4b bc
       0.028140716 -0.22073327 -0.09926092 -0.0124187395
000050 52 44 6c 3e f2 d9 9e be 95 45 92 bd 4c 44 d3 bd
       0.23072937 -0.31025654 -0.07142178 -0.10315761
000060 34 bc 4f be b8 24 46 3e f7 c0 4e be c8 14 d9 3d
       -0.20286638 0.19349945 -0.20190798 0.10599667
000070 17 d1 12 3d bf f4 96 3d 40 ba 10 3e df 70 18 3e
       0.035843935 0.073709 0.14133549 0.14886807
000080 a0 bf 81 bd da 32 65 be 67 e3 65 ba 89 70 9c be
       -0.06335378 -0.2238268 -0.00087695423 -0.30554608
000090 c2 03 88 3d b9 06 59 3e 51 6d 84 be af 11 55 be
       0.06641342 0.2119397 -0.25864652 -0.20807527
0000a0 1b 74 ff 3d 56 92 7a be 56 eb 14 be dd 48 d7 3d
       0.12473317 -0.24469885 -0.14542899 0.105119444
0000b0 be 8c 69 bd 62 2e 55 bc 92 f6 88 3e 17 ae 1f bc
       -0.057018988 -0.013011547 0.26750618 -0.009746096
0000c0 7d 18 5d be 94 cb 72 be 42 a1 33 3e 58 0f d1 bd
       -0.21591373 -0.23710471 0.17541984 -0.10208005
0000d0 a4 02 d6 3b 79 d5 55 be 4f 3f 5e 3c 9e 91 7a be
       0.0065310765 -0.20882215 0.013564899 -0.24469611
0000e0 0b 79 86 be 10 1f 7f bd d4 c5 8b bd 9c 86 c0 3b
       -0.26264223 -0.062285483 -0.06824842 0.0058754217
0000f0 0d 8f 8e be 1e 30 61 bd 49 ee 66 bc 0b 19 e9 bc
       -0.27843514 -0.05497753 -0.014094898 -0.028454324
000100 0b 11 0b 3e af e7 13 be 30 c2 a7 be 92 4f 1c be
       0.1358072 -0.14443849 -0.3276534 -0.15264729
000110 e8 5b 21 3e c6 be 40 3e e5 8d 8a be e7 5d 79 3e
       0.15757716 0.18822774 -0.27061382 0.24352227
000120 b2 3b 89 bd c3 9b 84 be 51 46 bb bd 53 82 01 3e
       -0.06700839 -0.25900087 -0.09144271 0.12647371
000130 0b b4 12 be de 5f be 3c 98 9f a4 bd 6c ab 74 be
       -0.14326493 0.023239072 -0.080382526 -0.23893517
000140 2d 00 cc be dc e1 18 3d d7 d4 46 3e f8 0d b0 bc
       -0.39843884 0.03732477 0.1941713 -0.021491036
000150 7a 5a 08 be 40 57 ec bd d0 21 49 be a3 c9 97 3d
       -0.13315764 -0.11540079 -0.19641805 0.07411506
000160 ea b6 5a be da 15 4b be ea b4 8b be 71 4d d2 bd
       -0.21358839 -0.19832554 -0.27286464 -0.10268677
000170 ad c2 d7 3d 49 9b 53 be 4a 11 10 be 8f 4f 0c be
       0.10535178 -0.20664705 -0.14069095 -0.13702224
000180 67 a5 38 3d a7 a6 95 bd 60 20 4d bd 45 45 38 3d
       0.045079615 -0.07307177 -0.050079703 0.044987936
000190 bc 71 81 bd fe d7 43 3c a0 ca 9c be b3 7e ec bd
       -0.06320521 0.011953352 -0.3062334 -0.115476035
0001a0 4b 37 b7 3d d9 e9 05 3e 8e c0 81 be ed 4d 69 be
       0.08946093 0.13077487 -0.2534222 -0.22783633
0001b0 b7 9c 7f be 96 03 60 bc 11 49 3c be 3b 8a f8 3d
       -0.24962126 -0.01367273 -0.18387248 0.1213574
0001c0 cb 39 8d 3b 48 8e 18 be 8e a9 25 be 90 b8 f7 bd
       0.004309868 -0.14898026 -0.16177961 -0.120957494
0001d0 f7 e9 09 3e d5 ff 8b be ba bc 4e 3d 16 63 4b be
       0.13468157 -0.27343622 0.050472952 -0.19862017
0001e0 84 e1 80 bd 70 01 65 be 8b 73 1d 3c a9 24 7f be
       -0.06293014 -0.2236383 0.009610067 -0.24916328
0001f0 13 ec 89 be 7a fa 7f be d4 12 92 3a e7 81 20 be
       -0.26937923 -0.24997893 0.0011144527 -0.15674554
000200 37 80 6c be 72 5e 33 bd 2c 05 86 be 69 d9 44 3e
       -0.23095785 -0.043791242 -0.2617582 0.1922356
000210 3b 11 27 be 29 64 10 be e7 88 e1 3d 6e 1d 5c be
       -0.16315167 -0.14100708 0.1101244 -0.21495602
000220 b2 db a5 3c 90 c0 ba bc 98 91 40 bd 2c 3d 97 be
       0.02024636 -0.0227969 -0.04701385 -0.29538858
000230 18 23 89 be ad 60 9d 3d 31 3c 4b bc 22 65 70 be
       -0.26784587 0.07684455 -0.0124044875 -0.23476079
000240 1a 3b 0f be 42 7f 6a 3d 5e 54 89 be 45 03 f7 3d
       -0.13987389 0.05725027 -0.2682218 0.120611705
000250 eb 95 a7 bd 66 85 86 b7 88 db 2a 3d aa 47 31 be
       -0.081828915 -1.6036163e-05 0.041713268 -0.17312494
000260 a3 20 3b 3b 12 fc 71 be fb d7 49 be 57 be 47 bb
       0.0028553389 -0.23631313 -0.19711296 -0.0030478442
000270 d7 a4 93 be 69 d2 a9 be f3 ce 85 be 40 19 6a be
       -0.288367 -0.33168343 -0.26134452 -0.22861195
000280 1a 0a c9 bb ad 82 b6 bb ae 75 6b bd 7f d7 5d be
       -0.0061352374 -0.005569777 -0.057485275 -0.21664236
000290 2a 27 bd 3d 64 26 ea bd 5f 59 45 3e 63 7b 4d be
       0.092359856 -0.11433104 0.19272374 -0.200666
0002a0 d0 87 6f 3d 88 f3 24 3c 15 39 98 be fb ca a1 3c
       0.05847913 0.010067828 -0.2973105 0.019750109
0002b0 d0 30 22 be 05 ad 64 3d d9 3a 9e be 9a b0 c0 bd
       -0.15838933 0.055829067 -0.30904272 -0.09408684
0002c0 6b 22 9f 3d 60 e0 62 bc 4b b3 cd 3c c2 f9 19 3e
       0.077702366 -0.0138474405 0.025109908 0.15036681
0002d0 2e d5 d4 bd 22 22 8b be cc 4c 3e 3d cc 89 e9 bc
       -0.10392223 -0.2717448 0.046459958 -0.02850809
0002e0 7a b0 9c 3d 16 e7 9c bd d7 c1 4b 3e 3b ef 88 be
       0.07650848 -0.07661264 0.19898163 -0.26745018
0002f0 ff ad e4 bd c9 52 de 3d 86 35 04 be 55 94 69 bd
       -0.111659996 0.10855634 -0.12911043 -0.057026226
000300 6e 71 8a be 9a 30 b5 be 2a 29 24 be 3a 7c f5 3d
       -0.27039665 -0.35388643 -0.16031328 0.11986585
000310 17 42 ca 3d c2 b6 71 bc 60 e8 ec bd 8d 31 11 be
       0.09875887 -0.0147530455 -0.115677595 -0.14179058
000320 85 3c 40 be 50 3c c2 bb 3e c7 64 be dc f7 3e 3e
       -0.18773086 -0.0059276 -0.2234163 0.18649238
000330 c0 55 45 3d 8f bb af bd 39 38 6f be 6f 57 bd 3c
       0.04817748 -0.08580696 -0.23361291 0.02311298
000340 c6 33 8b be 46 9d cb bc e2 e2 f3 bd 16 07 bf bd
       -0.27187937 -0.024855267 -0.11908509 -0.093275234
000350 13 76 6f be fb dc 05 3e 4b 7e 72 bd 41 71 3f 3e
       -0.23384885 0.13072579 -0.059202474 0.18695547
000360 40 90 8a 3c 5f 7b df bc e9 a4 8a be 3b 68 94 be
       0.016914487 -0.027280508 -0.2707894 -0.28985772
000370 52 9d 5c be 7d 62 57 be 40 3d fe 3d f2 ac 66 be
       -0.21544388 -0.21033664 0.12414026 -0.22526911
000380 41 73 90 be 34 fb f8 3d cd 9f ad bd 34 35 63 be
       -0.28212932 0.12157288 -0.08477745 -0.22188264
000390 8d cb e4 3d 5d 4c 2a be 94 fc fc bd 6c db 2a 3d
       0.11171637 -0.16630693 -0.12352863 0.041713163
0003a0 7b e7 14 3e dd 58 2e 3d 08 3b 93 3d f8 d5 28 bd
       0.14541428 0.042565215 0.07188994 -0.04121968
0003b0 c2 99 06 be 5a ea 7e be 6d 40 92 be 70 49 33 bd
       -0.13144591 -0.24894086 -0.28564778 -0.043771207
0003c0 92 68 7e be c1 7c d8 3d fa 52 7d be 0a e5 84 be
       -0.24844578 0.1057067 -0.24738684 -0.25955993
0003d0 be 7e 02 be 33 35 2c 3e 32 f7 3d 3e 8c a5 78 bc
       -0.12743661 0.16817169 0.18551329 -0.015176188
0003e0 b7 b2 81 3d e7 19 97 bd 8a cc aa bd 53 93 43 3e
       0.06332915 -0.07377987 -0.08339794 0.19099168
0003f0 ce 9b 12 be 9d c9 11 3e 74 a1 7e bd 9e 71 3c bd
       -0.14317247 0.14237066 -0.062165692 -0.04600679

Encoder.enc2.weight f4 [40, 256]
000000 cd dd 61 3b f8 40 c0 bb 6b 31 8b bb c3 37 0f bc
       0.003446448 -0.00586712 -0.0042478344 -0.008741322
000010 30 c1 0b ba 02 f4 fc 3c 31 19 c9 3b 26 4e 9d 3b
       -0.00053312164 0.03087807 0.0061370363 0.004800576
000020 bc 9f f0 bb a7 37 65 3b 2b af 07 bc 97 85 3b 3b
       -0.0073432606 0.0034975798 -0.008281509 0.0028613561
000030 25 c5 c2 3b ea 79 f6 3b 1d b3 b7 bb 2a 5c 99 bc
       0.0059439116 0.0075218575 -0.0056060688 -0.018720705
000040 33 26 70 3a 8c 6e a0 bc f1 48 31 bb ac c6 b0 3b
       0.00091609656 -0.019583963 -0.0027051533 0.0053947773
000050 98 1a 7c bb 0c 2b c7 bb b2 08 e3 bc 43 cf 14 bc
       -0.0038468 -0.0060781296 -0.027714107 -0.009082618
000060 18 cb bb bb 5a e0 44 3a 4b fc 69 3c e0 ee 44 bc
       -0.005730998 0.00075102376 0.014281343 -0.012019843
000070 c5 19 a7 bc b0 ec bb 3b 77 91 28 3c ff e8 09 bc
       -0.02039803 0.0057350025 0.010288588 -0.008417367
000080 63 ac 45 3c 7e ef ac 3b c4 6f 27 bc ab 37 13 bc
       0.012065026 0.005277573 -0.010219518 -0.00898544
000090 dd 65 e6 3c d4 8d a8 bc 72 15 35 3c 38 86 67 bb
       0.028124744 -0.020575441 0.011052476 -0.0035327803
0000a0 23 31 a9 b9 53 5b 3b 3c ba 68 b5 39 cd f1 4e 3c
       -0.00032270802 0.011435348 0.00034601038 0.012630892
0000b0 cd 6c ed bb 72 4c f0 3c 57 ca 5c 3c b9 96 ea 3b
       -0.007245636 0.029333327 0.013475976 0.007159081
0000c0 84 d3 92 3b 93 23 17 3b d9 25 e9 3a 2a e7 48 bc
       0.004480781 0.0023061975 0.0017787769 -0.012262145
0000d0 46 46 6f 3a 13 c3 db bb 73 1a 62 bc a0 b8 91 3a
       0.0009127598 -0.0067066043 -0.013800251 0.0011117645
0000e0 4c f2 96 3c dc 63 66 ba 24 ba a8 3b af a0 f7 3b
       0.018426083 -0.0008788684 0.005149143 0.007556997
0000f0 42 48 94 bc 82 ba 3b 3c f9 a8 46 bb 9e f2 d6 3a
       -0.018100861 0.011458041 -0.0030313118 0.001639921
000100 32 28 23 3b ba 83 7c 3b b3 1e 92 3c 84 55 0b bc
       0.0024895784 0.0038530664 0.017836904 -0.008504275
000110 be cd 9d bc e7 e1 0f 3d cf f5 e1 bb aa 09 15 3c
       -0.019263145 0.035127547 -0.0068957577 0.009096542
000120 96 1c 3b bb 64 01 8a bb 6e 42 2e 3a 5b 86 47 3b
       -0.0028550974 -0.0042115916 0.0006647472 0.0030445072
000130 74 0d 11 bc b4 1a 70 bb 76 f3 da 3b 06 f9 bf bb
       -0.008853305 -0.003663701 0.006681855 -0.0058585433
000140 da da fb bb e0 46 5d bb 26 d7 00 bc ab 08 77 bc
       -0.0076860012 -0.0033764169 -0.007863795 -0.01507775
000150 7b 9d ab 3b 59 66 23 3c e4 90 ce ba 5e 4a 23 3c
       0.005237279 0.009973132 -0.0015759734 0.009966461
000160 25 b0 6b bb 90 42 92 3c e6 ed fb ba 19 0e 61 bb
       -0.0035963145 0.017854005 -0.001922068 -0.0034340678
000170 ef 3f 1e 3b d9 3c ec bb a5 87 84 39 e2 1e be 3a
       0.0024146994 -0.007209402 0.00025278065 0.0014505053
000180 2b 81 f7 bb 3f 44 87 bb d7 62 fc ba d8 2f 93 3c
       -0.00755324 -0.0041280086 -0.0019255531 0.01796715
000190 68 c1 03 3b d2 03 bb 3a bf 37 b0 3c ab 0f e1 3b
       0.0020104293 0.0014268106 0.021510957 0.006868323
0001a0 a3 36 7c 3b 75 a5 ce 3a d5 56 24 3d ae 8c 79 bc
       0.0038484714 0.0015765863 0.040121872 -0.015231295
0001b0 69 ea 27 3b 92 13 39 bb 90 91 e7 3a 8e 63 40 3c
       0.0025621897 -0.0028240425 0.0017667282 0.011742486
0001c0 d9 a1 b0 3c bb 5b d8 3b cf 92 2f 3b 9e c1 f3 3a
       0.02156155 0.006602732 0.0026790386 0.0018597131
0001d0 75 78 1f 3b f4 cd ab ba b6 99 1f bb 92 60 5d bc
       0.0024333273 -0.0013107643 -0.0024353093 -0.013511794
0001e0 df 5a de bc df c7 b4 ba 8b 8b 3d bb 81 57 77 3c
       -0.02714294 -0.0013792476 -0.0028922285 0.015096546
0001f0 64 2e b7 3a a7 e2 a5 bb 06 29 0c bc 01 8a 07 3c
       0.0013975617 -0.0050624195 -0.008554703 0.008272649
000200 ae 45 c0 bc 49 bd c5 ba af 91 91 3b 82 27 dc 3a
       -0.023470726 -0.0015086319 0.0044424157 0.0016796442
000210 f2 3d 90 ba d8 d1 26 3b 46 cf 4f bb 33 6b d0 bc
       -0.0011004789 0.0025454666 -0.0031709238 -0.025441742
000220 5f 40 86 3b 73 da ab bb c6 1d 86 bb 57 ac 62 bc
       0.004097029 -0.005244547 -0.0040929047 -0.013835034
000230 5a f5 ca 3b 5c 0e c3 3a 6b db 85 bc fa 88 38 3b
       0.006193799 0.0014881599 -0.016339978 0.0028157816
000240 ee e2 2b 3c 3f 5c cc 3c 73 15 59 bc a0 f7 86 3c
       0.010491116 0.02494633 -0.013249743 0.016475499
000250 25 5b 01 bd 19 75 f6 3c 53 fe f6 bb f4 12 dd bc
       -0.031581063 0.030085133 -0.007537642 -0.026986577
000260 79 d9 b2 39 4e 2a 86 3b ab 8a e0 3b 2a f6 d6 bb
       0.00034112835 0.0040943986 0.006852468 -0.0065601068
000270 5e 4b aa bc 1b 66 81 3c 3d a7 1d ba b6 a7 00 bc
       -0.020787891 0.015795758 -0.0006013995 -0.007852485
000280 ca 65 e4 3b 87 fd a6 3b be 4c b3 ba e3 f5 06 bc
       0.006970142 0.005096141 -0.0013679487 -0.008237335
000290 2d f8 2c 3c ce 3e 8e bc 12 d9 66 3b 5d a7 9e 3b
       0.010557217 -0.017363932 0.0035224599 0.0048417286
0002a0 ff 97 86 3a 74 48 9a 3c 35 5c e8 3b 0b e1 4f ba
       0.0010268687 0.018833376 0.00709107 -0.00079299574
0002b0 99 16 e3 3b c9 5b 44 bc 1a 08 56 bd 90 2f 55 3b
       0.006930184 -0.011984774 -0.05225382 0.003252957
0002c0 1b f1 28 3b f2 32 02 bc 28 82 7b bb 93 ef 00 3c
       0.0025778476 -0.007946717 -0.003837714 0.007869619
0002d0 56 09 42 3b f6 be 33 bc 81 cb 49 ba db a6 a4 3b
       0.0029607615 -0.010970822 -0.0007697866 0.0050247735
0002e0 55 5a e4 3a 2a 40 10 3b 73 5e 00 bb a8 07 3f bc
       0.001742194 0.00220109 -0.0019587546 -0.01165954
0002f0 48 af b8 bb e9 8f 11 3c ec 01 ca bb 33 72 12 3b
       -0.0056361295 0.0088844085 -0.00616478 0.00223459
000300 2a 98 14 bc 00 d0 0d 3c 4e 6c f4 ba cf 3d 9d 3b
       -0.009069482 0.008655548 -0.0018648 0.004798628
000310 a0 c7 03 bb 87 62 00 3c dc 22 5d bc cd 6c 92 bb
       -0.0020108 0.007835991 -0.013497081 -0.0044685365
000320 cd 33 37 3b 52 cb 47 bc 84 01 a8 3c 75 dd 82 3c
       0.002795446 -0.012194471 0.020508535 0.01597474
000330 7e 6e 1e bc 5a cf 8c bc 06 60 78 bc d6 25 dc bc
       -0.009669898 -0.017188717 -0.0151596125 -0.02687351
000340 bc 6d fd bb 83 5b 7f 3a ad 77 fc ba 29 f1 73 3c
       -0.0077340286 0.00097411143 -0.001926174 0.01488904
000350 e8 c3 38 3a 68 19 53 bc d3 1e cb bc 6d 6c e6 3b
       0.0007048235 -0.012884475 -0.024794972 0.0070319683
000360 0e 5c 9c 3c 72 40 e6 3b 37 f7 91 bc 1e e3 0c 3c
       0.019086864 0.0070267254 -0.017818077 0.008599071
000370 17 02 ef bb 7d 14 89 3b d5 29 20 3c 62 40 7c bc
       -0.0072939503 0.0041833506 0.0097755985 -0.015396209
000380 94 07 20 bd 5a 7a aa bc 4c b9 19 bc 44 e8 bb 3c
       -0.039069727 -0.020810295 -0.009382557 0.022937901
000390 75 f0 f8 3a 63 7a bc 3c a4 28 09 3d 38 c9 a4 3c
       0.001899256 0.023007577 0.033486024 0.02011548
0003a0 0f 8b f6 3a 4b 5e 82 bc 50 23 be ba a1 f8 89 bc
       0.0018809753 -0.015914103 -0.0014506374 -0.016842188
0003b0 e3 e8 8f ba d8 2e 43 bb aa 8b d1 bb fd ed ed 3b
       -0.001097944 -0.002978256 -0.006394823 0.0072610364
0003c0 3b 99 92 ba 1c 2f bb 3b f5 3a d7 3c 7e 9d 96 bc
       -0.0011184582 0.005712403 0.02627323 -0.018385645
0003d0 93 58 16 3b fd 7f b1 3c 40 98 97 39 e8 d2 e3 3b
       0.0022940978 0.021667475 0.000289144 0.006952632
0003e0 1b b4 a1 ba 7d 3b d2 bb 65 f6 cb 3c 82 d1 f9 3b
       -0.0012337001 -0.006415783 0.024897764 0.007623852
0003f0 e6 1d ba bb 92 be 1a bb 38 75 d4 3b 4f eb 8b 3c
       -0.0056798337 -0.0023612124 0.0064837 0.017079977

Encoder.enc2.bias f4 [40]
000000 fc 02 a1 bc b4 b7 10 3d 22 25 c0 bc e1 29 cd bc
       -0.019654743 0.035331443 -0.023455206 -0.025044383
000010 8d 2c 2d bd f6 f2 4d 3a dc 65 33 3d f3 93 67 3c
       -0.042278815 0.00078563334 0.043798313 0.014134395
000020 c7 75 1d bd 8b 6b 40 bb 88 3b 93 bc 24 82 6b 3d
       -0.0384424 -0.0029360976 -0.017972723 0.05749716
000030 d3 e4 ad bc 13 56 b5 3c 3e 73 e3 bc 3e b7 10 bb
       -0.021227276 0.02213577 -0.027764913 -0.0022081877
000040 29 91 ff bc 31 1c 26 39 26 51 aa bc 2e 12 9e bb
       -0.031197147 0.00015841496 -0.020790648 -0.0048239445
000050 93 dd 46 bc a6 0c 1c bb 51 4f 0b bc 72 1a af 39
       -0.012137788 -0.002381125 -0.008502797 0.00033398304
000060 24 73 8b be 61 65 9e bc e1 17 2f be c4 23 87 bc
       -0.27236283 -0.01933545 -0.17098953 -0.016496547
000070 05 af 56 be 5b ab 9e 3c 3a 52 af 3c ff db 30 be
       -0.20965202 0.019368818 0.021401513 -0.17271422
000080 bd da 7e 39 e9 b7 bb 3a 8b 24 1c be 0e 28 8e bc
       0.00024304814 0.0014321777 -0.15248315 -0.017353084
000090 e0 5d 42 be 07 e3 ae 3b ec 01 c6 bc 96 8d 0e be
       -0.18981123 0.0053371224 -0.024170838 -0.13921198

Decoder.dec1.weight f4 [256, 20]
000000 d6 c9 8d 3a f1 8d 07 b9 02 c0 00 ba ff a1 1c bb
       0.0010817598 -0.0001292748 -0.0004911424 -0.0023900268
000010 4e 79 2f bb 31 5f 2a 3a 61 4f a1 bd c2 9d 51 ba
       -0.0026775184 0.000649917 -0.078764684 -0.0007996225
000020 52 f2 7e bd 9f ef 9e 3a cd 07 5d 3a e4 2d 9c 3b
       -0.062242813 0.0012125856 0.00084316434 0.004766213
000030 23 68 c7 ba 55 d8 ac 3a 1c a7 be ba 93 6f ab 39
       -0.001521353 0.001318703 -0.0014545652 0.0003269879
000040 aa bb 31 3a 3d 96 1a bb 44 dc f9 39 df a9 e4 ba
       0.0006779978 -0.0023588084 0.00047657092 -0.0017445645
000050 45 5b 75 3a a9 f0 48 3a ef b8 92 ba 49 f1 88 3a
       0.00093596085 0.00076652557 -0.001119403 0.0010447885
000060 9d 2b d3 39 0c ce 40 bb c4 13 e5 3b b5 02 24 bb
       0.0004027755 -0.0029419689 0.0069908816 -0.0025026028
000070 86 31 d6 3a 61 96 1d ba 0b f7 70 ba e2 fe 8b b8
       0.0016341663 -0.0006011483 -0.00091920857 -6.675512e-05
000080 ce fa 1f bb 65 e4 93 37 4c 61 04 bb 50 a2 d8 38
       -0.0024410966 1.763012e-05 -0.0020199595 0.00010329916
000090 be 26 c0 bd 11 a2 b5 b8 aa 6a dd 39 30 81 ef b9
       -0.093823895 -8.66094e-05 0.00042231876 -0.00045681885
0000a0 bb eb 2c 3c 06 e9 b3 3a 3a 27 ad b9 3d df 13 3b
       0.010554249 0.0013726063 -0.00033026357 0.002256348
0000b0 5c 7b 1a ba 0a 2c b9 3b 60 88 87 3c d6 2e af 3a
       -0.0005893016 0.005651002 0.01654452 0.0013365399
0000c0 52 ea e0 3b e0 76 8a 3b 13 e3 07 bb b1 cf d3 3a
       0.0068638707 0.004225597 -0.0020734712 0.0016159919
0000d0 28 5b 93 39 2c bd bb 3b a4 b2 dc 3b ff 0f c0 3b
       0.00028105942 0.005729338 0.006735163 0.005861282
0000e0 0a 46 5b bc 8f 0f 25 3c 61 14 32 bb 10 2a 7d be
       -0.013383398 0.01007451 -0.0027172791 -0.24723077
0000f0 ca a1 fd 39 a3 88 52 bb b5 35 83 ba 2a 03 35 bb
       0.00048376463 -0.00321249 -0.0010010513 -0.0027620294
000100 af 47 29 3b cc 2c f2 b8 49 61 4e 3c 71 d9 ff 38
       0.002583008 -0.00011547803 0.012596437 0.00012199849
000110 30 37 34 bd 1b 04 2b 3a 93 f6 bd 3a 50 f5 71 39
       -0.043997943 0.0006523744 0.001449304 0.00023074937
000120 df ca 20 bb 21 25 14 bb b4 0e 1b bc ec 31 45 3a
       -0.0024534983 -0.0022605138 -0.009463955 0.00075223926
000130 d2 42 50 3a 19 69 84 39 2e ea 35 3a 55 9a a0 3a
       0.00079445273 0.00025255306 0.00069394975 0.0012253026
000140 c8 f1 7c 3b 37 3e 19 bb 57 20 b3 38 94 1b 09 3b
       0.0038596261 -0.002338303 8.541409e-05 0.002092098
000150 31 f9 31 ba 8e 2c 4d 3b e3 7f ec 3c e5 bb cf ba
       -0.00067891466 0.0031307074 0.028869575 -0.0015848844
000160 e1 8b 42 bd c5 c2 b1 ba f0 74 95 ba 69 45 02 ba
       -0.04749668 -0.0013562074 -0.0011402648 -0.00049694494
000170 0f f8 19 3a 59 ce 44 b9 12 47 52 bb d8 0b 5c 3a
       0.00058734504 -0.00018768887 -0.0032085818 0.0008394099
000180 ee 6b 31 bb 24 0f 9e ba f5 69 86 39 a8 66 9a bb
       -0.0027072388 -0.0012058956 0.00025637416 -0.0047119446
000190 5b 1d 80 ba f4 a9 94 ba 94 7b 35 3b 46 73 9f 3a
       -0.0009774374 -0.0011342154 0.0027692067 0.0012165091
0001a0 31 9d 85 be 6b 22 70 bb f1 c5 96 3d 3a a2 aa ba
       -0.2609649 -0.0036641608 0.07361973 -0.0013018318
0001b0 6b c0 74 3c ec c0 3c 3b 4e ec 58 bb c4 a6 30 3b
       0.014938454 0.0028801514 -0.0033099833 0.0026954869
0001c0 db a0 09 3b 05 d0 3f 3a c2 1a 84 bc 11 51 71 3b
       0.0021000418 0.0007317069 -0.01612604 0.0036822
0001d0 ea ef 5b bc de 29 90 3b 58 53 03 bb 56 54 aa ba
       -0.013423899 0.004399522 -0.002003869 -0.0012995105
0001e0 73 41 c7 ba 5b 5c bd ba 4c 3a 85 3a 09 d1 f8 b8
       -0.0015202 -0.001444708 0.0010164469 -0.00011864497
0001f0 f1 c4 af b8 89 63 87 3b 8d 81 ad 3a 2f fa 95 3b
       -8.3813335e-05 0.0041317386 0.0013237462 0.0045769433
000200 51 ac 57 3b 42 41 02 3b c4 8d 25 3b 09 98 2c 3a
       0.0032909105 0.0019875322 0.00252615 0.00065839343
000210 6c 44 13 b9 f5 ae c8 38 08 8f bc bb 5d 8c 86 39
       -0.00014044502 9.5693315e-05 -0.0057543553 0.0002566305
000220 b7 4d af bd fe 07 db b8 68 c9 9b ba fb ba 38 3b
       -0.08559745 -0.000104442224 -0.0011885585 0.002818762
000230 4c 74 9f b8 d6 2f 58 3a 88 a2 5d ba 3a 26 62 3a
       -7.603373e-05 0.0008246874 -0.00084547 0.0008626912
000240 0c 36 05 bb 2b 17 7f bb 4b bc c8 3b 34 f9 55 ba
       -0.0020326404 -0.0038923721 0.006125962 -0.00081624393
000250 ad ca 25 3c ca b8 ed ba c6 2e 5c 38 7d 8c d1 ba
       0.010119122 -0.0018136736 5.249565e-05 -0.0015987303
000260 f8 31 19 3a dc c3 d4 3a 5d 97 7e bd 35 ce 55 ba
       0.0005843933 0.0016232687 -0.06215607 -0.00081560324
000270 96 a4 61 3b 0a a6 4b 39 61 4a b7 ba 81 a4 3f 3a
       0.0034430376 0.00019421443 -0.0013983959 0.0007310585
000280 6e d9 d6 b9 6e a8 c9 3a 9f 8a da 3a 0c 8c 47 3a
       -0.00040979258 0.0015385279 0.0016673392 0.0007612116
000290 88 79 a6 ba bf d0 57 ba ab fe 29 3c d4 41 2d 3b
       -0.0012701014 -0.0008232705 0.010375659 0.0026436942
0002a0 8f 12 ac 3c 11 1f de 3a 23 1a 00 3b 63 c1 2f ba
       0.021004943 0.0016946514 0.0019546829 -0.0006704537
0002b0 14 b4 12 bb 4f 64 63 ba 5c 50 eb bd 67 c3 08 bb
       -0.0022385167 -0.000867431 -0.11489937 -0.0020868422
0002c0 b3 95 17 3d 0a e4 d3 bb 77 2e 2b 3b b0 09 5b bb
       0.037008 -0.0064663934 0.0026120225 -0.0033422522
0002d0 ab be 10 bc a1 1e 0c bb 3f 1d ed bb ce d7 8e 3a
       -0.008834521 -0.002138056 -0.0072361524 0.0010898055
0002e0 57 ff 82 be 68 e2 97 3b d7 84 a8 3d 28 b8 33 3c
       -0.25585434 0.004635144 0.08228462 0.010969199
0002f0 e7 f1 2f 3c 42 16 d9 39 5e 38 a1 bb 23 11 e2 3b
       0.010738826 0.0004140605 -0.0049200496 0.0068990155
000300 27 12 c8 3a 33 91 79 bb 01 0e 8b bc ca 98 0f 3a
       0.0015264199 -0.003808093 -0.016974451 0.00054777844
000310 d6 30 db ba e3 0d 6c 3b bd fc 25 3b 0d 8e 08 bc
       -0.0016722928 0.003601902 0.0025327646 -0.008334649
000320 ce 16 12 bb 1e 93 0a ba 9f 03 69 3a 9d d9 d9 39
       -0.0022291425 -0.00052862044 0.0008888784 0.000415516
000330 eb f4 04 ba 92 df 62 b9 fe 9b 3b bb 59 4e 6d ba
       -0.0005071896 -0.00021636326 -0.0028626914 -0.0009052507
000340 c7 8f b5 3c aa cd 0b 3a 22 d5 83 b9 41 a5 88 3a
       0.022163285 0.00053330755 -0.00025145063 0.0010425226
000350 fe b4 8c b9 ca 43 aa ba 79 c3 16 bd ad 07 09 3b
       -0.0002683773 -0.0012990173 -0.03680751 0.0020909116
000360 b5 6d 32 bb 1a 4c 3c ba e3 bd 54 ba b8 4f 3d 3c
       -0.0027226035 -0.0007182971 -0.00081154535 0.011554651
000370 93 4d 6d 3a 5e 40 9b 3b 6e 59 e6 39 02 85 d0 39
       0.0009052392 0.004737898 0.0004393565 0.0003977195
000380 2b 3e ee ba a0 6f c3 39 d7 fc 90 bd 80 06 20 bb
       -0.0018176486 0.00037276465 -0.070794754 -0.0024417937
000390 e6 ab 09 3e 37 5c a6 3a 13 08 75 3b 28 32 22 3c
       0.1344448 0.0012692277 0.0037388846 0.0098996535
0003a0 8c 18 dc bb b1 07 44 3b 16 8f f6 bb 36 22 99 3b
       -0.0067167934 0.002991181 -0.0075243814 0.0046732677
0003b0 1e 4f 84 bc da 66 44 3b 5d bf 61 3b e0 03 f7 3b
       -0.016151007 0.002996853 0.0034446337 0.0075383037
0003c0 38 5e f8 b9 dc b3 d7 3a 23 36 12 b9 19 c0 0b ba
       -0.00047372445 0.00164568 -0.00013943813 -0.0005331054
0003d0 0b b8 31 ba df c1 f5 38 fd f7 12 bd 70 5c d2 39
       -0.00067794387 0.00011718622 -0.03588103 0.00040123193
0003e0 72 74 ed bc 2c 3f 99 3a c0 35 fd 39 6c c4 39 3b
       -0.02898619 0.00116918 0.00048295967 0.0028345836
0003f0 b1 71 94 b9 bb d3 84 3a ba f5 dc 3a a4 ea 67 ba
       -0.00028313466 0.0010133901 0.00168579 -0.0008846915

Decoder.dec1.bias f4 [256]
000000 c3 72 28 bd a2 35 62 3c 41 51 33 bf 22 c6 9f 3b
       -0.04112507 0.013806732 -0.7004586 0.004875914
000010 5c 6e bb 3a 5f 0d b9 be 3c 5a 6f 3c 78 8d b5 3c
       0.0014299857 -0.36143014 0.014608916 0.022162184
000020 2c 6f a6 3b 8c 2f 88 be 0a 53 91 bb f6 db ba bd
       0.0050791707 -0.26598775 -0.004434948 -0.091239855
000030 0d 1f c3 3c 89 50 84 be da d5 80 3d ae df 6c 3c
       0.023818517 -0.25842693 0.06290789 0.014457626
000040 84 8f 53 3c ca f8 76 3c a7 fa 74 3c e6 4e 61 3c
       0.012912635 0.015073964 0.014952338 0.013751721
000050 b5 14 f1 b9 86 88 fd bd d3 83 68 be a1 49 94 bc
       -0.0004598253 -0.123795554 -0.22706537 -0.018101515
000060 33 95 2d be bf 06 62 3d 37 93 e4 bd 5d 3f 5e 3c
       -0.16951446 0.055182215 -0.111608915 0.013564912
000070 c2 ae e8 3c 61 81 17 be b7 81 0b be 8f 9f 13 3c
       0.028403644 -0.14795448 -0.13623701 0.00901021
000080 05 ed 7d b9 ea 3c a8 bc d0 38 b6 be ed 20 f8 bd
       -0.00024216257 -0.020536859 -0.3559022 -0.12115655
000090 32 3f e3 b7 46 d2 96 3c 31 d0 dc bc 46 86 ed 3c
       -2.7089936e-05 0.018410813 -0.026954742 0.02899469
0000a0 4c 5f b6 bc dd 0b 43 bd 4b d5 0d 3a 51 30 20 bb
       -0.022262238 -0.047618736 0.0005410506 -0.0024442861
0000b0 7a 7f 81 be b3 20 24 be 33 01 ee 37 bd 70 bd 3c
       -0.2529257 -0.16028099 2.837237e-05 0.023125047
0000c0 be 33 3a 3c 77 9a ec 3d 77 0d 03 be 8a ef f0 3c
       0.011364875 0.11552899 -0.12798105 0.029411096
0000d0 bd 43 b1 bd f5 70 62 3c 86 ea c3 3c d3 7e 53 3c
       -0.08655498 0.013820876 0.02391554 0.012908655
0000e0 f6 8f 62 bc b8 91 b9 bd cf 17 e0 3c c4 f8 55 3c
       -0.013828268 -0.09060997 0.027355103 0.013059799
0000f0 5c 07 a5 be 46 40 a5 bd ee 65 f4 3b ad 10 c7 bd
       -0.32232177 -0.080689 0.00745844 -0.097199775
000100 1e dd ef be 6a 0f d4 bc f5 fc 6a 3b e3 13 b8 bd
       -0.46848387 -0.025886256 0.003585634 -0.08988168
000110 8d 8b c3 be d8 5a 1e 3c d9 8b 12 3c 1e 37 40 3c
       -0.38192406 0.0096652135 0.008944475 0.011731891
000120 09 a3 bd be 55 13 52 be ed 90 d9 3c 80 7a 95 be
       -0.37038448 -0.20515187 0.026558364 -0.29195023
000130 ac 01 7b 3d c6 d2 05 ba 19 ca 60 be 4e 47 8e bc
       0.06128089 -0.0005104955 -0.21952094 -0.017367985
000140 d8 32 63 be d7 7b 78 bd 8b 89 a3 3b 9b 58 20 bc
       -0.22187364 -0.060664978 0.0049907616 -0.00978675
000150 49 e2 91 3c 9f 5f 78 be 23 76 0a bd 7e 9b c5 3d
       0.017808096 -0.24255227 -0.03380407 0.096487984
000160 f9 e1 e0 bd 9d 85 37 be de 59 c5 bb cf de 7c be
       -0.10980601 -0.17922063 -0.006022676 -0.2469437
000170 e6 5e 9c be bc a9 40 3d 16 c0 80 3c ff a1 e6 3b
       -0.30541152 0.04703687 0.015716594 0.0070383544
000180 6a a2 28 3d ad 0a 79 3b d7 d3 d7 be a0 59 57 3c
       0.041170515 0.0038000748 -0.42153808 0.013143927
000190 b7 0f 00 3c bd c9 ec bc fa 8b 90 3c 3e 97 83 bd
       0.007816247 -0.02890479 0.017644871 -0.064253315
0001a0 1b dc 69 3c 67 d1 42 bc 1a 91 f0 3b e0 a5 83 ba
       0.014273669 -0.011890746 0.007341516 -0.0010043941
0001b0 ea cd 43 bd 16 8f 91 be b5 7a b8 bb 68 29 7c 3d
       -0.047803797 -0.28429478 -0.005629862 0.061562926
0001c0 2e fc ab 3c 32 33 4d 3c a6 27 e2 3b 91 a3 65 be
       0.020994272 0.012524413 0.006901699 -0.22425677
0001d0 86 3f 8f 3d f6 03 be 3c a3 dd 4d 3c 14 29 f5 bc
       0.06994538 0.023195248 0.012565049 -0.029926814
0001e0 04 e8 ae be f4 34 ac 3c 21 5e 5b be ed 54 16 3d
       -0.3416139 0.021021344 -0.21422626 0.036702085
0001f0 cb 72 ee bd 8d 76 e1 3d 6a 4d 37 3c 4e 9c 87 3a
       -0.11642989 0.1100894 0.011187891 0.0010346265
000200 71 a6 77 3d 57 e1 01 bf 53 cc d9 3c 43 d2 ea 3c
       0.060461465 -0.50734466 0.026586687 0.028664714
000210 65 46 22 3c c1 ec 3d 3c e2 01 f8 3b 36 08 4a 3d
       0.009904479 0.011592091 0.007568584 0.049324237
000220 dd 80 91 be c2 39 3d bd 98 ef 03 be 8e 59 8b 3c
       -0.28418627 -0.04619766 -0.12884367 0.017010476
000230 a0 00 62 3c 2d 5e 9a be c5 14 9e 3c 5f 7f 4d 3c
       0.013794094 -0.30149975 0.019297013 0.012542575
000240 e4 52 b2 3c c5 ad 20 3b 62 c7 ee 3c ce d5 97 bd
       0.021768041 0.0024517637 0.029147808 -0.07413827
000250 8e 4a 73 be c8 92 3c bd 29 a1 6e be 06 ec 4d 3d
       -0.23758909 -0.04603842 -0.23303665 0.050273918
000260 92 11 eb 3c 77 a9 54 be 6f e7 43 be e6 d6 eb bd
       0.028694902 -0.2076777 -0.19131254 -0.11515598
000270 13 a8 13 be 19 b8 47 3d 28 63 a5 be 9d f6 14 ba
       -0.14419584 0.048759554 -0.32302213 -0.00056825
000280 38 ba ed 3c 26 ea f3 bd 4c 1b 58 3c 5f d8 ac be
       0.02901946 -0.11909895 0.013190102 -0.33758828
000290 6c 09 4d bc e4 f8 e5 bd e2 5e e7 3c 68 5d ce ba
       -0.012514453 -0.11229113 0.028243486 -0.001574439
0002a0 34 89 8f 3a 8d 3f a0 be 5c b6 9e be 6d 51 72 bd
       0.0010950924 -0.31298485 -0.30998504 -0.059159685
0002b0 3a e4 4d 3c 06 6a 47 be 89 6e 82 3c c8 f8 3d 3c
       0.0125666205 -0.19474038 0.015921848 0.011594959
0002c0 84 07 77 be ae 66 52 38 37 30 03 bd 7a 9b cd 3c
       -0.2412396 5.016353e-05 -0.032028403 0.025098551
0002d0 8b 24 0d bd 88 5c 2f bd 98 d7 9b be 6f ee eb 3c
       -0.03445868 -0.042812854 -0.30437922 0.028800217
0002e0 4d e0 fa bc 1d 01 9a 3d 5d 6a 59 bd 3d 17 db bc
       -0.030624533 0.075197436 -0.05307995 -0.02674448
0002f0 69 f0 76 bc de 16 9a bb a6 74 96 be af 5f 8c 3b
       -0.015071967 -0.004702433 -0.2938587 0.0042838673
000300 9e 42 4d bd 2c bf 2b 3c 35 50 1f bd 1f 59 93 be
       -0.05011236 0.010482591 -0.03889485 -0.28778931
000310 29 1e 06 3e f7 c9 3f 3d 0d 11 5c 3d 02 62 7e bb
       0.13097443 0.046823468 0.0537272 -0.0038815741
000320 b9 70 ea 3c 4b be 25 bb 7e 70 e9 3c e4 34 52 3c
       0.028618203 -0.0025290425 0.028496023 0.012829993
000330 c9 d3 dd 3c b9 4e 72 be bf b5 95 be 2c f4 e9 3c
       0.027078526 -0.23662843 -0.29240224 0.028558813
000340 5d 7c 4f be 8a fb 4c be 12 25 3c bd f7 51 3c 3c
       -0.20262285 -0.2001783 -0.04593379 0.011494151
000350 03 77 14 3d ec 16 c7 3b 2a 57 7d be f2 c8 00 3e
       0.03624631 0.0060757305 -0.24740282 0.12576655
000360 a7 ca a8 bc 1d ea 5b 3c 4d f2 ab b9 f3 ea 45 bd
       -0.020604445 0.013422516 -0.0003279619 -0.04831977
000370 ac 9b 48 bd c9 8c d7 3b e8 6c 6a be c3 0c c4 3c
       -0.048976585 0.006578062 -0.22893107 0.023931867
000380 96 4b 92 3c 64 6c 8e be ff 8e 9b bd 2c 5f c6 bd
       0.017858308 -0.2781707 -0.07595634 -0.09686121
000390 07 bd d1 3c b2 13 8a 3c ae ef e5 3c 4b d5 b5 3b
       0.02560283 0.016855095 0.02806839 0.005549108
0003a0 89 fd df 3c 68 04 91 3b 14 0d c0 3c 66 85 59 3c
       0.027342575 0.004425574 0.023443736 0.013276434
0003b0 08 b7 5a 3c 4b 7d 56 be bc dd 99 bd 60 05 5f bd
       0.013349302 -0.20946233 -0.075129956 -0.054448485
0003c0 74 f4 64 3c d1 16 e8 bd b6 39 0b 3d 83 de bc be
       0.013974298 -0.11332477 0.033990584 -0.36888513
0003d0 8e 35 58 3c 84 30 d9 be 22 c1 36 3a f4 bd 35 3c
       0.013196362 -0.42419827 0.0006971528 0.011092652
0003e0 a2 47 8c 39 9f 3b 6c be 28 97 d9 3c c7 81 d9 bd
       0.00026756251 -0.23069619 0.026561335 -0.10620456
0003f0 16 56 16 be 09 bd 12 bd 19 08 7f 3a 39 1f c1 3c
       -0.14681277 -0.03582481 0.00097286847 0.023574458

Decoder.dec2.weight f4 [31, 256]
000000 a4 eb 21 bf 56 24 93 bc 3e a2 9e bf ba 6d a0 bf
       -0.63250184 -0.017961662 -1.2393262 -1.2533486
000010 31 44 18 bf d4 76 25 3c 18 24 81 3d 7b 51 b4 3c
       -0.5947905 0.010099132 0.063057125 0.02201151
000020 51 c5 9f 3d 35 f5 45 3b c5 f4 95 3d 42 96 b6 3e
       0.07801307 0.003020597 0.07322077 0.35661513
000030 16 26 41 bf e5 0f 96 3d df 77 ce be da b4 5a bf
       -0.7544874 0.073272504 -0.4032583 -0.8543221
000040 cb 49 34 3d b8 8d 9a 3d da a5 84 3d bd e0 25 3d
       0.044015687 0.07546562 0.06476946 0.04049753
000050 c4 6c f5 be bf 90 06 3d 1a 3a 52 3a 2c 44 71 be
       -0.47934544 0.032852884 0.0008019522 -0.23561162
000060 9a bd 62 3c 29 74 de be 8c 37 39 3c dd 44 97 3d
       0.01383915 -0.43447998 0.011304747 0.073861815
000070 d7 83 19 3e c4 83 0b be fc 08 44 3c ca 2e ed bd
       0.14991699 -0.13624483 0.011965033 -0.1158119
000080 a0 3a 83 3e 4e 10 0c be 7e 40 61 3b 07 35 36 be
       0.25630665 -0.13678095 0.0034370716 -0.17793666
000090 f5 9c 6b 3e 37 33 70 bf 10 f6 f4 be d2 7c 69 bd
       0.23009093 -0.9382815 -0.4784398 -0.057003804
0000a0 3b 87 72 be 56 70 70 3e 04 64 6a 3e 25 98 f4 3e
       -0.23684399 0.23480353 0.22889715 0.47772327
0000b0 ff bb 6b 3b e7 38 be 3e 81 99 23 3d 2e 5d 03 3f
       0.0035970209 0.37152788 0.039941315 0.51314056
0000c0 b4 96 74 bf c3 34 92 bd e7 eb c5 3b 05 b4 26 bd
       -0.95542455 -0.0713897 0.0060400846 -0.040699024
0000d0 f8 c7 e2 3e 47 1c 99 bf 84 9d 70 bf 84 72 0c 3f
       0.4429319 -1.1961755 -0.9399035 0.54862237
0000e0 15 d6 8c 3e 9f 0a 42 3e ab 08 e5 3d fe da 8e 3c
       0.27507082 0.18949364 0.11183294 0.017438408
0000f0 d3 2b 36 ba 65 b0 60 3e a8 93 39 3f 1f f3 b8 3b
       -0.00069492793 0.21942289 0.7249093 0.0056442167
000100 d1 a2 3b be 74 78 ea be f6 ed 3f 3e 8c 18 a4 bd
       -0.18323828 -0.45795023 0.18743119 -0.080124944
000110 0c 5a 70 bd 53 9d 44 bf 4b 87 85 bf a4 fe 1b 3e
       -0.058679625 -0.7680256 -1.0431913 0.15233856
000120 f8 55 5a bb 2a 54 43 bc 8d ab 31 bf d2 22 09 bd
       -0.0033315402 -0.011921922 -0.6940239 -0.033480473
000130 eb 1c 46 bf 6b 70 59 3e ca bd 68 3d d3 d3 b8 3d
       -0.77387875 0.2123429 0.056821622 0.09024777
000140 60 cc 2a 3e a8 81 6a 3e d8 64 fa be 2f ea e9 3d
       0.16679525 0.22901022 -0.48905063 0.1142162
000150 43 06 85 bf 2f 8f ac bc 44 c5 50 3e fe 5b 8c bd
       -1.0392536 -0.021064369 0.20387751 -0.068534836
000160 25 02 58 bc 85 66 bb bd b9 f0 76 3e 87 44 f3 3d
       -0.013184105 -0.091504134 0.24115266 0.11878305
000170 20 8f a0 bc bd 80 51 bd 20 23 c5 bc ba 69 0a 3e
       -0.019599497 -0.051148165 -0.0240646 0.13516894
000180 e0 56 81 bf a3 9e fd be 43 72 61 bd 30 6b 91 3d
       -1.0104637 -0.49535093 -0.05504061 0.071005225
000190 7d 5a 80 bf 28 19 fe bd 9f f5 82 bf 39 24 21 bd
       -1.0027615 -0.12407142 -1.0231208 -0.039341185
0001a0 a1 e0 4d 3d f8 29 61 bf 16 7e e1 3e c8 86 4d bf
       0.05026305 -0.87954664 0.44041508 -0.80283785
0001b0 7f 23 99 be e7 e9 17 bc e9 c6 92 be f2 95 4e 3e
       -0.29909894 -0.009272075 -0.2866738 0.20174387
0001c0 2a d9 89 bd 0c dd 2b 3d 97 c4 7c 3d af c2 5b bb
       -0.06730874 0.041958854 0.06171092 -0.0033532789
0001d0 98 91 1d bf d0 10 b2 3e 5d b8 0d 3f d3 45 c3 3e
       -0.61550283 0.34778452 0.5535944 0.3813921
0001e0 5f 4f 9b bd 8d 39 31 3f 8d 34 ca 3d 01 88 3d 3e
       -0.07583498 0.6922844 0.098733045 0.18508913
0001f0 45 8b 05 bd 00 18 d2 bd a2 28 48 3d be 38 05 3f
       -0.03260352 -0.10258484 0.048866875 0.52039707
000200 a9 1b 4f 3e 01 65 12 bf 86 56 c4 3d a3 c9 01 3e
       0.20225395 -0.5718537 0.095868155 0.12674575
000210 8f 98 1f 3f 1d 2b b2 3d 5b 50 09 3f 24 09 3e 3e
       0.6234216 0.086996295 0.5363824 0.18558174
000220 a3 4d b4 bc 6b 41 d3 bc 53 59 f2 bb 19 2c 59 bf
       -0.022009676 -0.02578803 -0.007395902 -0.8483291
000230 3b af 64 bf 87 88 a3 3c dd 3d 6c bf f6 b1 fd 3d
       -0.8932988 0.019962562 -0.92281896 0.12387459
000240 ad 69 85 bf 56 d0 99 3d 8c 9f 8e 3d e7 5d fe ba
       -1.0422875 0.0751044 0.06964025 -0.0019406647
000250 3f 74 6d 3d a5 03 4f 3d 47 52 d3 bc 53 a7 76 3e
       0.05797219 0.050540585 -0.025796069 0.24087267
000260 82 19 8d 3d 5c ed ff bb 8a 11 15 3e 08 bf 92 3c
       0.06889631 -0.007810278 0.14557472 0.017913356
000270 60 b3 cd be df da c2 3c d7 2c 11 bd c1 24 62 3e
       -0.40175915 0.023786006 -0.035443153 0.22084333
000280 62 df 86 3d c8 12 70 3c 3f 9f 18 3d a1 30 72 bd
       0.06585576 0.014652915 0.037261244 -0.059128407
000290 06 e9 7f 3e d0 8e 37 be 52 12 5d 3d 8f 33 4d bf
       0.24991235 -0.17925572 0.05397255 -0.801568
0002a0 d0 2f f1 3e 61 ce aa bd 70 ef 75 3d 85 ec a8 3c
       0.4710679 -0.08340145 0.0600428 0.020620594
0002b0 eb 22 58 3d f1 b0 d8 3b 7c c8 c5 3d 0c 02 3f 3d
       0.052767675 0.00661289 0.0965738 0.04663281
0002c0 67 af 9b 3d 6f 10 80 3e f7 f5 63 bf 0e 44 48 3e
       0.07601815 0.25012538 -0.8904719 0.19557211
0002d0 d9 9a 70 be a9 0c 08 bd 52 ca 75 bb 2a ba 9a 3d
       -0.2349657 -0.0332152 -0.0037504626 0.07555039
0002e0 09 72 7e 3c 0a 5f ee 3d e5 74 55 3e 67 95 3f be
       0.015530118 0.11639221 0.20845373 -0.18709336
0002f0 bd b8 56 be f7 0e ab 3c 49 d0 8e bc 12 cb 1b 3f
       -0.2096891 0.02088116 -0.017433302 0.60856736
000300 6d 5a 1b bf 02 dd 8e 3d 0a 6e cb 3d dd a8 85 bd
       -0.60684854 0.06975748 0.09933098 -0.06526349
000310 35 59 32 be 27 df 3e bf 07 33 fd be 57 30 b1 be
       -0.17416842 -0.74559253 -0.49452993 -0.34607193
000320 dd ba 73 3e 32 8c 0e 3f 0a b6 ff 3d 63 f2 69 3d
       0.23801751 0.5568267 0.12485893 0.057115924
000330 96 49 06 3e eb 12 9b 3d 8f 03 34 3e ef b9 a7 3d
       0.13114008 0.07571968 0.17579482 0.08189761
000340 61 41 4c 3e 11 0b ab 3d 15 6c 13 bf 7c f0 f8 3c
       0.19946815 0.0835172 -0.57586795 0.03038811
000350 ca 36 4a 3e b7 3c fa 3e 3d bc ec bd 38 a8 5f be
       0.19747463 0.48874447 -0.11559341 -0.21841514
000360 ec e9 1f be 3e 6a 59 3d bb b6 3c 3e 31 ac c9 3c
       -0.15616578 0.053079836 0.18429081 0.02461824
000370 2d f2 1a bf ca c5 2f 3f 70 21 08 3e b7 52 30 bf
       -0.6052578 0.6866118 0.13294005 -0.6887621
000380 f6 64 94 be aa 33 af 3d 97 58 0f 3e f3 6b a9 ba
       -0.28983277 0.08554776 0.13998638 -0.0012925848
000390 16 6a 9a 3d 83 6f 99 be 7d 2a de bc 9e 2c 15 3f
       0.075397655 -0.2996789 -0.02711987 0.58271205
0003a0 b2 09 c3 3d 69 60 c6 3e 3f bb 18 3d 60 b3 5b 3d
       0.095233336 0.3874543 0.037287947 0.053637862
0003b0 26 55 b6 3d 9c 48 78 bb 14 50 4d 3e 80 36 a3 3e
       0.089029595 -0.0037885075 0.20050079 0.31877518
0003c0 38 8f bf 3d 22 31 df 3c e4 eb 44 be 0d 25 e5 bc
       0.09353489 0.027245108 -0.1923061 -0.027971769
0003d0 b8 78 03 3d d9 89 47 bc f8 f5 44 3e e5 ae 67 bf
       0.03209755 -0.012178862 0.19234455 -0.9050124
0003e0 ab 3d 8d 3e c6 ec 01 3e cb 34 cf 3d 15 bc 32 bc
       0.2758611 0.12687978 0.10117491 -0.0109091
0003f0 35 ef e0 3a f4 09 40 3d 10 c6 70 bf 23 33 7b bf
       0.0017161133 0.046884492 -0.9405222 -0.98124903

Decoder.dec2.bias f4 [31]
000000 57 61 9f be b7 06 33 bd 8e d3 f5 3f 26 dd f1 bd
       -0.31128952 -0.043707576 1.9205186 -0.11809759
000010 24 5c 11 40 60 c5 3f 3e cd 0d 18 c0 d0 59 80 3e
       2.2712488 0.18727636 -2.3758423 0.25068521
000020 ce eb 72 bc 03 5b 85 3d e1 ff b0 3f dd db d2 3e
       -0.014826728 0.065115 1.3828088 0.41183367
000030 82 45 98 3f 58 32 de bf 13 89 03 40 89 be c3 bf
       1.1896212 -1.7359114 2.0552413 -1.5292522
000040 c5 6f a3 bd 31 59 2f be 96 55 b0 bd a6 b0 ae bf
       -0.07980303 -0.17123868 -0.08610074 -1.3647659
000050 ec bf c7 bd d3 51 ad bf e6 66 13 c0 b2 6b 95 be
       -0.09753403 -1.3540596 -2.3031554 -0.29183728
000060 55 31 e4 3c 9c c8 9a 40 51 f0 45 3e 94 2f 0f 3e
       0.027855555 4.8369884 0.19329955 0.13982993
000070 20 e6 3e 3e 1b 29 0d 3f af c2 d1 bf
       0.18642473 0.55140847 -1.6387538
