results/7_niid/model_alone_n_2_m_0.pt (torch, 121552 bytes, 8 tensors)

Encoder.enc1.weight f4 [256, 22]
00000000: 7f4f cfbd 2b4a 97bd 1c42 85be 38ed ed3c
00000010: e6e3 25be 6e30 1cbe 4626 f43b 94e2 73ba
00000020: 9d54 4cbd 39c3 2dbe 09b0 72bd 0dc8 c0bd
00000030: 1fbf 39be 5836 6bbd 962c e0bd 9fe4 983c
00000040: 1aee 9ebe d0e7 75bd 6412 e13d e05a 7f3d
00000050: 066b 23bd 811c ebbd 8164 29bc 5d95 773b
00000060: 42f7 89bd 5b3b ef3b 9489 353d f454 f23a
00000070: f396 093d a7d1 1cbd d8ef 82bd 0a31 b6bd
00000080: 2f0e 3d3d 1a83 05be d415 6cbc 4e87 f3bc
00000090: 5435 2dbd 10e6 a63b 8b10 99bc a113 743b
000000a0: e4d0 28bb 34a1 6d3d 34c4 9e3c 3182 893d
000000b0: 3104 953c 0188 99bd ef1e ba3c 9b36 36bc
000000c0: b860 2fbe 41c5 e6bd 14dd 56bc fffa 5dbe
000000d0: d8a4 94bd 9e6b efbd 86a1 ce3b 472d 07bd
000000e0: 0e87 d7bd 9fa2 8f3c 2944 31bc 64a9 4fb9
000000f0: b92c 7abe 099c a1bc 536c 13bc dc71 6e3d
00000100: 22fc 82bd 67e0 32bd 8eaf 04bb e60e 3abc
00000110: 801c 27be 0d48 743d dc0e 34be 9bff edbc
00000120: f228 463c b516 4bbe 1e94 4f3d 3e4b 70bd
00000130: b4c9 9fbd 7c43 fabb 74f8 b53d ccc2 7f3c
00000140: 35ff 003d b25b 80bd 1849 2f3d d6b5 76bd
00000150: d1d5 5c3d 698c c9bc 94b0 c1bb 32ba 433d
00000160: 8453 b4bd 27ae 51bd ff3b 66be e964 6c3d
00000170: 5c71 2e3d 74be 70bd f844 0ebe 4ee2 5dbd
00000180: c5d1 c0bd 5b79 13bd bb47 823d 7121 54be
00000190: d63a 7fbc 9f8c e23c b2f0 333c 934c 53bc
000001a0: 8fbb fcbd 3073 12be 7e97 0c3e 217a 17bd
000001b0: ddab a83c f7b3 f8bc 7924 a4bb d7af 563c
000001c0: b6da 92bc f31d 0fbc 050c 95bc fe3c 653c
000001d0: 9178 033c 155f 27bd c05f 84bc d377 85bd
000001e0: 0ad0 f83c c0c0 bfbd 8d8b fb3c 00ce 70bc
000001f0: e455 43bc a5b8 543b 668d 04bd 82e6 ccbd
00000200: bf0b bc3b da10 73bd d4fb a93d 81e3 283d
00000210: e08a efbd 6d07 313c f402 1fbe 8c7f 563c
00000220: 642f 463b ddb0 1abe c210 30be ab2c 0abd
00000230: e2b6 8fba 3e03 cabc 969a 9bbe 654a 82be
00000240: fa8f 35be 09db 01be 49f8 a43d b864 eb3d
00000250: 9283 1cbe 0dca 32bc d974 f83c c412 66bd
00000260: d65f ba3d d40d 0c3e 8fa0 c5bd 7d74 fe3b
00000270: 551a ad3b 04e3 a33c a4cb 3ebd a2fd 8ebd
00000280: 64be 24bd ff23 1fbe 66ba 9bbd ee8b 9dbd
00000290: 56de bd3d abcb 5ebd b3fd 0dbe 3431 46bd
000002a0: 0ce8 983b 25a1 903d a29e b4bc 24cc abbd
000002b0: 8325 c83c 34ff 96bd 36a3 973d 324c c53d
000002c0: 8bf3 373c c20d abbd dbef 15be e01e a2bc
000002d0: 1b2f 313d 1dd3 213d abe1 a0bd 21ff 1ebd
000002e0: 7468 d33c 912d b83a b35d 5cbd 479d 54be
000002f0: 6157 14be 26ec f2bc d5cc a33b d8ac a03d
00000300: 3aa1 b2bd d742 34bd b8c0 5c3b 92d8 43bd
00000310: c1c8 ec3c 7d63 783d df8c d23c f2d1 36bd
00000320: f132 4ebd 53f0 bdba 6444 5dbd 32bd 47bd
00000330: b024 f6bd b4ae b3bd 812c 0f3c b7cb 15bd
00000340: ed08 a93d bda5 55bc 179e 5dbd e1a4 a6bc
00000350: 6af6 1abd 9674 533b 19fd b5bc f0de babc
00000360: c3ec 11bd d960 a2bd 896e 7ebc 553a f23c
00000370: 075a 68bd ea01 82bd f0f1 90bd 25eb 583c
00000380: a59e a1bd cc8d 30bd b7b7 b2bc ab4f 06be
00000390: b065 d4bd 9edc b1bd c84d 37bd 21b2 4fbe
000003a0: 202d dabd 8df3 cbbd 465d ee3c 700c 403c
000003b0: 6c50 e8bd 5744 c4bd d357 2e3d 30f5 06bc
000003c0: b147 c63c 0fb9 073c 0bb0 573d 702a cfba
000003d0: 6891 dabd 052a 5b3d c637 923d 8524 3a3d
000003e0: e035 45bd 0a94 573c 9d8b 3b3d 44f4 b8bc
000003f0: 1b3d 42bc 713d 75bc 16b7 2ebc e2bc 92bd
-0.101225846 -0.07387193 -0.26027 0.029043779 -0.16200218 -0.1525285 0.0074508516 -0.0009303477
-0.04988538 -0.16969003 -0.05924991 -0.09413157 -0.18139313 -0.057424873 -0.10946004 0.018663703
-0.31041032 -0.060035527 0.10989836 0.062342525 -0.039896987 -0.11480046 -0.010338903 0.0037778236
-0.06736614 0.007300777 0.044320658 0.0018488453 0.033591222 -0.038285878 -0.06393403 -0.08896072
0.046156105 -0.13038293 -0.014409501 -0.029727604 -0.042287186 0.0050933436 -0.018684646 0.0037243145
-0.0025759274 0.058015063 0.019380666 0.06714285 0.018190475 -0.07496644 0.022719828 -0.011121417
-0.17126739 -0.11268092 -0.013114233 -0.21677779 -0.07258004 -0.11690448 0.006305876 -0.033002164
-0.105238065 0.017533598 -0.010819473 -0.00019804161 -0.24431123 -0.019727724 -0.0089979945 0.058214054
-0.06395747 -0.043671038 -0.002024624 -0.011356091 -0.16319466 0.059639025 -0.17583793 -0.029052546
0.012094723 -0.19832881 0.050678365 -0.058665507 -0.07802144 -0.0076374393 0.08885279 0.015610408
0.031493384 -0.062674895 0.042794317 -0.060232006 0.05391485 -0.024603086 -0.0059109423 0.04778499
-0.08804992 -0.051191475 -0.22483824 0.057713423 0.042588577 -0.05877538 -0.13893497 -0.0541709
-0.0941501 -0.036004405 0.06361338 -0.20715882 -0.015577992 0.027654944 0.010982679 -0.012896675
-0.123404615 -0.14301753 0.13729665 -0.036981706 0.020589763 -0.030359251 -0.0050092307 0.013103447
-0.017926555 -0.008735168 -0.018194208 0.013991592 0.008024351 -0.04086216 -0.016158938 -0.06516995
0.030372638 -0.09362936 0.030706191 -0.014697552 -0.011922333 0.003245869 -0.03236141 -0.100049034
0.005738705 -0.059342243 0.082999855 0.04123259 -0.1169641 0.010804993 -0.1552847 0.013091933
0.003024065 -0.1510653 -0.17193893 -0.033734005 -0.0010964538 -0.02465975 -0.30391377 -0.25447384
-0.17730704 -0.12681212 0.08055169 0.1149382 -0.15284565 -0.0109124305 0.030329155 -0.05617024
0.091003105 0.1367715 -0.09649765 0.0077653513 0.00528268 0.02000571 -0.046580926 -0.0698197
-0.040220633 -0.15541075 -0.07603912 -0.07692705 0.09270923 -0.05439345 -0.1386631 -0.048386768
0.004666334 0.07061986 -0.022048298 -0.08388546 0.02443195 -0.07372895 0.07404177 0.09633674
0.011227499 -0.083522335 -0.14642279 -0.019790113 0.043257814 0.039507974 -0.07855543 -0.03881753
0.025806643 0.0014051666 -0.053800296 -0.20763122 -0.14486457 -0.02965362 0.004998783 0.07845467
-0.08722158 -0.044009056 0.0033684205 -0.04781396 0.02890432 0.060641754 0.025701938 -0.044633813
-0.05034155 -0.0014491178 -0.0540203 -0.048764415 -0.12018716 -0.08773556 0.008738638 -0.03657123
0.082536556 -0.013040003 -0.054105844 -0.020342292 -0.037832655 0.0032265536 -0.022215413 -0.022811383
-0.035626184 -0.079286285 -0.015529283 0.02956883 -0.05672648 -0.06348021 -0.07077396 0.013239657
-0.07891587 -0.043103978 -0.021816118 -0.13116328 -0.10370958 -0.086846575 -0.044751912 -0.20282795
-0.10653138 -0.09958563 0.02909721 0.011721715 -0.11343464 -0.09583347 0.042564224 -0.008237168
0.024204107 0.0082838675 0.052658122 -0.0015805494 -0.10672265 0.05350687 0.07139544 0.045444984
-0.048147082 0.013157854 0.045787442 -0.022577412 -0.011855389 -0.014968262 -0.010663768 -0.07164933

Encoder.enc1.bias f4 [256]
00000000: 3169 bebd 7a9e 9ebd 2a8d 4bbe da1d ccbe
00000010: 6368 73bc d073 1bbe be5e a2be 167c 9cbe
00000020: c9de 4cbe 5ab1 c6be fad6 90bc d0ee b1be
00000030: e7be a23b 5852 53be 9119 c2be af9f 86be
00000040: c26d 4abd f766 1abc ecc4 96bd 5099 07bd
00000050: dec9 9ebe ce21 f2bc 23ed 2fbd 90ed 873c
00000060: 34fb 45bd 1308 e9be 75e9 6dbd 84ff 6e3c
00000070: 39fb 4dbe a501 75be 6290 2abe e6b4 f0bd
00000080: 262a 9abe 045d 0cbe 2258 39be 7477 75be
00000090: 7ee9 91bd e4f7 93be 439e 9bbe 76db 53bd
000000a0: 2f8c 3dbe becd 08be 060b 55be 8ace 5fbe
000000b0: 186e 83bd b633 6cbe 44f1 9abe 70f2 07be
000000c0: a6a1 58bd a596 33be 2e24 94be 5060 f8be
000000d0: b2a1 b3be cd17 a3bd 4eb2 29be b46d 97be
000000e0: f197 a2be 77b8 6abe 6e9b ebbd 61ac f4bd
000000f0: efe3 9fbe 5945 243c eda9 343d 267d 173e
00000100: 58c2 9bbe 67ba 29be 87d5 3c3d 9ed9 24be
00000110: d5b4 77be 8019 0dbe b874 bcbe 0e4a 45bd
00000120: 3a13 10be 6fa9 a9be 2e27 24bd 6966 80be
00000130: 48d7 8b3c eb84 9bbe a5f8 3bbe 1bd9 bebe
00000140: eb32 0fbd aadf 51be 565e fa3e 2c37 b1bd
00000150: f949 a8be 48b5 18bf ba6c 6cbd 0502 0dbe
00000160: 7326 34bd e908 87be 3210 fcbe 4191 9abe
00000170: 737b 94bd 21e8 45be fee0 c1bc 22d1 03be
00000180: bf8e 20be d204 f8bd 757f 29be 6801 04bf
00000190: 3e7d 9dbd 0687 773d 0b2f 3dbe 562c 4cbf
000001a0: 86be 543d 4b62 93be e494 333f b40b a0be
000001b0: 4a71 e23d 445b 00be 8af7 16be a241 f5bd
000001c0: 3f09 d9bd fdd4 72bd 821a a83f 4d45 30be
000001d0: 09df 5fbe fb11 06be 09bc 12be a9ec 9fbd
000001e0: b618 b5bd 1caa bebe 949f 8c3d 83ea 93be
000001f0: 41a4 71be 36f9 bfbe e544 cfbe b671 35bd
00000200: 8a88 97bd cd23 03be 1eb1 87be b2be a2be
00000210: 73d5 c8be f4d7 31be fc44 0bbe 8057 a2be
00000220: 5abc 78be dbb9 6bbe 1dc4 60be 9c82 f6bd
00000230: 947d ddbd 2e3e 873b ac9a 273c 3c37 84bb
00000240: 9bd7 35be 4222 90be 82e1 92bd 0d5d 883e
00000250: c31f 86bd 7900 71bd d217 68be b007 30be
00000260: 3d3b 0ebf 3905 79bc 26b1 efbc 0810 afbd
00000270: 3c14 93be 2287 7bbd 3bcd babd 54aa 46be
00000280: f51b 8fbe d83e f7bb 257b a4be 80ec 883d
00000290: 0469 95be b890 d9bd aff9 91be f504 c8be
000002a0: d803 fcbe d3be 08bd 1842 3bbe cb67 0abe
000002b0: d589 44be b6c8 1cbf 0def 55be 9322 833b
000002c0: 164f 72bd 04cd 10bb d59e 9a3c 9192 88be
000002d0: 5e27 b9bd 822e 31bd febd 4fbe 9d22 3cbe
000002e0: 640f acbc c768 84be 9769 a1be f214 94be
000002f0: 8bd2 35bd bcf8 71be 0def 61bd 0a1b 013f
00000300: c7c0 89be 2bbc b0be 322a 67be 4ffe 1dbe
00000310: 2eda 1c3f a095 0cbe 2086 3fbe d213 b53e
00000320: 9737 39be 0d7f 8abe b857 54be f5b7 6ebd
00000330: d15d acbe 2acf b7be bc98 8bbe d97b 2abe
00000340: a7e6 92be 48a3 e0bd af9f 80be 2e77 d8be
00000350: af9d 15be 57cf b9be e68f d9ba 51d2 1cbe
00000360: 9365 a5bd b44f 1abe 70f1 efbb b5ab 86bc
00000370: 28c3 10be 6278 dfbe 242b 82be 282d 98be
00000380: e6d6 0e3f 6469 07bc a488 98be d98f 0abe
00000390: 78c5 a5be a184 09be 2c9f afbe 8f5f 12be
000003a0: b905 f8be b4bd 83be 9e9f 95be 0e55 02be
000003b0: c416 72be e641 a2bd cdb8 4dbe 5c4b 86bd
000003c0: 4f82 0abe 6826 80be 64f4 f03c 2978 9dbc
000003d0: 3cf4 4dbe 787f 93bd 4406 69be db6a 14b9
000003e0: d926 87be 08ae 9cbb 0fd1 64be 43ff 99be
000003f0: e7d7 43be 2639 0abe ad75 c3bd e125 eabd
-0.092974074 -0.07745071 -0.19878069 -0.39866525 -0.014856431 -0.15180898 -0.31712908 -0.3056342
-0.20006861 -0.38807184 -0.017680634 -0.34752512 0.004966605 -0.2063688 -0.3791013 -0.26293704
-0.04942108 -0.009423963 -0.073617786 -0.033105195 -0.31013387 -0.029557135 -0.04295076 0.01659277
-0.04833527 -0.45513973 -0.05808397 0.014587287 -0.20115365 -0.23926409 -0.1665664 -0.11753254
-0.30110282 -0.13707358 -0.18100026 -0.23971349 -0.07124613 -0.28900063 -0.30394182 -0.051722966
-0.18510507 -0.13359734 -0.20804986 -0.21856132 -0.06417483 -0.23066601 -0.30262196 -0.13276076
-0.052888535 -0.17537935 -0.28933853 -0.4851098 -0.350843 -0.07963524 -0.16571924 -0.29575884
-0.31756547 -0.2292193 -0.11504255 -0.11946941 -0.31228587 0.010026299 0.044107366 0.14793834
-0.3042171 -0.16575013 0.046102073 -0.1609864 -0.24190076 -0.13779259 -0.368078 -0.048166327
-0.14069834 -0.3313708 -0.040076427 -0.25078133 0.017070428 -0.30374846 -0.18356569 -0.37275013
-0.03496067 -0.20495477 0.48900098 -0.08653101 -0.32868937 -0.59651613 -0.057720877 -0.13770302
-0.04398198 -0.26373985 -0.49231106 -0.30188945 -0.072501086 -0.19326831 -0.023666855 -0.12872747
-0.15679453 -0.121102944 -0.16552527 -0.51564646 -0.07689904 0.060431503 -0.18474977 -0.7975515
0.05193951 -0.2878593 0.70149064 -0.3125893 0.110567644 -0.12534815 -0.14742866 -0.11975409
-0.10597467 -0.059285153 1.313309 -0.17213936 -0.21862425 -0.13092797 -0.14329542 -0.07808811
-0.08842604 -0.37239158 0.068663746 -0.28889856 -0.23597814 -0.3749482 -0.4048225 -0.044297896
-0.0739909 -0.12806626 -0.26502317 -0.31786114 -0.3922535 -0.17367536 -0.13600534 -0.31707382
-0.242906 -0.23020117 -0.21949811 -0.120366305 -0.10814968 0.0041272854 0.010229748 -0.0040349048
-0.17758028 -0.28151137 -0.071719185 0.26633492 -0.06549027 -0.05883834 -0.22665337 -0.17190433
-0.5555914 -0.015198999 -0.029259276 -0.085479796 -0.28726375 -0.06140817 -0.09121176 -0.19400913
-0.27951017 -0.0075453334 -0.32125202 0.06685734 -0.29181683 -0.10623306 -0.28510806 -0.39066282
-0.49221683 -0.03338511 -0.18286932 -0.13516156 -0.19193204 -0.6124376 -0.20891972 0.0040019243
-0.059157453 -0.0022094855 0.018874565 -0.2667432 -0.09040712 -0.043257244 -0.2028732 -0.18372579
-0.021003433 -0.2586119 -0.3152587 -0.2892223 -0.044390243 -0.23630041 -0.055159617 0.50431883
-0.2690489 -0.3451856 -0.2257469 -0.15429042 0.61270416 -0.13728952 -0.18703508 0.35366684
-0.18087612 -0.27050057 -0.20736587 -0.058280904 -0.33665326 -0.3590024 -0.27264965 -0.16648807
-0.286916 -0.109686434 -0.2512183 -0.42278427 -0.14610933 -0.36291 -0.0016598671 -0.15314604
-0.08076014 -0.15069467 -0.0073224828 -0.016439298 -0.14136946 -0.43646532 -0.2542354 -0.2972195
0.5579666 -0.008264873 -0.2979175 -0.13531436 -0.3237722 -0.134295 -0.34301126 -0.14294265
-0.48441866 -0.2573067 -0.2922334 -0.12727758 -0.23641497 -0.079227254 -0.20090027 -0.065573424
-0.13526271 -0.25029302 0.02941341 -0.019222336 -0.201127 -0.07202047 -0.22756296 -0.00014154187
-0.26396826 -0.0047814883 -0.22345375 -0.30077562 -0.19125329 -0.13498363 -0.09543929 -0.11433006

Encoder.enc2.weight f4 [40, 256]
00000000: 50bc d03c a458 b23b ed15 88bc 5080 853b
00000010: b070 cabc 9d2c 34ba 0452 f0bb 0a82 163c
00000020: 315e b6b9 ee62 3abd 6d7a 053d 1381 10bd
00000030: 26a8 f73b 2185 49bc 8876 f2bc 521e 60bd
00000040: 8b0f e43c 1ae2 263c ba45 8e39 c250 8d3b
00000050: e1bd 57bc 48d1 ce3b 77df 933a e899 cc3a
00000060: 95dc dbbc 1cf5 90bc 7b50 233c ebd4 01bd
00000070: 417c a0bc b8bc 09bc b20f 08bc a941 263c
00000080: a0c9 2bbd bd8a d5bc 8086 1e3d 9787 d43c
00000090: ef5b 7b3b df50 cabc 1b9a 38bd 0b4a 65bd
000000a0: f781 213b 535c 193c 1f5d 003d ea03 243b
000000b0: bec9 e83c 4195 dd3a 4e73 72bd 3f4d 0abc
000000c0: dee0 3cbb 53a9 993a 6d53 e23c cb3e 3ebd
000000d0: b703 94bc df20 dcbc 3783 10bd 2984 a03c
000000e0: e40a 773b a90a b1bb fc66 4f3d 7cea a2bc
000000f0: 632b b63c 33f5 1fbb 4bab 2c3c 509f 5f3c
00000100: d551 99ba 1334 be3c 7d06 69ba e6a7 423d
00000110: 8022 c0bc 9096 9fbb 309d dbbc 5ed2 0b3d
00000120: 754e 8d38 bc2f 313d a984 943c b26a af3c
00000130: 4a36 803c 2873 46bb ecef f13c 0752 8f3d
00000140: 724a 873d d32e 5bbc 787a a1bb d139 17bd
00000150: 73ab 34bc 62a4 103c 4322 bdbc 776d 9b3d
00000160: c4c0 8fbc 5b8e b7bc ea7e cebc 9aa8 4dbc
00000170: 9fd9 ccbc 3120 8dbb 0cc8 7ebd eda2 2a3d
00000180: 4a49 8b3c daaf f8ba 559b 1e39 5e19 8ebc
00000190: d792 673b 7e4f f03c 4e3d 793c 8950 0f3c
000001a0: eff5 b03b cb18 36bd a861 bc3b 0b43 bbba
000001b0: 84cd ca3c a093 8dbb e4bb 69bb c157 713a
000001c0: 690a 903c 79bf 813c a065 523b 9035 543c
000001d0: 0658 91bc 269e b9bd f948 5a3c 943e b9bc
000001e0: 56ae 003d 2c00 02bd 1359 113c 07e2 b6bc
000001f0: 481f 5abb 6330 f4bc 694c 38bc efaa cc3c
00000200: 77ea 3dbc 8bf5 a4bc 4a56 3e3d 0bca 23bc
00000210: 5bf5 833d caa1 043d d26f d63b 8f53 b1bc
00000220: e3f7 6fbc 91a0 04bc e9cd c8bc 2772 11bb
00000230: bb35 63bc ade7 fabc 793a 953c 9b57 25bb
00000240: df1f da3b 8e06 d43c ebe9 053c 6a25 503c
00000250: b02f c43c fda0 4a3b 8ecf 333d a5ce 1ebb
00000260: 76ff ff3a 51d7 2fbc 674b 9abb a71b e0bc
00000270: c2ec 13bd 3ee9 b2bc d439 ce3c 889f 6abb
00000280: aea6 42bd c648 bcbb 30b0 83bc 74c2 a5b9
00000290: 95f2 4abd c22e 68bc 7780 c63c 21c0 913b
000002a0: 7c37 0ebb 3112 05bc 7c1f 62bc 9aa6 6dbd
000002b0: f355 a6bc 5a12 24bb c6ef 3b3c ffcd db3c
000002c0: 1352 493d 0d23 c83c 58f7 263c de27 133d
000002d0: 15e7 b63d a307 a0bb ad9a d23a b602 4abd
000002e0: f177 093b f2c8 563b 2d2c 2abd 7957 c6bc
000002f0: 8032 5f3d 2247 f5bb 569c 7ebb eee8 ef3a
00000300: 85c0 81bc 9a7a 5d3c 4504 abba bbeb 29bd
00000310: 3562 513b 923c 963c 2c7a ba3b 8b4c c4bb
00000320: cbdb fcbc fd0f 27bc 17a3 a83c 2f92 c2bc
00000330: 0e46 ac3c 2b1e 8d3c 1987 093d beed e1bc
00000340: d2bb a63c a798 5bbb fa83 913b 8089 e2bc
00000350: 5de4 2a3c 4a58 bc3c e772 09bd 66a2 d8b9
00000360: d13a c53c 9e14 9d3c 989b 89bc ef0a b73c
00000370: a9d1 83bc 9be8 19bc c10d 403d aa6c 8d3d
00000380: 2a42 8db6 ad27 19bd a0ec a03c 281f d93b
00000390: 2f47 85bc 25ab 8bbc 6601 8a3c 5575 77bc
000003a0: e07a cebd 6afd 8fbc 52be 223c c910 fc3b
000003b0: 6c30 893d a47f 34bd cedd 95bd b2d1 703b
000003c0: 13eb e83c 238d ef3c cb3d 36bd fa30 803c
000003d0: 5e01 6039 13af d1bb d405 143c af37 dfbb
000003e0: 6e9a 503c e7bf 4e3a 8eba 933b 8ab1 4c3c
000003f0: bda6 283d 8ff1 633d 5417 01bd 96ab 813b
0.02548042 0.0054426957 -0.016612018 0.004074134 -0.024711937 -0.0006873103 -0.007333996 0.009186277
-0.00034783923 -0.045504503 0.032587457 -0.035279345 0.0075578867 -0.012299807 -0.029597536 -0.054716416
0.027839443 0.010185743 0.000271363 0.0043126056 -0.013167829 0.0063115694 0.0011281808 0.0015609832
-0.02683858 -0.017695002 0.0099679185 -0.031697195 -0.019590499 -0.00840681 -0.008304523 0.010147491
-0.04194033 -0.026067132 0.038702488 0.02594356 0.0038354357 -0.024696765 -0.04506884 -0.055978816
0.0024644115 0.009360391 0.031338807 0.0025026747 0.02841651 0.0016905443 -0.059191994 -0.0084412685
-0.0028820555 0.0011723436 0.027627671 -0.046446603 -0.018068178 -0.026871143 -0.035281386 0.019594269
0.00376957 -0.005402882 0.050635323 -0.019887201 0.022237485 -0.0024407625 0.010538886 0.013648823
-0.0011697361 0.02321819 -0.00088892115 0.0475234 -0.02345395 -0.0048702434 -0.026808351 0.03413617
6.738018e-05 0.043258414 0.018129664 0.021413181 0.015650887 -0.003028104 0.029533349 0.06998067
0.06605996 -0.013377863 -0.0049279295 -0.036920372 -0.011027205 0.008828254 -0.023087626 0.07589238
-0.017547973 -0.022406748 -0.025207002 -0.012552405 -0.025006114 -0.004306816 -0.0622025 0.041659284
0.01700272 -0.0018973306 0.0001512592 -0.01734608 0.0035335326 0.02933478 0.01521237 0.008747228
0.0054004113 -0.04445724 0.005748946 -0.0014286948 0.0247562 -0.004320577 -0.003566497 0.0009206497
0.017583089 0.015838372 0.003210403 0.012952223 -0.017742168 -0.090633675 0.013323062 -0.022612847
0.03141626 -0.031738445 0.008871335 -0.022324575 -0.0033282805 -0.029808229 -0.011248686 0.024983851
-0.011591545 -0.020136615 0.04646901 -0.009996901 0.06443282 0.032380857 0.0065440917 -0.02164629
-0.014646503 -0.008094923 -0.024512248 -0.0022193284 -0.013867791 -0.03062805 0.018216358 -0.002522922
0.0066566314 0.025882032 0.008173446 0.012704233 0.02394852 0.003091871 0.04389911 -0.0024232056
0.0019531089 -0.010732488 -0.0047086957 -0.027356936 -0.03611446 -0.021839734 0.025174059 -0.0035800654
-0.04752224 -0.00574598 -0.016075224 -0.0003161613 -0.04954775 -0.014171304 0.024231179 0.0044479524
-0.0021700552 -0.008122013 -0.013801452 -0.05802021 -0.020304656 -0.0025035352 0.011470741 0.026831625
0.049150538 0.024430776 0.010190807 0.035926692 0.08930794 -0.004883723 0.0016067825 -0.04931899
0.0020976032 0.0032773581 -0.041546036 -0.024211632 0.05449152 -0.0074852863 -0.0038850508 0.0018303671
-0.01583887 0.013518 -0.0013047537 -0.041484576 0.0031949405 0.018339429 0.0056908336 -0.00599057
-0.030866524 -0.010196683 0.02058558 -0.023751346 0.021029498 0.0172263 0.033576105 -0.027579185
0.020353232 -0.0033507736 0.0044407817 -0.027653456 0.010430423 0.022991318 -0.033556845 -0.00041319727
0.024075897 0.01917487 -0.016797826 0.02234408 -0.016091185 -0.009393836 0.046888117 0.06905492
-4.20983e-06 -0.037391353 0.019644082 0.0066260286 -0.016269295 -0.017049382 0.01684637 -0.015103658
-0.1008203 -0.017576892 0.009933071 0.0076924306 0.06698689 -0.04406704 -0.073176965 0.0036746082
0.028432405 0.029242104 -0.044492524 0.015648354 0.00021362814 -0.0063990443 0.009034593 -0.006812058
0.012732131 0.0007886872 0.004508323 0.0124935005 0.04117464 0.05565029 -0.031516388 0.003957222

Encoder.enc2.bias f4 [40]
00000000: d6fb 993b 623e 23bd 4143 e1ba bbd7 ea3b
00000010: 6aff b03d d7e3 32bb 03e8 e2bc d207 b5ba
00000020: da9e 34bb eb70 593b b682 9bbb 683e afba
00000030: 4d8d b13b 2d36 46bc 5237 0c3b ed1c 15bb
00000040: fe45 5a3d 82f2 d73a 6fce babb a1f5 08bb
00000050: bc8f e1bb 7324 c8be 8569 8dbc 25fb 1ebb
00000060: 3f1c bbbe f2c3 debe 446b e4be 9d75 53bc
00000070: 9b10 6abc b36e 28bc aea8 55bc 89bf 93bc
00000080: 1f40 85bc cc26 4fbc f607 d3bc c12d e1be
00000090: 2f61 e9be 0711 86bc e8e6 3fbc b7d3 bfbe
0.0046992106 -0.039854415 -0.0017186181 0.0071668304 0.08642466 -0.0027296448 -0.027698522 -0.0013811535
-0.0027560503 0.0033178877 -0.0047458066 -0.0013370039 0.0054184557 -0.012097877 0.0021395278 -0.0022752837
0.053289406 0.0016475471 -0.0057008783 -0.002089836 -0.0068835896 -0.3909031 -0.01726223 -0.002425858
-0.36544988 -0.4350887 -0.44613087 -0.012906459 -0.014286186 -0.010280299 -0.013040705 -0.018035667
-0.016265927 -0.012643527 -0.025760632 -0.4398022 -0.45581958 -0.016365541 -0.011712767 -0.37466213

Decoder.dec1.weight f4 [256, 20]
00000000: 6098 b13b 0506 dfbc 313e 883b 60e8 8fbb
00000010: f2ee aa3b d64d f6bb ff14 16be f19d 2a3c
00000020: ddba 30bc fed6 d3ba 4b8d ad3b 8501 e8ba
00000030: bed0 f0b9 a7f5 f93a e9d5 c0bb d287 9e3c
00000040: e0ad ec3c 607b 243c 6c89 7ebb 20f7 9abe
00000050: ced5 b13a 5a50 72ba ff5d 593b 8067 abb9
00000060: fb97 d0bb 9d6a ecbd a4cb 55bc 227b bd38
00000070: d485 04bb 152c 3c3b 3ebb 1dbb 83a9 a3bb
00000080: b738 13bb 3754 35bb f7a5 3b3b 2989 7c3a
00000090: e44d f53b ee0d 55ba c99b 08bc 0946 853b
000000a0: e636 283b c1e0 7bbc fd91 10bc edc5 1ebc
000000b0: d8c9 913e a7e4 9cbc 59c7 06be dc23 b1bc
000000c0: cf78 71bc 5513 beba 9e4f a9bb 6dfd 373c
000000d0: db96 e53b 2c54 f3ba cd3f eabb a780 a1bc
000000e0: 4d56 5b3c 80a5 8a3b 106a b6ba 6041 963c
000000f0: 55c4 383b c284 61bc 2a03 9ebc 7cd0 bf3b
00000100: 7743 ad3e 5096 49bc acbb fbbd a49e 9bbb
00000110: 1c0e 18bc cbdf 75bb 1814 49bb 4b45 5e3c
00000120: e8cb b63a 26ae 9139 b256 d0bb d9ef 563c
00000130: e9e8 863c 4dd7 81bc 8622 0cbc 5ee8 bfb9
00000140: 9de3 1a3c 9b8f 3ebc dad1 493c 89bd 0dbb
00000150: a1be 8d3e c058 49bc f19f bebd dd33 d5ba
00000160: 80b3 0dbb 1d62 8d3b 26bb ca38 5658 8b3c
00000170: 5a44 58ba acde ba3c 5bbd f1bb b912 373d
00000180: d933 b1bc bbaf 38bc 0e3b 883a c052 12bc
00000190: 012e d7ba 2a33 683d 6821 12bb feb8 3e3b
000001a0: 74a0 c83b 4f63 ef3b 0593 213e fa12 a7bb
000001b0: d920 b13a c0b7 e4b8 192f e6ba 66c8 a0bb
000001c0: 1012 1aba eb4d 123a a34f a7bb 7046 9dbd
000001d0: 2924 cbbb 15e8 7ebb 020e 8f3b 2b05 cdbb
000001e0: f667 83bb dc93 84bc 2a0c 0d3b 823b ea3a
000001f0: 6b5f 5b39 6bb0 52bb f461 7fbc 6d64 213a
00000200: 952c 0d3b 2479 28ba d606 4c3b bbba 3db9
00000210: 61f2 c4b9 5321 4bb9 1879 eb3b 64b2 35bd
00000220: b907 603b b2ef 06ba aa2c 7abb 8d5d aa3a
00000230: b480 97bb 4029 c53d ab80 1cbc 6965 f4bb
00000240: bb74 f83b bc3f 12bc 5555 b0bd a1c2 a639
00000250: f853 9d3b 5239 873b 1315 93bb a613 193a
00000260: a638 ac3c 9b30 97b9 df42 ffbb 4189 09bc
00000270: fc1a ae3c 1e29 0d3b 6a48 25bc 755d 6c3a
00000280: a7ee 9bba ba04 8c3d 9e0d 923a 395b ddbb
00000290: aecb 53ba aebc c7bb 44ff 91bd 1154 113b
000002a0: 0b9b 593b db0f 26bc 1e41 e3ba 3cde da39
000002b0: 4330 babb dedc 1ebc 7c95 e53b aca5 09bd
000002c0: e5ca 0e3b db83 6eba b09d 2d3b d28b da3b
000002d0: 73ab 883b 7493 50bd 0c38 8a3a 89d6 ac3b
000002e0: 89ef 11bb f66c a839 7a19 0a3d fda0 1d3a
000002f0: 8d84 83bb b926 973a e62a 0fba d312 3d3c
00000300: 7979 19ba 38f5 443b b8b1 623b 4288 4a3c
00000310: 1885 7dbb 181e c83a f9f7 b5ba 9467 023b
00000320: 18c6 273c 8b4f 5a3d f40b 163b 59d7 b13b
00000330: e217 bf3b 6e28 e13a b1ce 9ebd 404c 85b8
00000340: d7f1 ae3b 5905 c13b 2b38 6cbb 5bee 3aba
00000350: ed09 893b 34a9 d13b 3016 5dbb 8e1f 95bc
00000360: bff1 28b8 0f53 233b d248 a6bb 4adb 0d3b
00000370: daba 0b3b 162e 503d d953 48bb bc5e 38bb
00000380: f5fd c2bb 36e2 7dbb e2b4 10bd 9f78 f93a
00000390: 8106 6d3b 8e84 763a d751 39ba 7816 e03a
000003a0: d851 b23b a2a2 fb3a 4100 f2bb 3261 2cbc
000003b0: 4cb8 b2bb 23b4 863b 2f9a 1ebb 4b3a c4ba
000003c0: ee7e d2ba ca9c 693d a285 f3bb 742f 8839
000003d0: 17d0 353b ddc6 00b9 0d8c 17bd c27e 23bb
000003e0: 16bc cbbb 17b9 9ebb a7c4 f13a db7f b9bb
000003f0: 2526 bfba d806 a53b 4474 c53b 7a39 13bc
0.005419776 -0.02722455 0.0041578044 -0.004391715 0.005216473 -0.007516603 -0.14656447 0.010413633
-0.010786739 -0.0016162095 0.0052963845 -0.0017700648 -0.00045931892 0.0019070402 -0.005884875 0.019351874
0.028891504 0.0100391805 -0.0038839234 -0.30266666 0.0013567747 -0.00092435407 0.0033167598 -0.00032692775
-0.0063657737 -0.11543772 -0.01304904 9.0351576e-05 -0.002022137 0.0028712798 -0.0024067904 -0.0049945726
-0.0022464225 -0.0027668604 0.0028632858 0.00096334756 0.007486092 -0.0008127381 -0.008337923 0.0040671867
0.0025667488 -0.01537341 -0.008823869 -0.009690744 0.28474307 -0.019151999 -0.13161983 -0.021623544
-0.014738276 -0.0014501611 -0.005166962 0.011229855 0.0070065088 -0.0018564514 -0.007148719 -0.019714667
0.013387275 0.004231155 -0.0013917107 0.01834172 0.0028193195 -0.013764562 -0.019288618 0.0058537107
0.33840534 -0.012303904 -0.12291655 -0.004749136 -0.009280708 -0.0037517424 -0.0030682143 0.013566325
0.0013946267 0.00027786306 -0.006357991 0.013118708 0.016468482 -0.015849734 -0.008553153 -0.00036603486
0.009453681 -0.011630918 0.012318099 -0.0021627864 0.276845 -0.012289226 -0.0930785 -0.0016266067
-0.0021621883 0.0043146745 9.66697e-05 0.017009895 -0.0008249931 0.022811256 -0.0073773093 0.04469559
-0.021631168 -0.011272366 0.0010393576 -0.008930862 -0.0016416908 0.05668942 -0.0022297744 0.0029101963
0.006122643 0.0073055397 0.1577874 -0.0050986977 0.0013513818 -0.00010906113 -0.0017561644 -0.004906702
-0.00058773253 0.00055810687 -0.005105929 -0.076794505 -0.006199379 -0.0038895656 0.0043656835 -0.0062567196
-0.004010196 -0.016183786 0.0021522143 0.0017870518 0.00020921013 -0.003214861 -0.015587319 0.0006156627
0.0021541466 -0.0006426743 0.0031132004 -0.00018094007 -0.0003756462 -0.00019372003 0.0071860664 -0.04435958
0.003418429 -0.0005147412 -0.0038173595 0.0012997851 -0.004623497 0.096270084 -0.009552161 -0.007458378
0.0075822747 -0.008926328 -0.08610026 0.00031806997 0.0048012696 0.004126706 -0.004488596 0.00058394147
0.021023106 -0.00028837178 -0.007789954 -0.00839454 0.021253102 0.00215394 -0.010088066 0.0009016612
-0.0011896685 0.06836839 0.0011142974 -0.0067552594 -0.0008079362 -0.0060954904 -0.07128766 0.0022175352
0.0033203985 -0.010135616 -0.0017338132 0.00041745778 -0.005682023 -0.0096962135 0.0070063453 -0.033605263
0.0021788415 -0.00090986275 0.0026491694 0.0066695 0.004170829 -0.050921872 0.0010545268 0.005274598
-0.0022268018 0.0003212464 0.033715703 0.0006013064 -0.004013604 0.0011531926 -0.00054614095 0.011540133
-0.00058545877 0.0030053388 0.0034590792 0.012361588 -0.0038684066 0.0015267758 -0.0013883106 0.0019898163
0.0102401 0.053298514 0.0022895308 0.005427283 0.0058317045 0.0017178187 -0.07754267 -6.356137e-05
0.005338888 0.00589053 -0.003604422 -0.00071308546 0.0041820914 0.0063983444 -0.0033735149 -0.018203523
-4.0279465e-05 0.0024921333 -0.005074599 0.00216456 0.002132109 0.0508252 -0.0030567555 -0.0028132638
-0.005950684 -0.0038739569 -0.035328753 0.001903314 0.0036167207 0.00094039075 -0.0007069385 0.001709654
0.0054418854 0.0019198249 -0.007385284 -0.01052122 -0.005454099 0.0041108294 -0.0024200787 -0.0014970986
-0.0016059557 0.05703429 -0.0074317018 0.00025975297 0.002774244 -0.00012281114 -0.036998797 -0.002494738
-0.00621749 -0.004843842 0.0018445448 -0.0056609935 -0.0014583512 0.005036216 0.006025823 -0.008985871

Decoder.dec1.bias f4 [256]
00000000: fb1f 9abe c6a6 a43c 0726 cfbe bd3c e5be
00000010: b7f7 32bf 78fc 37bd acd7 70bb 53ae 18be
00000020: cc35 59bd db76 973b f22e 92bd 0d3d 82bc
00000030: 088f 09bc f812 d43c 749c df3c ee35 4bbd
00000040: 9ee0 9a3c d6b9 45bd b947 dcbd 9125 c7bc
00000050: acc0 2cbd 71f4 eabe 7a0f 3cbd 1a83 30bd
00000060: dca9 a5be 15b7 24bc f765 30bd c605 ad3c
00000070: 080d a6be 883b c13c 1627 30bd a8ee fcbd
00000080: 08a8 ae3c 8ff0 f2bd 69d6 e33b 41cf 68bc
00000090: b5d9 17bd 395a 5d3b 7691 dbbe 984a 97bd
000000a0: 60a3 53bd ae58 4abd 4054 553b 608b ebba
000000b0: 3874 4abd 1b5b 8d3b 0bb2 883a 4631 0fbb
000000c0: 6ffa 4abb b74d d7bd 1552 1cbf 41af 783c
000000d0: e662 44bd 40ef 853c 5d91 983c d2d0 d73c
000000e0: b216 b73c 857c bb3c 640a 223a 9c8c 2abd
000000f0: c188 46bd 954d 4c3b baa4 d63a 534e 51bd
00000100: e226 e03c 2838 a03c 7f18 a5be afe3 b63c
00000110: ca34 d43c c281 edbe a173 5fbb 8bda fabb
00000120: e124 eeba 1a39 f7be b270 a43b 9b06 18be
00000130: 8afc ba3c 9216 663c 15bc cdbd 0fc1 b63c
00000140: 4384 b9bd b0c5 89bc 4dcd ad3c 9ad3 bb3c
00000150: cee1 823c 75ca 1fbd 7595 98be 8c9f a7ba
00000160: 2dac d13c 7925 d7bc 6db4 d83c 59cf 7ebd
00000170: 95d7 b8be 41de fb3a d2e0 14bc 6571 09bc
00000180: 561a 963c 775b cfbd cad7 1abf d173 2dbe
00000190: e81c be3c f4e4 ccbc b034 09bc 1b78 52bb
000001a0: 1804 4abd 660e cfbe 0f88 8a3c 4b96 9c3c
000001b0: a162 cebd 339a 93bf ac71 6b3c 78f8 ffbe
000001c0: ad5d 0dba 0a83 fcb9 7b9b 0cbf d1c8 c9be
000001d0: f2aa 63bc 8832 18bf 3b82 b53c e113 8d3c
000001e0: 084a bdbe ada3 40bd 5e92 cf3c 3a71 9c3b
000001f0: 630f 863b 5689 1bbe dc78 5abb 33ef c33c
00000200: 44c1 1bbe 2b31 a4be 4b49 d5be 29b9 41be
00000210: 97a8 afbe 2957 a1be 1855 b0be 972b 163c
00000220: 1ec0 e03c 5c96 66bc ca47 85bd 18e2 9dbe
00000230: 49fa f03c e7fa 3bbd 9024 02bf 17d5 1dba
00000240: 4ce2 acbb 3fd9 ab3c 1ef0 04bf 671f 37be
00000250: 70b0 58bd 3405 81ba 0fc6 2cbd 5e36 e7be
00000260: 6c74 1bbf 5446 87bb 8ad4 e3be a438 42bd
00000270: 2084 32bd 7ff9 48bf 9106 97bf 36e4 fcbe
00000280: 9720 48bd c00a 47bd 4c5f ceba fd5e c53b
00000290: 8348 34bc fc4c 32bd d24d 63be 06c6 93bc
000002a0: 3fad e6be f80b 53bd 256b e63c 7a68 3cba
000002b0: 3d90 ce3c f525 07bf 406e ed3c e51e c33b
000002c0: 6890 ccbe b528 e0bb f14e 003c e4f5 07be
000002d0: 3198 babd 80b5 e1bb 1623 35bc 581d e1be
000002e0: db85 bbbe 1905 6c3c b1ea 753c 2a49 a23c
000002f0: a2d7 d93c 9536 8439 4b01 8a3c d13b c7be
00000300: df45 9abe ee2d 723c 684a 49bd 1773 02bb
00000310: 0d5b d1bd 6592 50bb f4ba 99be 00ad ffbc
00000320: c974 14bf 0276 983b 1eba 16bb 8d04 1dbe
00000330: 9926 c73c 60d4 87be 96cf 4bbd b253 9fbe
00000340: 9fc3 e1be 9570 69bb 7b1a 51bd f755 13bf
00000350: bd4e 0cbc 2fc8 c13c 2d0e c23c 17d0 06bc
00000360: 8688 44bd 854c 6ebf 0b66 edbe b8d0 a938
00000370: 3562 ae3c cb4a 46bd 1376 833c 8e9c 2abc
00000380: 4a5a 503c 2dfe b0bb b80c f4bb 41cf f5be
00000390: b444 8e3a c876 4ebd 9dc4 a6be cb03 d2bd
000003a0: 6fdf 3fbd d745 10bf 1a7a 973c e036 d2bd
000003b0: 2452 0dbf a516 e03c 226b 82bc 1249 99bc
000003c0: d6d4 0bbf 173e a0be 0e3b bc3c d7c0 2cbe
000003d0: a069 7a3b 1a37 3cbf 7296 19bc 58f2 e3bd
000003e0: 7319 f0bd d081 afbb 497b 9a39 31cd 82ba
000003f0: 7416 eb3a b073 56bb fee5 833c 0e2e 293c
-0.30102524 0.020099055 -0.404587 -0.44772902 -0.6990923 -0.044918507 -0.0036749644 -0.1491025
-0.05302982 0.004622323 -0.0713786 -0.015898252 -0.008395918 0.025887951 0.027296282 -0.04961198
0.018905934 -0.04827293 -0.107558675 -0.024309905 -0.042175934 -0.4588962 -0.045913197 -0.04309378
-0.32356155 -0.010053416 -0.04306599 0.021120917 -0.32431817 0.023587957 -0.043006025 -0.123502076
0.021320358 -0.11862289 0.00695305 -0.014209569 -0.037072856 0.00337757 -0.42884415 -0.073872745
-0.05166948 -0.049400978 0.0032551438 -0.0017970614 -0.04942724 0.004313839 0.0010429038 -0.0021849438
-0.0030972024 -0.1051287 -0.6106275 0.015178503 -0.04794588 0.016349435 0.018624002 0.02634469
0.02234969 0.022886524 0.0006181358 -0.041638 -0.048470262 0.0031174172 0.0016375997 -0.051100086
0.02736229 0.019558027 -0.32245252 0.022325365 0.025904078 -0.4638806 -0.003409602 -0.007655447
-0.001816895 -0.48285753 0.005018317 -0.1484627 0.022825498 0.014043467 -0.100456394 0.022308854
-0.0905843 -0.016817898 0.02121606 0.022928048 0.015976813 -0.039011437 -0.29801527 -0.0012788638
0.025594795 -0.026262986 0.026453221 -0.06220946 -0.36101976 0.0019216017 -0.009086804 -0.008388852
0.018323105 -0.101248674 -0.6048552 -0.16938712 0.023207143 -0.025011517 -0.008374378 -0.0032115045
-0.04932031 -0.40440673 0.01691058 0.019114634 -0.10077406 -1.1531433 0.014370363 -0.49994254
-0.0005392682 -0.00048162817 -0.54924744 -0.39411023 -0.013895737 -0.59452105 0.022156825 0.017221393
-0.36970544 -0.047031093 0.025338348 0.00477424 0.0040911897 -0.15189108 -0.0033336198 0.02391777
-0.15210444 -0.32068762 -0.4165748 -0.18918289 -0.3430831 -0.3151181 -0.3443992 0.009165666
0.027435359 -0.014073934 -0.06507833 -0.30836558 0.02941622 -0.045893576 -0.5083704 -0.00060208276
-0.005276 0.020977614 -0.5192889 -0.17883073 -0.05290264 -0.000984347 -0.04218107 -0.45158666
-0.6072452 -0.004128257 -0.44498092 -0.047417298 -0.043583035 -0.785057 -1.1798879 -0.4939286
-0.048859205 -0.048594236 -0.0015744953 0.0060232864 -0.011003616 -0.04353045 -0.22197655 -0.01803876
-0.4505405 -0.051525086 0.028127262 -0.0007187199 0.025215263 -0.5279229 0.028983235 0.0059546106
-0.39953923 -0.00684079 0.007831321 -0.13277394 -0.091110595 -0.0068880916 -0.011055728 -0.439677
-0.3662556 0.014405512 0.015009568 0.019810278 0.02659208 0.0002521767 0.01684632 -0.38912824
-0.30131432 0.014781458 -0.049143225 -0.0019905025 -0.10222445 -0.003182554 -0.30025446 -0.031210423
-0.579907 0.0046527395 -0.0022999118 -0.15333767 0.024310397 -0.26529217 -0.049758516 -0.31118542
-0.4409456 -0.0035620083 -0.051050644 -0.57553047 -0.008563695 0.023655025 0.0236884 -0.008228323
-0.04798176 -0.9308551 -0.46366915 8.097425e-05 0.021287063 -0.048411172 0.016047513 -0.010413302
0.012716839 -0.005401394 -0.0074478053 -0.48009685 0.0010854215 -0.050406247 -0.3257188 -0.1025463
-0.046843942 -0.5635657 0.01849084 -0.10264373 -0.5520346 0.027354548 -0.015920226 -0.0187116
-0.54621637 -0.3129737 0.022977378 -0.16870438 0.003820993 -0.7352158 -0.009374248 -0.11130208
-0.11723604 -0.005356051 0.00029465024 -0.0009979365 0.0017935769 -0.0032722764 0.01610088 0.010325922

Decoder.dec2.weight f4 [31, 256]
00000000: 1366 a23d a16f 203d 3e72 98bd 32d4 823d
00000010: d682 f3bb 3d2e d0be 1091 53be 6b7a a7be
00000020: 0080 2fbd 50e2 5abf 40b4 2a3e 8799 8f3e
00000030: 2624 a93e 7bd3 f03d 18ee 43bc 096a 7f3d
00000040: d8bd 913d 0af3 123e 98c5 1fbe b2c8 983e
00000050: 85a8 06be 8549 ea3d 14b9 143d 0a94 cbbe
00000060: e354 8d3d 3685 d63e 33fe d3be 2f1c 493d
00000070: efe0 823d 9c5b 753c b483 4fbf 12dd 133f
00000080: d421 a63d 9e52 b6bd 011e 72bf ccf4 74bf
00000090: bcf6 4ebf 95d2 c43e b0e1 c43c dc55 2bbf
000000a0: 279f 5c3e 408f 463e 508c 4fbf 0f8e 1dbf
000000b0: 2e09 2f3e ec4c 81bf 7b6e 1e3f 325d 5d3f
000000c0: fdba 923f 3d46 25bf 0560 85bb f77d af3c
000000d0: 6c5b d83d 8451 663d ba72 ac3d 0c56 793d
000000e0: b413 1f38 1722 9b3d d8ad 5ebf ef89 2cbf
000000f0: 4dea 2a3e dcde 3a3f 76a9 513f 6896 013e
00000100: 3698 833d 33bb 1e3e 9a41 9d3d 011a 973d
00000110: b4a1 c13d db9b 3d3d 063f 6abf db29 243e
00000120: 5101 533f 0306 ecbc 78f3 56bf 7d10 c1be
00000130: 8f55 853c f1da 5a3c 01e1 8b3e 00b3 823d
00000140: 7d53 8b3d fb3e c53e 1c16 5f3b 1b84 123d
00000150: e5ce 1f3d 1a0e 65bf 75ec 87bc 1279 6a3e
00000160: 5926 a93d ad46 53bd 3fa6 933d e606 1abc
00000170: 52da 893d 2c69 5e3f c822 36bf f685 f13e
00000180: f0e6 0b3d 5f86 cf3f 5e7e 8cbc dec7 14bd
00000190: b7fd 483d 96d9 8f3e 6418 093f e11d 23bf
000001a0: a83b 093c f1c6 913d 729b 523d 5e57 2f3d
000001b0: 48e4 28bf 2348 afbf 8e60 8c3c 72ac 823d
000001c0: 2ba3 55bf 9e0e 413f ba8a c9be 320d 42bf
000001d0: 4ed0 b53e 78ad f93b 336b b93c a1d5 313c
000001e0: 3380 6ebc 8bb1 143e c28f b83c a3dc 62bf
000001f0: 208d 2fbf 7183 853e c0e3 42bf c53b 833d
00000200: ee9a 29bf 0663 623d a1cf 0abe bbc9 29be
00000210: c49a a7bd 2b1e 803d 5679 553c bbee 3dbf
00000220: 31ee 303c 9c14 873e 2205 82bd 4f3d 793c
00000230: efb6 753d 5785 0cbf 7df0 6e3d 5e85 39bf
00000240: 93ed 15bf bf2c 793d 70c6 aabd 354b 0bbf
00000250: 8694 0a3e 0bba 2fbf f050 26bf 4dc7 0fbe
00000260: e9e2 e7bc 4ea2 a5bf 7a77 813b 0e3b c6be
00000270: e421 8b3e a0ac a7be 713d 94bf 1aa7 c8bd
00000280: 35ff 273e 48c0 3d3e c88d 0ebe e471 0f3f
00000290: 29fa a43e 0571 4dbf 8ea8 c03e e5ba b43e
000002a0: b5fe 453c 19cb 593e 9186 d33d 4ec2 2dbf
000002b0: 8a5c 9f3d 901c 5bbe 8eac 8d3c fa3a 49bf
000002c0: 63d9 c6bd 0a64 0cbf c9af f43d 88b2 2ebf
000002d0: 64df e93d d2b5 eb3e 15e8 38bf b591 f0bd
000002e0: 374c 3c3d c0a5 b03c 6f7f 9d3d 3710 053d
000002f0: f86b 3e3d 2b93 2cbf 34b0 273d e955 7a3d
00000300: 0f97 24bd 9f58 763d 2cc4 233e a738 36bf
00000310: 593d 003e 9cfa 30bf a767 c73d a9d3 543d
00000320: c2a1 4fbd 4192 6c3f 21e6 26bf 2b74 0b3f
00000330: 15d0 ad3d b8aa 95bc 9dcd 4b3e 074b ed3c
00000340: d195 1f3d 7960 5ebf fe2e 6f3e 8175 3bbd
00000350: 9f5c af3e b2e7 d2bc b999 703d beba e63e
00000360: e854 db3e f515 1bbe 5e45 503d 6e1d 18bf
00000370: df02 523d 8d18 1b3e 2c60 fa3c d12a 1fbf
00000380: 3a0b dc3c a21f be3e 7574 2abf ddf1 9b3c
00000390: 8cca 363f a45e c03e b254 593d 0e9c 023e
000003a0: ae06 be3e 452e a5bd 1d72 8e3c 6cec b23d
000003b0: a6d9 ecbc 18f2 213e a8f7 b43e e88c c03d
000003c0: 8a86 6abf 3a58 b13d f9da 833d 9895 1d3d
000003d0: dbba 74bf 8937 293e 9808 6c3e c3d2 febe
000003e0: 43b0 3f3e c4e1 44bf a4fa 673f 1d07 f7be
000003f0: ca3e 123f 1392 8bbf f1da 9c3d 8745 a03c
0.07929625 0.039168958 -0.07443665 0.06388129 -0.0074313683 -0.40660277 -0.20660806 -0.32710585
-0.04284668 -0.85501575 0.16670322 0.2804682 0.33035392 0.11759087 -0.011958621 0.062356982
0.07116288 0.14350525 -0.1560272 0.29840618 -0.13150223 0.11439804 0.036309317 -0.39761382
0.069009565 0.41898507 -0.41404876 0.049099144 0.06390559 0.014975455 -0.8106034 0.577592
0.08111921 -0.08902477 -0.9457703 -0.9568603 -0.80845237 0.3844191 0.024033397 -0.66927886
0.21545087 0.19390583 -0.81073475 -0.6154489 0.17093346 -1.01016 0.6188733 0.8647033
1.1463314 -0.645603 -0.0040702843 0.02142237 0.10564312 0.056230083 0.0842032 0.060873076
3.7926904e-05 0.075748615 -0.86984015 -0.6739797 0.16690941 0.72996306 0.818992 0.12655032
0.06425516 0.15501098 0.07678528 0.07378007 0.094546705 0.046291213 -0.91502416 0.16031592
0.82423884 -0.02881146 -0.83965254 -0.37707892 0.01627615 0.013357864 0.27320102 0.06381798
0.068030335 0.38524613 0.0034040278 0.035770517 0.03901567 -0.8947464 -0.016592244 0.22897747
0.08259267 -0.051581074 0.07209443 -0.009401059 0.067310944 0.8687923 -0.7114682 0.47172517
0.034155786 1.6212882 -0.0171501 -0.03632342 0.049070086 0.28095692 0.5355284 -0.63717467
0.00837604 0.07118023 0.051417775 0.04280793 -0.6597333 -1.3693889 0.017135885 0.063805476
-0.834521 0.7541293 -0.39363652 -0.75801384 0.35510486 0.007619556 0.022634124 0.010854156
-0.014556932 0.14520852 0.022529487 -0.88617915 -0.68574715 0.26076844 -0.7612877 0.064078845
-0.6625203 0.055270217 -0.13555767 -0.1658086 -0.08183816 0.06255754 0.013029417 -0.741924
0.010798977 0.2638291 -0.06348635 0.015212371 0.059988912 -0.5489096 0.058334816 -0.7246913
-0.58565634 0.06083369 -0.0833863 -0.5441163 0.1353322 -0.68643254 -0.6496725 -0.14040871
-0.028306441 -1.2940156 0.0039510103 -0.3871693 0.27174294 -0.3274889 -1.158125 -0.09797497
0.16405948 0.1853038 -0.13921273 0.5603316 0.32222107 -0.8025058 0.37628597 0.3529884
0.012084653 0.21268882 0.10328401 -0.6787461 0.07781322 -0.21397614 0.017294195 -0.78605616
-0.09709432 -0.5484015 0.11947591 -0.6824117 0.114195615 0.46037155 -0.7222913 -0.117465414
0.04597112 0.02156341 0.07690322 0.032486167 0.046489686 -0.6741206 0.040939525 0.061117087
-0.040183123 0.06014311 0.15992802 -0.71180195 0.12523402 -0.691324 0.09736567 0.051959667
-0.050691374 0.92410666 -0.651949 0.54474133 0.08486954 -0.018269882 0.19902654 0.02896644
0.038961235 -0.86865956 0.2335777 -0.045766357 0.34250352 -0.025745247 0.05874035 0.45064348
0.42838216 -0.15145095 0.050847404 -0.59419906 0.05127227 0.15146084 0.030563436 -0.6217471
0.026860822 0.3713351 -0.6658395 0.019036228 0.7140281 0.37572205 0.053059287 0.12754843
0.3711447 -0.08065466 0.017388398 0.087365 -0.028912377 0.15815008 0.35345197 0.09401876
-0.9161154 0.08659406 0.0643825 0.03847274 -0.9559762 0.16525091 0.23050153 -0.49770173
0.18719582 -0.7690699 0.9061682 -0.48247615 0.5712706 -1.0903953 0.07658947 0.019564403

Decoder.dec2.bias f4 [31]
00000000: 49d2 08bf 78f9 f23c 3fa1 4f40 10d4 84bd
00000010: ed11 3f41 c875 0ebf 53bd 81c0 114a a53f
00000020: 5cb2 013f 9439 333f 74f6 0a40 fe6a 243f
00000030: 2a38 fd3f f262 1bc0 c5b5 6e40 2f1a 69c0
00000040: 4ebe c4bd 5dd7 56c0 1f93 b0bd 79da 8ac0
00000050: 4edc c7bd 6c4e 8bc0 eedf 6fc0 99a9 053e
00000060: f0b6 ab3c 60ce 5e41 679e 473e d647 82c0
00000070: 7ed9 423e bcd5 7cc0 7aea 48c0
-0.5344587 0.029659972 3.2442167 -0.0648576 11.941876 -0.5564847 -4.054361 1.2913228
0.5066278 0.7000973 2.1712923 0.6422576 1.9782765 -2.4279141 3.7298443 -3.6422231
-0.0960661 -3.3568947 -0.08621811 -4.339169 -0.09758817 -4.353323 -3.7480426 0.13052978
0.020961255 13.9253845 0.1949402 -4.071269 0.19028279 -3.9505453 -3.1393113
