results/7_niid/model_alone_n_0_m_0.pt (torch, 121552 bytes, 8 tensors)

Encoder.enc1.weight f4 [256, 22]
0.14639516 0.16034414 0.15838979 -0.18378526 -0.055331003 0.16936721 -0.16031381 -0.072050124
-0.029907981 -0.047325008 0.039494097 0.1061673 -0.16015731 -0.18721424 0.02460408 -0.032929383
0.08994386 -0.04681996 0.085324064 0.11399295 -0.13170458 0.16450134 -0.10199686 -0.21710847
-0.19871756 0.12988938 0.13212202 -0.022044027 -0.06455736 -0.08068275 0.08858219 -0.09856951
-0.077030264 0.13844559 -0.056396168 0.13102087 0.12685579 0.18338417 -0.014860052 -0.09885688
0.022698537 0.18009861 1.3748322e-05 0.049466617 0.05017287 -0.16380422 -0.009855733 0.08281366
-0.07337882 -0.13752806 0.09501286 -0.03455037 0.13077477 -0.008096472 -0.008921416 -0.05908159
-0.03340672 0.056295194 0.057335895 -0.16146454 -0.106906936 0.11777248 0.07608458 0.029851161
0.18687108 -0.022626374 0.1750575 -0.177934 -0.0068199253 -0.18686521 0.014568694 0.0023664685
-0.05877 0.091751866 -0.034277637 0.05574947 -0.068410024 0.13954006 -0.19116248 0.21419631
-0.1642304 -0.046040747 -0.12613475 -0.01202009 0.03546306 -0.0776531 0.081472464 -0.07476487
-0.17601517 -0.059998654 0.07732095 0.08964569 0.06921004 0.0066089863 0.042346448 -0.018747682
0.13691318 0.061368573 0.059336603 -0.08207996 -0.058542594 0.03303658 0.16872405 0.17770897
-0.09436828 0.040337894 0.08132702 -0.18901516 0.12326814 -0.16932869 -0.011039138 -0.20089947
0.06554936 0.064908035 -0.054678153 0.17844167 -0.045474943 -0.1941606 0.12612493 -0.14888996
0.01081584 -0.17004336 0.09180886 0.12456807 0.031343106 0.107106425 0.19335537 0.071954176
0.19718087 -0.107691914 0.24418245 -0.11306845 0.14878605 -0.024236783 -0.09556329 -0.1460677
-0.10467718 0.068736635 -0.08507908 -0.10767086 -0.19594908 -0.2315668 -0.06266605 -0.055929814
-0.14049694 -0.008784061 -0.14988086 0.13727884 0.113161735 -0.12271482 -0.113831505 0.06040918
-0.03731321 -0.049087554 -0.041432563 0.1046792 0.19292882 0.090703905 -0.13743772 -0.14381331
0.017004387 -0.16528085 0.09808898 0.07291387 -0.13612485 -0.028911738 0.11143569 0.16503541
-0.03211194 -0.02237637 -0.1483415 0.086462885 0.18969056 0.04097389 -0.10878807 -0.08540959
0.08138385 -0.03997965 0.16178192 0.076077476 -0.02292082 -0.1110312 -0.17473374 0.004914795
-0.1266794 -0.08239468 -0.21077369 0.06622405 -0.2011966 -0.19081849 -0.07350683 -0.065239914
0.007168175 0.082180604 -0.055450205 0.18338683 0.028198175 0.09398811 -0.15480524 0.11805961
0.16344176 0.116379894 -0.09337286 0.083526194 -0.084529 0.08848823 0.08039331 0.06360835
0.04214476 0.07336502 -0.123230316 0.1699196 -0.05429358 0.15690498 -0.14758839 0.07288961
0.132714 -0.0259926 -0.002783664 -0.00211752 0.00092904805 0.021350348 0.09218273 0.07337964
0.15572971 0.03143073 0.034922354 -0.047763906 -0.029025031 0.12259957 -0.09826199 0.10690845
0.09490605 -0.08971131 0.09176395 -0.14031513 0.011524674 0.059583697 0.072700486 0.13428353
0.09862582 -0.11698014 -0.08838447 0.08768535 -0.123745956 -0.04782566 0.13942888 -0.07626884
0.07723657 -0.15939628 -0.15791379 -0.184675 0.13810657 -0.06425549 0.010163632 0.06669263
00000000: 9de8 153e 4131 243e ef30 223e 3432 3cbe
00000010: c3a2 62bd 996e 2d3e 4e29 24be 048f 93bd
00000020: 9501 f5bc ded7 41bd 90c4 213d 3e6e d93d
00000030: 4700 24be 17b5 3fbe 7f8e c93c f6e0 06bd
00000040: 7d34 b83d 49c6 3fbd 62be ae3d 2375 e93d
00000050: 91dd 06be 0a73 283e bbe3 d0bd af51 5ebe
00000060: 9e7c 4bbe b901 053e ff4a 073e ad95 b4bc
00000070: a636 84bd ff3c a5bd 946a b53d d0de c9bd
00000080: 0bc2 9dbd aec4 0d3e abff 66bd 562a 063e
00000090: 7ce6 013e 0fc9 3b3e 9377 73bc 7a75 cabd
000000a0: 48f2 b93c c56b 383e 98a8 6637 829d 4a3d
000000b0: 1182 4d3d 4bbc 27be f179 21bc 359a a93d
000000c0: a347 96bd 28d4 0cbe 1a96 c23d b084 0dbd
000000d0: d2e9 053e 11a7 04bc 212b 12bc 8aff 71bd
000000e0: 7cd5 08bd ca95 663d 0bd9 6a3d f656 25be
000000f0: 06f2 dabd b332 f13d 3bd2 9b3d 6c8a f43c
00000100: 225b 3f3e f25a b9bc 4642 333e 5534 36be
00000110: ae79 dfbb 9859 3fbe 88b1 6e3c c116 1b3b
00000120: d0b8 70bd 67e8 bb3d b566 0cbd 8e59 643d
00000130: 8e1a 8cbd 97e3 0e3e 19c0 43be 4756 5b3e
00000140: 042c 28be 3995 3cbd 7829 01be e9ef 44bc
00000150: b741 113d 9708 9fbd 09db a63d 531e 99bd
00000160: 523d 34be 26c1 75bd 725a 9e3d 2998 b73d
00000170: febd 8d3d 3290 d83b 7873 2d3d bd94 99bc
00000180: f832 0c3e 9d5d 7b3d f00a 733d 8a19 a8bd
00000190: 5cca 6fbd 5d51 073d ffc5 2c3e 57f9 353e
000001a0: 2844 c1bd 5939 253d c88e a63d 318d 41be
000001b0: 0274 fc3d 8064 2dbe 80dd 34bc 97b8 4dbe
000001c0: be3e 863d 81ee 843d 33f6 5fbd 6ab9 363e
000001d0: ef43 3abd 09d2 46be e526 013e 9c76 18be
000001e0: ec34 313c d91f 2ebe 4906 bc3d 8b1d ff3d
000001f0: a161 003d 9d5a db3d f3fe 453e b65c 933d
00000200: c8e9 493e 948d dcbd f70a 7a3e 6e90 e7bd
00000210: 5f5b 183e 388c c6bc b0b6 c3bd c592 15be
00000220: fd60 d6bd cbc5 8c3d f13d aebd 8a82 dcbd
00000230: e0a6 48be d91f 6dbe 0f57 80bd a916 65bd
00000240: 6ede 0fbe 06eb 0fbc 5e7a 19be d392 0c3e
00000250: 57c1 e73d e851 fbbd 7e20 e9bd 9e6f 773d
00000260: bdd5 18bd 0810 49bd 31b5 29bd 0c62 d63d
00000270: 228f 453e f8c2 b93d 79bc 0cbe cc43 13be
00000280: c94c 8b3c 623f 29be e0e2 c83d de53 953d
00000290: 5064 0bbe 4fd8 ecbc 6538 e43d 0bff 283e
000002a0: cf87 03bd a64e b7bc d6e6 17be 7413 b13d
000002b0: 3e3e 423e 3dd4 273d 48cc debd 39eb aebd
000002c0: 93ac a63d b4c1 23bd 29aa 253e 82ce 9b3d
000002d0: 72c4 bbbc 5364 e3bd 67ed 32be 4a0c a13b
000002e0: 3fb8 01be 8bbe a8bd 0fd5 57be 7aa0 873d
000002f0: 7b06 4ebe ec65 43be c08a 96bd 819c 85bd
00000300: 03e3 ea3b 4e4e a83d c11f 63bd c2c9 3b3e
00000310: dcff e63c d77c c03d 4485 1ebe 3dc9 f13d
00000320: 475d 273e 9558 ee3d 453a bfbd c80f ab3d
00000330: 8a1d adbd 5139 b53d 3fa5 a43d 1845 823d
00000340: fc9f 2c3d 6640 963d 2d60 fcbd 67ff 2d3e
00000350: f262 5ebd b3ab 203e 6921 17be 2647 953d
00000360: 2ee6 073e 6fee d4bc 226e 36bb 17c6 0abb
00000370: 5c8b 733a ede6 ae3c 4dca bc3d 1148 963d
00000380: 9c77 1f3e 82bd 003d be0a 0f3d 16a4 43bd
00000390: e7c5 edbc 7c15 fb3d 953d c9bd d1f2 da3d
000003a0: 1a5e c23d 90ba b7bd bdee bb3d c5ae 0fbe
000003b0: fcd1 3c3c 090e 743d fee3 943d 9f81 093e
000003c0: 55fc c93d 4993 efbd eb02 b5bd 6094 b33d
000003d0: 856e fdbd d7e4 43bd 72c6 0e3e d632 9cbd
000003e0: 352e 9e3d c738 23be 27b4 21be 711b 3dbe
000003f0: cf6b 0d3e 6298 83bd 5d85 263c 2596 883d

Encoder.enc1.bias f4 [256]
-0.04361651 0.00072341016 0.058641765 -0.0019182021 0.13478088 0.19336385 -0.014755386 0.18411261
0.058651704 -0.13809848 -0.06439127 -0.23671 -0.029957866 -0.19529483 -0.013405187 0.12140517
-0.16215813 0.18591976 -0.19069411 0.10596112 -0.0951247 0.14768009 -0.22677928 0.012268219
0.1644146 0.0075912667 0.16779251 0.067746885 0.060771693 -0.0868376 -0.035174232 -0.13480487
0.16272856 0.11933025 0.13986067 0.18419942 0.14602762 0.13996011 -0.1804194 -0.13115536
-0.116545446 0.05075333 -0.115547314 0.16580532 0.14545982 0.17067468 0.1453187 -0.14987798
0.034164026 0.047661167 -0.17297153 -0.22102214 -0.20479432 -0.17601243 -0.080597565 0.09268959
0.11780336 0.17528068 0.07286941 0.06507049 -0.042863574 -0.102282025 0.057146214 0.07301686
-0.1609774 0.023842195 -0.08005259 -0.23828693 -0.10815463 -0.080623254 -0.22785068 0.08130103
-0.16846165 0.10483668 0.006801271 0.022148104 -0.12595348 -0.15239003 -0.069710374 -0.12031465
-0.035857193 -0.03350175 -0.035520233 -0.16142432 -0.05717425 -0.14399172 0.17228206 -0.09883837
0.0053867577 -0.19411722 0.06735494 0.10745168 0.11500047 -0.03926461 -0.15305725 0.15316342
-0.114022054 -0.16801691 -0.04280623 -0.049247272 0.105469555 -0.17800221 -0.19921082 0.12766308
-0.14523785 -0.21014959 0.18751852 -0.13575308 -0.19320083 -0.046493392 -0.17469032 -0.07940792
-0.0801338 0.12112259 -0.13511483 -0.07219474 -0.17082949 0.13356663 -0.1738765 0.093498334
0.1503653 -0.0020797336 0.01680652 0.093912676 -0.014083486 0.09336004 0.20022476 0.13305905
0.12624344 -0.20045738 -0.159837 0.18089394 -0.15195303 0.07314457 0.0946226 -0.02639516
0.11108956 0.14760318 -0.08167987 0.13267657 -0.20773472 -0.071975745 -0.07626598 0.055750303
-0.11674547 0.030721635 -0.10265679 -0.0803374 -0.20781812 0.13924342 -0.14691253 -0.15444005
-0.010995558 -0.14398584 -0.17176223 0.1604133 0.13288724 -0.13313551 0.015611444 -0.19458799
-0.1529269 -0.14351717 -0.18391672 -0.029003635 -0.04344327 0.007035997 -0.03586279 0.028405959
-0.01538645 -0.21002513 -0.070321985 -0.14724667 0.093588196 -0.09316609 -0.22186509 -0.10223346
0.123498015 -0.13932599 0.18168794 -0.0474404 0.008905268 0.04038258 -0.025529798 -0.1874364
0.07029016 -0.090143375 -0.22513564 -0.122399814 -0.006002603 0.13683584 -0.20479476 -0.07780671
-0.16315809 -0.105685584 -0.15762724 -0.05088558 0.12394971 0.08804052 0.108538456 -0.16140728
0.065330185 0.026491946 -0.025581243 -0.13349122 -0.044828434 -0.20701157 0.19091104 -0.16505456
-0.16661133 0.105310634 -0.0443186 -0.18970463 0.18258938 -0.19179067 0.21660371 0.029877855
-0.0070504933 -0.042208668 0.18936408 -0.05284252 -0.03484741 0.112152696 0.17535812 0.021842172
0.13197817 -0.21495448 -0.16512041 -0.18658015 -0.1015561 -0.24073926 -0.20415309 -0.037222806
0.11240746 0.12676777 0.17121223 -0.047028027 0.085003965 0.056169722 0.04576657 0.063826166
-0.20882012 0.17122392 -0.189013 0.020849558 0.011653748 -0.034216993 -0.018831657 -0.21846087
-0.12792121 -0.07116092 -0.2328351 -0.15173537 -0.1188032 0.070694454 0.08939018 -0.10255766
00000000: 3aa7 32bd 3ca3 3d3a 5932 703d 2f6c fbba
00000010: 0004 0a3e 2c01 463e 93c0 71bc 0488 3c3e
00000020: c53c 703d b069 0dbe 92df 83bd 1b64 72be
00000030: 336a f5bc 5efb 47be 6ea1 5bbc 46a3 f83d
00000040: c80c 26be c061 3e3e 5145 43be 2502 d93d
00000050: bdd0 c2bd 7339 173e d438 68be a400 493c
00000060: 4d5c 283e 29c0 f83b cdd1 2b3e e1be 8a3d
00000070: bdeb 783d e9d7 b1bd db12 10bd 4a0a 0abe
00000080: 51a2 263e 6b63 f43d a337 0f3e c69e 3c3e
00000090: 4488 153e b451 0f3e ddbf 38be 974d 06be
000000a0: 61af eebd b9e2 4f3d 12a4 ecbd dfc8 293e
000000b0: 6bf3 143e 58c5 2e3e 6dce 143e 9d79 19be
000000c0: 94ef 0b3d 5b38 433d 731f 31be a153 62be
000000d0: 9ab5 51be 9a3c 34be 5610 a5bd 0ad4 bd3d
000000e0: e342 f13d c77c 333e 8f3c 953d ad43 853d
000000f0: b791 2fbd 3d79 d1bd 2612 6a3d dd89 953d
00000100: 42d7 24be b550 c33c 9df2 a3bd 7d01 74be
00000110: 2d80 ddbd ce1d a5bd b051 69be 2881 a63d
00000120: 3681 2cbe 9db4 d63d 32dd de3b f16f b53c
00000130: f3f9 00be 220c 1cbe 50c4 8ebd 8767 f6bd
00000140: fede 12bd 2239 09bd aa7d 11bd 6b4c 25be
00000150: 8c2f 6abd 9172 13be b56a 303e c56b cabd
00000160: 6683 b03b aac6 46be 63f1 893d a00f dc3d
00000170: 5e85 eb3d edd3 20bd 0abb 1cbe dfd6 1c3e
00000180: 6584 e9bd a00c 2cbe 9655 2fbd 82b7 49bd
00000190: 6c00 d83d 3646 36be ecfd 4bbe 1cba 023e
000001a0: 3bb9 14be 7431 57be db04 403e db02 0bbe
000001b0: 70d6 45be db6f 3ebd 05e2 32be 9fa0 a2bd
000001c0: 311d a4bd 1f0f f83d 8b5b 0abe d6da 93bd
000001d0: eded 2ebe b1c5 083e ae0c 32be 0e7c bf3d
000001e0: 5cf9 193e 244c 08bb d4ad 893c 4a55 c03d
000001f0: 6cbe 66bc 8c33 bf3d b807 4d3e a240 083e
00000200: f645 013e b344 4dbe 4fac 23be 433c 393e
00000210: 9399 1bbe d2cc 953d 7ec9 c13d aa3a d8bc
00000220: ec82 e33d 4a25 173e c747 a7bd 5edc 073e
00000230: 69b8 54be 0568 93bd 5731 9cbd 6e5a 643d
00000240: 4018 efbd f0ab fb3c b93d d2bd ef87 a4bd
00000250: 46ce 54be d495 0e3e 3d70 16be 8825 1ebe
00000260: b726 34bc 0671 13be 70e2 2fbe 6243 243e
00000270: 9813 083e ad54 08be 24c7 7f3c 1342 47be
00000280: df98 1cbe 2af6 12be aa54 3cbe 0899 edbc
00000290: 92f1 31bd 398e e63b dce4 12bd 9db3 e83c
000002a0: 7317 7cbc d410 57be f904 90bd d5c7 16be
000002b0: 2bab bf3d ddcd bebd 9a30 63be c75f d1bd
000002c0: 87ec fc3d 79ab 0ebe 670c 3a3e dd50 42bd
000002d0: 67e7 113c 3468 253d de23 d1bc 54ef 3fbe
000002e0: 4af4 8f3d 179d b8bd f589 66be c1ac fabd
000002f0: 7cb1 c4bb b21e 0c3e b8b5 51be 2059 9fbd
00000300: ea12 27be af71 d8bd 0969 21be 666d 50bd
00000310: 58d9 fd3d 974e b43d 6949 de3d f347 25be
00000320: d5cb 853d a305 d93c c18f d1bc ecb1 08be
00000330: 059e 37bd d7fa 53be 2f7e 433e 1004 29be
00000340: 299c 2abe 1aad d73d 6c87 35bd ee41 42be
00000350: b6f8 3a3e c664 44be 5dcd 5d3e 67c2 f43c
00000360: d307 e7bb ffe2 2cbd a8e8 413e 6671 58bd
00000370: 28bc 0ebd 50b0 e53d 1491 333e 5bee b23c
00000380: 4925 073e 071d 5cbe 5315 29be de0e 3fbe
00000390: a5fc cfbd 5a84 76be 820d 51be f176 18bd
000003a0: e235 e63d 69cf 013e 4252 2f3e 76a0 40bd
000003b0: 8f16 ae3d 3912 663d ba75 3b3d 4bb7 823d
000003c0: f1d4 55be 5355 2f3e a08c 41be b1cc aa3c
000003d0: 5def 3e3c 1e27 0cbd d944 9abc 35b4 5fbe
000003e0: c7fd 02be d1bc 91bd 536c 6ebe 8460 1bbe
000003f0: 184f f3bd 41c8 903d 3312 b73d c009 d2bd

Encoder.enc2.weight f4 [40, 256]
-0.01198659 0.025351705 -0.024200175 0.06520621 -0.014027717 0.0017278662 0.00069920934 -0.032354657
0.0027350395 0.012663963 0.004164388 -0.025141956 -0.016178263 0.028908322 0.0020833118 -0.04905956
-0.04183099 -0.012329848 -0.016495578 -0.026328597 0.051577456 -0.001045532 -0.013862625 0.020381596
0.05869923 -0.034000684 0.032354698 0.04685673 -0.0033388908 0.04710345 -0.020846002 0.045981493
0.013189399 0.03936566 -0.05264405 0.05253076 -0.048506822 0.004086734 -0.009491867 -0.047093313
0.029346595 0.02131496 -0.03472361 0.02338473 0.0038147974 0.051824093 0.02556525 -0.038704842
0.042094022 0.057927247 0.040715266 -0.01077734 0.07967339 0.029724639 0.028441539 -0.017506702
0.05984082 0.013310213 -0.03299088 -0.010177526 -0.02365371 -0.011024482 -0.02694083 0.005603139
0.055813927 0.041004755 -0.011631743 0.020587884 -0.03658143 -0.027585503 -0.028769743 -0.022264061
0.008486741 -0.02077889 0.014934337 -0.010273873 -0.024242034 0.034261417 0.025290946 0.008288216
-0.0031775807 0.059650652 -0.039784577 0.05279676 0.015692547 0.031587116 0.02008058 0.05041864
-0.026320579 -0.05881134 -0.0085543385 0.05606541 -0.053362656 -0.0067912154 -0.051876653 -0.04320002
0.010361256 0.033482354 0.036631312 0.057173505 0.01644862 -0.008969416 0.013076136 -0.026897164
0.035856426 0.015196226 -0.005650269 -0.0059783603 -0.009092793 -0.008283873 -0.020984448 -0.04433184
-0.024549555 0.03684248 0.025703296 -0.008663626 0.007030325 -0.049932923 0.0536691 -0.03859096
0.037660852 0.009085087 -0.033397116 -0.041779924 0.0002493823 -0.009553216 0.05552478 -0.03053863
0.04160833 -0.009688838 0.06184315 -0.0030850556 -0.059825666 0.054371994 0.015093115 -0.037462052
0.041821748 0.010798882 0.034510665 0.018627971 0.019754836 -0.04174654 -0.007191615 -0.02607825
0.028526116 0.041147303 0.026489612 -0.03520242 0.007807344 -0.0035752486 -0.021701762 0.0036809242
0.052437764 -0.017093156 0.017905096 -0.03292588 -0.0056429724 -0.041545153 0.04680954 0.005413375
0.008801058 -0.010869402 0.0057601873 0.037923902 -0.026048493 0.015273211 0.011913496 0.03612286
-0.04503155 -0.012092266 0.009194024 0.022589302 -0.023684306 0.03481962 -0.025753114 -0.002346231
0.025799058 0.010240805 0.03820232 -0.021005599 -0.00877323 0.0058526904 0.004633315 -0.012958171
0.0005177447 0.01620604 -0.015992876 0.030906579 -0.024211729 -0.024302907 0.052260317 0.054441094
-0.080448695 -0.048741084 -0.028247556 -0.04516327 0.060156174 -0.04796415 0.018877825 0.05134
-0.03866899 0.04388326 -0.035206422 -0.0141173145 -0.041631043 -0.042436663 0.011004968 0.0341421
-0.024410445 0.047783688 -0.016844206 -0.050672203 -0.0064296885 -0.036170773 -0.026904957 -0.021362342
0.012898868 0.032928597 0.055225533 0.05192081 0.06425279 -0.030466352 0.011999161 0.018614773
0.019357113 0.035131454 0.036559496 0.04028788 0.032746654 0.0074768867 -0.020091435 0.05048084
-0.0124077555 0.04678499 0.03524843 0.027592037 0.030761532 -0.014081914 -0.042026132 -0.041278496
-0.032490928 -0.029443739 -0.042723503 -0.043847743 -0.028331479 0.022248898 -0.026684433 -0.012467926
0.034998093 0.017110992 0.025638407 0.03510365 -0.02671907 0.003124664 0.04777785 -0.025154915
00000000: 6763 44bc 61ae cf3c 723f c6bc d58a 853d
00000010: 82d4 65bc 9279 e23a 254b 373a 5186 04bd
00000020: 593e 333b 837c 4f3c 6b75 883b 81f6 cdbc
00000030: 4788 84bc 25d1 ec3c 2c88 083b adf2 48bd
00000040: f956 2bbd 2103 4abc bc21 87bc 12af d7bc
00000050: e242 533d 3b0a 89ba 1020 63bc 4ef7 a63c
00000060: 9b6e 703d 4d44 0bbd 5c86 043d d8ec 3f3d
00000070: 4bd1 5abb 8cef 403d 3cc5 aabc 1757 3c3d
00000080: 5918 583c e33d 213d 4aa1 57bd 7f2a 573d
00000090: 17af 46bd 02ea 853b c783 1bbc ebe4 40bd
000000a0: 4568 f03c b69c ae3c 583a 0ebd 5591 bf3c
000000b0: ae01 7a3b 8045 543d 376e d13c f888 1ebd
000000c0: c86a 2c3d 1f45 6d3d 0dc5 263d 7193 30bc
000000d0: cd2b a33d 1681 f33c 3bfe e83c 376a 8fbc
000000e0: a61b 753d 1413 5a3c 7221 07bd a3bf 26bc
000000f0: 6dc5 c1bc 07a0 34bc 04b3 dcbc 899a b73b
00000100: 259d 643d 9af4 273d 1193 3ebc eca7 a83c
00000110: 69d6 15bd fefa e1bc 86ae ebbc 1f63 b6bc
00000120: f90b 0b3c 7e38 aabc 26af 743c bf53 28bc
00000130: 3b97 c6bc b355 0c3d f52e cf3c 4ccb 073c
00000140: f53e 50bb 3e54 743d 27f5 22bd 6a41 583d
00000150: a88d 803c 7e61 013d 0780 a43c c783 4e3d
00000160: 419e d7bc 29e4 70bd 7f27 0cbc d8a4 653d
00000170: cd92 5abd d888 debb 9d7c 54bd 81f2 30bd
00000180: 42c2 293c cb24 093d b70a 163d c42e 6a3d
00000190: 42bf 863c 75f4 12bc 4a3d 563c 7157 dcbc
000001a0: 30de 123d 97f9 783c e425 b9bb 1fe6 c3bb
000001b0: f0f9 14bc 15b9 07bc 94e7 abbc 4e95 35bd
000001c0: 261c c9bc 24e8 163d b88f d23c e2f1 0dbc
000001d0: a45e e63b 7786 4cbd 21d4 5b3d 8e11 1ebd
000001e0: 4442 1a3d 9ed9 143c 6acb 08bd 6d21 2bbd
000001f0: 87bf 8239 1885 1cbc f46d 633d 262c fabc
00000200: 7f6d 2a3d efbd 1ebc 3e4f 7d3d a52e 4abb
00000210: c20b 75bd 2bb5 5e3d 1d49 773c cf71 19bd
00000220: 484d 2b3d cbed 303c 0e5b 0d3d b099 983c
00000230: e5d4 a13c 6cfe 2abd a4a7 ebbb 0ea2 d5bc
00000240: 9aaf e93c 138a 283d be00 d93c 6a30 10bd
00000250: c0d4 ff3b b84e 6abb e5c7 b1bc a93b 713b
00000260: fbc8 563d f206 8cbc b5ad 923c 4add 06bd
00000270: afe8 b8bb 402b 2abd 5cbb 3f3d ae62 b13b
00000280: 5032 103c 9415 32bc f4bf bc3b 1856 1b3d
00000290: a663 d5bc 7d3c 7a3c d330 433c 90f5 133d
000002a0: 0173 38bd a41e 46bc 88a2 163c 330d b93c
000002b0: 9705 c2bc 059f 0e3d 32f8 d2bc 39c3 19bb
000002c0: 8c58 d33c 0dc9 273c 097a 1c3d ef13 acbc
000002d0: 98bd 0fbc edc7 bf3b 10d3 973b 824e 54bc
000002e0: 42b9 073a 87c2 843c 7e03 83bc cb2f fd3c
000002f0: ad57 c6bc e416 c7bc ea0e 563d a0fd 5e3d
00000300: 49c2 a4bd bba4 47bd 6b67 e7bc 1ffd 38bd
00000310: 5266 763d 0e76 44bd aba5 9a3c e449 523d
00000320: 6063 1ebd efbe 333d 9c34 10bd 4f4c 67bc
00000330: 5085 2abd 11d2 2dbd 2e4e 343c 96d8 0b3d
00000340: 6af8 c7bc d4b8 433d dcfc 89bc a88d 4fbd
00000350: 23b0 d2bb ce27 14bd c967 dcbc 1400 afbc
00000360: c655 533c 23e0 063d 2b34 623d eaaa 543d
00000370: f796 833d 9294 f9bc 2198 443c 027e 983c
00000380: cf92 9e3c 00e6 0f3d 69bf 153d e704 253d
00000390: 5b21 063d ac00 f53b cb96 a4bc ffc4 4e3d
000003a0: e649 4bbc 9ea1 3f3d a860 103d b208 e23c
000003b0: 9cff fb3c d4b7 66bc 9823 2cbd a413 29bd
000003c0: 3515 05bd ff33 f1bc d7fe 2ebd b199 33bd
000003d0: 6b17 e8bc 5243 b63c 5099 dabc 4646 4cbc
000003e0: 295a 0f3d 5a2c 8c3c a307 d23c d8c8 0f3d
000003f0: f3e1 dabc 2ac7 4c3b b5b2 433d ae11 cebc

Encoder.enc2.bias f4 [40]
-0.044580974 0.05461039 -0.02497706 -0.013874985 0.015666615 -0.02274964 0.050697643 0.04264913
-0.006117542 0.0054911277 -0.058720954 -0.041553274 -0.018761888 -0.036624715 0.023341788 -0.027070815
-0.047137886 -0.06021454 0.051150408 0.042834602 0.018626058 -0.011417499 -0.02579354 -0.03167847
-0.058272008 0.014698421 0.035438888 0.022908723 0.00028606202 -0.09356709 0.0016499136 0.02307514
-0.019857228 -0.05181934 -0.016740542 0.023694396 0.03454045 -0.017042423 -0.08260047 0.014801378
00000000: 8a9a 36bd 25af 5f3d b19c ccbc e853 63bc
00000010: 4657 803c 745d babc 55a8 4f3d dbb0 2e3d
00000020: a975 c8bb ebee b33b 6285 70bd c433 2abd
00000030: 88b2 99bc cc03 16bd 4737 bf3c 9dc3 ddbc
00000040: a813 41bd 86a3 76bd 1783 513d 5673 2f3d
00000050: ad95 983c 7610 3bbc f94c d3bc 49c1 01bd
00000060: a1ae 6ebd a5d1 703c 5e28 113d 13ab bb3c
00000070: 98fa 9539 1aa0 bfbd ea41 d83a 1308 bd3c
00000080: a0ab a2bc 8440 54bd 7623 89bc c01a c23c
00000090: 497a 0d3d 8d9c 8bbc 6f2a a9bd 7b81 723c

Decoder.dec1.weight f4 [256, 20]
-0.10409614 -0.124337025 0.14420705 -0.048186887 -0.011256266 0.07577915 -0.16707285 0.023768472
-0.13462539 0.13256826 0.14116257 -0.05302973 0.19313432 -0.010722595 -0.017596819 0.07305019
-0.030582933 0.044417698 -0.081674494 -0.15862182 -0.09168709 -0.07140442 -0.21242167 -0.09484006
-0.059424363 -0.1262205 0.031686645 -0.04920981 -0.088933975 0.10971337 -0.22352028 0.06275761
0.06834844 0.051705215 -0.09583887 0.09547654 -0.042626757 -0.022336273 -0.1044821 -0.103965715
0.134674 0.055598218 0.12431853 0.1739959 -0.26531523 0.034520697 -0.056009382 0.116020665
-0.10301656 -0.016536904 0.12494348 0.06799061 -0.026981082 -0.06629357 0.06384367 -0.057343666
0.13061813 -0.124981895 0.120241635 0.14477329 -0.086679384 -0.03020239 -0.079873264 -0.04147517
0.102223955 0.07541822 0.037445486 0.012952541 0.021605529 0.13323714 -0.10287763 0.07295353
0.11056248 0.08461508 -0.12365221 -0.1114472 -0.16012864 0.1122715 -0.10882994 -0.21154687
0.0081682755 0.13972104 -0.1265298 0.085669294 0.09418112 0.029008776 -0.095679976 -0.08904658
8.790932e-05 0.1634253 0.04947032 0.09531096 0.10210459 -0.014940166 0.029089514 -0.07528803
-0.10993176 0.0038229174 0.047880072 -0.1514854 0.08702397 0.03214496 0.022257285 -0.022518812
-0.022037452 0.13931315 -0.10270796 -0.029553283 -0.094978444 0.036042463 -0.005484046 0.033722997
-0.12041378 0.019954741 -0.10702995 -0.07963536 -0.0920413 -0.22762904 0.18929946 0.14158471
0.011287351 0.013128725 -0.1287705 -0.14046736 -0.26474595 -0.13402222 -0.17640997 -0.1519929
0.17335182 -0.04354761 -0.17800969 -0.00017075875 -0.162855 -0.021398857 -0.014669742 -0.020494793
-0.16064622 -0.13563903 0.11288469 -0.014298822 0.08456363 -0.19495742 0.13403596 0.15505685
-0.2207632 0.07006999 -0.17474636 -0.09249684 0.1683926 0.11260724 0.087150894 -0.0036328982
0.2198428 -0.16339459 -0.22246249 0.036217857 0.20385432 -0.10517672 -0.027034985 -0.11140481
-0.006944041 -0.10095109 0.020816196 0.08104303 -0.072555855 -0.019769333 0.109166086 0.070662744
0.0065330425 -0.15565342 -0.06982617 -0.15370141 -0.064649425 0.13677996 -0.03943205 0.024726236
0.03827812 -0.08183802 0.042459507 -0.08789786 0.09493402 0.06208693 -0.13199466 0.19791943
-0.08168312 -0.12271399 0.105618045 -0.05646332 0.15855837 0.10147917 0.12750487 0.10263183
-0.07736088 0.14961208 0.03857985 -0.046446696 -0.02879431 -0.1814701 0.14617145 0.18911624
-0.017384494 -0.06917645 0.049163938 0.08012838 -0.051333334 0.14077519 0.19924763 -0.102908865
0.044826947 0.028245429 0.1612107 -0.0521444 0.0014129345 -0.039196998 -0.023800077 -0.09483709
-0.08157067 0.13995533 -0.13061383 0.13212818 0.12140357 -0.017293673 -0.124217086 0.08959255
-0.0070934054 -0.12785642 0.10013244 -0.16621608 -0.09818901 0.15482466 -0.21778783 -0.14612842
0.16923681 -0.022788687 0.17909314 -0.0153017435 0.16406623 0.22146502 0.05682474 -0.10098132
-0.14464422 -0.05230686 0.10122933 -0.020492185 -0.04594635 0.1443651 -0.14309426 -0.16538553
0.110345095 0.03859495 -0.06930886 0.16253993 -0.100278676 -0.0032264802 -0.17146306 0.15724052
00000000: 5b30 d5bd 69a4 febd 03ab 133e 9d5f 45bd
00000010: 346c 38bc 1932 9b3d 2515 2bbe 19b6 c23c
00000020: 3ddb 09be f9bf 073e ec8c 103e b435 59bd
00000030: 01c5 453e d3ad 2fbc 3427 90bc 579b 953d
00000040: 0f89 fabc 55ef 353d f544 a7bd c26d 22be
00000050: 71c6 bbbd 7b3c 92bd 1185 59be 813b c2bd
00000060: f666 73bd f23f 01be dbc9 013d 3a90 49bd
00000070: 0423 b6bd 67b1 e03d 80e2 64be 1087 803d
00000080: 44fa 8b3d d9c8 533d 2b47 c4bd 3489 c33d
00000090: 6599 2ebd 8ffa b6bc b6fa d5bd faeb d4bd
000000a0: fbe7 093e f5ba 633d b79a fe3d fb2b 323e
000000b0: 66d7 87be 9365 0d3d 186a 65bd 3e9c ed3d
000000c0: 59fa d2bd 6778 87bc 5ee2 ff3d a93e 8b3d
000000d0: 6e07 ddbc ecc4 87bd 78c0 823d 31e1 6abd
000000e0: c2c0 053e 82f6 ffbd 3f41 f63d 733f 143e
000000f0: f684 b1bd 016b f7bc 9894 a3bd dee1 29bd
00000100: cb5a d13d de74 9a3d 7060 193d e536 543c
00000110: 14fe b03c 516f 083e 82b1 d2bd a968 953d
00000120: 956e e23d ac4a ad3d 5f3d fdbd 6e3e e4bd
00000130: c3f8 23be 9aee e53d 3be2 debd be9f 58be
00000140: 3bd4 053c 0813 0f3e 0791 01be 6273 af3d
00000150: 08e2 c03d d0a3 ed3c ddf3 c3bd 0e5e b6bd
00000160: f55b b838 f658 273e 64a1 4a3d 6532 c33d
00000170: 361c d13d 99c7 74bc 224d ee3c 9c30 9abd
00000180: e723 e1bd e989 7a3b e51d 443d fd1e 1bbe
00000190: a039 b23d 6faa 033d e954 b63c 5f79 b8bc
000001a0: e387 b4bc 1ba8 0e3e 8d58 d2bd ba19 f2bc
000001b0: 0f84 c2bd 43a1 133d 83b3 b3bb 2021 0a3d
000001c0: 809b f6bd 2078 a33c 8532 dbbd dd17 a3bd
000001d0: 2680 bcbd 9617 69be b8d7 413e 95fb 103e
000001e0: 95ee 383c dd19 573c 6adc 03be add6 0fbe
000001f0: c88c 87be 1f3d 09be d1a4 34be 07a4 1bbe
00000200: 2483 313e fb5e 32bd 2c48 36be b40d 33b9
00000210: 76c3 26be a84c afbc 5c59 70bc b2e4 a7bc
00000220: 7180 24be f5e4 0abe 1730 e73d 9b45 6abc
00000230: b22f ad3d eba2 47be b940 093e 39c7 1e3e
00000240: c00f 62be db80 8f3d b6f0 32be fc6e bdbd
00000250: 1c6f 2c3e a09e e63d 2b7c b23d eb15 6ebb
00000260: 791e 613e e950 27be 35cd 63be 2d59 143d
00000270: 30bf 503e e466 d7bd 7978 ddbc 3428 e4bd
00000280: d68a e3bb 72bf cebd ba86 aa3c e3f9 a53d
00000290: 2a98 94bd 4cf3 a1bc 7892 df3d a1b7 903d
000002a0: 2213 d63b 9c63 1fbe 0601 8fbd e763 1dbe
000002b0: eb66 84bd 0c10 0c3e 8083 21bd ad8e ca3c
000002c0: 85c9 1c3d b19a a7bd 05ea 2d3d cb03 b4bd
000002d0: c46c c23d dd4e 7e3d 9c29 07be 64ab 4a3e
000002e0: 7b49 a7bd 7951 fbbd 464e d83d 1546 67bd
000002f0: 205d 223e 50d4 cf3d a390 023e a330 d23d
00000300: 626f 9ebd e933 193e e805 1e3d e43e 3ebd
00000310: 0be2 ebbc 4cd3 39be f8ad 153e b0a7 413e
00000320: ed69 8ebc 62ac 8dbd 2060 493d 591a a43d
00000330: e742 52bd 5f27 103e 9207 4c3e e2c1 d2bd
00000340: 769c 373d f562 e73c 6b14 253e 5e95 55bd
00000350: 3732 b93a 088d 20bd 61f8 c2bc f339 c2bd
00000360: 860e a7bd 7350 0f3e a2bf 05be 9c4c 073e
00000370: 6fa2 f83d 76ab 8dbc 8765 febd 4d7c b73d
00000380: cc6f e8bb cbec 02be 3d12 cd3d 8c34 2abe
00000390: 5217 c9bd 5b8a 1e3e c603 5fbe b0a2 15be
000003a0: 6a4c 2d3e 57af babc 3164 373e 2ab4 7abc
000003b0: fa00 283e bac7 623e 0fc1 683d 4bcf cebd
000003c0: 9d1d 14be b83f 56bd 5351 cf3d 3adf a7bc
000003d0: 3d32 3cbd 72d4 133e 4d87 12be d35a 29be
000003e0: 9cfc e13d bd15 1e3d cef1 8dbd de70 263e
000003f0: e85e cdbd 5b73 53bb 0394 2fbe a903 213e

Decoder.dec1.bias f4 [256]
-0.26952934 -0.16570613 -0.19454019 -0.14414813 -0.13133045 -0.05659905 0.057396423 -0.22674567
0.052521124 0.014617443 -0.13508752 -0.05316545 -0.11663731 -0.015918218 -0.13991554 0.0711811
-0.1171839 -0.214283 0.16112442 0.18397225 -0.024011208 -0.061494038 -0.32265273 -0.20230679
-0.14938997 0.10300998 -0.14561431 0.018018765 -0.19850682 -0.22766723 0.13187085 0.14362481
0.104486756 -0.21420497 -0.057215575 0.07928783 -0.07549778 -0.12047943 -0.035461467 0.096530534
-0.27663216 -0.104395755 -0.15395993 -0.17088942 -0.1527926 -0.21520795 0.03935182 -0.05138547
-0.025400462 0.16392264 -0.26520294 0.1252615 0.0019842924 -0.05658182 0.1244863 -0.15153566
-0.0077906554 -0.14969915 0.09930978 -0.16694096 -0.09011158 0.17385904 0.039101068 0.027941076
0.12789375 -0.11863865 0.107464194 0.1379994 -0.05166139 -0.18708868 -0.12283508 0.072804205
0.053480413 -0.1457441 0.11323556 -0.10240838 -0.25972858 0.12441823 -0.05955763 0.069729626
-0.23415868 -0.08109029 -0.21170454 -0.1357762 0.11190953 -0.1512026 0.073108606 -0.1627694
-0.18566199 -0.0981966 0.023858214 0.079579085 0.10014506 0.10436728 -0.02517502 -0.14600164
0.09846619 -0.17669827 -0.08793747 -0.1703216 0.066805266 -0.05725432 -0.24211407 0.14606112
-0.18773197 0.14501919 -0.08402703 -0.2374083 0.033792373 0.14478554 0.032429714 0.06843567
0.113580175 -0.119381554 -0.03630839 -0.2606411 0.005178843 0.07551293 -0.08503335 0.17944531
-0.24814971 -0.0782569 -0.11586388 0.06258856 0.11542364 -0.19725351 0.05371443 0.04502221
-0.28147197 0.0575279 0.004472082 0.019090073 -0.045434646 -0.1784732 0.15323773 0.06767757
-0.06831443 -0.24030983 -0.18532881 -0.090975076 -0.018652663 -0.21153799 0.12940113 0.0940579
-0.15273546 0.07793751 -0.048066232 -0.2093601 0.06326407 0.10656628 -0.0182621 -0.086427316
-0.025852032 0.019002855 -0.24722302 0.019706657 -0.25352317 0.10825396 -0.15916272 -0.03847153
-0.2569371 0.18183765 -0.017596118 0.09047624 0.059940357 -0.025241245 0.08409284 -0.18095075
-0.20099467 0.07326612 -0.11951033 -0.15862212 -0.27770784 0.048254255 -0.21718496 -0.04147609
0.088368356 -0.24601044 -0.27996665 -0.14959624 -0.044596076 0.122286536 0.04382958 0.09279116
0.07676889 -0.14094359 -0.02518187 -0.15723367 0.17514713 0.091618575 -0.16936965 0.04690924
-0.05676269 0.044912536 -0.107584454 0.10087492 -0.08662093 -0.0960918 -0.23227048 -0.00922369
-0.13335171 -0.20512076 -0.05170326 0.045998603 0.1646477 0.071511395 0.0967987 0.023178147
-0.09764393 -0.24750711 0.051391464 -0.23692353 -0.30680898 -0.0994362 -0.2617815 -0.13293275
0.018358741 -0.12005194 -0.11832114 0.07484016 0.13406347 0.17656186 -0.12703623 0.17812462
0.04114061 -0.10947773 0.17073134 -0.01640933 -0.036033418 -0.104801424 -0.15352295 0.1756597
-0.07946909 -0.16731468 0.16306734 0.07006849 0.10602888 0.09772451 0.11785376 -0.11420965
0.019978236 -0.21074867 -0.08339121 -0.13229933 -0.20212956 -0.2751944 0.10297603 0.08325955
-0.13077947 0.026137883 -0.19463128 -0.19806628 -0.16297513 -0.18253621 0.08760423 -0.01755918
00000000: c0ff 89be deae 29be 8b35 47be 919b 13be
00000010: 7d7b 06be 68d4 67bd 8318 6b3d 0430 68be
00000020: 6420 573d 007e 6f3c 6254 0abe 04c4 59bd
00000030: 8bdf eebd ec66 82bc 0546 0fbe 66c7 913d
00000040: 1dfe efbd 016d 5bbe cdfd 243e 3963 3c3e
00000050: 27b3 c4bc 2ce1 7bbd bd32 a5be 8329 4fbe
00000060: aff9 18be e5f6 d23d eb1b 15be 179c 933c
00000070: 5f45 4bbe 9921 69be 2709 073e 6212 133e
00000080: 27fd d53d 8c58 5bbe e15a 6abd a861 a23d
00000090: 959e 9abd ebbd f6bd 0b40 11bd cdb1 c53d
000000a0: bba2 8dbe 71cd d5bd aca7 1dbe a3fd 2ebe
000000b0: aa75 1cbe 795f 5cbe 602f 213d 9279 52bd
000000c0: a114 d0bc 56db 273e aec8 87be 8d44 003e
000000d0: e70a 023b 57c2 67bd acf2 fe3d 2a2c 1bbe
000000e0: c148 ffbb bc4a 19be ed62 cb3d 92f2 2abe
000000f0: 6c8c b8bd 1b08 323e 7128 203d afe4 e43c
00000100: 94f6 023e d2f8 f2bd 3016 dc3d b74f 0d3e
00000110: e59a 53bd 2d94 3fbe f590 fbbd 5f1a 953d
00000120: 470e 5b3d f13d 15be 0ce8 e73d 7cbb d1bd
00000130: 25fb 84be fcce fe3d b4f2 73bd 68ce 8e3d
00000140: 4bc7 6fbe aa12 a6bd 13c9 58be eb08 0bbe
00000150: d330 e53d dbd4 1abe f7b9 953d 06ad 26be
00000160: 2d1e 3ebe 4d1b c9bd 4d72 c33c 5cfa a23d
00000170: da18 cd3d 83be d53d d83b cebc 7481 15be
00000180: a4a8 c93d 64f0 34be 8f18 b4bd c968 2ebe
00000190: 33d1 883d 8183 6abd c0ec 77be 0c91 153e
000001a0: cf3c 40be e97f 143e 5d16 acbd 291b 73be
000001b0: df69 0a3d a942 143e 05d5 043d 0028 8c3d
000001c0: b99c e83d 517e f4bd 1bb8 14bd c072 85be
000001d0: 49b3 a93b 86a6 9a3d f725 aebd 83c0 373e
000001e0: f51a 7ebe 2745 a0bd 0b4a edbd 6e2e 803d
000001f0: 3b63 ec3d d3fc 49be aa03 5c3d 3569 383d
00000200: 181d 90be 60a2 6b3d 8b8a 923b c962 9c3c
00000210: ae19 3abd aec1 36be 5aea 1c3e 8a9a 8a3d
00000220: 70e8 8bbd c813 76be d6c6 3dbe 2451 babd
00000230: 78cd 98bc 6a9d 58be bb81 043e 6ea1 c03d
00000240: af66 1cbe b49d 9f3d 19e1 44bd 7e62 56be
00000250: 9890 813d 6c3f da3d 669a 95bc ce00 b1bd
00000260: a4c7 d3bc e0ab 9b3c 0828 7dbe db6f a13c
00000270: cacd 81be 41b4 dd3d 8dfb 22be 5394 1dbd
00000280: 428d 83be a633 3a3e bc25 90bc 9b4b b93d
00000290: 0584 753d bac6 cebc de38 ac3d 274b 39be
000002a0: 8cd1 4dbe 8c0c 963d d5c1 f4bd d66d 22be
000002b0: b92f 8ebe 41a6 453d bc65 5ebe d5e2 29bd
000002c0: 78fa b43d 29ea 7bbe ca57 8fbe c22f 19be
000002d0: 60aa 36bd 5d71 fa3d a586 333d 4b09 be3d
000002e0: 0239 9d3d 8453 10be 364a cebc dd01 21be
000002f0: c559 333e 85a2 bb3d 3d6f 2dbe e723 403d
00000300: ff7f 68bd 35f6 373d 3d55 dcbd 8397 ce3d
00000310: 5066 b1bd c7cb c4bd 50d8 6dbe f61e 17bc
00000320: 5a8d 08be 2d0b 52be ccc6 53bd 0869 3c3d
00000330: 6899 283e 9174 923d 663e c63d 19e0 bd3c
00000340: 8af9 c7bd 8172 7dbe db7f 523d 159c 72be
00000350: 1116 9dbe 35a5 cbbd 3a08 86be 861f 08be
00000360: 1265 963c cbdd f5bd 5b52 f2bd cc45 993d
00000370: ef47 093e a2cc 343e c915 02be 4d66 363e
00000380: 0e83 283d dc35 e0bd 32d4 2e3e dc6c 86bc
00000390: c797 13bd 21a2 d6bd 1f35 1dbe 23e0 333e
000003a0: b1c0 a2bd 8a54 2bbe 20fb 263e 1280 8f3d
000003b0: ab25 d93d ca23 c83d 505d f13d c0e6 e9bd
000003c0: 66a9 a33c 80ce 57be 03c9 aabd 7a79 07be
000003d0: 0dfb 4ebe 48e6 8cbe 19e5 d23d fc83 aa3d
000003e0: 0eeb 05be 1d1f d63c 6c4d 47be e3d1 4abe
000003f0: f4e2 26be c6ea 3abe d969 b33d 45d8 8fbc

Decoder.dec2.weight f4 [31, 256]
0.27877504 0.2925493 -0.31163117 -0.0507208 0.10243998 -0.15234911 -0.045542598 0.16972962
0.13952987 -0.33002946 -0.19492605 0.32133687 -0.009575625 -0.18169601 -0.24519742 -0.13533789
0.24883898 0.04929037 0.09059527 -0.20788166 0.13230397 0.02004247 -0.05129875 0.16620237
0.0544293 -0.24100433 0.10662094 -0.03816464 -0.3153798 -0.3668009 0.08155333 -0.06362105
-0.01889401 -0.14764538 -0.091444455 -0.2953513 -0.17842996 0.15567616 -0.047785453 0.1537771
-0.3298834 -0.3515189 0.28755853 -0.15511145 -0.019187948 0.23040797 0.20380773 -0.15270074
0.14921416 -0.12742473 -0.19939215 0.28467613 -0.07007459 -0.38264433 -0.19394693 -0.048704464
-0.1264108 -0.42498624 -0.28389466 -0.3517453 -0.15012127 0.2624536 -0.09861274 -0.09096576
-0.25971174 0.005247866 0.017627604 -0.13036226 0.23194923 -0.043909796 0.16208698 -0.20743373
0.083633445 -0.0996547 0.2431218 -0.274432 -0.13847277 0.12201659 -0.3390804 -0.3518639
-0.114014596 0.14756897 -0.020165376 0.32447484 -0.09757212 0.27247566 0.12909101 0.23134537
0.0359409 -0.04704986 0.0016550659 -0.051630482 0.059263505 -0.14618333 -0.10381297 -0.13428801
-0.005543449 -0.35795933 -0.13382354 0.37116823 -0.003078103 -0.21262655 0.26448187 -0.20667395
0.17019561 -0.018735256 -0.18419468 -0.235664 -0.22943552 0.017293425 0.16288014 0.052533377
-0.26648897 -0.20892034 -0.102622174 -0.12308005 -0.20433457 0.093682185 -0.11414716 -0.03996976
0.12257659 -0.337485 -0.2062721 -0.023600515 -0.2614188 0.11406059 -0.22763029 0.21595794
-0.14643887 -0.08028719 -0.06957609 -0.27400532 -0.27760565 -0.3647655 0.0008658409 0.2321678
0.16814789 0.06818829 0.04732043 -0.13569371 0.12614834 0.10829585 0.03473211 0.11082962
-0.30967703 0.44852233 -0.05635154 -0.3087682 0.090610735 -0.13533573 -0.1860114 0.20735116
-0.042891447 -0.2523217 -0.27029702 -0.115789615 0.112770654 -0.15074845 -0.22163293 0.27258718
-0.16249485 0.04365317 -0.16875064 -0.079410926 0.022006178 -0.38627455 0.020981804 -0.11547684
0.07748423 0.08134756 0.05695567 -0.05200391 -0.053684715 0.021577142 0.00048564444 -0.051038694
-0.012078818 0.12258642 0.3141109 0.2105534 -0.038718715 -0.13475175 -0.24591956 -0.1560015
0.1631986 -0.027529012 0.08093941 -0.47043163 -0.015631234 0.31843984 -0.08455283 -0.171174
0.23503225 0.15305835 -0.10547532 -0.16382545 -0.33614594 -0.18498279 -0.23079906 0.12729755
-0.2048218 -0.08360851 -0.099189535 -0.043145873 0.00035902896 0.12669942 -0.251446 0.24744576
0.1594083 0.14840092 0.12560365 0.02349103 -0.07763907 -0.15438421 -0.07111661 -0.26961452
0.06489065 0.23427038 -0.17691413 -0.0074745803 -0.14061655 0.21366169 0.21715178 0.10735945
-0.13900594 -0.10854147 -0.11710713 -0.030515283 0.036488898 0.051369537 -0.35848537 0.005193448
-0.12380516 0.30348802 -0.2319627 0.06007297 0.22080204 0.21718769 -0.00496356 -0.30871028
-0.10272549 -0.19241163 0.19797714 0.22440642 -0.35063457 0.34384254 0.06538931 0.119443476
-0.025257232 -0.13999216 0.104640014 -0.13855048 0.04404461 -0.117694825 0.009936338 -0.15497556
00000000: 9abb 8e3e 06c9 953e 1f8e 9fbe 9dc0 4fbd
00000010: 0dcc d13d 6801 1cbe e08a 3abd 9acd 2d3e
00000020: ebe0 0e3e 9ff9 a8be b29a 47be 4486 a43e
00000030: 15e3 1cbc 850e 3abe 0815 7bbe 0496 0abe
00000040: a5cf 7e3e b3e4 493d 038a b93d eede 54be
00000050: b17a 073e 1b30 a43c a31e 52bd f430 2a3e
00000060: 42f1 5e3d d7c9 76be 145c da3d 8752 1cbd
00000070: 7679 a1be 54cd bbbe 6f05 a73d c14b 82bd
00000080: 9cc7 9abc 5a30 17be 3b47 bbbd 4938 97be
00000090: 58b6 36be 9269 1f3e aeba 43bd be77 1d3e
000000a0: 7ae6 a8be 49fa b3be df3a 933e 89d5 1ebe
000000b0: 0b30 9dbc 11f0 6b3e f9b2 503e 955d 1cbe
000000c0: 99cb 183e a17b 02be 752d 4cbe 12c1 913e
000000d0: 4483 8fbd f5e9 c3be 069a 46be 557e 47bd
000000e0: d571 01be cc97 d9be a45a 91be f617 b4be
000000f0: 64b9 19be 5160 863e 7af5 c9bd 424c babd
00000100: f0f8 84be 4af6 ab3b c467 903c af7d 05be
00000110: 1984 6d3e c2da 33bd 21fa 253e 8269 54be
00000120: 0348 ab3d c317 ccbd ecf4 783e 5a82 8cbe
00000130: cecb 0dbe d5e3 f93d f29b adbe 8127 b4be
00000140: 7c80 e9bd 521c 173e dc31 a5bc 9121 a63e
00000150: e4d3 c7bd ee81 8b3e 6f30 043e cde5 6c3e
00000160: c436 133d 5bb7 40bd ccee d83a 7c7a 53bd
00000170: 4abe 723d 15b1 15be e59b d4bd cc82 09be
00000180: d2a5 b5bb 7246 b7be 0a09 09be c309 be3e
00000190: 00ba 49bb c6ba 59be 2b6a 873e 56a2 53be
000001a0: c247 2e3e ae7a 99bc 889d 3cbe e751 71be
000001b0: 25f1 6abe f1aa 8d3c 0dca 263e 3d2d 573d
000001c0: 3e71 88be 37ef 55be 932b d2bd 6511 fcbd
000001d0: 153d 51be 72dc bf3d fcc5 e9bd 55b7 23bd
000001e0: 6f09 fb3d d5ca acbe fe38 53be de55 c1bc
000001f0: afd8 85be 9998 e93d ea17 69be 1424 5d3e
00000200: 12f4 15be 9c6d a4bd e97d 8ebd 6d4a 8cbe
00000210: 5422 8ebe 8bc2 babe 99f9 623a 65bd 6d3e
00000220: f62e 2c3e 4da6 8b3d 11d3 413d 4bf3 0abe
00000230: 082d 013e 37ca dd3d 4243 0e3d a4fa e23d
00000240: fd8d 9ebe b8a4 e53e dfd0 66bd de16 9ebe
00000250: 1f92 b93d 7395 0abe c679 3ebe dd53 543e
00000260: f1ae 2fbd 4f30 81be 5f64 8abe 1b23 edbd
00000270: 4df4 e63d cd5d 1abe bef3 62be 8c90 8b3e
00000280: 0d65 26be abcd 323d f8cc 2cbe 32a2 a2bd
00000290: 4d46 b43c c7c5 c5be 08e2 ab3c 1f7f ecbd
000002a0: 0db0 9e3d 8d99 a63d 594a 693d 0d02 55bd
000002b0: 81e4 5bbd 8cc2 b03c 189e fe39 f30d 51bd
000002c0: 3ce6 45bc 970e fb3d 25d3 a03e 4f9b 573e
000002d0: 8497 1ebd 5dfc 09be 56d2 7bbe dbbe 1fbe
000002e0: 891d 273e 8684 e1bc 90c3 a53d 6adc f0be
000002f0: 130d 80bc 8c0a a33e 092a adbd 3d48 2fbe
00000300: 4bac 703e 54bb 1c3e 7203 d8bd dcc1 27be
00000310: 521b acbe 216c 3dbe 9756 6cbe 4a5a 023e
00000320: cebc 51be f03a abbd e223 cbbd bab9 30bd
00000330: 0d3c bc39 7ebd 013e 88bd 80be 6c62 7d3e
00000340: ee3b 233e 69f6 173e 3e9e 003e 4370 c03c
00000350: 3c01 9fbd e516 1ebe 96a5 91bd ea0a 8abe
00000360: 64e5 843d 93e4 6f3e fa28 35be 53ed f4bb
00000370: c9fd 0fbe 21ca 5a3e 095d 5e3e 45df db3d
00000380: 9357 0ebe fd4a debd ddd5 efbd 30fb f9bc
00000390: 6275 153d dd68 523d 658b b7be cd2d aa3b
000003a0: 8f8d fdbd c862 9b3e a187 6dbe 130f 763d
000003b0: ee19 623e 7366 5e3e 5ca5 a2bb 460f 9ebe
000003c0: be61 d2bd 8e07 45be 85ba 4a3e ccca 653e
000003d0: 6086 b3be 210c b03e d5ea 853d c89e f43d
000003e0: 41e8 cebc 1b5a 0fbe 814d d63d 2de0 0dbe
000003f0: 1f68 343d fc09 f1bd 06cc 223c eab1 1ebe

Decoder.dec2.bias f4 [31]
-0.028830273 -0.019593913 0.215937 -0.079902396 0.44977367 -0.16677435 -0.3578704 -0.006086495
-0.014078201 0.015993033 0.20905185 -0.0927585 0.3000902 -0.434768 0.09518244 -0.037903287
-0.052447207 0.42504042 -0.059334934 0.30349317 -0.0035941466 0.45854795 -0.34962606 0.14068934
-0.03082354 0.36055124 0.05350207 0.34281948 0.070470855 0.4519056 -0.26768255
00000000: 772d ecbc 6a83 a0bc 971e 5d3e dea3 a3bd
00000010: bc48 e63e e5c6 2abe ca3a b7be 3871 c7bb
00000020: 41a8 66bc d203 833c b011 563e 2bf8 bdbd
00000030: 6ca5 993e e999 debe 03ef c23d 7a40 1bbd
00000040: e2d2 56bd e69e d93e 3009 73bd 7563 9b3e
00000050: c68b 6bbb ccc6 ea3e 3002 b3be de10 103e
00000060: a681 fcbc 2c9a b83e fd24 5b3d 0986 af3e
00000070: 0653 903d 2c60 e73e b00d 89be
