results/7_niid/model_drs_n_1_m_0.pt (torch, 121528 bytes, 8 tensors)

Encoder.enc1.weight f4 [256, 22]
0.090435475 -0.08034103 0.03445772 -0.06619868 -0.08517296 0.09705738 -0.02386421 -0.0742884
0.08579742 0.12755829 0.097098805 0.045540754 -0.068839416 0.039094094 -0.045508757 -0.046002973
0.041996475 -0.07607159 -0.14385495 -0.10104526 -0.04199616 0.027302727 0.012460522 -0.0011894077
-0.015164907 0.00939506 -0.0036594532 0.0014153429 -8.916342e-05 0.076134674 0.0166025 0.04367043
1.0361386e-05 0.06284 -0.0366346 0.011502379 0.02233626 -0.0017398356 -0.027386984 0.015409986
0.24643376 0.041783225 0.06786703 -0.010677903 0.011511042 -0.02614148 0.0205987 0.015229439
-0.037595723 -0.04140866 -0.16779418 -0.19522089 -0.054326568 -0.20995082 -0.09358191 -0.07071035
0.044369917 -0.012789887 -0.0062381527 -0.079424545 -0.021316785 -0.13705117 0.1019206 0.13386792
-0.047720116 -0.04362378 -0.16230403 -0.1701604 -0.053979322 0.004224947 -0.05975844 -0.099964894
-0.010812933 -0.049742952 -0.13043767 -0.019314958 -0.07678158 0.04042606 -0.031097118 -0.021561494
-0.03498599 0.047297563 -0.10423308 -0.21967599 -0.03299492 0.014459243 -0.04574589 -0.0015944478
0.0017468573 0.003137327 -0.06115624 -0.38578334 0.0048763272 0.024785876 -0.013402867 0.11110187
0.032203052 0.033520304 0.01366254 0.026116868 0.011892914 0.0024829814 0.0015980629 0.0014358135
-0.024262292 0.0048251236 0.014521069 0.005464654 -0.012411055 0.010763676 -0.10004231 0.013523992
-0.19726923 -0.006375297 -0.0041000466 -0.009614032 -0.051906984 -0.30649856 -0.057352748 -0.029077923
0.03926516 -0.01076424 -0.09282273 0.03876551 -0.014007224 -0.029283721 -0.03417588 0.018808536
0.000120160046 0.020401323 -6.959929e-06 0.06698504 -0.038226906 -0.0489438 0.052688494 0.048647445
0.027317429 -0.014460887 -0.049879942 0.08884542 -0.08657983 -0.02429861 0.019335061 0.062278546
-0.07933628 0.102586456 -0.020636862 -0.048088294 -0.060960528 0.020691864 -0.09021559 -0.033164967
-0.09024879 -0.047280196 0.035099763 0.0033241578 -0.12563147 0.19322483 -0.097920515 0.06064192
-0.020272356 0.07463969 0.10310616 -0.016585277 -0.03006203 -0.009327878 -0.0039428673 -0.0063440017
0.06484246 -0.07228106 0.08524443 -0.029848706 0.042403832 -0.03540347 0.082462184 0.08385481
0.009633912 -0.12771182 -0.2585187 0.062840275 0.10976352 -0.044385873 -0.081593804 -0.1362725
-0.06974335 -0.12532687 -0.15695505 -0.1360752 -0.10252868 0.00432078 -0.045144573 -0.013651761
0.007089375 -0.12265563 0.093370795 0.10306597 0.028119517 -0.01336368 0.00168313 -0.0024841346
0.005743849 0.0021777167 0.0019487884 -0.011242947 0.0020732118 -0.0028163206 -0.001543633 0.0008001923
0.010805456 -0.00808103 -4.6395322e-05 0.00037650447 -0.6269528 -0.020193148 -0.010195172 -0.0013255611
0.00096744986 0.0053315666 0.002079148 0.001159894 0.03804993 0.015436442 -0.036147688 -0.0126893595
0.07453207 0.085396096 0.009734471 0.06559924 -0.050713424 -0.08190679 0.03023406 0.11699539
0.059648585 -0.06320702 0.0073747337 0.02603648 -0.062428016 -0.05655119 0.0061443252 -0.09282951
-0.018251117 -0.014519896 -0.027671413 0.019766409 0.11918956 0.0075827236 0.123433486 0.13890694
-0.062245645 0.0986892 0.05235956 0.08398665 0.10719912 0.09887102 -0.03767453 0.077799544
00000000: 3c36 b93d d789 a4bd 8a23 0d3d 2c93 87bd
00000010: 296f aebd 05c6 c63d e07e c3bc 8424 98bd
00000020: 8fb6 af3d a49e 023e bddb c63d f188 3a3d
00000030: aefb 8cbd 2121 203d 6467 3abd 9d6d 3cbd
00000040: 7f04 2c3d 6ccb 9bbd b64e 13be d1f0 cebd
00000050: 2a04 2cbd f8a9 df3c 3827 4c3c e6e5 9bba
00000060: 3b76 78bc bded 193c 70d3 6fbb 0783 b93a
00000070: 3ffd bab8 7fec 9b3d f701 883c c4df 323d
00000080: d0d5 2d37 42b2 803d 2a0e 16bd 7974 3c3c
00000090: 88fa b63c 320b e4ba ab5a e0bc 2a7a 7c3c
000000a0: 2259 7c3e e324 2b3d dffd 8a3d 5ff2 2ebc
000000b0: cf98 3c3c a826 d6bc 9bbe a83c e684 793c
000000c0: f9fd 19bd 219c 29bd 3dd2 2bbe fce7 47be
000000d0: 8985 5ebd 59fd 56be dfa7 bfbd 97d0 90bd
000000e0: 3bbd 353d ad8c 51bc 6b69 ccbb 56a9 a2bd
000000f0: 8aa0 aebc 2457 0cbe bfbb d03d ac14 093e
00000100: 2b76 43bd d9ae 32bd 0733 26be 873e 2ebe
00000110: 6c19 5dbd 6d71 8a3b 44c5 74bd 65ba ccbd
00000120: ba28 31bc 44bf 4bbd 7491 05be 673a 9ebc
00000130: a93f 9dbd cc95 253d 62bf febc bba1 b0bc
00000140: 784d 0fbd 17bb 413d 2778 d5bd bef2 60be
00000150: ae25 07bd 76e6 6c3c 0b60 3bbd cafc d0ba
00000160: cef6 e43a 9d9b 4d3b f77e 7abd 6585 c5be
00000170: 99c9 9f3b c00b cb3c b397 5bbc 6189 e33d
00000180: 59e7 033d 964c 093d d9d8 5f3c 0bf3 d53c
00000190: 7fda 423c 84b9 223b 1876 d13a e831 bc3a
000001a0: b7c1 c6bc 121c 9e3b c7e9 6d3c d710 b33b
000001b0: bd57 4bbc 215a 303c fce2 ccbd bc93 5d3c
000001c0: f200 4abe dee7 d0bb af59 86bb 2c84 1dbc
000001d0: 6b9c 54bd 61ed 9cbe b7ea 6abd d334 eebc
000001e0: 81d4 203d 7f5c 30bc d819 bebd 95c8 1e3d
000001f0: 8e7e 65bc 6ae4 efbc 02fc 0bbd 5c14 9a3c
00000200: 6ffe fb38 ad20 a73c 5689 e9b6 742f 893d
00000210: d193 1cbd 4b79 48bd e4cf 573d 8b42 473d
00000220: cdc8 df3c 5bed 6cbc e94e 4cbd 96f4 b53d
00000230: c450 b1bd e10d c7bc 9064 9e3c ca17 7f3d
00000240: 0f7b a2bd d918 d23d a30e a9bc 3bf8 44bd
00000250: bfb1 79bd fc81 a93c f4c2 b8bd fdd7 07bd
00000260: 5cd4 b8bd e1a8 41bd c5c4 0f3d 1dda 593b
00000270: 89a5 00be bbdc 453e 8d8a c8bd a963 783d
00000280: 3612 a6bc b2dc 983d 5329 d33d d9dd 87bc
00000290: a544 f6bc f5d3 18bc 2b33 81bb 58e1 cfbb
000002a0: 20cc 843d 1808 94bd a294 ae3d 4685 f4bc
000002b0: a4af 2d3d 3b03 11bd efe1 a83d 12bc ab3d
000002c0: 8ed7 1d3c e3c6 02be 905c 84be 67b2 803d
000002d0: b2cb e03d f6cd 35bd a71a a7bd 058b 0bbe
000002e0: 9ad5 8ebd b055 00be d3b8 20be 4c57 0bbe
000002f0: 8efa d1bd 5495 8d3b 84e9 38bd a3ab 5fbc
00000300: fd4d e83b e032 fbbd 3039 bf3d 4014 d33d
00000310: e75a e63c 56f3 5abc 799c dc3a ddcc 22bb
00000320: e636 bc3b 06b8 0e3b 7d6e ff3a 5634 38bc
00000330: b9de 073b 0592 38bb bb53 caba ffc3 513a
00000340: 5e09 313c 4c66 04bc 9998 42b8 9365 c539
00000350: fb7f 20bf 1a6c a5bc a709 27bc 73be adba
00000360: 769c 7d3a 6cb4 ae3b 5142 083b 9607 983a
00000370: 3eda 1b3d 21e9 7c3c 990f 14bd 08e7 4fbc
00000380: 45a4 983d 26e4 ae3d 557d 1f3c e558 863d
00000390: e1b8 4fbd bfbe a7bd 6bad f73c 479b ef3d
000003a0: 1352 743d af72 81bd c0a7 f13b 754a d53c
000003b0: 85b4 7fbd 38a2 67bd 5656 c93b 661d bebd
000003c0: 5e83 95bc dce4 6dbc 29af e2bc 2aed a13c
000003d0: a819 f43d 7f78 f83b b2ca fc3d 9f3d 0e3e
000003e0: 4af5 7ebd 901d ca3d fa76 563d 3101 ac3d
000003f0: 368b db3d e47c ca3d 9c50 1abd 5e55 9f3d

Encoder.enc1.bias f4 [256]
0.095630385 -0.17499436 -0.17142941 -0.20356868 -0.061687656 -0.009334151 0.026867837 0.06854751
0.06931737 -0.23306516 0.14606126 0.052428793 0.14025024 -0.23136228 -0.39536804 -0.018169364
-0.22918643 0.25267813 -0.053741433 0.17784497 -0.077627 -0.22683491 -0.1645529 -0.24918203
0.23268376 -0.0692145 0.07787794 -0.050648395 -0.007873158 0.14385286 -0.2282649 -0.45447558
-0.22033434 -0.21324831 -0.2138005 0.07071966 0.15541033 0.100930706 -0.31894884 -0.23436558
0.00577311 -0.2195629 -0.1232588 -0.04730166 -0.12799433 0.09790811 -0.2869547 -0.38441113
-0.0108667 -0.27118626 -0.24712892 -0.4007347 -0.39238453 -0.2070288 0.17307502 -0.27582926
-0.15367803 -0.023909852 0.16884325 -0.118733875 -0.23634714 -0.038195316 0.18598984 -0.16247906
-0.05915572 -0.07149851 0.03976452 0.076458596 -0.21131752 -0.2307455 -0.056735143 -0.2603747
0.043064468 0.10997352 -0.17670903 -0.20039915 -0.15356149 -0.33671778 -0.23836963 0.15000348
-0.19266932 0.056667097 -0.20119758 0.37034303 -0.1364221 0.0696843 -0.08075702 0.15834334
0.1912507 0.21233524 -0.06589856 -0.19833589 0.1176195 -0.3344209 -0.11792258 -0.13787092
-0.16633339 -0.22839272 -0.052634157 -0.09373144 -0.01653743 -0.42927384 -0.105076 -0.1951618
-0.24731797 -0.06658321 -0.08627835 0.024274725 -0.010241046 0.21799004 -0.07145194 -0.3255697
-0.5289088 -0.12966533 -0.039415963 -0.21392159 0.019703228 -0.15549491 -0.18453316 0.023392959
-0.19070312 -0.15736257 0.24459523 -0.10473884 -0.3122921 -0.2588535 0.03682807 -0.23410949
-0.3309227 -0.023956234 0.2388508 0.07780687 -0.32362545 0.25137153 -0.34225312 -0.1377343
-0.05802884 0.014194789 -0.16389915 -0.065106526 -0.308602 -0.09765507 0.21239828 -0.30222997
-0.17798434 0.014631789 -0.11314551 -0.23790416 -0.050350364 -0.08939642 -0.16644405 0.17318927
-0.0014975339 -0.19403636 -0.1811012 -0.32571974 -0.11366144 -0.088116005 -0.17734589 0.2093654
-0.13408849 0.012089993 -0.16208103 -0.19251046 0.12137132 -0.156297 -0.3326073 -0.37117323
-0.15265821 0.24473523 -0.20875031 -0.0053748195 -0.1340614 -0.14394678 -0.102163784 0.12704013
-0.017908068 -0.10328347 -0.10271936 0.09724166 0.02814891 -0.29083833 -0.2552325 -0.21634372
-0.123362884 -0.14240545 -0.26626512 -0.14108185 -0.18284374 0.16971344 -0.37709656 -0.28272167
0.05018709 0.14162678 -0.01326104 -0.14157586 -0.20751649 -0.15883292 -0.2937996 -0.34677964
0.054700844 0.23360561 -0.21775699 -0.18277717 -0.31816718 -0.29400966 -0.047758225 0.021409074
-0.09737751 -0.20358278 0.12535521 -0.44298235 -0.25789043 -0.2504965 -0.062149186 0.08056928
-0.13804708 0.039061423 0.087925 -0.31348106 0.10155284 0.034248985 0.023357201 0.023238186
-0.2198262 -0.24681503 0.17080139 -0.26033002 0.14211331 -0.09432754 0.008045901 -0.25058022
-0.17497279 -0.11007331 -0.16189833 -0.2040122 -0.14807566 0.14724274 0.01688014 0.20351517
-0.20236906 -0.19372793 0.20726421 -0.29312217 -0.10507261 0.26430276 0.15366167 -0.08837956
0.015953347 -0.24049163 -0.19687067 -0.13184074 -0.15061814 -0.062071204 -0.037678383 -0.11638254
00000000: ddd9 c33d b931 33be 318b 2fbe 4f74 50be
00000010: 32ac 7cbd 44ee 18bc f019 dc3c a362 8c3d
00000020: 44f6 8d3d a2a8 6ebe 1591 153e 93bf 563d
00000030: c29d 0f3e 3cea 6cbe ae6d cabe ebd7 94bc
00000040: d9af 6abe 075f 813e fa1f 5cbd fe1c 363e
00000050: e8fa 9ebd 6947 68be 8e80 28be 9329 7fbe
00000060: a744 6e3e 55c0 8dbd 787e 9f3d b174 4fbd
00000070: 6bfe 00bc 2a4e 133e 46be 69be 06b1 e8be
00000080: 539f 61be c45d 5abe 85ee 5abe 78d5 903d
00000090: e323 1f3e c2b4 ce3d 434d a3be 88fd 6fbe
000000a0: 5b2c bd3b 19d5 60be 1c6f fcbd 63bf 41bd
000000b0: f210 03be 0c84 c83d baeb 92be 89d1 c4be
000000c0: 3e0a 32bc edd8 8abe 5d0f 7dbe 192d cdbe
000000d0: a0e6 c8be 5cff 53be 943a 313e 7e39 8dbe
000000e0: c65d 1dbe 98de c3bc 3fe5 2c3e bf2a f3bd
000000f0: fc04 72be b172 1cbd 1f74 3e3e e960 26be
00000100: 454d 72bd d06d 92bd 1fe0 223d 5396 9c3d
00000110: 9f63 58be 8c48 6cbe 1c63 68bd d54f 85be
00000120: 5e64 303d cc39 e13d 36f3 34be 6f35 4dbe
00000130: 393f 1dbe 4666 acbe 2b17 74be 839a 193e
00000140: 1b4b 45be c21b 683d bd06 4ebe 9a9d bd3e
00000150: 3cb2 0bbe a4b6 8e3d f063 a5bd c224 223e
00000160: 39d7 433e 696e 593e d3f5 86bd 9018 4bbe
00000170: 7ee2 f03d 3739 abbe 6581 f1bd 092e 0dbe
00000180: 4d53 2abe c8df 69be ea96 57bd 45f6 bfbd
00000190: 8179 87bc c8c9 dbbe 1632 d7bd 7fd8 47be
000001a0: ec40 7dbe c75c 88bd b4b2 b0bd cadb c63c
000001b0: 0fca 27bc c838 5f3e 6555 92bd 12b1 a6be
000001c0: 9166 07bf fdc6 04be a272 21bd 430e 5bbe
000001d0: aa68 a13c 0f3a 1fbe 43f6 3cbe 97a2 bf3c
000001e0: ae47 43be a723 21be 2c77 7a3e 5181 d6bd
000001f0: c0e4 9fbe 7288 84be 08d9 163d 66ba 6fbe
00000200: b36e a9be dd3f c4bc 4e95 743e 3559 9f3d
00000210: 3cb2 a5be c5b3 803e cd3b afbe 380a 0dbe
00000220: a6af 6dbd 4391 683c 2ed5 27be 9256 85bd
00000230: 1501 9ebe 62ff c7bd ef7e 593e e3bd 9abe
00000240: 8741 36be 2cba 6f3c d5b8 e7bd 269d 73be
00000250: 2f3c 4ebd 7815 b7bd 4f70 2abe 8758 313e
00000260: e648 c4ba 78b1 46be 9872 39be bdc4 a6be
00000270: 54c7 e8bd 2a76 b4bd 299a 35be e263 563e
00000280: 7e4e 09be 1b15 463c 92f8 25be 7621 45be
00000290: 8791 f83d 520c 20be 814b aabe 6b0a bebe
000002a0: 6f52 1cbe df9b 7a3e a4c2 55be 411f b0bb
000002b0: 6447 09be c966 13be 3f3b d1bd cf16 023e
000002c0: f1b3 92bc 4986 d3bd 875e d2bd a326 c73d
000002d0: 8b98 e63c c3e8 94be d6ad 82be 3589 5dbe
000002e0: aea5 fcbd bcd2 11be e753 88be c377 10be
000002f0: 643b 3bbe 5cc9 2d3e cd12 c1be e5c0 90be
00000300: fa90 4d3d 9c06 113e d544 59bc 43f9 10be
00000310: 347f 54be 19a5 22be e76c 96be 1a8d b1be
00000320: fe0d 603d 4f36 6f3e b0fb 5ebe f029 3bbe
00000330: cfe6 a2be 6f88 96be 219e 43bd 1562 af3c
00000340: dc6d c7bd 0178 50be 1e5d 003e 95ce e2be
00000350: 370a 84be 1441 80be 2590 7ebd 8201 a53d
00000360: 375c 0dbe dffe 1f3d 0612 b43d 9780 a0be
00000370: effa cf3d aa48 0c3d 9a57 bf3c 025e be3c
00000380: 1f1a 61be 14bd 7cbe 8fe6 2e3e fa49 85be
00000390: 2786 113e cc2e c1bd f4d2 033c 0d4c 80be
000003a0: 112c 33be 1e6e e1bd adc8 25be 93e8 50be
000003b0: 25a1 17be cdc6 163e 3848 8a3c 4866 503e
000003c0: d639 4fbe 9d60 46be 123d 543e 1c14 96be
000003d0: 4f30 d7bd b152 873e 7c59 1d3e 5800 b5bd
000003e0: 98b0 823c 7043 76be 7798 49be 4201 07be
000003f0: a43b 1abe 603e 7ebd a654 1abd f859 eebd

Encoder.enc2.weight f4 [40, 256]
0.018080123 -0.0004712514 -0.0029927187 -0.008925938 -0.0011760305 0.033900782 0.0010058647 0.0038081168
0.026335021 -0.007868633 -0.006796676 0.015646506 0.0014575425 0.001786439 -0.010097973 0.0035453665
0.0027354686 -0.0040211813 0.0019096262 -0.015390233 -0.010871293 0.011570822 -0.0041372026 0.015311006
0.001387968 -0.0030436574 -0.0004366895 0.008571085 0.0047126645 -0.009806117 0.030232681 0.0070477366
0.0069351615 0.0043775705 -0.0051042344 0.010918127 -0.012011323 -0.0024380093 0.014048728 0.0028742512
0.002089105 -0.0025848022 0.0030551464 0.0033686599 -0.007965076 -0.011011015 -0.0067824577 -0.0029986543
-0.0003551311 -0.0030489673 0.0065714335 0.03524227 0.004437964 0.002908162 0.0029698177 0.021492606
0.0023673023 0.01190661 -0.01562301 -0.003279325 0.028128901 -0.008533478 0.012796832 -0.018429004
0.0063459575 -0.0026843804 -0.0011715761 0.0038796023 -0.00332232 -0.0026802262 -0.0050477465 -0.0014117891
2.3713597e-05 -0.0024142608 -0.008335948 0.013570734 0.0010185747 0.00031634522 -0.005002187 -0.0010294636
-0.009640213 -0.010160173 -0.00089104904 -0.0030654483 0.0069291056 -0.0017604999 0.0014848558 0.0030342226
-0.0132600805 0.001728622 -0.00027178542 -0.0127513865 0.008929903 -0.0022463154 0.0020008178 -0.012979994
0.00478717 -0.03235808 -0.02094973 0.006164346 0.0013407611 -0.00077966956 -0.0049728868 0.0048798006
0.00039043115 0.009732939 -0.035704833 -0.001149708 -0.009714636 -0.003074405 -0.01520963 0.0027663622
-0.0034972865 0.003051832 -0.03144991 -0.0026218072 0.0014125371 -0.015219636 0.0025305743 0.0025152997
0.0007307247 -0.0058840895 -0.022102905 0.010414887 0.0024349166 -0.0028050253 -0.0030883658 0.0057324357
-0.03617353 -0.016066601 0.009110459 -0.025162514 0.0021142226 -0.0027395415 -0.007764715 0.001734281
-0.00089457113 -0.0064786533 0.007945972 0.0001873804 0.013090774 -0.0008934089 -0.0024823619 0.01574791
-0.0032198941 0.0019648226 0.009582122 0.013585102 -0.00011990554 0.010944989 -0.010976228 0.0057422966
0.01666344 0.00028915296 0.0014609479 0.0016273848 0.0014359487 0.028819129 0.00085082673 -0.0062495004
0.029934982 0.008314732 -0.0051127435 0.039301764 -0.0057170526 0.0025576167 0.001438684 -0.009233428
-0.027011413 0.010261132 0.048593365 0.004230572 0.00474634 0.00047557167 -0.001078993 0.032672964
0.020567179 0.01197022 -0.00037173988 0.0075658266 -0.004765346 0.00722084 0.027486252 0.00016233145
0.027524566 -0.024730902 -0.003561638 -0.009785035 0.0007358583 0.018444203 -0.01972274 0.0033681975
0.0015770482 -0.0010540897 -8.793482e-05 -0.0040682172 0.0005856745 0.0025215985 -0.007142052 0.00790268
-0.008561423 -0.0132613415 0.0002107157 1.6935059e-05 0.024232788 -0.00193273 -0.0026481394 0.008712706
-0.0010695042 0.0057719317 -0.008489389 0.0067840596 0.02482797 -0.0013667123 0.002135052 -0.0060606916
-0.0027343046 0.012349648 0.01607243 0.0014430013 -0.0021714335 0.00020077635 -0.001574738 0.0026074746
-0.0010343022 0.0055801743 -0.026796056 0.01745301 0.0019272811 0.008818402 -0.0026157785 -0.0013295301
-0.007030166 0.036796637 -0.014022866 -0.0013423086 0.0028607566 -0.009190164 -0.0010481157 -0.017055452
-0.0046207504 -0.027799256 0.0028816774 -0.0014030521 0.0027727406 0.0009806443 -0.003919026 0.0038569325
-0.0022918275 -0.0026134648 -0.0006688839 -0.0016535881 -0.026523754 0.02069022 -0.00030017158 -0.0027832533
00000000: c41c 943c 4b12 f7b9 7d21 44bb 193e 12bc
00000010: 0925 9aba 8cdb 0a3d 38d7 833a 9991 793b
00000020: 8bbc d73c 70eb 00bc a7b6 debb 1a2d 803c
00000030: 030b bf3a f226 ea3a f871 25bc 6159 683b
00000040: 8c45 333b 1dc4 83bb 6c4c fa3a 5127 7cbc
00000050: 821d 32bc 8c93 3d3c 5f91 87bb 04db 7a3c
00000060: 7aec b53a 1978 47bb 79f3 e4b9 bc6d 0c3c
00000070: b26c 9a3b d6a9 20bc 87aa f73c b3f0 e63b
00000080: 5a40 e33b b971 8f3b 6c41 a7bb f2e1 323c
00000090: 24cb 44bc 02c7 1fbb a32c 663c ef5d 3c3b
000000a0: 5ee9 083b c965 29bb da38 483b bcc4 5c3b
000000b0: f37f 02bc 8b67 34bc 613f debb 1285 44bb
000000c0: e430 bab9 2fd1 47bb 2e55 d73b 335a 103d
000000d0: 576c 913b dd96 3e3b 46a1 423b 4311 b03c
000000e0: be24 1b3b f113 433c a7f7 7fbc f2e9 56bb
000000f0: 956e e63c 00d0 0bbc cea9 513c 6cf8 96bc
00000100: c0f1 cf3b 6eec 2fbb 928f 99ba ed40 7e3b
00000110: 48bb 59bb bca6 2fbb 9167 a5bb c80b b9ba
00000120: 90ec c637 9338 1ebb 8093 08bc c957 5e3c
00000130: b281 853a 23db a539 63e9 a3bb 11ef 86ba
00000140: fcf1 1dbc db76 26bc 4a95 69ba b0e5 48bb
00000150: 8d0d e33b 93c0 e6ba 7e9f c23a cfd9 463b
00000160: cf40 59bc ee92 e23a 6c7e 8eb9 31eb 50bc
00000170: ba4e 123c eb36 13bb 2720 033b 0aaa 54bc
00000180: b1dd 9c3b e889 04bd c59e abbc 48fe c93b
00000190: 7abc af3a bd62 4cba 99f3 a2bb bce6 9f3b
000001a0: c8b2 cc39 e876 1f3c 3b3f 12bd cdb1 96ba
000001b0: 232a 1fbc f57b 49bb d031 79bc db4b 353b
000001c0: bb32 65bb 3f01 483b 9fd1 00bd a0d2 2bbb
000001d0: e124 b93a c85b 79bc fed7 253b bad7 243b
000001e0: 1b8e 3f3a 52cf c0bb 2711 b5bc 34a3 2a3c
000001f0: 1f93 1f3b 84d4 37bb 2e66 4abb 28d7 bb3b
00000200: b22a 14bd 1b9e 83bc 0944 153c 9e21 cebc
00000210: c58e 0a3b e189 33bb 266f febb d050 e33a
00000220: a781 6aba e24a d4bb d22f 023c 8b7b 4439
00000230: b07a 563c a833 6aba 1faf 22bb c301 813c
00000240: dc04 53bb 41c4 003b 55fe 1c3c 0c94 5e3c
00000250: cc75 fbb8 9c52 333c a3d5 33bc e029 bc3b
00000260: c481 883c 7499 9739 477d bf3a f94d d53a
00000270: 7136 bc3a 1816 ec3c 040a 5f3a 9cc8 ccbb
00000280: 353a f53c 843a 083c cd88 a7bb e3fa 203d
00000290: 1d56 bbbb b09d 273b 3992 bc3a ce47 17bc
000002a0: 0a47 ddbc 4f1e 283c d609 473d 9ca0 8a3b
000002b0: 3087 9b3b 2656 f939 ff6c 8dba 16d4 053d
000002c0: 807c a83c be1e 443c 15e6 c2b9 c1ea f73b
000002d0: 9f26 9cbb cc9c ec3b d92a e13c 8437 2a39
000002e0: 337b e13c 7698 cabc 5f6a 69bb 6951 20bc
000002f0: 9de6 403a 4c18 973c 9591 a1bc fabc 5c3b
00000300: f5b4 ce3a 6229 8aba a669 b8b8 ae4e 85bb
00000310: f387 193a 6741 253b e007 eabb 3e7a 013c
00000320: 3645 0cbc 1946 59bc 91f3 5c39 c30f 8e37
00000330: d783 c63c a853 fdba 688c 2dbb bdbf 0e3c
00000340: 9b2e 8cba 7922 bd3b 1417 0bbc d14c de3b
00000350: 0764 cb3c 4123 b3ba 3bec 0b3b c498 c6bb
00000360: 0532 33bb 2e56 4a3c 54aa 833c 1723 bd3a
00000370: 9c4e 0ebb 7e87 5239 7067 ceba 2ae2 2a3b
00000380: 6c91 87ba e5d9 b63b 6783 dbbc 9df9 8e3c
00000390: d39c fc3a 0f7b 103c 7b6d 2bbb a143 aeba
000003a0: 4f5d e6bb 12b8 163d 2ac0 65bc 67f0 afba
000003b0: 887b 3b3b 5792 16bc ed60 89ba e0b7 8bbc
000003c0: aa69 97bb 44bb e3bc 86da 3c3b 9ee6 b7ba
000003d0: deb6 353b f688 803a 2c6b 80bb 97c4 7c3b
000003e0: 7c32 16bb aa46 2bbb 0a58 2fba 36bd d8ba
000003f0: 5848 d9bc 897e a93c 5960 9db9 3e67 36bb

Encoder.enc2.bias f4 [40]
0.021771215 0.0054923776 -0.03135202 0.026009819 0.0013960204 0.012077499 0.042971108 0.010278439
0.028601104 -0.024758792 -0.018400995 0.00015776808 -0.010497789 0.025626527 -0.0049193962 -0.032567214
-0.011170684 -0.009866464 0.025462335 -0.01414795 -0.016177656 -0.16892715 -0.0112207895 -0.18126522
0.008416507 0.012511111 -0.18055592 -0.01849362 0.026958184 -0.016305039 -0.2007085 0.004540828
-0.17744203 -0.0023953067 0.010901108 -0.14455104 -0.0093205655 -0.15177613 0.013353577 -0.001546105
00000000: 8c59 b23c 67f9 b33b fa6a 00bd 8b12 d53c
00000010: acfa b63a b4e0 453c 7902 303d e666 283c
00000020: dd4c ea3c f3d2 cabc afbd 96bc 8c6e 2539
00000030: ebfe 2bbc b9ee d13c e332 a1bb 3365 05bd
00000040: 3f05 37bc f3a6 21bc 6396 d03c cecc 67bc
00000050: 0187 84bc 3dfb 2cbe 67d7 37bc 979d 39be
00000060: 64e5 093c 67fb 4c3c a7e3 38be ef7f 97bc
00000070: 69d7 dc3c 2592 85bc 8786 4dbe 3acb 943b
00000080: 5db3 35be 94fa 1cbb 909a 323c 3005 14be
00000090: 49b5 18bc 346b 1bbe f6c8 5a3c ada6 caba

Decoder.dec1.weight f4 [256, 20]
0.0014390249 -0.020013634 -0.0008520501 0.016914913 -0.0065300157 0.0014205807 -0.2567539 0.0009723059
0.012315438 -0.0021487495 -0.01156354 -0.0039098375 0.08943079 0.003985465 0.008592797 -0.006758853
0.0047496147 -0.06877268 -0.002549334 -0.003675337 0.0027158537 0.052832432 -0.0076123634 -0.005962741
-0.00041139996 0.00269553 -0.035427682 0.0038667705 0.0043757223 0.0005927059 0.1847295 -0.004295351
-0.07168696 -0.015655011 0.003853407 0.013497965 0.007556417 -0.2814116 -0.005736959 -0.004442542
-0.0013518139 0.0030005414 0.0019315578 0.2805042 -0.0070348093 0.0031975908 -0.005690307 0.004878059
-0.0047462583 0.003688106 0.012153125 -0.0030371647 0.008362898 0.0037572982 0.006999975 0.0024159122
0.0018299781 -0.09513483 0.0017882772 -0.00021648649 -0.007758927 0.044019565 -2.5742063e-05 -0.00897635
0.008211665 0.0010064784 0.0022043807 -0.0010855983 -0.0037434183 -0.0056627733 0.112275794 -0.0018607588
-0.028048266 0.0031143227 -0.002445762 0.008543248 -0.0042077415 -0.2228031 -0.00314171 0.008122309
-0.0047223736 0.045670394 0.0009965741 -0.00042160644 0.000505852 0.006110437 0.119008444 -0.007434518
-0.0070950617 0.0017880321 -0.021278227 -0.0018510788 0.16745736 -0.0055982224 -0.0055248723 -0.004001884
0.0027488663 -0.14220591 0.00960024 0.0043303072 -0.0013968509 0.02537617 -0.0024912995 0.001995699
-0.00012769466 -0.007889671 -0.06163161 -0.00011239113 -0.0024733278 0.007642756 0.3013061 0.014999697
-0.011487259 -0.0029208625 -0.007438318 0.011432767 -0.009811372 0.06836451 0.0015523672 -0.000691632
0.006048296 0.08288819 -0.003906417 -0.009143605 0.00021920948 0.0016875515 -0.03452086 -0.00063050835
0.00022332872 0.00041969007 0.1124477 -0.003383624 0.033598755 -0.0019612703 0.0052508907 -0.025026267
0.004452709 0.1787064 0.006165114 0.0032399457 -0.0069918255 -0.0035192296 0.006268781 0.009745392
0.0047743903 0.013061067 0.0076443455 -0.0045764297 0.010356925 -0.009921563 0.053428777 0.0018397744
0.007700498 -0.005164082 -0.015082181 -0.39786014 -0.0048556095 -0.03661325 0.009206667 0.0007902037
-0.0043081236 0.015892144 -0.00422194 -0.006673466 -0.0073342333 -1.0615224e-05 -0.0029216453 0.008376227
-0.0061012465 -0.004138117 0.14703266 -0.008461127 -0.055844642 0.00021418509 -0.0044387258 0.015865589
0.004107785 -0.2088964 -0.0009719407 -0.00523206 -0.0037971062 0.22349112 -0.00083961216 0.009828476
0.004646209 0.0018088535 0.044520482 0.008874187 -0.0049665496 -0.003284815 -0.099725544 -0.0015998397
0.02133029 0.00027266386 0.006967491 -0.017740084 -0.0019559544 -0.021354785 0.00048885227 0.00034609705
0.006809947 -0.033921126 -5.3326028e-05 0.011389667 -0.0028065685 -0.0030506933 -0.04495502 -0.0008742631
0.0006209319 -0.00091380574 0.19795837 -0.00084440823 0.053445023 -0.0016241926 0.00022843704 -0.009177716
0.0023816777 0.22045323 -0.0016324796 0.0069222716 0.0047027804 -0.012295997 -0.0024771274 0.0071206293
0.0061167525 -0.00549884 0.02826269 -0.0021218369 0.0068265763 -0.0032418007 -0.12461105 -0.0029102655
0.066971585 0.0014391937 -0.0029087015 -0.0052435887 0.0019837646 0.17513582 -0.003812913 -7.572235e-05
-0.0014727701 0.042592786 -0.007379541 0.002915145 -0.0023695303 -0.003133434 -0.17371687 -0.005324977
0.0046753045 0.0049581523 -0.046868257 -0.0055385833 0.18803878 -0.002910472 0.002257827 0.000172517
00000000: aa9d bc3a a2f3 a3bc 1d5c 5fba 2591 8a3c
00000010: bef9 d5bb c732 ba3a 3f75 83be 58e2 7e3a
00000020: b1c6 493c 09d2 0cbb 0175 3dbc 181e 80bb
00000030: 7d27 b73d 8198 823b cec8 0c3c 5e79 ddbb
00000040: a8a2 9b3b b1d8 8cbd ba12 27bb ecdd 70bb
00000050: 77fc 313b d266 583d 2271 f9bb 1963 c3bb
00000060: 2bb1 d7b9 7da7 303b 9e1c 11bd a569 7d3b
00000070: 3862 8f3b d25f 1b3a bb29 3d3e 04c0 8cbb
00000080: 9dd0 92bd f03e 80bc 7189 7c3b 9226 5d3c
00000090: d29b f73b 2e15 90be 1afd bbbb be92 91bb
000000a0: 592f b1ba bba4 443b 532c fd3a 3f9e 8f3e
000000b0: 4284 e6bb ac8e 513b c175 babb 20d8 9f3b
000000c0: 8086 9bbb 27b4 713b e71d 473c 2b0b 47bb
000000d0: 8904 093c 013d 763b 0c60 e53b 4854 1e3b
000000e0: e0db ef3a 0dd6 c2bd a064 ea3a a600 63b9
000000f0: 993e febb dc4d 343d a9f0 d7b7 8a11 13bc
00000100: 388a 063c d0eb 833a 5f77 103b a24a 8eba
00000110: 2354 75bb c98e b9bb daf0 e53d b4e4 f3ba
00000120: 7ac5 e5bc aa19 4c3b 1449 20bb fbf8 0b3c
00000130: 18e1 89bb 7f26 64be 26e5 4dbb 6f13 053c
00000140: 24be 9abb e110 3b3d 7a9f 823a 0f0b ddb9
00000150: 279b 043a 103a c83b b3ba f33d 429d f3bb
00000160: b17d e8bb 675c ea3a ad4f aebc e69f f2ba
00000170: f179 2b3e 4b71 b7bb fd09 b5bb 3c22 83bb
00000180: 5326 343b 6d9e 11be 534a 1d3c 40e5 8d3b
00000190: 8a16 b7ba b0e1 cf3c 1245 23bb 46ca 023b
000001a0: c6e5 05b9 ae43 01bc 6d71 7cbd 87b3 ebb8
000001b0: 8e17 22bb 1670 fa3b cb44 9a3e 4ac1 753c
000001c0: 0e35 3cbc f16b 3fbb 22bd f3bb 8050 3b3c
000001d0: e0bf 20bc b102 8c3d cd78 cb3a a34e 35ba
000001e0: c930 c63b 49c1 a93d 6701 80bb 0fcf 15bc
000001f0: 99db 6539 d530 dd3a bf65 0dbd b348 25ba
00000200: 592d 6a39 d909 dc39 fb4a e63d cabf 5dbb
00000210: d99e 093d a888 00bb aa0f ac3b e303 cdbc
00000220: 08e8 913b cffe 363e ba04 ca3b 4555 543b
00000230: af1b e5bb e0a2 66bb 596a cd3b 23ab 1f3c
00000240: 7d72 9c3b 16fe 553c 6b7d fa3b e0f5 95bb
00000250: 18b0 293c 0d8e 22bc 22d8 5a3d 9624 f13a
00000260: 7654 fc3b 7637 a9bb 411b 77bc 53b4 cbbe
00000270: ce1b 9fbb c6f7 15bd 8fd7 163c ac25 4f3a
00000280: 292b 8dbb 3e30 823c 3358 8abb 17ad dabb
00000290: 0254 f0bb 0a18 32b7 1379 3fbb 713c 093c
000002a0: f7ec c7bb 0b99 87bb bb8f 163e 8aa0 0abc
000002b0: 5abd 64bd df96 6039 bb72 91bb 8df8 813c
000002c0: 999a 863b f0e8 55be d6c9 7eba b371 abbb
000002d0: dfd8 78bb dbda 643e 6b19 5cba 9e07 213c
000002e0: 3a3f 983b 0d17 ed3a 1c5b 363d 0a65 113c
000002f0: 70be a2bb 0d46 57bb e83c ccbd b6b1 d1ba
00000300: dcbc ae3c 53f4 8e39 8d4f e43b a753 91bc
00000310: 782f 00bb 3bf0 aebc 5226 003a 5c74 b539
00000320: fa25 df3b e1f0 0abd 63aa 5fb8 ba9b 3a3c
00000330: 68ee 37bb 24ee 47bb c122 38bd ce2e 65ba
00000340: 09c6 223a 778c 6fba 99b5 4a3e 475b 5dba
00000350: 2be9 5a3d dce2 d4ba 9a88 6f39 225e 16bc
00000360: ec15 1c3b 7ebe 613e edf8 d5ba 39d4 e23b
00000370: c819 9a3b 2675 49bc 4d57 22bb 2b54 e93b
00000380: 0a6f c83b 9d2f b4bb 2887 e73c 840e 0bbb
00000390: 79b1 df3b 6474 54bb 1434 ffbd 27ba 3ebb
000003a0: 6628 893d 54a3 bc3a ea9f 3ebb 69d2 abbb
000003b0: 0c02 023b ce56 333e 11e2 79bb 21cd 9eb8
000003c0: f709 c1ba c675 2e3d 14d0 f1bb 040c 3f3b
000003d0: 1f4a 1bbb 4d5a 4dbb d6e2 31be 257d aebb
000003e0: 4c33 993b ff77 a23b eef8 3fbd 017d b5bb
000003f0: 3d8d 403e 9ebd 3ebb 0df8 133b aee5 3439

Decoder.dec1.bias f4 [256]
-0.016114345 -0.06336966 -0.23272394 0.0027274012 0.012331579 -0.08468276 -0.0003305557 -0.06369294
-0.021030774 -0.023946 -0.043187384 -0.008333329 0.001132777 0.004300455 -0.03347797 0.08502491
-0.12503605 -0.01876997 -0.26758093 -0.05570446 0.096890055 -0.050576173 -0.008272046 0.0027532203
-0.36125946 0.002159409 -0.028115895 0.04639705 0.004940894 -0.36137027 0.031137038 0.0076083303
-0.238648 -0.12589271 -0.06409842 -0.004725732 -0.021725181 -0.24050497 0.07975158 -0.31161276
-0.17791864 -0.0751185 -0.06706603 0.020478036 0.08082987 0.010938748 -0.22265922 -0.016660228
-0.30930668 -0.020942176 -0.014583945 -0.014188589 0.08391245 -0.27361295 0.019513842 0.010406455
0.006036613 -0.021071319 -0.06485026 0.026778618 0.081176825 -0.06296885 0.0029343301 -0.048758164
0.023339428 -0.014469171 0.010659466 0.011936393 -0.027020393 -0.13904963 0.08574633 0.012772491
-0.15708293 0.08377441 -0.019036219 -0.24609399 -0.23503381 0.07515087 0.021772157 -0.23495094
0.0059221187 0.015248957 -0.020845309 -0.06379646 -0.15304786 -0.04870991 0.029568575 0.056660894
0.020322021 -0.36932608 0.05881317 -0.06129929 -0.22707179 -0.016276455 -0.13667777 -0.44702575
-0.039983366 -0.02838399 -0.011790251 0.09203114 -0.04658116 -0.21900362 -0.061383083 0.08914594
-0.033344936 -0.3918131 0.029245857 -0.003468045 0.0052504 -0.29945266 0.025315195 -0.005753976
-0.0013362906 -0.019606141 0.01262756 -0.015784765 -0.013989591 -0.07649751 0.0045875786 -0.013931608
-0.027518053 0.015988486 0.0072507095 0.033659488 -0.29770947 -0.34155005 0.0027927246 -0.13940048
-0.07620179 -0.38940862 0.006096854 0.0022486353 -0.021533048 -0.29597387 -0.33414164 -0.0010337568
-0.03238469 -0.3557328 0.014964483 -0.65231675 -0.09945436 0.024101062 -0.0063737915 -0.0086753825
-0.075275496 -0.0016555298 -0.05360543 0.019312808 0.08185899 -0.13214552 -0.28854567 -0.065893404
0.020290004 -0.35927555 -0.057793934 -7.1444694e-05 0.046594426 0.010981782 -0.3278219 0.009622735
0.018156275 -0.020191617 -0.008288438 0.06779858 -0.23865916 0.09118498 0.018697968 0.0918499
-0.093288325 0.012681575 0.06929688 0.019634517 0.006112691 -0.13362257 -0.14862847 -0.040443625
-0.012195141 -0.04579949 0.013987332 0.0035068525 -0.021257035 -0.008669525 -0.038597234 0.025509527
0.054377157 0.0049728393 0.03861139 0.014412973 0.061608855 -0.09039248 0.03638721 0.041902605
0.023311758 -0.014524915 -0.030152122 -0.012233344 -0.06394843 -0.035472065 -0.0067606466 -0.25582284
-0.14680384 -0.08617816 -0.011330037 -0.1696804 -0.072927676 0.07163523 0.00853086 -0.05586811
-0.06247591 -0.019164586 -0.23168191 -0.06635039 0.0709821 -0.058940023 0.007674964 -4.5729197e-05
0.0013709917 -0.06670493 0.00029459977 -0.06333059 -0.10534752 -0.038364436 -0.31601223 -0.16108096
0.02117218 -0.023538584 -0.03291274 -0.22194758 -0.07047826 -0.33555108 0.00081305887 -0.0032839817
-0.00692247 -0.22958326 -0.02336823 0.0070817363 0.0039781076 -0.0022896617 0.015492484 -0.00083946483
-0.5140715 -0.040423404 -0.2776605 0.0789765 0.003599315 -0.2985816 0.08887154 -0.09200532
-0.022398325 0.009747664 -0.018829513 -0.2438781 -0.17610645 -0.16305134 -0.3693854 0.0056175143
00000000: 3b02 84bc f4c7 81bd 2f4f 6ebe 33be 323b
00000010: 640a 4a3c 286e adbd 6f4e adb9 7271 82bd
00000020: bb48 acbc 672a c4bc 41e5 30bd 8488 08bc
00000030: b079 943a d5ea 8c3b 3220 09bd 8a21 ae3d
00000040: 7309 00be 7bc3 99bc 5e00 89be 5c2a 64bd
00000050: 4b6e c63d f628 4fbd 7a87 07bc 5f6f 343b
00000060: 00f7 b8be df84 0d3b 4e53 e6bc d50a 3e3d
00000070: 39e7 a13b 8605 b9be 1a13 ff3c 4d4f f93b
00000080: 2460 74be 05ea 00be 0846 83bd 50da 9abb
00000090: 02f9 b1bc ef46 76be cc54 a33d b58b 9fbe
000000a0: 4e30 36be bad7 99bd ea59 89bd 8ec1 a73c
000000b0: 228a a53d 6f38 333c c700 64be 087b 88bc
000000c0: 725d 9ebe ed8e abbc 80f1 6ebc 4177 68bc
000000d0: 4ada ab3d ff16 8cbe 7edb 9f3c d67f 2a3c
000000e0: c8ce c53b c29d acbc 37d0 84bd d55e db3c
000000f0: 0940 a63d d0f5 80bd e44d 403b a4b6 47bd
00000100: 5432 bf3c 1a10 6dbc 0aa5 2e3c dc90 433c
00000110: df59 ddbc 0763 0ebe c69b af3d b643 513c
00000120: 59da 20be eb91 ab3d d8f1 9bbc 1000 7cbe
00000130: b4ac 70be b3e8 993d 865b b23c fb96 70be
00000140: 550e c23b c3d6 793c c8c3 aabc b8a7 82bd
00000150: 94b8 1cbe 0b84 47bd cc39 f23c 4115 683d
00000160: 5e7a a63c 4f18 bdbe 14e6 703d f714 7bbd
00000170: 8285 68be 3356 85bc 42f5 0bbe 8fe0 e4be
00000180: 99c5 23bd 8b85 e8bc e62b 41bc d37a bc3d
00000190: e3cb 3ebd 7c42 60be d46c 7bbd 2692 b63d
000001a0: b394 08bd ba9b c8be 0295 ef3c 2448 63bb
000001b0: 8c0b ac3b dc51 99be d061 cf3c d98b bcbb
000001c0: 7926 afba 0f9d a0bc d3e3 4e3c 0d4f 81bc
000001d0: 9934 65bc baaa 9cbd 6653 963b 6641 64bc
000001e0: 8a6d e1bc 49fa 823c 5c97 ed3b 88de 093d
000001f0: 606d 98be a6df aebe 2506 373b 00bf 0ebe
00000200: af0f 9cbd 9160 c7be 1ec8 c73b d75d 133b
00000210: 1366 b0bc e389 97be 9d14 abbe 1f7f 87ba
00000220: cfa5 04bd 9c22 b6be 972d 753c 3bfe 26bf
00000230: baae cbbd 976f c53c 3ddb d0bb 3123 0ebc
00000240: 0a2a 9abd 5dfe d8ba 5e91 5bbd e535 9e3c
00000250: b0a5 a73d 2851 07be 42bc 93be 1ff3 86bd
00000260: 3937 a63c f7f2 b7be 55b9 6cbd 94d4 95b8
00000270: ccd9 3e3d efec 333c 46d8 a7be ada8 1d3c
00000280: 78bc 943c e468 a5bc 3bcc 07bc fbd9 8a3d
00000290: 1163 74be 31bf ba3d 7b2c 993c cd1b bc3d
000002a0: f30d bfbd 61c6 4f3c 86eb 8d3d 91d8 a03c
000002b0: f84c c83b 5bd4 08be 1032 18be 37a8 25bd
000002c0: 21ce 47bc 3f98 3bbd 1f2b 653c 39d3 653b
000002d0: 3c23 aebc a00a 0ebc 2218 1ebd 5bf9 d03c
000002e0: 95ba 5e3d 33f3 a23b fa26 1e3d 6424 6c3c
000002f0: 9159 7c3d b11f b9bd c10a 153d 11a2 2b3d
00000300: 4df8 be3c e9f9 6dbc 9501 f7bc 5d6e 48bc
00000310: 65f7 82bd 284b 11bd 6a88 ddbb 36fb 82be
00000320: bf53 16be 2d7e b0bd 9fa1 39bc b3c0 2dbe
00000330: 1b5b 95bd 7eb5 923d 05c5 0b3c f6d5 64bd
00000340: bde6 7fbd 0dff 9cbc 063e 6dbe b7e2 87bd
00000350: 105f 913d 186b 71bd 447e fb3b 5acd 3fb8
00000360: d9b2 b33a 989c 88bd 8374 9a39 78b3 81bd
00000370: 71c0 d7bd 0724 1dbd 5bcc a1be 68f2 24be
00000380: 4871 ad3c fdd3 c0bc 82cf 06bd 3a46 63be
00000390: e856 90bd 5acd abbe 7523 553a 1238 57bb
000003a0: e3d5 e2bb e017 6bbe bb6e bfbc e90d e83b
000003b0: c95a 823b 260e 16bb 30d4 7d3c 880f 5cba
000003c0: 319a 03bf 0393 25bd 8429 8ebe 6ebe a13d
000003d0: 7ce2 6b3b b0df 98be 4802 b63d 496d bcbd
000003e0: b17c b7bc abb4 1f3c 5a40 9abc 2ebb 79be
000003f0: 4055 34be eef6 26be 1520 bdbe 2013 b83b

Decoder.dec2.weight f4 [31, 256]
0.035253014 0.08282456 0.056471303 0.06432964 0.036133282 0.0676159 -0.18854704 -0.04160823
0.09635958 0.08861856 -0.125976 -0.106405094 -0.062205184 -0.07200312 -0.017752869 0.0032282942
-0.109329365 0.12687425 0.064083464 -0.014449161 -0.011858765 0.121587545 -0.10704041 -0.3113467
0.0876263 0.16412112 0.036543645 0.021427665 0.096095316 0.04668621 -0.013318604 -0.10049926
0.120780386 0.025989158 -0.06426166 -0.20653927 0.021054408 -0.023567112 -0.020424798 0.051762763
0.008189417 -0.02174277 -0.20196453 -0.19551356 -0.021669108 -0.015078985 -0.018753093 0.22469987
0.01078213 0.13535094 0.013479985 -0.15491366 -0.02492206 0.012859348 -0.13126296 -0.18710685
-0.2566162 0.031377513 -0.028718827 -0.2606385 -0.00015661427 0.025476856 -0.19280614 -0.010846957
-0.15923347 -0.09873926 0.10946133 0.19727165 0.21458344 0.039914604 -0.021811733 -0.14476207
0.011076638 -0.026361467 0.1570073 0.047981072 0.017864343 -0.0138223395 0.037327453 0.02142716
-0.23917413 -0.08407769 0.0047298367 -0.07418821 0.06302843 0.16813506 -0.1847947 -0.03849266
-0.15359332 -0.034427594 0.0024792398 -0.012143168 0.022460612 0.07270357 -0.6568512 -0.04481921
-0.00059694564 0.025722845 0.1360309 -0.028222488 0.02641256 0.054242652 0.03645928 0.041983448
0.21700029 0.46509865 -0.17024103 0.18897092 0.0074667847 -0.02105788 -0.1570699 0.12174312
-0.1705111 0.15311244 -0.07811082 -0.06402558 -0.26650366 0.051957488 0.09562588 0.060709827
0.117777996 0.19423006 0.094267175 -0.1146194 0.018106226 0.05122755 -0.22169667 -0.0053586992
-0.008829941 -0.0061205258 0.07822944 -0.14897838 0.108215414 0.028802238 -0.050076507 -0.1880983
0.020861508 0.08301423 -0.066364646 -1.099724 -0.10638196 -0.12003156 0.13693063 -0.18627961
-0.006830066 -0.11920493 0.037373383 -0.18090102 -0.027087964 0.20959443 0.0137173915 -0.04147313
-0.26307285 0.03798423 0.07526761 -0.118974894 0.023491455 -0.16062343 0.037270874 -0.14809588
-0.018585669 0.11730582 0.022599218 -0.00406333 0.054712307 -0.049669776 -0.23209098 -0.03173987
0.09377115 -0.10761228 0.01346757 -0.1189308 -0.11054978 0.12132544 -0.062492542 0.025476612
-0.20981584 0.055079963 0.0997975 -0.14995024 -0.079230055 -0.12688689 0.20299211 0.05951013
0.019145219 -0.04971078 -0.048874717 0.14714491 -0.022401081 -0.026593445 -0.019045364 0.021268362
-0.1328887 0.12572265 -0.025788808 0.12303391 0.048112318 0.18801361 0.15658578 -0.23466785
-0.12045999 0.054984353 0.0034190952 0.077916294 -0.0068898373 -0.028457725 -0.2709635 0.19116539
0.1984468 0.07916542 0.023928814 0.11902232 0.04461643 0.03177529 0.032988437 0.13447513
0.090312935 0.030793976 -0.30004716 -0.06036135 -0.006586285 -0.021270974 0.03310885 0.104686044
-0.1466372 0.023455929 0.060097534 0.011835969 0.11711754 -0.014429321 0.103126876 0.019749453
0.039354246 0.038970165 0.05639627 -0.13461219 -0.16278149 -0.16473453 -0.09340477 -0.14211018
-0.45178166 0.048314378 0.031043932 -0.020695128 -0.096859805 -0.0049617416 -0.03142378 0.096773885
-0.07338313 -0.057332687 0.047581416 -0.0046721785 0.102428205 -0.025059516 -0.011728794 0.1559181
00000000: 7765 103d ec9f a93d 744e 673d 42bf 833d
00000010: 7e00 143d 347a 8a3d 7a12 41be 646d 2abd
00000020: 2c58 c53d a67d b53d daff 00be eaea d9bd
00000030: ddca 7ebd 5f76 93bd 776e 91bc ca91 533b
00000040: 13e8 dfbd 53eb 013e 313e 833d 2cbc 6cbc
00000050: 444b 42bc e402 f93d 0138 dbbd d668 9fbe
00000060: 6b75 b33d 5e0f 283e caae 153d 1289 af3c
00000070: 9fcd c43d 0a3a 3f3d 4636 5abc 8ed2 cdbd
00000080: b55b f73d 37e7 d43c 9e9b 83bd 087f 53be
00000090: 4b7a ac3c d10f c1bc e851 a7bc 3105 543d
000000a0: e82c 063c e51d b2bc cacf 4ebe b534 48be
000000b0: 6a83 b1bc d90d 77bc 16a0 99bc b917 663e
000000c0: 88a7 303c 7099 0a3e 28db 5c3c b0a1 1ebe
000000d0: 5929 ccbc 04b0 523c cc69 06be f098 3fbe
000000e0: 3363 83be b585 003d bf43 ebbc 6972 85be
000000f0: d338 24b9 d7b4 d03c f96e 45be 6fb7 31bc
00000100: 190e 23be cf37 cabd 432d e03d 9401 4a3e
00000110: c3bb 5b3e 7f7d 233d 85ae b2bc 823c 14be
00000120: c97a 353c 01f4 d7bc 86c6 203e cd87 443d
00000130: 3e58 923c 1877 62bc ace4 183d 0388 af3c
00000140: 10ea 74be ed30 acbd bffc 9a3b fdef 97bd
00000150: 0d15 813d 992b 2c3e d23a 3dbe 7baa 1dbd
00000160: 9147 1dbe f303 0dbd be7a 223b 23f4 46bc
00000170: 51ff b73c 9ce5 943d 6627 28bf 5994 37bd
00000180: 587c 1cba b7b8 d23c af4b 0b3e d932 e7bc
00000190: 275f d83c 8b2d 5e3d 5356 153d d6f6 2b3d
000001a0: 5335 5e3e 6921 ee3e aa53 2ebe 9881 413e
000001b0: eeab f43b 9381 acbc efd6 20be 7554 f93d
000001c0: 769a 2ebe 82c9 1c3e 91f8 9fbd d81f 83bd
000001d0: 2b73 88be 60d1 543d 80d7 c33d deaa 783d
000001e0: 9735 f13d 3fe4 463e 260f c13d 93bd eabd
000001f0: 8253 943c fbd3 513d 7404 63be 0798 afbb
00000200: 75ab 10bc b18e c8bb c236 a03d ca8d 18be
00000210: 0ba0 dd3d acf2 eb3c 061d 4dbd d79c 40be
00000220: c1e5 aa3c 5d03 aa3d 30ea 87bd c2c3 8cbf
00000230: c9de d9bd 1bd3 f5bd 8b37 0c3e 15c0 3ebe
00000240: bfce dfbb b721 f4bd d514 193d 1e3e 39be
00000250: 94e7 ddbc ec9f 563e e9be 603c bbdf 29bd
00000260: 7cb1 86be 5a95 1b3d e825 9a3d 1ca9 f3bd
00000270: 2771 c03c 787a 24be 58a9 183d 72a6 17be
00000280: f940 98bc 093e f03d ff21 b93c af25 85bb
00000290: 031a 603d 8972 4bbd 42a9 6dbe aa01 02bd
000002a0: 170b c03d d463 dcbd 15a7 5c3c fe91 f3bd
000002b0: ec67 e2bd 7979 f83d 2ef8 7fbd 54b4 d03c
000002c0: f7d9 56be 879b 613d a262 cc3d 8e8c 19be
000002d0: 5e43 a2bd a3ee 01be 2add 4f3e e5c0 733d
000002e0: 6fd6 9c3c 889d 4bbd db30 48bd 28ad 163e
000002f0: 7982 b7bc 7fda d9bc 0605 9cbc fd3a ae3c
00000300: fa13 08be 70bd 003e 0d43 d3bc 34f9 fb3d
00000310: 6c11 453d a486 403e 0658 203e c54c 70be
00000320: bab3 f6bd 4637 613d e612 603b 9492 9f3d
00000330: 25c4 e1bb 2d20 e9bc babb 8abe dcc0 433e
00000340: a335 4b3e 7b21 a23d 5c06 c43c f9c1 f33d
00000350: b8bf 363d ce26 023d e21e 073d d9b3 093e
00000360: fdf5 b83d a643 fc3c c89f 99be 773d 77bd
00000370: c3d1 d7bb 7740 aebc 259d 073d a365 d63d
00000380: 1028 16be a626 c03c d528 763d a7eb 413c
00000390: 52db ef3d f568 6cbc 2f34 d33d 9bc9 a13c
000003a0: eb31 213d 2e9f 1f3d c6ff 663d c7d7 09be
000003b0: 31b0 26be 2bb0 28be 004b bfbd 5585 11be
000003c0: ed4f e7be 4ce5 453d d84f fe3c d488 a9bc
000003d0: 6f5e c6bd 1b96 a2bb 39b6 00bd 6331 c63d
000003e0: e549 96bd aed5 6abd bbe4 423d 1319 99bb
000003f0: e1c5 d13d 9d49 cdbc 212a 40bc ffa8 1f3e

Decoder.dec2.bias f4 [31]
-0.48984942 -0.26916313 1.6917819 -0.11358542 1.0638871 0.04521266 -2.6165106 -0.03368913
-0.3064792 -0.28127533 1.513205 0.44778958 1.4160172 -1.7871697 1.7927347 -1.8488061
-0.061523654 1.1067903 -0.08549943 -1.164472 -0.096720725 -1.0163659 -2.105849 -0.110607296
0.022155948 2.0444255 0.11192064 2.9122891 0.10222879 0.3559385 -1.9122341
00000000: 8bcd fabe c0cf 89be 4f8c d83f 799f e8bd
00000010: 742d 883f e930 393d e974 27c0 9dfd 09bd
00000020: d7ea 9cbe 5203 90be b4b0 c13f ad44 e53e
00000030: 0d40 b53f fac1 e4bf 5578 e53f aea5 ecbf
00000040: 3a00 7cbd 4eab 8d3f 531a afbd 6b0d 95bf
00000050: 8415 c6bd 4718 82bf 3bc6 06c0 1486 e2bd
00000060: 6480 b53c ded7 0240 a636 e53d f262 3a40
00000070: 545d d13d 923d b63e 16c4 f4bf
