results/7_niid/model_alone_n_0_m_0.pt (torch, 121552 bytes, 8 tensors)

Encoder.enc1.weight f4 [256, 22]
000000 4c 03 51 be 70 fa 30 3e f7 f9 5c 3d 9a 4f bd bd
       -0.20411414 0.17283034 0.053949323 -0.092436984
000010 1f 1d c7 3d e9 73 bb 3c ca e3 e2 bd 1e 4e 35 3e
       0.09722351 0.022882419 -0.110786036 0.1770558
000020 47 e1 0f 3e b2 d5 24 be 94 54 2c 3c e9 08 d8 3d
       0.1405078 -0.16097143 0.010518212 0.105485745
000030 c7 22 ce 3c 04 87 33 bc ee 17 ea 3d 9f 49 13 3e
       0.025163068 -0.010957483 0.114303455 0.14383553
000040 a2 6e c5 bd 44 91 00 3c 35 a6 29 3e ff 4e f5 bd
       -0.09640242 0.007847134 0.16567309 -0.11977958
000050 2b 49 63 3d 48 b3 0a 3c a5 9e 3c 3e 7d 64 6c bc
       0.0554897 0.008465596 0.18419893 -0.014428255
000060 0f 36 93 bd 91 78 44 3c 87 2a a3 bd 4f 19 c7 bc
       -0.07188045 0.011991636 -0.07967096 -0.02430406
000070 9e 02 26 3e ec a3 2b be d6 c5 f5 bd ad e9 38 3b
       0.16211936 -0.1676175 -0.12000625 0.0028215453
000080 0d 2c be bd f4 a6 24 3e 1e e0 4f be 3f 24 43 be
       -0.09285746 0.16079313 -0.20300338 -0.19056796
000090 8a 2a a2 bd 48 d3 1e be 05 77 03 3e 87 36 b7 bd
       -0.0791827 -0.15510285 0.12838371 -0.08945947
0000a0 a4 08 35 be 9c a5 34 be 12 90 d3 3c f4 92 38 be
       -0.17679077 -0.176413 0.025825534 -0.18024808
0000b0 89 a9 c4 bd ba 59 e7 3d 69 4f d7 bd 28 e2 8b bd
       -0.09602649 0.11296411 -0.10513193 -0.06830245
0000c0 f9 5f 44 be 0c f5 3f 3e 84 41 40 3e 9a 92 a0 bd
       -0.19177236 0.18745822 0.18774992 -0.07840462
0000d0 ae 4e bf 3d cc 48 03 3e ec d4 12 3e f9 e7 62 be
       0.09341179 0.12820739 0.14339036 -0.22158803
0000e0 47 09 1d 3e da e9 07 3d d0 34 05 3e 3f fc 8a bd
       0.1533557 0.033182003 0.13008428 -0.067863934
0000f0 e1 87 de bd 1b 63 c0 3d a1 14 97 3d 67 ff 84 3d
       -0.108657606 0.09393903 0.073769815 0.06494027
000100 ee 23 43 3d 41 fc b4 3d b9 75 c6 bd a6 df 4a 3d
       0.047641687 0.08837176 -0.096904226 0.049529694
000110 56 7c 18 3e e5 66 bd bd b8 4f 56 3d 1e 22 80 3d
       0.1489118 -0.09248141 0.05232212 0.06256507
000120 49 d2 0c be 9c cd d4 3d 19 f4 60 3b be 07 60 be
       -0.13752092 0.103907794 0.003432518 -0.21877953
000130 a0 6e c1 3d 6c 71 fb bd 61 9a fa 3b 94 8f d1 3d
       0.09444928 -0.12277493 0.007647798 0.102324635
000140 5b 27 19 be c9 28 34 3e 9e 74 ec 3d 7c 1d 33 be
       -0.14956419 0.17593683 0.115456805 -0.17491716
000150 09 ee 8b bc 25 23 79 bd 55 6f 32 be c8 5f 3a be
       -0.017081277 -0.060824532 -0.17425282 -0.182006
000160 ea de f4 bc ea fb 09 be 39 c4 91 bc b3 86 9a 3d
       -0.02989145 -0.13475004 -0.017793762 0.07545223
000170 35 fd f2 bd 36 18 1b 3e f9 f1 13 be 27 9c 13 bd
       -0.11864702 0.15145954 -0.14447774 -0.03603759
000180 cc 16 0d bc 64 fb 92 bd a7 e1 03 bd f0 e8 d4 bd
       -0.008611392 -0.07176855 -0.03219762 -0.10395992
000190 b0 e3 c6 3d 03 b6 91 3d c5 a7 c8 bd 74 25 57 be
       0.09711397 0.07114794 -0.097976245 -0.21010381
0001a0 ee 05 e5 3d 5e 1a 55 3e f3 56 c7 bc de 9d 83 3d
       0.111827716 0.2081084 -0.024333453 0.06426595
0001b0 4c 26 aa bd 08 54 44 3e 6c ec 11 bd 75 98 2e 3d
       -0.08308086 0.1917268 -0.03562586 0.042625863
0001c0 b9 db dc bc e3 68 dc bd 40 34 1e bd 1f 18 4d 3e
       -0.02696024 -0.10762193 -0.03862405 0.20028733
0001d0 7e 50 49 be da 31 36 3e 06 dd 02 bc cd df 2e be
       -0.19659612 0.17792454 -0.007987266 -0.1707756
0001e0 2d ed e8 bd a0 64 bd 3d 9d 1c 51 be c5 c5 7f 39
       -0.11373363 0.09247708 -0.20421071 0.0002439237
0001f0 a4 94 2c 3e 9c 7b 9b 3d f6 1a 75 3b a7 97 13 be
       0.16853577 0.07591936 0.0037400103 -0.1441332
000200 19 2e 37 be 4f 4c cc 3c ef 31 26 3e 53 1b 6a 3c
       -0.17888679 0.02493873 0.16229986 0.014288741
000210 fd 26 40 be 13 a1 91 3d 1e 47 fb 3c 3d 1d 5d be
       -0.18764873 0.071108006 0.03067356 -0.21593185
000220 d4 02 2c be 7a a9 3b bc b5 b8 29 3e 7f 86 29 be
       -0.16797954 -0.011453981 0.16574366 -0.16555212
000230 e6 8a 09 be f7 63 99 3a 30 76 98 3d 4a 0f 5e bd
       -0.13431892 0.0011702765 0.074444175 -0.0542138
000240 89 96 12 be 71 5a 31 bd 7f 31 77 3c 1d b0 9f bd
       -0.14315237 -0.043299142 0.015087484 -0.07797263
000250 71 88 5c 3d 42 ee 20 be c0 c6 b7 3d 24 82 c6 bd
       0.05384106 -0.15715888 0.089734554 -0.09692791
000260 58 79 c9 bd ac 91 88 bd 2c 4b 42 bd 0d 27 c8 3d
       -0.098375976 -0.0666841 -0.04743497 0.09773073
000270 5a db c2 3c 89 b2 1a bd 43 4b 1f be c1 bf 94 bd
       0.023786236 -0.03776792 -0.15556054 -0.07263137
000280 2f ac 3e 3d 03 90 70 be 9a c7 08 3e 1a d4 36 3d
       0.046550926 -0.23492436 0.13357392 0.04463587
000290 cb c3 0a be c1 58 4b 3d ad bc 24 3d df c9 a4 3d
       -0.13551252 0.04964519 0.040218998 0.08046316
0002a0 2d 8f d9 3d 32 d7 8b ba 77 26 f4 3d 46 ce e7 bd
       0.10623012 -0.0010668992 0.11921399 -0.113186404
0002b0 67 c4 1c 3d c1 eb 2d be 24 7a 34 3d 27 b3 f3 bd
       0.03827324 -0.16984464 0.044061795 -0.11899405
0002c0 af 57 8e bd ab 90 6b bc cd f2 8f bd 2e e5 b3 3c
       -0.06950318 -0.014377753 -0.070287324 0.021959867
0002d0 af d0 06 3e 30 0a ec bd bb 02 e2 bd f3 3f 54 bd
       0.13165544 -0.115253806 -0.11035677 -0.0518188
0002e0 0d 72 a6 bd dc ca e8 bd 4d f4 2a bd 29 ea 96 bd
       -0.08127222 -0.11366817 -0.04173689 -0.07368881
0002f0 c4 18 54 be b7 21 ec 3d 96 ba 11 3e 8a 9f 3b 3e
       -0.20712572 0.11529868 0.14231333 0.18322578
000300 d7 4e bc 3d 33 65 71 3d c6 55 24 be e3 65 88 bd
       0.09194725 0.0589344 -0.16048345 -0.06660058
000310 4e 1b 96 bc 70 cf d5 bd 83 4b 23 be 2c 4e c0 bd
       -0.018323567 -0.10439956 -0.15946774 -0.0938991
000320 f0 5c 3d 3e 51 d8 b9 bc ed e4 63 be d1 32 b9 3d
       0.18492484 -0.022686156 -0.22255297 0.090428956
000330 2b 49 b0 bd 64 18 9b 3d 30 d5 b2 bd de 8e 1e be
       -0.08607706 0.075730115 -0.087320685 -0.15484187
000340 57 40 ce 3d bf 13 f4 3d b7 90 24 be 38 4f d3 3d
       0.100708656 0.11917829 -0.1607083 0.10317844
000350 65 2a 27 be 1b 37 47 3e e4 16 72 3b cc 76 4d be
       -0.16324766 0.19454615 0.0036939913 -0.20064849
000360 44 b5 df bd da 4b 0e 3e 9c a3 ba 3d 82 39 cf bd
       -0.109232455 0.13896123 0.09113237 -0.101183906
000370 e2 4a f4 bd c7 08 c8 bd 5f b5 4b 3e a2 f8 fd bd
       -0.11928345 -0.09767299 0.19893406 -0.124009386
000380 07 37 5d be ce 84 85 bd 69 d5 eb bc 52 86 dd bd
       -0.21603023 -0.06519471 -0.028788285 -0.10816635
000390 ce c9 f3 3d eb bd 57 be 64 4f be bc 06 9a 09 be
       0.119037256 -0.21068542 -0.023231216 -0.13437662
0003a0 92 9b 4b 3e e4 d8 40 3d 5b 6f 1d be 10 c7 57 3d
       0.19883564 0.047081843 -0.1537451 0.052680075
0003b0 bc 5c 29 be 91 e4 44 3e b6 e3 33 3e 4c 27 bc 3d
       -0.16539282 0.19227816 0.17567334 0.09187183
0003c0 1f 81 ea 3d d3 9d 2c be 73 4f bf bd 46 25 16 3e
       0.11450409 -0.1685708 -0.093413256 0.14662656
0003d0 4e ec b5 3d 94 76 53 be 1f ef 42 3e b1 b0 a1 3d
       0.08882962 -0.20650703 0.1903653 0.07895029
0003e0 8d 84 3b be 0f a7 b7 3d 6e a4 9b bd 36 b6 8b bd
       -0.18312283 0.08967411 -0.07599722 -0.06821863
0003f0 06 66 cf bd e1 4b e1 3d aa 38 8b 3d 9f de c2 3d
       -0.10126881 0.11000801 0.06797917 0.09515118

Encoder.enc1.bias f4 [256]
000000 63 5d 3b 3e a5 37 99 3b eb 29 97 3c b9 c7 89 3d
       0.18297343 0.004675823 0.018452605 0.06727547
000010 4b 24 0d 3e f5 2d fa bc 5f 23 0b 3e 4e d4 1d be
       0.13783376 -0.030539492 0.13587712 -0.15413019
000020 d5 e0 ff 3d 33 e3 c7 bd a9 82 0b bd 03 96 e4 3d
       0.12494055 -0.09760132 -0.034060154 0.11161425
000030 b6 9c 8b 3d 09 03 a2 bc c4 3c 41 be 9c 36 42 3e
       0.068169996 -0.019776838 -0.18870836 0.18966144
000040 16 90 00 bd 28 63 3f be c5 73 10 3e a9 4d 50 bd
       -0.03138741 -0.18690169 0.14106663 -0.050855312
000050 8a b1 eb bd c4 2d 0e be 85 14 ea 3d 51 19 05 3e
       -0.11508472 -0.13884646 0.11429695 0.12997939
000060 d9 bd 3a be 2c 85 16 be c6 64 fa bd 25 9e 38 3d
       -0.18236484 -0.14699239 -0.12226252 0.045072693
000070 42 a5 ed 3b bb af 97 3d 10 b3 93 bd 06 0e 67 be
       0.0072523663 0.07406565 -0.07211888 -0.22563943
000080 91 14 3c 3e 6c 65 f6 bd 35 c2 a7 3c 42 e3 ac bd
       0.1836722 -0.120310634 0.020478347 -0.084417835
000090 29 97 bf 3d 98 78 a0 bd 4b 0c cb 3d aa e7 2d be
       0.093550034 -0.078355014 0.09914454 -0.16982904
0000a0 33 5d 5a 3d 9b 3b 1b 3d 97 63 c2 bd 32 dd 37 3e
       0.053311538 0.03789864 -0.094916515 0.17955473
0000b0 e4 a8 fa 3c bd d5 11 be ba f8 06 be bd fa 57 be
       0.030598111 -0.14241691 -0.13180819 -0.21091743
0000c0 4c cc 80 bd 29 10 1e be 20 36 06 be 69 93 f4 3d
       -0.062889665 -0.15435852 -0.13106585 0.11942179
0000d0 67 3a 03 3e 00 1b 05 3e b2 26 01 be 4c 43 a9 bd
       0.12815247 0.12998581 -0.12612417 -0.08264789
0000e0 26 2e 08 bc 05 4b 46 bd 09 f5 0b 3c 6f f5 19 3d
       -0.008311784 -0.048411388 0.008542308 0.03758758
0000f0 dc 5b cd 3a 28 bc 0a be 20 60 d3 bd 71 b7 4f bd
       0.0015667635 -0.13548338 -0.10321069 -0.050712053
000100 2b 0f e7 bd 02 16 b9 3d 41 5a 6f 3d b5 fa 9b bd
       -0.1128219 0.09037401 0.058435682 -0.07616178
000110 24 b6 45 3d dc 4e 10 3e 1a a2 56 bd 63 28 26 be
       0.048269406 0.14092582 -0.052400686 -0.16226344
000120 08 11 46 be 25 cf 40 be d9 31 06 be 9e e8 ba bd
       -0.19342434 -0.1882902 -0.13104953 -0.091263995
000130 52 80 58 3e d9 3b 1e 3e 48 36 25 be d1 2b 6a 3b
       0.211427 0.15452518 -0.16133988 0.0035731683
000140 e3 18 2e 3e 0e 18 77 3d 7f 5f f1 bc 23 67 3a be
       0.17001681 0.060325675 -0.029464481 -0.18203406
000150 a6 f1 e3 3d 84 dd 17 be 3e 24 26 3e 84 8a 27 be
       0.11130075 -0.14830595 0.16224763 -0.16361433
000160 49 ec 2e be 34 db 16 be ec ca e8 bd 60 8a 31 3d
       -0.17082323 -0.14732057 -0.11366829 0.043344855
000170 a8 4d 21 be f0 9d 22 3e 6d 26 bc 3d bf 2e ae bc
       -0.1575228 0.15880561 0.09187017 -0.021262525
000180 e5 6c 20 3e f0 3f 22 3e e9 91 20 3e e3 3e e0 3d
       0.1566654 0.15844703 0.1568066 0.10949495
000190 b6 9c cd bd 81 9f 8d bd ba 56 2d 3e 22 73 04 bc
       -0.10039656 -0.069151886 0.16927615 -0.00808409
0001a0 9c 76 15 be bf d8 e3 bd 63 af c3 bc 85 26 33 bc
       -0.14596027 -0.111253254 -0.023887342 -0.010934477
0001b0 4b 0a 06 be ee 29 ec bb 33 f1 00 3e 56 3f 5e bd
       -0.13089864 -0.007207147 0.1259201 -0.05425962
0001c0 22 83 24 be d0 31 32 3e 2a e1 17 3d 07 ae 73 be
       -0.16065648 0.17401814 0.037079968 -0.23796855
0001d0 de 76 41 bd 13 9f e7 3d f6 d4 1a be 9e 6c 2d 3e
       -0.0472325 0.11309638 -0.151203 0.16935965
0001e0 51 4f 4b be 93 9e ad bd d9 38 7c 3b 3d 0a 94 3a
       -0.19854476 -0.08477511 0.0038486032 0.0011294555
0001f0 3d 42 da bd 24 73 ca bd d9 80 09 3e 0c b7 96 3d
       -0.10657165 -0.098852426 0.13428058 0.07359132
000200 bf c1 15 3c 46 68 76 3d 87 7b df 3d 49 df 08 3e
       0.009140431 0.060158037 0.10912233 0.13366427
000210 9e d8 05 3e b5 7e 88 bd c2 d8 5e be a2 32 95 3d
       0.13070914 -0.066647924 -0.21762374 0.07285048
000220 8d 95 07 be 17 35 a4 bc 95 24 19 be 9e 85 48 be
       -0.13240643 -0.020044846 -0.14955361 -0.19582221
000230 b6 a3 00 bd 77 b8 9a 3c f4 78 9b bc 0f c4 94 bb
       -0.031406127 0.018886788 -0.018978573 -0.0045399736
000240 95 29 1f be 06 d6 8e 3d 89 07 9b bd b0 6c b6 bd
       -0.15543206 0.069744155 -0.075697966 -0.08907449
000250 46 6b a1 3d 5d a7 39 bc 50 88 c3 bd 54 8e dd bd
       0.07881789 -0.011331406 -0.09547484 -0.108181626
000260 3a 4d 15 be d0 d2 4c 3e d9 8e e1 bd e2 1e b7 bd
       -0.14580241 0.20002294 -0.11013574 -0.08941437
000270 bd 31 3c 3d d1 48 14 3e 6e 32 de bd 0b e8 54 be
       0.04594587 0.14480902 -0.108494624 -0.20791642
000280 ce 61 a5 bc ca 41 b6 3d c1 fe 82 3d c5 25 32 be
       -0.020188238 0.08899267 0.06396247 -0.1739722
000290 2e 95 8d bd 21 52 1c 3e 30 bb e4 bd 0d f9 94 bd
       -0.069132194 0.15265705 -0.11168516 -0.07274065
0002a0 9b 17 28 be e0 75 0c bd c1 4b e6 3d ee 52 b5 bd
       -0.16415255 -0.0342921 0.11244918 -0.08853708
0002b0 bb a6 45 3d 4c 5c 3c 3e 51 7a 3a bd 69 04 06 3e
       0.04825471 0.18394583 -0.045526806 0.1308762
0002c0 03 42 80 bd a6 c1 13 3e 7d fe 31 3e 2e b1 57 be
       -0.06262591 0.1442934 0.17382236 -0.21063682
0002d0 f4 84 e7 3c de 9b 2a be 8c ce 92 3d 0d 71 f7 3d
       0.02826164 -0.16661021 0.07168302 0.120821096
0002e0 91 df e7 3d d1 b8 56 be 4d 2e 2f bc 7b 31 bc bd
       0.11321939 -0.2096894 -0.010692191 -0.09189125
0002f0 e4 4d 66 be ba 43 3d 3e 8c 36 43 be 78 22 a0 3d
       -0.2249065 0.18482867 -0.19063777 0.078190744
000300 cd b2 b5 3d af f2 42 bd 51 2f 66 be 21 8f c9 3d
       0.08871994 -0.047594722 -0.22478987 0.09841753
000310 e1 42 72 bd 17 9e 22 be 33 d8 1a be e0 aa c2 bc
       -0.059145812 -0.15880619 -0.15121536 -0.02376312
000320 c7 dd 64 be 78 46 36 3e e5 3f 53 be 01 57 ee 3d
       -0.22350226 0.17800319 -0.20629843 0.116376884
000330 34 ce 67 bb ee bb 44 3c b5 b0 3f bc 8c ae e3 bd
       -0.003537071 0.012007697 -0.011699845 -0.111172765
000340 4c 23 4f be 2e aa 63 be 3b d9 25 3e 05 03 c0 3d
       -0.20228308 -0.22232887 0.16196148 0.09375576
000350 71 48 4c be c3 50 08 3e a3 44 c3 3c ed 70 34 bb
       -0.19949509 0.13312058 0.02383644 -0.002753313
000360 c8 8c 20 be 18 3c a0 bd b9 f7 1d 3e c3 cd df 3d
       -0.15678704 -0.07823962 0.1542653 0.10927918
000370 51 b9 06 bd 73 49 0f be 56 63 21 3e 6c 73 e4 3c
       -0.032891575 -0.13992862 0.1576055 0.027887069
000380 8a 2a a8 bd f5 c9 04 be 29 f0 53 bb e2 0a 34 bd
       -0.08211239 -0.12967665 -0.0032339192 -0.04395569
000390 a7 34 04 be 4e 8a 36 3d 91 50 92 bd 08 56 51 be
       -0.1291071 0.04456549 -0.07144273 -0.20442975
0003a0 0b 78 e2 3d 7a 8d 5a be 2e c0 31 bc 0b ad 35 3e
       0.11058053 -0.21343032 -0.010849042 0.17741792
0003b0 ca 72 33 be cd 91 2b 3e 88 eb d2 bd ab b1 07 3e
       -0.17524257 0.16754837 -0.1029883 0.13251369
0003c0 ca 68 92 bd d0 12 b1 bd 59 42 53 3e 8f 4f 18 be
       -0.07148893 -0.08646166 0.20630778 -0.14874099
0003d0 3d 04 43 bd 37 0a 7d 3c 5a 3f 28 3e 95 d8 42 3c
       -0.047611464 0.01544433 0.16430417 0.0118924575
0003e0 31 21 eb bd 18 bd 21 be c0 3a 20 be 6c 93 5b 3e
       -0.1148094 -0.1579479 -0.15647411 0.21442956
0003f0 21 47 4c 3d 17 5b bd bd e7 f1 e6 bd b6 bd df bc
       0.04987252 -0.0924589 -0.11276608 -0.02731214

Encoder.enc2.weight f4 [40, 256]
000000 3f 56 b2 3c 9e 51 12 bd bc 52 fb 3c 5c 49 0b bd
       0.021769641 -0.035722367 0.0306791 -0.034005508
000010 95 0a 00 bd 98 5c 7e 3c fc f1 81 3c 2b 96 5b bc
       -0.03126009 0.015525006 0.015862457 -0.013402502
000020 69 24 59 3a b1 3a fc 3b 60 92 89 3c 42 74 74 bd
       0.00082833186 0.0076974262 0.01679343 -0.059681185
000030 27 5d 22 3d d7 7c 4d 3b 48 3c f7 3c 41 5d b1 bb
       0.03963962 0.0031354928 0.030180112 -0.005412728
000040 3b 74 10 bc 38 ed 4d bd 86 0b e9 bc c3 b6 34 3d
       -0.008816774 -0.050275058 -0.028447878 0.044119608
000050 81 60 f2 bc ff ca 21 3c 64 14 f0 bc 6f 4f a4 bd
       -0.029587032 0.009875058 -0.029306598 -0.08022963
000060 e8 53 0a 3d 47 6a 13 bc 3f b9 88 bc e1 83 c1 bc
       0.033771425 -0.008997506 -0.016689895 -0.023622455
000070 bc 92 00 bd 5c 96 66 3d 66 2b ee bc 5a e5 be bc
       -0.031389937 0.056295738 -0.029073428 -0.023302723
000080 53 bb 1b bc 31 59 ab 3c f5 39 77 bc 18 18 2a bd
       -0.009505111 0.020916553 -0.015089502 -0.041526884
000090 c3 b4 f4 39 8a 68 07 bd 36 de 30 bd ff 22 45 bd
       0.00046673985 -0.03305868 -0.043180667 -0.048129078
0000a0 c9 61 9f 3c ed 4a 68 bd 4f 8a 73 3c a4 65 c2 3b
       0.019455807 -0.05671208 0.014864518 0.0059325267
0000b0 22 fb 51 bd 75 57 cf bc 9c 89 17 3c 5b a5 a0 bc
       -0.05126489 -0.025310257 0.009249117 -0.019610098
0000c0 07 4e 4b 3b c9 37 59 3d 1d ab c7 3c 94 f2 1b 3d
       0.003102185 0.053031716 0.024373585 0.038073137
0000d0 d4 a2 0d 3d bc 60 b9 bb 3d 59 72 bc ab 57 2e bd
       0.034579113 -0.0056572836 -0.014791784 -0.042564075
0000e0 a4 fb 2b 3c 5e 2e 35 3a fe 3a df bc dc d8 72 bc
       0.0104970075 0.00069115113 -0.02724981 -0.014822211
0000f0 18 c8 07 bc 80 57 a9 bc c5 1e fa b9 bc 89 7a 3d
       -0.008287452 -0.020671606 -0.0004770664 0.06116651
000100 41 b4 2d bb c7 24 0e bc b0 1d 05 3d 26 e0 f0 3c
       -0.0026505145 -0.008675761 0.032499015 0.029403757
000110 e1 5c 6f bc 5e 7f e1 bb ef bd bd 3c 50 1f 09 bb
       -0.014609546 -0.0068816384 0.023161856 -0.0020923205
000120 25 cd 3b bd b0 72 95 b9 4e 3e 74 bd 22 84 06 bb
       -0.045849938 -0.00028504943 -0.05962973 -0.0020525535
000130 b4 3c 4a 3d 8a b3 12 bb 4e 52 f4 bc 7a b9 64 bd
       0.049374297 -0.0022384846 -0.029824402 -0.055840947
000140 c4 74 53 3d df 6e 89 3d ed d7 1e 3c ad 35 83 3d
       0.05162503 0.067106 0.009695035 0.06406722
000150 2c b0 3b 3d 40 1e 4f bd 65 59 d4 bc b4 79 a9 bc
       0.045822307 -0.050565958 -0.025921533 -0.020687915
000160 cc c3 84 bc f5 55 47 3d f6 24 50 bd 02 ae 9a 3d
       -0.016206644 0.04866596 -0.0508165 0.075527206
000170 f8 fd cc 3b ce b5 a2 3a 5d 94 0a 3c 4f 52 2a 3d
       0.0062558614 0.0012413801 0.008458224 0.0415824
000180 23 a8 a8 3c de 4a a4 3c c4 09 1c 3d f0 b6 d9 bc
       0.020587986 0.02005523 0.03809525 -0.02657649
000190 a6 c7 cb bb 94 97 e1 bc ef c2 09 3d 23 15 8c bb
       -0.0062188683 -0.027538098 0.03363317 -0.0042749806
0001a0 90 0e 2b 3c ea 05 ec 3c d6 bd f3 3c 08 b3 cb 3c
       0.010440484 0.028811414 0.029753607 0.024865642
0001b0 df b6 1c bd 02 7e 76 bc 06 d2 9b bc ef bd a7 bc
       -0.038260337 -0.015044691 -0.019021045 -0.02047631
0001c0 7f a0 cf bc ae df 7a 3c d0 77 1b 3d 08 09 a5 bc
       -0.025345085 0.015312118 0.03795606 -0.020145908
0001d0 fd de 13 bd ef be 47 3c 8f fc f5 3c 81 89 2e bd
       -0.03610133 0.012191518 0.030027656 -0.042611603
0001e0 7d 79 fd 3c 4f e4 de 3a 24 6d fa bc 66 de b0 bb
       0.03094172 0.0017005297 -0.03056962 -0.0053976057
0001f0 c1 20 0e bd a0 89 5e 3d 7d cf b9 3b d1 d1 d1 3c
       -0.034699205 0.05433047 0.0056704865 0.025612744
000200 0b 2a f8 3c a8 79 85 bc 88 0b fd 3c 6b 87 dc bb
       0.030293485 -0.016293362 0.030889288 -0.0067300103
000210 8d 36 74 3d cc cd 2c 3d ff 53 24 bd 6f 79 a5 bb
       0.059622336 0.04218845 -0.040119167 -0.0050498764
000220 eb 87 dc bc 4c d3 01 bc 89 ef d0 3c aa 10 96 3c
       -0.02692028 -0.007923912 0.025504844 0.018318493
000230 02 c8 f7 3b 21 88 8c bc 7d 50 4b 3d 75 ea 09 3c
       0.0075616846 -0.017154755 0.049637306 0.008417715
000240 c6 de d9 3c 58 79 e2 3c 9f 5d 34 bd 95 7f df bc
       0.026595484 0.027645752 -0.044034597 -0.027282516
000250 ed a8 b4 bb c8 25 f8 bc e1 0c 5f bc 20 6e 53 bd
       -0.0055133016 -0.030291453 -0.01361391 -0.051618695
000260 23 6d 05 bd d5 56 96 bb 27 69 83 bd 18 b7 d3 bc
       -0.032574784 -0.004587988 -0.064165406 -0.025844142
000270 b7 08 ce 3c fd 17 19 3d 30 70 71 bb f8 0e 05 bc
       0.02515064 0.037376393 -0.003684055 -0.008121245
000280 9b 6d b2 3c 65 d4 53 3d e1 37 e2 bc e2 e0 cd ba
       0.02178078 0.051716227 -0.027614536 -0.0015707279
000290 6e 17 a6 3c 98 84 17 bd 30 46 66 bc 6c 32 50 3d
       0.020274844 -0.036991686 -0.01405482 0.050829336
0002a0 0b 1b b5 bc de a9 31 bd 44 12 38 bd 54 f4 d3 39
       -0.022107622 -0.04337489 -0.044939294 0.00040427095
0002b0 a5 38 07 3c 10 77 93 3b 92 0c 96 bc 3c 00 32 3c
       0.008253251 0.0045002773 -0.01831654 0.010864314
0002c0 b5 91 83 3c 6d af 70 3c 13 2c 90 3b fc cd 71 3d
       0.01606069 0.014690262 0.0043997853 0.059034333
0002d0 5f d5 0a 3d 24 af d8 3c d1 33 22 3d b3 79 39 3c
       0.033894893 0.026450701 0.039600197 0.011320519
0002e0 57 f1 13 3d 85 31 a9 bc 11 d6 67 bd ac 81 3f bd
       0.03611883 -0.020653496 -0.056600634 -0.046754524
0002f0 99 d2 18 bb cc 60 87 bc 61 03 98 b9 c6 a9 54 bc
       -0.0023318885 -0.016525649 -0.00028994217 -0.01297993
000300 e2 1c ee 3c f9 9f 45 3d 6c e6 a4 3d be 00 8a 3c
       0.029066507 0.048248265 0.08051762 0.016846057
000310 b9 ce 3f bd 2a c9 9a 3c 46 fa 51 bd f0 24 aa bc
       -0.046828005 0.01889475 -0.05126407 -0.020769566
000320 23 81 2d bd 5f ee f2 bb f6 29 39 3c 7a c2 87 bd
       -0.042359482 -0.00741367 0.011301508 -0.0662889
000330 2d 70 1d bc 7f 6d 25 bd 12 2e 14 3d 32 1f 10 bd
       -0.009609264 -0.040387627 0.03617675 -0.035186
000340 9b 53 a3 bb fd 92 96 bd ae 23 9d bc d3 62 89 bc
       -0.004984332 -0.073522545 -0.019182052 -0.016770756
000350 bb b8 03 3d 06 16 33 bd 81 38 83 3d 1e 04 ae bb
       0.032158595 -0.043722175 0.06407262 -0.0053105494
000360 f8 f4 93 3a 37 ea 1a 3c 72 54 f2 bc 34 f6 ba bc
       0.0011288216 0.009455255 -0.029581282 -0.022822477
000370 db 11 9d 3c 23 bf 36 3c 6f 0c 1c 3d 2a ff 7b bc
       0.019173553 0.011153969 0.038097795 -0.01538066
000380 c5 ad 86 bc 5c 93 b5 3c 59 ce 5a 3d 66 b3 80 3d
       -0.016440282 0.022164993 0.053419445 0.062842175
000390 c0 b5 aa 3c 74 7c 6f 3d 5f 21 ea 3c 56 dd 46 bc
       0.020838618 0.058468297 0.028580366 -0.012137732
0003a0 59 38 9b bc 1d d1 8f 3c e0 b4 99 bb ec ee 83 3c
       -0.018947767 0.017555768 -0.0046907514 0.016105138
0003b0 04 cc 9b 3c bc 60 c4 3a c4 1c 02 bc 59 d8 55 bc
       0.01901818 0.0014982442 -0.007941429 -0.01305207
0003c0 ef 04 3d 3d 37 f5 1d 3d 65 d8 d5 3b 02 d2 11 bd
       0.046147283 0.038563933 0.0065260404 -0.03560067
0003d0 47 4f 07 3d 0d 8c 0d bd 01 03 26 bc 64 6b 3a 3c
       0.03303459 -0.03455739 -0.010132552 0.011378143
0003e0 5c ea 2e 3b 56 e5 9b 3c 44 06 a4 bd 9c c1 23 3d
       0.0026689982 0.019030254 -0.080090076 0.039979562
0003f0 9e 24 0a 3d f7 1a 4c 3b 37 c7 3e 3d ee 0b 3b bd
       0.033726327 0.0031144002 0.046576705 -0.045665674

Encoder.enc2.bias f4 [40]
000000 a8 f3 2e bc 48 04 15 bd 45 49 2d bd b5 d4 27 3d
       -0.010678209 -0.036381036 -0.042306203 0.040974338
000010 20 9a 49 3d f3 ee 3b bd f2 f0 7f bc 69 3e 9e bc
       0.04921925 -0.045882177 -0.015621411 -0.019316869
000020 89 4a 2a 3c b9 6d 33 bd 11 63 55 3d c5 70 03 3d
       0.010393747 -0.04380581 0.05209643 0.032089967
000030 7c c6 3a 3d 8e 77 97 3a 79 bd ea bc da 9c 9d 3c
       0.045599446 0.0011556016 -0.0286548 0.019239832
000040 f9 65 28 bd e2 be 67 3d 62 fb 7a bc 37 92 16 3c
       -0.041112874 0.056578524 -0.015318723 0.009190134
000050 53 9c 12 bc f7 22 fd 3c 04 38 8e bd 16 8d 02 bd
       -0.008948403 0.030900462 -0.06944278 -0.03187283
000060 1d 76 6f bc b7 60 5b 3d 8b de 31 3c a4 f1 11 bd
       -0.014615563 0.05355903 0.010856281 -0.035630837
000070 66 a1 52 3d 9e 01 63 bc 42 e8 3d 3d 9f d8 49 bc
       0.051423453 -0.013855366 0.046364076 -0.012319713
000080 00 dd 50 bd b2 c8 68 bc e4 62 5f bd a8 79 70 b9
       -0.050992012 -0.014208006 -0.05453767 -0.00022933504
000090 d5 96 b5 3b e4 2c a8 bc 8f 17 09 bd a7 ca 2e bd
       0.005541662 -0.020529218 -0.033469733 -0.042673733

Decoder.dec1.weight f4 [256, 20]
000000 c6 84 d2 bc e4 11 b1 bc 36 be ea bd 74 bc 06 be
       -0.025698077 -0.021614976 -0.11462061 -0.13157827
000010 c3 64 d9 3d d6 16 15 3c 7b b7 e2 bc e1 32 a1 3d
       0.10614922 0.009099683 -0.02767538 0.078710325
000020 f3 37 8f bd cd b4 d9 3d 9e ab f8 bc 3a 0b 62 bd
       -0.06993093 0.10630188 -0.030355271 -0.055186488
000030 37 41 12 3d be f7 b3 3d 67 24 b1 bc 05 df 1d 3d
       0.035706725 0.087874874 -0.021623803 0.038542766
000040 d4 6c 00 3e ee 06 44 3d e8 ab fd bc 1f f6 70 bd
       0.12541515 0.04785817 -0.03096576 -0.05882847
000050 72 91 dd bd a0 84 d5 3d cb da 4e be 4a 24 eb bc
       -0.10818757 0.10425687 -0.2020065 -0.028703827
000060 1f a2 b9 3c 0a e5 18 3e 19 73 0f 3e 69 34 cf 3d
       0.022660313 0.14931121 0.1400875 0.10117418
000070 c1 64 57 be d8 bd 26 be e8 dd 06 3e 81 4e 6c 3a
       -0.21034528 -0.16283357 0.13170588 0.00090143835
000080 ab b4 14 3e 68 c2 08 bd db 54 d4 3d af 34 89 bd
       0.14522044 -0.033388525 0.103677474 -0.06699502
000090 6e ca 29 be 66 2e ea bd b8 14 cc bd f5 a7 3b bd
       -0.16581127 -0.11434631 -0.09964889 -0.045814473
0000a0 9e fa fb 3d 1f a7 15 3e 77 fd 37 3e 96 ef ee bd
       0.12303661 0.14614533 0.17967783 -0.11666791
0000b0 e8 23 4a be ac 17 40 3e 3f 6d ef 3d a5 4c b1 3d
       -0.1974026 0.1875903 0.11690759 0.08657197
0000c0 b8 ba 52 3e b3 f0 6a 3c b8 eb 16 be f4 0f 04 3e
       0.2057904 0.014339614 -0.14738357 0.1289671
0000d0 0e 4b da bd 2b b2 22 be f2 71 d1 bd 85 0c 31 3e
       -0.10658847 -0.15888278 -0.102268115 0.17289932
0000e0 88 59 92 bd 61 21 8a 3d 8f 4b 29 be 80 e7 e0 3c
       -0.07145983 0.06744648 -0.1653273 0.027454138
0000f0 20 e7 13 3d 30 c2 ef 3d db 37 0b bd 51 df 32 3c
       0.03610909 0.1170696 -0.033988815 0.010917501
000100 29 6d 2d 3e e3 6d 12 be e9 c5 a1 bd 77 d2 42 be
       0.16936173 -0.14299731 -0.078990765 -0.19025598
000110 21 38 49 bd 21 c2 00 be e4 03 20 3d 96 d8 d3 3d
       -0.049125794 -0.12574054 0.03906621 0.10344045
000120 77 55 6f 3c 6a 3e ae 3b 33 6f 9a bd 86 09 d9 3c
       0.014607779 0.005317499 -0.07540741 0.026493799
000130 ee db 10 3e 26 72 99 bd 5c c3 1b be 53 57 fb bd
       0.14146397 -0.07492475 -0.15211242 -0.12272515
000140 a8 99 95 bd fd a5 79 3d 60 4a 07 3e ba fe 88 bd
       -0.07304698 0.060949314 0.13211966 -0.0668921
000150 bd 94 17 be 5c d9 0c be 95 ae 1d be 7a 7d 85 3d
       -0.14802833 -0.13754791 -0.15398629 0.065180734
000160 31 96 54 bd 7b 55 80 bd d0 ae e0 bd 93 68 e4 bd
       -0.051901046 -0.06266304 -0.10970843 -0.111527584
000170 c3 10 91 bd 6f d0 03 3e 76 5f f1 3b c8 7c b7 3d
       -0.07083275 0.1287248 0.007366116 0.08959347
000180 4a 38 4d bc c2 d0 0e 3e 4b fc ef 3d 1c e6 2e be
       -0.012525627 0.13946822 0.11718043 -0.17079967
000190 bf 76 23 bd 33 22 0a 3e 0d 23 9e 3b c8 13 5a bd
       -0.039908167 0.13489608 0.0048259557 -0.05324152
0001a0 55 7d 8d 3d b7 0e 9b 3c 65 a9 96 bd 43 78 e9 bd
       0.06908671 0.018927915 -0.07356528 -0.11399891
0001b0 79 f1 b2 bc 30 f2 7d bd b5 e3 b8 bd de c4 9e bd
       -0.021843659 -0.061998546 -0.09027807 -0.07752393
0001c0 33 c6 0a be 2a de a2 3d 39 24 00 bd 2a 67 0b bd
       -0.1355217 0.07952531 -0.031284545 -0.03403393
0001d0 56 03 d7 3d 0e e9 80 bc 4b b6 2b be a8 e8 b1 3a
       0.10498683 -0.01573613 -0.16768758 0.0013573365
0001e0 db 8e 3c 3e 0a 22 94 bc 0c 49 95 3d 7c 4b ff 3d
       0.1841387 -0.018082637 0.07289323 0.124655694
0001f0 70 e2 dc 3d c7 5b cc 3c eb 38 0a 3e 07 c9 8f be
       0.10785377 0.024946107 0.13498275 -0.2808306
000200 ad 20 b9 3d 1d cf f8 bd 98 d7 9f bd c2 af fc 3d
       0.090394355 -0.12148879 -0.07804793 0.12338211
000210 d1 4b 37 3e e0 65 03 3e 15 6c 72 bd dc 07 0f 3e
       0.17900015 0.12831831 -0.059185106 0.13967842
000220 32 64 8e bc 07 34 08 3e fd 6d ed 3d 2f 30 2a 3e
       -0.017381761 0.13301097 0.11593244 0.16619943
000230 8d 87 64 bd 24 ea 53 3d 47 d6 16 3e 52 17 13 bd
       -0.055793334 0.051736966 0.14730178 -0.03591091
000240 ac ab 93 bd 7e c9 ea bc df ff 52 3e f3 9d 2c bd
       -0.07210478 -0.028660532 0.2060542 -0.04214282
000250 47 45 e8 bd 16 1d 21 be 06 60 39 3d 86 c3 9d 3c
       -0.113413386 -0.15733752 0.04525759 0.019258272
000260 8d 32 93 3d 5c a5 3e be e0 42 14 3d 74 89 11 3e
       0.07187376 -0.18617767 0.03619659 0.1421259
000270 34 8d 29 bd a4 97 5c 3d 2b 1b bb 3d 8d 95 b9 bc
       -0.041394427 0.053855553 0.09136041 -0.02265432
000280 84 ef 16 3d 1a 55 1b be 54 62 16 3e b3 53 2a 3e
       0.036849514 -0.15169182 0.14685947 0.16633491
000290 17 50 bc bd f6 ef c0 bd 51 07 01 3d cb 41 dc 3d
       -0.091949634 -0.09420769 0.031501118 0.107547365
0002a0 15 f4 fc bd ca f7 17 3d 13 b5 44 3d ef c4 c9 3c
       -0.123512425 0.037101544 0.04802425 0.024630038
0002b0 9d 23 e9 bd 40 37 30 be 83 a8 f1 bd 86 ae 04 3e
       -0.11383746 -0.17208576 -0.11799719 0.129572
0002c0 91 e0 2f bd 06 58 3a 3e 07 d8 c4 3d 4c 29 a4 bd
       -0.042938773 0.18197641 0.096115164 -0.08015689
0002d0 12 96 f7 bd 64 82 3e 3d 55 bf 2a be 58 b0 75 3d
       -0.120891705 0.04651107 -0.1667455 0.059982628
0002e0 fb d6 07 3e e4 96 57 bd c6 60 2a 3d d2 c4 14 bd
       0.13265602 -0.052634135 0.041596197 -0.036320515
0002f0 39 34 55 be a9 dd 44 be 53 64 d8 3d f5 be 66 3d
       -0.20820703 -0.19225182 0.1056601 0.056334455
000300 4c 87 7c 3d 10 79 38 3d 7e 2e 13 bd e2 14 46 be
       0.061652467 0.04503733 -0.03593301 -0.19343904
000310 e3 b2 19 bd 3d 5b dc 3d 4c 7e ed 3d 6d b2 20 bd
       -0.037524115 0.1075959 0.11596355 -0.03923266
000320 4e 7d de 3c 4a 59 b8 3d a4 0a 8a bd 10 64 80 3c
       0.02715936 0.090014055 -0.06740311 0.015672714
000330 88 ce 14 3e 4a 4a 09 be af 56 e1 bd 57 42 40 3e
       0.1453191 -0.13407245 -0.11002862 0.18775307
000340 1e 57 8a 3d a2 92 35 bd eb 39 b3 bd 49 e5 ea 3d
       0.067548975 -0.044329293 -0.08751281 0.11469514
000350 b9 70 5d bd 6e 5a f5 3d 7b 47 eb bc e6 4a 1e be
       -0.05406258 0.11980139 -0.028720608 -0.15458259
000360 38 64 35 be 35 bc 86 3d 5c 1a fe 3a 23 40 b6 bd
       -0.17714012 0.065788664 0.0019386518 -0.08898952
000370 d8 a1 66 3d ac de ea 3d e1 28 f7 3c 24 8a 47 be
       0.05630669 0.114682525 0.03017086 -0.1948629
000380 3c ad 74 bd 7c 45 cd bd 96 7c 93 bd d8 2d 97 bd
       -0.05973552 -0.10023019 -0.07201497 -0.07381791
000390 38 fd b4 3d f7 92 18 3e 06 15 d2 3d fd 25 14 bd
       0.0883736 0.14899813 0.10257916 -0.03616904
0003a0 e9 9f cd bd 48 ab 2b 3d 8f 7c 2b 3e bd a3 d9 3c
       -0.10040266 0.041911393 0.16746734 0.026567334
0003b0 a1 a3 0b be 62 d1 78 3d d4 b0 1f bd 6d 4f f9 3d
       -0.13636638 0.060746558 -0.038986996 0.121733524
0003c0 a5 06 29 be bc d8 0d 3e 06 98 89 bd be f3 1f 3e
       -0.16506441 0.13852209 -0.06718449 0.15620324
0003d0 9f d1 8a bd 3a d2 e1 bd 53 56 21 3e d1 a9 a8 3d
       -0.06778263 -0.11026426 0.15755586 0.08235515
0003e0 4c 33 2c bd 37 3e b9 3c 78 68 3c 3c ae 22 3e 3d
       -0.042041108 0.022612674 0.011499517 0.046419792
0003f0 1e 3a c2 bd 87 e5 24 3c 5a 31 23 3e d7 e2 86 bc
       -0.09483741 0.010064489 0.15936795 -0.016465588

Decoder.dec1.bias f4 [256]
000000 32 79 1a be 81 94 5e 3d b4 91 9d bd 19 07 f2 3d
       -0.15085295 0.054340843 -0.07693806 0.1181776
000010 76 e6 74 be 1f 22 cd bc 46 33 33 3e 17 1c 18 3d
       -0.23916039 -0.025040684 0.17500028 0.037136164
000020 92 da 55 be 46 5d 36 bd 0f f2 00 3e 7b 91 6c be
       -0.20884159 -0.044522546 0.12592338 -0.23102371
000030 25 fc 0a 3e c4 f3 53 be ec 5b 86 be 51 9a 98 3d
       0.13572748 -0.20698458 -0.26242006 0.074513085
000040 0c a6 74 be 92 c4 98 3d fa 58 41 be 15 ba ec 3d
       -0.23891467 0.07459368 -0.18881598 0.1155893
000050 81 25 31 3d 94 98 fa 3d f0 2f 50 be 23 3f fd 3c
       0.043248657 0.12236133 -0.20330787 0.030913895
000060 4a ec d0 bd 46 fd 28 be df a4 33 bc 5f 0d ae 3d
       -0.102013186 -0.16502866 -0.010964601 0.08498644
000070 1d b0 ea bd 07 c9 d6 3d eb 14 fb 3d 3b 53 8b be
       -0.11459372 0.10487562 0.12259849 -0.27211937
000080 ec 65 6c be 3b 88 44 be 7d c8 30 be fe 2b d0 bd
       -0.23085755 -0.19192593 -0.1726398 -0.10164641
000090 69 7a 3f bc 31 5a 15 3e d4 4f 20 b9 17 b0 6b be
       -0.0116869 0.14585187 -0.00015288527 -0.23016392
0000a0 e7 0e 69 be ac 49 19 3e d9 ee 20 be fa 8b 6c be
       -0.22759591 0.1496951 -0.15716113 -0.23100272
0000b0 25 93 6e be cb ef 06 3e 91 d4 21 3e 56 b2 8a bd
       -0.23298319 0.13177411 0.15803744 -0.06772296
0000c0 8e 64 04 3e 69 33 5b be d8 fe 49 be a9 84 5f be
       0.12928984 -0.2140633 -0.19726121 -0.2182795
0000d0 c7 f8 ec 3c eb eb 07 be b2 c1 16 be d1 6b 1f 3e
       0.02892722 -0.1327359 -0.14722326 0.15568472
0000e0 9f 76 41 bc e6 0a 99 be 05 ac 4e bd ce 7a 23 3e
       -0.011808067 -0.29891127 -0.05045702 0.15964815
0000f0 5b 16 72 bd af 78 80 3d 23 77 4f 3e 40 7f 98 3b
       -0.05910335 0.062730186 0.20260291 0.0046538413
000100 e9 3e 74 be 99 9a ba 3c e2 5f 5b be ad 22 47 be
       -0.23852123 0.022778796 -0.21423295 -0.19446822
000110 93 37 89 bd 23 0d 56 bd 74 db 45 39 77 d8 3c 3e
       -0.06700053 -0.052258622 0.00018869137 0.1844195
000120 ff 73 2d be 80 4f a9 3d e2 19 4e 3c db 87 60 be
       -0.1693878 0.082671165 0.012579413 -0.21926825
000130 66 1e 22 3e 44 e8 3e 3e a1 e5 06 be 53 b5 e3 3d
       0.15831909 0.1864329 -0.13173534 0.11118569
000140 aa d4 e6 3d 07 86 39 bd b5 04 7f bd e6 8b 94 bc
       0.11271031 -0.045293834 -0.06226035 -0.018133115
000150 2d 4b df bd 61 8d 62 be 0f 28 dc 3d 0b 88 8a be
       -0.109030105 -0.22124244 0.10749828 -0.27056918
000160 a0 bf f1 3d 24 ad a7 bd 71 6b c8 3d 80 3c 19 be
       0.11804128 -0.08187321 0.09786118 -0.14964485
000170 be 4b 2b be 98 7d b3 bc fd f6 85 bd b4 5f 03 be
       -0.16728112 -0.021910474 -0.0654125 -0.12829477
000180 84 cf 25 3e d9 3c 9d bd d6 08 b3 bd e6 0b cf bc
       0.16192442 -0.076776214 -0.0874192 -0.025274228
000190 55 c6 33 3d f2 27 5a bd 00 f5 18 3e b9 27 11 be
       0.043890316 -0.05326075 0.1493721 -0.14175309
0001a0 a4 5e 1d be 5d 74 0b be d2 96 20 3e 2a 3b 33 3e
       -0.15368134 -0.13618608 0.15682533 0.17503038
0001b0 d5 2d 90 3d 86 4b e1 bd 09 45 1f 3e 34 3f 6a 3d
       0.07039992 -0.11000733 0.15553679 0.05718918
0001c0 b6 c3 68 be c7 c1 8e be 30 ba 8a 3d cf 97 fb bb
       -0.22730908 -0.27882215 0.06773794 -0.007678009
0001d0 2b 46 39 3d 3c 53 e7 3d 16 c3 f3 3c 99 54 d0 3d
       0.045232933 0.112951726 0.02975611 0.10172386
0001e0 fe b7 92 bd 2c cd 83 3d d1 97 9d 3c 68 e5 88 3e
       -0.07164 0.06435618 0.01923743 0.26737523
0001f0 d8 2a b6 3d ec ed 00 ba c9 b5 ba bd 47 ff c3 bd
       0.088948905 -0.00049182656 -0.09116704 -0.09570175
000200 a7 85 e4 3d fc 8e 67 bd b4 c8 e1 3d dc c4 08 bd
       0.11158305 -0.056532845 0.11024609 -0.033390865
000210 f8 3f db bd 7f 00 00 be 0b df 4c be 87 69 34 be
       -0.107055604 -0.12500189 -0.20006959 -0.1761838
000220 29 22 b3 3b 31 fd e4 bd 65 05 1b be dc d1 25 3d
       0.0054667187 -0.11181105 -0.15138777 0.04048334
000230 d1 43 87 be 36 71 57 3b e8 aa b1 bc a0 c8 6c 3d
       -0.26418927 0.0032873875 -0.02168794 0.05780852
000240 41 bd 3e bd d4 bf 12 be 4e 1b 36 bd fc 12 db bd
       -0.046567205 -0.14330989 -0.044459634 -0.1069698
000250 c4 23 81 bd 99 53 0f 3b 69 75 56 be be ed 7b 3d
       -0.0630565 0.0021869896 -0.20943226 0.061506025
000260 b9 9e 4c be f8 35 88 bd 9f 37 d2 bb 97 99 46 bd
       -0.19982423 -0.06650919 -0.006415322 -0.04848632
000270 6f 03 60 be 2d 8f 93 3d 3b 09 3f 3e ca dc 12 3d
       -0.2187631 0.07205043 0.18655865 0.035855092
000280 0a a8 5d be 96 f8 ea 3d 21 e8 ce bd 45 a4 15 3e
       -0.21646133 0.11473195 -0.10102869 0.14613445
000290 1d 90 33 be d8 c6 15 3e 46 fa d8 bc 89 98 8e be
       -0.17535444 0.14626634 -0.026486527 -0.2785075
0002a0 2c 88 03 be 36 7b 7a 3d 40 55 a4 bd d0 87 e2 bd
       -0.12844914 0.06115266 -0.08024073 -0.110610604
0002b0 2a 54 64 be 31 f8 92 be ee 3a 18 3e 45 c7 65 bc
       -0.22297731 -0.2870498 0.1486623 -0.01402456
0002c0 b3 1f 05 be 1a f4 a4 bc 78 b3 2d be c9 9a 6e 3d
       -0.13000374 -0.020135928 -0.16962993 0.058253083
0002d0 f1 c1 b2 3d dc ef 6c be a6 32 f2 3d f2 00 d4 3c
       0.08728398 -0.23138374 0.11826067 0.025879357
0002e0 0b a8 4c be 50 71 52 be f8 5f c0 bc 3f 93 e5 bc
       -0.19985978 -0.20551038 -0.023483261 -0.028024314
0002f0 5a 15 4a bd 17 9c e2 bd 89 87 19 bd b5 b6 b1 bd
       -0.04933677 -0.11064928 -0.037482772 -0.08677427
000300 ef 64 fe bd 93 2b 29 be 4b 95 8b bc 6b 7d 18 3e
       -0.12421595 -0.16520528 -0.017038962 0.14891593
000310 8c 4b 36 3e 72 ac ea bd 4a 6b 05 3e 0e cb c8 3d
       0.17802256 -0.114586726 0.13029209 0.098043546
000320 f9 4c 1f 3b 3e 0e 90 bd 8d 0e 32 3e fe 70 63 be
       0.0024307354 -0.070339665 0.17388363 -0.22211072
000330 6e 03 9d bd 5d a0 46 be 73 43 6d be 95 47 41 be
       -0.0766667 -0.19397111 -0.23170261 -0.18874963
000340 ae 62 60 be 97 ef 9c 3d 77 5b a1 3d 98 84 f6 3d
       -0.21912643 0.07662886 0.07878774 0.12037009
000350 a2 fb 81 be 03 b9 3e 3c 89 5d 04 bd 1d 42 8b be
       -0.25387293 0.01164079 -0.032315765 -0.27198878
000360 b0 39 75 be 43 b4 66 bd ef cc 4b b9 d2 b3 70 bd
       -0.23947787 -0.056324255 -0.00019435932 -0.05876524
000370 96 2c 9d bb dd cc 06 be 22 e1 5c be 0b 27 7f 3d
       -0.004796575 -0.13164087 -0.21570256 0.062293094
000380 ac 06 aa bd 4e 86 fe bd d4 af d0 3c d2 9c b8 bd
       -0.08302054 -0.1242796 0.025474466 -0.09014286
000390 35 1e 50 be b1 53 7a 3d 91 3f eb bc b0 02 20 be
       -0.20324023 0.06111497 -0.028716834 -0.15626025
0003a0 d8 41 a2 bc e7 15 09 be 5e d5 3c bd b1 bb 2d 3e
       -0.019806787 -0.13387261 -0.04610192 0.1696613
0003b0 a0 47 a8 bd 2f 9d e6 3d 33 21 64 be bb e9 67 be
       -0.082167864 0.11260449 -0.2227829 -0.22647755
0003c0 e9 84 80 bc 17 b0 05 3e 8f 4f 5f bd 77 9c 77 be
       -0.015688377 0.13055454 -0.054519232 -0.2418078
0003d0 ff 80 c4 bd 38 5d 5c be c7 4a 21 be b6 8f 33 be
       -0.095949166 -0.21519935 -0.15751182 -0.1753529
0003e0 74 e9 83 be 8b d2 c9 3b fb b3 d8 3d 18 e9 e3 bc
       -0.25764048 0.006159132 0.105812036 -0.027821109
0003f0 10 f5 b4 bd b6 7f cc bc 80 a9 3c 3d 3e d6 4a be
       -0.088358045 -0.024963241 0.046060085 -0.1980829

Decoder.dec2.weight f4 [31, 256]
000000 23 56 72 3e c7 87 6d 3e c6 e2 01 be 5d 1f 41 bb
       0.23665671 0.23196326 -0.12684163 -0.0029468157
000010 81 3b 44 3e c1 67 24 3d c9 04 22 be ba f6 50 be
       0.19163324 0.04013801 -0.15822138 -0.20406619
000020 2b 40 8e be 45 82 01 3d 6b 14 2e 3e 30 c7 83 3d
       -0.2778333 0.031618375 0.16999976 0.064344764
000030 c7 f6 cb 3d e6 3b 8e 3e e1 2d be be d6 38 fa 3d
       0.099591784 0.27780074 -0.37144378 0.12217872
000040 f1 15 b1 bc 78 d1 83 3d e0 00 81 3e 59 6f 68 3b
       -0.021616908 0.06436437 0.2519598 0.003546676
000050 72 43 52 bd 9b 08 fc 3d 2e 55 a9 3e 09 7e 4f bd
       -0.051333852 0.12306329 0.330728 -0.050657306
000060 81 94 fb 3d 26 90 3f 3e 66 65 4f be 74 36 89 39
       0.12284184 0.18707332 -0.20253524 0.00026171247
000070 3e ba 4d 3d e2 84 91 be 8c 22 a7 bd 22 46 05 3c
       0.050226443 -0.28421694 -0.08160886 0.008134397
000080 23 2f 6d 3d 95 0c 21 3e 29 94 f0 bd 0f 23 9e 3d
       0.05790628 0.15727456 -0.11747009 0.07721531
000090 3c c8 96 3e 95 d7 ef bd 55 3e 13 3e ce b4 f4 bc
       0.29449642 -0.11711041 0.14379247 -0.02987137
0000a0 eb f1 91 be b5 6b 08 3e 68 56 82 be 43 4f 1d 3e
       -0.2850488 0.13322337 -0.25456548 0.15362267
0000b0 54 e0 85 3d 14 52 1b be 18 70 4c 3e dc c2 8f be
       0.06536928 -0.15168029 0.19964635 -0.28078353
0000c0 65 ed 53 be 19 9d a7 be 2c 70 87 3e 3c 7f a6 be
       -0.20696028 -0.32737043 0.26452768 -0.32518947
0000d0 54 61 a6 bc 7d 3b 46 be 38 35 96 3e ef 82 02 3e
       -0.020310082 -0.1935863 0.29337478 0.1274526
0000e0 ff 7f 28 3e 0b 23 66 3e 4f 6c f7 3d 81 29 db bd
       0.16455077 0.22474305 0.12081205 -0.107012756
0000f0 1e 58 ad be 47 d2 19 3e 25 7c 1d be ee cd d0 be
       -0.3385629 0.1502162 -0.15379389 -0.40782112
000100 f3 4a c7 3d dd e7 13 3e ee 6f 8b 3e e5 7b e3 be
       0.09731092 0.14443918 0.27233833 -0.44430462
000110 f2 16 63 bd 77 3e 8c 3e 50 28 3b be 54 65 e7 bd
       -0.055441804 0.27391407 -0.18277097 -0.11298624
000120 6e 0b cb bc 71 f3 31 bd 87 3e b7 3d fc 1c 3b be
       -0.024785724 -0.043445054 0.08947473 -0.18272775
000130 42 5e 40 be a1 b4 54 be 4e aa 8e be 17 6d 0f be
       -0.18785957 -0.2077203 -0.27864307 -0.14006458
000140 65 b2 31 3e 6d 59 c3 be e0 9b 9c 3c 73 f1 9f be
       0.17353208 -0.38154164 0.019117296 -0.312389
000150 6a b9 89 3e 7b d3 31 3e ed 84 ee bd b6 d1 f1 3c
       0.26899272 0.1736583 -0.11646447 0.029518943
000160 72 83 62 be a8 46 81 3c 34 11 ee 3b dc d7 9d be
       -0.22120455 0.015780762 0.0072652344 -0.3082875
000170 93 0e 98 3e b5 76 64 3e f3 eb 43 3d e8 97 62 3e
       0.2969862 0.22310908 0.04783244 0.2212826
000180 cf 41 cf bd 05 ea 8a bc e2 4b 87 be b1 15 31 3e
       -0.10119974 -0.016957292 -0.26425081 0.17293431
000190 e1 92 35 bd 1a 7a 99 3e 1c c4 84 be 9d be 01 3e
       -0.044329528 0.2997597 -0.2593087 0.1267037
0001a0 4c 7b 5b be 07 dc 24 bc 0f 21 7e 3d 3b 24 7b 3e
       -0.21433753 -0.010062224 0.062043246 0.2452554
0001b0 8b e2 48 be df fe 0f 3d fd 46 d1 bd fa af 4e be
       -0.1961767 0.035155173 -0.10218618 -0.20184317
0001c0 45 bf 65 3e ee dc 58 bd 4b 14 3b 3e 71 f3 be bd
       0.22436245 -0.05294507 0.1826946 -0.093237765
0001d0 bc 6b 96 3d 43 43 f7 3c 09 ee 55 be fb 63 ec bd
       0.073447675 0.03018344 -0.20891584 -0.11542507
0001e0 35 ff 3a 3e ee 22 18 be 88 47 9d be ef 90 c8 bd
       0.18261416 -0.14857075 -0.30718637 -0.09793269
0001f0 ea 98 75 3c 7b 59 fa bd e1 dc 50 bd 13 6e d1 be
       0.014990071 -0.12224098 -0.050991897 -0.40904292
000200 97 4e b2 3c 1a c9 ed bd b1 57 8f be 5f 80 07 be
       0.02176599 -0.11610623 -0.2799659 -0.13232563
000210 84 0c 15 be 3f 12 db bd 18 83 50 be 3e 41 2a 3e
       -0.14555556 -0.106968395 -0.20362508 0.1662645
000220 4f 49 46 3e 01 c6 09 3e 4f 2b 5d 3e b6 a4 5a 3e
       0.19363903 0.13454439 0.21598552 0.21351895
000230 5d 12 67 3e 44 f2 cb bd 3e 02 86 3c aa 76 69 be
       0.22565599 -0.09958318 0.016358491 -0.22799173
000240 e5 53 e8 bc fc de cb bc ac 22 07 bd 86 22 9a 3d
       -0.028360317 -0.0248866 -0.03299205 0.07526116
000250 a2 b6 47 be 17 96 a9 3d 1a b4 e1 be cc ca 29 3e
       -0.19503263 0.082805805 -0.4408272 0.16581267
000260 05 da a7 be 3d a8 d2 bd 05 56 6c 3a 10 f2 d7 bd
       -0.32783523 -0.10285995 0.00090155035 -0.10544217
000270 04 3e 97 be a5 ec ac be d5 e0 3e bd e3 ad 61 bd
       -0.29539502 -0.33774295 -0.046601135 -0.055097472
000280 8d 0a 8f be c8 f2 3c 3e 73 59 42 bd 32 27 56 3e
       -0.27937737 0.18451989 -0.047448587 0.2091339
000290 6c 38 d2 bd b5 60 8f bd 7a 9e 52 bc cd a8 2a 3e
       -0.10264668 -0.07000867 -0.012855167 0.16665955
0002a0 94 56 b4 be f8 5a 17 be 81 69 87 bd 04 0e bb 3e
       -0.35222304 -0.14780796 -0.0661192 0.3653413
0002b0 1b 3e ba bd c4 40 a2 bd b2 fa dd 3d 83 66 0d 3e
       -0.09093877 -0.07922509 0.10838832 0.13808636
0002c0 4d e2 19 3e 96 d3 74 3e 22 f5 86 3d 58 38 a9 3d
       0.15027733 0.23908839 0.06589724 0.082627
0002d0 2a 26 9a 3d 47 93 64 3c 73 13 48 bd c9 89 7b be
       0.075268105 0.013951129 -0.048846673 -0.2456428
0002e0 82 d3 38 bd f6 21 ea bc 71 a0 d9 3d 65 b3 14 3d
       -0.045123585 -0.028580647 0.10626305 0.036303896
0002f0 24 08 eb bb b5 77 80 3e f3 17 4a 3e 9b c9 a3 3d
       -0.0071726013 0.2509133 0.19735698 0.079974376
000300 ad f4 36 be b0 eb 8c bd f7 9d 93 3d aa 32 01 3e
       -0.17866774 -0.06880891 0.07207864 0.12616983
000310 37 4b ac 3e 5c f0 16 be 4f ba 5f 3e 7f b7 07 bd
       0.33651134 -0.14740127 0.21848415 -0.03313398
000320 73 24 30 3e 18 87 df bd e9 73 67 3e c9 b1 50 be
       0.17201404 -0.10914439 0.2260281 -0.2038032
000330 d3 ef 8a 3d 80 f6 77 3e 11 f0 67 be 53 48 88 3e
       0.06784024 0.24215126 -0.22650172 0.2661768
000340 7d 40 03 be b0 56 0a 3e 5e f3 bf bb 0f 8e 8f 3c
       -0.12817569 0.13509631 -0.005857869 0.017523794
000350 ee 7a d8 3c 54 39 69 be 41 cd de be ff df 92 bc
       0.026425805 -0.22775775 -0.4351597 -0.017929075
000360 d7 d8 0b 3e ff 08 8a bd 0a a4 0e bd cd dd d6 bc
       0.13656937 -0.06739997 -0.03482441 -0.02622881
000370 90 e0 87 bd df 22 56 bd ae 80 3b 3d 22 4d 56 3d
       -0.06634629 -0.05227935 0.045777015 0.052319653
000380 40 86 4f 3e d8 ea ec 3d ae 37 f5 bd 00 0d 21 3e
       0.20266056 0.115682304 -0.11973511 0.15727615
000390 e7 4d 87 be 60 5c 32 3e 68 0b 54 3c 81 96 d8 be
       -0.26426622 0.17418051 0.012942173 -0.42302325
0003a0 32 80 43 3e 56 ec 97 be c4 de d6 bd f5 74 02 3e
       0.19091871 -0.29672498 -0.10491708 0.12739928
0003b0 3f 17 f1 3b 8b 7b 31 3e 54 3a ac be 1c b5 65 be
       0.0073575075 0.17332284 -0.3363825 -0.22432369
0003c0 2a b0 87 be 2f 88 34 be 1b 08 4b 3e 21 27 de bd
       -0.2650159 -0.17630075 0.1982731 -0.10847307
0003d0 ff ed c2 3c e4 72 d6 bd 31 d1 05 3e 1c 67 2b bd
       0.023795126 -0.104711324 0.13068081 -0.04184638
0003e0 dd 76 8c 3d f7 15 cd 3c 80 56 85 3c 09 bb 1e 3d
       0.06858609 0.025034888 0.016276598 0.03875259
0003f0 76 91 05 be ee 51 8f 3e 53 d2 5a 3d 12 fe c9 3d
       -0.1304377 0.27992195 0.053423237 0.09862913

Decoder.dec2.bias f4 [31]
000000 1e 87 66 bd 38 84 15 be 2c df 92 3e 48 b1 8c bc
       -0.0562812 -0.14601219 0.28685892 -0.017174378
000010 ed 6a 96 3e 58 81 4b bd 92 28 10 bf 08 17 9c 3d
       0.29378453 -0.0496839 -0.56311905 0.0762158
000020 0c b8 55 bc 08 be 59 bd 34 4e 15 3e 52 b9 f2 bc
       -0.0130443685 -0.053159744 0.14580613 -0.029629383
000030 a4 49 70 3e 0f 84 bf be 51 72 5c 3e d0 a9 9c be
       0.23465592 -0.3740544 0.21527983 -0.30598307
000040 df ac 49 3c 82 3f fd 3e 36 42 81 bc 17 0d b6 3e
       0.012309282 0.49462515 -0.015778642 0.35556862
000050 11 ac 1f bd 31 02 9e 3e e4 dd 37 be ec d8 75 3e
       -0.038982455 0.30861047 -0.17955738 0.2400853
000060 8e dc 3b 3d bc a1 e9 3e 16 d5 ae bb 36 a4 bb 3e
       0.045864634 0.45631206 -0.0053354604 0.3664872
000070 31 c5 13 3c ec a1 dd 3e e0 e3 08 be
       0.009019182 0.432876 -0.13368177
