results/3_niid/model_drs_n_2_m_1.pt (torch, 121528 bytes, 8 tensors)

Encoder.enc1.weight f4 [256, 22]
0	0x3dd4af13	0.10384955
1	0xbcf1139d	-0.029428298
2	0x3e14e171	0.14539124
3	0xbd3b72b7	-0.045763697
4	0xbd037c64	-0.03210105
5	0xbc3c08c7	-0.011476702
6	0xbd99bb25	-0.07506398
7	0x3e1491bb	0.14508717
8	0xbc8d8e19	-0.017279672
9	0x3d1f77d1	0.038932625
10	0xbcda1993	-0.026623523
11	0x3cd3c41f	0.025850354
12	0xbd0f6287	-0.035006072
13	0x3df1a614	0.11799255
14	0x3c5db319	0.01353147
15	0x3cf2bffe	0.029632565
16	0x3d8550e8	0.06509572
17	0xbbd9d82d	-0.0066480846
18	0xbca3d971	-0.020001145
19	0xbcf99094	-0.030464448
20	0x3dc361e7	0.09540158
21	0xbccc1f7a	-0.024917353
22	0xbc3404d1	-0.010987476
23	0xbdfa7aa9	-0.12230427
24	0xbc956e15	-0.018240968
25	0x3d0c82cd	0.03430443
26	0xbe0833f7	-0.13301073
27	0xbe05d428	-0.13069212
28	0xbd4391b7	-0.047746386
29	0xbd99adc3	-0.075038455
30	0xbda2e98b	-0.07954701
31	0xbda01a69	-0.07817537
32	0x3cefca9b	0.029271415
33	0xbd8f150b	-0.069864355
34	0xbdb7d211	-0.08975614
35	0xbd121c25	-0.035671372
36	0xbb29f405	-0.00259328
37	0x3d0a4d9e	0.033765428
38	0xbd818441	-0.063240536
39	0xbd35aaca	-0.04435233
40	0xbd98d466	-0.07462387
41	0xbc96510b	-0.018349191
42	0xbd6468e3	-0.05576409
43	0x3d21425d	0.03936993
44	0xbc4a6d27	-0.0123551255
45	0x3d40b96a	0.047051825
46	0xbdbf8a88	-0.093525946
47	0xbe60e101	-0.21960832
48	0xbb12a0c7	-0.0022373663
49	0xbcbc303c	-0.022972219
50	0xbd26b52e	-0.04070013
51	0xbbe8ff0b	-0.0071104816
52	0x3cecf597	0.0289257
53	0xbd907b11	-0.07054723
54	0x3c211a71	0.009832964
55	0xbcfa076e	-0.03052112
56	0xbcd1fff4	-0.025634743
57	0x3c9b0133	0.01892147
58	0xbc7c4a47	-0.0153985685
59	0xbc81c6d4	-0.015841879
60	0xbc9f2a53	-0.019429361
61	0xbbbefd14	-0.005828509
62	0x3d2c18a9	0.042015705
63	0xbcee25e3	-0.0290708
64	0x3e25184f	0.16122554
65	0xbb8d1342	-0.004305274
66	0xbd25ff20	-0.04052651
67	0x3b9cfe1b	0.004791034
68	0xbe0abc46	-0.13548383
69	0xbcb6c9f7	-0.022313101
70	0x3c58c86e	0.01323138
71	0x3cb3be95	0.021941463
72	0x3ceb8c3f	0.028753398
73	0xbdb7f32d	-0.08981929
74	0xbb80a7ae	-0.003926239
75	0x3c841f40	0.016128182
76	0xbcfd1d1b	-0.030897668
77	0xbcf77a8d	-0.030209804
78	0x3b0f3a28	0.0021854732
79	0xbe2f2305	-0.17103203
80	0xbba3f5e5	-0.005003678
81	0x3dbb4d08	0.09145552
82	0x3c275b52	0.010214644
83	0xbc5ec423	-0.013596567
84	0x3ce461a6	0.027878594
85	0x3cb672a4	0.022271462
86	0x3cd58eb6	0.026069026
87	0xbbcc4303	-0.0062335744
88	0x3d3e0bdb	0.046398025
89	0x3d99efbf	0.07516431
90	0x3d93cc02	0.07216646
91	0x3d9db9ff	0.077014916
92	0xbc169e79	-0.009193056
93	0xbc48b128	-0.012249269
94	0xbdf4816a	-0.11938746
95	0xbde1950b	-0.11014756
96	0x3d7ce285	0.061739463
97	0xbe374811	-0.17898585
98	0x3d805eb8	0.06268066
99	0xbea6aac7	-0.32552168
100	0x3deb2e33	0.11483421
101	0xbd41c0ae	-0.047302894
102	0xbdfa65e2	-0.12226464
103	0xbde53acf	-0.111928575
104	0x3d59d0e8	0.053177744
105	0xbe63b6e5	-0.22237737
106	0xbcfb8c0a	-0.030706424
107	0xbc837f1b	-0.01605182
108	0x3e085193	0.13312368
109	0xbb9ba1b2	-0.0047495
110	0xbaf07661	-0.0018345827
111	0xbba7d029	-0.00512125
112	0x3bd321f6	0.0064432574
113	0xbb8b856f	-0.00425785
114	0x3b318ef1	0.0027093256
115	0xbc902695	-0.017596522
116	0xbc324f26	-0.010883128
117	0x3bbcb516	0.005758892
118	0xbb1e7b3c	-0.002418234
119	0x3bbd0e4f	0.005769528
120	0xbc05aed4	-0.008159358
121	0x3bd4bdba	0.0064923437
122	0xbc7637bc	-0.015027937
123	0xbc233dec	-0.009963494
124	0xbf6fe9e6	-0.93716276
125	0xbab59bd1	-0.0013855641
126	0xbc44e521	-0.012017519
127	0xba87f3ba	-0.0010372319
128	0x3ba17cf2	0.0049282247
129	0xbb703acd	-0.0036656142
130	0x3b58639a	0.0033018352
131	0xbba337da	-0.0049810233
132	0x3d95de14	0.07317749
133	0xbe1fa221	-0.15589191
134	0xbe1db402	-0.15400699
135	0x3d8fda95	0.07024113
136	0xbe67b56a	-0.22627798
137	0xbd657b57	-0.05602583
138	0x3d46a34d	0.04849558
139	0xbe0983e4	-0.13429219
140	0xbdc86a8c	-0.09785947
141	0xbd48c2d9	-0.049013946
142	0xbddc2450	-0.107491136
143	0x3ce2821d	0.027649933
144	0xbd5150d0	-0.05110246
145	0xbd7ba684	-0.0614381
146	0x3c0a0b52	0.008425551
147	0x3d86b467	0.06577378
148	0xbe2a1a65	-0.16611631
149	0xbdd99f35	-0.106260695
150	0xbc183f15	-0.009292384
151	0xbd88aaa2	-0.066731706
152	0x3c850164	0.016236015
153	0xbdab2e11	-0.08358396
154	0x3c34298c	0.010996234
155	0xbe24ca15	-0.16092713
156	0xbd08554f	-0.03328448
157	0x3bf2d584	0.007410707
158	0xbb840572	-0.0040289694
159	0xbd45efc9	-0.04832438
160	0xbdc4a441	-0.096016414
161	0xbd09f6b8	-0.033682555
162	0x3c9c2cf5	0.019064406
163	0xbe22561a	-0.15853158
164	0xbd7d079a	-0.061774828
165	0xbdbbf4dc	-0.091775626
166	0x3d0e6bae	0.03477066
167	0xbd4099d9	-0.04702172
168	0x3bad8602	0.005295516
169	0x3c011b8c	0.007880103
170	0x3ca2749e	0.019830998
171	0xbd951e13	-0.07281127
172	0xbc7b9621	-0.015355618
173	0x3cfdd2c0	0.030984282
174	0xbcec6fab	-0.028861841
175	0xbd01bfd1	-0.03167707
176	0x3d0918d3	0.03347094
177	0xbda8db62	-0.08244969
178	0xbe8c7781	-0.27434924
179	0x3caaab92	0.020833764
180	0x3c90bf38	0.017669305
181	0x3e0facd9	0.1403078
182	0xbde346d0	-0.11097491
183	0xbd48851f	-0.04895508
184	0x3d283293	0.041063856
185	0xbd97022b	-0.073734604
186	0x3dafce54	0.08584276
187	0xbb057564	-0.002036416
188	0x3d02caf0	0.031931818
189	0xbd93e996	-0.07222287
190	0xbcbf3136	-0.023338895
191	0x3b5d3654	0.0033754306
192	0x3d0a7d6e	0.033811025
193	0xbd113822	-0.035453923
194	0x3c62a4a3	0.013833198
195	0x3d78a230	0.06070155
196	0xbdf76489	-0.120797224
197	0x3d8c7fc6	0.06860308
198	0x3dab2999	0.083575435
199	0xbe92f7ad	-0.28704587
200	0xbe66cb58	-0.22538507
201	0x3e2009c9	0.15628733
202	0xbd48f7da	-0.049064495
203	0xbd36c357	-0.044619884
204	0xbd937c00	-0.072013855
205	0xbd914850	-0.07093871
206	0xbe1db673	-0.1540163
207	0xbdea64a7	-0.11444979
208	0x3d03e3ba	0.0321996
209	0x3c171976	0.009222379
210	0xbe043d19	-0.12913932
211	0xbe0ec132	-0.13940886
212	0xbca65be8	-0.020307496
213	0xbd4bcf4e	-0.049758248
214	0xbdb2d43f	-0.08731889
215	0xbe291200	-0.16510773
216	0xbc81291e	-0.015766677
217	0xbc1cbf9d	-0.009567169
218	0xbd1ed1d5	-0.03877433
219	0xbcaac5de	-0.020846304
220	0xbd63810f	-0.055543
221	0xbc1eb0b9	-0.009685689
222	0x3df7d79a	0.121016696
223	0xbb09d1fd	-0.0021029704
224	0x3dbcfb8b	0.092276655
225	0x3ba44e27	0.0050141993
226	0xbda46379	-0.080267854
227	0x3df8e295	0.12152592
228	0x3cc9e629	0.024645882
229	0x3bec894a	0.0072185146
230	0xbd8dc11e	-0.069216
231	0xbd0e00fe	-0.034668915
232	0xbd4caf72	-0.049972005
233	0xbd986a81	-0.07442189
234	0xbd0fc704	-0.035101905
235	0x3e271b33	0.1631897
236	0xbdfc9be1	-0.12334419
237	0xbbb1a546	-0.0054213135
238	0x3d72fdc8	0.059324056
239	0xbdde0f55	-0.10842768
240	0xbe06f518	-0.13179433
241	0xbc1e4860	-0.00966081
242	0x3cd97532	0.02654514
243	0xbe1f3482	-0.15547374
244	0xbea3d28e	-0.31996578
245	0x3d4e8bff	0.05042648
246	0xbdb349d3	-0.08754315
247	0xbe42d31a	-0.19025841
248	0xbd39d0f6	-0.045365296
249	0xbd8e55b1	-0.06949938
250	0xbd10ef19	-0.03538427
251	0xbcfa7047	-0.030571116
252	0xbe7056f2	-0.23470667
253	0xbe99d6a8	-0.30046582
254	0xbdd5482e	-0.10414158
255	0xbd5fb264	-0.054613486

Encoder.enc1.bias f4 [256]
0	0x3d00a930	0.03141135
1	0xbe795741	-0.24349691
2	0x3d30c1c9	0.043153558
3	0x3dfbc2d3	0.12293019
4	0xbe48f692	-0.19625309
5	0xbea6773d	-0.32512847
6	0xbdba552c	-0.090982765
7	0xbe30f974	-0.17282659
8	0xbe89d6c0	-0.26921654
9	0xbe8a49e7	-0.27009508
10	0x3e1e3965	0.15451582
11	0xbcd77fd7	-0.026306076
12	0xbdc28a3e	-0.09499024
13	0xbdddd88a	-0.10832317
14	0x3d40e243	0.04709078
15	0x3e4d2a52	0.20035675
16	0xbd211cdc	-0.039334163
17	0xbc0517cb	-0.0081233485
18	0xbe8ee5c0	-0.2790966
19	0xbe41fe75	-0.18944724
20	0x3d254d14	0.04035671
21	0xbea152e7	-0.31508562
22	0xbe60ef01	-0.21966173
23	0x3e0a6044	0.13513285
24	0xbdd846ba	-0.10560365
25	0xbe9c9cc1	-0.30588344
26	0x3c5b5d4c	0.013388943
27	0xbe500db9	-0.20317735
28	0xbdfd6ce8	-0.12374288
29	0xbe1e0b4d	-0.15433998
30	0x3d875f85	0.06610016
31	0xbe3eca3e	-0.18631837
32	0xbd433e5d	-0.047666896
33	0x3a3cc30f	0.0007200697
34	0xbbbfdf5d	-0.0058554844
35	0xbeb3e6f1	-0.35137132
36	0xbe67eda4	-0.22649246
37	0xbe5a0a80	-0.21293068
38	0x3c823d1b	0.015898278
39	0xbe3980a3	-0.18115477
40	0xbe0ef1c3	-0.13959412
41	0xbe2804d2	-0.16408089
42	0xbe599e07	-0.21251689
43	0xbe5ec6b0	-0.21755481
44	0x3d1df045	0.038559217
45	0x3e3040a9	0.17212166
46	0xbdf5ac4c	-0.11995754
47	0xbdb41277	-0.087925844
48	0xbe951367	-0.29116365
49	0xbe1a962e	-0.15096352
50	0xbe322537	-0.17397009
51	0xbdde617c	-0.108584374
52	0x3dde6679	0.10859389
53	0xbd0c3bc7	-0.034236696
54	0xbcd90219	-0.026490258
55	0x3e55a570	0.2086389
56	0xbe31118a	-0.17291847
57	0xbe968743	-0.29400072
58	0xbcb1baa0	-0.021695435
59	0x3e1b3499	0.15156783
60	0xbe3c2834	-0.18374711
61	0xbd0fbdfd	-0.035093296
62	0x3da9301d	0.0826113
63	0xbcd9f700	-0.026607037
64	0xbe99d6cf	-0.30046698
65	0xbe9832f9	-0.2972639
66	0xbe699045	-0.2280894
67	0xbda67f64	-0.081297666
68	0x3d8f487f	0.069962494
69	0xbe538370	-0.20655608
70	0xbc2803d3	-0.010254818
71	0xbcfb92fd	-0.030709738
72	0x3e43d132	0.1912277
73	0xbe2e9c4b	-0.17051809
74	0x3d983425	0.07431821
75	0xbe0a3f7e	-0.13500783
76	0xbea3127c	-0.3185004
77	0xbe853622	-0.26017863
78	0x3ddc78c5	0.107652225
79	0xbe986351	-0.29763272
80	0xbdaab351	-0.08334983
81	0x3e189f15	0.14904435
82	0xbe5d57d6	-0.21615538
83	0xbe028f93	-0.12750082
84	0xbe67e07e	-0.2264423
85	0xbe4ddc38	-0.20103538
86	0x3dc60f28	0.096708596
87	0xbe311c8d	-0.17296048
88	0xbe87ef15	-0.26549593
89	0xbe316b7d	-0.1732616
90	0xbe853ba1	-0.26022056
91	0x3d293b6a	0.041316427
92	0x3d169d80	0.036771297
93	0xbcd77adf	-0.026303707
94	0xbe5837ce	-0.21115038
95	0xbe227b3a	-0.1586732
96	0xbe673cfd	-0.22581859
97	0xbe551af3	-0.20811062
98	0xbdca1a25	-0.09868268
99	0xbe142658	-0.14467752
100	0xbe6d5bf3	-0.23179607
101	0x3e876214	0.26442015
102	0x3e6a6c21	0.2289281
103	0xbe564c44	-0.2092753
104	0xbdc25d34	-0.09490433
105	0x3e963e98	0.2934463
106	0x3dbca69b	0.09211465
107	0x3dd5ba69	0.104359455
108	0xbe9d4c22	-0.30722147
109	0xbe673723	-0.22579627
110	0xbe805885	-0.25067535
111	0x3e3fb755	0.1872228
112	0xbea8e53f	-0.329874
113	0xbe5dcccc	-0.21660155
114	0x3cef66e5	0.029223869
115	0xbdffddf2	-0.124935046
116	0x3e8cd1c7	0.27503797
117	0xbe53aa36	-0.20670399
118	0xbe12825f	-0.14307545
119	0xbd233a45	-0.039850492
120	0x3daab7a9	0.08335812
121	0xbe89d8fa	-0.26923352
122	0xbd62f0b0	-0.05540532
123	0xbe7340cc	-0.23755187
124	0xbbdfd00e	-0.006830222
125	0xbeaf99cf	-0.34297034
126	0xbe38b07e	-0.18036076
127	0x3d2d60d1	0.04232866
128	0xbd70039d	-0.058597196
129	0xbe5be5ae	-0.21474335
130	0xbe6b5f7e	-0.22985646
131	0x3c0ac14c	0.008468937
132	0x3da08c8c	0.07839307
133	0x3ea523c9	0.32253864
134	0x3e25a68c	0.16176814
135	0xbb669e47	-0.0035189555
136	0x3df464f4	0.11933318
137	0xbe5e726d	-0.21723337
138	0xbe8821ae	-0.26588196
139	0xbe31bc47	-0.17356978
140	0x3c943104	0.018089779
141	0x3ce58cf4	0.028021313
142	0xbeac2086	-0.33618563
143	0x3da77a28	0.08177596
144	0x3e7ecc86	0.24882707
145	0xbe83d86c	-0.25751054
146	0xbe9e7d6a	-0.30955058
147	0xbe86233e	-0.26198763
148	0x3ce7b1d3	0.028283035
149	0xbe363591	-0.17793871
150	0xbe8f2ca3	-0.27963743
151	0x3d075d19	0.03304777
152	0xbdf39ccf	-0.11895143
153	0x3d464d0c	0.04841332
154	0xbe83d508	-0.25748467
155	0xbe6aadb5	-0.22917826
156	0x3e02d64c	0.1277706
157	0x3d3cad2a	0.04606358
158	0xbe8c354f	-0.2738442
159	0xbe51e56f	-0.20497678
160	0xbe398cf4	-0.18120176
161	0xbe236cda	-0.15959492
162	0xbdd5b3e6	-0.104347035
163	0xbd19f981	-0.03759146
164	0xbe2487ea	-0.16067472
165	0xbdd57c12	-0.10424055
166	0x3e666d4d	0.22502632
167	0xbe9271be	-0.28602403
168	0xbe5b0b71	-0.21391083
169	0xbe4523b6	-0.19251904
170	0xbe187a60	-0.14890432
171	0x3e3f1a4a	0.18662372
172	0xbded992e	-0.11601482
173	0xbe82ea1c	-0.25569236
174	0x3e8ed770	0.2789874
175	0x3c101e5d	0.008796302
176	0xbe2a3de2	-0.16625169
177	0xbd8bc506	-0.068246886
178	0xbe09866f	-0.13430189
179	0xbea2afbc	-0.317747
180	0xbe86e5c1	-0.26347163
181	0xbe576d95	-0.21037896
182	0xbe9c6b94	-0.30550826
183	0xbdede0a1	-0.1161511
184	0x3e7c6215	0.2464679
185	0xbe635ad6	-0.2220262
186	0xbe982bc2	-0.29720885
187	0xbe340ab8	-0.17582214
188	0x3de656b1	0.11247004
189	0xbe8e4131	-0.27784112
190	0xbe83e9cb	-0.25764307
191	0xbd6221fe	-0.0552082
192	0xbe6e1d38	-0.23253334
193	0x39597db4	0.00020741561
194	0xbe3b5745	-0.1829501
195	0xbe93df51	-0.28881314
196	0xbe1b955d	-0.15193696
197	0xbe83a1c6	-0.2570936
198	0xbd445e46	-0.04794147
199	0xbd66e53c	-0.05637096
200	0xbe8c56b3	-0.27409896
201	0xbd52c5e8	-0.05145827
202	0xbe1fa412	-0.15589932
203	0x3df3c57c	0.119029015
204	0xbeaeb69f	-0.34123704
205	0xbe2c1dc2	-0.16808227
206	0xbdf32018	-0.11871356
207	0x3e81d5bc	0.2535838
208	0x3e8a3e9a	0.27000886
209	0xbe0b52bc	-0.1360578
210	0x3e8c78f9	0.27436045
211	0xbdadbd84	-0.08483413
212	0xbe82045d	-0.25393954
213	0xbda0cf59	-0.078520484
214	0xbe0d3ab5	-0.13791926
215	0xbe7e73a5	-0.24848802
216	0xbe9675c4	-0.29386723
217	0x3cf1e050	0.029525906
218	0xbd643394	-0.05571325
219	0xbd778a4c	-0.060434625
220	0xbe0eff09	-0.13964476
221	0x3d1a3f30	0.037657917
222	0xbe9587d4	-0.2920519
223	0x3e8e5322	0.277978
224	0xbcbcc0e2	-0.023041192
225	0xbe8a3b86	-0.26998538
226	0xbe14737e	-0.14497182
227	0xbd0d6cd2	-0.034527607
228	0x3d931ba0	0.071830034
229	0xbdbea909	-0.09309585
230	0x3e434861	0.19070579
231	0xbd33e4e7	-0.04391947
232	0xbdfbff5a	-0.12304564
233	0xbdbf5bcb	-0.0934368
234	0xbd0d6bfd	-0.034526814
235	0xbe2ea651	-0.17055632
236	0x3e0d155c	0.13777679
237	0xbe467456	-0.19380316
238	0xbe15e77a	-0.14639083
239	0xbe7dd695	-0.24788888
240	0xbc4289df	-0.011873691
241	0xbd82b772	-0.06382646
242	0x3e7fe32d	0.24989004
243	0xbec3827d	-0.38185492
244	0x3e445bd5	0.19175656
245	0xbe07380f	-0.13204978
246	0xbd7cb865	-0.06169929
247	0x3e3078ca	0.17233577
248	0x3e9a9978	0.30195212
249	0xbe3f97be	-0.18710229
250	0xbdc8fc16	-0.098137066
251	0x3cf4a5c9	0.029864209
252	0xbd8c9b39	-0.06865544
253	0x3e0b664f	0.13613246
254	0x3db46dd1	0.08810008
255	0xbe07b555	-0.13252766

Encoder.enc2.weight f4 [40, 256]
0	0x3cacf11f	0.02111107
1	0x3c190859	0.009340369
2	0xbd2cf792	-0.04222829
3	0xb9ce859b	-0.00039390926
4	0x3dc272f4	0.09494582
5	0x3babd0cf	0.005243398
6	0xbcb9a12a	-0.022659857
7	0x3c9fc9e6	0.019505452
8	0xbd49a97e	-0.049233906
9	0x3dea206c	0.11431965
10	0x3c569630	0.013097331
11	0x3c936338	0.017991647
12	0x3aa16306	0.0012312836
13	0x3cedfb9f	0.029050646
14	0x3b9236c8	0.004462097
15	0xbc58bb44	-0.013228241
16	0xbc66f6c8	-0.014096923
17	0xba6f56d5	-0.00091300654
18	0xbcca2d22	-0.024679724
19	0xbcd29dcf	-0.025710015
20	0x3c86ff70	0.016479224
21	0x3bd8c616	0.0066154106
22	0xb9e1fd00	-0.00043103844
23	0xbc2e364b	-0.010633062
24	0x3bf5c8bb	0.0075007356
25	0x3b57dd7c	0.0032938411
26	0xbc9b1ac6	-0.018933665
27	0x3cbe74d3	0.023249066
28	0x3d1afa39	0.037836287
29	0xbb833d07	-0.0040050778
30	0xbd2a7963	-0.04161967
31	0xbbd3b2f0	-0.00646054
32	0x3c177196	0.00924339
33	0x3d9deb97	0.07710951
34	0xba1fcab5	-0.00060955744
35	0x3e99be40	0.30027962
36	0xbcb59f44	-0.02217067
37	0x3d8fb3d1	0.07016719
38	0x3c06d6df	0.00822994
39	0x3d3d1676	0.046164
40	0xbcac6f5a	-0.02104919
41	0xbc2a906c	-0.010410409
42	0xb9890071	-0.00026131005
43	0xbd246bfa	-0.040142037
44	0x3cac20fb	0.02101182
45	0x3ced4d44	0.028967507
46	0x3c4eeb5d	0.012629357
47	0xbb6c6dcb	-0.0036076184
48	0x3d49e766	0.049292944
49	0x3d428a98	0.047495455
50	0xbb39da36	-0.0028358824
51	0x3c025430	0.007954642
52	0x3c910ed1	0.01770726
53	0x3b88386a	0.0041571157
54	0x3c3eda75	0.011648764
55	0x3cc27ba3	0.023740595
56	0x3c0f3980	0.008741736
57	0x3cd77e98	0.026305482
58	0x3c8f8885	0.017521152
59	0xbca7a980	-0.020466566
60	0xbc30b100	-0.010784388
61	0x3c0c660f	0.008569255
62	0xbb324bbf	-0.0027205793
63	0xbc2dc697	-0.01060643
64	0xbc8bacac	-0.01705011
65	0xbc5e8855	-0.013582309
66	0x3cf2f216	0.029656451
67	0xba873c08	-0.0010317573
68	0xbd3c9e65	-0.046049494
69	0x3c11ba21	0.008894474
70	0xbb180e97	-0.0023202056
71	0x3c664e78	0.014056794
72	0xbcefbb88	-0.029264227
73	0xbbaa1ac3	-0.0051911785
74	0x3ccd86c1	0.02508867
75	0x3ace817a	0.001575514
76	0xbd2b4b90	-0.04182011
77	0x3a6de9ae	0.00090756535
78	0x3bf5d996	0.007502745
79	0xbaeb9a2d	-0.0017975025
80	0x3cf2718d	0.02959516
81	0xbc3eb243	-0.011639181
82	0xbb519e0f	-0.003198508
83	0xbcf97add	-0.030454094
84	0xbcae449e	-0.021272954
85	0x3d1ee409	0.03879169
86	0x3ca8e619	0.020617532
87	0x3b8fb5f5	0.0043857046
88	0x3cd4d257	0.025979204
89	0x3bcbdec0	0.006221622
90	0xba4fae74	-0.0007922419
91	0xbd6721f1	-0.056428853
92	0x3b6d9266	0.003625059
93	0x3c710e85	0.014712934
94	0x3c33808c	0.010955941
95	0xbd74e249	-0.059786115
96	0x3c3c9ed1	0.011512474
97	0xbbc911fb	-0.0061361766
98	0x3b608c46	0.0034263297
99	0xbc32062c	-0.010865729
100	0x3ca9ecf0	0.020742863
101	0xbc455c57	-0.012045941
102	0x3cedbb69	0.029020028
103	0xbb8aa976	-0.004231627
104	0xba92e4bd	-0.0011207085
105	0xba4fd87f	-0.0007928684
106	0x3c9039a4	0.01760561
107	0x3c2b192b	0.010443012
108	0xbbd8fb3f	-0.0066217477
109	0xbc5234c8	-0.012829967
110	0x3bb2f3c9	0.0054611904
111	0x3ca13926	0.01968057
112	0xbc37ba65	-0.0112138735
113	0x3c7f21a3	0.015571984
114	0x3bcb34f0	0.006201379
115	0x3c22ef66	0.009944772
116	0x3d184c1f	0.03718197
117	0x3c5f6c53	0.013636666
118	0xbc284b5b	-0.010271872
119	0x3ae7df99	0.0017690539
120	0xbc1a6edc	-0.009425845
121	0xbc292670	-0.010324106
122	0x3d65fde8	0.056150347
123	0xbd0ea41d	-0.03482448
124	0xbd80adca	-0.06283148
125	0xbbdf7270	-0.006819062
126	0x3cde0094	0.027099885
127	0xbd311ac4	-0.043238416
128	0x3bee32b7	0.0072692293
129	0x3d5fc97d	0.054635514
130	0x3b8cbfe0	0.004295334
131	0x3d2d43c0	0.04230094
132	0x3cab50a9	0.020912485
133	0x3cd0ab47	0.025472296
134	0x3c60fa9a	0.013731623
135	0x3bd78833	0.0065775155
136	0x3c226712	0.009912269
137	0xbbe35c59	-0.006938499
138	0xbc8de69a	-0.017321873
139	0x3bbde731	0.0057953824
140	0xbb194c21	-0.0023391324
141	0xbc586969	-0.0132087255
142	0x3b3dfcea	0.002898986
143	0x3cf4b338	0.029870614
144	0xbc519072	-0.012790786
145	0x3baa93f9	0.005205628
146	0xbbf5fe6c	-0.007507136
147	0xba15f68a	-0.0005720636
148	0x3c788b0a	0.015169868
149	0xbc7e779e	-0.015531449
150	0xbbb89f30	-0.005634211
151	0xbd10aee5	-0.035323042
152	0xbcc38bde	-0.023870405
153	0x3b9bd7e8	0.0047559626
154	0xbab4a9ee	-0.0013783553
155	0xbc74f62e	-0.014951272
156	0xbc8bb059	-0.017051863
157	0xbc26a3d9	-0.0101709
158	0x3cb8d9b9	0.022564756
159	0xbc6a7a52	-0.01431139
160	0xbd36eda5	-0.04466023
161	0xbce343d5	-0.027742306
162	0x3c54a6a0	0.01297918
163	0xbc41dd2d	-0.011832518
164	0x3d42ae41	0.047529463
165	0x3b6d3791	0.003619645
166	0xbb69c381	-0.0035669508
167	0x3d2c5d59	0.04208121
168	0xba58d8bc	-0.0008272042
169	0x3c671637	0.0141044175
170	0xbca3549b	-0.019937804
171	0x3c81baa1	0.015836062
172	0xbb8fa3f5	-0.004383559
173	0xbaee97ba	-0.0018203177
174	0x3b9c2d48	0.00476614
175	0xbb570139	-0.0032807125
176	0x3b8c6ea5	0.004285651
177	0x3c03eb3f	0.0080516925
178	0x3c45457f	0.012040495
179	0x3bc198eb	0.005908122
180	0x3e7c0c2c	0.24614018
181	0xbc72ef3f	-0.0148275485
182	0xbc345a80	-0.011007905
183	0xbd96a1dd	-0.07355092
184	0x3c9a8a19	0.018864678
185	0x3d73ef45	0.059554357
186	0xbcda638d	-0.026658798
187	0x3d15d59f	0.036580678
188	0x3bc497a7	0.0059995237
189	0xbb50a1aa	-0.003183464
190	0xbd57257a	-0.052525975
191	0x3d84eaaf	0.06490075
192	0xbd07a44e	-0.033115678
193	0x3d01b40a	0.03166584
194	0xbc4c7ddd	-0.01248118
195	0x3b4d5cbe	0.0031335796
196	0xba78384f	-0.000946884
197	0xb9d8dd5f	-0.00041363665
198	0xbb64d2a6	-0.0034915595
199	0xbc1fb058	-0.0097466335
200	0xbc4d5932	-0.012533473
201	0x3c15d4b6	0.0091449525
202	0x3c29286d	0.01032458
203	0xbc54a79b	-0.012979413
204	0x3ea8e273	0.32985267
205	0xbbaf2653	-0.005345145
206	0x3c70289e	0.014658121
207	0xbb99fd4f	-0.004699386
208	0xbc317326	-0.010830676
209	0xba903eac	-0.0011005006
210	0x3d79e42a	0.06100861
211	0xbd3647cd	-0.04450207
212	0x3dab02f8	0.083501756
213	0x3beeb3b8	0.0072846077
214	0xbbd04779	-0.0063561765
215	0x3c256847	0.010095662
216	0x3cbbcb3f	0.022924064
217	0xbc2dd475	-0.010609736
218	0x3af03160	0.0018325262
219	0x3c96f3a2	0.01842672
220	0xbc05f0cd	-0.008175087
221	0x3ca8fb96	0.020627778
222	0x3e2b05f5	0.16701491
223	0x3b846bd6	0.0040411754
224	0x3d3f6de1	0.046735648
225	0x3d9b22fb	0.07575031
226	0xbd49b0fb	-0.049241047
227	0xbcb64c9a	-0.022253323
228	0xbcd4aa0e	-0.025959995
229	0x3bee37e3	0.007269846
230	0xbd1130a9	-0.035446797
231	0xbe427b36	-0.18992314
232	0xbbcd6ef9	-0.0062693325
233	0x3b2f85e0	0.0026782677
234	0xbcd81573	-0.026377415
235	0xbb0a5c21	-0.0021112042
236	0x3c5f700f	0.013637557
237	0x3b933586	0.0044924645
238	0xbc4ef196	-0.012630841
239	0x3d35511d	0.04426681
240	0x3b51544a	0.003194111
241	0x3d2b6b3f	0.041850325
242	0xbc1d7fed	-0.009613019
243	0x3be78c6f	0.0070663015
244	0xbab71ef9	-0.0013971023
245	0x3a5d95b8	0.0008452791
246	0xbc84d8ff	-0.016216753
247	0x3d21ed33	0.03953285
248	0x3d0c2cd3	0.034222435
249	0x3d8cd6a8	0.0687688
250	0x3d29aecf	0.041426476
251	0xbb933180	-0.004491985
252	0xbe128f6a	-0.1431252
253	0xbb45d01f	-0.0030183864
254	0xbb98f194	-0.00466747
255	0x3cb15035	0.021644691

Encoder.enc2.bias f4 [40]
0	0x3d86885e	0.06568979
1	0xbc992a13	-0.01869682
2	0xbd1dbaa1	-0.03850806
3	0x3c94ee47	0.018180026
4	0x3cd93ebe	0.026519176
5	0x3b98fdd7	0.004668932
6	0x3b30ea90	0.002699528
7	0xbd035dbb	-0.03207181
8	0xbb437c80	-0.0029828846
9	0x3c598f35	0.013278772
10	0x3cc629b9	0.024189817
11	0x3d4b52a2	0.04963935
12	0x3d32e08b	0.043671172
13	0xba9bb69a	-0.0011879981
14	0x3d016ccc	0.031597897
15	0xbcd997de	-0.026561674
16	0xbd18b43e	-0.037281267
17	0x3c93034a	0.017945904
18	0xbc9a8ac4	-0.018864997
19	0xbb1f6d5e	-0.0024326663
20	0xbde25c08	-0.1105271
21	0xbe1e73e6	-0.15473899
22	0xbaf97a62	-0.0019033665
23	0xbe4c0f3a	-0.19927683
24	0x3c62a271	0.013832674
25	0xbc93eaa4	-0.018056221
26	0xbe27f2f0	-0.16401267
27	0xbcb105b1	-0.02160916
28	0x3cd8ad83	0.026449924
29	0xbe14b0f2	-0.14520624
30	0x3c265e52	0.010154324
31	0xbc18f585	-0.00933588
32	0xb6bdeedf	-5.660447e-06
33	0xbcc10de6	-0.023566198
34	0xbc7d3e63	-0.015456769
35	0xbc8ce2a6	-0.017197918
36	0xbcf4f4ff	-0.02990198
37	0x3b2a74e8	0.0026009623
38	0xbe286b7f	-0.16447257
39	0xbe52fc24	-0.20603997

Decoder.dec1.weight f4 [256, 20]
0	0xbd051e2f	-0.03249949
1	0x3b49f330	0.0030815117
2	0x3b106617	0.0022033507
3	0xbc16122f	-0.009159609
4	0xbadf0baa	-0.0017017026
5	0xbb1c0814	-0.0023808526
6	0x3bc68838	0.006058719
7	0x3b524ca3	0.0032089136
8	0x3adbf3f8	0.0016781082
9	0x3c03b84b	0.008039544
10	0xbb25ce29	-0.0025299883
11	0xbb190498	-0.0023348685
12	0x3b4c049b	0.0031130675
13	0x3a5e8c36	0.0008489521
14	0x3a1eae73	0.00060532166
15	0x3a0bd4c5	0.00053341343
16	0xb942ae19	-0.00018566138
17	0x3b911bda	0.004428369
18	0x3bf169d0	0.00736735
19	0xbd454bd5	-0.048168022
20	0xbb50305f	-0.0031767113
21	0xbad07e50	-0.0015906785
22	0x3b0bdf96	0.0021342984
23	0xbcc7968e	-0.024363782
24	0x3b44f111	0.0030050913
25	0x3a81ae07	0.0009893783
26	0x3b0d0eeb	0.0021523784
27	0xba479353	-0.00076132006
28	0x3a77e1a2	0.0009455924
29	0xbb5613ca	-0.0032665604
30	0xb9d12136	-0.0003988833
31	0xb9ae7720	-0.0003327662
32	0x3a8240b7	0.0009937499
33	0x3a817d75	0.0009879308
34	0xb9db5963	-0.00041837533
35	0x3b16dc58	0.0023019519
36	0xba5e9b27	-0.00084917474
37	0xb7b7d71e	-2.1915472e-05
38	0xbbfcecf5	-0.007718677
39	0xbdd9044c	-0.10596523
40	0xbb244b0c	-0.0025069145
41	0xbbed116a	-0.007234742
42	0x3ad28e42	0.0016064125
43	0x3ab4be97	0.001378971
44	0xbb11a02b	-0.0022220712
45	0x3bbe3578	0.005804714
46	0xbea70b5f	-0.32625863
47	0xbbe23729	-0.0069035483
48	0x3944389d	0.00018713107
49	0xbc2f49cf	-0.01069875
50	0xba5cfd71	-0.00084300997
51	0xbb162e6a	-0.0022915849
52	0xbbe28c2d	-0.006913683
53	0x3bb89ac3	0.0056336834
54	0x3c25f290	0.010128632
55	0xba57a7d1	-0.0008226606
56	0xbb5d4f27	-0.0033769102
57	0x3b915bc1	0.0044359867
58	0xbc69cfb9	-0.014270716
59	0xbd6bb039	-0.057541106
60	0x3baa42b7	0.0051959413
61	0x3b24bbbc	0.0025136312
62	0x3bae7c23	0.005324857
63	0x3d3122ee	0.043246202
64	0xbc4329b0	-0.011911795
65	0xbc0f1637	-0.008733324
66	0x3c2423ec	0.01001833
67	0xbbc974e4	-0.0061479677
68	0xbb2dc4f3	-0.0026515096
69	0xbe6551d6	-0.22394499
70	0xbbac4216	-0.0052569015
71	0x3bf3ebbd	0.0074438737
72	0xbae67d79	-0.0017585001
73	0x3b8d6035	0.0043144473
74	0x3b4d35bd	0.0031312548
75	0x3baeb816	0.0053320033
76	0xbb8a5a7d	-0.004222213
77	0xbaf762bc	-0.001887403
78	0xbdb79137	-0.089632444
79	0x3cf19eff	0.02949476
80	0xbc336b92	-0.01095094
81	0xbc0f5851	-0.008749084
82	0xbbafbc83	-0.0053630485
83	0xbdf68aa8	-0.12038165
84	0xbbd141ab	-0.006386002
85	0xbbef4219	-0.0073015806
86	0x3b263772	0.0025362638
87	0x3b41e9f3	0.0029588907
88	0x3bc9fca2	0.0061641494
89	0xbd0a068f	-0.03369766
90	0xbbaad39a	-0.005213213
91	0x3b41f4a1	0.0029595273
92	0x3b0eca9a	0.002178824
93	0xbac4fb8f	-0.0015028584
94	0xbb4b8357	-0.0031053626
95	0xbacac78c	-0.0015470847
96	0xba5d41f1	-0.0008440307
97	0xbb80ae0b	-0.0039269975
98	0xbe62f3cd	-0.22163315
99	0xb9955b21	-0.0002848739
100	0x3bc1448d	0.0058980645
101	0xb9b99f49	-0.00035404626
102	0xbbb07df2	-0.0053861076
103	0x3d41e078	0.04733321
104	0xbb3e9db3	-0.0029085695
105	0xbad645a5	-0.001634766
106	0x3b3e24f8	0.0029013734
107	0x37a174dd	1.9247114e-05
108	0x3b3286d8	0.0027241018
109	0x3bf43f7a	0.007453856
110	0xbab46efc	-0.0013765986
111	0xbaee3faf	-0.0018176938
112	0x3ad2c95a	0.0016081736
113	0xbacd5691	-0.0015666058
114	0xbaf3bc9d	-0.001859564
115	0x39d8229c	0.00041224516
116	0x3a273546	0.0006378483
117	0xba1b3f18	-0.00059221825
118	0x3c991b13	0.018689668
119	0x3b0d2a1c	0.0021539992
120	0x3d6b248a	0.057407893
121	0xbd27ff98	-0.041015238
122	0xbb2897f5	-0.002572534
123	0x3baa8407	0.005203727
124	0x3b60406c	0.0034218086
125	0x3aedcee8	0.0018143328
126	0x3c094c10	0.008379951
127	0x3bf01bf6	0.007327552
128	0xbacafec1	-0.00154873
129	0xbd456bd9	-0.048198555
130	0xbba85b57	-0.0051378417
131	0x3c4e3a7c	0.012587186
132	0x3a8a5eb4	0.0010556788
133	0x3aeffeb6	0.0018310163
134	0x3b0bc67a	0.0021328018
135	0x3aae0e84	0.0013279472
136	0xbb0bd7b8	-0.0021338295
137	0x3bc37473	0.0059648096
138	0xbdc9e3be	-0.098578915
139	0xbe946348	-0.28981996
140	0xbb203d0c	-0.002445045
141	0xba4c1895	-0.00077856454
142	0xb901ee46	-0.00012391162
143	0xbac0abe3	-0.0014699664
144	0xbb41c103	-0.0029564507
145	0x3a7f173c	0.000973094
146	0x3ad1fe48	0.0016021216
147	0xbb37b341	-0.0028030428
148	0x38cfa769	9.901712e-05
149	0xbd46931d	-0.048480142
150	0x3b913abb	0.00443205
151	0x39b1e5b7	0.00033931222
152	0xb901dc71	-0.0001238452
153	0xbb0b6fe0	-0.00212764
154	0x3a5e19d3	0.0008472476
155	0xbad1ce15	-0.0016006852
156	0xbb42aeca	-0.0029706233
157	0xbb8c5bed	-0.0042834193
158	0xbe15913b	-0.14606182
159	0xbbf9123d	-0.007601051
160	0xbca9336c	-0.020654403
161	0xbc1c74c4	-0.0095493235
162	0x3b608324	0.0034257853
163	0x3e54c55b	0.2077841
164	0xbb093f8e	-0.0020942423
165	0xbac479ab	-0.0014989873
166	0xbbfb403b	-0.007667569
167	0xbb2c482f	-0.0026288142
168	0xbbf53d55	-0.007484118
169	0xbd08bcd3	-0.0333832
170	0xbb373a38	-0.0027958285
171	0xba4fb8b7	-0.0007923948
172	0x3be3df01	0.0069540744
173	0x3a527cc3	0.0008029455
174	0x380b0864	3.3147997e-05
175	0xbbf339eb	-0.007422676
176	0xbb90b369	-0.0044159186
177	0xbc058fcd	-0.008151961
178	0xbd573624	-0.052541867
179	0xbd1a1a05	-0.03762247
180	0x3c27b3cb	0.010235737
181	0xbe937cb3	-0.28806075
182	0xbbc2af5d	-0.005941315
183	0x3b2c97ff	0.0026335714
184	0x3a9de433	0.0012046158
185	0xbb56fa40	-0.003280297
186	0xbc2b695b	-0.01046213
187	0x3a044b97	0.0005046664
188	0xba99f3f1	-0.0011745674
189	0xbc13f35e	-0.009030191
190	0xbb14ba23	-0.0022693954
191	0xbc0353dc	-0.008015599
192	0xb9a54f07	-0.00031530132
193	0xbaec11e6	-0.0018010705
194	0xb9082b6d	-0.00012986148
195	0x3c413c35	0.01179414
196	0x39d1068d	0.00039868467
197	0x3b5fb854	0.0034136968
198	0xbb4a180f	-0.0030837094
199	0xbda695d0	-0.08134043
200	0xba743815	-0.0009316218
201	0x39e78f78	0.00044166646
202	0xbadbe117	-0.0016775456
203	0xbc6975f6	-0.0142493155
204	0x392def97	0.0001658782
205	0xbaa6e550	-0.0012733135
206	0x3b2fc3e9	0.0026819652
207	0x3a27cb6b	0.0006400856
208	0xbaf8ce0c	-0.0018982305
209	0x3bb4577c	0.005503593
210	0xba9233fc	-0.0011154409
211	0x3a813d5c	0.0009860205
212	0x3adcde5e	0.0016850939
213	0x3b06da57	0.0020576918
214	0x38dc97ff	0.00010518729
215	0xbad61e08	-0.0016335854
216	0xb89b7beb	-7.4140575e-05
217	0x3aef5ba8	0.0018261569
218	0x3a0ac56a	0.0005293699
219	0xbd89cf8d	-0.0672904
220	0x3b448a81	0.0029989781
221	0xbe8ad455	-0.2711512
222	0xbb91f516	-0.0044542653
223	0xbc5cd768	-0.013479091
224	0xbb84122b	-0.004030486
225	0xbbf947f5	-0.007607455
226	0xbbcd9287	-0.006273571
227	0x3aad2014	0.0013208413
228	0xbb1a2c9e	-0.002352513
229	0xbbd5ae22	-0.0065210024
230	0xbb06eb73	-0.0020587116
231	0xbad11caa	-0.0015953977
232	0x3b335b87	0.0027367787
233	0x3afb77e1	0.0019185507
234	0xbbf3ee42	-0.007444174
235	0x3c4b6e0e	0.012416376
236	0xbb4db7b4	-0.0031390013
237	0x3b97d49e	0.0046335002
238	0xbccb58cd	-0.024822617
239	0xbdd0781a	-0.101791576
240	0xba6d2374	-0.00090461154
241	0xbac7513f	-0.0015206708
242	0x3b77cbb9	0.0037810637
243	0x3ae44d63	0.0017418083
244	0x3a816a52	0.0009873605
245	0xba377edf	-0.0006999801
246	0x3b1dbb51	0.0024067948
247	0x3a6cdb6e	0.0009035383
248	0x3a3f529b	0.0007298381
249	0xbaeedb1a	-0.0018223256
250	0x390e11d7	0.00013548821
251	0x3ae46f33	0.001742816
252	0xbad3b13d	-0.0016150844
253	0xb983d814	-0.00025147258
254	0xbb386d11	-0.002814118
255	0x3a58048e	0.0008240425

Decoder.dec1.bias f4 [256]
0	0x3c284f37	0.010272793
1	0xbba199e5	-0.0049316757
2	0xbedfb069	-0.43689278
3	0xbe166696	-0.14687571
4	0xbe26353e	-0.16231248
5	0x3d2ec687	0.0426698
6	0xbe477c35	-0.19480975
7	0xbd20deb1	-0.039274875
8	0xbe3270cc	-0.17425841
9	0xbe908da4	-0.28233063
10	0x3d96c1d3	0.07361188
11	0xbeb17366	-0.34658355
12	0x3bea88ee	0.0071574366
13	0x3cf10de9	0.029425578
14	0xbe221ba2	-0.15830854
15	0xbea89d62	-0.32932574
16	0xbeb7f62c	-0.35930002
17	0xbc86784d	-0.016414786
18	0xbbb911a7	-0.0056478563
19	0x3e050267	0.12989198
20	0xbbc1970a	-0.005907898
21	0x3ce8a0c4	0.028396972
22	0x3b07212b	0.0020619135
23	0xbe289440	-0.16462803
24	0xbed61416	-0.418122
25	0xbb8af21d	-0.004240288
26	0x3c25ecaa	0.010127226
27	0x3c3eedee	0.011653407
28	0x3c10d597	0.008839986
29	0x3c3735e5	0.011182283
30	0x3d34bf45	0.04412772
31	0x3aefa149	0.001828232
32	0x3bde609b	0.0067864186
33	0xbbe10838	-0.006867435
34	0x3cfe2800	0.031024933
35	0xbdb81ac1	-0.08989478
36	0xbdf0ecda	-0.11763926
37	0x3ccd4a8e	0.025059965
38	0xbe81af22	-0.25328928
39	0xbe939379	-0.2882345
40	0xbbb56117	-0.0055352557
41	0x3af8b85a	0.001897584
42	0xbb548268	-0.003242636
43	0xbe1de9a4	-0.15421158
44	0x3bf13baa	0.007361849
45	0xbc715be7	-0.014731384
46	0xbe0b5de9	-0.13610043
47	0xbeb24481	-0.3481789
48	0xbe2e49c8	-0.17020333
49	0x3ddb8b60	0.10719943
50	0x3c048569	0.008088448
51	0x3c3d97e7	0.011571861
52	0x3cd60a14	0.026127852
53	0xbc868b4a	-0.01642384
54	0xba5e4862	-0.0008479414
55	0x3ce546cf	0.027987866
56	0x3c033e8e	0.00801052
57	0xbdbf34f1	-0.0933627
58	0xbd73a92e	-0.059487514
59	0xbe874373	-0.26418647
60	0x3bdddf59	0.00677101
61	0xbe35f313	-0.17768507
62	0xbe63a61c	-0.22231334
63	0x3c414d2e	0.011798186
64	0xbf39b788	-0.7254567
65	0x3c2fb07c	0.0107232295
66	0x3c2c9f7b	0.01053607
67	0x3c092230	0.008369967
68	0xbdabf314	-0.08395973
69	0xbebc23a1	-0.36745933
70	0xbed5bd27	-0.41745874
71	0x3c1376fe	0.009000538
72	0xbde468b9	-0.11152787
73	0xbb9aadfa	-0.0047204467
74	0xbebb1bef	-0.3654475
75	0x3c050345	0.008118455
76	0xbebecf50	-0.37267542
77	0xbe92df33	-0.28685912
78	0x3dc7fbca	0.09764822
79	0xbe966ca5	-0.29379764
80	0xbda431ae	-0.08017288
81	0x3c0fd71a	0.008779312
82	0xbe939571	-0.28824952
83	0x3d89ed93	0.06734767
84	0x3cdd222b	0.026993832
85	0xbd093ad0	-0.033503354
86	0x3c060c64	0.008181665
87	0xbf06f0dc	-0.5271127
88	0xbec391bc	-0.38197124
89	0x3ca4a9c0	0.020100474
90	0xbb2ae924	-0.0026078904
91	0x3aee08a8	0.0018160539
92	0xbe11dae7	-0.14243661
93	0xbd8de2a1	-0.06927992
94	0xbe102fc1	-0.14080717
95	0xb835035d	-4.3156895e-05
96	0xbae37afb	-0.0017355377
97	0x3c001a39	0.007818752
98	0x3c44ca4c	0.012011122
99	0xbe89f6ad	-0.2694601
100	0x3cf13908	0.02944614
101	0xbd9739e7	-0.07384091
102	0xbd321e47	-0.043485906
103	0xbda1dd8b	-0.07903584
104	0x3d80b068	0.06283647
105	0x3c2cd57a	0.010548944
106	0xbbcc9799	-0.006243658
107	0xbc5bbcc0	-0.013411701
108	0x3cede278	0.029038653
109	0x3c3c2a38	0.011484675
110	0xbe8a97dd	-0.27068987
111	0x3d01ee57	0.03172144
112	0xbe2cf081	-0.1688862
113	0x3d28fa8a	0.041254558
114	0x3d540d81	0.05177069
115	0xbd4d8819	-0.05017862
116	0xbd6fbdac	-0.058530495
117	0xbe086657	-0.1332029
118	0x3c326fc5	0.010890906
119	0x3ce5ff7d	0.028075928
120	0xbe96ebcd	-0.29476777
121	0xbd553392	-0.052051134
122	0xbbd22196	-0.006412695
123	0xbe6f5ef0	-0.2337606
124	0xbe7683bb	-0.24073689
125	0xbb96e0ca	-0.0046044337
126	0xbed0fcd5	-0.40817896
127	0x3cc991ae	0.024605598
128	0xbdff9f9a	-0.124816135
129	0xbe8347ce	-0.2564072
130	0xbe61a388	-0.22035038
131	0xbb8b3139	-0.004247811
132	0xbeb73e50	-0.35789728
133	0x3e0de569	0.13857044
134	0xbe82e189	-0.25562695
135	0xbdd1403c	-0.1021733
136	0xbb4a041c	-0.0030825203
137	0x3c845edc	0.016158514
138	0xbd237e56	-0.039915405
139	0xbe23061a	-0.15920296
140	0xbe77c7da	-0.24197331
141	0xbea8c56d	-0.32963124
142	0x3cb1c42b	0.021699985
143	0xbe947dcd	-0.29002228
144	0xbde966f8	-0.11396593
145	0xbea0fa50	-0.31440973
146	0xbc2455e9	-0.010030248
147	0xbe619f74	-0.22033483
148	0x3bd47714	0.006483922
149	0xbc9a26d4	-0.018817343
150	0xbbc073dd	-0.005873187
151	0xbe5f7819	-0.21823157
152	0x3ced5c1e	0.028974589
153	0x3cb5dbdb	0.022199562
154	0x3c0666e5	0.008203243
155	0x3bce43e4	0.0062947143
156	0x39db63a7	0.00041845182
157	0xbbe8565b	-0.0070903725
158	0x3c1fb671	0.009748087
159	0x3ba23114	0.004949698
160	0x3c456ef2	0.012050377
161	0x3d8441e6	0.06457882
162	0x3cef953f	0.02924597
163	0x3d93001e	0.07177757
164	0x3cd7a83c	0.026325338
165	0xbe6128ff	-0.21988295
166	0xbd19d3d9	-0.03755555
167	0xbd1db14a	-0.038499154
168	0xbe9970d4	-0.29968894
169	0x3bd3dff6	0.006465907
170	0xbe5ad3ab	-0.21369807
171	0x3bc99a21	0.006152407
172	0xbdcf389e	-0.10118221
173	0xbe8f3268	-0.27968144
174	0xbe48855b	-0.19582121
175	0xbe1224a7	-0.14271794
176	0x3bebdcda	0.0071979584
177	0xbdbd45bf	-0.09241819
178	0x3c27c788	0.010240443
179	0xbd25cdd2	-0.04047949
180	0x3d24d0b4	0.040238097
181	0x3caaf2a4	0.020867653
182	0x3c6ac3dd	0.014328924
183	0xbd221a5d	-0.039575923
184	0x3c0a110d	0.008426917
185	0x3cd5cb1e	0.02609783
186	0x3c2ed27b	0.0106703
187	0xbd0f80ee	-0.035035066
188	0x3cd8030a	0.026368637
189	0x3ba658fe	0.0050765267
190	0xbb00ab24	-0.0019633258
191	0xbdc1e1a1	-0.094668634
192	0xbe876107	-0.26441213
193	0x3c451acc	0.012030315
194	0xbd0a1048	-0.033706933
195	0x3c131076	0.008976093
196	0x3c5bbb86	0.013411408
197	0x3c662c44	0.01404864
198	0x3c68b9b2	0.014204429
199	0xbe96a2e1	-0.29421142
200	0x3ce757f2	0.028240178
201	0x3c931729	0.01795538
202	0x3d54a148	0.051911622
203	0x3d2a7348	0.041613847
204	0x3c247c99	0.010039472
205	0x3cd9635a	0.026536632
206	0xbedd6abc	-0.43245494
207	0xbca6cc47	-0.020361079
208	0x3b6ff69b	0.0036615494
209	0xbe011de1	-0.12609054
210	0xbacfd6e4	-0.0015856889
211	0x3c659dc2	0.014014663
212	0xbec4534d	-0.38344803
213	0x3c5e98df	0.013586252
214	0x3dad08d7	0.08448952
215	0xbcd00ff7	-0.025398238
216	0x3cd3b5e6	0.025843572
217	0x3c1c3882	0.009534957
218	0xbe8d3708	-0.27581048
219	0xbd87d72c	-0.06632838
220	0x3d571025	0.05250563
221	0x3ce353db	0.027749946
222	0xbbbe7b08	-0.0058130063
223	0xbdc4b0a8	-0.09604007
224	0x3a8f2fca	0.0010924276
225	0x3c7edf17	0.015556118
226	0xbeadf9fa	-0.3397978
227	0x3d1d68ee	0.038430147
228	0xbbc1fc6f	-0.005919985
229	0xbe587e7a	-0.21141997
230	0x3dcf64ef	0.101266734
231	0x3c694227	0.014236963
232	0x3a828216	0.0009956982
233	0x3c1b175e	0.00946602
234	0x3c1647fe	0.009172438
235	0x3bdf1794	0.0068082307
236	0x3c258d64	0.010104511
237	0x3c2d4084	0.010574464
238	0x3ce338dd	0.027737075
239	0xbdc4f546	-0.09617095
240	0xbdd45586	-0.10367875
241	0x3ca35405	0.019937525
242	0x3c6bedc6	0.014399951
243	0x3c0f0438	0.008729033
244	0x3c03ae7f	0.008037209
245	0xbe62cb11	-0.22147776
246	0x3e059233	0.13044052
247	0xbdf4b5d6	-0.11948745
248	0xbcb843a4	-0.022493191
249	0xbd1854bc	-0.037190184
250	0xbe9d1091	-0.30676702
251	0xbeafee98	-0.3436172
252	0x3c3be333	0.011467743
253	0x3c21e176	0.009880414
254	0x3c172466	0.009224987
255	0xbcf2ec96	-0.029653829

Decoder.dec2.weight f4 [31, 256]
0	0x3e291562	0.16512063
1	0x3e28a621	0.16469623
2	0x3d90a47c	0.07062623
3	0x3cd77470	0.026300639
4	0x3e406d5e	0.1879172
5	0xbf405714	-0.7513287
6	0xbcb35ed0	-0.021895796
7	0x3d5a4c6f	0.05329555
8	0x3e3fb2f3	0.18720607
9	0x3cce03d3	0.025148308
10	0x3e3f01a9	0.18652977
11	0xbd61ee5c	-0.055158958
12	0x3d37d4e3	0.04488076
13	0x3c9798cd	0.018505478
14	0xbe23e4a7	-0.16005193
15	0x3c8ba31b	0.017045548
16	0xbd845c3a	-0.06462903
17	0xbe68abc3	-0.22721772
18	0x3e562d96	0.20915827
19	0xbcd1f11b	-0.025627663
20	0x3dc60d84	0.09670547
21	0x3d88f9a1	0.06688238
22	0xbf2555d8	-0.6458411
23	0x3c0d05f9	0.008607381
24	0x3de3fa27	0.11131697
25	0xbed7e8a2	-0.42169672
26	0x3d7e4e82	0.06208659
27	0xbf335a47	-0.7005963
28	0xbf799864	-0.97498155
29	0x3d97546a	0.073891476
30	0xbe857693	-0.26067027
31	0x3f37049b	0.714914
32	0xbefc37d1	-0.49261335
33	0x3e280fab	0.16412227
34	0x3cba8b74	0.022771575
35	0x3edc5754	0.43035376
36	0x3e439c6d	0.1910264
37	0xbf5a302e	-0.85229766
38	0x3d3a0d4c	0.045422837
39	0x3d8689c1	0.06569243
40	0x3e3b3413	0.18281583
41	0xbf165960	-0.58730125
42	0x3f0431c4	0.51638436
43	0x3cb8e11c	0.022568278
44	0xbd5a53bd	-0.053302515
45	0xbf139d1d	-0.5766161
46	0x3db2d396	0.08731763
47	0xbd97cdb4	-0.07412282
48	0xbe6010c0	-0.2188139
49	0xba55d0da	-0.00081564265
50	0x3cf15ba9	0.029462652
51	0x3d86f299	0.065892406
52	0x3df43cb9	0.119256444
53	0x3ee75500	0.45182037
54	0xbef76a96	-0.48323506
55	0xbc0438d8	-0.008070193
56	0xbd4b0ab2	-0.049570747
57	0x3e5999b6	0.21250042
58	0x3d71add8	0.05900368
59	0xbcf89664	-0.03034515
60	0xbef53cf2	-0.4789806
61	0x3dd08afb	0.101827584
62	0x3e378678	0.1792239
63	0x3ca7aa5f	0.020466981
64	0xbf8ed298	-1.1158018
65	0xbeac3a0e	-0.33638042
66	0xbe0cd8e3	-0.1375461
67	0xbf806221	-1.0029947
68	0x3e26161f	0.16219376
69	0x3d5db1c5	0.054124612
70	0x3d532b87	0.051555183
71	0x3be1baf6	0.0068887426
72	0xbd46816d	-0.048463274
73	0x3eea2905	0.4573442
74	0x3d9e0519	0.07715816
75	0x3cc17c36	0.023618799
76	0x3da24824	0.07923916
77	0xbd012d8f	-0.03153759
78	0x3dcb550b	0.0992833
79	0x3dcda08e	0.10040389
80	0xbcb6e805	-0.022327432
81	0xbf8c50a5	-1.0962111
82	0x3d9ce79d	0.07661364
83	0x3e837a2c	0.25679147
84	0xbfc56d87	-1.542405
85	0xbcde167b	-0.027110329
86	0x3d4c9a7e	0.049952023
87	0xbf301f49	-0.6879774
88	0x3ddd410b	0.108034216
89	0x3ba55a58	0.00504617
90	0x3f4c8b59	0.7990013
91	0xbd6cc7fa	-0.0578079
92	0x3ce4a8b2	0.027912471
93	0x3ec6422f	0.3872237
94	0x3ca0bbd7	0.019620819
95	0x3b66cd80	0.0035217702
96	0xbf038187	-0.5136952
97	0x3b897af0	0.0041955635
98	0x3efd4c20	0.4947214
99	0x3cc489e1	0.023991527
100	0x3cbc66bf	0.022998212
101	0xbdeb7f27	-0.11498862
102	0x3e374f22	0.1790128
103	0x3f000e22	0.50021565
104	0x3dcf9fc8	0.10137898
105	0x3d0a1d5b	0.0337194
106	0x3e2a8220	0.16651201
107	0xbe60cffc	-0.2195434
108	0x3d6b9826	0.057518147
109	0x3e631c46	0.22178754
110	0xbd8ebace	-0.06969224
111	0x3e894735	0.2681214
112	0x3da2442f	0.07923161
113	0x3e740e9a	0.23833695
114	0xbf3f9346	-0.74834096
115	0x3f0f226d	0.55911905
116	0x3e7e6c5a	0.2484602
117	0x3cf11b37	0.029431922
118	0x3d8a0407	0.067390494
119	0x3dcd4fa8	0.10024959
120	0x3ce76a7c	0.028249018
121	0x3f25429a	0.6455475
122	0x3e44fc45	0.19236858
123	0x3d192514	0.037388876
124	0xbd089f77	-0.033355203
125	0xbf91fb05	-1.140473
126	0xbe215fed	-0.15759249
127	0xbf2dd183	-0.67897815
128	0xbe8d7eff	-0.27635953
129	0x3c9b0f60	0.01892823
130	0xbd64a4b6	-0.055821143
131	0x3f46d0da	0.7766243
132	0xbe358975	-0.17728217
133	0xbda56bd7	-0.080772094
134	0xbd3767a7	-0.044776585
135	0x3e0b11f0	0.13581061
136	0x3f04fd88	0.5194936
137	0x3ccb5e21	0.024825158
138	0x3f2cb816	0.6746839
139	0xbe116e5a	-0.14202252
140	0xbc95656c	-0.018236838
141	0x3dd2c986	0.10292344
142	0xbd29aa8f	-0.041422423
143	0x3d617212	0.055040427
144	0xbe91a95c	-0.28449523
145	0xbe250378	-0.16114604
146	0xbc98214d	-0.018570567
147	0xbcda1938	-0.026623353
148	0xbe20f138	-0.15717018
149	0xbd4fdfcc	-0.05075054
150	0x3e49ac2a	0.19694582
151	0xbd25b822	-0.040458806
152	0xbbb16bab	-0.0054144464
153	0xbbac2c10	-0.005254276
154	0x3d11b83f	0.0355761
155	0x3f1811fa	0.5940243
156	0x3e17901f	0.14801072
157	0x3ee2a1d9	0.44264105
158	0xbf6fc2ce	-0.93656623
159	0x3f2f1853	0.6839649
160	0x3c250bf9	0.010073655
161	0xbeaa700e	-0.33288616
162	0xbec82656	-0.39091748
163	0xbe9d671c	-0.3074273
164	0x3ca8a38a	0.020585794
165	0x3e86741e	0.26260465
166	0xbf0c4034	-0.54785466
167	0xbd26f0aa	-0.04075686
168	0x3d827b51	0.06371177
169	0xbc89f58b	-0.016840717
170	0xbe14e6f8	-0.14541233
171	0xbcdc6d56	-0.026907604
172	0x3e3aa475	0.18226798
173	0x3ba6eda5	0.0050942474
174	0xbcf042ad	-0.029328668
175	0x3c83d5b6	0.016093116
176	0x3ca351cd	0.019936467
177	0x3e239634	0.15975267
178	0x3cb3209a	0.021866132
179	0x3b1d2649	0.0023979119
180	0xbf93b50d	-1.1539627
181	0x3d9e4b61	0.07729221
182	0x3dba4698	0.09095496
183	0xbf172d50	-0.59053516
184	0xbf073885	-0.52820617
185	0x3d97f971	0.07420624
186	0xbf11cb49	-0.56950814
187	0xbf1599a7	-0.5843758
188	0x3d73a129	0.059479866
189	0xbd74da75	-0.05977865
190	0x3e98eebb	0.29869637
191	0x3c1a02db	0.009400095
192	0x3d5501e6	0.052003764
193	0xbf3b15e6	-0.7308029
194	0xbdcbe11d	-0.09955046
195	0x3c452f85	0.012035255
196	0xbf7fb215	-0.99881107
197	0xbfaab237	-1.3335637
198	0xbfbc8de2	-1.4730799
199	0xbc087524	-0.00832871
200	0xbf62faf7	-0.8866419
201	0xbfc8288f	-1.5637378
202	0x3ebe328a	0.37147933
203	0xbfb20c6e	-1.3910043
204	0x3d97e0a1	0.074158914
205	0x3f1f30a4	0.62183595
206	0xbd53df05	-0.05172636
207	0xbf127c23	-0.5722067
208	0xbf18a5ee	-0.5962819
209	0x3d0826b5	0.03324004
210	0xbf37c478	-0.7178416
211	0xbf5f9695	-0.87339145
212	0x3b81fc3a	0.0039668353
213	0xbfbbe9f5	-1.4680773
214	0x3e29b714	0.16573745
215	0xbee20c3e	-0.44149965
216	0x3d203ea5	0.039122242
217	0x3d43dddb	0.047819
218	0xbd1ad4d0	-0.03780061
219	0x3e700151	0.23438002
220	0xbe406213	-0.18787412
221	0xbf6670fa	-0.9001614
222	0x3f43066e	0.76181686
223	0x3e5d0e67	0.21587525
224	0x3d420ee1	0.04737747
225	0x3ce450ee	0.027870622
226	0x3d82008a	0.06347759
227	0xbe414bfc	-0.18876642
228	0x3e3cb617	0.18428837
229	0x3ef55a18	0.479203
230	0x3d0df906	0.034661315
231	0xbfa51c4e	-1.2899263
232	0xbf29691e	-0.6617602
233	0x3ee79805	0.4523317
234	0xbd62bfb7	-0.055358615
235	0xbf633ef5	-0.8876794
236	0x3f4836c3	0.7820856
237	0xbf92dcfa	-1.1473687
238	0x3cc5249a	0.024065305
239	0x3e470e86	0.19439134
240	0x3d14339c	0.03618203
241	0xbf6fb6e4	-0.93638444
242	0x3f694614	0.91122556
243	0x3d9dc63c	0.07703826
244	0x3d51c74d	0.05121546
245	0xbe623eae	-0.22094223
246	0xbe70e438	-0.23524559
247	0x3e420bd0	0.18949819
248	0x3eb6e4f7	0.3572156
249	0xbef20439	-0.47268847
250	0x3d6cd563	0.05782069
251	0x3d39e086	0.045380138
252	0xbf407ac6	-0.7518734
253	0x3d046f20	0.03233254
254	0x3d24c798	0.04022941
255	0x3dd0fe2d	0.1020473

Decoder.dec2.bias f4 [31]
0	0xbeb843bd	-0.3598918
1	0x3c9dd3c5	0.019266019
2	0x3ff48d67	1.9105653
3	0xbdfb3b0a	-0.1226712
4	0x402a2881	2.6587222
5	0x3e141701	0.144619
6	0xc00ea8b3	-2.2290466
7	0xbfed3c45	-1.8534018
8	0x3f975cd3	1.1825203
9	0x3ecd4fd0	0.40099955
10	0x3fa6f87c	1.3044581
11	0xbfd53d11	-1.6659261
12	0x3ffe849c	1.9884219
13	0xbfb3c5ec	-1.4044776
14	0xbda5ccbd	-0.08095691
15	0x3e17f94b	0.14841191
16	0xbdb06b34	-0.086141974
17	0xbfaa5a59	-1.3308822
18	0xbdc7df73	-0.097594164
19	0xbfaecd37	-1.3656377
20	0xc004ee3a	-2.0770402
21	0xbe4c157c	-0.1993007
22	0x3d19a3ea	0.037509836
23	0x4091fe0c	4.5622616
24	0x3e47cd79	0.19511975
25	0xbe0ec29d	-0.13941427
26	0x3e249e55	0.16076024
27	0x3f923d3f	1.1424941
28	0x3e88fd94	0.26755965
29	0xbd8b98a6	-0.06816225
30	0x3d191741	0.037375692
