results/3_niid/model_alone_n_2_m_0.pt (torch, 121552 bytes, 8 tensors)

Encoder.enc1.weight f4 [256, 22]
-0.1314327 0.10761829 0.122851625 0.13818468 -0.0501137 -0.0439102 -0.111484714 0.11795171
-0.035860173 0.113771655 -0.064207815 -0.058962926 -0.044185486 0.005933704 0.08102524 0.045910783
-0.046347015 0.060033567 0.07691058 0.01911706 -0.0631235 -0.058601167 0.002367092 -0.03847033
-0.006201063 0.1154193 0.036962356 0.0049269474 0.06841697 0.10705748 -0.018373428 -0.01979643
0.037395038 0.004276536 0.073830195 -0.09210719 -0.129115 0.110182054 -0.09548969 -0.028975712
0.057748847 -0.006467773 0.07715304 0.020124521 -0.10972815 0.039489426 -0.1064167 0.020979984
-0.25079805 0.010277232 -0.059364326 -0.01879093 -0.0093633095 -0.11095593 -0.16636594 -0.23074916
-0.30067462 0.028747737 0.094009824 0.00895911 -0.17067045 -0.08984606 -0.06391666 -0.017611377
0.024757193 0.0037980727 -0.101710714 0.00094353483 -0.08512867 0.062865615 -0.052573502 0.061904743
-0.04807372 0.011443591 -0.033447053 0.05153641 -0.025444048 -0.18615748 -0.075835355 0.039200924
-0.007737805 0.003249938 -0.13203236 -0.011981041 0.020212306 0.098860696 -0.028050425 -0.011935515
-0.13715404 0.11755987 0.006658829 0.05064221 -0.016116267 0.10919364 0.08554435 -0.09273923
0.011608948 -0.21710163 -0.16522035 -0.05498963 -0.13310663 -0.037485216 -0.09713916 -0.004171771
-0.15978713 -0.051332798 0.033619054 -0.02528321 -0.036188103 0.055833336 -0.107118465 0.02772475
-0.15894522 0.043966983 -0.08968161 0.020590497 0.019457225 -0.11567595 0.015272676 -0.12320497
0.059726514 -0.03754921 -0.0067051216 -0.1328744 -0.07670674 -0.15983889 -0.041655038 0.07365519
-0.15513851 -0.17225167 0.10068199 0.105956756 0.08064032 0.07694096 0.07575307 0.11792644
0.0788187 -0.028925236 0.12525216 0.12093867 0.07346032 0.11039479 -0.0012008199 0.046905894
0.03799781 -0.103076965 -0.013366071 0.02799943 0.13259324 0.074516706 -0.055054355 -0.004120192
-0.02052798 -0.0042640506 -0.03396383 0.07644167 -0.007952629 0.051467087 -0.0329071 0.081413664
-0.014315983 0.013255017 0.08554534 0.108819 -0.005874288 -0.05697305 0.003581017 0.021531355
-0.36056283 0.035938617 -0.040094774 -0.011675637 -0.041871693 0.022565877 -0.0788799 -0.036513638
0.05506485 -0.21622771 -0.24941258 0.09578652 -0.15969506 -0.09763664 0.16580717 0.049013875
-0.15091072 -0.09729895 0.02827478 -0.17771234 -0.12580901 -0.059483133 -0.059281927 -0.0046739555
-0.05270334 0.007458074 0.20510371 -0.0055376007 -0.09544815 -0.0047393083 0.113747746 -0.117594466
0.094102174 0.1745803 0.027971316 -0.13870876 0.061920244 0.13185415 0.037338033 -0.10571184
-0.03137606 0.042229462 -0.073326096 0.029688733 -0.013281145 -0.0060349302 -0.037242655 -0.019060137
0.09272045 -0.10117823 -0.05122427 -0.06983874 0.06038983 -0.024523037 0.058408998 -0.15027274
-0.010258769 0.0809079 0.056065287 -0.0868084 -0.07694751 -0.061766632 -0.004158977 0.058660638
0.050752535 -0.04218245 -0.047878105 -0.015571356 -0.049458694 -0.044897877 -0.04546958 -0.028595842
0.020632613 0.058726083 -0.009587865 -0.015621978 -0.07587363 0.014273423 -0.05245444 -0.06506915
-0.05669305 0.13245527 -0.028531536 0.111811794 -0.004526729 -0.15932155 -0.016149119 0.016160632
00000000: 4b96 06be fa66 dc3d a299 fb3d 4980 0d3e
00000010: 0644 4dbd 2fdb 33bd 1952 e4bd ab90 f13d
00000020: 1ee2 12bd 1d01 e93d 637f 83bd 1c83 71bd
00000030: d7fb 34bd 846f c23b 90f0 a53d f20c 3c3d
00000040: 5ed6 3dbd c2e5 753d 4b83 9d3d 619b 9c3c
00000050: e546 81bd c707 70bd 3721 1b3b 1193 1dbd
00000060: 4932 cbbb f460 ec3d d765 173d 3b72 a13b
00000070: 321e 8c3d f440 db3d df83 96bc 1f2c a2bc
00000080: 8a2b 193d 2f22 8c3b 4934 973d b2a2 bcbd
00000090: b936 04be 21a7 e13d 1990 c3bd 795e edbc
000000a0: 0e8a 6c3d 9def d3bb 6a02 9e3d 2edc a43c
000000b0: 27b9 e0bd aabf 213d 00f1 d9bd 37de ab3c
000000c0: 9a68 80be d661 283c 0228 73bd 70ef 99bc
000000d0: 9168 19bc dd3c e3bd d55b 2abe 8249 6cbe
000000e0: 06f2 99be 6080 eb3c 3988 c03d 3bc9 123c
000000f0: 3cc4 2ebe 3601 b8bd bde6 82bd bc45 90bc
00000100: 99cf ca3c 16e9 783b b54d d0bd 8d57 773a
00000110: f157 aebd b0bf 803d 5057 57bd d48f 7d3d
00000120: f3e8 44bd e67d 3b3c c7ff 08bd d817 533d
00000130: 0970 d0bc 11a0 3ebe 914f 9bbd 2691 203d
00000140: 6a8d fdbb e9fc 543b 7e33 07be 214c 44bc
00000150: 4794 a53c 7a77 ca3d 01ca e5bc 2e8d 43bc
00000160: 1c72 0cbe 3bc3 f03d 4e32 da3b 356e 4f3d
00000170: 4306 84bc eaa0 df3d e031 af3d 11ee bdbd
00000180: 7533 3e3c e44f 5ebe 862f 29be ce3c 61bd
00000190: 1b4d 08be 198a 19bd e5f0 c6bd 5ab3 88bb
000001a0: 3d9f 23be 5742 52bd 22b4 093d bc1e cfbc
000001b0: fa39 14bd 7fb1 643d ed60 dbbd 041f e33c
000001c0: 89c2 22be b916 343d feaa b7bd 67ad a83c
000001d0: c264 9f3c 83e7 ecbd 3f3a 7a3c e352 fcbd
000001e0: caa3 743d 33cd 19bd a3b6 dbbb 3a10 08be
000001f0: 6c18 9dbd ceac 23be 799e 2abd 88d8 963d
00000200: a1dc 1ebe be62 30be 5c32 ce3d dbff d83d
00000210: c126 a53d 3993 9d3d 6d24 9b3d 6b83 f13d
00000220: b36b a13d 9ef4 ecbc 1a42 003e b2ae f73d
00000230: 5d72 963d aa16 e23d d464 9dba 6520 403d
00000240: 97a3 1b3d 041a d3bd 5dfd 5abc 105f e53c
00000250: 86c6 073e 379c 983d ad80 61bd ad02 87bb
00000260: 4b2a a8bc 73b9 8bbb a81d 0bbd 738d 9c3d
00000270: be4b 02bc 27cf 523d 98c9 06bd 35bc a63d
00000280: 968d 6abc 922b 593c 6532 af3d 7fdc de3d
00000290: 197d c0bb 935c 69bd 7faf 6a3b 8662 b03c
000002a0: b19b b8be 5f34 133d 6b3a 24bd 2c4b 3fbc
000002b0: a781 2bbd 13dc b83c c98b a1bd 538f 15bd
000002c0: ae8b 613d cc6a 5dbe 0366 7fbe b92b c43d
000002d0: 1a87 23be b8f5 c7bd 5bc9 293e c6c2 483d
000002e0: 5788 1abe ac44 c7bd 83a0 e73c 39fa 35be
000002f0: 14d4 00be 96a4 73bd 9bd1 72bd fb27 99bb
00000300: 75df 57bd dc62 f43b b506 523e c374 b5bb
00000310: 527a c3bd 334c 9bbb 94f4 e83d 5ed5 f0bd
00000320: a4b8 c03d 2ec5 323e 1a24 e53c ab09 0ebe
00000330: 15a0 7d3d c604 073e c4ef 183d 737f d8bd
00000340: 2f84 00bd cdf8 2c3d fe2b 96bd c935 f33c
00000350: 2999 59bc aac0 c5bb c18b 18bd 0124 9cbc
00000360: 38e4 bd3d 8836 cfbd 8ad0 51bd 9d07 8fbd
00000370: 545b 773d 89e4 c8bc 463e 6f3d 19e1 19be
00000380: 6514 28bc 0bb3 a53d b7a4 653d 9ac8 b1bd
00000390: a896 9dbd 02ff 7cbd 0748 88bb 2346 703d
000003a0: e4e1 4f3d 81c7 2cbd d51b 44bd 001f 7fbc
000003b0: 3395 4abd d6e6 37bd 4f3e 3abd d441 eabc
000003c0: ba05 a93c c38a 703d 6c16 1dbc 53f3 7fbc
000003d0: a263 9bbd 13db 693c 78da 56bd f942 85bd
000003e0: f936 68bd 5ba2 073e f8ba e9bc 95fd e43d
000003f0: f554 94bb 3025 23be 284b 84bc 4d63 843c

Encoder.enc1.bias f4 [256]
0.13340172 -0.3080443 -0.18097502 0.09745218 -0.14864199 -0.1855171 -0.06564322 -0.00068203075
-0.23768444 0.20755133 -0.30798095 -0.028911315 0.20979403 0.085165136 0.02712157 -0.039958734
-0.20944855 -0.04580236 -0.18539974 -0.2575742 -0.084351785 0.1078799 0.2206607 -0.13302438
-0.15973516 -0.15286738 0.10095879 0.2150075 -0.2933526 0.0060324706 0.23789246 -0.040193044
-0.2828134 0.041090325 -0.12223092 -0.24608725 -0.32878098 0.14069901 0.0068043736 0.018296003
-0.00011229638 0.06587742 -0.06439445 -0.17070943 0.044700958 -0.11612951 -0.08235761 0.040727515
-0.11859859 -0.14731017 -0.31417698 0.12737355 0.1517466 0.1683537 0.034061473 0.20701058
-0.25353372 -0.044518482 0.027728494 0.013560231 -0.16535713 0.0013925979 -0.15896364 -0.20498633
-0.33061564 -0.24448502 -0.28368077 -0.11054752 0.07250052 0.1952388 -0.29892543 -0.17013203
0.06688188 0.0636602 -0.16388926 -0.22854502 0.024465026 -0.09471489 -0.26910776 -0.18680027
-0.1637811 0.040249962 -0.20801765 0.04882216 0.17842853 -0.23385355 0.073718645 0.022613976
-0.30350602 0.05733037 -0.22889775 -0.18411389 -0.15562816 -0.0551386 -0.098521315 -0.16843636
-0.00897782 -0.2663653 -0.0012882414 -0.14281559 -0.24635033 0.085008904 -0.20531347 0.043271437
0.1505567 -0.14056282 0.2778575 0.2225345 0.15337385 -0.10827391 -0.24099568 -0.17153214
-0.048295066 0.06839698 0.17159864 -0.041935828 0.14467221 -0.04980079 -0.25717452 -0.23874076
-0.1474727 -0.24735175 -0.021772942 -0.28003794 -0.15155274 0.17706801 0.014686525 0.0491906
-0.27395996 -0.21843974 0.2574758 0.07352005 -0.31793463 -0.30477387 0.15429236 -0.164956
0.15717612 0.038513172 0.16276637 0.26638952 -0.31548446 0.1618406 0.09926715 0.12760702
-0.031094845 -0.15378562 -0.29727137 0.17432898 0.025831887 -0.13985097 0.16617325 -0.053854436
0.058357548 -0.050118424 -0.1505868 0.2151074 0.03726584 0.06619638 -0.02098099 0.14059553
-0.29670385 0.032005392 0.17702962 0.2324637 -0.32749683 0.11161471 -0.099356756 -0.16222358
-0.17145969 -0.1263067 -0.1863158 -0.00050158985 0.03462116 -0.2583534 -0.17885545 -0.24944516
0.14475237 -0.091849096 -0.052830767 -0.13854317 -0.21301337 -0.16105156 -0.16030118 0.054879252
-0.074940674 -0.15537593 0.026227085 0.255623 0.15620463 0.1798226 -0.10672857 0.2175334
0.05529775 -0.0023929544 -0.04606081 -0.31452835 -0.2147068 -0.29589853 -0.16309707 0.15147176
-0.08312099 -0.2444911 -0.11040856 -0.30208215 -0.04731138 -0.08221967 -0.04120635 -0.13280606
0.1741753 0.040148523 -0.24630454 0.013811204 0.14301345 -0.0057324646 0.2688165 0.17028616
-0.21123725 0.21236661 -0.124882095 -0.13655505 -0.13060126 -0.12532161 -0.14122283 -0.303498
0.08368555 -0.13483486 -0.18592393 -0.232682 -0.19604076 0.1189085 0.02421192 -0.31603536
-0.021225164 0.10619837 -0.06869516 -0.12609759 0.06143448 -0.0694804 -0.32506594 0.18240316
-0.10793261 -0.18457547 -0.24755074 0.052624002 -0.020552168 -0.22795415 -0.23026583 -0.12791765
0.12990417 -0.18350516 -0.05399005 -0.09459832 -0.24525559 -0.068353996 0.15364432 -0.16001272
00000000: 769a 083e fcb7 9dbe 8451 39be 0295 c73d
00000010: 9b35 18be 32f8 3dbe f46f 86bd 4fca 32ba
00000020: 8d63 73be 5688 543e aeaf 9dbe 6cd7 ecbc
00000030: 3fd4 563e 0f6b ae3d 0e2e de3c c5ab 23bd
00000040: ae79 56be 419b 3bbd 6ed9 3dbe c4e0 83be
00000050: a1c0 acbd 23f0 dc3d e1f4 613e 8b37 08be
00000060: 9d91 23be 4489 1cbe 7bc3 ce3d ed2a 5c3e
00000070: 5032 96be 08ac c53b 159a 733e 76a1 24bd
00000080: ebcc 90be 544e 283d 3454 fabd 4cfe 7bbe
00000090: fb55 a8be 6713 103e 39f7 de3b 80e1 953c
000000a0: a980 ebb8 beea 863d 3de1 83bd 74ce 2ebe
000000b0: 5a18 373d 4fd5 edbd 1bab a8bd e5d1 263d
000000c0: d1e3 f2bd 7ad8 16be cedb a0be 366e 023e
000000d0: 7663 1b3e ea64 2c3e 0b84 0b3d 95fa 533e
000000e0: 2ccf 81be 0359 36bd de26 e33c bb2b 5e3c
000000f0: 6153 29be d587 b63a 5dc7 22be f0e7 51be
00000100: 7446 a9be 485a 7abe 9b3e 91be bd66 e2bd
00000110: 277b 943d aeec 473e c10c 99be 1737 2ebe
00000120: 5ef9 883d 4760 823d 96d2 27be b507 6abe
00000130: e16a c83c e1f9 c1bd 7ec8 89be 9248 3fbe
00000140: 3cb6 27be 25dd 243d 9402 55be bff9 473d
00000150: f8b5 363e 4e77 6fbe cdf9 963d f240 b93c
00000160: 2465 9bbe 40d3 6a3d 2c64 6abe 5a88 3cbe
00000170: fd5c 1fbe 03d9 61bd 8bc5 c9bd 957a 2cbe
00000180: b517 13bc 0861 88be 35da a8ba 403e 12be
00000190: 4343 7cbe 2619 ae3d b23d 52be 643d 313d
000001a0: 892b 1a3e b3ef 0fbe 5743 8e3e 15e0 633e
000001b0: 090e 1d3e b6be ddbd 92c7 76be 1fa6 2fbe
000001c0: 0cd1 45bd b713 8c3d 8eb7 2f3e e7c4 2bbd
000001d0: f424 143e eafb 4bbd 61ac 83be 7578 74be
000001e0: 1503 17be c749 7dbe 2b5d b2bc 2261 8fbe
000001f0: a430 1bbe 5151 353e c09f 703c 157c 493d
00000200: 7b44 8cbe abae 5fbe ded3 833e ae91 963d
00000210: 54c8 a2be 520b 9cbe d1fe 1d3e 3aea 28be
00000220: c7f2 203e fdbf 1d3d 3aac 263e 3564 883e
00000230: 2e87 a1be 8bb9 253e 934c cb3d 6aab 023e
00000240: 9eba febc fa79 1dbe f433 98be 4c83 323e
00000250: 659d d33c 1835 0fbe 5229 2a3e 7896 5cbd
00000260: 5308 6f3d fa48 4dbd 6d33 1abe 1d45 5c3e
00000270: 11a4 183d f891 873d 53e0 abbc 46f8 0f3e
00000280: 91e9 97be 1618 033d 4147 353e f70a 6e3e
00000290: aaad a7be 4196 e43d 8e7b cbbd f01d 26be
000002a0: 2193 2fbe 8b56 01be 92c9 3ebe 207d 03ba
000002b0: ebce 0d3d e646 84be e225 37be 8d6e 7fbe
000002c0: f739 143e 611b bcbd 1365 58bd 43de 0dbe
000002d0: 2d20 5abe b3ea 24be fe25 24be 11c9 603d
000002e0: 7f7a 99bd de1a 1fbe 2fda d63c 05e1 823e
000002f0: 1bf4 1f3e 6a23 383e 8294 dabd 13c1 5e3e
00000300: e57f 623d 1dd3 1cbb 43aa 3cbd dc09 a1be
00000310: 19dc 5bbe 0380 97be eb02 27be 6a1b 1b3e
00000320: 563b aabd e05b 7abe e21d e2bd 83aa 9abe
00000330: 94c9 41bd c962 a8bd fdc7 28bd 50fe 07be
00000340: 035b 323e c772 243d 4237 7cbe 6348 623c
00000350: 1e72 123e 66d7 bbbb 51a2 893e 7f5f 2e3e
00000360: 944e 58be a276 593e 2fc2 ffbd 16d5 0bbe
00000370: 56bc 05be 4f54 00be b89c 10be 1764 9bbe
00000380: 5463 ab3d 2612 0abe d862 3ebe 3144 6ebe
00000390: e9be 48be 4d86 f33d 1458 c63c 63cf a1be
000003a0: 65e0 adbc 887e d93d 0cb0 8cbd ba1f 01be
000003b0: b9a2 7b3d bd4b 8ebd 0b6f a6be e5c7 3a3e
000003c0: c60b ddbd 5a01 3dbe f17d 7dbe 448c 573d
000003d0: 055d a8bc d06c 69be ceca 6bbe d8fc 02be
000003e0: 9905 053e c7e8 3bbe ac24 5dbd c4bc c1bd
000003f0: 4824 7bbe 2efd 8bbd f054 1d3e 60da 23be

Encoder.enc2.weight f4 [40, 256]
-0.0031237463 0.0043604304 0.014372069 -0.0004768076 0.0061306767 -0.0009811776 0.028535824 -0.0047993064
-0.02361566 5.122026e-05 -0.006422403 0.009714925 0.004209616 -0.0034121957 -0.01645009 0.0035941426
-0.001378697 0.0055091423 -0.0026328175 0.026778897 0.018304456 0.019506501 0.010174309 -0.0015955814
0.015553564 -0.003392976 0.0026077393 0.010438701 -0.0115489485 0.007878853 0.016327888 0.001510986
-0.0022117705 0.008142009 -0.00933913 -0.028843436 0.008339842 -0.021617765 -0.0019741305 -0.012726873
-0.002752868 0.015296642 -0.0044593997 -0.007118724 -0.0003921019 -0.0122584 0.03369976 -1.6308648e-05
-0.0021045909 -0.014961889 0.013603109 -0.0026966233 0.011082394 -0.0008130167 0.021553174 -0.01726535
-0.007544658 0.015919732 0.0043636 0.002914098 -0.00314662 -0.013429356 -0.0052151848 0.008568873
0.032621764 -0.0020626779 -0.05367218 -0.007074457 -0.0011753625 0.004929257 0.0039711916 0.030362535
0.008764294 0.0012050262 -0.0103430785 -0.023896009 0.008867406 -0.0054665306 0.0038740651 -0.00016335888
-0.014150569 0.00790848 0.018770905 0.005975577 -0.0024601629 -0.0022361795 0.011523236 -0.0009913814
0.016882256 0.0029552472 -0.0284668 0.0026021732 -0.015198157 -0.017276691 -0.001650773 -0.031216642
-0.001674415 -0.0003320759 -0.0031497627 0.013484556 -0.013893883 -0.003650259 -0.0018952317 0.012390706
0.008845253 2.9058863e-05 0.007331038 0.0029404936 -0.010876517 -0.0015251888 0.004951342 -0.009099685
-0.014943455 0.006530497 0.00779157 0.016155237 -0.0023441105 0.009213734 0.020147927 0.0070923143
0.014352066 -0.002631406 -0.0048743226 -0.0046962434 -0.00041666534 0.0020486226 -0.0018998901 -0.011968403
0.004147843 -0.0008063788 0.023084909 -0.0046173707 -0.0009287121 0.08123739 0.010800071 -0.0013246239
0.01040268 -0.016176496 -0.00913444 0.009399465 0.0043952046 0.0178299 0.023282036 0.008442569
0.01021447 -0.0029388408 -0.00022048522 -0.00964787 0.0077889715 -0.0057714647 -0.0081525585 0.0077861534
-0.00031190758 -0.004696092 0.0023660131 0.014500929 -0.003337412 0.0018315918 -0.0058442773 0.0054930784
-0.000834977 0.009943097 0.008273896 0.024284102 -0.012275683 0.0019737298 0.00053870963 -0.0015628077
-0.005232799 0.00020563841 0.004569011 -0.010576161 -0.010417005 0.0034940226 0.023107465 -0.013820521
0.02415373 0.0009941193 -0.002526104 0.034176253 0.012222679 0.0029662899 0.01748928 0.004345836
0.007905968 -0.0155480355 0.008715818 -0.019853873 0.00053757714 -0.012424249 -0.007941641 0.013242874
0.014826218 0.0017173517 0.0016797661 0.0018306405 -0.012802767 0.02000829 -0.013963049 -0.017762383
-0.013531319 0.0066506066 -0.00056702306 0.0033349765 -0.00624915 -0.018568413 -0.0007095862 2.4527788e-05
0.011544322 -0.0023028697 -0.013900118 0.018881185 0.0058200844 -0.00037635845 0.0026845755 -0.0046264473
0.0012838951 0.00022633841 -0.004758338 0.0044942535 -0.02412492 -0.0015466586 0.009277593 -0.007006671
-0.00865922 -0.016455043 0.0029418475 0.006054502 0.006700566 0.0029405232 -0.016990552 -0.0076710847
-0.003639889 0.003737309 -0.0049841898 0.0073898565 0.0050770314 0.008725404 -0.004960141 0.0062845945
0.005712038 -0.0005310284 0.01216552 -0.0061992127 0.004927237 -0.00088743196 -0.010949386 0.00033953565
0.00042526377 0.024423039 -0.008219857 0.004644011 -0.0001743801 -0.011424028 -0.0004178612 -0.020888349
00000000: c4b7 4cbb f1e1 8e3b d478 6b3c 08fc f9b9
00000010: d8e3 c83b db9a 80ba f6c3 e93c 8043 9dbb
00000020: a175 c1bc 56d5 5638 0573 d2bb 592b 1f3c
00000030: d2f0 893b 259f 5fbb 57c2 86bc b58b 6b3b
00000040: 65b5 b4ba 0986 b43b 598b 2cbb 6b5f db3c
00000050: 3af3 953c 19cc 9f3c 25b2 263c d422 d1ba
00000060: 60d4 7e3c b15c 5ebb 9be6 2a3b 1607 2b3c
00000070: cd37 3dbc 4e16 013c 10c2 853c 470c c63a
00000080: 5af3 10bb 1066 053c 2603 19bc 1249 ecbc
00000090: d5a3 083c bd17 b1bc 6a60 01bb 6084 50bc
000000a0: 7669 34bb c49e 7a3c 2820 92bb 2f44 e9bb
000000b0: 0793 cdb9 75d7 48bc c208 0a3d 8ece 88b7
000000c0: 2ded 09bb b622 75bc 93df 5e3c d5b9 30bb
000000d0: ee92 353c a120 55ba 4890 b03c 1070 8dbc
000000e0: 2e39 f7bb 196a 823c 88fc 8e3b 74fa 3e3b
000000f0: 8637 4ebb cd06 5cbc 24e4 aabb 7564 0c3c
00000100: 669e 053d fe2d 07bb 5cd7 5bbd d9d0 e7bb
00000110: 9f0e 9aba 9b85 a13b c520 823b daba f83c
00000120: 1d98 0f3c f8f1 9d3a 0476 29bc 90c1 c3bc
00000130: 9948 113c 9520 b3bb 07e4 7d3b 514b 2bb9
00000140: cad7 67bc 9292 013c 71c5 993c c6ce c33b
00000150: af3a 21bb de8c 12bb f4cb 3c3c 3df1 81ba
00000160: a84c 8a3c d2ac 413b 3533 e9bc 3989 2a3b
00000170: b101 79bc d987 8dbc c05e d8ba 0bba ffbc
00000180: 0b78 dbba 791a aeb9 406c 4ebb 54ee 5c3c
00000190: 2ba3 63bc 2f39 6fbb 6c69 f8ba 6302 4b3c
000001a0: aeeb 103c 6fc3 f337 3439 f03b 4cb5 403b
000001b0: 6b33 32bc d8e8 c7ba de3e a23b d816 15bc
000001c0: 65d5 74bc c8fd d53b 6d50 ff3b fd57 843c
000001d0: a69f 19bb 34f5 163c 440d a53c a566 e83b
000001e0: ee24 6b3c ab73 2cbb c8b8 9fbb f2e2 99bb
000001f0: e073 dab9 2f42 063b bc05 f9ba 1f17 44bc
00000200: a1ea 873b 2a63 53ba 901c bd3c 504d 97bb
00000210: d074 73ba ca5f a63d c8f2 303c 019f adba
00000220: 0170 2a3c 9284 84bc 9ea8 15bc 3700 1a3c
00000230: a605 903b 0310 923c f8b9 be3c b352 0a3c
00000240: 985a 273c 9199 40bb 0d32 67b9 1a12 1ebc
00000250: a13a ff3b 8e1e bdbb 4f92 05bc fd22 ff3b
00000260: 8787 a3b9 ade1 99bb 1d0f 1b3b 4e95 6d3c
00000270: 7bb8 5abb 0612 f03a 5a81 bfbb 48ff b33b
00000280: 5ce2 5aba 5fe8 223c 3c8f 073c 74ef c63c
00000290: f21f 49bc b159 013b 3138 0d3a 20d7 ccba
000002a0: e677 abbb a4a0 5739 a4b7 953b a247 2dbc
000002b0: 16ac 2abc f9fb 643b de4b bd3c 776f 62bc
000002c0: 0bde c53c 1c4d 823a fe8c 25bb 66fc 0b3d
000002d0: a241 483c 1666 423b ae45 8f3c 8467 8e3b
000002e0: 0988 013c 30bd 7ebc cacc 0e3c 97a4 a2bc
000002f0: 31ec 0c3a 148f 4bbc a81d 02bc a4f8 583c
00000300: aae9 723c c318 e13a 992b dc3a 1af2 ef3a
00000310: b2c2 51bc 6de8 a33c 46c5 64bc 6b82 91bc
00000320: 77b2 5dbc 55ed d93b 46a4 14ba 9f8f 5a3b
00000330: abc5 ccbb c91c 98bc 8603 3aba 06c1 cd37
00000340: 6524 3d3c beeb 16bb 52bd 63bc b7ac 9a3c
00000350: 68b6 be3b fa51 c5b9 b4ef 2f3b 7499 97bb
00000360: 5f48 a83a 4155 6d39 d5eb 9bbb 8844 933b
00000370: a0a1 c5bc 40b9 caba 0c01 183c 3798 e5bb
00000380: 67df 0dbc bacc 86bc 03cc 403b d864 c63b
00000390: 6c90 db3b cbb5 403b c52f 8bbc b95d fbbb
000003a0: 348b 6ebb a4ed 743b 6a52 a3bb 9c26 f23b
000003b0: 3a5d a63b fff4 0e3c ae88 a2bb 00ef cd3b
000003c0: 0c2c bb3b b634 0bba e451 473c c422 cbbb
000003d0: a974 a13b 8da2 68ba 0e65 33bc b403 b239
000003e0: f0f5 de39 d312 c83c 94ac 06bc ca2c 983b
000003f0: cdd9 36b9 d92b 3bbc 6214 dbb9 0b1e abbc

Encoder.enc2.bias f4 [40]
-0.03200283 -0.029763889 -0.024648871 0.019002106 -0.035838053 -0.0074443724 -0.03912207 0.015477229
-0.008590009 -0.0069194944 0.029897539 -0.0068145967 -0.032905124 -0.0016671347 0.005540181 0.009369437
-0.04176343 0.010578138 0.021562941 0.07299697 -0.0013127204 -0.0035228445 0.019639056 -0.16212225
-0.020564903 0.0005814588 0.003157547 0.013969062 -0.021222014 -0.020021902 -0.13889173 -0.16870016
-0.11346081 0.0036366174 -0.015866054 -0.032430932 0.0048881494 -0.11354581 -0.16824062 -0.10341177
00000000: 6615 03bd 66d3 f3bc 6eec c9bc 4eaa 9b3c
00000010: ecca 12bd ecef f3bb 773e 20bd 3494 7d3c
00000020: 1cbd 0cbc edbc e2bb afeb f43c fb4c dfbb
00000030: 86c7 06bd c283 daba 688a b53b 4482 193c
00000040: 2110 2bbd ed4f 2d3c c4a4 b03c 6f7f 953d
00000050: 960f acba 86df 66bb 16e2 a03c 6003 26be
00000060: ba77 a8bc 0a6d 183a d9ee 4e3b 7ede 643c
00000070: cad9 adbc f904 a4bc a239 0ebe bcbf 2cbe
00000080: 245e e8bd 5154 6e3b 87f9 81bc 4cd6 04bd
00000090: c52c a03b b58a e8bd 4547 2cbe 8dc9 d3bd

Decoder.dec1.weight f4 [256, 20]
0.004720347 0.0019536791 0.0035928055 -0.07348403 0.0050046467 -4.527053e-05 -0.0015922643 -0.00052510604
0.0022106788 -0.0005078438 0.08684359 0.24064057 -0.030062508 -0.00028097612 -0.0006348296 0.0022165882
0.000106984415 0.011538429 -0.0029885883 -0.0012506298 0.002962454 0.0016601484 -0.0015508743 0.024973618
-0.0012962039 0.0012372308 -0.0001970912 0.001249117 -0.0033374233 0.0018888855 -0.004464051 0.0003763007
-0.082165524 -0.0019025439 -0.0019083271 0.00030793794 -0.0009103499 -0.0055132005 -0.005696338 -0.0016994936
0.005019163 0.00702903 -0.0048968527 0.16624337 0.002009143 -0.0015925936 0.0010916479 -0.001457391
-0.003977304 -0.00022136196 -0.09658145 0.01476886 -0.0012307068 -0.0031980367 0.0044682287 0.0029360936
0.002233106 0.22869572 0.0660134 -0.01110366 -0.0002514273 -0.00085089303 0.0017875526 0.07210608
-0.0021061748 -0.00048705438 0.0005777645 0.0009525984 0.0005040501 -0.0031021687 -0.049971916 0.0008724171
0.0066584847 0.00042539247 -0.0005790892 0.0005906165 -0.0010771909 -0.009259162 -0.010055412 0.00080853776
-0.003580434 -0.003988415 0.001882242 0.044463035 -0.0030726236 -0.0014299873 -0.008486321 0.0073038936
0.0037675952 -0.0041742385 -0.06711803 0.0027564603 -0.013646464 0.006877818 0.0029363642 -0.00019035632
-0.0006914177 -0.014746882 0.31836274 -0.0062833005 0.009047715 0.004894133 -0.00596935 0.03879092
0.006230198 0.0014171005 -0.0030122728 -0.00172353 0.0011958438 0.0070223417 -0.11429347 0.033711817
0.032219406 0.0011463409 -7.988277e-05 0.0016679841 0.0012888168 -0.0050630826 -0.006410647 -0.14883995
-0.005553589 0.0025644035 -0.0025676165 -0.11538529 0.00341571 -0.0067239963 0.0004217959 0.006292139
-0.0026155673 -0.011392541 0.07336163 0.06329143 -0.19488402 0.010035436 0.0016760743 -0.006895393
-0.0012294095 0.024993459 0.008082485 -0.0214146 0.004448406 0.006515647 -0.0021496888 0.09692595
0.00028117024 0.0023888447 -0.0024095997 0.0017097926 -0.0023256347 0.0021305915 -0.014029564 -0.0011753972
0.01941392 0.002190841 -0.0021791824 -0.00069924153 0.010155088 -0.0062564923 -0.0017291986 0.042489175
-0.0040054987 -0.004425301 0.0037431333 -0.12663263 0.0035956795 0.0015376321 0.0045805424 0.0001376354
-0.0022120061 0.00027353465 -0.13417481 -0.0064826882 0.024322113 0.0057258704 -0.002066397 0.004223843
-0.0006601896 -0.0022655223 0.010020667 -0.016127205 -0.0011354806 0.0018789595 -1.1084586e-05 0.06642486
-0.0009817329 -0.00050576683 -0.0018001396 0.0016677041 0.0008953885 -0.0009277179 -0.045729548 -0.0022414145
0.0063870195 -0.0020844443 0.00076722854 0.00061470777 -0.0018718798 -0.010006748 -0.00866062 -0.00088997546
-0.003033525 0.0027110344 0.0012697865 0.021878207 -0.00034252685 -0.0012838598 0.0052741715 -0.0013891938
0.0005463349 0.0012605578 0.08179616 -0.04355519 0.020594528 -0.004669357 -0.0020125713 0.0026946885
-0.003475826 -0.0011420536 -0.013627736 -0.0052559976 0.0013622988 -0.0009917066 -0.0011050774 0.14851166
0.0010006049 -0.0010619477 -0.00016736817 -0.0044397973 0.0035177548 -0.005780012 0.0659963 0.02172393
0.07168959 -0.0026589206 -0.004842839 -0.001518405 -0.00059457636 -0.0021815351 0.009173577 0.006931421
0.005077757 -0.0033483624 -0.0029346033 0.051029526 0.0013098221 -0.004723983 -0.0025136902 -0.0021854863
0.0017646122 -0.0029598533 -0.024964955 -0.073798455 -0.22246161 0.0018406431 -0.0013872761 0.0017861826
00000000: 24ad 9a3b 4c09 003b 4675 6b3b cc7e 96bd
00000010: 05fe a33b dde0 3db8 86b3 d0ba 45a7 09ba
00000020: 09e1 103b d220 05ba 0ddb b13d 7b6a 763e
00000030: a645 f6bc fa4f 93b9 b16a 26ba 2e44 113b
00000040: d25c e038 ae0b 3d3c 31dc 43bb 2cec a3ba
00000050: bb25 423b 5699 d93a b546 cbba 7995 cc3c
00000060: 63e5 a9ba 942a a23a 44aa 4eb9 69b9 a33a
00000070: acb8 5abb 7b94 f73a 2d47 92bb 3a4a c539
00000080: 6646 a8bd c85e f9ba d520 faba bb72 a139
00000090: 8ca4 6eba 14a8 b4bb 59a8 babb 8bc1 deba
000000a0: ca77 a43b c753 e63b c775 a0bb b43b 2a3e
000000b0: d3ab 033b 93be d0ba a015 8f3a ed05 bfba
000000c0: 0b54 82bb 661d 68b9 7fcc c5bd 17f9 713c
000000d0: ab4f a1ba 2796 51bb 386a 923b 7a6b 403b
000000e0: 4d59 123b 362f 6a3e 0932 873d 20ec 35bc
000000f0: 00d2 83b9 770e 5fba 504c ea3a 5aac 933d
00000100: c007 0abb 555b ffb9 1f75 173a ccb7 793a
00000110: 3b22 043a c14d 4bbb 5aaf 4cbd ecb2 643a
00000120: 6b2f da3b 3607 df39 05ce 17ba 9ad3 1a3a
00000130: 8730 8dba bdb3 17bc 74bf 24bc 0df4 533a
00000140: b7a5 6abb 40b1 82bb 90b5 f63a df1e 363d
00000150: 125e 49bb 696e bbba 360a 0bbc 8055 ef3b
00000160: c2e9 763b 0dc8 88bb 2d75 89bd bba5 343b
00000170: 6b95 5fbc 525f e13b 0470 403b 639a 47b9
00000180: 4240 35ba e89c 71bc 7100 a33e 25e4 cdbb
00000190: de3c 143c f75e a03b 8a9a c3bb 3ae3 1e3d
000001a0: b026 cc3b 01be b93a 8d69 45bb 12e8 e1ba
000001b0: dcbd 9c3a ac1b e63b b212 eabd 6715 0a3d
000001c0: 7ff8 033d d140 963a bc86 a7b8 42a0 da3a
000001d0: 84ed a83a 37e8 a5bb 6810 d2bb 8069 18be
000001e0: e2fa b5bb 8d0f 283b 7545 28bb 1f4f ecbd
000001f0: 1bda 5f3b f854 dcbb 7d24 dd39 4a2e ce3b
00000200: f069 2bbb c8a7 3abc 9f3e 963d f09e 813d
00000210: ad8f 47be ab6b 243c b9af db3a c0f2 e1bb
00000220: 2324 a1ba 15bf cc3c 666c 043c ac6d afbc
00000230: efc3 913b 3581 d53b cbe1 0cbb 1d81 c63d
00000240: 086a 9339 2a8e 1c3b 60ea 1dbb 1f1b e03a
00000250: ad69 18bb 65a1 0b3b 42dc 65bc c90f 9aba
00000260: f109 9f3c 3694 0f3b 9dd0 0ebb 4e4d 37ba
00000270: 8761 263c 4303 cdbb 47a6 e2ba 2109 2e3d
00000280: 8f40 83bb 1e02 91bb 5b4f 753b fcab 01be
00000290: 7ea5 6b3b 5f8a c93a 6018 963b 3952 1039
000002a0: 4ef7 10bb 3369 8f39 1f65 09be bb6c d4bb
000002b0: 2b3f c73c 15a0 bb3b 646c 07bb 2a68 8a3b
000002c0: 9310 2dba 2879 14bb b92d 243c 331d 84bc
000002d0: 68d4 94ba 6b47 f63a eff7 39b7 c209 883d
000002e0: 7dad 80ba 7095 04ba a9f2 ebba dd96 da3a
000002f0: 81b8 6a3a 1832 73ba e84e 3bbd b2e4 12bb
00000300: 344a d13b 2c9b 08bb d61f 493a 5724 213a
00000310: dd59 f5ba 58f3 23bc 46e5 0dbc 3e4d 69ba
00000320: 1bce 46bb 9cab 313b f76e a63a ed39 b33c
00000330: 2d95 b3b9 3047 a8ba f5d2 ac3b 9c15 b6ba
00000340: ea37 0f3a 4d39 a53a bf84 a73d ed66 32bd
00000350: dbb5 a83c 6801 99bb 58e5 03bb 5f99 303b
00000360: afca 63bb f6b0 95ba de46 5fbc 813a acbb
00000370: 2a8f b23a 27fc 81ba 3fd8 90ba 7113 183e
00000380: bb26 833a 0d31 8bba 8d7f 2fb9 b87b 91bb
00000390: 228a 663b 4166 bdbb 1129 873d 62f6 b13c
000003a0: fed1 923d 4941 2ebb aeb0 9ebb 3805 c7ba
000003b0: 58dd 1bba 16f8 0ebb c54c 163c f920 e33b
000003c0: 5063 a63b 3370 5bbb 7952 40bb 5604 513d
000003d0: 56ae ab3a a4cb 9abb b9bc 24bb 603a 0fbb
000003e0: 8f4a e73a 19fa 41bb 4e83 ccbc a523 97bd
000003f0: facc 63be bc41 f13a 43d5 b5ba 581e ea3a

Decoder.dec1.bias f4 [256]
-0.12994052 0.03658355 -0.14736548 0.08810324 -0.2850576 -0.09517022 -0.15931402 -0.004221699
-0.1029283 0.080061644 0.09703557 -0.10498255 -0.15913454 -0.06832502 -0.25900865 0.023316598
0.021108786 0.023136616 0.0022126976 -0.15225314 -0.32566145 0.03507879 -0.2128992 0.028267952
-0.04431888 -0.08761745 -0.013754496 0.009312844 0.0249644 0.020825725 0.028634857 -0.11259257
0.002164363 -0.25876465 -0.66795295 0.04555409 -0.22851059 0.016903697 0.03609363 -0.26799667
-0.32915747 -0.12865399 -0.26473784 0.0070927492 -0.07289352 0.01916874 -0.01017117 0.025820814
0.021245826 -0.0064532836 0.045836885 -0.11529438 -0.2566476 -0.0037604922 -0.0049791653 -0.003588575
0.021504465 -9.348291e-05 0.011707635 -0.19323204 0.0064221355 0.034220424 0.012686203 0.047179915
-0.11148389 -0.047336284 -0.062387824 0.006210084 0.0046979114 -0.3268123 -0.011647536 -0.08115087
0.009985599 -0.38129815 -0.0016515093 0.052135956 -0.23930107 0.08642021 0.12182533 0.005739875
0.03375848 0.088055484 -0.22593607 -0.04874546 -0.37792242 0.13054222 -0.22999443 -0.08959977
0.009881742 -0.065328434 0.039897963 -0.014270254 0.07841242 0.08834797 0.026292851 -0.20810111
0.046619095 0.017656589 0.010059957 -0.051440373 0.024130756 -0.055009786 0.017711205 -0.32027
0.1085619 -0.2660717 -0.11411982 0.029334994 -0.016051052 0.025301227 -0.11354892 -0.2983967
-0.00886489 0.028578114 0.02992117 0.021973647 0.03693931 0.019592153 -0.00066633796 0.028601997
-0.03169612 -0.013892226 0.15029201 -0.34841603 -0.08558701 -0.3467897 0.048104763 -0.3685798
-0.13844886 -0.00169608 -0.017787805 0.0130946655 -0.015049993 0.0186394 0.00029775512 -0.089995734
-0.55125916 -0.021279734 -0.15325291 0.008399021 -0.20459288 -0.14631513 0.024269398 0.006190618
-0.07801862 0.023340005 -0.2776352 -0.0075384052 0.16788568 -0.33632192 -0.040261883 0.025516374
-0.13979053 -0.32962227 0.025569042 -0.016431144 0.015085286 0.0007328794 -0.11238489 0.014384866
-0.053849712 -0.05987682 -0.23722512 -0.006437541 0.029791435 -0.29360384 0.03562757 0.0816833
0.0609371 0.021745846 0.11025595 0.0007976438 -0.19253908 0.025657702 -0.09392047 -0.0929043
-8.878753e-05 0.0126994215 -0.18824814 -0.010989915 -0.06382111 0.022182588 -0.06768256 0.08363201
0.029391747 0.048601482 -0.19470716 0.02246329 -0.09788075 0.07178778 0.012824511 0.0055039884
-0.067480475 0.032871164 -0.08995562 0.114640035 0.064802885 0.046799798 0.055991407 0.005597135
0.009812747 0.11084468 -0.0003982169 0.02010245 0.037459284 -0.10848435 0.03895474 -0.082263574
-0.106884815 -0.47249407 -0.029813161 -0.091733314 -0.03003633 0.04844186 -0.012455688 0.014670841
0.026325302 -0.17706487 0.03040741 -0.2829086 0.022142336 -0.0053674313 0.047806304 -0.10341476
-0.06799876 -0.06554303 0.023319962 -0.20660605 -0.043002963 0.013021471 -0.016049257 -0.08016026
-0.07412185 -0.011468505 0.028072469 -0.33726013 -0.2129786 -0.023305815 -0.26041782 0.01834344
-0.3723033 0.04738851 0.03904459 -0.00628163 0.02229611 -0.11406717 -0.073043965 -0.13948257
0.009213008 -0.14203638 0.041695822 0.01340157 0.029373102 -0.04626652 -0.22805053 -0.13137127
00000000: 210f 05be a2d8 153d fae6 16be 796f b43d
00000010: 12f3 91be 9be8 c2bd 3723 23be 2e56 8abb
00000020: 13cc d2bd 5cf7 a33d 96ba c63d 1701 d7bd
00000030: 2af4 22be fded 8bbd c89c 84be 7302 bf3c
00000040: 55ec ac3c 0089 bd3c e802 113b 3fe8 1bbe
00000050: 19bd a6be c7ae 0f3d 3f02 5abe 3192 e73c
00000060: b787 35bd c770 b3bd 8a5a 61bc e694 183c
00000070: 2482 cc3c b69a aa3c a693 ea3c ef96 e6bd
00000080: fcd7 0d3b cd7c 84be f7fe 2abf ed96 3a3d
00000090: aefe 69be 9f79 8a3c ead6 133d dc36 89be
000000a0: 5487 a8be dfbd 03be b88b 87be 4b6a e83b
000000b0: 3349 95bd c307 9d3c fba4 26bc 2c86 d33c
000000c0: ba0b ae3c 1176 d3bb 75bf 3b3d 761f ecbd
000000d0: 5067 83be 9772 76bb 4428 a3bb 4c2e 6bbb
000000e0: 222a b03c 410c c4b8 61d1 3f3c 9fde 45be
000000f0: c770 d23b b72a 0c3d cbd9 4f3c ba3f 413d
00000100: aa51 e4bd b1e3 41bd 608a 7fbd f67d cb3b
00000110: f0f0 993b f153 a7be 4fd5 3ebc 6d32 a6bd
00000120: a39a 233c 8339 c3be 7577 d8ba 838c 553d
00000130: 570b 75be 14fd b03d 8f7f f93d 9015 bc3b
00000140: 5546 0a3d 6f56 b43d c95b 67be 52a9 47bd
00000150: 0c7f c1be dcac 053e a983 6bbe 1680 b7bd
00000160: 08e7 213c eaca 85bd 0c6c 233d c9cd 69bc
00000170: b196 a03d c8ef b43d 1b64 d73c 7518 55be
00000180: aaf3 3e3d 8da4 903c 85d2 243c 24b3 52bd
00000190: ddad c53c f151 61bd 1717 913c 6efa a3be
000001a0: b455 de3d 8d3a 88be a7b7 e9bd f14f f03c
000001b0: 7f7d 83bc 8544 cf3c 568c e8bd 74c7 98be
000001c0: 0b3e 11bc a61c ea3c 3e1d f53c 1402 b43c
000001d0: ad4d 173d b97f a03c 2fad 2eba bc4e ea3c
000001e0: cad3 01bd 389c 63bc 26e6 193e 9663 b2be
000001f0: 3e48 afbd 6b8e b1be 8009 453d 7eb6 bcbe
00000200: 8ac5 0dbe 004f deba bbb7 91bc 028b 563c
00000210: 3f94 76bc a8b1 983c 041c 9c39 af4f b8bd
00000220: 521f 0dbf d652 aebc 55ee 1cbe 0c9c 093c
00000230: cc80 51be a2d3 15be 9ed0 c63c abda ca3b
00000240: 3ac8 9fbd 8a33 bf3c 3326 8ebe ba04 f7bb
00000250: 39ea 2b3e 6332 acbe a5e9 24bd b707 d13c
00000260: 4025 0fbe 40c4 a8be 2b76 d13c 9b9a 86bc
00000270: 4728 773c b41e 403a 0d2a e6bd 80ae 6b3c
00000280: 8491 5cbd 6541 75bd 24eb 72be 02f2 d2bb
00000290: 2b0d f43c 3e53 96be 37ee 113d 9349 a73d
000002a0: 2e99 793d 5824 b23c dfcd e13d f818 513a
000002b0: f728 45be 1a30 d23c 6059 c0bd 9c44 bebd
000002c0: 7133 bab8 3c11 503c 1fc4 40be 0b0f 34bc
000002d0: a4b4 82bd 42b8 b53c 279d 8abd 4247 ab3d
000002e0: f6c6 f03c 5912 473d 5061 47be ef04 b83c
000002f0: b475 c8bd 7905 933d e61d 523c cd5a b43b
00000300: 3433 8abd eaa3 063d a73a b8bd 65c8 ea3d
00000310: 60b7 843d 25b1 3f3d 3f57 653d 2c68 b73b
00000320: a5c5 203c 8902 e33d c4c7 d0b9 e5ad a43c
00000330: e86e 193d 0b2d debd 018f 1f3d ce79 a8bd
00000340: 6de6 dabd beea f1be bb3a f4bc adde bbbd
00000350: c00e f6bc f96a 463d f112 4cbc f85d 703c
00000360: 29a8 d73c 7e50 35be f618 f93c 65d9 90be
00000370: d863 b53c 47e1 afbb 8bd0 433d 1ecb d3bd
00000380: ef42 8bbd 6d3b 86bd 8109 bf3c 8990 53be
00000390: e023 30bd 0258 553c bb79 83bc 102b a4bd
000003a0: 32cd 97bd 65e6 3bbc 3cf8 e53c 5cad acbe
000003b0: 1017 5abe d6eb bebc 7c55 85be fb44 963c
000003c0: 8a9e bebe 741a 423d 38ed 1f3d 22d6 cdbb
000003d0: 55a6 b63c 0c9c e9bd 1398 95bd 85d4 0ebe
000003e0: 28f2 163c fc71 11be 3dc9 2a3d 4292 5b3c
000003f0: dc9f f03c f681 3dbd 1486 69be 3186 06be

Decoder.dec2.weight f4 [31, 256]
0.14496766 -0.03374029 0.026323756 0.2577044 0.11307477 -0.0811124 0.05740789 0.42739877
0.33217067 0.062297277 -0.11473577 0.14864764 -0.16841279 0.060280133 -0.06350912 0.111485586
0.003023952 0.039672703 -0.26507574 0.10750332 0.0944059 -0.6940472 0.35332394 0.02199292
0.042344574 -0.41508195 0.018146832 0.5249601 0.036269147 0.29139873 0.027540572 -0.056666728
-0.14236729 -0.042874087 -0.95910966 -0.010981634 -0.0033085265 -0.7126192 0.0205426 0.013415636
-0.0061892807 -0.26485538 0.012663753 0.111113735 -0.03020952 -0.37255457 -0.16190691 0.053690203
-0.58611375 0.1342926 -0.5802964 0.08156735 0.013204827 0.32637808 0.4517974 0.41417775
-0.54248434 -0.42447862 0.03501583 0.059992697 0.13767293 -0.9149073 0.36610246 -0.025295168
-0.044798393 0.067454584 0.078555875 0.118952505 0.15209892 -0.0035534685 -0.026636697 0.20018394
-0.4934742 0.12633146 0.5258602 -0.9336914 0.026383964 -0.42890444 0.11540593 0.11995447
-0.9742593 -0.31029496 0.018499635 0.46996763 0.07824625 -0.06498938 -0.029196832 0.0803604
-0.6313627 -0.019675404 0.017817544 -0.43997443 -0.0025653911 -0.77052814 -0.60213584 0.0063737305
0.056416404 -0.24426003 0.08106103 0.038556706 -0.82283676 0.022771057 0.31795534 0.018937849
-0.37966618 -0.021878336 -0.023708688 -0.5262961 -0.029485526 -0.007265901 0.043535892 0.09898995
-0.67959714 -0.010966488 -0.036442623 0.36778045 -0.582928 -0.98053265 -0.0496622 0.3801764
0.18342413 -0.16228753 -0.30065092 -0.047316723 -0.061084744 -0.12934275 0.01507934 -0.47346222
-0.026682034 0.47944048 0.19327833 0.09669392 0.34389207 0.05963315 -0.07046578 -0.13113022
-0.39472133 0.21759427 -0.07115825 -0.78729075 -0.14147586 -0.011147095 0.0050097657 0.27694887
-0.020612728 -0.20726676 0.5600041 -0.0807116 -0.11162093 -0.060580958 0.04350603 -0.71749043
-0.11189694 -0.07908461 -0.0040854453 -0.022437407 -0.14812994 0.5763768 -0.13703927 -0.8480219
0.15298365 0.33636653 0.31646174 -0.39830336 -0.037939724 -0.045897134 0.08539261 -0.004408181
0.3717802 -0.01730696 -0.47138864 -0.2992856 0.0065833996 0.009813585 0.03411897 0.082814544
-0.5296042 0.47100726 0.06553808 0.14746553 0.3789291 0.0028499668 0.15265949 -0.27996096
0.051255796 -0.0005495237 0.03212943 -0.032213762 -0.42858857 -0.7039646 -0.41792172 0.08446396
-0.14328128 0.14084305 0.022341719 -0.11206519 0.08372286 -0.02308542 0.21213809 -0.33805332
-0.15411614 0.19690147 -0.53715014 -0.03267448 0.018509373 -0.006194134 0.2193507 0.15288386
-0.056644376 -0.023513205 -0.23437482 0.09613657 0.01613155 0.013209715 0.19420251 -0.015866537
0.008767959 -0.07641981 0.2277672 -0.033020023 0.15754578 -0.4291545 0.013478601 -0.067206435
-0.44648147 -0.3173168 -0.012675027 -0.00528816 0.039516952 -0.08668144 0.06555806 -0.3147716
0.12442263 -0.14679517 -0.040772293 0.12184775 0.12432777 0.027993193 -0.0037489303 0.01326083
0.048989497 0.015567403 0.047218114 0.16059323 0.4422153 0.058451254 0.50095296 0.0858835
-0.39840308 -0.15147208 0.18308544 -0.4814967 0.010424875 0.2697961 -0.0013301938 0.3009235
00000000: 6772 143e 4233 0abd eba4 d73c d5f1 833e
00000010: bf93 e73d 421e a6bd 8924 6b3d 03d4 da3e
00000020: 4612 aa3e 6e2b 7f3d 96fa eabd 1637 183e
00000030: 6774 2cbe 4de8 763d 1211 82bd 8e52 e43d
00000040: 7f2d 463b d87f 223d 02b8 87be b32a dc3d
00000050: e157 c13d 14ad 31bf e0e6 b43e 7f2a b43c
00000060: 8171 2d3d 9f85 d4be aaa8 943c c963 063f
00000070: f58e 143d 3732 953e c49c e13c 5f1b 68bd
00000080: bbc8 11be bd9c 2fbd 3688 75bf 50ec 33bc
00000090: ddd3 58bb 366e 36bf f448 a83c 41cd 5b3c
000000a0: 73cf cabb 209b 87be a17b 4f3c 998f e33d
000000b0: f579 f7bc 79bf bebe edca 25be 42ea 5b3d
000000c0: 8d0b 16bf 0084 093e 4e8e 14bf c80c a73d
000000d0: 0f59 583c 071b a73e fd51 e73e 1b0f d43e
000000e0: 41e0 0abf 4355 d9be c26c 0f3d e7ba 753d
000000f0: 22fa 0c3e 5d37 6abf c871 bb3e d037 cfbc
00000100: 857e 37bd a125 8a3d e7e1 a03d 5f9d f33d
00000110: d2bf 1b3e 4fe1 68bb 3435 dabc 05fd 4c3e
00000120: a6a8 fcbe 095d 013e c69e 063f 6606 6fbf
00000130: 2f23 d83c 5d99 dbbe f259 ec3d b0aa f53d
00000140: 0f69 79bf fbde 9ebe 8c8c 973c 999f f03e
00000150: 923f a03d 2719 85bd 322e efbc fe93 a43d
00000160: fca0 21bf 502e a1bc 19f6 913c 5444 e1be
00000170: 1f20 28bb 5541 45bf 9325 1abf bada d03b
00000180: e314 673d 4d1f 7abe 5303 a63d a3ed 1d3d
00000190: 6ea5 52bf 5e8a ba3c 0bcb a23e 8c23 9b3c
000001a0: 9b63 c2be 323a b3bc b938 c2bc 57bb 06bf
000001b0: a18b f1bc cc16 eebb b152 323d 3ebb ca3d
000001c0: 14fa 2dbf c9ac 33bc dc44 15bd b84d bc3e
000001d0: c53a 15bf 3004 7bbf 976a 4bbd 7ba6 c23e
000001e0: 89d3 3b3e b42e 26be ebee 99be 2ecf 41bd
000001f0: ff33 7abd 6d72 04be 560f 773c a469 f2be
00000200: 4894 dabc 3979 f53e c1ea 453e 7607 c63d
00000210: 9f12 b03e e441 743d 5d50 90bd 0047 06be
00000220: ea18 cabe 08d1 5e3e 6bbb 91bd e38b 49bf
00000230: 0cdf 10be 4ea2 36bc f628 a43b 3ecc 8d3e
00000240: 06dc a8bc bd3d 54be 6e5c 0f3f 204c a5bd
00000250: 8499 e4bd bd23 78bd 6133 323d 74ad 37bf
00000260: 392a e5bd 1df7 a1bd 33df 85bb a7ce b7bc
00000270: 60af 17be 6e8d 133f 0654 0cbe f717 59bf
00000280: bfa7 1c3e 3c38 ac3e 4607 a23e 6bee cbbe
00000290: af66 1bbd a2fe 3bbd 52e2 ae3d 8172 90bb
000002a0: f959 be3e 53c7 8dbc da59 f1be f63b 99be
000002b0: 8fb9 d73b 29c9 203c 55c0 0b3d ac9a a93d
000002c0: 2494 07bf dd27 f13e d438 863d 3401 173e
000002d0: ff02 c23e 82c6 3a3b c552 1c3e 0b57 8fbe
000002e0: 99f1 513d e90d 10ba 269a 033d 94f2 03bd
000002f0: f66f dbbe 0637 34bf d6f9 d5be 71fb ac3d
00000300: 54b8 12be 2939 103e fb05 b73c 6f82 e5bd
00000310: e476 ab3d a21d bdbc ba3a 593e 5315 adbe
00000320: 9fd0 1dbe 8aa0 493e ac82 09bf add5 05bd
00000330: f8a0 973c 29f8 cabb 789d 603e 968d 1c3e
00000340: ef03 68bd c49e c0bc f4ff 6fbe 40e3 c43d
00000350: 5026 843c 8f6d 583c 06dd 463e 8afa 81bc
00000360: 7ca7 0f3c fd81 9cbd ce3b 693e 0140 07bd
00000370: ae53 213e 23ba dbbe 5ad5 5c3c 87a3 89bd
00000380: 3899 e4be 5977 a2be ebaa 4fbc 4d48 adbb
00000390: 87dc 213d 0a86 b1bd 4e43 863d be29 a1be
000003a0: 4bd1 fe3d 7951 16be d900 27bd 508b f93d
000003b0: 8f9f fe3d fb51 e53c 9db0 75bb f443 593c
000003c0: 36a9 483d 6c0e 7f3c c867 413d 8d72 243e
000003d0: 0b6a e23e 956a 6f3d 743e 003f b0e3 af3d
000003e0: 7dfb cbbe 7f1b 1bbe c07a 3b3e bc86 f6be
000003f0: 18cd 2a3c b722 8a3e e659 aeba a512 9a3e

Decoder.dec2.bias f4 [31]
-0.28593892 0.048480287 1.7754093 -0.13246103 2.5139277 0.21168977 -1.9036505 -1.5493625
1.1580551 0.38949168 1.2478226 -1.5047905 1.8918847 -1.2307276 -0.07434702 0.20960344
-0.08620239 -1.0911033 -0.09763506 -1.0243667 -1.8423307 -0.18600716 0.025961766 3.4438515
0.19505641 -0.080607645 0.14060393 2.3548992 0.27459812 -0.038213726 0.051897977
00000000: 9666 92be 4493 463d 9d40 e33f dda3 07be
00000010: 31e4 2040 34c5 583e d2aa f3bf 8351 c6bf
00000020: 263b 943f 746b c73e a7b8 9f3f fa9c c0bf
00000030: 4729 f23f 7b88 9dbf 4043 98bd 49a2 563e
00000040: e18a b0bd 46a9 8bbf e4f4 c7bd 731e 83bf
00000050: 7ed1 ebbf a978 3ebe c5ad d43c 1068 5c40
00000060: debc 473e 9f15 a5bd 7afa 0f3e abb6 1640
00000070: 2098 8c3e ff85 1cbd f992 543d
