results/3_niid/model_favg_n_2_m_0.pt (torch, 121540 bytes, 8 tensors)

Encoder.enc1.weight f4 [256, 22]
000000 68 ef 25 be b7 39 55 3d 08 2b 3f be 55 3d 95 3c
       -0.16204607 0.052056994 -0.18668759 0.018217722
000010 d1 d2 35 bd 70 58 9a bd a2 35 67 bd ac 93 0f be
       -0.044390503 -0.07536399 -0.056447633 -0.14021176
000020 41 c8 4e bd 4e 61 6b 3d 19 5e 31 bc 3e 31 e0 bd
       -0.050483946 0.057465844 -0.010825657 -0.10946892
000030 cc 8a a6 3d 58 dd d9 3d b9 90 83 bd 61 00 30 bd
       0.08131942 0.10637921 -0.06424088 -0.04296911
000040 82 c9 97 3d ef 9e 2b 3d 63 bf 38 3d 0a e8 07 bc
       0.074114814 0.041899618 0.045104396 -0.0082950685
000050 e0 13 94 39 be 09 8c 3c e6 77 47 3c 16 47 30 bd
       0.00028243568 0.01709449 0.012174582 -0.043036543
000060 68 ef 99 be a8 35 51 3c c1 2e 0b 3d 75 90 cd 3c
       -0.30065465 0.01276914 0.033980135 0.025093297
000070 2a 4f ee 3c 5d b0 ae bc d5 22 4c bc 97 5d e5 bc
       0.029090483 -0.021324331 -0.0124594765 -0.027998729
000080 1b 1d 26 3d 7a b6 45 bc 1f 41 33 3d bd 00 c0 36
       0.0405551 -0.012067432 0.043763276 5.722132e-06
000090 91 4b 44 3c 5a b5 5f bd 06 51 37 3c 31 3b e5 3c
       0.011980907 -0.05461631 0.011188751 0.027982326
0000a0 fb 5a 14 3c 6d 7d 6e 3d a5 5f 3e 3b 3b 20 21 bc
       0.009054895 0.058225084 0.0029048708 -0.0098343445
0000b0 16 03 5e be a2 31 98 bd 6e 9d 6c be 7b 74 6a 3d
       -0.21680865 -0.07431342 -0.2310693 0.05723999
0000c0 08 7f 8a bd 2b e7 00 bd ca 7c 41 3d 5b 6f e7 ba
       -0.067625105 -0.03147046 0.04723815 -0.0017657088
0000d0 2c 05 ab 3d da 4c 2b be de a6 3d 3e 1c b9 2b be
       0.08350596 -0.16728535 0.18520686 -0.16769832
0000e0 df 20 bd 3d 27 f9 c9 3c d7 bc 4a 3d 2a 2c 0a be
       0.09234785 0.024654938 0.049496498 -0.1349341
0000f0 2f 4c c8 bd 51 93 6d be 04 a1 d6 3d 8a 08 dc 3b
       -0.09780156 -0.23200728 0.1047993 0.006714885
000100 9b b8 c0 3c 95 17 24 be d4 63 ee 3c 73 d5 c4 bd
       0.023525527 -0.16024621 0.029100336 -0.09611025
000110 d7 40 ab bd cd 9e f5 3b bc bd d7 bb e6 60 8b 3d
       -0.083619766 0.007495737 -0.0065838974 0.06805591
000120 5a 48 a7 bb b2 41 cb bd 80 ac 4f 3c e5 42 49 be
       -0.0051050605 -0.0992464 0.012675405 -0.19654424
000130 80 a6 86 3d 5f d1 29 be e2 29 73 bc 54 f7 2f bc
       0.06574726 -0.16583775 -0.014841529 -0.01074012
000140 72 99 47 bd ce 73 8f bc ae d8 aa bd ef 75 80 bd
       -0.04873032 -0.017511275 -0.083421096 -0.06272494
000150 fa 94 6b 3c 18 22 76 3c b4 e5 b1 3d 9c 9b 2d 3d
       0.0143787805 0.015022777 0.086863905 0.04238473
000160 c9 95 c5 3c 58 31 16 bd ae 8f 90 3c 5b ba 8c bb
       0.024119275 -0.03666815 0.017646637 -0.0042946762
000170 3c b9 75 3c 5d a3 3e 3d b3 10 63 3c c4 75 11 3d
       0.014997777 0.046542514 0.013858962 0.0355127
000180 0f 6a 88 3c 9f 95 61 3c 0b 51 4b 3d 92 c8 7a 3c
       0.016652135 0.013768583 0.049637835 0.015306609
000190 49 9f 18 3d bc a8 24 bc ef 33 03 3d 50 12 00 3a
       0.03726128 -0.010049995 0.03203195 0.0004885541
0001a0 a2 9f c9 39 bb cc f4 3c a2 5e 48 3b 6f fc 84 3b
       0.00038456643 0.02988278 0.0030573984 0.0040584127
0001b0 c2 79 23 3b f7 34 de 39 db 0e 1a bc 28 57 75 bc
       0.00249444 0.00042382602 -0.009402956 -0.014974393
0001c0 4f 78 fb bd c4 0f 87 3b 00 b2 86 be d7 b8 6c bd
       -0.122788064 0.0041217525 -0.26307678 -0.057793465
0001d0 b4 87 4c bb 8d b4 84 be 1c 67 37 be 36 73 20 be
       -0.0031208815 -0.25919 -0.17910427 -0.1566895
0001e0 1a 58 19 3b 78 1f ab be 82 e0 66 be 57 38 7a 3c
       0.002339846 -0.33422446 -0.2254658 0.0152722215
0001f0 ac 81 96 3d 02 de 90 bd f4 06 bf 3d 7e db b1 bd
       0.07348952 -0.07073595 0.09327498 -0.08684443
000200 a3 3d bf 3d 0f 6c ac 3c 41 3a ea 3d 33 14 06 be
       0.09337928 0.02104762 0.11436892 -0.13093643
000210 aa 3d 07 bd 31 20 eb bd 9b 43 72 be 14 dd 61 3c
       -0.03301779 -0.114807494 -0.23658602 0.013785619
000220 95 a7 c0 3d f1 8d cb 3c 07 4e 14 3d 59 c6 0f be
       0.09406964 0.024847956 0.036207225 -0.14040507
000230 36 d4 e7 3d fd 96 36 be 43 15 01 be c8 91 b5 bd
       0.11319773 -0.17831035 -0.12605767 -0.08865696
000240 b3 d7 13 3d ea 38 0c 3d 13 ec 21 3d 3c ba 6e bd
       0.03609438 0.034233965 0.03953178 -0.058283076
000250 de ad 14 be 20 04 2b be f9 a3 a0 3d e1 17 2e 3d
       -0.1451945 -0.16700792 0.07843775 0.04250324
000260 5f 99 b5 bb c6 a2 71 bc 35 93 6b bd 58 df d5 bc
       -0.005541965 -0.014748281 -0.057513434 -0.026107475
000270 90 af 50 be 73 39 ab 3b 57 54 06 bd f1 e2 55 3c
       -0.20379472 0.0052253543 -0.032795276 0.013054595
000280 ef 96 b9 bd f5 5e 2e be 22 c1 b6 bc fc 4c 4a bd
       -0.090619914 -0.1702841 -0.02230889 -0.049389824
000290 df e1 22 be 9f f3 75 bd ec 2a ae bd 55 69 70 bd
       -0.15906475 -0.06004679 -0.085042804 -0.058694202
0002a0 42 b4 f9 3c 71 f2 32 3d 58 da 91 bd 7e 56 dc bd
       0.030481461 0.04368824 -0.07121724 -0.107586846
0002b0 b5 2f 8e 3c ce 1b 2a bd 51 bf b6 3d ad c5 b8 bd
       0.017356733 -0.041530423 0.089232095 -0.09022079
0002c0 a4 4a 8d bd c6 b2 9a 3c 31 79 7a be 3a 94 ca bc
       -0.06899002 0.018884074 -0.24460293 -0.024728883
0002d0 a8 ba 4c bd 7c e9 88 bc 68 ff ae bc 9f 54 d8 3c
       -0.049982697 -0.016712897 -0.021362022 0.026407538
0002e0 df ac 92 3c 2d 63 19 3d af a1 4f 3d 8b ce 69 bd
       0.017904697 0.037448097 0.050691303 -0.05708174
0002f0 e3 cf e0 bd e9 85 52 bb c0 1b 38 3d dd ec 44 3d
       -0.10977151 -0.0032123274 0.04494834 0.048077453
000300 5e d3 db bd 92 d0 10 bd dd 64 2c bc 70 ce 57 3c
       -0.107336745 -0.03535516 -0.010522095 0.013171777
000310 2b 53 d7 3c 6d ce 34 3d 2e 5b 0d be ec 46 b5 bd
       0.026284775 0.044142175 -0.13804314 -0.08851418
000320 48 1e 25 be 85 c4 10 3c 6f 47 31 3d fc 3a da 3d
       -0.16124833 0.008835916 0.043281015 0.106557816
000330 3c e3 ea 3d ad 97 db 3a 57 f7 22 be bb 58 ec bd
       0.11469123 0.0016753577 -0.15914665 -0.115403615
000340 18 7f 08 3c a7 4e 6c be 89 67 14 bd ba 4c 15 be
       0.008331083 -0.23076878 -0.03623155 -0.1458005
000350 ea 1f a2 3d bb eb 0c 3c dd 3a 61 bd a0 cb de bd
       0.079162434 0.008601124 -0.054987777 -0.10878682
000360 a6 9f b0 3d 5f d6 b5 3d 94 7d ca 3d 75 8e 3d be
       0.086242005 0.08878779 0.098872334 -0.18511374
000370 ac 39 84 be c6 8b 16 be 70 fc 55 be 47 23 5f 3d
       -0.2582525 -0.14701757 -0.20897079 0.054477002
000380 9b 16 b0 bd 16 c7 da 3d 04 d1 92 3b 72 3b 26 bd
       -0.08598062 0.10682504 0.004480483 -0.040584035
000390 89 20 89 be e4 9d e9 bd 54 85 43 be c2 20 8c be
       -0.26782635 -0.11407068 -0.1909383 -0.27368742
0003a0 20 d8 d0 bd 8f 28 d9 bc fd f9 16 bd 56 fe 33 3d
       -0.101974726 -0.026508598 -0.0368595 0.043943726
0003b0 f4 c7 18 3d 0d aa 47 be 6e c1 9a bd b2 66 56 bc
       0.037300065 -0.19498463 -0.07556425 -0.013086008
0003c0 46 5f 13 3e 5d c1 23 bd 34 cd 5e 3d 6a d5 5b 3d
       0.14391813 -0.039979327 0.054394916 0.053670324
0003d0 b0 37 ac bd ce 82 36 3c dd 4b 4d bd 94 fe a1 bd
       -0.08409059 0.011139585 -0.050121177 -0.07909885
0003e0 41 b7 be bd 0f 2b 58 3c 6c 54 8c 3b b5 74 65 be
       -0.09312297 0.01319386 0.004282525 -0.22407801
0003f0 87 db f1 3b 02 8e ad bd 48 97 18 be d8 35 b6 bd
       0.007380906 -0.084743515 -0.14901459 -0.08896989

Encoder.enc1.bias f4 [256]
000000 b7 d7 8b be 99 58 73 be 2b dc 24 be d2 b7 0f bd
       -0.27313015 -0.23764266 -0.16099612 -0.035087414
000010 bb d4 ba be d0 41 2a bd cf 07 0a be ad 55 34 be
       -0.36490425 -0.04156667 -0.13479541 -0.17610808
000020 ff 63 86 be 3b f7 68 be 7d bb 19 bd 93 0c 85 be
       -0.26248166 -0.22750561 -0.03753232 -0.25986156
000030 cc 64 86 be 34 54 2e be 27 10 34 be c4 5f 91 bd
       -0.26248777 -0.17024308 -0.17584287 -0.07098344
000040 ae 17 3f 3e 50 ae c7 bd cd c1 8f bc 45 38 5f bd
       0.18661377 -0.09750044 -0.017548466 -0.054497022
000050 2e 94 21 be 00 e2 a5 be c3 31 55 bc 27 f7 8d bd
       -0.15779182 -0.32398987 -0.013012352 -0.06931906
000060 66 1e d9 3c b7 0f 85 be 01 d1 5b be 66 e5 42 be
       0.026503753 -0.25988552 -0.21466447 -0.19032821
000070 7d 4c d4 be 06 f7 3f be 7d 0d 85 3d bf d2 54 be
       -0.41464606 -0.18746576 0.06496713 -0.20783518
000080 b4 91 02 be 78 6a 97 3e e7 58 45 bd 78 e6 18 3c
       -0.12750894 0.29573417 -0.048180487 0.009332292
000090 24 d2 24 be e0 fc 31 be ba 62 87 3c a2 7c bb be
       -0.16095787 -0.1738162 0.016526569 -0.36618525
0000a0 67 7c bc bd cd 18 7a be 10 40 92 bd 47 aa 07 bf
       -0.09203415 -0.24423523 -0.07141125 -0.529942
0000b0 91 ce a3 3b 73 cc d1 be 69 7a 3b be 3c b6 af bd
       0.00499899 -0.40976295 -0.18308415 -0.0857968
0000c0 0b b0 c1 bd 1f 92 2e be 45 fb 00 bd a6 48 ec bd
       -0.09457406 -0.17047928 -0.03148963 -0.11537294
0000d0 04 96 80 bc e6 08 5c be 69 a1 62 be 93 3d f8 be
       -0.015696533 -0.2148777 -0.22131886 -0.48484477
0000e0 ce da 45 be b0 12 1b be bb 76 03 bd 0d 38 f0 bc
       -0.19321749 -0.15143847 -0.032095652 -0.029323602
0000f0 91 0c 6d 3c 8a 28 be bc f5 68 93 be 3a 1c 62 3e
       0.014468328 -0.02321269 -0.28791013 0.2208108
000100 a0 0c 29 be a3 2f 6b bd 35 57 33 be 57 be e9 be
       -0.16508722 -0.057418477 -0.17513736 -0.4565303
000110 24 4f a1 be 1e fd 6b be 67 5d 4f be 87 b8 2b be
       -0.31505692 -0.23045775 -0.20250474 -0.1676961
000120 6d f8 24 bd ac a2 62 be 88 e9 7f be 5d 3a 23 be
       -0.04027598 -0.22132367 -0.24991429 -0.15940233
000130 63 c5 af be ed ba 24 be d1 6e 9c be 1b fb 96 be
       -0.34330282 -0.16086932 -0.30553296 -0.29488453
000140 e4 6b 5c be e0 5d 88 be f0 45 a5 bd 02 4f 8b be
       -0.21525532 -0.2663412 -0.0806998 -0.27208716
000150 9d c4 4f bd e0 fc 2b be 8c bf 43 bf 23 75 8f be
       -0.050724614 -0.16795683 -0.7646415 -0.28019056
000160 33 01 10 be b3 1f 18 be b9 e2 77 be f7 7b 03 be
       -0.14062957 -0.14855842 -0.24207582 -0.12840258
000170 cb 06 64 bc 14 ba 6b be fa 6a 18 be f7 42 db bd
       -0.013917635 -0.23020202 -0.14884558 -0.10706132
000180 cc 8b 13 be 0b 67 a9 bc 0b a0 50 be c8 d3 0c bf
       -0.14408797 -0.020679018 -0.20373552 -0.5501065
000190 57 e2 82 be ce b2 24 be 65 1c 36 be 31 bb a2 3c
       -0.2556331 -0.16083834 -0.17784269 0.01986465
0001a0 33 f0 8f bd 79 4c 4f be cb ff 7a be ed e6 72 be
       -0.07028236 -0.20244016 -0.2451164 -0.23720904
0001b0 13 af bb bd 6e 78 5b be b8 23 53 bd 8c bf 85 be
       -0.09164252 -0.21432659 -0.051547736 -0.261227
0001c0 56 72 7d be b8 db 97 be 72 99 d3 bd 27 1b a1 bd
       -0.24750647 -0.2965982 -0.10332002 -0.07866507
0001d0 25 17 d4 be 42 75 b9 bd 7a cf 6a bd bc 24 e6 bd
       -0.41423908 -0.09055568 -0.05732677 -0.11237475
0001e0 96 15 0b 3b 3f 8c 94 bc ce e7 10 be 67 79 03 bd
       0.0021222583 -0.01813328 -0.14150926 -0.0320982
0001f0 8a 59 14 be 6b b2 52 be 6a 1e 3c be b3 85 4d 3f
       -0.14487281 -0.20575874 -0.18370977 0.80282134
000200 c2 3b d9 be d1 88 36 bd ec a0 4b be dc c0 41 be
       -0.42428404 -0.044564072 -0.19885606 -0.18921226
000210 18 3a b6 be 23 a3 45 be 2e 4b 3d 3b 0a ed 88 be
       -0.35591197 -0.19300513 0.0028883922 -0.26743346
000220 0e 77 56 be 06 3a 78 bd b5 7b 71 be b7 1a 30 be
       -0.20943853 -0.06060221 -0.23582347 -0.17197691
000230 5f 61 0f bf ce cc b8 3c 83 5e 35 be fd 98 8b be
       -0.5600795 0.022558596 -0.17711835 -0.27265158
000240 e5 55 83 be 45 12 a2 3c 4d e4 45 be 98 c5 45 be
       -0.2565147 0.019784102 -0.19325371 -0.19313657
000250 ba 63 9b be 3f d4 5d be 65 4e ce 3c 85 d9 61 be
       -0.30349523 -0.21662997 0.025183866 -0.22055633
000260 f4 85 e2 bd 07 c6 3b be 81 cf 41 bd fa 1d 7c bd
       -0.11060706 -0.1833726 -0.04731703 -0.061552025
000270 59 41 15 be 76 e8 79 be 0f 24 41 be 5d c1 19 be
       -0.1457571 -0.24405083 -0.18861412 -0.15015168
000280 8b ab 91 be f2 bc 7f be 33 a1 b0 bd 2f a6 8a be
       -0.2845119 -0.2497442 -0.08624496 -0.27079913
000290 fd ab bb be 19 f1 3d be 0c 0e d3 bd f7 d9 63 be
       -0.36654654 -0.18549003 -0.103054136 -0.22251116
0002a0 b7 f5 22 be 0c 5f 13 bf 69 bc 14 be 2d 32 00 bd
       -0.15914045 -0.57566905 -0.14524998 -0.03129785
0002b0 a9 76 47 bd 8e d7 6e be 5f 59 3e be 81 f0 32 be
       -0.048697148 -0.23324415 -0.1858878 -0.17474557
0002c0 5a 89 28 be 5a 9e 16 be 30 5d 8a 3e 90 1f 8c be
       -0.16458645 -0.14708844 0.2702422 -0.2736783
0002d0 48 e4 20 be 9b 09 0f be c2 79 f0 3c 63 50 e8 bd
       -0.15712082 -0.13968508 0.029354934 -0.113434575
0002e0 f8 c3 b4 be 4a 30 f3 bd 5e 5c 3b be d1 a8 ab be
       -0.35305762 -0.11874445 -0.18296954 -0.33527234
0002f0 4d 15 13 bd c4 8c 01 be 93 72 00 3c c0 21 36 bf
       -0.035908986 -0.12651354 0.007839817 -0.7114525
000300 67 0c 93 be 43 38 be be 80 b1 c8 bc 8a 00 52 3d
       -0.287204 -0.371523 -0.024498701 0.051270045
000310 d7 64 b0 be 6d 6f 87 be 2c a1 27 bd d7 21 3f be
       -0.34451935 -0.264522 -0.04092519 -0.18665253
000320 c3 bc 6e be 0b 91 86 bd 54 87 9f bd ad 6e 74 bd
       -0.23314194 -0.065706335 -0.07789484 -0.05967586
000330 05 d2 92 be d2 28 9f bd ea b2 94 be 26 74 6a be
       -0.28675857 -0.07771458 -0.2904275 -0.2289587
000340 69 2e db be bb b6 04 bd 47 92 8b be c7 13 44 be
       -0.42808846 -0.032400828 -0.27260038 -0.1914817
000350 a3 b7 f5 bb 87 92 a1 be a5 b1 7e be 1e c6 06 be
       -0.007498698 -0.31557104 -0.24872454 -0.13161513
000360 2d a7 de bd 99 3b e2 bd 41 7c 88 be 03 79 bc bd
       -0.1087173 -0.110465236 -0.26657298 -0.09202769
000370 4d 2e 0a bf a5 11 3a be 1a bd b5 bb 03 e5 cc bc
       -0.539769 -0.18170793 -0.0055462243 -0.025011545
000380 69 1b b1 bd e1 53 10 bf 98 11 f2 bd a4 cc 50 be
       -0.08647806 -0.5637799 -0.11819762 -0.20390564
000390 e0 f5 2c 3c 8e 0e 99 3f 11 89 2c be d1 8b 70 be
       0.010556668 1.1957567 -0.16849162 -0.23490836
0003a0 36 c1 72 be 16 ce c0 bc 2a 44 22 be b6 84 21 be
       -0.23706517 -0.02353577 -0.15846315 -0.15773281
0003b0 54 5a 0f 3f 4f 38 95 be 97 c6 bb bc 78 f7 e0 bd
       0.55997205 -0.29144523 -0.022921843 -0.10984701
0003c0 68 98 8d be 6f 63 a7 be 0c b3 48 be 61 ec 6a be
       -0.2765534 -0.3269305 -0.19599551 -0.22941734
0003d0 b3 66 81 be 3e ea a4 be 6c bd 97 bd f2 af 0e be
       -0.25273666 -0.32209963 -0.07409176 -0.13934305
0003e0 10 1c 3d be 7f 0b 99 be b5 dc 9b bd 6d 52 32 be
       -0.18467736 -0.29891583 -0.07610456 -0.17414255
0003f0 80 d1 0f be 98 33 b6 3c 31 1e c5 bc 3d 0d e2 bd
       -0.14044762 0.022241399 -0.024062248 -0.11037681

Encoder.enc2.weight f4 [40, 256]
000000 36 29 d1 3c 47 a9 73 bc f7 f2 52 3d 8e a8 91 bc
       0.025532346 -0.014871902 0.05150124 -0.017780568
000010 48 d6 cf bc 1d 76 3c 3b af f1 2a 3c 4b 83 99 bc
       -0.025370732 0.0028756924 0.010433598 -0.018739363
000020 31 f0 cc 3c 27 f9 c9 bc 6a 95 05 bd 70 de bc bb
       0.025016876 -0.024654938 -0.032613195 -0.0057638213
000030 3c f2 3e bc 4f 59 0b bd 14 ad c2 bc 36 98 ce 3c
       -0.011654433 -0.03402072 -0.02376417 0.025219064
000040 a5 2e dd 3b 78 b5 8e bc b3 22 fb 3c 6b 79 14 3c
       0.006749945 -0.017420515 0.030656194 0.009062151
000050 5e 5c 34 bb e4 5d bf 3b 29 9c 62 39 93 1b 54 bd
       -0.0027520875 0.00584005 0.00021611214 -0.05178411
000060 81 57 54 bb 43 03 20 3d c3 e6 88 bc 3a 45 a1 bc
       -0.003240079 0.03906561 -0.016711598 -0.01968633
000070 95 8e a0 bc 7b 40 84 bc 35 45 46 bb 22 77 4e 3c
       -0.019599238 -0.016144028 -0.0030253653 0.012601646
000080 82 f2 3f bd 8e 9c ca 38 f6 b3 34 bc 54 25 49 bb
       -0.046862133 9.661271e-05 -0.011029234 -0.0030692415
000090 5f 46 b9 3a 2c 2e af 3d a2 c5 c0 bb fa 9e 1a 3c
       0.0014135352 0.085537285 -0.0058829347 0.009437317
0000a0 4f 8f 22 bc cd 7e ae bc b2 a4 aa bc 0d 07 98 3a
       -0.009921863 -0.021300698 -0.020830486 0.0011598781
0000b0 a9 7f 70 3a d4 9a 4f 3c 67 9c 25 bc 54 01 8d 3c
       0.0009174296 0.012671191 -0.01010809 0.017212547
0000c0 85 5b 0c 3d 3e 2e d5 bc af 77 32 bd ec 75 d2 3b
       0.034266967 -0.026023027 -0.04357117 0.006422749
0000d0 1d d0 b3 3c 29 5d ec 3c ac 96 c1 3c c5 b6 9f bc
       0.021949822 0.028853016 0.023631416 -0.019496331
0000e0 39 f1 9a bc 23 73 f2 bc 8a a9 23 bd ea fd 41 3c
       -0.018913852 -0.029595917 -0.039956607 0.011840323
0000f0 c5 59 39 bc 34 b4 81 3c d7 52 8f bc 36 d4 df b9
       -0.011312907 0.015832998 -0.017495556 -0.00042691984
000100 28 17 d3 bc 40 0c 99 bc 48 98 42 bc dc eb 29 3b
       -0.025767878 -0.018682599 -0.011877127 0.0025927937
000110 e8 47 7f 3c d4 8a 3f bc 16 4d a2 bb 71 b2 fc 3c
       0.015581109 -0.011690814 -0.004953037 0.030846806
000120 78 26 d9 bc 84 78 cf bb 5f 75 52 bb 2f 4a 64 3c
       -0.026507601 -0.0063315053 -0.0032113416 0.013933702
000130 36 5f b5 3b 13 d7 00 3c 87 20 1d 3c 14 80 69 3c
       0.0055350317 0.007863778 0.009590275 0.014251728
000140 75 85 a0 bc 5b bb 2c 3d 62 bd 84 3d cd af b2 3a
       -0.019594887 0.042170864 0.064814344 0.0013632715
000150 53 ee 76 bc c8 db 52 bd 7b 1e c7 bb cc 0c 42 3c
       -0.015071469 -0.05147913 -0.0060766316 0.011843871
000160 bd 6b 97 3c e2 f7 44 bd 8e 52 ad 3b b8 cd 20 bc
       0.01848399 -0.048087962 0.0052893823 -0.009814672
000170 a3 d8 84 bc ec a6 3b bd e6 6a 4a 3c 85 a2 04 3d
       -0.016216582 -0.045813486 0.012354588 0.032381553
000180 6d 93 f1 bc e8 cc 21 3c de 36 b3 3c 20 88 bc b9
       -0.029489243 0.009875514 0.021876749 -0.00035959575
000190 bb fc a0 bb 6b f0 af bc 89 ae fb 3c 95 15 18 3d
       -0.0049129403 -0.021476945 0.030722873 0.037129957
0001a0 6f 17 9e 3b 66 37 0c bd 81 dd 14 bc d7 e3 12 3c
       0.004824571 -0.03423252 -0.009086014 0.008965454
0001b0 77 db 03 bd e1 bf 04 3c 75 c3 b1 3c c1 eb 19 3c
       -0.03219172 0.008102388 0.021699646 0.009394587
0001c0 a0 dd 76 bc 7a 71 2a bd 25 1a fd bb 74 86 70 bc
       -0.015067488 -0.041612126 -0.007724064 -0.014680494
0001d0 b9 c4 eb bc 6f 55 57 bc 7c 14 8f bc 10 73 1f bb
       -0.028780328 -0.013142928 -0.017465822 -0.0024330057
0001e0 7f 29 e4 bb 12 9a 0e 3d b1 8b 88 3c 96 9a bb bc
       -0.0069629545 0.0348149 0.016668173 -0.02290086
0001f0 7a 3f 72 3c 92 6e 97 3b c9 7c 9a bc 11 0f cc ba
       0.014785642 0.0046213353 -0.01885833 -0.0015568455
000200 00 12 2e bc d1 e4 82 bb 67 e3 5b bb a2 f5 ee 3c
       -0.010624409 -0.003994562 -0.003355229 0.029169861
000210 38 a1 a8 3d f5 aa 69 bc bc 86 1c bd 82 9b 11 3c
       0.08233875 -0.014261951 -0.03821443 0.008887174
000220 c7 6a da 3c 0c ab 0c 3c 03 fe e1 3c 53 7d 41 bd
       0.026662244 0.008585703 0.027586943 -0.04723866
000230 03 96 0a bb d3 29 08 bd 5c 14 cd 3b 9d 4b c2 3c
       -0.0021146543 -0.03324301 0.0062585305 0.023717696
000240 7a 96 48 3c 60 f7 7e bd 74 48 e8 3a 16 88 83 3c
       0.012242908 -0.062247634 0.0017721788 0.016056102
000250 a4 1e 56 ba 22 52 e2 3c 04 2c 27 bc 73 82 18 bd
       -0.0008168018 0.027627055 -0.010203365 -0.03723378
000260 d8 96 6c bb 33 39 77 bb e4 50 13 bd b2 b4 0c bd
       -0.0036100652 -0.0037723302 -0.035965815 -0.034352012
000270 f7 c3 3a bd 72 a4 91 3c 7e 5d 80 39 4b 81 39 3d
       -0.045597043 0.017778609 0.0002448372 0.04528932
000280 1a e8 2f bd 58 3c 38 bd ec a6 c0 3c 14 e8 d9 bc
       -0.04294596 -0.044979423 0.023517095 -0.026599921
000290 ed 13 c2 ba ab a0 0f bd 12 51 27 bc f2 59 bc 3b
       -0.0014806964 -0.035065334 -0.0102122 0.005748027
0002a0 68 ef 8d bb 30 ca ce 3c d2 5d 90 3b cf d9 4b bd
       -0.004331518 0.025242895 0.0044057155 -0.049768265
0002b0 b3 e4 68 bc 48 c6 88 3d 7f 3a 91 3c 99 54 49 3c
       -0.014214682 0.06678444 0.017728088 0.012288236
0002c0 68 2a 9b bb 6b 20 e5 bb 7d a3 77 bb 8f 93 8a 39
       -0.00473528 -0.00699239 -0.0037786656 0.0002643135
0002d0 b2 b1 8f bc 1a bf 22 3d 0e 18 17 bb 5f ed 37 3c
       -0.017540786 0.03973303 -0.002305511 0.011226027
0002e0 39 78 c8 3c 87 d2 6c bd d0 cc 81 3b 63 37 ea 3a
       0.02447139 -0.057817962 0.003961183 0.001786929
0002f0 d7 93 15 3b c4 0e e0 3c 18 c4 e2 3a 7b 93 25 3d
       0.0022823715 0.02735079 0.0017300872 0.04042385
000300 46 09 75 3a 14 9d 6b bc 57 18 5a 3c 5c 35 d9 3c
       0.000934739 -0.014380712 0.013311467 0.026514702
000310 38 aa 33 3c ac 59 e5 3b 73 96 36 bb 46 68 c3 3c
       0.010965876 0.006999215 -0.002786067 0.023853432
000320 89 c0 8c 3c 13 f6 3f bc f6 18 e2 3c 95 15 a4 3c
       0.017181652 -0.0117163835 0.027599793 0.020029822
000330 ed ca f9 3c 95 90 0a 3c a5 fb a5 bc da 03 6f bc
       0.03049227 0.008457323 -0.020261595 -0.014588321
000340 00 f7 58 3c 89 a3 57 bc 83 18 8b bc 68 a3 bb 3c
       0.013242483 -0.013161548 -0.016979462 0.022905067
000350 c3 31 da bb 05 a0 0b bb d9 d1 01 bd 75 76 35 3a
       -0.006658764 -0.0021305096 -0.031694267 0.00069222535
000360 a5 2d 0e bd 6b 3d e2 3c 38 cc a1 3c 71 0a 50 bd
       -0.0347115 0.027617177 0.0197507 -0.050791208
000370 b0 1b 01 3d ac ca 3c bd 31 e7 40 bc 6a 97 9a 3c
       0.031520545 -0.04609172 -0.01177387 0.018871028
000380 3f 91 8e bb 6d 1e 76 bc 52 5b 6f 3d 36 d2 37 bb
       -0.004350811 -0.0150219025 0.0584367 -0.002804888
000390 97 cb 4f 3c e8 01 28 bb f1 dd 08 bd f1 90 9e 3b
       0.012682817 -0.0025635902 -0.033414785 0.0048390557
0003a0 0e 7d be ba 39 73 12 3c f1 c4 91 3c 48 2e a6 bc
       -0.0014533119 0.008938604 0.017794104 -0.02028574
0003b0 ee 72 82 bb 84 a4 1e 3c 64 64 03 3d 58 78 d0 bc
       -0.003980986 0.009682778 0.03207816 -0.02544801
0003c0 54 e3 38 bb 6d 93 42 3d c4 bd 84 ba dd ed 8a 3b
       -0.002821167 0.047503877 -0.0010127355 0.0042397813
0003d0 7f a0 75 3c cc 6b d7 3c 78 46 2b 3c 42 f6 45 bd
       0.0149918785 0.026296519 0.010453813 -0.048330553
0003e0 75 7b 58 3c d4 32 14 bd a4 f4 02 3d df 30 57 bd
       0.013213028 -0.036181286 0.03197159 -0.05253684
0003f0 19 07 40 3d 94 f2 c3 bb 16 4c f8 3b a3 9e 1e bc
       0.04688177 -0.0059798453 0.0075774295 -0.009681377

Encoder.enc2.bias f4 [40]
000000 78 57 85 3b 2a 40 c7 3a 54 13 a2 bb 59 ba 30 bc
       0.004069265 0.0015201617 -0.0049461517 -0.010786616
000010 f3 1d 05 ba 90 f1 1a 3d 6a 7d 6d 3b 4d d8 90 3d
       -0.000507801 0.03782803 0.0036238083 0.07072506
000020 db 3f 02 be a4 11 cb ba 8d 95 00 bc e9 c1 e3 3b
       -0.12719671 -0.0015492928 -0.007848156 0.006950606
000030 c3 a7 e4 bb 63 cd 2d 3b 7b f5 e2 bc 7b 0c fa 39
       -0.0069780066 0.0026520125 -0.027704945 0.00047693014
000040 c3 f0 e6 3b b5 a8 a0 bc 61 ea 72 bd 4d b7 b9 bb
       0.007047744 -0.019611696 -0.059305552 -0.005667603
000050 60 6a 05 3b 7b fd f1 bb c2 1c 9c bb 56 55 30 bc
       0.0020357594 -0.0073849536 -0.0047641704 -0.010762533
000060 f1 0d 1f bc ef d6 e4 be 2a 51 a9 bb 2d 86 cf be
       -0.009707914 -0.4469523 -0.005167146 -0.40532055
000070 9b 99 d8 be c3 f3 4e bc f0 e0 f5 be 3f 0d e3 bb
       -0.42304692 -0.0126313595 -0.48023176 -0.0069290693
000080 b0 9e 1a bc aa 75 1b bc 7e 86 fd be e7 36 6f ba
       -0.009437248 -0.0094885025 -0.49516672 -0.00091253076
000090 9e 17 3a bb e4 90 00 bf 44 fc b8 be f2 88 e0 bb
       -0.0028395425 -0.50221086 -0.36129963 -0.0068522627

Decoder.dec1.weight f4 [256, 20]
000000 f1 bb 4e bb 03 b2 45 3b 3c 01 26 bb 7b 89 e3 ba
       -0.0031545127 0.0030165918 -0.0025330326 -0.0017359698
000010 fe a2 97 bb 7a ac 0f 3a eb 6b d6 ba f4 59 1b bb
       -0.0046275845 0.0005480718 -0.0016359066 -0.002370474
000020 96 e3 8b 3b 85 c9 5d bb e9 31 c7 bd 83 a6 96 39
       0.0042690737 -0.0033842039 -0.097263165 0.0002873429
000030 a3 88 10 bb a8 45 55 ba e2 09 93 bc 8f cf 35 ba
       -0.0022054098 -0.0008135685 -0.017949048 -0.00069355307
000040 a7 71 28 3b 78 57 38 3c ea 39 ad ba 19 af 79 bb
       0.0025702508 0.011251323 -0.0013216112 -0.003809875
000050 e0 0d c9 3b 9d 32 04 bb f4 26 e5 3b b3 eb 6c 3c
       0.006135687 -0.002017177 0.006993169 0.014460492
000060 ac 92 63 3b 78 b9 ab bb 49 26 4c bc 5a d1 b5 3e
       0.0034724874 -0.0052406155 -0.0124603 0.35511285
000070 3d 24 17 bd a6 1c 24 ba a3 7d 25 bc 96 a4 43 bb
       -0.036899794 -0.00062603725 -0.010100755 -0.002985274
000080 06 f7 23 bc 67 5d d1 3b ad cc b7 bd d6 17 8e bb
       -0.010007625 0.0063893083 -0.08974586 -0.0043363376
000090 0a 78 83 bc 44 25 bf 3c ec 88 9a 3a 72 6d 1c bc
       -0.01604845 0.0233332 0.0011790073 -0.009547578
0000a0 f9 55 8a ba c0 72 a6 b8 19 3c 23 3b 0d 16 11 b9
       -0.0010554186 -7.936871e-05 0.0024907647 -0.00013836492
0000b0 30 e0 c5 3b 0c 52 1f bb fd 0c 19 bb 9c c1 4a bb
       0.006038688 -0.0024310378 -0.002335369 -0.0030938154
0000c0 24 c7 59 bb ef 1a 90 3b a5 3f e8 bb 83 77 0c 3b
       -0.003323027 0.004397742 -0.007087665 0.002143354
0000d0 58 8f 33 bb f2 8f 5c 3b 86 86 61 bc 35 7f bf 39
       -0.0027398672 0.0033655134 -0.013764983 0.00036525136
0000e0 21 1e 69 bb 32 3c ed 3d f3 41 31 ba 90 c1 a9 3a
       -0.0035570937 0.11583747 -0.00067618414 0.0012951363
0000f0 ca dc d9 ba 8a 98 f6 bb 86 3d 98 ba b2 b9 e9 3a
       -0.0016621586 -0.0075255083 -0.0011615015 0.0017831831
000100 c6 cf 3c bb b0 78 00 3b f7 90 e5 ba a9 a6 fb bb
       -0.0028810366 0.0019603185 -0.0017514516 -0.0076797795
000110 1a 29 39 3b e9 08 5c bb 69 a7 ca bd c8 54 1f 35
       0.0028253258 -0.0033574647 -0.09895212 5.935549e-07
000120 17 e2 cd 3a b7 63 84 3b 71 e2 98 bc 33 f9 fd b9
       0.0015707639 0.0040402072 -0.018662663 -0.00048441588
000130 0d 33 d9 ba 3e 98 d1 3b 89 38 04 3a c3 52 56 bb
       -0.0016571 0.0063963225 0.0005043825 -0.0032703138
000140 d2 43 f8 b7 e8 1e dd bb b0 05 e1 ba 50 40 4a 3b
       -2.9595485e-05 -0.006748069 -0.0017167833 0.0030861087
000150 c4 68 d8 bb 6d ad fd bd e6 b4 2d b9 33 78 3e 3c
       -0.006604286 -0.12386594 -0.00016565956 0.011625337
000160 4b a1 aa 3c 60 44 8d 3a e3 33 96 bc 8e b4 bf bb
       0.020828864 0.0010777824 -0.018335288 -0.005850381
000170 a5 1c 9a bb 84 60 04 bc 7a 61 79 bc c6 c6 93 bb
       -0.0047031217 -0.008079652 -0.015220994 -0.0045097796
000180 19 6a df 3a c4 1b a0 3a 75 e4 b7 bb fc ec 3c bc
       0.0017045169 0.0012215306 -0.005611951 -0.011531111
000190 08 90 f1 b8 62 c4 b3 3a d7 42 6b ba 2d ae 8f 3a
       -0.000115186034 0.0013715143 -0.00089744985 0.0010961943
0001a0 c3 6b 99 3a ee fb 88 ba 52 d8 86 ba 36 30 b0 ba
       0.0011705089 -0.0010451057 -0.0010287857 -0.0013442102
0001b0 14 29 f6 b9 ef 07 78 3a 6d f1 d0 bd dd 4d 01 bb
       -0.00046951382 0.00094616314 -0.10202298 -0.0019730248
0001c0 b2 73 b5 bb 88 29 bf 3a 3f 2c be bc e8 10 79 3b
       -0.0055374736 0.0014584521 -0.023214458 0.0038004462
0001d0 1d e8 0a ba ff e0 22 3c 58 78 59 b7 6c 11 bc bb
       -0.000529887 0.009941339 -1.2962228e-05 -0.0057393815
0001e0 30 5d fa 3a 7e 50 8e ba 51 ae 2e 3b 5a fa 8b bb
       0.0019101258 -0.0010857729 0.0026654194 -0.0042717876
0001f0 9d 16 8f ba c4 e7 04 3c c3 4d 80 bb d5 e2 b8 3a
       -0.0010916773 0.008111898 -0.00391552 0.0014105687
000200 ea 09 8a 3d 91 25 d6 bb 5f ae e2 ba 38 1f be ba
       0.06740172 -0.00653524 -0.0017294398 -0.0014505154
000210 be b4 f9 3b 75 60 06 bb 31 10 69 bd d4 0d 00 ba
       0.007620423 -0.002050427 -0.056900207 -0.0004884873
000220 8d c4 0b 3b ee f7 ef ba de 16 bf bb 26 34 13 38
       0.002132687 -0.0018308142 -0.0058315834 3.5096098e-05
000230 ff 3d 87 bb d6 b6 0a 3b 01 d5 22 bb bc 26 28 ba
       -0.0041272636 0.0021166108 -0.0024846199 -0.0006414463
000240 65 bd c7 38 6c 47 2b bc 2c c7 bc b7 b1 3f 13 3a
       9.524337e-05 -0.01045404 -2.2504093e-05 0.0005617096
000250 59 38 18 bd 8c 16 c3 ba 92 9f be 3b 38 1d bb 3a
       -0.037163112 -0.0014884039 0.005817362 0.0014275676
000260 5a 6f 4c ba 14 c9 a3 ba d1 ed de 3c 2a 99 85 39
       -0.0007798575 -0.0012495839 0.02721301 0.00025481853
000270 d7 73 18 bb 5b 99 e9 bb 4d af 14 3b dc 01 13 bb
       -0.0023262405 -0.007128877 0.0022687495 -0.0022431528
000280 3b f0 b4 bb ac 28 bd 3b 93 8c 14 b9 c6 94 c0 3a
       -0.0055218018 0.0057726707 -0.00014166748 0.0014692775
000290 a8 15 81 bb 86 46 dc 3a e1 50 ca 3a 4f 51 0d ba
       -0.003939349 0.0016805686 0.0015435481 -0.0005390839
0002a0 53 4c d2 3b a0 ff ea ba c1 9d da 37 60 05 89 3b
       0.00641779 -0.0017928965 2.6061085e-05 0.004181549
0002b0 55 b8 fc 3a fd 86 d7 ba b6 19 6b bc 6a bc 20 38
       0.001928101 -0.0016443428 -0.014349392 3.8322447e-05
0002c0 70 a0 aa 3b 13 2a e1 3d 4e f6 da 3a f2 df 50 bb
       0.005207114 0.10994353 0.0016705485 -0.0031871763
0002d0 72 69 74 3b d7 7a 24 bc e2 f7 bc b7 f1 7f 18 bc
       0.0037294296 -0.010039053 -2.2526776e-05 -0.009307847
0002e0 3e d5 c1 3b 2e 2d 23 bb 2a a4 ee 3b e3 fa 1e bb
       0.005915313 -0.0024898755 0.0072827535 -0.0024258427
0002f0 0b af b4 bd be 05 58 ba 85 a2 8b bc 67 7a 0a bc
       -0.08822449 -0.0008240602 -0.017045269 -0.008452035
000300 bd d3 f5 3b c4 1f 4d 3c 61 f4 2f be b3 2b e3 bb
       0.007502048 0.012519781 -0.17183067 -0.0069326996
000310 74 24 56 3b c5 14 8e 3c 6c 32 45 be f6 87 ba bb
       0.0032675536 0.017343888 -0.19257516 -0.0056924773
000320 5b 32 bb 3a 5c c1 1a bc 65 f4 71 bb 24 0f 55 bc
       0.0014281975 -0.0094455145 -0.0036919352 -0.013004098
000330 41 51 22 bc f9 64 47 b9 25 37 9f 3b 6e 22 b9 3a
       -0.009907068 -0.00019015734 0.0048588687 0.0014124641
000340 26 ac 1d bd d3 52 99 bb 84 ff 77 bc 92 49 26 3c
       -0.03849425 -0.004679063 -0.015136603 0.0101493765
000350 19 b9 9d bb d0 63 da 39 f6 ee ab bd 8f 87 01 3c
       -0.004813325 0.00041654566 -0.083951876 0.007905855
000360 80 f3 2b bb d8 ff bd ba cd 25 a9 be 83 f8 77 3b
       -0.0026237667 -0.0014495803 -0.33036652 0.0037837334
000370 59 c4 ba 39 b8 69 1f 3a 79 21 8e bb f2 dc 48 ba
       0.00035622975 0.0006081122 -0.0043374863 -0.0007662318
000380 eb c4 58 b9 da af a1 bb 5b e4 8c ba f2 a3 57 ba
       -0.00020672723 -0.004934293 -0.0010749208 -0.0008226029
000390 b7 ca 33 bd 52 b9 82 3b 24 3b 21 bc 5f 77 e6 39
       -0.043894496 0.003989377 -0.00984076 0.00043957957
0003a0 24 5f 8a ba d3 ac 94 bb a8 36 20 3d 90 8a 2e 34
       -0.0010556919 -0.004537204 0.039114624 1.6255422e-07
0003b0 ed 3d 81 39 31 eb 93 ba 55 01 23 bb 54 8a fb 3a
       0.00024650936 -0.0011285302 -0.002487262 0.0019191005
0003c0 3a 99 dd 3b ea f1 18 3b a7 1b 6e ba c0 d5 e5 3a
       0.006762651 0.0023337551 -0.00090831 0.0017535016
0003d0 6e 40 09 3b f9 4d 8b 3b b6 b0 0e bb 1c a8 e5 ba
       0.0020942944 0.0042512384 -0.0021772808 -0.0017521414
0003e0 8b 92 7b 3a 2a bb ca 3b f9 a8 be bd 6d 2d 76 3a
       0.0009596727 0.0061868625 -0.09309573 0.0009390924
0003f0 6b 80 f1 bb 04 92 04 bc 62 f5 b0 bc 38 92 2e bb
       -0.007370045 -0.008091453 -0.021601383 -0.0026637446

Decoder.dec1.bias f4 [256]
000000 5c bf a7 3c 62 96 ff be c2 57 61 3c 34 ce 94 3c
       0.02047699 -0.4991942 0.013753833 0.018164732
000010 df e2 8c bd 0c fe 90 3c 25 5b 82 bc c9 03 3f b9
       -0.0687921 0.017699264 -0.015912602 -0.0001821659
000020 1c ea 43 3c d3 da e3 be 4a ce ad be d6 03 6d 3c
       0.0119576715 -0.44502887 -0.3394645 0.014466247
000030 9b 13 37 3c 3a e6 47 3c ba 75 56 bd 63 80 4e bd
       0.011174108 0.012200886 -0.052358367 -0.050415408
000040 2a 8f fa be 48 3f 46 bd 51 8f 20 3c 57 26 55 bc
       -0.4893735 -0.048400193 0.009799794 -0.013009629
000050 01 b2 5e 3c ff 6f ef be 1e b8 03 bd e3 0e 34 3c
       0.013592244 -0.46765134 -0.03215801 0.010989877
000060 49 66 ca bd 38 11 6c bd a0 47 6d bc 7e 47 64 be
       -0.098827906 -0.05763361 -0.014482409 -0.22292897
000070 e1 4f b4 be 9a 47 7f 3b e6 e7 88 3c 76 07 de bc
       -0.35217193 0.003895259 0.01671214 -0.027103167
000080 26 45 58 bd 39 24 cf be 04 8b b6 3c ae ee 4a ba
       -0.05280032 -0.40457323 0.022283085 -0.00077412545
000090 c6 e5 7c 3c fd 1b 5a 3c af 49 40 bb fc 05 42 bd
       0.015435642 0.013312337 -0.0029340794 -0.04736899
0000a0 dc 23 2e 3a af ba 9e 3c f1 1b e8 bd 7f 49 e0 be
       0.00066429167 0.019376127 -0.113334544 -0.43806073
0000b0 72 71 89 3b 36 c8 30 bc f0 94 ee 3a aa 1b 64 bd
       0.004194432 -0.0107899215 0.0018202346 -0.055690445
0000c0 b5 cf 78 bb e0 33 0f bd dd 6f 26 3c 62 19 d2 be
       -0.00379656 -0.03496158 0.010158506 -0.4103499
0000d0 42 fc f4 bd c5 f0 aa 3c db 4b de be 1a 26 ca 38
       -0.11962177 0.020866761 -0.43417248 9.6392076e-05
0000e0 e2 01 5c bd 75 d4 13 3c 89 2f 63 bc 9e 22 44 bd
       -0.053712733 0.009022822 -0.013866314 -0.047884576
0000f0 5d 2d 83 3c 64 f3 57 be 2a 1f d3 bd 86 d6 68 bd
       0.016012842 -0.2108894 -0.103086784 -0.05684521
000100 e9 1e 8e 3c 57 9e da ba ca 27 65 bc 1b 7e e4 bd
       0.017348723 -0.0016679269 -0.013986537 -0.11156865
000110 11 cf 18 be cc da ea be 4b 08 41 3c 40 af bc bd
       -0.1492274 -0.45870054 0.011781762 -0.09213114
000120 e4 26 72 3c 11 76 0b 3c 76 de 2c bb 9c 55 3c 3c
       0.01477978 0.008512036 -0.0026377714 0.01149502
000130 50 2b c1 be 66 d0 d7 bb 9c 31 f2 bd 7e 7d 91 bc
       -0.37728357 -0.0065861223 -0.118258685 -0.017760035
000140 27 6c a4 3c ab 26 0e bf 58 82 3b 3c 4c 60 bb bd
       0.020071102 -0.5552775 0.011444651 -0.091492265
000150 63 73 a2 3c c8 fb dd 3b 33 5d 44 3c 0a ed 9f bc
       0.019830411 0.0067743994 0.011985111 -0.019522209
000160 2d f0 34 3c 0b 5c 07 be b3 76 c3 bd 28 f5 19 be
       0.0110435905 -0.13218705 -0.095441245 -0.15034926
000170 fd 7f 39 3c dd 4f 14 bd 4b 2e 19 3c e7 42 66 bd
       0.011322019 -0.036208976 0.009349416 -0.056216147
000180 e5 9e 56 3c 7a 1a 62 bd 90 bf 56 3c 27 87 d1 3a
       0.013099407 -0.05520103 0.0131071955 0.0015985713
000190 08 34 60 bd 2d c2 7f bf 55 54 32 3c 75 d0 56 bc
       -0.05473712 -0.99905664 0.010884364 -0.0131112235
0001a0 90 e8 a5 be f0 b6 98 bc e9 83 dc bc 9f 00 ba bd
       -0.32403994 -0.018641919 -0.026918368 -0.0908215
0001b0 38 d1 d1 be 1a 5a 30 be fc 74 53 3c a0 7d e1 3a
       -0.40979934 -0.17221871 0.012906309 0.0017203577
0001c0 8d 1b aa 3b a7 63 c5 bd 8c 45 74 3c eb 16 27 bf
       0.0051912726 -0.09638148 0.014909159 -0.65269345
0001d0 01 1a f2 3b 83 23 7f bd c3 09 02 bf 9f 96 10 3c
       0.007388354 -0.062289726 -0.50796145 0.008824973
0001e0 46 22 4b 3c 0d 0e 91 3a 64 6f 09 3c ea c1 37 bf
       0.012398308 0.001106681 0.008388374 -0.71780264
0001f0 74 da d4 bd c9 e4 45 bb 6e 5d 25 bf 1b d7 a6 3c
       -0.10393229 -0.003019618 -0.6459569 0.020366242
000200 c2 2d 00 bc cc d5 a4 3c 7d 2b 5b bd 8e 79 46 bd
       -0.0078234095 0.020121478 -0.05350827 -0.048455767
000210 e1 c8 53 bc 21 16 d7 bd 4f c5 34 bf b4 69 00 bf
       -0.012926311 -0.10502268 -0.7061357 -0.5016129
000220 b7 08 ea 3b 81 d4 de bb 18 5d b8 3c 5d 13 dc be
       0.007142152 -0.006800235 0.022505328 -0.42983523
000230 66 3b a0 bc 0f cb d7 be b2 32 d7 bb 79 00 18 be
       -0.019559573 -0.4214711 -0.0065673226 -0.1484393
000240 3b 22 b4 be c1 29 83 3b 9f d2 2b bf 21 32 1a bf
       -0.35182366 0.00400278 -0.6711826 -0.6023274
000250 49 34 64 bd bf 99 e0 be ff 4d e9 bc bd df 24 bc
       -0.055713926 -0.438673 -0.028479574 -0.010063109
000260 73 23 69 3c 42 f7 b7 be 13 38 52 3c 15 1e 4f 3c
       0.014229643 -0.3593083 0.012830752 0.012641449
000270 9e bd 33 bf 73 49 8b 3a 6e fb 3e 3c 1b d1 0d 3c
       -0.7021121 0.0010626748 0.011656625 0.008655812
000280 8f b8 0e bf 59 2c c4 be 82 62 51 bd 6b ac 11 bf
       -0.55750364 -0.38315085 -0.051119335 -0.56903714
000290 f4 72 c9 3a ed 77 9c 3c 7a af 5c bd 9f 58 61 bd
       0.0015369342 0.019100154 -0.053878285 -0.055016156
0002a0 be fa 59 bc d9 f0 fc be 3e 65 50 bd c7 5f 94 3b
       -0.0133044105 -0.49402502 -0.050877802 0.004528019
0002b0 48 5a 7f bf 70 46 66 bc d6 15 d0 be 09 aa 0d 3c
       -0.99747133 -0.01405488 -0.4064166 0.008646497
0002c0 e0 c3 33 bd 8d 14 43 bd 24 6f 73 3b 91 c6 06 bf
       -0.043887973 -0.04762702 0.0037145102 -0.5264674
0002d0 fe 84 06 bf 19 b1 f9 be cb cc 0c be 27 09 c3 be
       -0.5254668 -0.48767927 -0.13749997 -0.3809292
0002e0 ac 22 58 bf e4 46 cb bc 7b fe 98 3a 73 4e d1 3a
       -0.84427905 -0.024814077 0.0011672521 0.0015968814
0002f0 5e cd 92 3b af 39 68 bd 85 65 b5 ba 96 44 43 bf
       0.004480048 -0.056695636 -0.0013839459 -0.7627653
000300 a5 93 8d be b5 7c 08 be 7c 7e 51 3c cf f4 0a bf
       -0.27651706 -0.13328822 0.012786504 -0.542798
000310 e0 84 c5 bb ff a1 72 3c 56 43 95 3c 44 31 f9 be
       -0.006027803 0.014809131 0.018220585 -0.486704
000320 9b 70 4b 3c 85 e3 69 bd f7 69 5d bc ea a8 b4 3b
       0.012416984 -0.057101745 -0.0135140335 0.0055133
000330 fe 70 6b bc 9d 28 92 3c b7 f9 67 bc 07 46 a3 3c
       -0.014370201 0.017841632 -0.014158658 0.019930853
000340 d0 1d bc 3c 6c cb a9 3c 91 7e b0 bd 0c 23 03 3c
       0.022963434 0.020726882 -0.086178906 0.008003961
000350 1a de 85 bc 0e 52 ec be 53 fe b2 bd 75 5f 03 bf
       -0.016341258 -0.46156353 -0.08739915 -0.5131753
000360 55 95 2a bc cb 7d 03 bf 20 c3 28 be cf b1 97 3c
       -0.01041158 -0.5136382 -0.16480684 0.018517403
000370 5c af 0c bf 42 d8 2c bf 1e 71 0d bf 5b ca de bd
       -0.5495508 -0.67517483 -0.5525073 -0.1087844
000380 73 27 07 3c e4 22 6d bd 54 63 62 bd c5 f4 4b bd
       0.0082491515 -0.057894602 -0.055270508 -0.049793977
000390 be 71 e1 bd c4 9b b1 3c d0 d8 5a 3c bb 4b 23 bc
       -0.11008023 0.02168072 0.013357356 -0.009966786
0003a0 7b d2 c2 be 52 60 73 bd 83 26 84 bc ff 98 54 bd
       -0.3805121 -0.05941803 -0.016131645 -0.05190372
0003b0 3f 65 92 bb a0 97 fe 3b 16 c5 f3 b9 3a 79 0b bf
       -0.004467636 0.00776954 -0.00046495412 -0.5448185
0003c0 01 9b 3c bd 9f de 8f bb 5a 5f 64 bd 12 a5 68 3c
       -0.04604626 -0.004390552 -0.055754997 0.014199512
0003d0 8e d9 0e be 4b 38 06 bf d5 c6 19 be 39 51 bf 3b
       -0.13950178 -0.52429646 -0.15017255 0.00583854
0003e0 6c c0 e8 be 5f 47 e0 bb 74 6b 32 3c 45 e4 e6 be
       -0.45459306 -0.0068444456 0.010889877 -0.4509603
0003f0 fe 21 0f bb 59 82 4a 3c d2 20 40 3c 52 4a 8b 3c
       -0.002184033 0.012360179 0.011726575 0.017003212

Decoder.dec2.weight f4 [31, 256]
000000 d1 43 d1 3c 8c 21 cf 3c 1e 8d cb 3d 69 4b 78 3d
       0.025545033 0.025284551 0.09939025 0.06061879
000010 60 f6 85 be d9 5d 88 3d fa 18 b2 3e e4 ad 52 bf
       -0.26164532 0.06658525 0.3478468 -0.82296586
000020 65 db ca 3d 76 b1 53 3c 2d 8e 19 3d 2c 9a 64 bf
       0.099051274 0.012920728 0.037489105 -0.8929775
000030 d9 ec 28 3d c6 c7 c9 3c 7f 27 13 bf 37 7e 07 bf
       0.0412415 0.024631392 -0.5748214 -0.52926964
000040 a0 48 02 bd 2b b8 3a bf 41 65 b6 3d 9c 91 70 3f
       -0.03180754 -0.7293727 0.089060314 0.9397218
000050 b3 3c 36 3d 22 c7 bf 3d 61 40 9e 3e 12 57 dd 3d
       0.04449148 0.093641534 0.30908492 0.10807623
000060 3e 31 0c bf 24 07 7d 3e c1 4c a2 3e a3 08 0e bf
       -0.5476264 0.24709755 0.31699184 -0.5548193
000070 60 40 49 3d 0c d9 c0 3c 1a fe 00 3c a5 51 31 3d
       0.04913366 0.023540996 0.0078730825 0.043290753
000080 ce cd 75 3e 71 84 66 3d ee 14 85 3d 97 46 25 bf
       0.2400429 0.05627865 0.06498133 -0.64560837
000090 66 91 0d 3d af 4a d3 bd 60 b7 41 bf 0d 8a f8 be
       0.03456249 -0.10316979 -0.75670433 -0.48542824
0000a0 cc cf 18 bf 72 fd 51 3d 28 52 70 3f f0 cf 78 3d
       -0.5969207 0.051267095 0.9387536 0.06074518
0000b0 f1 3d f9 be 59 d9 cc 3e eb b9 33 bf 8d 74 c7 bd
       -0.4868007 0.40009573 -0.70205563 -0.09739027
0000c0 09 c3 ba 3e 82 f3 c9 3e ee 94 8c bf b6 a5 62 3d
       0.36476925 0.39443594 -1.098295 0.055333816
0000d0 64 8a 8f bf 0d eb 96 3d ba d5 ec bd 35 85 be 3c
       -1.1214108 0.07369051 -0.115642026 0.023256877
0000e0 81 18 96 3e 10 c5 46 3d ef f8 51 3f 5d 88 2f bf
       0.2931557 0.048527777 0.8202047 -0.6856745
0000f0 ee 47 71 3d c2 1f 30 be 65 10 98 bd df 49 cb 3e
       0.058906488 -0.17199615 -0.07425002 0.39704797
000100 ff 1f 0c 3d c2 b7 b1 3e 7d 84 74 3f 83 d5 1d 40
       0.0342102 0.3471051 0.9551466 2.4661567
000110 fb a7 85 bd 6d 36 b2 3b 12 ce 18 bf bd 44 a1 be
       -0.0652618 0.005438617 -0.5968944 -0.31497756
000120 6a 7f 02 3e 2f ca aa 3d 77 23 a5 3e 92 d5 3b 3d
       0.12743917 0.08339345 0.3225362 0.045857973
000130 4d 25 80 3c 2b 42 8f 3f 18 f5 8a 3f ff 0b 32 3e
       0.015642786 1.1192068 1.0856047 0.17387389
000140 2c 85 dc 3c c7 96 37 3d c3 ee 5f bf da d8 82 bf
       0.02691897 0.044821527 -0.87473696 -1.0222428
000150 1f fe 6b 3c 74 0f 4f bf 77 41 a4 3d c7 60 10 bf
       0.014403849 -0.80882955 0.08020299 -0.5639767
000160 db 47 ef 3c c7 00 89 3e c1 0e 98 3d e1 c8 b5 bd
       0.029209068 0.26758406 0.07424689 -0.08876205
000170 ed e4 06 bf e8 b3 ea 3d 55 d8 40 bf f4 17 80 3e
       -0.52693063 0.11460096 -0.75330096 0.25018275
000180 15 9e 12 3e 5d 07 54 3e 09 ee 6a 3d 97 65 43 bf
       0.14318116 0.20705934 0.057355914 -0.7632689
000190 22 76 87 3e 23 76 aa bf df 75 ee 3d 6b 4c 8b 3f
       0.26457316 -1.3317302 0.11643576 1.0882696
0001a0 2b 39 0c bf 01 1b a9 3f 19 d3 ca 3e 1a fd ba be
       -0.5477473 1.3211366 0.3961418 -0.36521226
0001b0 c6 c2 bd 3d 12 e0 ab bd 67 6c 63 3d c3 1b 83 bf
       0.09265666 -0.083923474 0.055523302 -1.0242847
0001c0 14 02 a2 bf 96 a9 eb 3e 0a d8 ac 3c c8 1a 85 3e
       -1.2656884 0.4602782 0.02109911 0.25996995
0001d0 1c 20 8f 3d bc 7b 67 3e 96 92 ad 3d f0 a0 77 3d
       0.06988546 0.22605795 0.08475225 0.060456216
0001e0 e3 e6 e3 3d a0 6d 21 bf 66 b7 1b bf 50 0c 7e be
       0.111280225 -0.630579 -0.6082672 -0.24809384
0001f0 e6 77 8d bf 21 d9 fd be e9 90 07 3d 2b 57 08 3e
       -1.1052215 -0.4957972 0.03309718 0.13314502
000200 66 27 48 bf 5e 75 bd 3c 9a db 72 3e 07 ec c0 3e
       -0.7818512 0.023127254 0.23716584 0.37680075
000210 4c 3d 98 3e 71 da 11 bf 8c 03 1f be e8 50 f3 3d
       0.29734266 -0.5697394 -0.15528697 0.11880666
000220 60 bc 35 bf 64 0c 6b be 7b 4b a8 3d 99 63 f1 3c
       -0.7099056 -0.22953945 0.08217522 0.029466437
000230 51 6d 55 3f a7 2e 88 bd 88 bd ac 3e 21 22 c0 bd
       0.8336993 -0.06649523 0.3373835 -0.093815096
000240 d0 ee 86 bc 2a 64 1e bf 19 b6 2a bd a8 8a 07 37
       -0.016471297 -0.6187159 -0.041677568 8.0789105e-06
000250 36 d3 bc be 13 ad 54 be 05 ce d2 3e 64 2f 64 3e
       -0.3687989 -0.20769148 0.41172805 0.22283703
000260 86 40 a2 3d 4a 32 e9 3c 98 77 73 3d a0 9d e4 3d
       0.07922463 0.028466363 0.059440225 0.11162877
000270 81 27 11 be 37 92 28 bf 85 e7 04 bb 39 8f 13 3d
       -0.14175226 -0.65848106 -0.0020279598 0.03602526
000280 14 f8 b9 3c 94 e7 aa 3c bf 48 2d bf a1 03 07 3b
       0.0227013 0.020862378 -0.67689127 0.0020601528
000290 9a 96 4f bf c3 ee b4 3d 8f 6a 53 3e a3 ee 6e 3e
       -0.81089175 0.08834603 0.20646118 0.2333322
0002a0 41 7e 71 3f 76 90 2f 3c 82 0b 31 bf 69 a0 bf 3d
       0.94333273 0.0107155945 -0.69158185 0.09356768
0002b0 15 8c 98 bf d9 e2 81 3f 5a 0c 01 bf 93 da 5b 3c
       -1.191775 1.0147353 -0.5040947 0.013418811
0002c0 cf e2 c3 3e e8 9d 35 bf 28 38 2c 3c 62 0e b3 3c
       0.3825898 -0.7094407 0.010511436 0.021857444
0002d0 1f 53 61 bd 65 56 ac 3c 9e 1b a2 bf a6 97 f1 3c
       -0.05501091 0.02103729 -1.2664678 0.029491257
0002e0 a2 5f ba be ff 1e 3b be 4e 4f 4b bf a1 a0 56 bf
       -0.36401087 -0.18273543 -0.79417884 -0.8383885
0002f0 3a b0 8d 3d aa e4 6f 3e 5b 2d 11 bf 78 12 f3 be
       0.06918378 0.23427072 -0.5670983 -0.47475028
000300 e0 6a c8 bd a4 b8 b7 bf df 39 92 3d cc e3 4a bb
       -0.0978601 -1.4353223 0.07139944 -0.0030958531
000310 2d a4 96 bf 79 a8 b6 3d 77 04 1a 3d 62 d4 44 3d
       -1.1768852 0.08918852 0.037601914 0.048054107
000320 54 f8 af 3d 65 72 65 3e f6 2f cb 3e 36 0f 67 bf
       0.08592287 0.2240692 0.3968503 -0.90257585
000330 ab 46 6c 3c 5a 43 95 3d ad 09 31 3f 6a 3e 87 3d
       0.014421145 0.07288237 0.6915539 0.066037014
000340 21 96 19 3d 77 72 a4 3d 37 c2 08 bf cb a8 b2 3d
       0.03749669 0.08029645 -0.5342135 0.08723601
000350 be de a7 3e a0 7f 44 bc 4b 7a 74 bf 96 3b a3 bb
       0.32787126 -0.011993319 -0.95499104 -0.0049814684
000360 7c 00 b1 3e 28 5c 4d 3d b9 8d e4 3f 7c 52 b8 3d
       0.34570682 0.050136715 1.785575 0.09000108
000370 84 c4 03 bd bf 74 99 bd 39 22 20 bf df 9c b4 bf
       -0.032169834 -0.07492971 -0.6255222 -1.4110373
000380 be 3e 10 bf 79 57 95 3e ba 9a a6 3e 03 6b 8c be
       -0.56345737 0.291683 0.32539922 -0.27425393
000390 ce 0f b5 3f 0f 81 74 3c b1 60 98 3d ae 53 8d 3f
       1.4145448 0.014923348 0.074403174 1.1041162
0003a0 b8 86 c5 be 5e 0b 88 3e 1f 72 48 3f 4f 8d f7 be
       -0.38579345 0.26571172 0.78299135 -0.48349997
0003b0 79 e3 22 bf df 51 d3 bf 7b cd e1 bf 4c 56 55 3d
       -0.63628346 -1.650936 -1.7640833 0.052084252
0003c0 4e c1 0e bf 85 1a dd 3d 35 3f 73 3e ce b8 d3 3d
       -0.5576371 0.10796074 0.2375458 0.10337983
0003d0 be 3f 84 bf f4 b6 57 bd a1 7b 92 bf 26 25 89 bf
       -1.0331953 -0.052664712 -1.1443979 -1.0714462
0003e0 65 b7 ad bc 1b ee f4 3e 9d 63 07 3d 28 64 aa bd
       -0.021205613 0.4783791 0.033053983 -0.083198845
0003f0 62 fc 3b bf 09 19 c5 3d ef b0 00 3e 9c da bd 3d
       -0.7343198 0.09623916 0.12567495 0.09270212

Decoder.dec2.bias f4 [31]
000000 1c d8 1b bf 37 2b a8 bc 22 fe 2f 40 79 b1 6a bd
       -0.6087663 -0.020528419 2.749886 -0.057298157
000010 55 48 50 41 df fb 20 bf 4a f2 80 c0 f4 1c 3b c0
       13.017659 -0.62884325 -4.0295763 -2.9236422
000020 4d 85 01 40 87 2a 20 3f b5 0b f3 3f 97 fc 23 c0
       2.023761 0.6256489 1.8987948 -2.5622919
000030 a2 e6 70 40 7e a5 66 c0 12 c0 c4 bd 3f f3 6f c0
       3.7640767 -3.6038508 -0.09606947 -3.7492216
000040 f1 a6 b0 bd 37 4f 89 c0 06 d0 c7 bd 9d 38 87 c0
       -0.086255915 -4.29092 -0.09756474 -4.225661
000050 ec 23 79 c0 3b 44 84 3e 70 36 e6 3c 7e 75 65 41
       -3.8928175 0.25833306 0.02810213 14.341185
000060 c6 bc 47 3e d5 1e 86 c0 59 b9 42 3e e6 12 81 c0
       0.19505605 -4.1912637 0.19016017 -4.033557
000070 55 ec 03 40 c0 8a 2d 3f 48 56 52 3f
       2.0612996 0.6778984 0.82162905
