results/3_niid/model_alone_n_0_m_0.pt (torch, 121552 bytes, 8 tensors)

Encoder.enc1.weight f4 [256, 22]
0	0xbe53ba30	-0.20676494
1	0xbdf1431e	-0.1178038
2	0xbe31ef3d	-0.17376418
3	0x3dbecc37	0.09316295
4	0x3bdc59e7	0.0067245844
5	0x3e0ade48	0.13561356
6	0x3d50e6b0	0.05100125
7	0xbdbb78a3	-0.09153869
8	0x3d861733	0.06547394
9	0xbe26b3ac	-0.16279477
10	0xbe21e8af	-0.15811418
11	0xbe4add52	-0.1981099
12	0xbdbe88c1	-0.093034275
13	0x3e3044ba	0.17213717
14	0xbe1e25f4	-0.15444165
15	0x3d9279bc	0.07152125
16	0xbe5ed39c	-0.2176041
17	0xbe57353e	-0.21016404
18	0x3dac8aff	0.08424949
19	0x3e0873f9	0.1332549
20	0xbdbacb77	-0.09120839
21	0xbdfaf40d	-0.1225358
22	0xbe237fe8	-0.15966761
23	0x3e19213d	0.14954086
24	0x3e182458	0.14857614
25	0xbda0c19e	-0.078494295
26	0xbd4cba55	-0.049982388
27	0xbe0f577d	-0.13998218
28	0x3e549fdd	0.20764108
29	0x3e11f0d0	0.14252019
30	0xbe3d2f27	-0.18475018
31	0x3dd63c1a	0.10460682
32	0xbe04a454	-0.12953311
33	0x3d638505	0.05554678
34	0xbe157f21	-0.14599277
35	0xbe13f7bf	-0.14449976
36	0x3d5b3164	0.0535139
37	0x3d02905f	0.031875964
38	0xbd03274f	-0.03201991
39	0xbe2a15a7	-0.16609822
40	0x3d6975c0	0.05699706
41	0x3e38892f	0.18021081
42	0x3e3e3f72	0.1857889
43	0x3d2e5207	0.042558696
44	0xbdfc575c	-0.1232135
45	0xbd2d9e82	-0.042387493
46	0x3c053240	0.008129656
47	0xbdd760d7	-0.105165176
48	0x3e0bd6c7	0.1365615
49	0xbd9bd009	-0.07608039
50	0x3e4e5f45	0.2015353
51	0x3d6a7dfd	0.057249058
52	0x3c6422b5	0.01392429
53	0x3de540cb	0.11193999
54	0x3d1f8464	0.038944617
55	0xbe29dde6	-0.16588554
56	0xbc834ac1	-0.016026856
57	0x3d241823	0.04006208
58	0xbe41bacb	-0.18918912
59	0xbca2b49a	-0.019861508
60	0x3d91a1cb	0.07110938
61	0x3e36b4bf	0.17842387
62	0x3d23aa3f	0.03995728
63	0x3ca78d92	0.020453248
64	0x3db39638	0.08768886
65	0xbe40b6f1	-0.18819787
66	0x3e2469b4	0.16055948
67	0x3dbeaa93	0.09309878
68	0xbdeda855	-0.116043724
69	0xbdf87fa7	-0.12133723
70	0xbdb6a6b0	-0.08918512
71	0x3d70929a	0.05873356
72	0x3dd02ab9	0.10164399
73	0xbd258434	-0.04040928
74	0xbe04f544	-0.12984186
75	0xbb8d2b43	-0.0043081357
76	0xbdc0d861	-0.09416271
77	0x3d0255ba	0.031820036
78	0x3c76cc37	0.015063337
79	0x3d69008d	0.05688529
80	0xbe468c62	-0.1938949
81	0xbe40f300	-0.18842697
82	0xbc9be2a2	-0.019028965
83	0x3d1c0c5f	0.038097735
84	0x3e276975	0.16348822
85	0xbe00b8ee	-0.12570545
86	0xbd2f44ac	-0.0427901
87	0xbdf44ffe	-0.1192932
88	0xbe5dee3b	-0.21672909
89	0x3d6334c3	0.05547024
90	0x3e087d0d	0.13328953
91	0x3e2e28ca	0.17007747
92	0xbdc046c1	-0.09388495
93	0xbe2e9031	-0.17047192
94	0xbcc48b1a	-0.02399211
95	0xbe317629	-0.17330231
96	0x3dc442ca	0.095830515
97	0xbd922e6a	-0.07137759
98	0x3d946c3f	0.07247209
99	0xbd64aa6b	-0.055826586
100	0x3dbbd12a	0.09170754
101	0xbd4c1eef	-0.049834188
102	0xbd67f10c	-0.056626365
103	0x3d63965b	0.055563312
104	0x3dff023b	0.12451597
105	0xbe5a7ce7	-0.21336709
106	0x3e28fea3	0.16503386
107	0x3cd4b97c	0.025967352
108	0xbe2293f8	-0.15876758
109	0xbdd33668	-0.103131115
110	0x3d9937cf	0.07481348
111	0xbcb9dc3e	-0.022688027
112	0xbe07fb7e	-0.1327953
113	0x3dcddfd6	0.10052459
114	0xbdaf9cf7	-0.085748605
115	0x3dd15abf	0.102223866
116	0x3e202249	0.15638079
117	0xbe4f281c	-0.20230144
118	0xbd96dce4	-0.0736635
119	0x3d4c0501	0.04980946
120	0xbdddd0ae	-0.10830818
121	0x3ddb9191	0.10721124
122	0xbe33551b	-0.17512934
123	0x3d1e30b9	0.038620684
124	0x3d0812aa	0.033220924
125	0x3d88c51b	0.0667822
126	0x3c35b4bd	0.011090455
127	0xbca26bdd	-0.019826824
128	0xbd636e1b	-0.055524927
129	0x3c8db46f	0.017297952
130	0xbe10a525	-0.14125498
131	0x3e0be301	0.13660814
132	0x3e0bdd8e	0.13658735
133	0x3cd59b25	0.026074955
134	0x3df5b623	0.119976304
135	0x3c84772c	0.016170107
136	0xbd60f110	-0.054917395
137	0x3d45556b	0.048177164
138	0xbd452545	-0.048131246
139	0x3df87e9a	0.12133522
140	0xbe654045	-0.22387798
141	0xbd759425	-0.059955735
142	0x3d8003f7	0.06250756
143	0xbe210c26	-0.1572729
144	0x3e0627e5	0.13101156
145	0x3d43cc0a	0.04780201
146	0xbd1f52f7	-0.03889748
147	0xbe37473a	-0.17898265
148	0xbe27e61b	-0.16396372
149	0x3e3b4b3c	0.18290418
150	0xbdec8a8e	-0.11549865
151	0xbe404108	-0.18774807
152	0x3e231e66	0.15929565
153	0xbb9801d2	-0.004638889
154	0xbe214907	-0.15750514
155	0xbe03e8e2	-0.12881806
156	0x3dcc5ee0	0.099790335
157	0xbe15765f	-0.14595936
158	0xbdbdfaa2	-0.0927632
159	0xbe1367b8	-0.14395034
160	0xbe081bd1	-0.13291861
161	0x3dabd213	0.08389678
162	0x3d82eb05	0.06392483
163	0x3d900143	0.07031491
164	0x3e15e576	0.14638314
165	0x3bc7e16b	0.00609987
166	0x3df3581d	0.11882041
167	0xbe270c3f	-0.16313265
168	0xbd19e0fb	-0.037568074
169	0x3dc478cf	0.09593355
170	0x3de71023	0.11282375
171	0x3db992fd	0.09061239
172	0x3d20f6de	0.03929793
173	0xbe4a7f3b	-0.19775097
174	0x3dd53b3b	0.10411688
175	0xbe4c138f	-0.19929336
176	0x3e0cfcad	0.13768263
177	0x3e369d28	0.17833388
178	0xbdd463c6	-0.10370593
179	0xbe3a62bd	-0.18201728
180	0xbe0794bc	-0.13240331
181	0x3e0694a4	0.1314264
182	0x3dbb6043	0.0914922
183	0x3dc740b9	0.09729142
184	0x3c9aab5e	0.018880542
185	0x3dc2383b	0.09483381
186	0x3d9c8f29	0.07644493
187	0xbe176b85	-0.14787109
188	0x3cb4dbae	0.022077408
189	0xbe2e7682	-0.17037395
190	0x3dfae916	0.12251489
191	0xbe0af16f	-0.13568662
192	0xbc8df706	-0.017329704
193	0xbd628cc2	-0.05531002
194	0xbbeb0046	-0.0071716635
195	0x3e2132a9	0.15741982
196	0xbe4e440f	-0.2014315
197	0x3d5ab005	0.05339052
198	0x3c913772	0.017726634
199	0x3e419559	0.18904628
200	0xbc427663	-0.011869046
201	0xbd4cbec8	-0.04998663
202	0xbcaf4c70	-0.021398753
203	0x3aeed022	0.0018219987
204	0x3e11209e	0.14172599
205	0x3e134dde	0.14385173
206	0xbcf49afe	-0.029859062
207	0x3e15982a	0.14608827
208	0xbd8d1672	-0.06889047
209	0x3db487d5	0.088149704
210	0xbda2bb11	-0.07945836
211	0xbdb4e034	-0.08831826
212	0xbd167f48	-0.03674248
213	0xbdcdf6c7	-0.10056835
214	0xbd3ede05	-0.046598453
215	0xbe1683ed	-0.14698763
216	0xbccc7b82	-0.024961237
217	0xbe37abf4	-0.17936689
218	0x3d17b1a3	0.037034642
219	0xbdf834c5	-0.1211944
220	0x3e06ae78	0.13152492
221	0xbe62aa9c	-0.22135395
222	0xbe3b43a9	-0.18287529
223	0xbde78488	-0.11304575
224	0xbdf43ae1	-0.11925293
225	0x3df5905d	0.11990426
226	0xbe275d86	-0.1634427
227	0xbd83e65a	-0.064404204
228	0x3df1f4c2	0.11814262
229	0xbe175683	-0.14779095
230	0x3dc47df8	0.09594339
231	0xbdd55b31	-0.10417784
232	0xbe4f3af4	-0.20237333
233	0x3e042925	0.1290632
234	0xbe5d3772	-0.21603182
235	0x3e2ac24c	0.16675681
236	0xbe5df8f3	-0.21676998
237	0x3d51aa73	0.051187944
238	0x3dcb40d4	0.09924474
239	0x3dbd15da	0.092326835
240	0x3e30e0dd	0.17273279
241	0x3d41a5ce	0.047277264
242	0xbe16a22a	-0.14710298
243	0xbe3d3003	-0.18475346
244	0x3ddeaee5	0.10873202
245	0x3de43b4b	0.11144122
246	0xbd69270f	-0.056922015
247	0xbe526de6	-0.20549735
248	0x3dea1377	0.11429494
249	0x3e3149b5	0.17313273
250	0xbe7bdd7c	-0.24596208
251	0xbd7ec631	-0.06220073
252	0xbdf18961	-0.11793781
253	0x3d787974	0.0606627
254	0x3ca226e4	0.019793935
255	0xbdec08b1	-0.11525095

Encoder.enc1.bias f4 [256]
0	0x3e119613	0.14217405
1	0x3d9a9ea5	0.0754979
2	0x3d0badba	0.034101225
3	0xbe10a8c7	-0.14126883
4	0xbdf4ba44	-0.1194959
5	0x3dddca1c	0.10829565
6	0xbca43f27	-0.020049645
7	0x3d8643d6	0.065559074
8	0xbd5c98ea	-0.053856768
9	0xbdd14b09	-0.1021939
10	0xbe155d61	-0.14586402
11	0xbe1570ca	-0.14593807
12	0xbe35e1ac	-0.17761868
13	0xbd08529d	-0.03328191
14	0xbdfa345e	-0.122170195
15	0xbe5786f1	-0.2104757
16	0x3e354d92	0.17705372
17	0x3d091245	0.03346469
18	0xbdc384c2	-0.09546806
19	0x3e2db643	0.16964059
20	0xbdd052fb	-0.10172077
21	0xbe51b262	-0.20478204
22	0xbd35e850	-0.044411004
23	0xbbfa0eab	-0.007631143
24	0xbe0a890e	-0.13528845
25	0x3e2cc17d	0.16870685
26	0x3df5a4ee	0.119943485
27	0xbdf7e067	-0.12103348
28	0xbd1c80e8	-0.038208872
29	0x3e1b3962	0.15158609
30	0xbd37dbe8	-0.044887453
31	0xbdf05146	-0.11734252
32	0xbe4212b7	-0.18952452
33	0xbcf79a0e	-0.030224826
34	0xbe28b36f	-0.16474698
35	0x3e494bc3	0.19657807
36	0x3d3b8f42	0.04579092
37	0x3cdef037	0.027214153
38	0xbdbf428f	-0.09338867
39	0x3c147872	0.0090619195
40	0x3d59b6af	0.053152736
41	0x3cd57be8	0.02606006
42	0x3e2cb102	0.16864398
43	0xbe361d88	-0.17784703
44	0xbd92fd5f	-0.07177233
45	0xbe2f81dc	-0.17139381
46	0x3d406552	0.046971627
47	0xbdb50ea1	-0.08840681
48	0xbe507b71	-0.20359589
49	0x3d6e9761	0.058249835
50	0xbe0f30c7	-0.13983451
51	0x3bbeef63	0.005826877
52	0xbd6a3581	-0.05717993
53	0x3d0161e5	0.0315875
54	0xbdc9bd3d	-0.098505475
55	0xbdb033a4	-0.086036
56	0x3df005db	0.11719867
57	0x3dbe890f	0.093034856
58	0x3e26db48	0.16294587
59	0x3e306c6b	0.17228858
60	0xbe049557	-0.12947594
61	0x3db05974	0.08610812
62	0xbe47f9e2	-0.19528916
63	0x3e33be95	0.1755317
64	0x3e2a1981	0.16611291
65	0x3c0cfb9f	0.008604913
66	0x3c4b9096	0.012424609
67	0x3cdea27e	0.027177092
68	0xbd0cda97	-0.03438815
69	0xbde2f8ce	-0.11082612
70	0xbddb8fea	-0.10720809
71	0xbd4db404	-0.050220504
72	0xbe3d4a5c	-0.18485397
73	0xbe3da4d3	-0.18519907
74	0xbcf3fb1e	-0.029782828
75	0x3d09bfbb	0.033630114
76	0xbe41733e	-0.18891618
77	0x3d9fe8e3	0.078080915
78	0xbe0b25c7	-0.1358863
79	0xbe805359	-0.2506359
80	0xbe08dec3	-0.13366227
81	0xbe047150	-0.1293385
82	0xbb9add54	-0.0047260914
83	0xbce3f76b	-0.027827939
84	0x3e25f13d	0.16205306
85	0x3a7d2636	0.0009656878
86	0x3d47733c	0.04869388
87	0xbe1a24e6	-0.15053138
88	0x3e3d8a1e	0.18509719
89	0xbe3008fd	-0.17190929
90	0xbe545374	-0.2073496
91	0xbe16ac38	-0.14714134
92	0x3c9690f2	0.018379662
93	0xbe5b7beb	-0.2143399
94	0xbd3cdbc0	-0.046108007
95	0x3e5188a4	0.2046228
96	0xbdb264a5	-0.08710603
97	0xbdaf020a	-0.08545311
98	0x3de01514	0.1094152
99	0xbe5582fd	-0.2085075
100	0xbde164ed	-0.11005578
101	0x3d43f344	0.047839418
102	0xbd9d3878	-0.07676786
103	0x3d24a5d5	0.040197212
104	0xbcb06de5	-0.021536777
105	0x3bc45b87	0.005992356
106	0x3dc66d9c	0.09688875
107	0xbc7faa77	-0.015604607
108	0x3dc66eb5	0.096890844
109	0x3d44b8a8	0.048027664
110	0x3db13e29	0.08654434
111	0x3d2acd0b	0.04169945
112	0x3e2477dd	0.16061349
113	0x3d1efae6	0.038813494
114	0xbdb29337	-0.08719485
115	0xbdb0e783	-0.08637907
116	0x3c36939c	0.011143591
117	0x3e03fc0a	0.12889114
118	0x3e2feab3	0.17179374
119	0xbe17714b	-0.14789312
120	0x3df82923	0.12117221
121	0x3e2ae309	0.1668817
122	0xbe06f982	-0.13181117
123	0xbe1293f9	-0.1431426
124	0x3d2d7a24	0.04235281
125	0x3e118adf	0.14213131
126	0x3cfe355b	0.031031301
127	0xbe5db627	-0.21651517
128	0x3ddde353	0.10834374
129	0x3e297e5a	0.16552106
130	0xbd766d61	-0.060162906
131	0xbd57c5a7	-0.05267873
132	0x3dfff5eb	0.12498077
133	0xbdac7c74	-0.08422175
134	0x3c8c58ea	0.017132241
135	0xbdd71800	-0.105026245
136	0xbe249cc5	-0.16075428
137	0xbd0c1742	-0.034201868
138	0xbe11d8df	-0.14242886
139	0x3cb54a09	0.02213003
140	0x3de30d98	0.11086577
141	0x3d24f912	0.040276594
142	0x3d83a9c6	0.06428866
143	0xbd0c9233	-0.034319114
144	0xbe50a1ac	-0.20374173
145	0x3e1a3ff2	0.15063456
146	0x3df8f0fe	0.121553406
147	0x3b1a5133	0.0023546934
148	0x3e18891e	0.14896056
149	0xbdc6f7cc	-0.09715232
150	0xbe565eda	-0.2093462
151	0x3e3e6ba3	0.18595748
152	0xbe3dcd37	-0.18535315
153	0xbd8be11d	-0.06830046
154	0x3d3dcb6b	0.046336573
155	0x3e04ba22	0.12961629
156	0xbde18661	-0.11011959
157	0xbe494886	-0.19656572
158	0x3dc41012	0.09573378
159	0x3df01ed7	0.11724632
160	0xbca80b61	-0.020513238
161	0x3d8bfa7d	0.06834886
162	0x3e02604a	0.12732044
163	0x3e3b4184	0.18286711
164	0x3dc31f87	0.09527498
165	0xbe103b1b	-0.14085047
166	0x3cdc75d4	0.026911654
167	0x3dba68ed	0.09102044
168	0xbe4b47a5	-0.19851549
169	0xbdd82099	-0.105530925
170	0xbe56c00a	-0.20971695
171	0xbc7a9e2b	-0.015296499
172	0xbe55950b	-0.20857637
173	0xbe028af5	-0.1274832
174	0xbe0ed6a9	-0.13949074
175	0xbd854764	-0.06507757
176	0xbd8fcf05	-0.07021908
177	0xbe48aac9	-0.195964
178	0x3e11adbf	0.14226435
179	0x3d840993	0.06447139
180	0xbe018d05	-0.12651451
181	0x3d42fa50	0.047601998
182	0xbe26ea7e	-0.16300389
183	0x3e4abbc9	0.19798197
184	0xbd83151a	-0.06400509
185	0xbe1265b3	-0.14296608
186	0xbc7d8507	-0.015473611
187	0x3d324636	0.04352399
188	0xbd980aee	-0.0742396
189	0x3debc222	0.11511637
190	0x3da136af	0.07871758
191	0x3d4645fb	0.048406582
192	0x3de17d86	0.1101027
193	0xbd8559ca	-0.065112665
194	0xbe1fe26c	-0.15613717
195	0xbcdea68e	-0.027179029
196	0xbe3d9652	-0.18514374
197	0x3e166391	0.14686419
198	0xbc7a840c	-0.0152902715
199	0xbe4872bf	-0.19575022
200	0xbe173435	-0.14766009
201	0xbc66cc69	-0.014086821
202	0xbe02fa5e	-0.1279082
203	0xbe2c90c0	-0.16852093
204	0xbe280f19	-0.1641201
205	0x3e0bf66e	0.13668224
206	0xbe56ce90	-0.20977235
207	0xbe362a50	-0.17789578
208	0x3e362cd2	0.17790535
209	0x3d59cb89	0.053172622
210	0xbdec1062	-0.11526562
211	0x3e166e41	0.14690496
212	0xbd60a406	-0.054843925
213	0xbe157edd	-0.14599176
214	0x3dc2fcc0	0.095208645
215	0x3ceeed9f	0.029166041
216	0xbdf3d687	-0.11906152
217	0xbd030da5	-0.031995434
218	0x3dcdfc15	0.100578465
219	0x3d8a4c01	0.06752778
220	0xbd525b4d	-0.051356602
221	0xbcd94d95	-0.026526252
222	0xbe3e095e	-0.18558261
223	0xbcc0be99	-0.023528384
224	0xbe039ade	-0.12852046
225	0xbddd8aa9	-0.10817463
226	0xbe1743be	-0.14771935
227	0x3d17bf10	0.037047446
228	0xbe22a04a	-0.15881458
229	0xbe55887c	-0.20852846
230	0xbe1a0264	-0.15039974
231	0xbe2e3272	-0.17011431
232	0xbc4aa6f2	-0.012368904
233	0xbe06afc7	-0.13152991
234	0xbdad8de5	-0.0847433
235	0x3da78395	0.08179394
236	0xbd4cb3d2	-0.049976178
237	0xbc71d210	-0.014759555
238	0xbdb30c73	-0.08742609
239	0x3e6eff37	0.23339544
240	0x3d1aa45c	0.0377544
241	0x3ca9e969	0.020741181
242	0xbe0de2e8	-0.13856089
243	0xbbe3537a	-0.0069374414
244	0x3dec9c98	0.115533054
245	0xbd49db57	-0.049281444
246	0xbe1e7550	-0.15474439
247	0x3e103995	0.14084466
248	0xbdaad9dd	-0.083423354
249	0xbe575ec2	-0.21032241
250	0xbd843369	-0.06455118
251	0x3e516e8d	0.20452328
252	0xbdf49764	-0.11942938
253	0xbdc07e31	-0.09399069
254	0xbc61c87f	-0.013780712
255	0x3e17b9f7	0.14817034

Encoder.enc2.weight f4 [40, 256]
0	0x3d1b9e01	0.03799248
1	0x3d614824	0.05500044
2	0xbcbbb5f7	-0.022913916
3	0x3cbbdcf8	0.022932515
4	0xbaf9a030	-0.0019044932
5	0x3d74feb4	0.059813216
6	0xbd0c5283	-0.034258377
7	0x3d5ece1e	0.054395787
8	0xbd81bb51	-0.06334556
9	0x3d67c104	0.05658056
10	0xbb65c931	-0.0035062546
11	0xbd15e116	-0.03659161
12	0x3c665383	0.014057997
13	0xbcee4478	-0.029085383
14	0x3d9933a8	0.07480556
15	0xbcea5e04	-0.028609283
16	0x3bcecb31	0.0063108434
17	0xbb6cd710	-0.003613893
18	0x3c8fde7b	0.017562142
19	0x3c4ea26c	0.012611967
20	0x3d2f674b	0.042823117
21	0xbd8c8973	-0.06862154
22	0xbb72cac1	-0.003704712
23	0xbc744b2e	-0.014910502
24	0x3d19a8bf	0.037514444
25	0x3b5f4fa5	0.0034074571
26	0x3d41a9ca	0.047281064
27	0x3d3d7dac	0.04626243
28	0x3ceceaee	0.028920617
29	0xbca7e69a	-0.020495702
30	0xbc626e9c	-0.013820317
31	0x3d16a1f7	0.036775555
32	0x3ccb7968	0.024838164
33	0x3d874ce6	0.06606464
34	0x3cba1d94	0.022719182
35	0xbcd6c967	-0.026219083
36	0xbd6c30f8	-0.057663888
37	0x3c87f0f5	0.01659439
38	0x3caacfe6	0.020851087
39	0x3d4c0485	0.049808998
40	0xbd46d309	-0.048541103
41	0x3c524d12	0.012835758
42	0xbc390867	-0.011293507
43	0x3d3019e4	0.04299344
44	0x3c03e9a6	0.008051312
45	0xbcd29e76	-0.025710326
46	0x3b14f76d	0.0022730485
47	0x3ceaffef	0.028686492
48	0x3d434c10	0.04767996
49	0x3b1565b7	0.0022796222
50	0xbd039525	-0.032124657
51	0xbc15acba	-0.0091354195
52	0x3ca78cba	0.020452846
53	0xbd3aacf5	-0.0455751
54	0xbcc00ba8	-0.023443058
55	0xba241829	-0.00062597037
56	0x3c7b979e	0.015355973
57	0x3d1c91a0	0.038224816
58	0xbcab3d42	-0.020903233
59	0xbd5b30be	-0.05351328
60	0xbc5f520f	-0.013630404
61	0xbd53f98e	-0.051751666
62	0xbca4417b	-0.020050755
63	0xbce283e0	-0.027650774
64	0xbd3255d6	-0.04353889
65	0x3d7173da	0.058948375
66	0x3c077ccb	0.008269499
67	0x3c267064	0.010158632
68	0x3d3b59e2	0.045740016
69	0x3d4ad061	0.04951513
70	0xbc13c4af	-0.009019061
71	0xbd5aba62	-0.053400405
72	0xbd0b1bae	-0.033961944
73	0xbd661b02	-0.0561781
74	0x3b5751f0	0.0032855235
75	0x3d2fd4fc	0.042927727
76	0x3d175090	0.036942065
77	0xbd12672b	-0.03574292
78	0x3d458f62	0.048232444
79	0x3d58030b	0.052737277
80	0xbd6163db	-0.05502687
81	0x3b2d1744	0.0026411572
82	0xbc8278a0	-0.01592666
83	0xb99aa21f	-0.0002949396
84	0xbc9f4626	-0.01944263
85	0xbca212cf	-0.01978436
86	0x3c6d66ac	0.014489811
87	0x3d3eb544	0.046559587
88	0x3d07a8b3	0.03311987
89	0xbd27b9a5	-0.04094853
90	0xbd63316e	-0.05546706
91	0x3ca0758e	0.019587304
92	0x3c803672	0.015650962
93	0xbd2f5183	-0.042802345
94	0xbd37dede	-0.044890277
95	0x3d38e947	0.045144346
96	0xbcaf491a	-0.021397162
97	0x3d434d3f	0.04768109
98	0xbd413168	-0.047166258
99	0x3d345a4b	0.044031423
100	0xbc6d409d	-0.014480737
101	0xbd1a7aa9	-0.037714634
102	0x3d40fc06	0.04711535
103	0x3d3d66e8	0.046240717
104	0xbcec91ff	-0.02887821
105	0x3d6f0c55	0.05836137
106	0xbce614d5	-0.028086105
107	0xbb89c7c1	-0.0042047207
108	0x3caf93ff	0.021432875
109	0x3c1df2e8	0.009640433
110	0x3bb2ff15	0.005462537
111	0xb996d744	-0.00028770615
112	0x3d402cd6	0.04691776
113	0x3d49e356	0.04928907
114	0xbd360521	-0.044438485
115	0xbd1be9af	-0.038064655
116	0xbd2eb7e2	-0.042655833
117	0x3ce9f058	0.028556988
118	0xbd16c89b	-0.036812406
119	0xbc9a5a8b	-0.018842002
120	0xbd653cb8	-0.05596611
121	0xbc44ee7a	-0.012019748
122	0x3becc634	0.007225776
123	0xbd4cd5db	-0.050008636
124	0x3d3b660d	0.04575162
125	0x3ce73627	0.028224064
126	0xbd71b511	-0.05901057
127	0x3d91266a	0.07087405
128	0xbcfdf6fc	-0.03100156
129	0xbd3a402b	-0.04547135
130	0xbd3ef813	-0.0466233
131	0xbcf4700c	-0.029838584
132	0x3c137768	0.009000637
133	0x3bde9cb3	0.0067935823
134	0xbc0b1ad9	-0.008490288
135	0x3d623152	0.055222817
136	0xbc86bc22	-0.01644713
137	0xbd3d84df	-0.046269294
138	0xbd3a8fb6	-0.04554721
139	0x3d6ea5f2	0.058263727
140	0xbb98deb7	-0.0046652216
141	0x3d44c3c1	0.048038248
142	0xbcd0b063	-0.025474733
143	0xbcd28005	-0.02569581
144	0x3d093eb7	0.033507075
145	0xbc8407f4	-0.016117074
146	0x3d275c48	0.04085949
147	0xbd2049cb	-0.039132874
148	0xbd754a8a	-0.05988554
149	0xbbe9d94c	-0.0071364995
150	0xbd3a793a	-0.045525767
151	0xbc928022	-0.017883364
152	0xbd1411d3	-0.03614981
153	0x3c159dc5	0.0091318535
154	0x3d9352e1	0.07193542
155	0xbc7d130e	-0.0154464375
156	0x3ce46bfd	0.027883524
157	0xbaeff4a8	-0.0018307166
158	0xbd376f6e	-0.044784002
159	0xbd03898d	-0.0321136
160	0x3c2e51f9	0.010639661
161	0xba318be2	-0.00067728583
162	0x3ce6cfbd	0.02817523
163	0xbd1bdb7b	-0.03805111
164	0x3d2ef1fa	0.042711236
165	0xbd368b48	-0.044566423
166	0x3d0e0104	0.034668937
167	0xbc152774	-0.009103645
168	0xbcce86b3	-0.025210714
169	0x3d6a2548	0.05716446
170	0xbca1366f	-0.019679276
171	0x3b918045	0.0044403397
172	0xbd0e06e9	-0.03467456
173	0x3d0790b1	0.033096973
174	0x3cb2af61	0.021812143
175	0xbcfc6079	-0.03080772
176	0x3cd85014	0.026405372
177	0x3cfd3588	0.030909315
178	0xbc051263	-0.0081220595
179	0x3d0eb05d	0.034836162
180	0xbd935eab	-0.07195791
181	0xbd40fd2f	-0.047116455
182	0xbc6e6b4a	-0.014551947
183	0x3c86671b	0.016406586
184	0xbc8a28c0	-0.016865134
185	0x3c5aa670	0.013345346
186	0xbb52f52e	-0.0032189596
187	0xbc2733ef	-0.010205253
188	0xbd55f5e2	-0.052236445
189	0x3c83f24c	0.016106747
190	0x3ce13ebc	0.027495734
191	0x3d5215ee	0.051290445
192	0x3d742a2e	0.05961054
193	0x3d315924	0.0432979
194	0xbc885e00	-0.016646385
195	0xbbf9ea12	-0.0076267803
196	0xbcd28f0c	-0.025702976
197	0x3c84d0cd	0.016212845
198	0x3c55005f	0.013000577
199	0x3cb7cb8f	0.022435931
200	0xbd03e05d	-0.03219639
201	0x3d04a01c	0.032379255
202	0xbcac043f	-0.020998118
203	0xbb3aa110	-0.0028477348
204	0xbcb74ecf	-0.022376446
205	0xbd811d0e	-0.0630437
206	0x3cbbab50	0.022908837
207	0xba1cf7bd	-0.00059878436
208	0x3d3664b5	0.044529635
209	0x3cdb0372	0.026735041
210	0xbd143641	-0.036184553
211	0x3c99a6bb	0.018756261
212	0x3d388b7a	0.04505489
213	0xbc98ac64	-0.01863689
214	0xbd1816aa	-0.03713099
215	0x3c86623f	0.01640427
216	0xbc874ef3	-0.016517138
217	0xbd088f00	-0.0333395
218	0x3d81ebb1	0.06343783
219	0x3c8efd21	0.017454686
220	0xbd00a28d	-0.03140502
221	0xbd06903e	-0.032852404
222	0x3c86882f	0.01642236
223	0xbd05847e	-0.032597058
224	0x3d5eae17	0.054365244
225	0xbce35481	-0.027750256
226	0xbd3ae5d8	-0.045629352
227	0xbcf47224	-0.029839583
228	0x3c435690	0.011922494
229	0xbd000780	-0.031257153
230	0x3b08b8e4	0.0020862157
231	0xbd1883e2	-0.03723515
232	0x3c4cfcdc	0.012511458
233	0x3c6365e8	0.013879277
234	0xbb35278a	-0.0027641975
235	0xbd00d959	-0.03145728
236	0x3c20fe37	0.009826235
237	0x3d40cc2b	0.04706971
238	0xbd10841a	-0.035282232
239	0xbbfea63a	-0.0077712806
240	0xbd008ddf	-0.0313853
241	0xbd2a0448	-0.04150799
242	0xbd6b3a71	-0.05742878
243	0xbbe36ed4	-0.006940702
244	0x3d432684	0.047644153
245	0xbc055037	-0.0081368005
246	0xbc37cf72	-0.011218892
247	0xbd166bf6	-0.036724053
248	0xbc9002c2	-0.01757944
249	0xbd27f221	-0.041002396
250	0x3b84349e	0.004034593
251	0x3d2b7c22	0.04186643
252	0x3cd7d4bf	0.026346562
253	0x3cd48e71	0.025946828
254	0x3d199738	0.03749773
255	0xbcd3f2ca	-0.025872607

Encoder.enc2.bias f4 [40]
0	0x3c59936e	0.013279779
1	0xbd3846c7	-0.044989374
2	0xbb9a885b	-0.004715962
3	0xbd382d3f	-0.044965025
4	0x3c204689	0.009782442
5	0x3d7a6924	0.061135426
6	0x3d5b78fc	0.053582177
7	0xbc945150	-0.01810518
8	0x3bb1a200	0.0054209232
9	0x3cd98886	0.026554357
10	0x3d4e7cef	0.050412115
11	0x3c1cbc26	0.009566342
12	0x3ca6ab7b	0.02034544
13	0x3a222e9b	0.00061867543
14	0x3cbdf142	0.02318633
15	0xbd4d5f18	-0.050139517
16	0xbc9e07ae	-0.019290771
17	0xbcfb245b	-0.030656984
18	0xbcbabe2c	-0.02279576
19	0xbbe9d776	-0.0071362806
20	0x3cb8ef58	0.022575065
21	0xbbf5af6a	-0.0074977176
22	0xbd0241c4	-0.031801
23	0xbd8d9ce5	-0.06914691
24	0xbce19a26	-0.027539324
25	0xbc42a596	-0.011880299
26	0xbda542e6	-0.080694005
27	0xbcc6e468	-0.024278834
28	0xbc95a3f9	-0.018266665
29	0x3d4766f2	0.04868216
30	0x3d0e3090	0.03471428
31	0x3d174546	0.0369313
32	0xbdaa279f	-0.083083384
33	0xbb8d02cf	-0.0043033133
34	0x3ca4ed98	0.020132825
35	0xbcc9dfcf	-0.024642853
36	0x3cf5d435	0.030008415
37	0xbd581740	-0.052756548
38	0x3cbd7c4c	0.023130558
39	0xbd6740fd	-0.056458462

Decoder.dec1.weight f4 [256, 20]
0	0x3e125ac0	0.14292431
1	0xbdce2968	-0.10066491
2	0x3df516f9	0.11967272
3	0x3d91dfb4	0.07122746
4	0xbe0e9f84	-0.13928038
5	0x3d9160e8	0.070985615
6	0x3d29ed35	0.041485984
7	0x3d20ffe4	0.039306536
8	0xbe0402bb	-0.12891667
9	0xbdad14c3	-0.084512256
10	0xbd0fb2ea	-0.035082735
11	0x3ddbb11b	0.107271396
12	0xbe05bb60	-0.13059759
13	0xbe238326	-0.15967998
14	0xbe4c69ba	-0.19962206
15	0xbe112115	-0.14172776
16	0xbe131905	-0.14365013
17	0xbd930125	-0.07177953
18	0x3e016a4c	0.12638205
19	0x3e748b86	0.23881349
20	0xbe2d7190	-0.16937852
21	0x3e252bf6	0.16130051
22	0x3e128f0a	0.14312378
23	0xbdb510e8	-0.08841115
24	0x3dfa105a	0.1221015
25	0x3d90b044	0.0706487
26	0xbe6548fa	-0.2239112
27	0xbdbf3afd	-0.09337423
28	0x3d6f22a9	0.058382664
29	0xbdb39384	-0.08768371
30	0x3dfd399c	0.12364504
31	0xbde2ad22	-0.11068179
32	0x3d458697	0.048224058
33	0x3da7acc7	0.081872515
34	0x3e3e2700	0.18569565
35	0xbe1cc4e8	-0.15309489
36	0x3e2ce6f0	0.1688497
37	0xbe101cb5	-0.14073451
38	0x3da12b30	0.078695655
39	0x3e1d65d0	0.1537087
40	0xbe814c18	-0.25253367
41	0xbdee7373	-0.11643114
42	0x3d031683	0.03200389
43	0x3d4dcfcd	0.050247002
44	0x3d051de7	0.03249922
45	0x3e2cd5d7	0.16878448
46	0xbdf339bb	-0.118762456
47	0xbe1661fe	-0.14685819
48	0xbdad4f7c	-0.08462426
49	0x3e0d6867	0.13809358
50	0x3d914e66	0.070950314
51	0x3ce565cf	0.028002648
52	0xbe01bdc5	-0.12670048
53	0xbdce1418	-0.10062426
54	0x3d77d289	0.060503516
55	0x3dcfdb7a	0.10149284
56	0xbdd2b623	-0.10288646
57	0xbd5b58be	-0.053551428
58	0x3e83d30f	0.25746962
59	0x3c7d3673	0.015454876
60	0xbb058cae	-0.002037804
61	0x3d23b74c	0.039969727
62	0x3e02c98c	0.12772197
63	0x3dc36535	0.09540788
64	0x3d4f3712	0.05058963
65	0x3acd94f1	0.0015684647
66	0xbd0dc40a	-0.034610786
67	0xbda2e408	-0.0795365
68	0x3d8c1577	0.068400316
69	0x3d0b2728	0.03397289
70	0xbcd2492b	-0.025669655
71	0xbda0287a	-0.0782022
72	0xbda05750	-0.078291535
73	0xbe062e17	-0.1310352
74	0x3e143f83	0.14477353
75	0xbdd51edb	-0.10406276
76	0x3e26c576	0.16286263
77	0x3dd6c37d	0.10486505
78	0x3d55eb06	0.05222609
79	0xbda2f93a	-0.079576924
80	0x3d2bbbbe	0.04192709
81	0x3d4aa686	0.049475215
82	0x3dc788a5	0.0974286
83	0x3deb78d1	0.11497653
84	0xbe5c55ee	-0.21517155
85	0x3c75cdd8	0.01500269
86	0xbd360851	-0.044441525
87	0x3e72167c	0.2364139
88	0xbda45c60	-0.08025432
89	0xbd1efef1	-0.03881735
90	0xbe41562b	-0.18880527
91	0x3d26bb8c	0.040706202
92	0xbd062c8a	-0.03275732
93	0xbd94c140	-0.07263422
94	0x3e4551f2	0.19269541
95	0xbd25d930	-0.04049033
96	0xbd9c8c32	-0.07643928
97	0xbe156bef	-0.14591955
98	0xbd798dd5	-0.060926277
99	0xbe027bb2	-0.12742499
100	0x3df67c51	0.1203543
101	0x3ddb4f37	0.107084684
102	0x3dc41808	0.09574896
103	0xbc00cb22	-0.007860931
104	0xbc987346	-0.018609654
105	0x3e03db88	0.12876713
106	0xb9c98562	-0.00038437085
107	0xbdcb695b	-0.09932204
108	0xbddc723d	-0.10763977
109	0x3d9a70ef	0.075410716
110	0x3de25de8	0.110530674
111	0x3dac559d	0.08414767
112	0x3db503b1	0.08838595
113	0x3dca5f73	0.09881487
114	0xbbfe13f1	-0.007753842
115	0x3da8d843	0.08244374
116	0x3d28fdff	0.041257855
117	0x3e0e48e5	0.13894995
118	0xbb6c145a	-0.0036022873
119	0xbd9356dc	-0.071943015
120	0xbdd9dd51	-0.10637916
121	0xbcf18dcf	-0.029486565
122	0xbda08750	-0.07838309
123	0xbd1baf84	-0.03800918
124	0x3d2f6a43	0.04282595
125	0xbcf366ce	-0.029712107
126	0xbd53b10d	-0.05168252
127	0xbd36d92d	-0.04464071
128	0xbd41a97b	-0.04728077
129	0xbdba3f4c	-0.09094104
130	0xbd042850	-0.032265007
131	0xbddaf342	-0.10690929
132	0x3dc8b6df	0.09800505
133	0xbd1ae020	-0.0378114
134	0xbc0befd3	-0.008541065
135	0xbdbde6d7	-0.09272545
136	0x3df6a9c2	0.120440975
137	0x3e674b4c	0.22587317
138	0xbd572d74	-0.05253358
139	0x3d670d4f	0.056409176
140	0xbd86f750	-0.0659014
141	0x3e1069b4	0.14102823
142	0xbb819074	-0.0039539877
143	0xbdb3c881	-0.087784775
144	0x3d5e8797	0.054328527
145	0x3df1d1fd	0.1180763
146	0xbd232e52	-0.039839096
147	0x3cda0a2e	0.026616182
148	0xbdfb0b9b	-0.12258073
149	0xbe0732af	-0.13202928
150	0xbda95130	-0.082674384
151	0xbdb16bcb	-0.08663138
152	0x3e6f3a20	0.23362017
153	0x3e02874e	0.12746927
154	0xbde0069b	-0.1093876
155	0xbe265382	-0.16242793
156	0xbde35704	-0.11100581
157	0xbe3fa517	-0.1871532
158	0x3e46ab1a	0.19401208
159	0x3c27aa02	0.010233404
160	0x3dc44489	0.095833845
161	0x3e2d07e6	0.16897544
162	0x3dcb0007	0.099121146
163	0x3e28581c	0.16439861
164	0xbe4a3434	-0.19746476
165	0xbe20f2d9	-0.15717639
166	0x3dadea0a	0.08491905
167	0xbd8e3241	-0.06943179
168	0x3e3c209d	0.18371816
169	0x3e20f18f	0.15717147
170	0x3e017075	0.12640555
171	0xbe0975fe	-0.13423917
172	0xbe1e4712	-0.15456799
173	0xbe4f391b	-0.20236628
174	0xbe618b28	-0.2202574
175	0x3d31ba74	0.043390706
176	0x3c5f8195	0.013641735
177	0x3d26e7ee	0.04074853
178	0xbe229b0e	-0.15879461
179	0x3dbeea84	0.09322074
180	0xbc8f2022	-0.017471377
181	0x3e11be48	0.14232743
182	0x3d8550df	0.065095656
183	0x3d846708	0.06464964
184	0x3e010bee	0.12602207
185	0x3e4cbdca	0.19994274
186	0x3ddfbbf3	0.1092452
187	0x3d5c4803	0.053779613
188	0xbd01dc2a	-0.031704105
189	0xbdc255f2	-0.09489049
190	0x3db13590	0.08652794
191	0x3e1e829a	0.15479508
192	0xbd8358e9	-0.06413443
193	0xbc6265b5	-0.013818194
194	0xbe6c3864	-0.23068386
195	0xbd4579f7	-0.048212018
196	0xbd31a241	-0.043367628
197	0x3d23865c	0.039923057
198	0x3daa37f5	0.08311454
199	0x3e0658e8	0.13119853
200	0xbd87ce70	-0.06631172
201	0xbdbdcc99	-0.092675395
202	0xbe318e50	-0.17339444
203	0xbe443bcd	-0.19163437
204	0xbc2ebdcb	-0.010665367
205	0xbdf39d9b	-0.11895295
206	0xbdfb1cd3	-0.12261357
207	0x3dad29e2	0.08455254
208	0x3d3feec5	0.046858568
209	0x3d42c59f	0.047551747
210	0x3e081afa	0.1329154
211	0xbda44d7c	-0.080225915
212	0xbd293eed	-0.041319776
213	0xbe2e6762	-0.17031625
214	0x3d826910	0.06367695
215	0x3d96a188	0.073550284
216	0xbe73abbd	-0.23795982
217	0xbd8199ea	-0.06328185
218	0x3e639214	0.22223693
219	0x3d55e869	0.052223597
220	0x3e6497a5	0.22323473
221	0xbe10a2cc	-0.14124602
222	0x3de0efde	0.10983251
223	0x3ceeeecd	0.029166603
224	0x3e0e812f	0.13916467
225	0x3c953dec	0.018218003
226	0xbd865076	-0.065583155
227	0xbe0bd736	-0.13656315
228	0xbda37134	-0.07980576
229	0x3e2f6591	0.17128588
230	0xbcb86265	-0.022507856
231	0xbdd886aa	-0.1057256
232	0x3dc48adf	0.095968
233	0xbdde8f93	-0.10867228
234	0x3c672db9	0.014110022
235	0x3d88cb6f	0.06679427
236	0x3e342ddd	0.1759562
237	0x3d2172b6	0.039416037
238	0xbd4b497e	-0.049630634
239	0x3d864f19	0.065580554
240	0xbd286ee4	-0.04112138
241	0xbd9ace77	-0.07558911
242	0xbd836276	-0.06415264
243	0x3e4a6039	0.19763269
244	0x3e169b46	0.1470767
245	0xbdd87d4f	-0.10570776
246	0x3e557ccc	0.20848387
247	0xbdf8cc91	-0.12148393
248	0xbcc5f379	-0.024163948
249	0xbdf06ec9	-0.117398806
250	0xbc63bea4	-0.013900433
251	0x3d9b4b5c	0.07582733
252	0xbd74e7bf	-0.059791323
253	0xbe068107	-0.13135158
254	0x3d80ccb5	0.06289045
255	0xbd16c57f	-0.03680944

Decoder.dec1.bias f4 [256]
0	0x3e056859	0.13028087
1	0xbe577dd2	-0.2104409
2	0xbd2ec37c	-0.042666897
3	0x3e0bd5cb	0.13655774
4	0x3e43030e	0.19044134
5	0x3d732b7e	0.05936765
6	0xbd7fe392	-0.062472887
7	0x3defdb32	0.1171173
8	0x3d545970	0.051843107
9	0xbe041d27	-0.12901746
10	0x3d943eb4	0.07238522
11	0xbe3f1e49	-0.18663897
12	0xbe43587d	-0.19076724
13	0xbe914ddd	-0.28379717
14	0xbe0d174d	-0.1377842
15	0x3d7e48a4	0.062080994
16	0x3c96d008	0.018409744
17	0xbe3efb6e	-0.186506
18	0xbe6ec315	-0.23316605
19	0x3bcc2fb2	0.0062312717
20	0xbe3f1557	-0.18660484
21	0xbda79d7e	-0.08184336
22	0x3d5c429c	0.05377446
23	0xbcfb8844	-0.030704625
24	0xbe596d73	-0.21233158
25	0xbe636eca	-0.22210231
26	0x3e051bf5	0.12998946
27	0x3e7660e4	0.24060398
28	0xbb4780bf	-0.003044173
29	0x3d25dc0c	0.040493056
30	0x3bca21d1	0.006168582
31	0x3e0a769b	0.13521807
32	0xbd727322	-0.05919183
33	0xbdc6574e	-0.09684621
34	0x3bd6b31b	0.0065521128
35	0x3e71d663	0.23616938
36	0xbdb4b8d1	-0.088243134
37	0xbdbdb087	-0.092621855
38	0xbd55ddf1	-0.052213613
39	0x3e13f1fd	0.1444778
40	0xbd92a4be	-0.07160328
41	0xbe2b498c	-0.16727275
42	0x3e3743b7	0.17896925
43	0xbd94a743	-0.07258465
44	0x3d17ffa9	0.03710905
45	0xbe6410e1	-0.22272064
46	0xbe5df462	-0.21675256
47	0xbcc257a4	-0.023723431
48	0xbda868ef	-0.082231395
49	0x3e34890b	0.17630403
50	0xbd845a59	-0.06462545
51	0x3ca557b5	0.020183424
52	0xbd10dad4	-0.03536494
53	0xbe85ad53	-0.26108798
54	0x3d839ce5	0.0642641
55	0xbe8ed547	-0.27897093
56	0xbdf3381b	-0.11875936
57	0xbe0de47f	-0.13856696
58	0xbd399d27	-0.045315888
59	0xbba2a4d4	-0.0049634967
60	0xbd814f7b	-0.06313988
61	0x3dd27ca5	0.1027768
62	0x3d9b09d3	0.07570233
63	0x3e088b1a	0.13334313
64	0xbd847c25	-0.06468991
65	0xb9c7620f	-0.00038029297
66	0x3e8be510	0.27323198
67	0xbb9ece27	-0.0048463526
68	0x3d0f4801	0.034980778
69	0xbe37fd86	-0.17967805
70	0xbe7dce65	-0.24785765
71	0x3d339165	0.04383983
72	0xbca20c4f	-0.01978126
73	0xbde45292	-0.111485615
74	0xbe9638cf	-0.29340217
75	0xbdb4fcac	-0.08837256
76	0xbdc8f3fb	-0.098121606
77	0xbd5611ce	-0.052263074
78	0xbe49b80e	-0.19699118
79	0xbd6960cf	-0.05697709
80	0x3dd5f3a5	0.10446862
81	0xbe6c5abe	-0.2308149
82	0x3e2f990d	0.17148228
83	0xbe81c7bf	-0.25347707
84	0x3e054bb6	0.13017163
85	0xbda44660	-0.080212355
86	0xbb05ed72	-0.0020435718
87	0xbdf5c7b7	-0.12000983
88	0x3d10040f	0.03516012
89	0x3d4d5487	0.05012944
90	0x3db47b7b	0.088126145
91	0xbdf61047	-0.120148234
92	0x3deb7b4b	0.11498126
93	0xbe27655b	-0.16347258
94	0xbe5f4ed1	-0.2180741
95	0x3da8c6cc	0.082410425
96	0x3e1100fe	0.14160535
97	0xbe4d0390	-0.2002089
98	0xbe103962	-0.1408439
99	0xbe813cd1	-0.25241712
100	0xbddc3bdc	-0.10753605
101	0x3d873fb5	0.06603948
102	0x3dbb195d	0.09135697
103	0xbd777c5a	-0.060421325
104	0xbd932ee0	-0.07186675
105	0x3db9a5ed	0.09064851
106	0x3d1cb2e2	0.038256533
107	0xbd9a883e	-0.075455174
108	0xbdd6df58	-0.10491818
109	0x3e32215c	0.17395538
110	0x3d078882	0.03308917
111	0xbe872658	-0.2639644
112	0xbde1bab2	-0.110219374
113	0x3c4cf9a0	0.012510687
114	0xbdd56b28	-0.10420829
115	0xbe8431f2	-0.25819355
116	0x3d981eb9	0.07427735
117	0xbe4f5339	-0.2024659
118	0x3dac19f0	0.08403385
119	0x3d93b629	0.07212479
120	0x3dcf9e7d	0.10137651
121	0x3d55551a	0.052083112
122	0x3e20fac9	0.15720667
123	0xbd3c6fb5	-0.04600497
124	0xbe3b8ed5	-0.18316205
125	0xbe85bace	-0.26119083
126	0xbe278aca	-0.16361538
127	0xbd360d3f	-0.044446226
128	0x3db1ec11	0.08687604
129	0x3d9c8546	0.076426074
130	0xbd0d8edf	-0.03456008
131	0xbc1faea9	-0.009746232
132	0xbe12dc33	-0.14341812
133	0xbe01db17	-0.12681232
134	0x3e09bb29	0.13450302
135	0xbd9d9e2b	-0.07696184
136	0x3e2acc76	0.16679558
137	0x3d0cc100	0.034363747
138	0xbd6ba400	-0.05752945
139	0x3d4166a8	0.04721704
140	0xbdc3e758	-0.0956561
141	0x3e065ddc	0.13121742
142	0x3bb71a52	0.0055878544
143	0xbe16ba91	-0.14719607
144	0xbd3aaf5a	-0.045577385
145	0xbe39ad26	-0.18132457
146	0x3e1eb96d	0.15500422
147	0xbe4f9573	-0.20271854
148	0xbdede6a6	-0.11616258
149	0x3e17a694	0.14809638
150	0x3d62140b	0.055194896
151	0x3d5b2b81	0.053508285
152	0xbe56553a	-0.20930949
153	0xbd807435	-0.06272165
154	0xbd1fdac2	-0.039026983
155	0x3e4759b8	0.19467819
156	0x3db9087f	0.090348236
157	0xbd8af298	-0.06784552
158	0xbdd57979	-0.1042356
159	0xbc8a3fbd	-0.016876096
160	0xbc0bc6a2	-0.0085312445
161	0x3dba6f4a	0.09103258
162	0x3d2a835c	0.04162918
163	0x3e3e56b6	0.18587765
164	0xbe528113	-0.2055705
165	0x3e7be32e	0.24598381
166	0x3d38ab33	0.045085143
167	0x3e2003c6	0.1562644
168	0x3c619eed	0.013770801
169	0xbd82f3c3	-0.0639415
170	0xbdde5180	-0.10855389
171	0xbb7e3422	-0.0038788398
172	0x3e123317	0.14277302
173	0x3dea7a1a	0.1144907
174	0x3cc58d57	0.024115248
175	0x3dcde90a	0.10054214
176	0x3d253d24	0.04034151
177	0x3dcffa9d	0.101552226
178	0xbe0ce6ba	-0.1375989
179	0xbe0607b6	-0.13088879
180	0x3db95e0b	0.090511404
181	0xbcc6e4dd	-0.024279052
182	0x3d0dabee	0.034587793
183	0xbe59ca81	-0.21268655
184	0xbe58797a	-0.2114009
185	0xbe7ab421	-0.24482776
186	0xbe56070c	-0.20901126
187	0xbdb0aec1	-0.08627082
188	0x3df08958	0.11744946
189	0x3de8bc13	0.11363997
190	0x3e173827	0.14767514
191	0xbe5db950	-0.21652722
192	0x3dc5dfbf	0.09661817
193	0x3d32fee2	0.043700106
194	0x3cfe19ea	0.031018216
195	0xbe6c946d	-0.23103495
196	0xbdbe8ddc	-0.09304401
197	0x3d84792f	0.064684264
198	0x3dde9a14	0.10869232
199	0x3dd29c5d	0.1028373
200	0xbd93218c	-0.07184133
201	0xbe4c585e	-0.19955584
202	0xbe3985b9	-0.18117417
203	0x3c358a93	0.011080402
204	0xbe7e7509	-0.24849333
205	0xbd63cb3d	-0.055613745
206	0xbc44aa5c	-0.012003507
207	0x3e55b7c2	0.2087088
208	0x3d7973a2	0.06090129
209	0xbdee9aba	-0.116506055
210	0xbdd9faf3	-0.10643568
211	0x3d40d941	0.04708219
212	0xbd5d7ebf	-0.054075953
213	0x3d825879	0.06364531
214	0x3d1c7410	0.038196623
215	0xbc3a6a5a	-0.011377895
216	0xbe107dbb	-0.14110462
217	0x3e135ace	0.14390108
218	0x3d795820	0.06087506
219	0x3a673fe3	0.00088214705
220	0x3dc12ca4	0.09432343
221	0x3df6ef84	0.12057403
222	0xbe36428e	-0.17798826
223	0x3e108666	0.14113769
224	0xbd72f7e4	-0.05931844
225	0x3e5cac74	0.2155016
226	0xbe0c366a	-0.13692632
227	0x3df45766	0.119307324
228	0xbdfbceca	-0.12295301
229	0xbe2cc1ec	-0.1687085
230	0xbda0f51a	-0.078592494
231	0x3de1b338	0.110205114
232	0xbdfc5edb	-0.1232278
233	0xbe448d6b	-0.19194572
234	0x3e0f733b	0.140088
235	0xbd8fa7bb	-0.07014414
236	0xbd248963	-0.040170085
237	0x3d9f3e3e	0.07775544
238	0xbe66492e	-0.22488853
239	0xbe773c41	-0.24144079
240	0xbdda5256	-0.106602356
241	0xbddc5d91	-0.10760034
242	0xbdf30cbb	-0.118676625
243	0xbde33888	-0.11094767
244	0xbe5e085e	-0.2168288
245	0xbd1bc4c5	-0.03802945
246	0x3d41b9a1	0.04729617
247	0xbe64192b	-0.22275226
248	0x3df7deea	0.12103064
249	0xbdc346d2	-0.09534992
250	0xbda8cb69	-0.082419224
251	0xbe835f68	-0.25658727
252	0xbd28c2b6	-0.041201316
253	0xbe344795	-0.17605431
254	0xbe587658	-0.21138895
255	0xbe3b524e	-0.18293115

Decoder.dec2.weight f4 [31, 256]
0	0x3daf5102	0.08560373
1	0xbeba2d72	-0.36362797
2	0x3e1230c7	0.1427642
3	0xbd8f2cb2	-0.06990947
4	0x3dc732b6	0.09726469
5	0xbe8c9b58	-0.27462268
6	0xbea6e69a	-0.3259781
7	0xbdaece78	-0.085354745
8	0x3d4441d0	0.047914326
9	0xbcc972a2	-0.024590794
10	0x3e855e9e	0.2604875
11	0x3e289ee9	0.1646687
12	0x3d99b2a4	0.07504776
13	0x3e2e97d3	0.17050104
14	0xbe3318ce	-0.17489931
15	0xbdb2d88a	-0.08732708
16	0xbd547227	-0.051866677
17	0xbe6ebdfc	-0.23314661
18	0x3e02e946	0.12784299
19	0x3d4404ab	0.047856014
20	0x3dec4ac5	0.11537699
21	0x3c9562a6	0.018235516
22	0xbdcdf0b1	-0.10055674
23	0xbc331e5a	-0.010932529
24	0xbe18bde6	-0.1491619
25	0xbe57249d	-0.2101006
26	0x3e4cfff8	0.2001952
27	0xbe0f0d2c	-0.13969868
28	0x3cc5391f	0.024075089
29	0xbd6768c9	-0.056496415
30	0x3e953367	0.2914078
31	0xbdabaa44	-0.08382085
32	0xbd8aab3d	-0.06770942
33	0xbe176048	-0.14782822
34	0x3d23b2db	0.03996549
35	0x3cccf31e	0.025018271
36	0x3c5d37e6	0.013502097
37	0xbdad5ad5	-0.084645905
38	0xbe937c54	-0.28805792
39	0x3e30ccbb	0.17265598
40	0xbe697c06	-0.22801217
41	0xbea1c0a9	-0.315923
42	0xbe81ae3c	-0.25328243
43	0x3e064a9d	0.131144
44	0x3e4ecd98	0.20195615
45	0x3d062117	0.0327464
46	0xbd2340cd	-0.03985672
47	0x3e26c46d	0.16285868
48	0xbe42e049	-0.1903087
49	0x3c4b00d9	0.012390339
50	0x3dc71c1f	0.097221605
51	0x3e377e70	0.17919326
52	0xbdff7a08	-0.124744475
53	0xbe3ea0cf	-0.18616031
54	0x3db8f718	0.090315044
55	0xbe1e0efa	-0.154354
56	0x3e81c01c	0.2534188
57	0x3c9039ba	0.017605651
58	0x3c8885e8	0.016665414
59	0xbe46b800	-0.19406128
60	0x3e23ead7	0.16007553
61	0x3e28feed	0.16503496
62	0x3b1e3cac	0.002414505
63	0xbea45093	-0.32092723
64	0xbe298af9	-0.1655692
65	0x3e10068f	0.14065002
66	0x3d8ce125	0.068788804
67	0x3e7bf39a	0.24604645
68	0xbdf862ef	-0.12128245
69	0x3e7b865b	0.24562971
70	0x3dfb7f1a	0.12280102
71	0x3e93c76b	0.2886308
72	0x3d933080	0.07186985
73	0x3b63a7fe	0.0034737582
74	0xbe661320	-0.22468233
75	0xbe342e85	-0.17595871
76	0xbe4c290c	-0.19937533
77	0xbdeb233b	-0.11481329
78	0xbb77d903	-0.0037818558
79	0x3d123419	0.035694215
80	0x3cacf5c7	0.02111329
81	0x3d451eab	0.04812495
82	0x3e94dc22	0.29074198
83	0x3e30edf1	0.17278267
84	0xbe48b132	-0.19598845
85	0x3e4e9da2	0.2017732
86	0xbe2b4ad6	-0.16727766
87	0xbe003d00	-0.1252327
88	0xbd15f9a9	-0.036615048
89	0xbdabd36e	-0.083899364
90	0xbd4dbb02	-0.050227173
91	0xbd4f3cee	-0.050595216
92	0x3dc349fe	0.09535597
93	0xbd3220be	-0.043488257
94	0x3e75773a	0.23971263
95	0x3d3e0bda	0.04639802
96	0xbe8e6663	-0.2781249
97	0xbe803da5	-0.2504703
98	0x3bcdc562	0.0062796334
99	0x3d7a90a7	0.061173107
100	0x3a987a58	0.0011633141
101	0x3e0af1d6	0.13568816
102	0x3e85a5d8	0.2610309
103	0xbc6f0ae1	-0.014589996
104	0x3d86c8ed	0.06581292
105	0xbe8758f7	-0.26435062
106	0x3e4279c9	0.1899177
107	0x3d27ca17	0.040964212
108	0xbe6b7675	-0.22994407
109	0x3d6e0aa3	0.058115613
110	0xbb8af194	-0.004240224
111	0xbe5ac0b2	-0.2136257
112	0xbec4632a	-0.38356906
113	0xbc69f13d	-0.014278707
114	0x3d689aac	0.05678813
115	0x3d87619f	0.066104166
116	0x3e3d5b46	0.1849185
117	0xbe13068e	-0.14357969
118	0xbe4b60f1	-0.19861199
119	0x3dc78399	0.09741897
120	0xbcce1531	-0.02515659
121	0xbd21b47b	-0.03947876
122	0x3d0a79b0	0.033807456
123	0xbc75d355	-0.015003999
124	0xbd39392e	-0.045220546
125	0xbc62d2e1	-0.013844223
126	0xbe67a1ba	-0.22620288
127	0x3e33f380	0.17573357
128	0xbda82416	-0.08210008
129	0x3e06ac0d	0.1315157
130	0xbe9e5f91	-0.30932286
131	0x3d6b7bfc	0.057491288
132	0xbe62326f	-0.22089551
133	0x3e91dc2b	0.28488287
134	0x3d81811f	0.06323456
135	0x3e4e9b38	0.20176399
136	0xbe0e7834	-0.13913041
137	0x3ca4b7e3	0.020107215
138	0x3d8f1248	0.06985909
139	0xbe1d46ae	-0.15358993
140	0xbd8b4987	-0.068011336
141	0xbd3b32d2	-0.045702763
142	0xbe136de3	-0.14397387
143	0xbe1fff51	-0.15624739
144	0xbdcce276	-0.100041315
145	0x3e0abfb5	0.13549693
146	0xbe01a389	-0.1266004
147	0xbe1ecd77	-0.15508066
148	0xbd526fea	-0.05137626
149	0xbd63a542	-0.055577524
150	0x3db76345	0.08954481
151	0x3dc66aca	0.09688337
152	0xbd130090	-0.03588921
153	0x3d60d05e	0.054886214
154	0xbe07d107	-0.13263331
155	0xbd45f209	-0.048326526
156	0x3ddcd64f	0.107830636
157	0xbda0f28e	-0.07858764
158	0xbdc21cf1	-0.094781764
159	0xbe4f1401	-0.20222475
160	0xbcecd7b9	-0.028911458
161	0x3d63a8fb	0.055581074
162	0x3d5b0c6b	0.05347864
163	0x3e1731e5	0.14765127
164	0x3da8c835	0.082413115
165	0xbda36e7c	-0.079800576
166	0x3dce6f93	0.10079875
167	0xbde68117	-0.11255091
168	0x3d47e1f4	0.04879947
169	0xbe313c1c	-0.17308086
170	0x3d976e27	0.07394057
171	0xbdf484e6	-0.11939411
172	0xbd14c221	-0.03631795
173	0xbe33f096	-0.17572245
174	0x3d95bcff	0.07311439
175	0xbe56e99d	-0.20987554
176	0x3d868caa	0.06569798
177	0xbca70bbf	-0.020391343
178	0xbd4b3241	-0.049608473
179	0xbad90fca	-0.0016560492
180	0xbe5dada7	-0.21648274
181	0x3d0b3584	0.033986583
182	0x3e3bf056	0.183534
183	0x3e55e994	0.20889884
184	0x3e04323f	0.12909792
185	0xbe02db9d	-0.12779088
186	0x3e7e4177	0.2482966
187	0xbcee96be	-0.029124614
188	0x3ad60560	0.0016328506
189	0xbd9cc8b6	-0.0765547
190	0xbdbdcb9e	-0.092673525
191	0xbdab739b	-0.08371659
192	0x3df2c884	0.118546516
193	0xbdb7bad8	-0.089711845
194	0x3de4b872	0.11167993
195	0xbe557237	-0.20844351
196	0xbdea26ff	-0.11433219
197	0x3c1a49af	0.009416982
198	0x3db458cb	0.088059984
199	0x3e3eb792	0.18624714
200	0xbe036851	-0.12832762
201	0xbd363fde	-0.044494502
202	0xbdb3402e	-0.08752476
203	0x3b89c3c9	0.0042042476
204	0x3d8bf248	0.06833321
205	0xbe1ccd1a	-0.15312615
206	0x3e3a1a9c	0.18174213
207	0x3c844fa9	0.016151266
208	0xbdb55520	-0.08854127
209	0xbeabaa38	-0.33528304
210	0x3e0d85e1	0.13820602
211	0xbe09ebb2	-0.13468817
212	0x3cec743d	0.02886402
213	0xbd452ef3	-0.048140477
214	0x3d31bc9c	0.043392763
215	0xbe05195c	-0.12997955
216	0x3e519da5	0.20470293
217	0x3c93035f	0.017945943
218	0xbe461e66	-0.19347534
219	0xbe0de8f6	-0.13858399
220	0xbda3c895	-0.07997242
221	0xbc1952a9	-0.009358087
222	0x3d397eba	0.04528687
223	0xbd60b802	-0.054862984
224	0xbd7248c9	-0.059151445
225	0xbd85a10e	-0.06524859
226	0x3d6c8dfb	0.05775259
227	0xbdef8d0f	-0.11696827
228	0x3e3966b5	0.18105586
229	0x3d2358a8	0.03987947
230	0x3d8d4f23	0.0689986
231	0xbd8446b6	-0.064587995
232	0xbe3ed975	-0.18637641
233	0xbe9e3520	-0.30899906
234	0x3da08bca	0.07839163
235	0xbdc62815	-0.09675614
236	0xbdf6e647	-0.12055641
237	0x3d6d7133	0.057969283
238	0x3deef894	0.11668506
239	0x3db8ea32	0.09029044
240	0x3e95a643	0.2922841
241	0x3d3bbab4	0.04583235
242	0xbe003182	-0.12518886
243	0x3d7d7184	0.061875835
244	0xbde7f244	-0.113255054
245	0x3d85fa12	0.06541838
246	0x3d9f866c	0.07789311
247	0xbe258638	-0.16164482
248	0xbde3ff8d	-0.11132727
249	0xbe17b8b7	-0.14816557
250	0xbd3e5c60	-0.046474814
251	0x3db5c662	0.08875729
252	0x3d8c4bde	0.06850408
253	0xbdac8d71	-0.08425415
254	0x3de7548b	0.11295422
255	0xbe68ff46	-0.22753629

Decoder.dec2.bias f4 [31]
0	0xbb8c7a17	-0.004287015
1	0xbe2ec9b9	-0.17069139
2	0x3e8cd3cc	0.27505338
3	0xbd4b12ff	-0.049578663
4	0x3e811e3f	0.25218388
5	0xbe2c1f9c	-0.16808933
6	0xbe2ec2ce	-0.170665
7	0xbe817395	-0.25283495
8	0x3e857036	0.26062173
9	0x3dc065f7	0.09394448
10	0x3e32eea9	0.17473854
11	0xbdac8475	-0.08423702
12	0x3e8342ae	0.2563681
13	0xbd21b348	-0.039477617
14	0xbca90a92	-0.020634923
15	0x3ea26db2	0.31724316
16	0xbd7439f0	-0.059625566
17	0x3e8704e2	0.26370913
18	0xbcdca9e9	-0.026936488
19	0x3e93941e	0.28823942
20	0xbe2f54e2	-0.17122224
21	0xbd8ffa45	-0.07030157
22	0xbc8794ac	-0.016550384
23	0x3e91d943	0.2848607
24	0x3cf4cccf	0.029882817
25	0x3ebaeda7	0.3650944
26	0x3d37275f	0.04471528
27	0x3e8f9007	0.28039572
28	0x3ca6c462	0.020357314
29	0xbe0dde11	-0.13854243
30	0xbcad800f	-0.021179227
