results/3_niid/model_favg_n_1_m_0.pt (torch, 121540 bytes, 8 tensors)

Encoder.enc1.weight f4 [256, 22]
000000 ec b5 71 bc cc 6b dc bd d3 65 3b 3a 36 b7 35 3c
       -0.014752846 -0.10762748 0.0007148657 0.011091044
000010 d1 a9 63 be 3d bb d2 bd bd 49 f6 3a 07 57 0b 3d
       -0.22232749 -0.10289619 0.0018790286 0.034018543
000020 c1 35 a9 bc 89 3b 1b be 2a 7a 04 3e bf 3f ac be
       -0.020655515 -0.1515943 0.12937227 -0.33642384
000030 16 c5 e3 bd 7c 4c 91 3c 8d 5a 31 bd 85 3b 6f 3d
       -0.111215755 0.017736666 -0.043299247 0.05840637
000040 36 7c 14 be 79 d6 2e bc be 6b 4d 3d 46 98 17 bd
       -0.14500508 -0.010671251 0.05015158 -0.037010454
000050 fd d8 0f 3d ce 06 62 bd e2 a3 04 bb a8 8a a5 3c
       0.035119046 -0.05518227 -0.0020239283 0.020207718
000060 e8 52 5a bc a2 b8 c8 bc 1b 92 a5 3c 63 13 6f bc
       -0.01332543 -0.024502102 0.02021127 -0.0145920245
000070 89 da 0c 3c bd 85 ed ba 97 6a b6 ba 52 53 88 bc
       0.008597025 -0.0018121522 -0.0013917264 -0.016641293
000080 ac 91 77 3c 9c 6d 0a bd ab f6 65 3b b1 78 9d bc
       0.0151104145 -0.033795938 0.0035089653 -0.01922259
000090 da e9 0e bb ce 15 02 3b 30 66 05 3d 78 40 42 39
       -0.0021806867 0.0019849422 0.032568157 0.00018525298
0000a0 78 7d 97 3d 39 46 ca bb 82 88 73 3e 6b 8b a5 3b
       0.07396978 -0.006172922 0.23782542 0.0050520203
0000b0 c2 ae 00 bc ac 51 9f bc f4 70 93 bd df 42 17 3d
       -0.0078541655 -0.019448124 -0.071992785 0.036929008
0000c0 f0 38 20 bd da fd 9e 3b 03 1a 11 bd d7 f2 47 3c
       -0.0391168 0.004852039 -0.035425197 0.012203894
0000d0 e3 ff df 3c 41 12 20 bd ce 78 7c 3c b2 e1 37 3b
       0.027343696 -0.03907991 0.015409661 0.002805811
0000e0 b6 c6 a4 3b ea cd f2 3d f7 b2 04 3a dd 39 06 bd
       0.005028571 0.11855681 0.0005062068 -0.032770026
0000f0 8d f4 c8 bb 49 ed 9e 3c a9 8b e7 bc c4 f1 19 3e
       -0.0061326683 0.019400256 -0.028264837 0.15033633
000100 14 e2 03 3c 9d e4 cd bb a6 b8 5f ba c2 62 08 be
       0.008049507 -0.0062833563 -0.00085342897 -0.13318923
000110 65 ab 4e be 83 e6 44 3d 02 fd f7 bb 9d bd 0e 3d
       -0.2018257 0.048071396 -0.0075680027 0.034848798
000120 3c 9f 4d 3d fe e6 b7 bd 7c 87 82 bd e7 c4 28 bd
       0.050200686 -0.08979605 -0.06373498 -0.041203406
000130 2b e2 42 bd 59 2f 17 be 75 12 4e bd 0b 86 4a 3c
       -0.04757897 -0.14764155 -0.05031057 0.01236106
000140 54 d9 01 be 32 9a 1c 3d 7d 41 0b be 86 e7 8f bd
       -0.1268056 0.03823299 -0.135992 -0.070265815
000150 ed 9b 83 3d ad b9 d7 3c e1 b9 0c 3d 91 c6 27 bd
       0.06426225 0.026333654 0.034356955 -0.040960852
000160 3d 82 f6 3d 7b 06 01 3d e4 7e 15 be b9 ee 94 bd
       0.1203656 0.03150032 -0.14599186 -0.07272095
000170 76 33 87 3d a7 6b 09 bd c5 3d a1 3b 7d 1f 26 bd
       0.06601612 -0.03354993 0.0049206936 -0.040557373
000180 61 5b db bc 8f b3 5b 3d b4 c1 f5 bc 14 ed 4e bd
       -0.026776971 0.053638037 -0.029999591 -0.050519064
000190 4f 7f 03 be 52 ae 8a bc 44 11 6c bd 8d fb a0 bb
       -0.12841533 -0.016928826 -0.057633653 -0.0049127997
0001a0 06 5e ee 3c ec 2e 09 3d 28 87 54 bd 68 5d ca bc
       0.029097568 0.033492014 -0.051886708 -0.024702743
0001b0 46 59 3c bd dc e9 c9 3c 3c 58 11 bd b3 c9 9a be
       -0.045983575 0.024647646 -0.035484537 -0.3023201
0001c0 59 36 86 be 6d f7 1b 3e 62 ae c2 3c c5 50 98 be
       -0.2621334 0.15231104 0.023764793 -0.29749122
0001d0 1d 5a a2 3d 3c 7b 1b bd 04 ca 96 bd e4 18 a2 be
       0.07927344 -0.037959322 -0.0736275 -0.31659615
0001e0 f6 f6 2a 3d 7f 17 7e be ce 79 2d be 84 2e bc 3d
       0.041739427 -0.2481365 -0.16940996 0.0918856
0001f0 89 cf be 3c ee d9 2e 3d 97 97 d4 bd 3b 58 37 bd
       0.02329232 0.042688303 -0.10380476 -0.044761878
000200 db b7 b5 3d 9a 65 ac bd 1e 21 84 3d 76 90 09 be
       0.08872958 -0.084178165 0.06451629 -0.13434014
000210 e8 15 c5 3d f0 2a 0a bb ef 8a 92 bd f1 5a 82 3d
       0.09623319 -0.0021082722 -0.07155406 0.06365002
000220 28 6c 94 bc 2f 66 97 ba ed b0 d8 bd 7b f6 30 3d
       -0.01811798 -0.0011550839 -0.10580621 0.043203812
000230 81 a0 42 3a 3d d8 9b 3c b3 05 83 3d 44 14 ae bc
       0.00074244296 0.019024009 0.063975714 -0.021249898
000240 b6 b9 6c 3d 47 8a a3 bc b9 31 28 be 3a 1a 0e bd
       0.057794295 -0.019963397 -0.16425218 -0.03469298
000250 ba 2a ae bd bc 67 da bc b0 60 fa bc df 62 75 39
       -0.08504243 -0.026660793 -0.030563682 0.00023401853
000260 22 56 9b 3c 13 d7 b5 bd 98 6a d5 3d be 8d 4d be
       0.01896197 -0.08878913 0.10420722 -0.20073602
000270 12 29 61 be c3 60 38 3d 58 e5 31 bd 96 46 08 3d
       -0.21988323 0.045014154 -0.04343161 0.03327044
000280 b9 a7 10 bc ab cb 12 be 7b f3 ab bd 12 18 ac bd
       -0.008829051 -0.14335506 -0.083960496 -0.084030285
000290 73 bd 9e bd ad f4 3f be 35 e3 f2 bd 37 7e 8d 3c
       -0.07750978 -0.1874568 -0.118597426 0.017272098
0002a0 2c 7a 27 bd 58 a3 4e bd a5 44 d5 ba 07 13 b1 3a
       -0.040887997 -0.050448745 -0.0016271068 0.0013509699
0002b0 48 d5 9d 3d f0 8f 6d 3e a4 fc 16 bd 77 16 6a 3d
       0.07706696 0.23199439 -0.03686203 0.05715033
0002c0 2e f2 3a bd 33 21 f8 ba 39 f1 3b 3d 9a 49 71 3d
       -0.045641117 -0.0018930793 0.045884345 0.058908083
0002d0 07 64 4b bd d1 fa 98 3c 64 25 f4 3c 03 a2 8b 3d
       -0.04965594 0.018674286 0.029802985 0.06818011
0002e0 5f 7f cf bd 7f be d0 bd a0 f9 f6 bc 39 31 44 be
       -0.10131716 -0.10192584 -0.030148327 -0.19159402
0002f0 3b f1 df 3c d6 63 90 bc 5b fa b8 3b e8 cc 0f 3d
       0.027336707 -0.01762573 0.005645079 0.035107523
000300 3d a4 33 3d c9 1f 87 bd c4 9c 1b 3e b7 08 e5 3c
       0.0438578 -0.065978594 0.1519652 0.027958257
000310 8a 07 eb 3c 81 39 5c bd c6 51 a4 3d 94 95 1f 3d
       0.028690118 -0.053765777 0.080234095 0.03896101
000320 e6 35 3f bd 36 46 db bd 04 af 47 3c 71 f6 85 3d
       -0.04668226 -0.10706751 0.012187723 0.065411456
000330 f7 3e 17 bd 20 ce 24 3d 86 05 85 3d 6e 86 c5 bd
       -0.036925282 0.04023564 0.06495194 -0.09644781
000340 67 fa 8f 3c 76 73 d6 3d 6d 96 44 3d dc 0a 5d 3d
       0.017575456 0.10471241 0.04799502 0.053965434
000350 15 e6 0c bc 81 26 ad bb fa ad c9 3b 93 f1 98 bc
       -0.008599778 -0.005284131 0.006154773 -0.018669879
000360 da 0d ab bc 55 cd 84 3b 43 e8 d5 3d 11 43 a3 3b
       -0.020880628 0.004052798 0.10444691 0.00498236
000370 13 05 40 3b 12 e9 3f bc a4 82 9d 3d 66 c9 45 bc
       0.00292999 -0.011713283 0.07690933 -0.012071943
000380 d5 fe 9c bc 30 8f f7 3c 95 01 ea 3c fe 72 16 bd
       -0.019164482 0.030219644 0.028565207 -0.03673076
000390 e9 45 17 bd 67 01 d0 3d 94 70 82 3d 32 3e cb 3d
       -0.036931906 0.101565175 0.06369129 0.09923972
0003a0 bc 50 72 3d 7c e0 7a 3a 41 ea 0a 3d 53 d9 ec be
       0.059159026 0.0009570194 0.03391481 -0.46259555
0003b0 a6 9b 4a 3d 62 89 72 bb 67 bf 31 bd 5e b4 4f 3b
       0.049464844 -0.0037008156 -0.043395426 0.00316932
0003c0 f7 a6 da bb 23 db 2d 3d f3 f3 a3 bb c2 ed 48 b9
       -0.006672736 0.042445313 -0.0050034462 -0.00019162058
0003d0 2d 3d 46 bd 56 b5 95 be 94 e1 ae 3a 7b 4e 55 bc
       -0.048398186 -0.2923991 0.0013342374 -0.0130191995
0003e0 cf 6f a9 bb ad 8a 11 3c 70 76 14 3c a4 f5 c9 bb
       -0.0051707993 0.008883161 0.009061441 -0.006163316
0003f0 bb 1b 40 bc cd 51 54 bd 9d f7 8f bc d4 9f 5a bc
       -0.011725361 -0.051835824 -0.017574126 -0.01334377

Encoder.enc1.bias f4 [256]
000000 4d db 55 3d 25 00 42 bd 33 ab 99 3d 9d 88 af 3c
       0.052211095 -0.04736342 0.07503357 0.021427447
000010 8e f0 7e be 8e 63 59 be d4 4c 8b be ef 5f f9 bd
       -0.24896452 -0.21229383 -0.27207053 -0.12176501
000020 eb d5 81 be 77 52 76 3d db f4 6e be 93 22 61 bd
       -0.2535852 0.06013724 -0.23335592 -0.054964613
000030 74 06 54 be 34 b7 7f be ea db 8f be 75 66 20 3c
       -0.20705587 -0.2497223 -0.2809747 0.009790053
000040 38 80 86 be b8 7a 9f bd 48 01 63 be 0c 3c 4c be
       -0.26269698 -0.077870786 -0.22168458 -0.19944781
000050 80 dd 35 be ea 11 17 3e 85 b5 c6 bb 74 bb 0a be
       -0.17760277 0.14752927 -0.0060641193 -0.1354807
000060 31 25 0f bd ec 06 17 3d d2 90 08 be b2 31 24 bd
       -0.034947578 0.036871836 -0.13336495 -0.040086456
000070 34 cb 24 3d d9 31 e8 bc c6 4b 53 bd cc c8 20 3e
       0.040232852 -0.028344082 -0.051585935 0.15701598
000080 b5 24 64 3e 90 6f ab be bf 3d 7e 3a ea 41 2b be
       0.22279628 -0.33483553 0.0009698532 -0.16724363
000090 47 97 85 bd 96 c9 7c 3e d4 5b 98 be fe 3a 07 be
       -0.065229945 0.24686274 -0.2975756 -0.13206097
0000a0 11 04 bc bd f7 a8 ac bc 9b d8 55 3a 7f c9 d1 bd
       -0.09180463 -0.021076662 0.0008157582 -0.102435105
0000b0 2c 25 16 3e 16 5e 8d be e8 2a d1 3d 5d 6e 78 3d
       0.14662617 -0.27610844 0.10213262 0.060652126
0000c0 d5 7f 95 be 03 60 14 be 14 9a 1d 3e 8e 0a 66 3d
       -0.2919909 -0.1448975 0.15390807 0.05616241
0000d0 b3 49 fb bd 6b 3d c2 3d 0b 83 0b be bf 7d 10 3e
       -0.122699164 0.09484371 -0.13624208 0.14110468
0000e0 71 9a f4 bb 18 91 a7 bc c1 bc 57 be 0b c6 d5 3d
       -0.0074647 -0.020454928 -0.21068098 0.10438164
0000f0 29 21 a9 bd 93 74 e4 bd 6e 97 6f be e7 cf 5f be
       -0.08258278 -0.11155047 -0.2339761 -0.21856652
000100 94 37 67 be 76 a3 2a 3e e5 8d 9a bd e7 9b cc bd
       -0.22579795 0.16663918 -0.075465955 -0.099906735
000110 75 9c 71 3d 52 56 b2 3d 86 ba 91 3d 92 23 2f 3e
       0.0589871 0.087078705 0.07115655 0.17103413
000120 c7 3d 68 3e 6c 8a 88 be c2 92 ea 3d c2 2f 73 be
       0.22679816 -0.26668108 0.11453773 -0.23748687
000130 57 ee 22 be 43 58 9c be 79 9a 22 be b6 df 18 be
       -0.15911232 -0.30536088 -0.15879239 -0.14929089
000140 e6 d9 a3 bd 65 bf 9e bd ba 4a d7 bd 88 33 67 ba
       -0.08000545 -0.07751349 -0.105123 -0.00088196294
000150 0e f2 75 be 77 af ba bd 48 8e 55 3e a8 36 3d 3e
       -0.24018118 -0.091154985 0.20855057 0.18477881
000160 1a d4 1a 3d 6e e8 01 be ff a8 23 3e 92 6f 37 be
       0.037799932 -0.12686321 0.15982436 -0.17913654
000170 c4 2b b5 bc 69 d3 7b be 8f 71 40 be 45 fd 4e bd
       -0.022115596 -0.24592365 -0.18793319 -0.050534505
000180 d2 f7 84 be 15 7e e3 bd e9 49 3b be 7d ac 6e be
       -0.25970322 -0.111080326 -0.18289913 -0.23307987
000190 08 6e a6 bd cd 6c ae 3d a8 fb 03 3e b8 4c 5d bd
       -0.081264555 0.08516846 0.12888968 -0.054028243
0001a0 0c 3b 8a bd c3 d2 9a be a3 e8 2b 3e 80 e4 c5 bd
       -0.067495435 -0.30238923 0.16787963 -0.096627235
0001b0 b6 1d 64 3e 2a d1 3d be 46 4f 79 bd 74 1b d3 3d
       0.22276959 -0.18536821 -0.060866617 0.10307971
0001c0 63 c0 15 3e 07 98 58 3d d7 62 7a be 74 6e 27 be
       0.14624171 0.05287936 -0.24451767 -0.16350728
0001d0 9c ca 1b 3e 96 c4 a4 bd 7e 69 e2 bd 33 ef de bc
       0.15214008 -0.08045308 -0.11055277 -0.027213668
0001e0 6d b1 f7 bc 20 4a be bd d7 8f 8d be 9e 13 af be
       -0.03023597 -0.09291482 -0.27648804 -0.34194654
0001f0 80 58 9d bd ba ae 8a be 37 50 bd 3d 9b ca 48 3e
       -0.07682896 -0.2708643 0.092438154 0.19608538
000200 31 a3 69 3e a2 96 83 be c1 7c 37 be 6e 81 f2 3d
       0.22816159 -0.2570086 -0.17918684 0.11841093
000210 b2 cb 6d bd c4 ac a2 bd d0 00 8d bd 2d 2a 9c bd
       -0.058055587 -0.07943109 -0.068849206 -0.07625232
000220 4d 69 5b 3e dc a4 17 be 0f 94 55 3e 83 3b a5 3c
       0.21426888 -0.14808983 0.20857261 0.020169979
000230 32 00 8a 3d 53 f5 15 be 6b bb 09 be 3c c4 a8 3c
       0.067383185 -0.14644365 -0.134504 0.020601384
000240 1e a6 69 be d2 d0 61 3e 79 08 28 be e9 a2 1d be
       -0.22817275 0.22052315 -0.16409482 -0.15394177
000250 43 7d 2f 3e 0a 2e 06 bd bc 0f e5 3b 5d e5 56 3d
       0.17137627 -0.03275875 0.006990401 0.05246483
000260 92 60 ea bd 5f 76 61 3e 86 2c c2 3d 09 40 12 3e
       -0.114442006 0.22017811 0.094811484 0.1428224
000270 31 f5 02 bb 68 38 37 be a7 58 04 be 12 fd 31 be
       -0.0019982571 -0.17892611 -0.12924443 -0.17381695
000280 84 87 14 3c 96 54 5e be b6 e5 e5 bd d6 de 6d bd
       0.009065513 -0.21711954 -0.112254545 -0.05807384
000290 87 74 79 be d8 dd 2d bd 42 96 9f be f0 d1 c9 bd
       -0.24360858 -0.042447895 -0.31169325 -0.098544955
0002a0 81 36 67 be c2 a3 14 3d b9 55 18 be bd e0 87 3d
       -0.22579385 0.036288984 -0.1487645 0.06634662
0002b0 e4 f2 08 bd 5e 5a bc bd 2d 7d 75 bd e2 77 d9 bd
       -0.033434764 -0.09196924 -0.05993383 -0.10618569
0002c0 d4 34 31 3e e6 c3 42 be a8 0e 8d be 5c 9e 81 be
       0.17305309 -0.19020042 -0.27550244 -0.2531613
0002d0 8a aa 18 be 86 74 60 bd a4 63 7a be 52 d4 f6 3d
       -0.14908805 -0.054798625 -0.24452072 0.12052216
0002e0 82 2c 77 be a5 47 12 3e cc b2 6c 3e a7 aa 7c bc
       -0.24138072 0.14285143 0.2311508 -0.015421546
0002f0 90 80 63 3e 33 ca 27 be 83 11 7b bd 29 44 45 3e
       0.22217011 -0.16385727 -0.061295997 0.19264282
000300 a7 89 d3 3d b3 c0 41 3e 8f 4a 14 3d da 54 90 be
       0.103289895 0.18921165 0.036203917 -0.28189737
000310 28 25 e6 bd 36 8d 65 be 7f b1 e0 3d 13 75 ff bd
       -0.11237556 -0.22417149 0.10971355 -0.12473502
000320 4a f3 b2 3d 81 d9 77 3e 1d 9a 5d be 7f fc 7c 3d
       0.0873781 0.24204065 -0.21640821 0.061764237
000330 06 3c 7a bd c9 b7 7f be b8 fc 95 be 4c e1 41 be
       -0.0610924 -0.24972452 -0.29294372 -0.189336
000340 72 14 4c be 9b 21 6b be 01 68 b0 3c 47 4c ef bd
       -0.19929674 -0.22962038 0.021533968 -0.116844706
000350 7f 31 93 bd 2d d6 64 3c 74 9d 6d be 0c 68 18 be
       -0.07187175 0.013967079 -0.23204595 -0.1488344
000360 03 95 3f 3d 0c 44 30 3d 11 dc b7 bd a6 bf 60 be
       0.046772968 0.043033645 -0.08977521 -0.21948108
000370 2a 14 ad bd a8 c6 01 3e 8e 49 35 be 3d e9 70 3c
       -0.084511116 0.12673438 -0.1770384 0.014704046
000380 14 11 3b 3e 3d 4e 87 be 73 18 0d 3d 70 17 ee bd
       0.18268234 -0.2642688 0.034447145 -0.11625564
000390 6f 60 13 bd 0f d3 fa 3c 45 25 c5 bd 71 ca 2f bd
       -0.035980638 0.030618219 -0.09626249 -0.042917673
0003a0 6a fd cd bd 31 13 d3 39 da 9c 91 be b3 30 79 bd
       -0.100581005 0.00040259355 -0.2843998 -0.06083746
0003b0 a0 de 83 be f3 d4 78 be f8 20 de bd 47 b0 05 3d
       -0.25755787 -0.24299984 -0.10846132 0.032638814
0003c0 64 93 60 be 1d 11 ea bc 5f 5f 11 3d 3b b9 57 be
       -0.21931225 -0.028572613 0.035491344 -0.21066754
0003d0 df de 6e 3b 36 42 b8 3d 89 d1 cd bd 7f 01 91 be
       0.003644876 0.08997004 -0.10049731 -0.28321454
0003e0 3d d2 0b bc 37 22 13 3e 12 f3 3f 3e 96 a3 4f 3b
       -0.008534011 0.1436852 0.18745068 0.0031683198
0003f0 e0 5d 95 be 07 1a 14 be 35 bf 9e bd 7a 7a f5 bd
       -0.29173183 -0.14463054 -0.077513136 -0.11986251

Encoder.enc2.weight f4 [40, 256]
000000 10 7f 80 bb cb 51 83 3b bc 44 e9 3a 9c 93 fe bc
       -0.003921397 0.004007553 0.0017796974 -0.031076245
000010 1f 0a 0a 3c dc e9 af 3c 23 cc 93 3b b4 7c 06 bd
       0.008425265 0.021473818 0.004510419 -0.03283377
000020 65 05 af bc 12 5e 93 bc 65 22 66 3b 5d 62 80 3a
       -0.021364877 -0.017989192 0.0035115716 0.000979494
000030 be 98 30 bb 79 27 cc 3b 7d af af bb 5f ee b5 bc
       -0.002694651 0.0062302914 -0.005361496 -0.02220839
000040 8d e9 08 3a 2a 72 77 3b 93 d6 f5 3c 74 ba d9 3c
       0.000522279 0.0037757256 0.030009544 0.026578166
000050 16 bc a0 bc 6d 63 2e bb 5f f9 07 bc 71 41 3a 3c
       -0.019620936 -0.0026609555 -0.008299201 0.0113681415
000060 72 a9 93 3b 1d f3 b1 3b 6c c4 67 3b 0a 29 a5 3b
       0.0045062834 0.0054305927 0.003536488 0.0050402926
000070 27 95 12 3d 67 cd 21 bc 96 58 9a bc a5 88 6c bb
       0.035786774 -0.009875632 -0.01884107 -0.0036092189
000080 ec dd ab bb a8 1c 41 3b 5b 53 6c bc b7 61 3a 3c
       -0.005244961 0.0029466543 -0.01442417 0.011375836
000090 40 b0 e1 bb 04 db a6 bb 26 45 49 bc ca d3 94 bb
       -0.0068874657 -0.0050920267 -0.012284553 -0.004541849
0000a0 b2 61 b6 bb e4 e5 9e 3b 3f 71 d1 3a bf ea 2c 3b
       -0.0055658454 0.0048491824 0.0015979185 0.0026385037
0000b0 f7 1e 89 bb e1 a0 21 3c 13 e6 92 3c 2e 57 5c 39
       -0.0041845995 0.009865017 0.017931974 0.00021013312
0000c0 7d 18 8a 3c 1b 4d 55 bc f5 11 ae ba 59 7b b3 3b
       0.01685738 -0.013018872 -0.0013280498 0.0054773507
0000d0 db fe 5b bb 18 b9 7f bb 03 b0 19 bb 9e 25 41 bc
       -0.0033568654 -0.0039020237 -0.0023450858 -0.011788754
0000e0 a3 27 42 bc 70 08 16 bc 0f e0 ca 3b c6 df 17 3a
       -0.01185027 -0.009157285 0.0061912606 0.0005793538
0000f0 63 b7 e3 bb 48 6a 2d bc 01 dd 22 3c 6f 9c 5e 3c
       -0.0069493516 -0.010584421 0.009940387 0.013587101
000100 9b 5f 12 3c 84 6d bf 3c cb 56 54 3b 57 4f d8 bc
       0.008933927 0.02336765 0.0032400365 -0.02640502
000110 9f b8 a4 bb 99 65 89 bb 40 85 ff bc e2 82 34 bc
       -0.0050268914 -0.0041930196 -0.031191468 -0.011017533
000120 d4 26 9c 3c 0d fc a9 bb e6 9b a2 3b aa 5e a8 3b
       0.019061483 -0.0051875175 0.004962432 0.005138238
000130 4c a0 b3 bb 53 7c 5d bc de a8 9a 3b 48 e5 80 3b
       -0.0054817554 -0.013518411 0.0047198376 0.0039335825
000140 10 e1 af 3b 9b 6f 7d b9 d2 cf 1c bc 77 e2 67 3c
       0.0053674057 -0.00024169536 -0.009571033 0.0141531145
000150 28 97 e4 3b 39 6b a5 ba 59 77 c0 bb 03 60 f3 bb
       0.006976027 -0.0012620456 -0.0058736023 -0.007427217
000160 0c 67 c9 3c c5 4f 3b bc 52 da 5b bc a9 01 9b ba
       0.02458527 -0.011432593 -0.013418751 -0.0011826056
000170 7c 9e 58 3c 81 55 30 bd cc e7 52 3c 47 0b 87 bc
       0.013221379 -0.043050293 0.0128726475 -0.01648487
000180 e0 d7 93 ba 5d 5c f5 ba a5 6a aa bc c0 a0 1b bc
       -0.0011279546 -0.0018719543 -0.020802805 -0.009498775
000190 d1 b2 29 3b 69 13 df bb 13 28 c9 3b 69 f3 31 3c
       0.0025893936 -0.006807734 0.0061388104 0.010861256
0001a0 0d f5 06 bc 19 eb 01 3d a6 7b 19 3b b3 b7 f1 3b
       -0.008237136 0.031718347 0.0023419647 0.007376635
0001b0 6d 86 38 3c 14 37 07 3c 83 2c ba 39 a3 67 84 3c
       0.011262518 0.008252878 0.00035509848 0.0161627
0001c0 98 f9 cc 3c d3 c1 25 3b de 9b d3 3c 19 c0 e5 3a
       0.02502136 0.002529253 0.02583116 0.0017528563
0001d0 24 f0 33 3c 76 78 60 3c 0f cb 9d bc e0 15 5e 3c
       0.010982547 0.013700595 -0.019261865 0.01355502
0001e0 85 93 1f 3c 3d e6 f4 bb 5e 9c 88 3b 41 a3 a6 3c
       0.009739761 -0.0074737356 0.004169031 0.020341517
0001f0 99 d8 9c bb 5f cf c9 3c 86 2c 68 3c 7f 31 23 bc
       -0.0047865626 0.024635015 0.014170771 -0.009960531
000200 55 de 2d bc 3a 3d 3e 3b 9a 3c 74 3c 19 5a 65 bc
       -0.01061209 0.0029028193 0.014907027 -0.013998532
000210 9c a6 c4 3c bf 42 b7 3b 16 ac ca 3c 8a 7c 92 3c
       0.024005227 0.0055926736 0.02474026 0.01788165
000220 97 ba 2c bc 5b 7d 00 3c 6e a7 00 3a 0e c2 23 3c
       -0.010542533 0.007842387 0.00049077615 0.009994997
000230 e6 dd ec 3a 5b d4 14 bc 84 f2 b7 3b c5 9e f6 bc
       0.0018071502 -0.009083833 0.005613627 -0.030105004
000240 33 93 a3 ba d5 c7 d3 bb b6 17 e4 3b 80 33 60 bb
       -0.0012479782 -0.006463031 0.0069608344 -0.0034210384
000250 c9 81 96 bc 34 7e 73 bb 4c 60 d2 bc 6d be 66 ba
       -0.018372433 -0.003715408 -0.025680684 -0.00088021794
000260 3c e6 d6 bb ea d4 c2 bb ce 11 20 3c bd 4c 9f 3c
       -0.006558208 -0.0059457915 0.00976987 0.019445771
000270 5b b1 b2 bb ab ff 62 bb 65 5e 3c 3c 9f aa 9b bc
       -0.0054532713 -0.0034637253 0.011497115 -0.019002257
000280 16 b0 09 3c 8d 3d 71 3b fd 90 43 bc d6 5c 00 3a
       0.008403799 0.0036810369 -0.011936423 0.0004896646
000290 96 e3 8f ba 82 b1 e9 bb ce 96 fc bb 0f bc a8 bb
       -0.001097786 -0.0071317563 -0.007708407 -0.0051493715
0002a0 85 0c 09 3d 45 ba 36 bc 94 d5 03 3b 22 e8 28 bb
       0.033459205 -0.011152809 0.0020116316 -0.0025773128
0002b0 b2 2a b2 ba 98 53 26 bb 15 7e 9c 3c 85 27 88 bb
       -0.0013593046 -0.0025379416 0.01910309 -0.0041551017
0002c0 59 0d 85 3c ec c7 71 3c d0 0d 36 3a 1e 8a 34 3d
       0.016241716 0.014757138 0.0006944807 0.04407703
0002d0 3d 85 3c 3c d9 09 e0 bc 05 bf 28 bb bc 4f 9e bc
       0.011506376 -0.027348446 -0.0025748622 -0.01932513
0002e0 f0 e0 7b 3b f4 27 60 3b 4c 11 be bb 27 31 bc ba
       0.0038433634 0.0034203501 -0.005800402 -0.001435791
0002f0 90 f8 b0 3c d7 38 cf 3b f2 40 73 38 94 4c fd ba
       0.021602899 0.0063239145 5.79962e-05 -0.001932519
000300 95 94 39 3c 4e f0 25 bb fb 80 97 bb 50 7c 1d 3c
       0.011326929 -0.0025320235 -0.00462353 0.009612158
000310 77 bc 80 3b af 5d 6e bb 2e f4 99 3b ff e1 63 b9
       0.0039287168 -0.0036371758 0.004698298 -0.00021732597
000320 bb 76 cf ba 9f 28 67 3b e0 97 06 bc c8 7d 10 bc
       -0.0015828231 0.0035272015 -0.008214921 -0.008819051
000330 ed f4 de bb 07 f0 84 3c d5 82 2d 3c a3 ed 1e 3c
       -0.0068041 0.016227735 0.010590275 0.009700212
000340 bf 60 ac 3b 7c 03 f0 3b f2 47 b7 bc 92 2c d8 3a
       0.0052605565 0.007324634 -0.022373173 0.0016492775
000350 5b 28 ca 3c 36 e0 8c bb 83 a4 f0 3b 5b 04 13 bd
       0.024677446 -0.004299189 0.00734383 -0.035892826
000360 46 8d bb bc f6 6f fd bc 8b 51 86 3c c4 a4 bc bc
       -0.022894513 -0.030937176 0.016396305 -0.023027785
000370 0d ec 93 3c a9 af 4d bc 58 1c 92 3b 1b a0 6c 3c
       0.018056894 -0.012554088 0.0044589452 0.014442469
000380 33 92 bd bb 4d 7b f4 bb fb 65 07 3c b9 9b d1 bb
       -0.0057852506 -0.0074609877 0.00826406 -0.0063967374
000390 f7 1f 84 bc a4 ee f3 b9 f0 f3 8e bb cd b8 80 3c
       -0.016128523 -0.00046526373 -0.0043625757 0.01571312
0003a0 00 48 a4 3b d1 c4 7e bb a1 e5 c3 3c ff 1c 5c bb
       0.005013466 -0.0038874636 0.023913207 -0.003358662
0003b0 02 a4 8c bb 6b 29 97 3c 76 d8 4f 39 87 99 1f 3b
       -0.004292012 0.018452367 0.00019821696 0.0024352984
0003c0 3c ae 14 3b 3e 99 ca 3b 82 27 09 3c 0d b6 1f 3c
       0.002268686 0.0061828187 0.008371236 0.009747994
0003d0 e5 c3 4f 3c 15 37 ec bb e2 3c 04 3d 14 ab 1b 3c
       0.012680982 -0.0072087147 0.032284625 0.009501237
0003e0 42 68 40 3c 0c 92 40 bc e7 22 4c bc a8 a0 09 3c
       0.011743607 -0.01175357 -0.012459493 0.00840012
0003f0 be 7d 82 3a b9 30 fe bc 35 91 23 3b e0 7e 3c 3c
       0.0009955687 -0.031029092 0.0024958376 0.011504859

Encoder.enc2.bias f4 [40]
000000 77 fa 4d 3c 08 5f 7c 3b 79 63 e3 bc d3 c7 85 bc
       0.0125719225 0.0038508791 -0.027757393 -0.016330635
000010 c7 d7 1f 3c e0 9c f4 bc 42 0c a1 3c 2d ef c0 3b
       0.009756035 -0.02985996 0.019659165 0.005887887
000020 04 8f 0c 3d cc 5c 2d 3c c3 ba ee 3b 01 61 ba bc
       0.034316078 0.0105812065 0.0072854473 -0.022751333
000030 9b 59 f8 ba cb 94 ab bc 7e 16 34 bc 3f 8b 98 bc
       -0.0018947603 -0.020944973 -0.010991691 -0.018621085
000040 71 66 f8 bc f2 f6 b5 3c 5a 69 4d 3d d4 5a 72 3b
       -0.030322285 0.02221248 0.0501493 0.0036980407
000050 90 3e 3c ba fb 9f ad ba ad 75 73 3c 1f 73 69 be
       -0.00071809534 -0.001324653 0.014859599 -0.22797821
000060 34 ae f5 bc fa 02 50 be 90 df 27 be 2b 26 b0 bc
       -0.029990293 -0.20313635 -0.16393876 -0.021502575
000070 04 89 1e be 4f 8b da bc b5 54 86 bb dc 45 66 ba
       -0.15481955 -0.026677756 -0.0040994533 -0.00087842136
000080 f5 6a 34 bc b6 09 40 bc ed 95 1f be 6a 5c 86 3c
       -0.011011829 -0.011721065 -0.15584536 0.016401488
000090 af c7 a1 3c 97 fc 53 be 65 04 46 be 25 e7 34 3c
       0.019748537 -0.20701824 -0.19337614 0.011041437

Decoder.dec1.weight f4 [256, 20]
000000 55 27 97 3b 44 c6 21 bc 42 64 c4 b9 b9 04 94 3c
       0.004612843 -0.00987393 -0.0003745873 0.018068658
000010 14 a8 c4 3a 8d 86 03 bc 85 17 a4 bc 77 1d 02 bb
       0.0015003704 -0.008027685 -0.020030746 -0.0019853988
000020 19 ad 8c bb 5d f0 63 bb a0 c6 b6 bb 69 da 53 bb
       -0.004293096 -0.003478072 -0.005577877 -0.0032326228
000030 15 fe 03 3b 85 2e 5c 3a e9 0d a1 bc c8 14 db 3a
       0.0020140458 0.0008399266 -0.019659953 0.0016714567
000040 00 d9 24 3b 7c 51 8b bc ec c1 90 3e 29 f7 a4 3a
       0.0025153756 -0.017006628 0.2827295 0.0012585866
000050 ef 95 0d bc e1 3d 16 3b a6 a5 ac ba 1e c0 c9 3c
       -0.008641704 0.0022925066 -0.0013171926 0.024627741
000060 06 0f 1d 3c fb 56 ab 3c fc 96 7c bc 74 69 ee bb
       0.009586101 0.020915499 -0.015416857 -0.0072757546
000070 db 60 61 bb ac 21 4e 3b 9f dc bc ba 15 64 8c 3b
       -0.0034390006 0.0031453175 -0.0014409012 0.0042843916
000080 c3 05 eb bb de cb 0a ba 02 96 70 bd 4a 07 cb bb
       -0.0071723177 -0.0005294661 -0.05873681 -0.0061959373
000090 dc 2a 31 ba 53 25 94 3e ba 57 3d 3b 4c 9b d3 ba
       -0.00067584007 0.28934726 0.00288914 -0.0016144305
0000a0 cc f5 69 3b f8 67 55 bb 47 64 00 3b 7c 43 c4 3c
       0.0035699485 -0.003256319 0.001959102 0.02395796
0000b0 b1 36 59 bb 39 f8 e6 3b 8a 86 72 3b a3 b6 ec bb
       -0.003314417 0.0070486334 0.003700646 -0.0072239204
0000c0 4f 48 7d 3e d5 c6 92 b9 e4 14 20 bb c3 87 01 3a
       0.24734615 -0.0002799543 -0.0024426514 0.00049411895
0000d0 77 7f a0 3b 19 43 cf 3b 82 35 e0 bc 31 6d 95 ba
       0.0048980075 0.0063251373 -0.027369265 -0.001140034
0000e0 e6 ca c2 3b 8a 04 51 3b 8d 89 83 bb e1 06 3f 3a
       0.0059445975 0.0031893575 -0.0040142 0.0007287097
0000f0 e2 f0 4f 3b 2f 0f 76 3b 48 78 91 3a 90 ea e6 3a
       0.003172927 0.0037545671 0.0011098469 0.0017617512
000100 fe 4e 8f 39 e8 8a c9 bc 52 a1 f7 3a 6a e3 d4 ba
       0.0002733394 -0.024602368 0.0018892682 -0.0016242091
000110 50 f5 2d 3d 7a 88 a0 ba 2d bd 64 38 8b 0b 85 bb
       0.042470276 -0.0012247704 5.453562e-05 -0.004060214
000120 26 bc c6 ba 5f 90 f2 3a e2 a3 da bc ca 02 31 3b
       -0.0015162274 0.0018506161 -0.026689474 0.002700972
000130 8b 1b 78 ba ef be 45 bb bc d0 25 bb 39 f3 0f ba
       -0.00094645534 -0.003017362 -0.0025301417 -0.000549126
000140 3d d5 5e bb ea c2 89 bb 2c dd 44 3b 6a 34 3b 3c
       -0.0034001612 -0.004204144 0.0030039055 0.011426071
000150 61 81 3f ba d6 97 13 bc 2a 7b ee bb 5f bf 25 3a
       -0.0007305351 -0.0090083685 -0.007277866 0.0006322767
000160 5a f1 e4 bb af f3 2c bb 5f d2 a4 3a 32 ef a2 3a
       -0.006986779 -0.0026390364 0.0012574903 0.0012430905
000170 89 46 7a 3b f8 0e c4 ba fc ae 8b bc a9 2b 03 bb
       0.0038189015 -0.0014958074 -0.017051212 -0.0020015037
000180 0d 36 00 3a 04 1d bb 3a 53 fb 6d 3e 14 3d 18 3b
       0.00048908667 0.0014275615 0.23240404 0.0023229765
000190 71 64 c3 3a 5e 74 25 bb f1 ee 32 bb 4b b3 c6 bc
       0.0014907253 -0.0025246362 -0.0027303065 -0.024255415
0001a0 3a 10 89 ba 24 e4 f6 bb b0 b5 ea bd e2 ac 73 3a
       -0.0010457106 -0.0075345207 -0.114604354 0.0009295476
0001b0 74 bd 66 bc cc 5c aa 38 2d 4b 8f b9 e1 00 b7 ba
       -0.014083255 8.1235165e-05 -0.00027331096 -0.0013962054
0001c0 1b b1 0f bb 32 e5 20 3b e5 64 99 ba bd b5 68 3a
       -0.0021925631 0.0024550674 -0.0011703043 0.0008877179
0001d0 8e c5 ce ba a6 aa 95 ba 26 71 0e b9 0d 5e 38 bb
       -0.0015775429 -0.0011418655 -0.00013584326 -0.002813223
0001e0 8d df 9c 3b 13 a2 34 bb 3a 82 d7 ba 7c a8 24 3d
       0.0047873915 -0.0027562424 -0.0016442009 0.04019974
0001f0 e1 50 b7 ba 1b 24 9d bc ac f6 e3 bc 9d ef b5 bb
       -0.0013985896 -0.019182255 -0.027827583 -0.005552246
000200 ef e1 79 bc ad c7 13 3c 17 c2 3a 3b 73 c7 85 3b
       -0.015251621 0.009019774 0.0028497034 0.004082614
000210 b4 78 38 3b b7 69 d1 bb a1 77 70 bd 9b 20 20 bb
       0.0028148117 -0.006390776 -0.058707837 -0.0024433497
000220 3f e3 83 39 f2 d2 9e 3c b6 2b 8b 3e c0 cb bb bb
       0.0002515558 0.019387696 0.27181786 -0.005731076
000230 b9 34 20 38 aa 04 d9 ba 3e f5 5a 3a f8 69 4e ba
       3.8196074e-05 -0.0016557176 0.0008352584 -0.0007874067
000240 83 15 02 ba 97 2f 95 3c ad ca 98 3a fc d6 5a 39
       -0.0004962312 0.01821117 0.0011657082 0.00020870188
000250 23 ff f3 ba c9 23 4c 38 23 46 38 39 00 ae 43 ba
       -0.0018615465 4.8670718e-05 0.00017573735 -0.00074645877
000260 91 c9 af 3a f3 16 67 3a ba 88 76 bd 89 c1 e8 3a
       0.0013411512 0.00088153704 -0.060188986 0.0017757873
000270 8b 0b c3 3a 07 0e bc bb 63 a1 4e bb 67 be e2 39
       0.0014880759 -0.005738977 -0.00315293 0.0004324794
000280 f9 2b 33 3b bd de 19 bb 07 81 02 3b fa 42 be 3c
       0.0027339442 -0.002347871 0.0019913332 0.023225296
000290 82 f0 9a bb 0a 2f d6 3c bd 73 f1 bd 40 28 a2 3b
       -0.004728378 0.026145477 -0.117896535 0.004948646
0002a0 4d ec 71 3c cc d3 e6 3a 38 ce 38 3a 83 d4 4e 3b
       0.014765811 0.0017610728 0.0007049772 0.0031559772
0002b0 93 6a 29 3b e1 fa ad 3b d7 8d 85 3d 3e 71 aa 3b
       0.0025850877 0.005309448 0.065211944 0.005201488
0002c0 32 ba e0 3b 39 b4 56 bb 38 ec 54 3b 76 73 5a 3b
       0.0068581337 -0.003276123 0.003248943 0.003333298
0002d0 2f 4c 01 3c 2b 81 2c bb 37 d5 95 ba 8f 38 96 3c
       0.007891699 -0.0026322107 -0.0011431341 0.018337516
0002e0 af 8b ce b8 5e 9c d1 bb 89 54 68 bc 62 f7 f4 3b
       -9.8488636e-05 -0.0063968142 -0.014180311 0.0074757794
0002f0 0c 99 3a bc f7 2e a7 ba 2a 72 96 39 d4 24 2a 3b
       -0.011389028 -0.0012755085 0.00028695288 0.0025961893
000300 67 f4 54 bc 1c c5 6b 3b dd 3a c8 bc 44 46 b4 bb
       -0.012997723 0.003597564 -0.02444213 -0.0055015404
000310 c2 bb d1 3a 7b 07 99 ba 2e 62 76 3e 6a 75 e2 3a
       0.0016001391 -0.0011675203 0.2406089 0.0017277424
000320 26 cb 54 bc 40 2b bc bb 77 bb 59 bc 66 90 cd 3c
       -0.0129878875 -0.0057424605 -0.013289324 0.025093269
000330 2b 6c 0d 39 ce 06 c1 3b fe 19 11 bc 99 6d 06 bc
       0.00013487104 0.0058907038 -0.008856295 -0.008204841
000340 28 b2 03 bc 6a ca 1b 3c e2 bf 37 3b a3 e0 23 3b
       -0.008038081 0.0095087085 0.0028037955 0.002500572
000350 43 d2 4d bb a2 0f b6 bb 9c 58 f2 bc 3a 7e 39 3b
       -0.0031405843 -0.005556063 -0.029583268 0.0028303997
000360 6f 9f b0 bb 48 1b 8a 3e 89 40 ac 3b 3a 4e 61 bb
       -0.0053900997 0.2697394 0.0052567166 -0.0034378902
000370 60 42 c8 ba 79 ac 08 bb c4 55 8d ba e3 5d 06 3c
       -0.001527857 -0.0020854755 -0.0010783006 0.008201095
000380 bc f9 9d 3a e3 ac 96 3c 1d 7d fb bb 66 8b 87 ba
       0.0012052576 0.018392986 -0.007674827 -0.0010341227
000390 b1 f1 89 bc fe 85 e0 b9 45 3d 5d 3a 55 42 ad 3a
       -0.01683888 -0.0004282444 0.0008439611 0.0013218621
0003a0 fa 0d d6 b8 56 bb ef ba 8c 68 83 bd 17 54 64 3a
       -0.000102069185 -0.0018290083 -0.06416425 0.000871004
0003b0 9d f0 b9 ba 31 9c 61 3b b3 3b a8 ba 28 fc ff ba
       -0.0014186088 0.0034425373 -0.0012835175 -0.0019530104
0003c0 30 54 92 ba 73 ac 94 b9 3b 01 66 3a 4d a9 67 3c
       -0.0011164006 -0.00028357244 0.0008773987 0.014139486
0003d0 2a 79 f3 38 a5 0d 00 3d 40 70 c3 bb 29 5d 15 3b
       0.000116097115 0.031263012 -0.005964309 0.0022791123
0003e0 1b b0 25 ba 54 e5 d3 ba 71 3f 93 ba f6 b5 9e 3a
       -0.0006320492 -0.0016166368 -0.0011234117 0.0012108672
0003f0 52 21 9d 39 c9 05 ec ba 2f c5 e4 bd f3 fd 7c 39
       0.000299702 -0.0018007095 -0.11170422 0.00024127196

Decoder.dec1.bias f4 [256]
000000 04 fa a6 be 7a 1b 56 be be 04 9d be d0 38 ac 3b
       -0.32612622 -0.20908919 -0.3066768 0.005255796
000010 c8 db be be 5a 09 c5 bc 24 52 98 be b3 17 7e 3d
       -0.37277055 -0.02405231 -0.29750168 0.06203432
000020 61 a4 2c bd 15 a1 ab be 29 bc 8f be be ca 8c bb
       -0.04214895 -0.33521333 -0.28073242 -0.0042966297
000030 be b6 18 bc 9d 10 13 bd 57 cf cc bb a2 c6 16 3e
       -0.009320913 -0.035904516 -0.006250303 0.1472421
000040 09 3b bd 3c 70 21 66 3c 1b 5d 57 be da 46 bb bc
       0.02309944 0.014046058 -0.2103161 -0.022860933
000050 0c 10 b9 be fd 08 8e 3c f2 23 21 be fe 00 01 3d
       -0.36145055 0.01733827 -0.15736368 0.031495087
000060 58 ee 8f 3c e4 30 41 bd ee 37 bd 3b ab ce 27 bd
       0.017569706 -0.047165766 0.0057744896 -0.04096858
000070 01 06 75 3c 73 71 74 3c cd 88 08 3d 5f 78 af 3c
       0.014955045 0.0149196265 0.03333359 0.021419702
000080 4e 66 81 3c 5b a4 80 bd fb f0 b3 be b1 e5 08 bb
       0.015795853 -0.06281348 -0.3514479 -0.002088886
000090 71 e8 86 3c 3f 4b 8f bd eb cd 0d 3c e4 cb d4 bb
       0.016468259 -0.06996774 0.008655052 -0.006494032
0000a0 f5 63 06 3e 42 14 c8 bd 9f 77 3b 3e 5b f1 48 3b
       0.13124068 -0.09769489 0.1830735 0.0030661437
0000b0 0e 28 32 be 97 82 c8 3d 2b 65 4f 3c c8 02 bf bb
       -0.17398092 0.09790533 0.012658398 -0.005829189
0000c0 f3 15 3b bd 62 d9 3d bd cc dd a2 be 8d 76 5e be
       -0.04567523 -0.04634989 -0.31809843 -0.21724911
0000d0 b6 ff 8e 3c ce 31 2d be ee a9 ce be 43 54 74 ba
       0.017455917 -0.1691353 -0.4036402 -0.00093204173
0000e0 fb 63 61 be e9 3e 4c 3c 2d b4 c8 bd 19 8e 52 3c
       -0.22010796 0.012466171 -0.09799991 0.0128512615
0000f0 f5 aa 5c 3c 80 71 d6 3c 7f f0 4c bd 6d 43 45 3c
       0.013468494 0.026177168 -0.050034042 0.012040001
000100 72 73 52 3d 6d c9 2b be 83 12 05 3c 6e 57 17 bc
       0.05137963 -0.16776057 0.008122089 -0.009237153
000110 de b2 b3 be 75 74 29 bd b0 d3 76 3b 43 28 80 3c
       -0.35097402 -0.041370828 0.0037662797 0.015644198
000120 f8 72 9c be 2b c5 7f 3d 90 6d dc bb ed e2 9e bd
       -0.30556464 0.062443893 -0.006726928 -0.077581264
000130 74 d7 2e 3c 5e ca d3 be d2 5b 04 3d ed 11 92 be
       0.010671485 -0.4136533 0.03231413 -0.285293
000140 73 ae c3 bd 88 13 f0 bd 67 a8 8d 3c 8f e8 72 3c
       -0.09554758 -0.11722475 0.017292215 0.014825954
000150 d8 20 f8 bd 17 d4 61 3c 15 66 8b bd 66 63 3f be
       -0.121156394 0.013783476 -0.0680658 -0.18690261
000160 1b 67 79 be 34 a8 8e 3c c7 1a b3 be 4b 6c 40 be
       -0.24355738 0.01741419 -0.34981367 -0.1879131
000170 9f f3 5f bd 56 77 83 3c 18 45 77 be 85 70 18 3d
       -0.054675695 0.016048115 -0.24147451 0.037216682
000180 53 b2 2e be e4 d4 99 3b 01 eb 25 3c aa fa b3 bd
       -0.17060213 0.004694568 0.01012683 -0.08788045
000190 58 03 8f 3b 46 a5 96 bd 64 76 6f be ad ae 11 3c
       0.0043644123 -0.07355742 -0.23385006 0.008891744
0001a0 ba 35 90 3c a0 b7 b4 bd 3a 56 b4 3b 70 41 90 3b
       0.017603744 -0.08824086 0.005503443 0.004402332
0001b0 a1 16 93 3d 83 41 ff 3c 2c a1 2c 3c 9b 8a 87 be
       0.071820505 0.031159168 0.010536473 -0.26472935
0001c0 bf 25 ef 3b 19 7a e0 3d 6c cb db 3b 39 dc 04 3d
       0.007298201 0.10960788 0.0067075994 0.032436583
0001d0 6d 5f fe 3b b5 5b ba bd 49 20 e6 3c 00 8a 88 3c
       0.0077628405 -0.09099523 0.028091567 0.016667366
0001e0 37 e2 5a bc dc e6 aa 3d d2 2d 00 3d b3 44 38 bd
       -0.013359598 0.08344814 0.031293698 -0.04498739
0001f0 39 27 93 bd 7e 3c 85 3c e0 59 06 3d 66 4a cf bd
       -0.071852155 0.016264196 0.032800555 -0.10121612
000200 d5 1f 34 3b e5 49 56 3d cd e0 00 be 19 b0 a5 3c
       0.0027484794 0.052316565 -0.12585755 0.020225571
000210 0f 2b 11 3c 7f 8e 35 3c 23 5c 1a 3c 8c 7f db bd
       0.008860364 0.011081337 0.009421381 -0.10717687
000220 8e 3b c0 3d 44 17 98 be 28 ee 04 be 83 cc f1 3c
       0.09386359 -0.2970525 -0.12981474 0.029516464
000230 11 24 f3 3c ff bd 9b 3c fb a9 9a bd 9f cf af 3c
       0.029680284 0.019011496 -0.075519525 0.021461306
000240 9a fe 87 3c 9b 7d 99 bd 7e 94 c3 be 44 3e 69 3c
       0.016600896 -0.074946605 -0.38199228 0.014236037
000250 2d 40 c7 bb df 3a 17 3b 64 a5 98 be 2d 78 71 3c
       -0.0060806484 0.0023075861 -0.29813683 0.014738125
000260 d0 97 ba be 34 7d 07 3c d3 91 8f be fa ef 70 be
       -0.3644395 0.008269597 -0.28040943 -0.23529044
000270 57 f0 80 3c b3 cd 0f 3c b8 f6 80 be 36 c4 ed 3a
       0.015739603 0.00877707 -0.2518823 0.001814014
000280 26 75 b2 3b 34 bd 02 3c 39 b2 a1 be d1 ff 5f be
       0.005446094 0.00797968 -0.31581286 -0.2187493
000290 9d 8d 77 be 31 4b 9b be 2d 6f 63 3c 62 50 51 be
       -0.24175115 -0.30330804 0.013881487 -0.2044082
0002a0 db e1 14 bd 1b d4 a9 be eb 8a 09 be fd 3d 44 3e
       -0.036348205 -0.33169636 -0.13431899 0.19164272
0002b0 9c db 0b be f7 90 a2 3b 03 aa 80 bd 43 50 6c be
       -0.13657993 0.004961129 -0.06282427 -0.23077492
0002c0 ac ff e9 bb 88 33 56 3c a6 18 ec bd 62 91 0a bb
       -0.007141074 0.013073809 -0.11528139 -0.0021143784
0002d0 39 fd 42 3c 83 bc 88 3c fe 06 80 bc 8b cb 48 3c
       0.011901193 0.016691452 -0.015628334 0.01225556
0002e0 e6 c3 49 be 36 19 f7 3c 80 d2 fe 3c f0 fd 97 bd
       -0.19703636 0.030163389 0.031106234 -0.074214816
0002f0 f6 cb bf bc 12 8d 91 bd 52 b6 37 3d 40 47 85 3c
       -0.023412686 -0.07106985 0.04485161 0.016269326
000300 a1 45 de bc 41 16 91 3b ee 1d 93 3d e8 19 9e bd
       -0.027132811 0.0044277017 0.07183443 -0.07719785
000310 d3 08 2d be 99 4c 87 3c 14 d9 8f 3c 39 39 26 3c
       -0.16897897 0.016516017 0.017559566 0.010145479
000320 88 72 52 be 2f 06 45 3c 08 8f 30 be 9c 5c cf bd
       -0.20551503 0.0120254 -0.17242062 -0.10125086
000330 15 72 3e bd c3 cb 3b bd 5a bc 6e be f1 84 43 3c
       -0.046495516 -0.04584862 -0.23314038 0.011933551
000340 23 16 0f bd 98 96 f6 3c f9 3c f7 3b 3a e2 7e 3c
       -0.03493322 0.030101106 0.0075451103 0.015556866
000350 4e 18 25 be 03 12 42 be 6d b3 03 3d 5e 26 56 bd
       -0.16122553 -0.18952183 0.032153536 -0.052282684
000360 82 0c 84 bc 60 6b 11 be 73 e6 de be a8 ae 13 bc
       -0.016119245 -0.14201117 -0.43535194 -0.009013809
000370 cc ab 2b 3b 05 82 41 3d 51 f3 d4 bb 8e 4e 01 be
       0.0026194928 0.047243137 -0.006498732 -0.12627622
000380 99 a4 f4 3c b5 45 81 3c d0 26 64 3c 12 15 19 3b
       0.029863643 0.01578031 0.013925269 0.0023358506
000390 83 65 98 be 06 eb 82 3c 02 b1 ac 3b c1 f6 9a bd
       -0.29764947 0.015981209 0.0052701244 -0.07566596
0003a0 80 84 46 3e 9e 0c 05 3d 2c 7d e1 3c ec 6e b3 bd
       0.19386482 0.032482736 0.027525507 -0.08761391
0003b0 fb 98 65 3c b4 ea 2c bf 1b 65 d3 3c ad 62 42 bc
       0.014013524 -0.6754563 0.025805047 -0.011864346
0003c0 70 3a a0 bc a5 6b 9b be 18 42 ed 3c 98 00 0e 3c
       -0.019559115 -0.30355564 0.02896218 0.008667134
0003d0 37 d4 27 be 1c f7 f5 be 0d 00 05 bd c8 88 88 be
       -0.16389547 -0.48040092 -0.03247075 -0.26666856
0003e0 bd f0 f8 bd cf c5 a2 bc 08 34 e5 bd cc c9 1f 3d
       -0.12155292 -0.019869713 -0.11191565 0.039010808
0003f0 d4 2c 1b be 52 cf 6b be a2 37 3b 3c 68 f8 60 bc
       -0.1515382 -0.23028305 0.011426838 -0.0137311

Decoder.dec2.weight f4 [31, 256]
000000 f1 7c 8f 3d 1a 67 b5 3c a8 fa a0 3d ab 80 07 3f
       0.070062526 0.02214389 0.07860309 0.52930707
000010 fe ee 6b bc 1c 45 6a 3b 33 44 f9 3c 8f 86 99 3e
       -0.014400242 0.0035746759 0.030428028 0.29985473
000020 54 bf 09 3e 8b 53 90 3d 6c da 1e 3d b5 cf 4c 3e
       0.13451892 0.070471846 0.038782522 0.20001109
000030 0f 14 2f 3e f2 15 61 bd 96 84 30 3e 85 16 98 be
       0.17097495 -0.05495257 0.17238078 -0.2970468
000040 bd 92 22 3e 86 9e 64 3d 86 0e 15 3e 17 4c 8d 3c
       0.15876289 0.055815242 0.14556322 0.017248197
000050 a2 ef ce 3d 41 a5 e4 3d c8 d4 c6 bc 3b 41 12 3d
       0.101043 0.11164332 -0.024271384 0.03570674
000060 f9 d2 df 3c 1d eb 82 3e 64 98 a8 3d df 09 d7 3d
       0.02732228 0.25570002 0.08232191 0.1049993
000070 48 87 a1 3c 99 fc c7 3b f5 fe 3e 3d b9 d9 49 bf
       0.019717827 0.00610311 0.046629865 -0.78847843
000080 66 a9 0d 3c fc b3 5e be f1 12 f6 3c b0 2e 33 3f
       0.008646345 -0.21748346 0.030038329 0.69993114
000090 6a 98 22 bf e2 37 19 3d 6e e9 a2 3d 5e dc e2 be
       -0.63513815 0.03740681 0.079546794 -0.44308752
0000a0 7b 6e 4a be a2 1e b3 be f6 54 04 be 7c d9 4b 3f
       -0.19768707 -0.34984308 -0.12923035 0.7962873
0000b0 eb b1 18 bd c1 9c 5b 3e e8 05 e1 3b f8 c7 d3 be
       -0.03727905 0.21446516 0.006867159 -0.41363502
0000c0 39 ef cd be 8a e0 17 3e 61 85 2d bd 7e e4 f3 bc
       -0.40221575 0.14831749 -0.04236353 -0.02977204
0000d0 8a b2 42 be fe 79 53 bc 2e 43 06 3d 9f 46 42 3f
       -0.1901342 -0.012907503 0.03277891 0.7588901
0000e0 9f 05 49 3c 57 c7 77 3d 21 c0 0a 3e c4 15 9f 3b
       0.012269407 0.06049284 0.13549854 0.0048548896
0000f0 c2 06 31 3d fe 12 bd 3c bc 80 16 3f 9b c2 91 3c
       0.043219335 0.023080345 0.58790183 0.01779299
000100 96 e4 e4 3e 9a 35 43 3d 0d e2 95 3e c8 1f a1 3d
       0.44705647 0.04765854 0.29274026 0.0786739
000110 66 77 be 3d 7c 44 b6 be c5 63 9e 3d 3d f4 8a 3b
       0.09300117 -0.35599124 0.07733873 0.0042405413
000120 87 37 cf bd c1 75 06 bf 4d c4 2a 3e 9d 4f cd 3c
       -0.10118013 -0.5252343 0.16676445 0.025062377
000130 96 63 0b 3f b7 8a 80 3d c2 89 2d bf fb fa b2 bc
       0.5444883 0.06276458 -0.67788327 -0.021848192
000140 01 ab e0 3d c6 4d 89 3c 5d 04 95 bf 96 aa 25 3c
       0.109701164 0.016760718 -1.1641957 0.010111472
000150 f0 c3 bb 3c d4 e4 bc bc af c9 1e 3f ef 3c 96 3e
       0.022920579 -0.023058333 0.62026495 0.29343364
000160 f4 bd 9f 3d 73 a0 65 bf de e9 66 3c cf 9b 7d bd
       0.077999026 -0.8969795 0.014093844 -0.06191617
000170 5c 9d d0 3e 47 b8 77 3d 84 f2 f9 bc 11 58 bb 3e
       0.40745056 0.060478475 -0.030511148 0.36590627
000180 9a cb b0 bc e7 0d 07 bf d9 27 d0 3e 1b c7 99 3d
       -0.02158146 -0.5275559 0.406554 0.075086795
000190 da 53 e8 be 14 61 99 3e 9e 72 50 bd 6d 27 09 3f
       -0.45376474 0.29956877 -0.050890557 0.53575784
0001a0 ad 10 f0 3c f6 69 a0 3e 49 69 06 3e 28 11 24 bf
       0.029304827 0.31330842 0.131261 -0.6408868
0001b0 55 ea 4e bf ad bc 5b 3d 88 aa 68 bf 30 d8 04 3d
       -0.8082631 0.053646732 -0.9088521 0.032432735
0001c0 8d ca 15 3f 77 ed 97 3e 44 fe 78 bf 68 bd 2a bf
       0.5851219 0.2967336 -0.9726298 -0.6669526
0001d0 43 ab f7 bc a3 3b 28 bd be b6 c1 bf f1 f1 b5 3e
       -0.030233031 -0.0410725 -1.5133893 0.3553615
0001e0 b2 d2 05 bf 0c e1 a2 be 7c 85 8b 3d c2 50 e3 be
       -0.5227462 -0.31812322 0.068125695 -0.4439755
0001f0 19 73 bd bd 42 0f de 3d 49 c0 40 3d a8 47 0c 3e
       -0.09250469 0.10842754 0.047058377 0.1369921
000200 eb 9c c2 be 18 0d c5 3e c6 52 dd 3e e9 10 1e bf
       -0.38010344 0.38486552 0.43227214 -0.6174455
000210 18 ac ac 3d ba 4c 1a 3e cf f9 f3 3b 77 c9 db 3d
       0.08431262 0.15068331 0.007445551 0.10731786
000220 b7 3a 17 bf 3e c6 8a bc 7c 77 12 bc 51 7c 01 3e
       -0.59073967 -0.016940232 -0.00893962 0.12645079
000230 4f 6e 34 bf 22 4e fd 3e 42 d8 13 bd bf f8 99 bf
       -0.7048082 0.49473673 -0.03609491 -1.2029036
000240 b4 f9 9a ba 4d 6a 5c 3e 99 8c 47 3d 0d 44 1d 3d
       -0.0011823685 0.21524926 0.04871807 0.038394976
000250 dc fe 0f 3e 18 90 c5 be d6 af da 3c 6e e4 0c bf
       0.14062065 -0.38586497 0.026695173 -0.55036056
000260 ff 2e 03 3e 73 9f f2 3e d3 ee 07 bd 0b 31 bc be
       0.12810896 0.47387275 -0.033186745 -0.36756167
000270 0a 26 12 bf 45 04 99 bf 5f 91 01 3d 28 aa 13 bf
       -0.57089293 -1.1954428 0.031632777 -0.5768151
000280 28 fe 09 3f c1 2c c1 3e 70 c5 02 3e 56 e1 36 bc
       0.53903437 0.37729457 0.12770629 -0.011162123
000290 e9 66 b0 ba 84 50 50 3d 2f 9a 00 bb d5 d6 40 3e
       -0.0013458404 0.050858036 -0.001962315 0.18831952
0002a0 7b 7b c6 be a7 dc f8 bb ae 9a 97 be c9 74 34 be
       -0.38766083 -0.007594663 -0.296102 -0.17622675
0002b0 30 58 05 be 7a 6f 9e bf 5c 86 2b be 01 8b 99 bb
       -0.13021922 -1.237777 -0.16750473 -0.00468576
0002c0 28 94 12 3e 50 1c d9 bd bf 85 fe 3c 4d 41 10 bf
       0.1431433 -0.10601103 0.031069634 -0.5634964
0002d0 19 37 72 3d 86 1d ff 3e 90 55 8c be 41 48 cf bd
       0.059134576 0.49827212 -0.2740903 -0.10121203
0002e0 10 23 8b bc fc fe 9f 3d 5f 08 0b bd ac ed bb be
       -0.016984493 0.07812306 -0.03394353 -0.36704767
0002f0 c9 4b d1 3e b1 88 0b 3e 40 6c b0 3e a8 16 2a bf
       0.40878132 0.13626362 0.34457588 -0.6644082
000300 c2 6f b8 3d 3a a7 5b bd bc 37 1a 3f a7 4e dd 3c
       0.09005691 -0.053626277 0.60241294 0.027015043
000310 71 d8 bb bc 61 4c e3 be c0 6e d0 3d 5c 9d 80 bb
       -0.022930356 -0.4439421 0.10177374 -0.0039250087
000320 b0 80 c1 bc cf 7c db bd 1f a0 60 bd 4e 8f 8f bd
       -0.023620933 -0.10717165 -0.054840203 -0.07009755
000330 d2 c9 c6 be a1 19 4e 3d 21 5e d2 bc 70 30 39 bc
       -0.38825852 0.05031741 -0.02567965 -0.011303052
000340 0b 9e 6b 3e 90 5f 27 bf ad 2b c2 bd 74 4d 17 3c
       0.23009507 -0.6538019 -0.09480987 0.009234775
000350 81 5e c3 bc ee e0 5b 3e 39 c6 aa 3e 56 cb d9 bc
       -0.023848774 0.21472523 0.33354357 -0.026586216
000360 50 ce bd 3d be 1a 74 bd fd 89 e4 bd d1 a3 b7 3e
       0.092678666 -0.059595816 -0.11159132 0.3586717
000370 5a ac c7 3e 83 df 68 bf cf 15 27 3e b8 35 21 3e
       0.3899868 -0.9096605 0.16316913 0.15743148
000380 7f 26 3a 3d a5 25 df be 4a c5 c4 bc 0f 07 d7 3e
       0.04544687 -0.43583408 -0.024019856 0.41997573
000390 94 40 e7 3c e9 d6 fb bb 23 36 85 3e 39 01 ef bd
       0.028229035 -0.0076855314 0.26017866 -0.11670155
0003a0 1f 91 80 bd 67 a4 43 3d 43 06 5d 3d d2 fd f7 3d
       -0.0627768 0.04776421 0.05396105 0.12108959
0003b0 22 bc 9d bc a9 86 92 bf ea c2 18 3d cf 66 80 3d
       -0.019254748 -1.1447345 0.03729526 0.06269609
0003c0 65 c7 b3 bd f7 9a a3 3d a3 c0 b3 3e c0 b4 93 bf
       -0.08778266 0.079885416 0.35107908 -1.1539536
0003d0 12 59 44 be 25 0b 0a bf 1b 2d 74 bd d7 44 fe 3c
       -0.19174603 -0.53923255 -0.05961333 0.031038685
0003e0 23 a8 1c 3d 28 7a a9 bd cc a6 18 3d fb d0 3e bf
       0.038246285 -0.082752526 0.037268445 -0.7453763
0003f0 c9 fd 80 bd b9 b6 be bc 25 82 0e 3f bb bc 12 bf
       -0.06298406 -0.023280488 0.55667335 -0.5731923

Decoder.dec2.bias f4 [31]
000000 a0 d9 d6 be 77 48 5d bd 79 6e df 3f 68 78 f3 bd
       -0.4196291 -0.054024186 1.7455589 -0.118882
000010 f3 fe 1c 40 93 48 fc 3d 93 0a 04 c0 3a cc dc bf
       2.4530609 0.1231853 -2.0631454 -1.7249825
000020 9b 70 91 3f 75 b7 cb 3e 3c f8 a1 3f eb db cb bf
       1.136249 0.39788404 1.265388 -1.5926489
000030 71 1a f0 3f a4 9c a8 bf f7 87 c0 bd 49 1e eb 3e
       1.8758069 -1.3172803 -0.09400933 0.45921543
000040 ae 83 b0 bd 12 25 95 bf 54 30 c8 bd e3 ff 8d bf
       -0.08618866 -1.1651938 -0.09774843 -1.1093715
000050 0c da f6 bf e1 92 84 be d7 35 b6 3c fc 1f 8a 40
       -1.9285293 -0.2589331 0.02224247 4.3164043
000060 a5 91 47 3e a9 99 6a bc f1 35 2b 3e 5f fc 82 3f
       0.19489153 -0.014318862 0.16719796 1.0233268
000070 32 1a 99 3e 48 6e 24 3b 41 ba 2c 3d
       0.29902798 0.0025090147 0.042169813
