results/3_niid/model_alone_n_2_m_0.pt (torch, 121552 bytes, 8 tensors)

Encoder.enc1.weight f4 [256, 22]
00000000: 4799 04be b689 36be b3f4 1ebe c8c3 8fbb
00000010: 0022 9abd b967 a9bd 0437 41bc 4a52 543d
00000020: daab 6dbd b1c1 26be 59bb 58be 9cc9 323d
00000030: 1531 4a3d 08bf 013c 6f72 7abb b666 2cbd
00000040: 5fa8 12be f051 f0bd 9d3d ea3d afe4 a53d
00000050: dbbc a5bd 1052 583d 0dff 8cbc 16af d8bc
00000060: 7093 043d 8843 e03b 7cdb 023d 4300 363d
00000070: 4739 cfbc 3f4f 9abc 714b bcbd 7b84 14be
00000080: 77b2 ab3d 7ed1 f6bb 6943 b43d 3ea7 b63b
00000090: 1263 2dbd 9221 2dbd ce57 9bbd c6f3 bcbc
000000a0: f0f9 2c3d 41b9 033d 8526 fc3c f748 07bb
000000b0: f543 a9ba 19e2 4bbd 90a6 d9bd 3995 3f3d
000000c0: 978a 41bb ea8d 293d 8883 0b3e 534f c9bd
000000d0: 0404 21bc adb6 90bd 4c4e 783d 8ac3 06bc
000000e0: 4948 bf3d 242d 31bc bc14 443c 9a8d 033d
000000f0: 4384 dabd ea64 92bd c106 d1bd 1a27 b3bc
00000100: 33ca 8f3d f171 63bc 77cf e93c ca78 04bc
00000110: 4d0b 1dbd 9d5c 00bc 0a0b f63b 509e 1a3d
00000120: c80f 363c fcd5 93bc f33c 8dbc f6b2 7bbd
00000130: 081a 5f3c f703 46bc d27b 993c 7b61 b3bc
00000140: bb14 65bd 85a6 593b 97e8 f43c f228 cbbc
00000150: bb91 c1bc 1754 ab3c efef 58bc d7f5 a93c
00000160: c130 0ebd f10e 20bb d172 a9bd cc33 703c
00000170: da68 71bd aa72 3c3b 17ef 803b c0b8 95bc
00000180: 02e9 03bd bb2f 0dbd 8a03 8c3d 2712 afbd
00000190: 1618 e63c 8b4a b13c 0f9a 65ba afa0 833c
000001a0: e496 89bc 1055 453d 9cf1 10bd 9db3 803d
000001b0: 14c0 593c 7fbf 99bb 7600 1bbe 9692 833d
000001c0: d2e8 dbba 4fd7 d83c 1d4c 8dbb 0d76 833c
000001d0: 68e2 bbbd 3c13 02be e0a7 06bb e069 85bd
000001e0: 8025 223d 6490 b1bd 6d11 5c3d 2a22 25bd
000001f0: 5443 8bbc 098a 64bd 8672 aabd 9294 a13c
00000200: e999 a33b 78f7 463b 4e4c b5bc 3d2a 80bd
00000210: d739 cf3d dc9d d03c 1f39 f3bd c26a a33c
00000220: 4748 043d a6f0 44bd 4bf3 8b3c 3e75 aebd
00000230: 32d5 02bd a7a9 89bb ee9e 853c 7ce0 c4bd
00000240: f4ac 9c3d 0bc8 52bd 7e03 dbbc 87b0 64bd
00000250: 7361 e83d 1ee2 be3c 4015 4f3c 67f7 9c3d
00000260: e809 553c d4c2 1cbd 487a e4bc 35a1 04be
00000270: c182 5cbe b4de 0cba 7d9d 6bbd 90bc 293d
00000280: 223f 86bc d301 28bd 711d 13be e17d 2cbd
00000290: 8e8e 5cbd ce64 a6bc 60dd 30bd 2800 85bc
000002a0: 7038 a73c 4580 a83c 6ee8 0ebd 67d5 b5bd
000002b0: 17eb bc3c ed9e 033b c474 0b3d ab58 8dbc
000002c0: b398 97bc 47cc 1fbe a713 64be b2b6 9a3c
000002d0: 39b7 7cbd a5df 0bbd 1ea5 05bd e69b 1bbe
000002e0: 372f 9dbc 355a 83bd 18e2 01be 9060 88be
000002f0: 2260 6ebe 94a2 8ebd b357 6e3d 72d7 9ab9
00000300: 69bf 7fbe 2f2f e1bd 6073 c73d 9c11 933d
00000310: 8ab2 b3bd 61b8 9d3c 8d02 82be ef62 68bd
00000320: dd84 9cbe 6a7d 453d 5527 32be b834 5e3d
00000330: 6e18 af3c baf5 35be c4c9 2f3d dcee 63bc
00000340: 5036 d7bd 2622 34be bd25 a3bd f98d 7c3c
00000350: 821e 4b3d d2e8 a23c 6f68 22be 9f23 1abc
00000360: b271 f83d 81ca 5bbd e6ec 563d 7b6f bbbd
00000370: 9a1c be3c 8952 473c 3400 18bb 5c6a 293c
00000380: 48ea fa3c 97a5 013d a88e 5bba 3072 85bd
00000390: 591f 45bd 9400 5cbd 51c5 233d 395b 7abe
000003a0: 1b5a 1bbd e383 4f3c d811 aabc b70d 90bd
000003b0: 1845 d4bb 8a8b 15bd a0cd 463d f26b ab3b
000003c0: 8939 32bc 576a 1cbd 9fc6 01be f716 85bd
000003d0: 8c35 8abe 20a5 b83c c83f a2bd a5c0 07bd
000003e0: b63f ddbc ba65 42bd 991e d2bd 71a5 36be
000003f0: 480a 0a3d 5983 c2bb fc78 cfbc e582 90bc
-0.12949096 -0.1782597 -0.15523033 -0.0043873526 -0.07526016 -0.08271737 -0.011792902 0.05183629
-0.05802522 -0.16284825 -0.21165217 0.0436493 0.049363215 0.007919081 -0.003821518 -0.04209014
-0.14322041 -0.11734378 0.11437533 0.081002586 -0.08092662 0.052812636 -0.017211461 -0.026450675
0.03236717 0.006843988 0.031947598 0.044433843 -0.025295867 -0.018836616 -0.09194077 -0.14503662
0.08383649 -0.0075322976 0.0880192 0.005574136 -0.04233081 -0.042268343 -0.07585107 -0.023065459
0.042230546 0.032159094 0.030780086 -0.0020642856 -0.001291393 -0.04977617 -0.106274724 0.04677317
-0.002953207 0.041395105 0.13624394 -0.09829583 -0.009827618 -0.07066093 0.060621545 -0.008225331
0.09339959 -0.010813985 0.011967834 0.032117464 -0.10669758 -0.07148154 -0.10206366 -0.021869231
0.07020988 -0.013882146 0.02854131 -0.008085439 -0.038340855 -0.007834581 0.00750864 0.037748635
0.011112161 -0.018046372 -0.017240977 -0.061449967 0.013617046 -0.012085906 0.0187358 -0.021897068
-0.055927973 0.0033210826 0.029896064 -0.024799798 -0.02362906 0.02091412 -0.013240798 0.020747108
-0.034714464 -0.0024422968 -0.082738526 0.014660787 -0.058937885 0.0028754869 0.0039347517 -0.018276572
-0.032204635 -0.034469347 0.068366125 -0.08548384 0.028087657 0.02164199 -0.0008758613 0.01606783
-0.016795583 0.048176825 -0.035386667 0.062842585 0.013290424 -0.0046920176 -0.15136895 0.064244434
-0.001677776 0.026469855 -0.004312052 0.016047502 -0.09174043 -0.1270265 -0.0020546839 -0.06514335
0.039586544 -0.086701185 0.053727556 -0.040315785 -0.016999878 -0.055795703 -0.08322625 0.019724164
0.0049927128 0.0030359905 -0.022131111 -0.06258056 0.10118454 0.025465898 -0.11876129 0.019948367
0.03229549 -0.048081063 0.017083785 -0.08518456 -0.0319416 -0.0042011323 0.016311135 -0.096131295
0.07650176 -0.051460307 -0.026735064 -0.055832412 0.11346712 0.02330118 0.012639344 0.07664376
0.01300285 -0.03827174 -0.02789034 -0.1295212 -0.21534254 -0.00053737615 -0.05752324 0.041439593
-0.016387526 -0.041017365 -0.143667 -0.042112235 -0.05384689 -0.02031174 -0.04317987 -0.016235426
0.020412654 0.020568976 -0.03488963 -0.08878594 0.023061318 0.002008374 0.034046903 -0.017254194
-0.01850543 -0.1560527 -0.22273122 0.018885944 -0.061698172 -0.03414883 -0.03262817 -0.1519619
-0.019187553 -0.0641369 -0.12683904 -0.2663617 -0.2327886 -0.06964603 0.058189105 -0.00029533688
-0.24975361 -0.10995328 0.09738803 0.07181093 -0.08774288 0.019252958 -0.2539257 -0.056734975
-0.30570117 0.048215307 -0.17397816 0.054249495 0.021373954 -0.17769518 0.042917028 -0.013911929
-0.10508406 -0.17591152 -0.079661824 0.015414708 0.04958964 0.019886408 -0.15860151 -0.009407907
0.12131061 -0.05365992 0.052472018 -0.091521226 0.023206998 0.012165674 -0.002319348 0.010340299
0.030629292 0.03165206 -0.00083754444 -0.0651592 -0.0481256 -0.05371149 0.039983097 -0.24448861
-0.03792773 0.012665722 -0.020760462 -0.07033866 -0.006477963 -0.036510028 0.048535943 0.005231374
-0.010877975 -0.03818735 -0.12673424 -0.06498521 -0.26993978 0.022539675 -0.079223216 -0.033142705
-0.027007919 -0.047460295 -0.10259742 -0.17836548 0.03370121 -0.005936068 -0.025326245 -0.01764054

Encoder.enc1.bias f4 [256]
00000000: c95b 82be d181 56be e7a5 aebe fada 10be
00000010: 6e7a 0ebe 185e 8cbe bfab 99be 2941 f0bb
00000020: 923b a8bd 955c e3bd c17c aebd 873f 83bd
00000030: c19b 4bbe fece 5abe b547 edbd 18cc bfbc
00000040: a5d1 acbe a66a 82be ded4 dd3a ef12 a93d
00000050: 627a 383f 86b7 e7bc 37cb ccbe ce3e 8bbe
00000060: 35a3 2bbe fcad 93bd 8ab6 7abd 6091 ddbe
00000070: 5f66 7abe 87ca fbbc 5d10 1ebe af1f afbe
00000080: 9376 2bbd 8b3c 16be c810 93be 994f 13bf
00000090: ad4d a9be 9369 b0be 6e0b 90be ab70 00be
000000a0: 4da0 bdbe 7ef1 05be e233 51be a378 adbe
000000b0: ed4f 74be eed9 3dbe bc38 34bd e2ca 0ebe
000000c0: 7560 c1be 36f5 edbe cff5 653f c536 92be
000000d0: d4ad 55bd abf5 98be 290c 1ebe 2b48 e4be
000000e0: 5696 09bd bc3f a7bc 14f2 c9be e857 263f
000000f0: e196 1a3c fe2f 3bbe fd4d 15be acde babe
00000100: 7ba3 60be c006 b6bd 7c20 12be 6032 1a3d
00000110: 42d6 34be 7824 06be d8a9 8cbe 1fbb ffbb
00000120: 2f77 ccbc 7aaa 8cbd aae0 d83c 60bc 78be
00000130: 766f a7bd 55c6 cabd 6a8b 25be 897e 5ebe
00000140: 04da e1bd 1ce6 a6be daa3 e2be 482e 123c
00000150: 5516 91bd 318c 8fbe 0a68 60be c823 f3be
00000160: 198a 23bf 3eea a3bd 18b6 2d3f a10f 2bbf
00000170: cd84 15be c16d 51be b4a5 82be ff3a 86be
00000180: 0ee2 1fbe 7536 12bf 304a 62be 89eb 5abe
00000190: 2a45 bbbe e5c8 42be c104 17be 940e e8be
000001a0: 1b2a 6abe 2933 57be d246 6dbe 5431 22be
000001b0: 900c 2bbe 67a4 27bd fe2f 07be 89f2 ccbd
000001c0: 9e9d 7bbe a56e dfbd c7ac 9bbe e89c b9be
000001d0: 1806 99be 00c3 4fbe 1fef 1bbe b488 b6bd
000001e0: fb12 2dbd 04cc edbe 5b75 28be a279 3cbe
000001f0: 0aec 4dbd 8a64 cdbe 32e3 39be a8db a4be
00000200: 5fc1 14bc 305b 34be df95 43bc b225 31bc
00000210: 7ac8 34ba 2382 2ebb 5160 1ebe 75de 52be
00000220: b737 66bd eccb 21be 8858 59be be56 a9bd
00000230: cab8 1fbe 3f53 61be 42b4 38bb ad2d 4fbd
00000240: fe7b b2be 03ab 233c 4b6e 90be 63f5 25be
00000250: 6459 88be 5bf3 94be 5d12 ed3e db9b 8b3c
00000260: 8ed2 b6be 4b2a 85bd 860e 86bd 062e 39be
00000270: 7569 70be dfb3 f2bd 6a3f 04be c89c 73bd
00000280: 976e 11bf 5a67 8cbe 406e e7be 15e2 bc3c
00000290: 3200 03be d987 8ebe ee84 2abd 12ff 22be
000002a0: 5690 34be cfed 513d 2d18 98be 6a8c 7dbd
000002b0: f148 1cbe 90b1 a9be a5b6 893e 7fcf 9dbe
000002c0: aa2e e3bd 9feb 66be c934 37be 01d0 d7bd
000002d0: 42e8 a6be f706 74be 22d8 ecbd 2d52 6ebe
000002e0: 6de2 debe ce98 81bd 7068 b6bc 41ca 9dbd
000002f0: d47b 1bbd 42c4 11be d0b0 90be 7274 38be
00000300: a631 bcbd 2a51 36bd 9976 d6bd aebe 2ebc
00000310: 80cb 22be b386 a8be 3cdd 463e 030b e03c
00000320: 800a 45be 70b2 45be 6ce3 a5be 093d d8bd
00000330: fa39 64be 319d 61be 8fb6 bfbd eff2 9cbd
00000340: 7d6b b8bd 0943 83be ddb9 973e 0278 44be
00000350: 6d50 62be 568a 38be efcc 27be 027f c53c
00000360: 8daf 10be e73c 0ebe d830 57be e99f 1abd
00000370: e0ea e0be 2a07 26be d43b ecbe d3b2 afbd
00000380: 7a6e 27be ca06 66bb a0e0 82be c2e8 00be
00000390: 3ef4 10be 2943 3f3d cfd3 373d d0c2 cbbd
000003a0: 4be5 9fbd 50d9 aabe 7ffe e4bd 546e 953c
000003b0: 6b3e 92be 2f4c 11be eb56 9bbd de4b 813c
000003c0: 1f62 1ebd 2615 c4bd 3bb3 0fbe e04b e1be
000003d0: b643 f5bd a75b 31bd c217 7bbe 97c5 d0bd
000003e0: 4ca4 a3bd 1a35 8dbe 1ee2 2cbe 36e2 4cbd
000003f0: 1c03 32be 97da 9fbc 76a4 2fbe b125 57bd
-0.25460652 -0.20947959 -0.34110948 -0.14146033 -0.1391389 -0.27415538 -0.30013844 -0.0073319864
-0.08214487 -0.11101643 -0.08519889 -0.06408601 -0.19883634 -0.21368024 -0.11585943 -0.02341275
-0.33753696 -0.2547199 0.0016924401 0.082555644 0.7206174 -0.028285753 -0.3999879 -0.27196354
-0.16761477 -0.07210919 -0.06120924 -0.43274975 -0.24453114 -0.030736221 -0.1543593 -0.3420386
-0.041861128 -0.14671533 -0.2872374 -0.5754333 -0.33067074 -0.34455547 -0.2813372 -0.1254298
-0.37036362 -0.13080403 -0.20429948 -0.338811 -0.23858614 -0.18540165 -0.04399942 -0.13944581
-0.37768903 -0.46476144 0.898282 -0.2855741 -0.05216773 -0.2987493 -0.15434326 -0.4458631
-0.033590637 -0.020416133 -0.39442503 0.64977884 0.009435386 -0.18280026 -0.14580531 -0.3649801
-0.21937363 -0.08888006 -0.14270204 0.037645698 -0.17659858 -0.13099849 -0.2747333 -0.007804289
-0.024959175 -0.06868453 0.026474316 -0.2429061 -0.08175556 -0.0990111 -0.16166463 -0.21727957
-0.11027911 -0.32597435 -0.44265634 0.008922167 -0.070843376 -0.28036645 -0.21914688 -0.47488236
-0.63882595 -0.080036625 0.6785598 -0.6682072 -0.1460144 -0.20452024 -0.25517046 -0.26216885
-0.15613577 -0.57114345 -0.22098613 -0.21378912 -0.36576205 -0.19021948 -0.14747907 -0.45323622
-0.22867624 -0.2101561 -0.23171547 -0.1583913 -0.16704011 -0.04092827 -0.13201901 -0.100071974
-0.24571845 -0.10909776 -0.30405256 -0.36252522 -0.29887462 -0.2028923 -0.15227936 -0.08912793
-0.04225443 -0.46444714 -0.16451018 -0.18405774 -0.050273933 -0.40115768 -0.18153074 -0.32198834
-0.009079306 -0.1761291 -0.0119375875 -0.01081221 -0.00068963284 -0.002662786 -0.1546643 -0.20592673
-0.056205478 -0.15800446 -0.21225178 -0.08268498 -0.15597835 -0.22004412 -0.0028183614 -0.05058067
-0.34860224 0.009989503 -0.28209147 -0.16206889 -0.266307 -0.29091915 0.46303073 0.017042091
-0.35707515 -0.06502207 -0.06545739 -0.18083963 -0.23477729 -0.11850714 -0.12914816 -0.05947569
-0.5680937 -0.274226 -0.45201302 0.023057023 -0.12793043 -0.2783802 -0.041630678 -0.15917614
-0.17633185 0.051252183 -0.29705945 -0.061901487 -0.152622 -0.33143282 0.2689716 -0.3082237
-0.11092885 -0.2255082 -0.1789123 -0.105377205 -0.32599074 -0.23830782 -0.115646616 -0.23273535
-0.43532124 -0.06327973 -0.022266597 -0.077045925 -0.03795989 -0.14235023 -0.28259897 -0.1801317
-0.09189157 -0.044510998 -0.104718395 -0.010665579 -0.15897942 -0.32915267 0.19420332 0.027349
-0.19242287 -0.1930635 -0.32400072 -0.105585165 -0.22287741 -0.2203262 -0.09360992 -0.076635234
-0.09004877 -0.2563708 0.2963399 -0.19186404 -0.22100993 -0.18021521 -0.1638677 0.024108414
-0.14129467 -0.1389042 -0.21014726 -0.03775016 -0.43929195 -0.1621367 -0.46139395 -0.0857903
-0.16350737 -0.0035099261 -0.25562 -0.1258879 -0.14155671 0.04669491 0.04487973 -0.09949267
-0.07807406 -0.3336892 -0.11181354 0.018241085 -0.28563246 -0.14189218 -0.07584938 0.015783247
-0.038667794 -0.09574346 -0.14033215 -0.440032 -0.119758055 -0.043300297 -0.24520782 -0.10193937
-0.079903215 -0.27579576 -0.16883132 -0.05002042 -0.17383999 -0.019513411 -0.1715258 -0.05252618

Encoder.enc2.weight f4 [40, 256]
00000000: 3d31 c83c 7a4f 913c 79a6 89bc c166 3d3c
00000010: e142 993c 2a90 5a3c 6473 623c 70e8 033c
00000020: 4c85 b33c 11d0 1abc 02b0 fc3b bb48 4fbd
00000030: 7a16 03bd 9d4a 96bc 0f2c 2b3b 42ef c1bc
00000040: c8f2 313b 679d 39bc 4733 8f3b 04eb 9bbb
00000050: 4b9b 153a 81f3 cf3c 245c 44bd 568b 01bd
00000060: d597 723c b8ec 063c 68ab 2d3d 52d8 d8bb
00000070: 3c00 27ba ade1 453b f5c3 ffbc df9d 903d
00000080: 5fd5 dfbc e3fb edbc 56c5 2c3c deab e93b
00000090: 3ec0 f5bb 3d44 f33b e913 d4ba fe91 da3c
000000a0: 05b3 a33b 86b8 4ebc 4b73 cdbc ff57 20bc
000000b0: ef3e 063c d2a7 9c3c 8c28 c13c c732 8dbd
000000c0: 207c 6ebb b455 533b d9b9 0f3b d7dd 26bd
000000d0: 0b38 2c3c b4d5 1b3d fec2 5e3a ccab b3bb
000000e0: a8a4 06bb 39fb 06bd ef00 98bc 9cb1 b239
000000f0: 0ca0 cf3a 159e 4dbd fc43 413c 18c9 dfbc
00000100: c46e 0a3d c955 4ebc db66 113d 8660 993a
00000110: 5a13 4f3d df2a c43c 7311 4d3d 2253 6abc
00000120: 41ca b3bc 1931 25bd c898 423d e472 e53c
00000130: b785 053d a0c3 4fbd b5db edbc 326e 23bc
00000140: d6f5 9ebd 5783 53bb 16f8 c2bb d949 a4bb
00000150: 433b 443b 6b18 14bc 639f 91ba ab47 0fbd
00000160: 63b5 2d3c 49e7 bfbc 1fc3 0aba 78ce c3bc
00000170: 25f5 d43c a2c3 2a3b 258d d3bc e9e3 cf3b
00000180: 9080 2e3d 28d1 4db9 1124 0bbc 2724 da3b
00000190: 137e be37 8425 94bc 798f da3c d1f3 8bbc
000001a0: 67ca 2abd 63e2 c23c 1032 9c3c aa5e 633b
000001b0: abff bbbc de6a 3cbc 1b33 7eba c5b5 9c3b
000001c0: 287e 4bbc dd41 5d3c cbe0 21bc e118 233c
000001d0: b397 3bbb c05f 5a3b f092 16bb 97b9 ccbc
000001e0: 8650 71bc 9907 93bb 0b05 a63c f6b2 943c
000001f0: c8ee 1d3d 0d74 a4bb 0718 903c 9bc3 e73c
00000200: bbdb 3e3c c99f 07bc f7b0 d6bc 3d31 b2bc
00000210: edb9 14bb c99f f03b 1c0c 04bd 28d7 383d
00000220: ecb4 8f3a 5dac c93b 62e5 983c 3ec6 a4bc
00000230: 5be8 1dbc cbb3 c83c cc6a f03c 37dd 20bd
00000240: c176 2d39 8065 4abc 82a6 003c 190f a23b
00000250: 3734 523c bd9a 2b3c 6ce0 11bc fb19 0b3b
00000260: b118 cd3b e46b bd3b 453c 2a3c 219b d43b
00000270: 6625 b13c b486 2cbc a034 14bd bdab 0d3c
00000280: e0f2 c63b 4ab6 fd3c e0d2 23bc d2f3 4d3d
00000290: 96ee 373d 2079 06bd 13e0 083b fd0c bf3c
000002a0: ed00 f6bc 91b0 aabc 6e00 6d3c 918b d5bc
000002b0: 4af0 c6bb b27b 03bd b9e1 983b 3107 103d
000002c0: 28c0 39bd 566f 7e3c 6b08 30bd e310 5b3c
000002d0: 6109 74bb ff63 2abb 7bf6 aa3a b591 adbb
000002e0: 697e 0e3c db32 29bd a570 1dbd a041 83b9
000002f0: 365a 8f3c 6b1f e13a abd9 fc3c f0f5 0fbd
00000300: 22f6 ffbc c543 b0bc 7174 8c3c e281 f6bb
00000310: 4509 d4bc 46a1 24bd a291 f1b8 d564 d23c
00000320: aad2 373b 04ef c03c 3858 d9bc aacb e73c
00000330: 756e b43c a309 0d3d d104 80bc 0c76 353c
00000340: 0c35 59bd c872 c53c 931f 413b 7500 07bd
00000350: a7b9 07bd 7185 bc3d d543 f23c 3f7b d13c
00000360: 2c2b a0bc 0ba1 0ebd 6b71 fabc 0018 243c
00000370: 6f4e 3338 dd45 cd3a ed0d a4bc 684a 36bb
00000380: 0924 c2bb a853 413d 2759 0a3d a0d3 8ebc
00000390: 73c6 133d a4be 173d 73e2 633d b514 21bd
000003a0: fb8c 63bc b1c8 dc3c 7d6c bebb 321d 453c
000003b0: c6a7 95ba cd33 eb3b 4c0d 78bb 77ca 063d
000003c0: 2837 b039 7bec a03b 1309 96bc a949 173b
000003d0: 4242 e23c 153d 333c 841e 33bc f77c 083c
000003e0: c68a 00bd 708f d9bc 4207 8b3b fc98 0bbb
000003f0: fe72 04bb 4a7f 1a3c 7cc2 663c f88a 01bd
0.024437541 0.017738093 -0.016803013 0.011560143 0.018708648 0.013340035 0.013821457 0.008051023
0.021914147 -0.009449021 0.0077114115 -0.05060647 -0.032003857 -0.018346125 0.002611879 -0.023673657
0.0027152766 -0.011329032 0.0043701264 -0.0047582407 0.00057070394 0.025384666 -0.047939435 -0.03162702
0.014806707 0.008235149 0.042399794 -0.0066175843 -0.00063705794 0.0030194328 -0.03122137 0.070613615
-0.027323423 -0.029050773 0.010545095 0.007131084 -0.0074997237 0.007423906 -0.001618025 0.026680943
0.004995706 -0.012617236 -0.02507939 -0.009786605 0.0081937155 0.019122992 0.023578905 -0.06894451
-0.0036389902 0.0032247128 0.0021930842 -0.040738907 0.010511409 0.0380456 0.0008497684 -0.0054831263
-0.002054492 -0.03295443 -0.018555133 0.00034083135 0.0015840544 -0.050199587 0.011795994 -0.027317569
0.03379704 -0.012593695 0.03549848 0.001170174 0.050555564 0.023946224 0.05006547 -0.014302047
-0.021947028 -0.040330026 0.047508985 0.028008886 0.032598224 -0.050723672 -0.029035429 -0.009975003
-0.07761733 -0.003227433 -0.0059499843 -0.005013686 0.002994255 -0.009039025 -0.0011110123 -0.034980457
0.010602328 -0.023425715 -0.00052933575 -0.023902163 0.0259958 0.0026056548 -0.025824139 0.0063443077
0.042603076 -0.0001962824 -0.008492486 0.0066571417 2.2708473e-05 -0.018084295 0.026679741 -0.017084034
-0.041696932 0.02378959 0.01906684 0.0034693875 -0.02294906 -0.0115000885 -0.00096969464 0.004782411
-0.012420215 0.013504473 -0.009880255 0.009954662 -0.0028624355 0.0033321232 -0.0022975765 -0.02499084
-0.014728671 -0.0044869897 0.020266077 0.018151741 0.038557798 -0.005018717 0.017589582 0.028291514
0.0116490675 -0.008277842 -0.02620743 -0.021751994 -0.0022693828 0.0073432666 -0.03223811 0.045127064
0.0010963953 0.0061545805 0.018664066 -0.02011406 -0.009637917 0.024499794 0.0293478 -0.039273467
0.00016542805 -0.012353301 0.007852199 0.0049456474 0.012829832 0.010473904 -0.008903604 0.0021225202
0.006259047 0.005780684 0.010390346 0.0064882194 0.021624278 -0.010530163 -0.036183 0.008646903
0.0060714334 0.030970711 -0.009999007 0.050281353 0.044905268 -0.032830358 0.0020885512 0.023321623
-0.030029738 -0.020836147 0.0144654345 -0.026067527 -0.006071125 -0.032100387 0.00466558 0.03516311
-0.04534927 0.015529474 -0.042976778 0.013370725 -0.0037237036 -0.0025999544 0.0013043428 -0.0052969106
0.008697131 -0.041308265 -0.038437504 -0.00025035162 0.01749907 0.0017175501 0.03086551 -0.035146654
-0.031245295 -0.02151669 0.017145367 -0.0075228075 -0.025883326 -0.040192865 -0.00011518902 0.025682846
0.002804915 0.023551472 -0.026531324 0.028295357 0.022025326 0.03443302 -0.015627297 0.011075508
-0.053029105 0.024102584 0.0029468283 -0.03295942 -0.033136036 0.092051394 0.02957336 0.025571464
-0.019551836 -0.03482155 -0.03057166 0.010015488 4.2749973e-05 0.001566108 -0.020026172 -0.0027815346
-0.005924706 0.04719892 0.03377643 -0.017434895 0.036077928 0.037047043 0.05563588 -0.03932639
-0.013888593 0.026951166 -0.0058112727 0.0120308865 -0.0011417798 0.007177806 -0.0037849722 0.03290793
0.0003361043 0.004911003 -0.018314874 0.0023084676 0.027619485 0.010939856 -0.010932568 0.008330575
-0.031382345 -0.026557654 0.0042428086 -0.0021300903 -0.0020210142 0.009429762 0.014084455 -0.03162667

Encoder.enc2.bias f4 [40]
00000000: a348 67bb 1004 02b9 2728 82bb 70a7 033b
00000010: 2785 7dbb f03b c7bb b67c fdbc 0fc8 e0bb
00000020: 52c0 9bba 1466 7bb8 feb4 9d3c ab50 463a
00000030: 3e2a 60bc c901 843a bef1 9e3c cc4b e1ba
00000040: 6a43 a13d 0db6 463d 3ac4 03ba 7a7b 6ab9
00000050: b086 10bc 9244 cabb feeb f5be bf04 04bc
00000060: c9ea 10bc 3d49 5abc a9eb 14bf c36f 25bc
00000070: 00e7 6bbb 4717 ccbb 6105 09bf 7113 11bc
00000080: 138c 9cbe 5888 13bc c198 9cbe a93d 14bc
00000090: c5ed 06bf fb47 f0be 3f76 38bc 399c 74bc
-0.0035291098 -0.0001239928 -0.0039720717 0.0020088814 -0.0038684101 -0.006080143 -0.030943256 -0.0068597863
-0.0011882877 -5.993813e-05 0.019251343 0.0007565121 -0.013681946 0.0010071333 0.019402381 -0.0017188727
0.07874186 0.04851346 -0.00050264935 -0.00022361978 -0.0088211745 -0.006172725 -0.4803161 -0.008057772
-0.00884504 -0.013323125 -0.5817209 -0.010097447 -0.003599584 -0.006228361 -0.5352383 -0.008854733
-0.30575618 -0.009004675 -0.30585292 -0.009047904 -0.5270656 -0.46929917 -0.011258661 -0.0149298245

Decoder.dec1.weight f4 [256, 20]
00000000: 9f05 9b3a 37c2 26bc ec66 bd3d be72 7bb8
00000010: 6317 c2ba 088a 843b 26a1 d8bb 98c8 843b
00000020: 9efd 4836 c705 3b3a a30a 033c 657e 25ba
00000030: 1710 923b 3a25 7dbb 66bd 2039 5f62 c13b
00000040: 34b7 3738 a698 be3b 76a6 e2ba 0838 833b
00000050: 7de1 21bb 5384 ca3b a989 87bb afc4 043b
00000060: cba6 273a 97de 44b9 8222 c0bd 39d7 35bb
00000070: 6f97 bdba f2f3 883b 83ff aa3b 3325 95bb
00000080: 4e79 80bb f0ce ca3b a43a 2bba 7941 bd3a
00000090: d3a1 113c 9f5d 423b 0c9b 433b 7f73 caba
000000a0: 5829 983a 70ac 9339 1eb3 c53a c8d3 cdba
000000b0: a4d9 df3a 6382 77bb 202a 73bb b0a5 073c
000000c0: ad9d 3c3b 36a1 bbbb 42b4 3fbb 28a5 0fb9
000000d0: d959 0139 1cbc fb3b f468 223b 0934 feba
000000e0: f7a7 07be a1ec b4bd c3fb cabb b60b 483b
000000f0: d780 ea3b e51f 7f3b c1b0 0dbc 9f8b 20bb
00000100: df0b 393b a86f c8ba 94ff 06bd 5674 453b
00000110: ddd5 003b 9bb3 883c bde4 8e3c b7da 22bb
00000120: 03dc a33c 391c 59ba 95ea 8d3e 8d87 033a
00000130: bdaa 513d 5fc3 6c3d 7a45 4c3b bc7f 903c
00000140: e923 763b 70af c63a 5bc7 26bb 5df6 403b
00000150: 765c 673b f6ae 32bb f80f adbd 16ed 9ebb
00000160: 6401 bb39 cfd5 5dbb 5eee 013c 49b5 9bb8
00000170: edd3 623b 5a58 b8ba 6c3c 8a3b d8dd 3bbb
00000180: 5a74 703c bbc1 8b3b b24f 6e3a 3404 1cbb
00000190: 3e42 fd38 32fc 5bbb e148 9abb 0b52 f3b9
000001a0: 5780 f0ba fb61 abbb e9c9 9fbb 26fe bbb9
000001b0: b96d 913a 19f5 ca39 c229 ed3d 067a 8dba
000001c0: fb9b 3b3b 0075 d0bb e366 b8ba e0fe 43bb
000001d0: c26c 013c 73b8 b23b 676d beba 6776 7cbb
000001e0: 9d42 f8b9 5529 8f3b c11e f139 9316 7abb
000001f0: 4487 163b c7c7 f339 07c9 04bc 85d1 cc39
00000200: 6dd2 b13b 7c0d 5a3b e8b4 af3b d742 203b
00000210: 753f 12bb e79c 7bbb 8342 943a f844 6d3b
00000220: e5a9 083e b1cc a83d 6e16 f3b8 796f 0bbb
00000230: ec63 08ba 2270 d1bb f4d1 ebba b34f 92bb
00000240: 738a cdbb 6d00 343b 97bc c83a 2b4c ccbb
00000250: 6c5c 0d3b 4b89 443a b027 d63a ea7a 3dbc
00000260: 7d3a f839 857d 25bc 28f6 25bc 6ac6 9c3b
00000270: f3e2 783b 8947 05bb 4f18 c03b 99ff bc3a
00000280: 682a 3cba 1052 dcba 1c6e d33a aabd a23b
00000290: 446d 153b 7b4b 133a 3240 aebb 2527 483b
000002a0: 9539 4dba 7feb 5d3a 86f6 e73d 9388 62bb
000002b0: 096f 8aba fbc6 9f3b c692 f43a 148d c33b
000002c0: 2648 4a3c 62a3 b93b 2d3f 063b 0813 2a3b
000002d0: b0b1 14ba 7132 02ba dbd5 c93a c5b4 f13a
000002e0: 450d d9ba 7694 8bba 3037 bbbb 8ddc c3ba
000002f0: 3e1f 08ba 4b00 0eba c834 1b3c bfa4 d53b
00000300: c89a 3b3b 5bd0 88bb 120d 86ba 5070 6d3b
00000310: b5d1 da3d 2cc7 853d d99d afbb 2be6 39bb
00000320: b390 323b 291c f1bb 693e a4bb 6705 283b
00000330: 4652 93ba 3312 393c de2c 51bc c559 943a
00000340: be68 de3b e107 b83b cf6d 373c ee7e 37bc
00000350: 77f5 5f3e 2d45 9cbb de6e 06bc a16e 0e3c
00000360: 6125 b23d be66 883d 28c8 8b3c ab50 8d3c
00000370: 6bc3 dc3b 22df 373a 60fc 903b d696 fdba
00000380: 2fd3 423c c29d 0c3c c0ab b93b 69c2 bb3a
00000390: 7757 8dbb 0752 e2ba 06d9 943a 1ac8 0abc
000003a0: 6b65 c03b 46d8 d53b ebe0 d53a e2b8 efba
000003b0: 6cd1 12be 5460 c6bd 195e c7bb 4d20 18bb
000003c0: f8ed 14ba b9d5 0ab7 5d84 d3bb 16d8 ca3a
000003d0: 755b 403b 8750 3ebc e6ee 80bc 6e10 4bba
000003e0: 90ce a03a 1da4 5cbc ffe7 df3b 5f13 8abb
000003f0: 5218 9a3e fc01 0c3b 8db2 e43b 828b e1b9
0.0011827237 -0.01017814 0.092481464 -5.9949925e-05 -0.0014807995 0.004044775 -0.0066110073 0.004052233
2.9949947e-06 0.0007134345 0.007998141 -0.0006313085 0.0044574845 -0.0038626925 0.00015329345 0.0059016193
4.380122e-05 0.005816537 -0.0017292041 0.004004482 -0.0024701052 0.006180325 -0.0041362834 0.0020258834
0.00063953985 -0.00018774938 -0.09381582 -0.002774669 -0.0014464686 0.004179471 0.0052184477 -0.0045515536
-0.0039207106 0.0061892197 -0.00065318705 0.0014439068 0.00888868 0.0029657853 0.0029847054 -0.0015445797
0.0011609001 0.000281665 0.0015083288 -0.0015703375 0.0017078412 -0.0037766926 -0.0037103966 0.008279249
0.0028780506 -0.005726005 -0.002925173 -0.00013699068 0.0001233587 0.0076823365 0.0024781795 -0.001939417
-0.13247667 -0.08834196 -0.006194563 0.0030524558 0.007156472 0.0038928923 -0.008648098 -0.0024497283
0.0028235835 -0.0015292065 -0.032958582 0.0030129156 0.0019658722 0.016687205 0.017443055 -0.0024849602
0.02000237 -0.00082820986 0.27718034 0.0005017452 0.05118822 0.057803508 0.003116934 0.017639033
0.0037558025 0.0015158486 -0.0025448415 0.002944372 0.0035302914 -0.002726493 -0.084503114 -0.00485004
0.00035668456 -0.0033849364 0.007930366 -7.424743e-05 0.003461118 -0.0014064417 0.0042186286 -0.0028666165
0.014676178 0.004265038 0.0009090855 -0.0023806216 0.00012076319 -0.0033567068 -0.004708395 -0.000464097
-0.0018348795 -0.005230186 -0.0048763645 -0.00035856775 0.0011095322 0.00038711054 0.1158023 -0.0010793812
0.0028626907 -0.0063616037 -0.0014068749 -0.0029906556 0.007899465 0.005454117 -0.0014528454 -0.0038522722
-0.00047351877 0.004368941 0.00045990015 -0.0038160428 0.0022968808 0.00046497417 -0.008104569 0.00039066016
0.005426696 0.0033272197 0.005362142 0.0024453902 -0.0022315655 -0.0038393082 0.0011311326 0.0036204439
0.1334606 0.08242167 -0.00011591321 -0.002127616 -0.0005202878 -0.006391541 -0.0017991648 -0.0044650673
-0.006272608 0.0027466074 0.0015314993 -0.006234666 0.002156998 0.0007497265 0.0016338732 -0.0115649495
0.00047345823 -0.010100727 -0.010129489 0.004784395 0.003797707 -0.0020336828 0.005862273 0.0014419436
-0.000717795 -0.0016809124 0.0016130838 0.0049664574 0.0022800723 0.00056188524 -0.0053177113 0.003054091
-0.000782871 0.00084655726 0.113263175 -0.0034566268 -0.0010561656 0.0048760152 0.0018659465 0.0059677456
0.012346303 0.0056652287 0.0020484433 0.0025951285 -0.00056722295 -0.0004966623 0.0015398817 0.0018440714
-0.0016559741 -0.0010649103 -0.005713366 -0.0014943049 -0.0005192644 -0.0005416914 0.009473033 0.0065198834
0.0028626192 -0.0041752285 -0.0010227284 0.0036230274 0.1068453 0.0653213 -0.005359393 -0.002836595
0.0027246892 -0.0073580933 -0.0050123227 0.0025637986 -0.0011239729 0.011295843 -0.012767045 0.0011318257
0.0067873886 0.0056161736 0.011195614 -0.011199696 0.21870981 -0.0047689886 -0.008205144 0.008693368
0.08698536 0.066602215 0.017063215 0.01725038 0.006737163 0.00070141454 0.0044246167 -0.0019347321
0.01189117 0.008582534 0.005666226 0.0014324907 -0.004313405 -0.0017266878 0.0011356182 -0.0084705595
0.005871465 0.006526026 0.0016317641 -0.0018289352 -0.143377 -0.09686342 -0.0060842154 -0.0023212612
-0.0005681212 -8.275202e-06 -0.006454988 0.0015475776 0.0029351388 -0.011615879 -0.015738916 -0.00077462837
0.0012268592 -0.013466862 0.006833076 -0.004213735 0.3009668 0.0021363487 0.0069792927 -0.00043019286

Decoder.dec1.bias f4 [256]
00000000: b2d1 75bc 26f0 b53c f79c 84bd 997c 08bf
00000010: c1d9 823c 8cc8 b23c eb10 6ebd 4715 ffbd
00000020: 366b 863c 8a3e 59bd 6e27 aebe de7e 64bd
00000030: 2aaf 9fbe 2445 8dbe 191b 39bd 220b b53c
00000040: b38c 5a3b 4a4a 9dbd 7b63 5abd 79f5 bdbb
00000050: 4007 2bbc e065 c4bd 9e7d e33c eac3 71bd
00000060: 3b46 68bd b5d5 1cbf 051d 5cbd adc4 6dbc
00000070: f7da 2c3b a0e2 1fbf bc14 ca3b 135d e63c
00000080: 5f56 48bf 49e1 1ebc 810e be3c fe41 58bb
00000090: 1135 f0bb 3e70 b13c 53ca e9be b91a fb3c
000000a0: 4c5b 8b3b 0e0c b23c e44e 15be 1026 f3bb
000000b0: bf6c 67bd e71a 953b 0264 be3c 5ac8 983c
000000c0: f02c bf3c 81d3 c6be fe0b cabe 1627 56bf
000000d0: 0931 58bc 8d1f 54bd a848 013d 7345 c4bd
000000e0: 7568 ef3b c156 ba3c f386 d0be 0f37 f13b
000000f0: 90da 8fbb 9c6f aaba d591 cc3c 4404 973c
00000100: 31e3 01bf 9ab8 e8be 2012 9bbb d205 35bc
00000110: 4d11 87bf c319 0abe 5128 923b 4cb3 60bd
00000120: f517 dabe 4c8a 94bb f228 c9be 6911 8cbe
00000130: 9095 72bd f4d6 aebe d813 1fbf 4a19 f8bb
00000140: d917 55bd 1f59 09bf a7bf 44bb 2283 eb3c
00000150: 7a09 69bd 280a 6bbb aa5b 71bd 6d31 c53c
00000160: 5aec ae3c 1bb8 10bf 867b 66bd d880 d2be
00000170: 6202 69be f835 e1bd 5ef6 efba 7495 b43c
00000180: 18fc f2be 7bbf ab3c d090 5ebd d7a4 62bd
00000190: 08f5 913b 2cdb cfbd fae8 27bb 89a1 3b3c
000001a0: 91a0 3139 fc58 1dbf d014 c7bd 0de3 b0be
000001b0: 5079 d1be cc15 28be cf9a 02bf 5d30 f7bd
000001c0: d628 d73b ac58 953c 3fd9 d83b 1949 2bbd
000001d0: 1e9f d3be 51dc 7abf 0a61 01bf ad66 61bb
000001e0: 3f8e 75bb 4d2b a73c e0ff 85bf b479 b2ba
000001f0: 32f8 e33c 4089 01bf 456e bb3c 25ab 1cbd
00000200: 81cb 5ebb ed14 8c3c f3e5 e8be aead a3bb
00000210: a875 58bd 1159 b53b 3a8f 5bbd a700 babb
00000220: a4e3 da3b dc2d f4bd a3a1 2cbe aa9f b83c
00000230: 7bf1 11bf 67cb b6b9 5958 eb3b 8f59 593b
00000240: b0bd 883c 3905 b8bc bc34 6ebd 3d8a a7bc
00000250: b0a8 793c fc86 64bd bd8f 9b3c 9de1 63bd
00000260: 9ace 683b 8af6 b03c b8ec 07be 4404 a03c
00000270: 13d7 48bc acbf 0abc 69a3 f6ba 1261 27be
00000280: 5551 a9be 8768 fbbe 3f55 2bb8 5b25 923c
00000290: 001f d6bb 4685 c53c 4a75 5ebd 96fb 9abb
000002a0: 5687 8abe bc77 d53c 4f45 cdbe 7d8c 08bf
000002b0: 159b b83c 86a4 0abf 2045 15be f9b7 dbbd
000002c0: cad8 fabd 1872 f1be 09c7 0abf 8be8 a3bb
000002d0: cc6e 77b9 358e 8bbc d696 15bf 5e08 863c
000002e0: c591 ab3c 1040 e1be 6bce ab3a 4e3e 00bf
000002f0: 71ce a63c e987 ddbc c6cc 86bc d123 a73c
00000300: 110f 123c 6bfc 04bf 3c0e ff3c ca5a f9be
00000310: 6c7a b73c d8da 8bbb c7fd 16be 82a3 1abc
00000320: 2892 5ebd b672 af3c 8eee 35bc 2897 f73c
00000330: 7d33 24bc 66b4 27bf 6d43 a5be 80a1 2cbf
00000340: 51e1 06be aed1 29bd ba1e d0be 08ef 1fbd
00000350: 0c74 debe 10d4 7f3c ce84 bc3c cf3d deba
00000360: 7a85 94be e7c9 bbbd f0ce 1bbc b7b9 b23c
00000370: 433d 92b9 2c85 9bbe 8d4b 07bf 0522 bd3c
00000380: f138 1bbe 73a1 61bd 5f38 923b d5a9 13bd
00000390: e032 1e3c c0a9 be3c c48d aeba a5f7 58bd
000003a0: 6007 f6be d547 a33c b526 003c 1977 89bc
000003b0: 9a10 16bb d5ff b43c 4374 dfbb 9bee 9cbe
000003c0: 6e47 da3c 0c25 a23c 3bee ab3c 8b84 8f3b
000003d0: 4b8a e8bb 5388 6bbd 7555 78ba ba02 63bc
000003e0: c980 9d3c e68c 26bc c86e 6fbd f66d 49bd
000003f0: 707f 583c af1c d03c 2c5f 56bd 3529 ad3c
-0.015003609 0.022209238 -0.06475251 -0.5331512 0.015972974 0.021824144 -0.058121603 -0.1245523
0.016408544 -0.053038158 -0.34014457 -0.055785052 -0.31188327 -0.27591813 -0.045191858 0.022100035
0.0033348023 -0.07680185 -0.05331753 -0.005797085 -0.01043874 -0.095897436 0.02776986 -0.05902473
-0.056707602 -0.6126359 -0.053738613 -0.014512223 0.002637563 -0.6245518 0.0061670225 0.028120553
-0.7825679 -0.009697267 0.023200275 -0.0032998319 -0.0073305448 0.021659967 -0.45662174 0.03065239
0.004252827 0.021734264 -0.14580876 -0.007420309 -0.056500193 0.004550326 0.023241047 0.018650223
0.023336858 -0.3883324 -0.39462274 -0.8365339 -0.013195285 -0.0517879 0.03156343 -0.09583559
0.0073061534 0.022746446 -0.40727958 0.0073613 -0.0043900684 -0.0013003233 0.024971882 0.018434651
-0.5073729 -0.4545334 -0.0047323853 -0.011048751 -1.0552155 -0.1348639 0.0044603725 -0.05485849
-0.42596403 -0.004533088 -0.3928905 -0.27357033 -0.059224665 -0.3414837 -0.62139654 -0.007571374
-0.052024696 -0.53651613 -0.003002146 0.028749052 -0.056893803 -0.0035864208 -0.05892531 0.02407142
0.021352936 -0.5653092 -0.056270145 -0.41113925 -0.22754815 -0.10996622 -0.0018307676 0.022043921
-0.47457957 0.020965328 -0.054337323 -0.055332985 0.004454259 -0.101492256 -0.0025621043 0.011452087
0.00016939851 -0.61463904 -0.097207665 -0.34548226 -0.40912867 -0.16414565 -0.5101747 -0.120697714
0.0065661473 0.018230759 0.0066176946 -0.04181776 -0.41332334 -0.97992426 -0.50538695 -0.0034393475
-0.0037468818 0.02040639 -1.0468712 -0.0013616593 0.02782831 -0.5060005 0.022879729 -0.038249154
-0.003399581 0.017099822 -0.45487937 -0.0049950695 -0.05284658 0.005534299 -0.05360339 -0.0056763473
0.006679969 -0.119228095 -0.16858535 0.022537071 -0.57009095 -0.00034865292 0.0071821627 0.0033164953
0.016692013 -0.022463428 -0.05815576 -0.02045166 0.015237972 -0.055792794 0.018989438 -0.055635083
0.0035523535 0.021601934 -0.13273895 0.019533284 -0.012258309 -0.00846855 -0.001881701 -0.16345623
-0.33069864 -0.49103186 -4.084897e-05 0.017840078 -0.006534457 0.024111401 -0.054311074 -0.0047296984
-0.27056378 0.02605807 -0.4009194 -0.5333937 0.022534886 -0.5415729 -0.1457715 -0.107284494
-0.122483805 -0.4715736 -0.54209954 -0.0050020865 -0.0002359703 -0.017035583 -0.5843328 0.016361412
0.020943532 -0.43994188 0.0013107782 -0.5009507 0.02036211 -0.027042346 -0.016455065 0.02040282
0.008914725 -0.5194766 0.031134717 -0.4870208 0.022397242 -0.0042680316 -0.14745246 -0.009438397
-0.054338604 0.021417003 -0.011104239 0.030223444 -0.010022041 -0.6550964 -0.32278004 -0.6743393
-0.13171889 -0.04145973 -0.40648443 -0.039046317 -0.43447912 0.0156145245 0.023012545 -0.0016955676
-0.29008085 -0.09169369 -0.009509787 0.021817071 -0.00027892934 -0.3037504 -0.52849656 0.02308751
-0.1515844 -0.05508561 0.0044622864 -0.036050636 0.009655684 0.023274302 -0.0013317396 -0.052970547
-0.48052502 0.019931713 0.0078217285 -0.016780423 -0.002289808 0.022094646 -0.0068192794 -0.30650792
0.026645388 0.019793056 0.02098762 0.004379814 -0.007096564 -0.057503056 -0.00094731833 -0.0138556305
0.019226449 -0.010165429 -0.05845526 -0.049177133 0.013213977 0.025404302 -0.052336857 0.021137813

Decoder.dec2.weight f4 [31, 256]
00000000: a3b8 a0be 3462 b93d 460b 21bf 1a0a ab3d
00000010: 2129 6a3d a85d 933d 0fb9 7a3e d672 bebf
00000020: 6a9f c03d bcee 9c3e f9a5 963d b85a 43bf
00000030: ca84 0f3d 3d0c 5dbe 6fcd 093f d4c9 af3d
00000040: 9a74 1fbf c73b 6fbe 7373 0cbf b279 953f
00000050: faf2 963f 2a18 4f40 29a8 b33d 71e5 833e
00000060: b2ec 7f3e 9cad 883c 302d 673e 85f7 f53e
00000070: a912 41bf 112a 13bd ed4a 33bf 352e 133e
00000080: ca2d d0be 7688 253f f005 bf3d a4a8 623f
00000090: 5533 d03e f4b9 913b f599 7cbe 97da 683d
000000a0: 1563 57bf 8352 5a3d 79d5 e8bd 0083 e43e
000000b0: b4be 9e3e f09a 21bf 14d8 d83d 28bc e13d
000000c0: ec26 4f3d 0e78 4fbb 03c8 c23c 6911 93be
000000d0: 2883 ce3e 39dd 703e 4294 033e af40 223f
000000e0: 92e0 30bf f1b1 7b3d 93f5 febb 5e40 11bf
000000f0: a7cf e33e 8865 983c 79bd 093d 47c8 de3d
00000100: 7a34 c43c c6c3 0dbc 6e82 403f dd22 803f
00000110: 7cbc a5bf f9dd aa3e c150 34bf 99d5 7f3e
00000120: 8f77 883d cb3d eb3e bc9d 9139 0e83 2cbf
00000130: 9b77 8d3e 7009 763a ec3c d63d d9a2 5a3e
00000140: 9b7f 553e 8dc5 1fbd bc61 26bf 5812 433d
00000150: 13b3 e5be f7d9 1e3f 2de1 ffbe d000 1a3e
00000160: ed11 f93d d8de 883c 5de2 623e 2679 09bc
00000170: f7d1 34bf 039e 86bf 8a2a 09bf 0f56 e23d
00000180: 1811 6b3d 8043 9b3d e9cd 37be 9389 12bf
00000190: 2e6d 89bf a732 75bf c594 2d3f d4df 9d3d
000001a0: 3665 2bbf 6423 1fbe 790a a4bd 823d 953c
000001b0: 7fe9 87be 9158 0e3f a1ea 773d 0ce2 36bf
000001c0: 3c4b d6be 16cf 183d 8a3e 7ebf 7bee 383e
000001d0: 08d1 873d 0faf 59be db85 5dbe 2705 0ebf
000001e0: 7ba6 08c0 5f5b 0a3e 9569 94bf 5d40 3abf
000001f0: 0172 d13d d075 223d f465 753d bb86 17be
00000200: 3e2b 0dbf 0279 b83d 44db acbd 3702 be3e
00000210: e38d 733e 7335 c4bf 03d2 843e a526 c83d
00000220: 47a9 39bf b5f9 85be 6bbd 3fbd 6c73 683d
00000230: 3875 13bf 4df8 e1be bf9d e1be 5608 d1bf
00000240: bb23 c33d 5bbd 1a3b 949e 24bf 86cd eb3f
00000250: a173 fb3d 87b0 ac3e eb76 b03d 77c9 32bf
00000260: e054 38bf 0ded 553e 247f 66bf b849 bb3d
00000270: 8baa 1d3f 8375 9f3e 0410 523e db4c 6dbf
00000280: 61e3 5a3d c89e 3c3d 0d5f a6be 93cd 373d
00000290: 6706 6c3f dd2b 5c3d 8674 1bbf 6f61 bd3e
000002a0: c8c9 ecbe edf1 893d 6568 c03d 6818 d3bd
000002b0: 822d 1fbc d390 d03c 7661 85bd 8aff 073f
000002c0: 9ab8 0d3f 96e4 a43d d6ca 123c 6d3b 763f
000002d0: 9a46 20bf e2dd 09be a91d fd3a 0290 f53d
000002e0: a4b4 bf3d b300 6ebd b74f d8be 2455 3a3d
000002f0: 0424 23bd a14b e43e 598c 8cbf 33f5 b63d
00000300: 3596 c73c cb3e 823d 2460 a63d d5b7 9c3d
00000310: d8e4 6e3d 4a62 30bf 4fc0 adbe 0615 103f
00000320: 5f3c 6e3e 9b1c 143d 638c 373e 42bd 8b3d
00000330: 5a57 093f 48dc 96be 2c7f 5f3d accd 3cbe
00000340: b50d 0d3f de0f e7bd 0294 9b3d 5912 50bf
00000350: bb40 f1bd 2014 bd3d cfd3 c73d 31d4 19bf
00000360: 3c08 05be 1dc4 f9be b25a 8e3f e17c b23d
00000370: 8f2c fdbe bf27 8e3d d64a a63d fd7f 763d
00000380: f733 5abf 58e2 8e3e 967c 36bf 23a1 43bf
00000390: 89ad d53c f049 8b3d 3abc fdbe 74e0 d3be
000003a0: 84a4 9e3d 31a2 1b3d e9a5 93bf b38f 313d
000003b0: 80c6 b2bf 635d fa3d 24c8 d63e 2f5c f03c
000003c0: 63c2 433d 90a2 8a3d 8288 f03d 3bc9 843e
000003d0: 8d30 e83e 73c0 00bf 56e1 70be 72e0 aa3e
000003e0: 5dd8 00bc b480 1fbf f4b3 653e 6bf7 1d3e
000003f0: 86c9 c53d 1fd7 a33c 3282 a43e 318d 0c3e
-0.31390867 0.09051934 -0.62907827 0.08351536 0.05716813 0.07195598 0.24484657 -1.4878795
0.09405406 0.3065089 0.073558755 -0.763103 0.035038747 -0.215867 0.5382909 0.085834175
-0.62287295 -0.23362647 -0.5486366 1.1677763 1.17929 3.2358499 0.087723084 0.25760987
0.24992636 0.016684346 0.22575831 0.48040405 -0.754191 -0.03592879 -0.700362 0.14373095
-0.40659934 0.6466135 0.09327304 0.88538575 0.40664163 0.004447216 -0.24668105 0.05684909
-0.8413556 0.053301346 -0.11368842 0.44631195 0.3100487 -0.6312704 0.10588089 0.11022216
0.05057423 -0.0031657252 0.023777014 -0.2872422 0.4033444 0.2352189 0.12849525 0.6337995
-0.6909267 0.061448995 -0.0077807396 -0.5673884 0.44494364 0.018603101 0.03362796 0.108780436
0.023950804 -0.008652633 0.7519902 1.001064 -1.2948146 0.33372477 -0.7043572 0.24983825
0.06663429 0.45945582 0.00027774076 -0.67387474 0.27630314 0.00093855616 0.10460839 0.21351184
0.20849459 -0.03900676 -0.6499288 0.047624916 -0.44863185 0.6205134 -0.49976483 0.15039372
0.12161622 0.016707823 0.22156663 -0.0083907 -0.7063288 -1.0516971 -0.53580534 0.110515706
0.05738935 0.07581234 -0.17949642 -0.5724117 -1.0736444 -0.95780414 0.6780513 0.077087075
-0.6695131 -0.15540844 -0.0800981 0.018217806 -0.2654533 0.5560389 0.060526494 -0.7143867
-0.41854274 0.037306868 -0.9931418 0.18059723 0.066316664 -0.21258186 -0.21633093 -0.5547661
-2.1351612 0.13511418 -1.1594721 -0.7275446 0.10226823 0.039663136 0.059911683 -0.1479749
-0.5514411 0.090074554 -0.08440259 0.37111065 0.23784594 -1.5328811 0.25941476 0.09772996
-0.7252392 -0.26167074 -0.046811502 0.0567507 -0.57600737 -0.4413475 -0.44065663 -1.6330669
0.095282994 0.00236114 -0.6430447 1.8422096 0.12277914 0.3372843 0.08616432 -0.6983866
-0.7200451 0.20891209 -0.9003775 0.0914492 0.6158835 0.31144342 0.20513922 -0.926954
0.0534395 0.046049863 -0.32494393 0.044873785 0.9219727 0.05375277 -0.60724676 0.36988398
-0.46247697 0.06735597 0.09394912 -0.103073895 -0.00971544 0.025459683 -0.0651273 0.53124297
0.55359805 0.08051412 0.008959493 0.96184427 -0.6260773 -0.13463548 0.0019311208 0.11990358
0.09360626 -0.058106136 -0.42248318 0.045491353 -0.03982927 0.4458895 -1.0980331 0.08933487
0.024363616 0.06359633 0.08123806 0.07652251 0.05832371 -0.6889998 -0.33935782 0.5628208
0.23265217 0.036160093 0.17924647 0.068232074 0.5364891 -0.29464936 0.05456464 -0.18437833
0.5509904 -0.11282323 0.075965896 -0.81277996 -0.117799245 0.09232354 0.09757196 -0.60089403
-0.12991422 -0.48782435 1.1121428 0.08715225 -0.49448058 0.06941175 0.081197426 0.060180653
-0.8523554 0.27907062 -0.71283853 -0.7641775 0.026083725 0.06801212 -0.49557668 -0.41382182
0.077462226 0.037996475 -1.1535007 0.043349933 -1.3966827 0.12224843 0.4194957 0.029340832
0.047792803 0.067692876 0.11744787 0.25934777 0.4534954 -0.50293654 -0.23523459 0.33374363
-0.007864085 -0.6230576 0.22431928 0.15426414 0.09657578 0.020000039 0.3213058 0.13725735

Decoder.dec2.bias f4 [31]
00000000: 7895 37bf 6a14 61bd cdae 3540 cb54 8abd
00000010: f196 4f41 3225 29bf 350a 84c0 84e0 3fc0
00000020: 8f86 0240 e11c 1f3f 42c6 f43f 1657 22c0
00000030: bdbd 7040 067e 69c0 4f8e c4bd d96b 78c0
00000040: a857 b0bd 37b5 8ac0 fcec c7bd 9a7c 88c0
00000050: 51b8 7bc0 0011 733e 8269 9b3c ad07 6a41
00000060: f8ed 473e d674 86c0 08fe 423e 4e12 81c0
00000070: db3c 0bbf f8cc 81bf 4840 8abf
-0.71712446 -0.05495111 2.838794 -0.06754454 12.974351 -0.6607238 -4.126246 -2.9980783
2.0394628 0.6215344 1.9123003 -2.5365653 3.7615807 -3.6483169 -0.09597456 -3.8815825
-0.08610469 -4.334621 -0.09761998 -4.26521 -3.9331248 0.23736954 0.018971208 14.626874
0.19524372 -4.201762 0.19042218 -4.0334845 -0.54389733 -1.0140676 -1.0800867
