results/3_niid/model_drs_n_0_m_0.pt (torch, 121528 bytes, 8 tensors)

Encoder.enc1.weight f4 [256, 22]
00000000: 2c39 ddbd 4bbd b03d db51 adbd c9aa 803c
00000010: f809 093e 4cb1 6f3d bd25 a23b 9c51 b63d
00000020: 750c ee3d f9b1 793d 77ed 503b 9546 673e
00000030: ace5 0d3b ff61 ec3d a402 5dbd b198 c23d
00000040: 666f 373d 1c0c 8cbd c8f6 97bd b784 ed3d
00000050: c6e2 2bbd aadc 88bd 1d15 3cbc 11a3 81bb
00000060: ec4c b2bb 659d 523c b9a9 0abc c037 09bb
00000070: 2fae 8dbc b168 a63b fe0f a03a b556 0a3b
00000080: 67d4 08bc fb71 313c 6c37 b5bc 8f9c 493b
00000090: bd50 193b 0b22 9f3b 8c2f 47bc 57e1 87bb
000000a0: e71b 213b 218e bf3e dc1e 863c 0262 40bc
000000b0: 4389 c83a 615c 623b 69cc f43b ee5c 78bc
000000c0: de4f 44bc e6ad 9dbc d0ec 053b ad83 3d3b
000000d0: 526b 88bb 65b8 1bbb 623f 773b 4533 efbc
000000e0: 2295 e2bb 40b4 b5bb 903c e439 173b dc3b
000000f0: a3c8 1fbc 818c 153a 040e ea3b 8b47 9c3e
00000100: 1e1d a43b e8e8 f33b cc2e dcbd d867 3bbe
00000110: dcc6 6ebd 701a 3d3d 7b56 ffbd ffe3 8fbd
00000120: 076b be3d 843a 12be 9235 e9bd 38e6 15be
00000130: b9e1 e7bc 4b22 88ba 12da 8fbd 2dce 2d3d
00000140: db6d 35bc 13e5 87bd d068 b0bd 516f 76bd
00000150: dd71 5ebc 3f41 58bb 0327 8a3b ad03 13be
00000160: 6cce 07be 02a0 13bd 01cc 96be e29f 323d
00000170: 724f 62bd 7d1a 3d3c cd88 63bd ca8e ef3a
00000180: a043 1dbe 399c 3f3d 4437 1dbe 2283 acbe
00000190: 3386 50bd 1169 623d c183 ba3d bdee 153b
000001a0: 069a af3c 9843 87bd 3c22 023e 5464 f63c
000001b0: db94 cb3c ccde 43be 935c 66bc 2729 9bbc
000001c0: 422e 0fbe 5515 a73c 5357 59bc 4832 343c
000001d0: 4738 f73b d872 0abd 3edb 92bc 2ab6 19bd
000001e0: c466 46bc f30e efbd 3473 e6bc 2ed9 873e
000001f0: 15b5 06bb 5414 f3bb 8e59 8dbc f85b 88bc
00000200: 3ba3 0e3c 10e3 aa3b 7501 023c b5e9 d0bb
00000210: 1206 e3bd 3c55 6ebd ce1d 1abe 849a 0b3c
00000220: 12ee b3bc 806c 9a3c 7bb0 14be 9aab 07be
00000230: aeec 6ebe 631c e9bd 3943 d53c f59c c8bd
00000240: 625f 393d c94f 673b 4882 ea3c 6829 d7bc
00000250: b8dd 493d 083d 12be 522d aa3d bcbc 2dbd
00000260: 7441 33bd 7a3f 0bbe eac3 73bc 78e1 a9bc
00000270: 90c7 cb3c 4687 313d 2315 ccbc 7b0a ae3d
00000280: 2d01 5cbd 945e 32bd defb a1bd 78f4 7bbd
00000290: 8ce8 30bb f7da b1be fd5a 66bc 5e4b ca3c
000002a0: 9743 aebe 27a5 8ebd a371 f3bb 8b5e e5ba
000002b0: b7c9 093d aa9d 70bc 0f16 103d 4397 393c
000002c0: 9b28 b3bd 9357 8f3d 487a b5bc ac06 08bc
000002d0: e28f babd d5dc 1dbd 4771 8fbd 4665 35be
000002e0: 226a 06bd bc73 24be 30b6 1a3d 0c78 26be
000002f0: 9bd5 e83c e57a b6bd 8f9c d43c 2185 873d
00000300: a70c 10be 8881 04be 9f1e 433d 79f8 623d
00000310: 41b7 d03c 3f47 babd f4e8 33bc fe2e 4abb
00000320: de64 a4bc 1eaf f0bd 3dd9 f53c c290 2e3a
00000330: 43f8 2c3d 7229 babd 108a 603b b448 08bc
00000340: acc7 443c 938e f3bd 5c34 d1ba 5d4e 933d
00000350: c64d 36be b5ca bfbd 814d c43c a6bd a83b
00000360: e867 2f3c 6c48 183d 1824 c33d ffd7 413d
00000370: cb5b e3bc 958d 193c e0d9 53be a508 273c
00000380: b7f9 763b 0644 0d3d 3480 3f3c 132d 35bd
00000390: 07dd 4b3c 054f 013c 9949 14bd 132c dcbd
000003a0: e9e2 31bd fbef b8bc ffef 713c b5b8 383e
000003b0: d02b 5a3d d20a 5dbb 33b6 36bc ec6f 99bc
000003c0: bcb0 4a3d 5d65 89b9 4852 43bb 081f 353c
000003d0: adac babd c035 c8be 3224 a8bb c3f9 11bc
000003e0: 7725 713b 41d8 98bb eb52 f7bd 0b82 29bc
000003f0: 2cf9 883b ac2d ac3d 6186 093b 1032 64bc
-0.1080192 0.08629855 -0.08462878 0.015706437 0.13382709 0.058518693 0.0049483464 0.089022845
0.1162347 0.060960744 0.0031879821 0.22585519 0.0021651788 0.11542129 -0.053957596 0.0950178
0.044783972 -0.06838247 -0.07420117 0.11597579 -0.041964315 -0.06682713 -0.011479643 -0.0039562066
-0.0054412987 0.012854909 -0.008463317 -0.002093777 -0.017294971 0.005078398 0.0012211797 0.002110881
-0.008351422 0.010830398 -0.022121154 0.0030763482 0.002339407 0.004856353 -0.012157332 -0.0041467356
0.0024583281 0.37413123 0.016372137 -0.011742117 0.0015299696 0.0034539925 0.0074706567 -0.015158875
-0.011981932 -0.01924796 0.002043534 0.0028917596 -0.004163184 -0.002376103 0.0037726988 -0.029199252
-0.0069147507 -0.005545169 0.0004353267 0.0067209112 -0.009752425 0.00057048356 0.007142784 0.30523333
0.005008354 0.007443536 -0.10751113 -0.18301332 -0.058295116 0.04616779 -0.12467667 -0.07025909
0.092977576 -0.14280134 -0.11387171 -0.14638603 -0.028305875 -0.0010386197 -0.070240155 0.042432953
-0.011073555 -0.06635489 -0.086137414 -0.060164753 -0.013576952 -0.0032997874 0.0042160763 -0.14356871
-0.13262337 -0.036041267 -0.29452518 0.043609507 -0.055251546 0.01154196 -0.055550385 0.0018276807
-0.15357828 0.046779845 -0.15353113 -0.33693796 -0.050909232 0.05527598 0.09107161 0.0022877895
0.021435749 -0.06604689 0.12708372 0.030077137 0.024851253 -0.19127959 -0.014060157 -0.018940521
-0.1398249 0.020395914 -0.013265449 0.010998316 0.0075445506 -0.03380093 -0.017926808 -0.03752724
-0.012109462 -0.11672773 -0.028131105 0.26532882 -0.002055471 -0.007418195 -0.017254617 -0.016645417
0.008705909 0.0052150562 0.007934918 -0.0063755163 -0.11085142 -0.058186755 -0.15050432 0.008520726
-0.021964107 0.018850565 -0.14520447 -0.13249055 -0.23332474 -0.113823675 0.02603303 -0.09795562
0.04525698 0.0035295358 0.028626576 -0.026264861 0.049283713 -0.14281094 0.083094254 -0.04241632
-0.043763593 -0.13598433 -0.0148782525 -0.020737395 0.024875432 0.043341897 -0.024912423 0.08498093
-0.05371206 -0.043547228 -0.07909368 -0.06151244 -0.0026994077 -0.3473737 -0.014059779 0.024694141
-0.34035942 -0.06965094 -0.007429318 -0.001749949 0.033639636 -0.014686028 0.035177287 0.0113275675
-0.08747979 0.06999125 -0.022153035 -0.008302372 -0.09109475 -0.03854068 -0.07004028 -0.17714414
-0.03281606 -0.16059774 0.037771404 -0.16256732 0.028422168 -0.08910159 0.02595356 0.06617189
-0.14067326 -0.12940037 0.047636624 0.055412743 0.025478007 -0.0909562 -0.010980833 -0.0030850763
-0.020067628 -0.11752151 0.030010814 0.0006659144 0.04222895 -0.09089936 0.003426198 -0.008318115
0.012010496 -0.11892428 -0.0015961039 0.07192681 -0.17803106 -0.09364835 0.023962738 0.005149561
0.0107059255 0.037178442 0.09528369 0.04732513 -0.027753731 0.009372135 -0.20688581 0.010194932
0.0037685463 0.0344887 0.011688281 -0.04423244 0.012442834 0.007892375 -0.036203 -0.10750594
-0.04342929 -0.02257537 0.014766692 0.1803921 0.05326444 -0.0033728373 -0.011151838 -0.018730126
0.049484953 -0.00026206198 -0.0029803682 0.011054762 -0.091149665 -0.39103508 -0.005131268 -0.0089096455
0.0036796012 -0.0046644513 -0.12076362 -0.010345946 0.004180094 0.08407149 0.0020984637 -0.013927951

Encoder.enc1.bias f4 [256]
00000000: 8530 1f3e d98d b5be bcac 45be 6ddc 14bd
00000010: d5fa dfbd 9322 ecbd db78 55be e178 343d
00000020: eeff 713b 80b0 13be 041a 91be acd8 8e3d
00000030: 6024 153b 881b b13d 764f 8ebc affc 81be
00000040: 369f 713c 56d7 4c3e 969a 68be c85f ccbe
00000050: d7a3 54be 38ee fc3d 7580 c23c 2c16 54bd
00000060: 3e08 b1be 4b31 e2bc 9c9b 2bbe 40ef 69be
00000070: 3077 29be bfd4 62be 0054 973c 9937 2ebc
00000080: c605 63bc e0ca 13bc e6e5 2bbc 5156 763e
00000090: f2ca 1fbe 95f4 20be e997 22be 5abf 793c
000000a0: c805 b5be e044 12be 3272 b63d 0350 a3bd
000000b0: 437f 4abd d21e 84be 411b 7dbe 7c14 68be
000000c0: 49ae 063e 16fc 41be 4246 79be 007b 5f3d
000000d0: 32eb 17be 94a5 0abe 45c8 9abd 001c 99be
000000e0: f5e2 b33d cf93 17be 1cd2 65be 9f1e 13be
000000f0: 6c64 4dbe 37bd b93c a166 81be 208c fb3d
00000100: 4851 fdbd 0d89 d93d d6d1 2d3e e80d 203e
00000110: 14d0 1cbd c252 14be 2167 683e 6bf1 c3bd
00000120: e43a 9bbd 8081 a33c 5d7a a63b a531 72be
00000130: 8a23 ac3d f5d5 9dbd df7b 363e 27d9 26be
00000140: d315 5d3a c200 79be 9fa2 b4be 5a48 2dbe
00000150: 1c65 50be 514b 92be 4964 69be 93ee 3fbe
00000160: 7514 513e a8e1 12be 3c7b 453e 1893 01be
00000170: fc87 263e 5a1b 54bb e884 88bc 9d46 bdbd
00000180: 8a99 fdba 4519 163e 00ab 19be c445 28be
00000190: 8e3f a93b 5763 94be a569 003e aff9 1d3e
000001a0: 80d4 c4bd 17be 093e 53bb 67be 3365 37bc
000001b0: 74fc 8b3d c450 323e ec61 19be 612f 51bd
000001c0: 7519 7cbe a9d4 58bd b49b 5dbe 978a 0e3e
000001d0: 2cba afbc 677a c33c 03e4 bdbe c887 2abe
000001e0: d794 99be a460 abbd 2f03 50bb ce7a bd3d
000001f0: 613f a0be 0b39 84bd b748 adbe b4e2 bfbd
00000200: 2925 44be f02d 83be bce7 2b3e 11df 90be
00000210: 189f 9ebe 1859 92be bcd5 243e a1e6 2c3e
00000220: 36f7 ee3d 921b 483e 2ce4 53be bc4b c8bd
00000230: 3f41 52be 1bb1 23bd 57b6 72bd 7973 7ebd
00000240: 8ac6 dabd ed98 73be 2ca6 abbe f8c1 59bd
00000250: 170e bdbe 603f 27be 4830 f4bc bc39 8a3d
00000260: bebe b8be f020 83be 72c8 6dbe 19b5 8cbe
00000270: 75b3 963d 9072 523e 97ce 5abe ec50 67bd
00000280: 8f48 cd3d 8eae 633e 36f8 a9bd b403 5c3e
00000290: 3b39 253d a60f c4be d5d9 03be 4b5e 29be
000002a0: 80bc 6abe 5b2d 3cbe 4888 34be 87af c3bd
000002b0: 2353 623e ceda 8b3e d5be a3bd e3fc a9be
000002c0: a23d 88bd e3da c1bc f887 87be fc9e 1bbe
000002d0: 9f3c d2bd b656 763d 1eb5 39be 934f 29be
000002e0: e922 1cbe ce34 743e e3e4 33be 42ef 1ebe
000002f0: 9080 7abe f9c7 26be 6b85 bdbd e90d 493e
00000300: 2f03 ff3d 5d08 04be 1a36 893d e205 5fbe
00000310: 81c6 acbd 8ba2 6ebe f4f2 34be 9140 65be
00000320: fb36 febd 2044 aebe 1975 7fbe 9af5 00be
00000330: 3995 b2bd b113 233d f7f5 7a3d 9960 523e
00000340: f6e4 c1bd af6d f9bd c174 9fbe dd76 12be
00000350: 89bb bdbd d4d7 77be 2ac9 ccbe ab51 a83d
00000360: 6841 1ebd a49f 09be db8c 76be 6be4 743d
00000370: 786a 963e d7dc 983d a4f0 ed3b dc89 123e
00000380: 5a80 8abe a1c4 82be 51cc 66be b860 053d
00000390: 1649 323e 13f0 11bd 213e 003c 31fc abbe
000003a0: 4585 60be 2cc5 15be a616 c4be 95b0 8c3d
000003b0: 7391 1cbe 8755 52be 3702 32be 196b ea3d
000003c0: 0de9 f2bc 5056 08be c49f 4a3d 3458 2e3e
000003d0: 6b20 1d3e 4120 46be 51fc dbbe 3a3f e4bd
000003e0: 5d80 483e 6f1d 1bbd 2fca 1e3d 948b ca3d
000003f0: 4724 653b f23d 063e a5a2 1dba 1cab e3be
0.15545852 -0.35459784 -0.19304174 -0.036343027 -0.10936514 -0.11530032 -0.20846884 0.04406059
0.0036926228 -0.14422798 -0.2834016 0.06974921 0.0022757277 0.08647829 -0.017371874 -0.25388095
0.0147474315 0.20004019 -0.2271522 -0.39916825 -0.20765625 0.12350124 0.023742894 -0.051778957
-0.345766 -0.027611395 -0.16758579 -0.22845173 -0.16549373 -0.22151469 0.018472672 -0.010633373
-0.013856357 -0.009020537 -0.010491824 0.24056365 -0.15604761 -0.157183 -0.15878262 0.015243376
-0.35355973 -0.14284086 0.089085 -0.079742454 -0.049437772 -0.25804764 -0.24717428 -0.22664064
0.13152422 -0.1894382 -0.24343207 0.05456066 -0.14835814 -0.13539726 -0.0755773 -0.29904175
0.08783523 -0.14802478 -0.22443432 -0.1436715 -0.20057839 0.022673232 -0.25273612 0.12282586
-0.12369019 0.106218435 0.16974577 0.15630305 -0.038284376 -0.14484695 0.2269559 -0.09567531
-0.07579592 0.019959211 0.005080505 -0.2365175 0.08405216 -0.07706825 0.1782069 -0.16293775
0.0008433733 -0.24316695 -0.3528032 -0.16922131 -0.2035107 -0.28573087 -0.22792162 -0.18743353
0.2041796 -0.14343894 0.19285291 -0.12653768 0.16262811 -0.0032364936 -0.016664937 -0.09241984
-0.0019348126 0.14658077 -0.15006638 -0.16432863 0.005165047 -0.2898204 0.125403 0.15427278
-0.09610844 0.1345142 -0.22630052 -0.011193561 0.06835261 0.17413622 -0.1497876 -0.051070575
-0.24619086 -0.052937184 -0.21641427 0.13920055 -0.021451078 0.023862077 -0.37088022 -0.16653359
-0.29996368 -0.08368042 -0.0031740179 0.09251939 -0.31298354 -0.064561926 -0.3384454 -0.09369412
-0.191548 -0.25620985 0.16787618 -0.28295186 -0.30980754 -0.28583598 0.16097158 0.16884853
0.116682455 0.19541767 -0.2069251 -0.0978007 -0.20532702 -0.039963823 -0.059255924 -0.062121842
-0.106823996 -0.23788805 -0.33525217 -0.0531635 -0.36924812 -0.1633277 -0.029808179 0.06749293
-0.36083025 -0.25611067 -0.23220995 -0.27481917 0.073584475 0.20551515 -0.2136787 -0.056473657
0.10023605 0.22234556 -0.082992956 0.21485788 0.040337782 -0.3829319 -0.12876065 -0.16539876
-0.2292347 -0.18376677 -0.17630112 -0.095549636 0.22102027 0.27315372 -0.07995383 -0.3320075
-0.066523805 -0.023663944 -0.26470923 -0.15197366 -0.10265469 0.060141288 -0.18135497 -0.16534261
-0.15247692 0.23848268 -0.17567782 -0.15520957 -0.24463105 -0.16287221 -0.09253963 0.19634213
0.12451779 -0.12893815 0.06699772 -0.21779588 -0.08436299 -0.23304193 -0.17670804 -0.22387911
-0.124128304 -0.3403635 -0.24947013 -0.1259369 -0.08719868 0.0398137 0.061269727 0.20544662
-0.09467499 -0.121791236 -0.31143764 -0.14303155 -0.09264285 -0.24203426 -0.39997226 0.08218702
-0.038636595 -0.13439804 -0.2407717 0.05978815 0.29378104 0.07463997 0.0072613526 0.14310402
-0.2705105 -0.2554064 -0.22538878 0.03256294 0.17410693 -0.035629343 0.007827313 -0.33590844
-0.21925838 -0.14625996 -0.3829853 0.06869618 -0.1528986 -0.20540439 -0.17383657 0.114462085
-0.029652143 -0.13314176 0.04946877 0.17025834 0.15344398 -0.19348241 -0.4296594 -0.11144872
0.19580217 -0.037869867 0.038767036 0.09889904 0.003496425 0.13109568 -0.00060133106 -0.44466484

Encoder.enc2.weight f4 [40, 256]
00000000: 157f 663c f2f2 fcbb 56d9 b5b9 eb07 383c
00000010: ddf4 cd3c 3bff 63bb 6b58 003c fd67 20bc
00000020: 16d3 8bbd 8719 433b f78a 793b bafd 8eba
00000030: 8efd 19ba ff14 50bc 3a62 8fbb 54b5 c73c
00000040: 9d7b 1fba 56b6 debc 366d 15bc f372 93ba
00000050: 4fb9 0539 8ffb a0bc 6c2c 84bb 53a9 943c
00000060: f228 07bc 9ff8 313b 4b4a c03c 828e ec3c
00000070: 0218 b7ba d782 3f3b dfe4 17bc c452 08bc
00000080: 76f7 ba3b bf4e 413b f9db 723b d794 e7bc
00000090: 7f53 d23a 5eaa 7bbb 7afd 863a dd7b 69ba
000000a0: ff93 47bb 0594 3cbd 3ff5 213c 7678 7abc
000000b0: 4bf8 dcbc af7e c03a 2a31 73ba 94c7 3abd
000000c0: 5765 fcbb cfba c03b af7f b839 37e7 603a
000000d0: 0ff4 0cba 3a7a 063c b591 853b 5936 35bb
000000e0: 6277 78bc e804 a2ba 686b b93b 5969 9ebc
000000f0: c832 b3bb 348f 9cbc 64a8 46bb 336a a6ba
00000100: 854c 933b bde6 c53b 1658 09bd 75c6 93bc
00000110: f39b 03bb a3ce 1fbc 4d4c 88bb 1f9b 0fbb
00000120: 9413 a03a 9c09 933c af2f f13b 2ad4 5e39
00000130: b222 9cbc aae9 dfbb fcd7 58bc 8811 6cbc
00000140: 98ec 223c 3dc2 823a 6b9c 58bc eb2a 02bc
00000150: a949 483b b6cc f73b 120b 133c e797 893b
00000160: 9a31 033c 506f 833c 11af 9abb e970 0abc
00000170: 9b6f 39ba 4f68 f8ba 54e6 3f3c 1d8a df39
00000180: 5e20 6039 ecb7 c6ba ff03 9e3b dd5c 7a3c
00000190: 411f 9eba b120 6cbb 1c80 b3bc 2c71 e93a
000001a0: 691d 59bc 47d1 3c3b 6672 03bd 64da c33a
000001b0: 7263 293c fc33 0a3c e80c bb3b 07d5 a0b9
000001c0: 5c3d 703a c54f 993b 5552 47ba dbcb c1ba
000001d0: 75cc f8ba 521d bf3a 61ce d4bc 95c5 c539
000001e0: f571 5bbd d097 c3bb 677a 893c 19c0 b13b
000001f0: 3f48 9d3b fcbd 9abb 12d9 2dbb 3810 fdbb
00000200: 8acc b73a 478b 0b3b 0870 2cbc 8576 9dba
00000210: 5799 da3b 83d3 ad3c 307c 21bb 2167 d2bb
00000220: 6c55 aa3c 9ad9 563b b0f9 4ebc 967c 0f3c
00000230: 0499 bbba 701d 78ba 6976 4eb9 3e53 243c
00000240: f2a3 11bc 32e6 cb3c df42 be3a 9cb7 303a
00000250: e9f5 4bbc 464c 56bb 2ee7 6a3a 6cc7 adbc
00000260: b938 e5ba cfd8 6dbb 9b5a f5bb 6dec 423c
00000270: 2552 573c 0bbf 4b3b 4d87 34bc a1f0 43bc
00000280: 276a ba3c 84be a0bb 54fb eeba edf1 31ba
00000290: 42f4 48bb d8c3 0c3b d434 ef3b dac9 18bd
000002a0: 49fa 0a3d 490b 843a 0eee 99bb feb2 003c
000002b0: b4b2 253c 303d 973c 6e35 9fbc a5ff 613b
000002c0: 0f6d 99bc 33be d8ba 9a38 41bb a4f3 c93a
000002d0: e768 943c c9ea 3f3b 575b 7dbb 1b83 6abc
000002e0: 400c a03c 2d6c 5cbb 375c 133c 17b4 e4bb
000002f0: 92c5 d53c 50a3 0abc b839 c63c 430d 4bbc
00000300: caef 1a3a c3ed 523c 0ac8 983a 197d 9dbc
00000310: 4526 a53b 1a51 3f3a 0a56 953c 911f 8fba
00000320: 4f66 d43c a4ec 6c3a a321 04bd d716 9d3a
00000330: 97d2 013b a8d0 333b 2d92 b73b f6bc d9b8
00000340: 5298 0dbb 8455 c23a 139f ac3b e5da 853a
00000350: de54 0dbb 0a61 f73a f42a 313a 3f58 5ebc
00000360: 8c93 7eb9 6484 bb3b f683 b6bc 8978 49bc
00000370: a649 9e39 fda1 0fbc 6e37 03bc 45d8 923c
00000380: fff0 d13a c925 403d d890 763a 1db2 8e3b
00000390: 6870 cf3b d7dc 81bb 90c3 103c 02f2 debb
000003a0: 94e2 6e3b 5016 40bb f24f 293d de65 92bb
000003b0: 4137 fcbc b6a1 c7b9 a98d 8fbc e365 853b
000003c0: 54b4 7b3b 00e9 ca3b 4eb8 363d 8d33 b3bb
000003d0: 25a7 22bc c918 b73b bd18 5dbb 4d73 b0bc
000003e0: b2b3 813c aaae 35bb bed6 c03b 1a60 a0bb
000003f0: b5f8 f439 0521 06bc 0e7f 503c b545 3e3c
0.014068385 -0.007719391 -0.00034684938 0.011232357 0.025141174 -0.003478958 0.0078335805 -0.009790418
-0.06827371 0.0029769854 0.0038077214 -0.0010909357 -0.00058742694 -0.012700318 -0.004375723 0.024378456
-0.00060837885 -0.027186554 -0.009120276 -0.0011249467 0.00012752901 -0.019651202 -0.004033616 0.018147146
-0.008249508 0.0027156246 0.023472926 0.028876547 -0.0013968947 0.0029222274 -0.009270876 -0.008320514
0.005705769 0.00294964 0.0037057383 -0.028269215 0.0016046612 -0.0038401107 0.001029893 -0.00089067017
-0.0030453203 -0.0460396 0.009885131 -0.015287509 -0.026973864 0.0014686192 -0.00092770404 -0.04560049
-0.0077025103 0.0058816443 0.00035190347 0.00085793756 -0.0005376944 0.008207852 0.0040762075 -0.0027650802
-0.015165182 -0.0012361081 0.005658556 -0.019337343 -0.0054687 -0.019111253 -0.003031277 -0.0012696445
0.004495206 0.006039469 -0.03353127 -0.018038968 -0.0020081967 -0.009753856 -0.0041594864 -0.0021912528
0.0012212866 0.017948918 0.0073604207 0.00021250607 -0.019059513 -0.006833275 -0.013235088 -0.014408477
0.009944104 0.00099761 -0.013220887 -0.007944803 0.0030561483 0.0075622452 0.008974807 0.0041990164
0.008007431 0.016044289 -0.0047205766 -0.008449771 -0.00070738205 -0.0018951985 0.011712629 0.00042636777
0.00021374362 -0.0015161014 0.0048222537 0.015280929 -0.0012063758 -0.0036030228 -0.021911673 0.0017810217
-0.013251641 0.0028811262 -0.03209152 0.0014942405 0.010338651 0.008435246 0.0057083257 -0.00030676296
0.00091644167 0.0046786987 -0.0007603516 -0.0014785485 -0.0018981831 0.0014580882 -0.025977315 0.00037721978
-0.053575475 -0.005969025 0.016781999 0.005424511 0.004799872 -0.004722355 -0.002652709 -0.0077228807
0.0014022749 0.0021292733 -0.010524757 -0.0012013471 0.0066711116 0.02121902 -0.0024640672 -0.0064209853
0.020792685 0.003278351 -0.012632772 0.008757731 -0.001431257 -0.0009464836 -0.00019689802 0.010029612
-0.008889185 0.02489004 0.0014515779 0.0006741227 -0.012448766 -0.003269927 0.000896084 -0.021213256
-0.0017488218 -0.0036292558 -0.0074876077 0.011897189 0.013142143 0.0031089212 -0.011018586 -0.011959226
0.022755696 -0.0049055237 -0.0018232861 -0.0006788064 -0.0030663167 0.0021479037 0.007299999 -0.037301876
0.033930097 0.0010074164 -0.004697568 0.007855175 0.010113407 0.018461794 -0.019434657 0.0034484651
-0.018728761 -0.0016536176 -0.00294832 0.0015407694 0.018116428 0.002928423 -0.003865918 -0.014313485
0.019537091 -0.0033633814 0.008994154 -0.006979476 0.026095185 -0.008461788 0.024197444 -0.012393299
0.0005910365 0.01287407 0.0011656296 -0.01922469 0.0050399625 0.0007298157 0.018229503 -0.0010919442
0.02592769 0.0009037948 -0.03225864 0.0011984956 0.001980936 0.0027437601 0.0056021423 -0.00010382563
-0.0021605683 0.0014826511 0.0052679866 0.001021233 -0.0021565477 0.0018873524 0.00067584147 -0.013570844
-0.00024278293 0.0057225693 -0.02227972 -0.012296804 0.0003019098 -0.008766648 -0.008008821 0.017925391
0.0016017257 0.046911035 0.00094057387 0.004354729 0.0063305385 -0.0039630937 0.008835688 -0.006803752
0.003645097 -0.0029310174 0.041336007 -0.00446771 -0.030788066 -0.00038076722 -0.017523604 0.0040709837
0.0038407044 0.0061923265 0.04460936 -0.005468792 -0.009927546 0.0055876714 -0.003373667 -0.021539355
0.015832756 -0.0027722516 0.0058849743 -0.0048942687 0.00046724608 -0.008186583 0.012725605 0.011613299

Encoder.enc2.bias f4 [40]
00000000: b22f 393c 1e0e 22bb d9bd ccbc 88fa 1b3c
00000010: 2e0c dabc d898 d53c 798c 243d 5e08 03bd
00000020: d08a 0b3d 01cb 0d3c 82da 903d c152 99bb
00000030: d41f 4abb adad 9ebc 1459 82bc cf4f 343b
00000040: 257a 043c b730 9a3c 4f2d 993c efb0 c73c
00000050: 103d ac3c 46db b6bc 5cfe 29bc 9cc1 1cbe
00000060: 4874 43be 9170 0dbe a586 edb9 59a7 5ebe
00000070: b966 5e3c 9334 5bbc 42cc 36be 7f28 6bbb
00000080: db29 61be eb68 33bc 2516 493c 92b5 cfbb
00000090: 2931 3abc 1d77 92bc 9dbe 24bc 1514 28be
0.011302875 -0.0024727653 -0.02499287 0.0095201805 -0.026617136 0.026073858 0.040173028 -0.0319904
0.03406793 0.008654357 0.07072927 -0.0046790545 -0.0030841725 -0.019369924 -0.015911616 0.002751339
0.008085762 0.018822057 0.018698363 0.02437636 0.02102521 -0.022321355 -0.010375585 -0.15308231
-0.19087327 -0.13812472 -0.0004530448 -0.21743526 0.013574296 -0.013379234 -0.17851356 -0.0035882292
-0.21988623 -0.010950307 0.012273346 -0.0063387835 -0.01136426 -0.017879063 -0.010055211 -0.1641391

Decoder.dec1.weight f4 [256, 20]
00000000: 2a28 933b 7def 7dba a4df 9639 3c36 97be
00000010: 5126 553c c691 c8bb d82d 9fbb 407c 01bd
00000020: 90ef 62bb 8d4d d0bb 00ad bdbb 2dfd d63a
00000030: 4ab1 173b 3e7a 93bb e9a7 883b 56b2 d73b
00000040: c921 31ba c87d 32bb b5df 07bc 9020 f8bb
00000050: e899 933a 1047 213b b299 26bb c3b2 b4ba
00000060: 7b6a 9d3b 4046 c93d 0541 fab9 9153 18be
00000070: 0d9b 83ba 6408 61bb cbd7 7e3b 30af 3139
00000080: d763 f9bc d783 2bba a434 053a 0a91 8c3b
00000090: 1a33 37bb 5920 233b 53fc 6cba f102 8fbb
000000a0: f66f 6a3b edaf 87bb b77e bbba f1b2 22bc
000000b0: 5716 043d 7883 533c 9654 cebb e9c1 acbd
000000c0: 4d6b 2dbb 834f e3bb 24e3 91bc 61d4 c33b
000000d0: 7793 dc3d 3dd7 363b a273 70bb b1fe 4d3b
000000e0: 7bce 053b 93fa 75bb 8933 223b 30e2 203e
000000f0: d23a d5bb b209 393c 7545 943a fb74 a8be
00000100: 2b11 83bc 891f 2dbc 6c84 87bb 01f8 35bd
00000110: cc0b f63b d5bb f13b aa49 893c e899 b73a
00000120: a2e3 5f3c 1032 813b a669 2d3b aff1 64ba
00000130: 9cf6 e5bb 806c fc38 d289 69b8 6bae be3b
00000140: 4957 00bb 58c5 02bc 834d d63a aeb0 a3bc
00000150: c8a2 67be 82c7 123d 8ab6 593a afa1 3eba
00000160: 7806 92bb 61a0 e5bb 5d00 2abc 3554 bfbb
00000170: 0700 90bb aaf2 d3bb d07a 2f3b 26f0 8e3a
00000180: c617 053b 9222 2abb 0164 a43b 37b1 aebd
00000190: c5d0 40bb 3796 2838 b2fa 2f3a efaa 3a3c
000001a0: 9afe 483e b9fb 9dbc 9fcb 0d3a 25f0 e0bc
000001b0: eb79 efb9 1ad2 3aba 3cd6 00bc c27e 8bba
000001c0: cd3d 903b 0f0f 693a 258a fb3b 2516 10bb
000001d0: 4778 0aba e9fb 81b9 865b 32bb cd4b fabc
000001e0: 00b7 813b c4c9 0dbb 55df 3bbb 4085 cc3b
000001f0: 15db 1cbd 2795 4fbe 5bf9 0d3c fd24 9fbd
00000200: 451c 1abc 8103 b7ba 4b53 1dbc d765 9dbb
00000210: 2737 10bd e4cb 8abb c910 1f3b c251 22bb
00000220: 527e 83bb e90a 483b 58c5 9cbb d50b 8fbc
00000230: ee17 1e3b 5383 a13b 3b94 093c fd31 aabb
00000240: c615 423d 28fd 64be f32e 703a ea85 77be
00000250: 0fc9 633c 1d86 953b 268c e83b f46a 2dbc
00000260: b558 c9bc bbdc 013b ea10 3a3a 9411 e23b
00000270: 20d5 f139 f6f1 af3b e1f2 c2bb 3a6a 25bd
00000280: 2245 84bb 7fe1 ebb9 067b 29bb d01a 29bc
00000290: 6bed 0bbd 6fa3 0abd eee6 30ba f189 93be
000002a0: dc76 d8ba 4a00 a8bb 65c9 2dbc 403a 22bb
000002b0: d671 88bd 62c0 ce39 b531 b2ba 5ebe 03bb
000002c0: ac1b fbba 2960 e83b 2997 16bb 7571 fbbc
000002d0: a409 0f3c a7a4 d7bb 809d 463b 8ba8 f73b
000002e0: 6e2a 023c b8d7 8b3b db97 12bc 93bd 84ba
000002f0: 8544 713b 41a6 c5bb 1119 963e 54d8 f2ba
00000300: e493 51bc 58f0 063c 7d64 a93b 5e61 f93b
00000310: 615f 523c 8c42 bc3b 075f b23b a78e 5bbb
00000320: 871e a9bb 1dec 6eba 073c c43b 868b 9d3a
00000330: 7e53 d53c fc8d b43a b834 c93a 46f6 a83c
00000340: 452d a33b d90d 903a 0908 30bb 8415 d1b9
00000350: 82e1 09be c218 733b a2dd 0ebb b68a 82bb
00000360: f13d c2ba e12d 5bbb 457d 6a3b 3560 da3c
00000370: 733a 80ba a67d afba 678b 063c 7dea 97bb
00000380: 1f5c 363c 5f39 e4bc 87aa 083b 6595 143d
00000390: 1bd0 12bb f198 4abb 8677 f03b 017c 89bb
000003a0: 7790 8abd 02a1 b63a b6b7 b8ba 6950 20bb
000003b0: 712e c1ba 0bc1 93bb 7738 633b 1ed5 1fbe
000003c0: ef9a 2739 95a7 cbba 9f5a 863a 7356 46bc
000003d0: 7f02 eebd 572a c43d afa2 d4bb 47a6 9b3d
000003e0: 4de3 883a ab26 b43b 8339 a13c d4eb 54ba
000003f0: e3cb a8bd b976 d03a 6918 793b 706c b7ba
0.004490872 -0.00096868706 0.00028776855 -0.29533565 0.013009624 -0.006120893 -0.00485776 -0.031612635
-0.0034627654 -0.006356901 -0.0057884455 0.0016402357 0.0023146444 -0.0045006564 0.004170407 0.0065825386
-0.00067570485 -0.0027235616 -0.008293082 -0.007572241 0.0011261078 0.0024609007 -0.00254212 -0.0013786185
0.004803953 0.09827852 -0.0004773216 -0.14875628 -0.0010040716 -0.0034337277 0.0038885947 0.00016945298
-0.030443115 -0.0006542778 0.00050813914 0.004289751 -0.0027954043 0.0024891107 -0.0009040285 -0.0043643643
0.00357723 -0.004140845 -0.0014304732 -0.009930358 0.032247867 0.012909763 -0.0062967045 -0.08435423
-0.0026461661 -0.006936969 -0.017808504 0.0059762453 0.10770314 0.0027899288 -0.0036690016 0.0031432325
0.0020417261 -0.0037533387 0.0024749956 0.15711284 -0.006507256 0.011293815 0.0011312204 -0.3290175
-0.015999397 -0.010566601 -0.004135659 -0.044425968 0.0075087305 0.0073771277 0.016758759 0.001400766
0.013665112 0.0039427355 0.0026460676 -0.00087335234 -0.0070179235 0.00012036506 -5.5679884e-05 0.005819132
-0.0019583276 -0.007981621 0.0016350005 -0.019981708 -0.2262069 0.035834797 0.00083050935 -0.00072720175
-0.0044563375 -0.007007644 -0.010376063 -0.0058388957 -0.0043945345 -0.006468137 0.0026776083 0.001090531
0.002030836 -0.0025960547 0.005016804 -0.08529895 -0.0029421311 4.019422e-05 0.0006713077 0.011393293
0.19628373 -0.01928507 0.0005409065 -0.02745826 -0.00045676468 -0.00071266445 -0.007863577 -0.0010642635
0.0044018985 0.00088904885 0.00767638 -0.0021985855 -0.0005282205 -0.00024792485 -0.0027215197 -0.030553723
0.003958583 -0.0021635154 -0.0028667052 0.0062414706 -0.03829487 -0.20271741 0.008665408 -0.07770727
-0.009406154 -0.0013962836 -0.009602378 -0.0048034 -0.035208847 -0.0042357314 0.002427148 -0.002476797
-0.0040128613 0.003052408 -0.0047842674 -0.017461697 0.002412315 0.004928985 0.008397157 -0.0051939473
0.047384046 -0.22362196 0.00091622694 -0.24172178 0.013902917 0.0045631067 0.007096785 -0.010584582
-0.024578432 0.0019815404 0.00070978573 0.006899068 0.00046125893 0.00536942 -0.0059493636 -0.04038451
-0.0040365616 -0.000449907 -0.0025860681 -0.010321334 -0.034161966 -0.03384727 -0.00067482784 -0.28816178
-0.0016514915 -0.0051269876 -0.010607098 -0.0024753958 -0.066623375 0.00039434718 -0.0013595136 -0.0020102481
-0.0019158027 0.0070915413 -0.0022978282 -0.030693749 0.008730326 -0.0065809074 0.003030628 0.0075579337
0.007944686 0.004267659 -0.008947338 -0.0010127298 0.0036814522 -0.006031782 0.29316 -0.0018527606
-0.0127916075 0.008236013 0.00516945 0.007610484 0.012840123 0.0057452377 0.005443457 -0.0033501775
-0.00516111 -0.0009114163 0.005988601 0.0012019731 0.026040789 0.0013775225 0.0015350794 0.020625245
0.004979762 0.0010990455 -0.0026860258 -0.00039879617 -0.1346493 0.0037093614 -0.0021799584 -0.003983821
-0.0014819485 -0.0033444094 0.0035780233 0.026657203 -0.0009783044 -0.0013388887 0.008211947 -0.0046361075
0.011130362 -0.027859388 0.0020853595 0.036275286 -0.0022401873 -0.0030913914 0.007338467 -0.0041956906
-0.06765836 0.0013933482 -0.0014092836 -0.002446199 -0.0014738572 -0.0045090965 0.0034671107 -0.15608642
0.00015984078 -0.0015537614 0.0010250396 -0.012105572 -0.1162157 0.09578388 -0.00648912 0.07600074
0.0010443717 0.0054977736 0.019680744 -0.00081222993 -0.08242013 0.0015904523 0.0038008934 -0.0013994109

Decoder.dec1.bias f4 [256]
00000000: 64b6 05be 7b80 0d3b e953 783c 1d75 97be
00000010: d855 97bc 657c fc39 8657 efbb 37ac b8bd
00000020: 8f9c 7cbd e335 abbe c3b5 3b3d dbf3 e43c
00000030: 3e6d cc3c 7de6 a23c a4b3 633c 685d 6cbd
00000040: 3adb e5ba 4f20 92bc 40e8 42bc 4d7c f6bd
00000050: d295 87bc 34a1 cfbd 69bd a9bd 5838 b03c
00000060: a4ab bdbd 23d3 84bd 06b1 6abe cdd1 303b
00000070: 02dc 49be 6cd7 d3be b4b6 a8be 8da2 feba
00000080: aeba aebd 74bf 69bd 5104 a63b 22a8 04be
00000090: 89e2 97bb 956e 96bd 6661 a93c 5185 9ebe
000000a0: c182 7abe b55c c8be 7cdc 7ebc 1f28 2cbd
000000b0: d718 81bb 7531 d9bb 46f7 253d ebaf 5bbd
000000c0: 9a43 f4bc 6d76 2bbd d254 163c 685d fe3b
000000d0: 9ca8 4cbc c05d 7f3c 4d13 be3c 5137 3fbd
000000e0: e11f d53c 4727 48bc 08bf 1ebe d6ec b83d
000000f0: 328c 99be 8692 f7bd 0326 723d 0dd4 b4be
00000100: db0c 9a3c c248 2fbd 9312 c3bb e7f1 bebe
00000110: fbcf b5be 1daf 9a3d ea32 613c 8fc4 4fbc
00000120: 3644 85bd 48da 5ebe 5a6a 913d ee1f afbc
00000130: dafb 563c b358 e3bc 697e 83be 1ac2 32be
00000140: 3886 aa3c 8f24 f2bc dd7c b7bd 4b4e 153c
00000150: 875c a93d a796 803d 0a93 7bbd 49ad 1fba
00000160: ab64 fc39 6d44 ffbe 70d5 18be f937 54bb
00000170: 6c4c b0be b7c5 9bbc b904 11bd 3e40 bb3c
00000180: 1475 53be 9a97 183d 51a8 063d 44f1 34be
00000190: c1b9 a0ba 527a 4e3c 96b9 853d 456d 6dbe
000001a0: 99b7 67be 56c7 e8bb 584e 7f3d b40e 6dbc
000001b0: 5809 813c bd00 0ebe 4635 2e3b 55ec 1fbe
000001c0: a616 41bd e01d 87bb 47f6 f63c b3d8 ac3c
000001d0: 71b8 09bd c8f4 8abe 3402 a8bc f587 92bc
000001e0: 1275 7d3c 7e2e 93be 8083 87be 3cca a1bd
000001f0: e168 2fbe 2ef6 593c e889 72be 0180 1cbc
00000200: defd d4bc e4bf 563b fbc4 f23c 69b7 2dbc
00000210: cc38 87be 944b 70bd c014 0d3d 51e2 3e3d
00000220: 5045 0ebe ab1b b1be 24ca f13c 4401 c03c
00000230: 2f3d dcbc 038e fcbc 3fec 8cbd 3f10 853c
00000240: 993a 0c3d 2aef 163c 16f3 48be abe6 3cbb
00000250: 5408 12bc e235 2b3d f27d 7dbe cf43 513c
00000260: bec8 b93c 1385 a1bd 0d2e f3ba a336 b5bd
00000270: cdfc a93c 9e84 983c 720a 98bc 5c07 83be
00000280: 017e 883d 4c68 133d 445a 42bd b763 8c3b
00000290: 948a 86be 2514 bf3c 5075 6ebe 1f0f 8c3b
000002a0: 2816 d6bd 100c a9bd 0691 3b3c 3719 b7bd
000002b0: c22e dfbd 063c 6cbc b51b bf3d e055 8ebe
000002c0: 1115 ccbc 7b74 c0bd aa27 93bd c497 adbb
000002d0: cd4a 6dbe f077 45bd 5400 a63c 2808 b9bd
000002e0: 2c5c ecbc 7493 a5b8 4732 eebd 3779 8abb
000002f0: 33b9 9abe d518 0a3b 981d 713d 7fd8 963d
00000300: e083 8ebb efe3 97bb b9d5 5a3c 3116 e9bc
00000310: 7aa0 953d 1913 9d3d 5d09 b93b 6291 8d3d
00000320: 9737 9a3d 0138 e73d a3a4 94be f03b acbe
00000330: ed46 69bd 1469 b7bc c9ed be3c 1614 023a
00000340: 83af 41bc 2e80 1b3c aa5a 91bc 6734 c5bc
00000350: 71f2 593c 53bd 2fbd f87b 333d 4092 41bb
00000360: 3c0d 8fbe d428 9cbe c35c 683d fc30 bb3c
00000370: 5f14 35bd e2f4 93bc a4f9 91bd 0e00 c9be
00000380: ce9a d63a ae9d 233b 7a8c 87bc b69f d9bd
00000390: 08bc 8a3d ea5b c3be c140 a1bc 2c44 9fbb
000003a0: eec1 94be 45e8 c6be 46b5 88bd 73e7 85bd
000003b0: a36b a4be 45b2 53bd 6c31 bc3c cccd 94be
000003c0: 8a66 79bd 04ab aabc 61a5 37bc 9036 9bbe
000003d0: 59b1 8f3d 439a 6e3c 795b f43b 71a2 933c
000003e0: 6cd3 4cbc 4cde 7b3d 144b 19be 5dee 9d3d
000003f0: ddc9 efbb 1935 833c 83b9 28bd fe13 b6be
-0.13057858 0.0021591473 0.0151567245 -0.29581538 -0.01847355 0.00048157867 -0.007304135 -0.090172224
-0.061672743 -0.3343955 0.04582764 0.02794831 0.024954434 0.019885296 0.01389781 -0.057706267
-0.0017536648 -0.017837672 -0.011896193 -0.12035427 -0.016550932 -0.10138169 -0.0828808 0.021511242
-0.092612535 -0.06485584 -0.22919092 0.002698052 -0.19712833 -0.4137529 -0.3295189 -0.0019427106
-0.085317 -0.05706735 0.0050664325 -0.12954763 -0.0046351594 -0.073453106 0.020676326 -0.30961087
-0.24463941 -0.3913323 -0.015555497 -0.04203045 -0.0039397287 -0.00662821 0.04051902 -0.053634565
-0.029817391 -0.041860987 0.009175496 0.0077625997 -0.0124913715 0.015586317 0.023202563 -0.046683613
0.026016178 -0.012216396 -0.1550256 0.09029548 -0.29989773 -0.12088494 0.059118282 -0.35318032
0.018804958 -0.042793997 -0.005953142 -0.37293932 -0.3551024 0.075529315 0.013745049 -0.012681141
-0.06507151 -0.21762955 0.07100363 -0.02137753 0.0131215695 -0.027752256 -0.2568238 -0.17456856
0.020815954 -0.029558448 -0.08959363 0.009112905 0.08269601 0.06278735 -0.061419524 -0.000609119
0.0004814019 -0.49856892 -0.1492517 -0.0032381995 -0.34433305 -0.019015176 -0.035404895 0.022857781
-0.2065013 0.037253954 0.032875363 -0.1767016 -0.001226239 0.012602406 0.06529538 -0.23186214
-0.2262863 -0.007103841 0.062330574 -0.0144688375 0.015751526 -0.13867469 0.0026582046 -0.15617497
-0.04714074 -0.0041234344 0.030146731 0.021099424 -0.033623163 -0.27139878 -0.020508863 -0.017887095
0.015469806 -0.28746408 -0.26467514 -0.07899901 -0.17129852 0.013303323 -0.2368542 -0.009552003
-0.02599996 0.0032768184 0.029634943 -0.01060281 -0.2641052 -0.058665827 0.034443617 0.04660255
-0.13893628 -0.3459142 0.029515333 0.023438103 -0.026884643 -0.030829435 -0.06880998 0.016243098
0.03423557 0.009212295 -0.1962398 -0.0028824012 -0.008913118 0.041799434 -0.24755076 0.0127725145
0.02267873 -0.0788671 -0.0018553153 -0.08848312 0.020750428 0.018617924 -0.018559668 -0.25591552
0.06664658 0.035988137 -0.047449365 0.004284348 -0.26277602 0.023325035 -0.23286939 0.0042742635
-0.10453445 -0.08254254 0.0114481505 -0.08940356 -0.1089759 -0.014418608 0.093314566 -0.27799892
-0.024912389 -0.09397217 -0.071853 -0.005297633 -0.23173065 -0.048210084 0.020263828 -0.09034759
-0.028852545 -7.8952784e-05 -0.116306834 -0.0042258757 -0.3021942 0.002107193 0.058866113 0.07365512
-0.004349217 -0.004635326 0.0133566195 -0.028452964 0.07305999 0.07669658 0.005646868 0.06912495
0.07530134 0.11289979 -0.29031858 -0.3363948 -0.056952406 -0.022388972 0.023306744 0.00049620995
-0.01182163 0.00949101 -0.017743427 -0.024072839 0.013302431 -0.042905163 0.043819398 -0.0029536635
-0.27939785 -0.304999 0.05672909 0.022850506 -0.04420888 -0.018061105 -0.07127693 -0.39257854
0.001637304 0.002496581 -0.016546477 -0.106261656 0.06774145 -0.38156062 -0.019684197 -0.0048604216
-0.29054207 -0.38849083 -0.066752 -0.06538286 -0.3211337 -0.051683683 0.022972785 -0.2906326
-0.060888804 -0.0208335 -0.011208863 -0.30315065 0.07016248 0.014563146 0.0074571935 0.018021794
-0.012501579 0.061491296 -0.14970046 0.0771148 -0.007317765 0.01601653 -0.041192543 -0.35562128

Decoder.dec2.weight f4 [31, 256]
00000000: db83 243d aaaf a53d 65aa d8bc e844 5d3b
00000010: d7fd 493e 4afa 28be 31cd 4a3e af62 8d3c
00000020: 41c4 2f3e 79c3 373d a87e 4abe 431f 01be
00000030: 3668 d8bd 20a4 c03c 5695 30bd 0374 163e
00000040: 0393 0c3e 4403 233c f059 8ebc fbc8 c43c
00000050: 03c5 97bc 2906 0abd 7729 bf3c 93f9 56be
00000060: a074 d5bd 7b64 b43d ff54 f3bd d819 47be
00000070: 60e8 b23d a777 903d edc3 8dbc 06f9 b5bd
00000080: 7cf0 6f3c 24d4 cdbc 9c98 99bd cd10 4d3d
00000090: a340 51be 2b1f e33c 31e2 afba 2801 26bd
000000a0: d8a6 5cbd 221c 783b d495 393e 95c9 cebd
000000b0: da68 0c3e 5000 ac3d 45ed 163d 03ea f43d
000000c0: 4881 193e 601d 08bc 55e9 3abe 9dfe 0b3d
000000d0: cf0a 193e fe02 863c 9d32 18be 7b01 8cbd
000000e0: 6137 dbbe dabe 81be c85d 313c dc99 503b
000000f0: e6f7 b93d 047d 08be 360d 493d e5e9 7a3d
00000100: 0a47 223d ca1a 203e ea40 583c aa79 12bc
00000110: 5238 453c 2bf0 96bb 7186 72bb 1c68 9b3d
00000120: 2e25 54be c559 523c d7ef 383c 5101 b23d
00000130: 461d 6bbe fcc9 8bbd 67c7 c13c 264a f13d
00000140: 66b9 6cbe fa47 71be 237d c9bc e3d6 4a3d
00000150: d2a1 523b 6eff 86bc ce5d 723e d171 543e
00000160: 78f8 cabd f67e 1fbf 074e ef3c 1061 bd3d
00000170: 1628 593c 4e06 5a3d bc3c 8a3d 7d43 983d
00000180: 4d8f 0bbe 399d d33c 2dd7 21bd 3022 f93c
00000190: 5245 e9bc b9b0 3f3d ae0c 063d a31d 3a3d
000001a0: 0885 113d 47e7 fa3c 84ca 61bd 7857 fbbc
000001b0: 2856 46be ea7b 8abc 9345 e5bb b6c6 2bbd
000001c0: 6a47 483e 0eb9 bc3d d357 0f3d 881a 80be
000001d0: d21e 94bc 1791 2a3d 5fca a33d 9ce2 0cbd
000001e0: b7eb dfbd 5f05 273e 28d3 af3d 1a4b 493c
000001f0: ed1b 553c 864a 1cbf b0bb 313d d591 1ebe
00000200: 8cfd 1d3e de58 e33d 1d83 1dbe 2419 a5bd
00000210: e2ec f33c b631 e83d 30f7 953d d4c6 21be
00000220: ac6b 603d d343 4d3d 94aa 79be f9b5 09bf
00000230: 432c 15be 95fb a23c 9f3a 213d fb5c 24be
00000240: df84 c4bd 858a 96bd 9ecc 06be 6bc5 a23d
00000250: abdf 2f3e 0e11 bf3d c699 49bd 8743 433c
00000260: 032a 3ebe 29cc b73b 49f8 4f3e 738a e3bd
00000270: f3df 0cbe 8d99 033e 4c30 2d3d affb 0b3e
00000280: 6e5a ea3c 510a b0be 934f d13c 3ab1 bf3c
00000290: 8c4e 90bc 41f8 55be 210b d63b 6eec a7be
000002a0: bd33 4cbd aecc 523d 9488 97bd 66d2 1abc
000002b0: f032 4d3e b1b9 d1be 4c7c 8c3b 0502 913b
000002c0: 074f 993d f7ae 773c deb1 323d 5a6c bd3c
000002d0: 3cee f03d a0e2 0f3e 74c2 20be 5997 0d3c
000002e0: 0ad5 24be e8b1 173c 9c37 b63c 7658 a0bd
000002f0: 7a9f 1d3d 6a7a cc3d 3694 583c dec9 1c3d
00000300: 785e 81be f783 8ebc f9e3 073d eb2a 333c
00000310: 00d2 b03c 0e05 a4bb 1da4 ee3c 1467 30bc
00000320: ce95 6e3c 1e5d 963c dbb1 8a3d dfb8 d7bc
00000330: b5a9 5b3d ff93 7bbe e315 bbbe 3847 f1bd
00000340: faa9 a03e 865f 203e aa99 d83c 4668 ce3d
00000350: 4158 6abc 615c 1cbe 3cab 00be c515 3abc
00000360: 2444 a03d 0af6 9dbd d4cd 863c a266 63be
00000370: df4e 203e 5b68 2bbe 029e adbe c514 053d
00000380: 6a4d 3d3d 5756 d1bd 2c3e 02be bbe1 3a3d
00000390: e783 b3bc 47b3 f23c 8b74 5b3e 9ec3 84be
000003a0: c7ec 2e3e a82b ccbe c05a 193d 3c98 033c
000003b0: bea6 ec3d 2560 783e d926 8abe 569b b7bc
000003c0: 78f7 7cbd 779d 913d c6a7 193e 98bb cc3d
000003d0: 6caf 633b 4b8e 263c f2da 953d 50f7 e0bd
000003e0: abce f23b cd22 9dbc 5146 ba3d a6dc 6f3d
000003f0: 68e8 de3d 1574 22be 1da3 613e 086d 823d
0.04016481 0.08090146 -0.026448438 0.0033762995 0.19725738 -0.16501728 0.19804837 0.01725897
0.17164709 0.04486415 -0.19774878 -0.12609582 -0.10566752 0.02351576 -0.043111168 0.14692692
0.13727956 0.009949509 -0.01737687 0.024021616 -0.01852656 -0.03369728 0.023335202 -0.20993643
-0.10422635 0.08808228 -0.11881446 -0.19443452 0.08735728 0.07054072 -0.017305339 -0.08885388
0.014644738 -0.02512557 -0.07499811 0.05006485 -0.20434813 0.027724823 -0.0013418851 -0.040528446
-0.053870052 0.0037858565 0.18123561 -0.100970425 0.13711873 0.08398497 0.03684737 0.11958697
0.14990723 -0.008307785 -0.18253072 0.034178365 0.1494553 0.016358849 -0.14863057 -0.0683622
-0.42815688 -0.2534092 0.010825582 0.0031829989 0.09080486 -0.1332894 0.049084865 0.061258215
0.03961853 0.15635219 0.0131990705 -0.00894014 0.012037354 -0.004606267 -0.0037006403 0.07588217
-0.20717308 0.012838786 0.011287651 0.08691657 -0.22960386 -0.06825635 0.023654653 0.11781721
-0.23117599 -0.23562613 -0.024595803 0.04952134 0.003213991 -0.01647922 0.23668596 0.20746543
-0.09910673 -0.623031 0.029212011 0.09247029 0.013254186 0.05322867 0.067498654 0.07434747
-0.13628884 0.025831806 -0.03951185 0.03041181 -0.028475437 0.046799395 0.032726936 0.04543842
0.03552726 0.03062786 -0.055124775 -0.030681357 -0.19368804 -0.01690479 -0.0069968193 -0.041937552
0.19558492 0.09214984 0.034995865 -0.25020242 -0.018081103 0.041642275 0.079975836 -0.0343958
-0.10933631 0.16310643 0.08585197 0.012285972 0.013007146 -0.61051214 0.043391883 -0.15485318
0.15428752 0.111009344 -0.15382047 -0.08061436 0.02977604 0.113376066 0.07322538 -0.15798503
0.054790184 0.05011351 -0.24381477 -0.53793293 -0.14567666 0.019895354 0.039362546 -0.16051094
-0.09595656 -0.07350639 -0.13163993 0.07947811 0.17175166 0.09329425 -0.049218915 0.011917955
-0.18570714 0.0056090546 0.20309557 -0.111103915 -0.13757305 0.12851544 0.042282388 0.13670228
0.028607573 -0.3438287 0.02555064 0.023399938 -0.017615579 -0.20895483 0.0065320884 -0.3279757
-0.04985403 0.05146473 -0.07399097 -0.009449577 0.20038962 -0.40961984 0.0042872783 0.0044252896
0.074857764 0.015117398 0.04362666 0.023122955 0.117641896 0.14051294 -0.15699178 0.008642041
-0.16096893 0.009258725 0.022243313 -0.078293726 0.038482167 0.09984286 0.01321893 0.038278453
-0.25267386 -0.01739691 0.033176396 0.010935525 0.02158451 -0.0050054854 0.02913099 -0.010766763
0.014562083 0.018354949 0.067722045 -0.02633327 0.053628642 -0.24568175 -0.36540136 -0.11781162
0.31379682 0.1566144 0.02644046 0.10078482 -0.014303268 -0.15269615 -0.1256532 -0.011357729
0.07825497 -0.07712944 0.016455568 -0.2220712 0.15655087 -0.16739027 -0.33909613 0.03249051
0.046216406 -0.10221546 -0.12719029 0.04562543 -0.021913482 0.029626502 0.21431176 -0.25930494
0.17082511 -0.39877057 0.03744006 0.008031901 0.11555241 0.24255426 -0.26982763 -0.022412937
-0.061759442 0.07110112 0.15005407 0.09996718 0.003474201 0.010165761 0.07317151 -0.10984671
0.0074098906 -0.019181633 0.09095443 0.058560036 0.10884172 -0.15864594 0.22034879 0.06368452

Decoder.dec2.bias f4 [31]
00000000: fd68 00bf 8163 17be 61b4 d33f e9f3 fcbd
00000010: 48c7 543f 7c50 5c3c 0459 0dc0 d3b0 febf
00000020: c19a a43f 7dae 1c3f 71e4 b63f cdab fabf
00000030: 3f33 ed3f 6315 e8bf f809 a5bd 0687 9f3f
00000040: 1249 b0bd de35 8ebf d553 c7bd dfed 92bf
00000050: 7e01 1bc0 14aa 843d 1307 b03c c905 0040
00000060: f97b 0b3e a267 2640 fddc fc3d c01a c13f
00000070: 4f38 c93e c8e1 503d ddd2 053e
-0.501602 -0.14784051 1.6539422 -0.1235121 0.8311658 0.013446923 -2.208558 -1.9897712
1.2859727 0.6120375 1.4288465 -1.958368 1.8531264 -1.8131527 -0.08058542 1.2463081
-0.08607687 -1.1110189 -0.097327866 -1.1478842 -2.421966 0.06477752 0.021487748 2.000353
0.1362151 2.6000752 0.12346838 1.5086288 0.39300773 0.05099657 0.13068719
