results/7_iid/model_alone_n_1_m_0.pt (torch, 121552 bytes, 8 tensors)

Encoder.enc1.weight f4 [256, 22]
000000 6f cd bf 3d f0 c4 09 3d 27 d9 ab bd ef 41 12 3e
       0.09365355 0.03363508 -0.08391028 0.14282964
000010 b0 b3 34 be fd d6 e2 3d 7a 73 22 3e 26 37 fb bc
       -0.1764667 0.11076162 0.15864363 -0.030665945
000020 91 f6 c7 ba 3f 91 e5 bd 9d 60 08 3e 36 09 33 be
       -0.0015255978 -0.11209344 0.13318105 -0.17483982
000030 a5 c6 05 3e 13 27 a0 bd a6 6d 36 3e b0 55 e0 3d
       0.13064058 -0.07819953 0.17815265 0.109538436
000040 54 0c f5 3d 43 33 fc 3c f6 1b 8a 3d 50 9c 50 3d
       0.11965242 0.030786162 0.067436144 0.05093032
000050 a3 91 01 3e 9f 3e 24 3e 38 31 9e 3d 2c e3 16 be
       0.12653212 0.16039513 0.077242315 -0.14735097
000060 3b 1a 28 be 8b 90 f5 3d 8d 84 98 3d 74 49 eb 3c
       -0.16416256 0.1199046 0.07447157 0.028721549
000070 08 9f 80 3d 85 77 13 3d c4 6c fa 3d 3b 28 42 be
       0.06280333 0.036002655 0.12227777 -0.18960659
000080 68 b3 2f 3e 17 b0 11 be 75 f1 3e bd 0f 7b b1 3d
       0.17158282 -0.14227329 -0.04661699 0.0866605
000090 4f 56 2e 3e 5b 98 40 3d f1 06 40 3e 5d 6c 16 be
       0.17025112 0.047020297 0.18752648 -0.14689775
0000a0 0a 9a d4 3d 06 9b ee bd 37 2f 60 3d 36 cc 85 bd
       0.10380943 -0.11650662 0.054732528 -0.06533091
0000b0 03 77 1d bc 56 58 ba 3d dd 92 25 be 08 09 bc 3d
       -0.009610894 0.0909888 -0.16169305 0.0918141
0000c0 05 5e 7a 3b 8d b6 54 bd e1 f4 3b 3e 16 33 c9 3c
       0.0038203013 -0.051931906 0.18355133 0.024560492
0000d0 b1 16 e1 bc ff 4f 99 bd 89 30 d1 3d ed 32 93 3c
       -0.02747664 -0.07485961 0.102143355 0.01796862
0000e0 16 1d 30 bd 35 ae 2b bd 65 5b 95 bd 84 21 02 3e
       -0.04299649 -0.041914184 -0.07292823 0.12708098
0000f0 b6 8e 0b 3e 4a c2 64 3d 0a 74 d1 bd 18 51 9b bc
       0.13628659 0.05584935 -0.10227211 -0.018959567
000100 bf d1 ad 3d 09 f4 2f be c7 8b db 3d 51 71 c3 3d
       0.084872715 -0.17182936 0.1072002 0.09543098
000110 28 66 38 be 9b 49 cf bd dc f8 09 3e 49 ea 22 bd
       -0.1800772 -0.10121461 0.13473839 -0.039774213
000120 c1 8d d9 3a 49 9a b0 3d aa 3c 06 bd 76 e5 3d bd
       0.0016598032 0.086231776 -0.032772698 -0.04636141
000130 0b 82 c1 bd ae 02 ac 3d cf ba 77 3c 27 7e 38 3e
       -0.09448632 0.083989486 0.015120222 0.18016873
000140 60 d2 77 3c bc 2b c6 bd d5 58 bc bd a5 89 dc 3c
       0.015125841 -0.096763104 -0.09196631 0.026921103
000150 c5 d8 e1 bd 87 3f cd bd 06 50 e4 3c f2 34 1f 3e
       -0.11027674 -0.100218825 0.02787019 0.15547541
000160 61 5d a3 3d 94 00 10 3d 0c bc 5f 3d 5c 13 e4 bd
       0.07976795 0.0351568 0.054622695 -0.11136505
000170 f9 8c 8b 3d 0b fe b5 3d 8f 21 63 bb 5c 27 b6 3d
       0.06813998 0.088863455 -0.0034657454 0.08894226
000180 d6 5a 64 3c fb f1 59 bd 6f ce ca bd d3 c2 47 3e
       0.013937673 -0.053209286 -0.09902655 0.19507913
000190 4f 83 93 bc 31 25 60 be 74 c9 f8 3d 4b b2 ed 3b
       -0.018006949 -0.21889187 0.12147799 0.00725392
0001a0 3a 1d a4 3d 19 45 ef 3d b0 87 0e be f9 9c 3d be
       0.08013387 0.11683101 -0.13918948 -0.18516912
0001b0 23 5f 2b be b9 f2 34 3d 06 53 c8 3d b1 3a c0 bd
       -0.1673551 0.04417679 0.097814605 -0.093861945
0001c0 81 61 8d bc a4 47 19 be 9e 73 2d bc 9d aa 2c bc
       -0.017258408 -0.14968735 -0.010586647 -0.010538724
0001d0 4d 0d 25 3d 86 fd 04 3e a3 37 0c 3e b9 fc 0e bd
       0.040295888 0.12987337 0.13693099 -0.034908984
0001e0 2a ac 0d be ad 8f 84 3d e9 a2 ed bd 88 b7 17 3e
       -0.13835207 0.064727165 -0.11603338 0.14816105
0001f0 17 5b 46 3d 2c 8f e2 3d 74 e7 6d bd ce 22 f1 bd
       0.048426714 0.11062464 -0.05808206 -0.117742166
000200 60 02 00 be 51 84 4c 3e d4 8f fd 3d 72 61 04 be
       -0.12500906 0.1997235 0.12380949 -0.12927797
000210 53 15 04 be 90 c2 e2 bd 0f bf 03 3d 73 4b 8f bd
       -0.1289876 -0.11072266 0.03216463 -0.06996813
000220 5a 13 e8 3d 07 3f 0d 3d 11 b9 e1 3d f1 35 04 3e
       0.11331816 0.034483936 0.11021627 0.12911202
000230 9e 80 77 bc 7b ec 28 be dc b4 6d 3d 60 77 b2 bd
       -0.015106348 -0.1649646 0.05803381 -0.08714175
000240 ee a8 1c be 14 a8 e0 bd 22 3a 56 bd 78 41 a9 3d
       -0.15298817 -0.10969558 -0.052301534 0.0826444
000250 58 57 b1 3d af cc 9e 3d 7e 87 1d be 1a c5 1d 3e
       0.086592376 0.07753884 -0.15383717 0.1540722
000260 cd d2 f5 bd bb 28 3e be 23 83 32 3e 44 fe ca bd
       -0.12003098 -0.18570225 0.17432837 -0.099117786
000270 e1 e4 6a bd 77 2f 4d 3d dc 29 1e 3e 9c 9d 26 3e
       -0.057347182 0.050094094 0.15445656 0.1627106
000280 8d 55 18 3e 25 03 16 be 5f 6c bf 3b 6b 1d 95 3c
       0.14876385 -0.14649637 0.0058417763 0.018202504
000290 cc f0 91 3d 01 cb f7 3c 77 82 98 3d b3 14 d4 bd
       0.071260065 0.030248167 0.07446759 -0.103555106
0002a0 83 4e 13 be 21 39 ca 3d 1e e6 a9 3d 19 56 a2 3d
       -0.14385419 0.09874178 0.082958445 0.07926578
0002b0 81 c0 19 3e d9 c2 04 3e 8d a9 87 3b 57 0d 0b bd
       0.1501484 0.12964953 0.004140085 -0.03394827
0002c0 b0 f8 2c bd 5c 91 24 be 12 38 17 3e bf 83 ce 3d
       -0.042229354 -0.16071075 0.14767483 0.10083722
0002d0 54 eb 0b be 68 56 c3 3d 25 e1 9e 3c c3 ea 05 3d
       -0.1366399 0.09537965 0.019394467 0.03269459
0002e0 cc cb 2d be bf b6 a0 3d d9 69 e4 bc 0c ad 80 3d
       -0.16972274 0.07847356 -0.027882503 0.06283006
0002f0 06 91 99 3b b5 a1 8d 3c 51 a6 24 bd 41 b6 2d 3d
       0.0046864776 0.017289022 -0.040197674 0.04241014
000300 1a c9 65 be fe be e8 bd 10 3b da 3d 6b 06 1f 3d
       -0.22439995 -0.11364554 0.106557965 0.03882448
000310 ac 08 76 3e 58 cd 95 bd fd 64 6a bc e7 88 c3 bd
       0.24026746 -0.07314557 -0.014306304 -0.095475964
000320 cb ed af 3d ff 4f a5 3d bf 59 4f 3e ae 0c 93 be
       0.08590277 0.08071899 0.20249079 -0.2872061
000330 d7 65 b2 3d c9 74 35 be 48 41 70 bd 62 f9 11 be
       0.08710831 -0.17720331 -0.058656007 -0.14255288
000340 38 da be bd 2e 74 21 be ab 62 9e bc 16 6a 88 3c
       -0.09318966 -0.15766975 -0.019334158 0.016652148
000350 b4 25 97 bd 03 27 8b bc 07 dd 21 be 06 fa be bd
       -0.07380238 -0.016986376 -0.15806971 -0.09325032
000360 ff a2 ec 3c 16 ba 03 3e 77 56 a9 bd aa 72 bb 3c
       0.028886316 0.12863955 -0.08268445 0.022881825
000370 8c 45 21 bd b3 a8 9f bc 06 27 d7 bd f4 e2 8d be
       -0.039372966 -0.019489622 -0.1050549 -0.27712214
000380 21 4d d4 bc 33 b2 6f 3d fd 7c e7 bd 8e 7d b8 3d
       -0.025915684 0.058519553 -0.113031365 0.09008323
000390 76 93 a8 bd 11 79 d8 bd 8f 36 98 3d 60 4f 20 3e
       -0.08231251 -0.105699666 0.07432281 0.15655279
0003a0 0c 13 8d 3d c6 95 b5 3d a3 55 38 3e 9e 86 87 bd
       0.068883985 0.08866458 0.18001418 -0.06617473
0003b0 0e 69 ae 3d af 85 0d 3e 5e 18 7d bd 67 7c 1e be
       0.08516131 0.13820527 -0.061790816 -0.15477143
0003c0 67 e6 57 bc be b8 9e bd 20 e7 14 bd 58 ef 89 3d
       -0.013177491 -0.077500805 -0.03635323 0.06735104
0003d0 25 d9 63 bd 68 ea 15 3c e2 d2 fe 3c f3 34 a8 3d
       -0.055627007 0.009150125 0.031106416 0.08213224
0003e0 61 80 f4 bc 33 75 b7 3d 78 30 2c be a1 45 06 be
       -0.029846372 0.08957901 -0.16815364 -0.13112499
0003f0 a8 f9 e4 3d a1 3e a1 bd af 49 fa bc 0a 91 18 3e
       0.11180431 -0.07873274 -0.030552713 0.14899078

Encoder.enc1.bias f4 [256]
000000 17 47 02 3d 79 ce 2f be ac 46 20 be db f0 38 3e
       0.031806078 -0.17168607 -0.15651959 0.18060629
000010 20 ad 2e 3e 33 94 e3 bb b7 5d ba ba e7 f3 2d bd
       0.1705823 -0.006945157 -0.0014218603 -0.04246893
000020 b3 f8 37 3d d9 ef 27 3e 8c 15 c1 3d 9d 2c 4e 3d
       0.044914912 0.16400088 0.09427938 0.050335515
000030 f1 a3 e8 3d 31 3e f4 3d e4 62 af 3c d9 d0 11 3e
       0.11359394 0.119259246 0.02140946 0.14239825
000040 33 80 00 3e fa 66 f9 bd dd fd 5f be d8 25 4d 3e
       0.12548904 -0.12177844 -0.21874185 0.20033967
000050 2d 87 a2 bd 10 3d 4f bd 21 d1 97 3d 88 48 3f 3e
       -0.07935939 -0.050595343 0.07412935 0.18680012
000060 45 cd d6 3d ba 78 e5 bd 61 21 28 be ad 9a a5 bd
       0.10488371 -0.112046674 -0.16418983 -0.08086143
000070 45 2a 34 3c cf 48 27 be d4 8f e9 3d 3c 68 d3 3d
       0.010996406 -0.16336368 0.11404386 0.103226155
000080 70 22 03 3e 49 bb 09 be e4 8d b7 3d d2 f7 04 be
       0.12806106 -0.1345035 0.0896261 -0.12985161
000090 72 67 e0 bc 31 23 08 3c 8d 0b 3f be 92 6d 02 be
       -0.027393077 0.008309172 -0.1865675 -0.1273711
0000a0 f3 cc 2d 3e 85 63 e6 bd e3 40 01 be 90 06 cc 3d
       0.16972713 -0.112494506 -0.12622409 0.09962189
0000b0 f1 18 7d 3d 95 aa 6c 3e e5 5c 90 3d df 3d e6 bd
       0.061791364 0.23111947 0.07048968 -0.1124227
0000c0 56 dd 41 be 29 4b bd 3c 73 77 48 3e c4 db 47 be
       -0.18932089 0.023107128 0.19576816 -0.19517428
0000d0 86 9e 48 be 0f fb 04 3e c3 5d f4 bd 92 20 20 be
       -0.19591722 0.12986396 -0.11931946 -0.15637425
0000e0 82 35 b6 3d 32 af 37 be e5 5f 26 3e 65 93 85 bd
       0.088969246 -0.17937925 0.16247518 -0.06522254
0000f0 59 d1 bc 3b 39 80 59 3d 33 f0 6e bd ff 14 22 bd
       0.005762261 0.0531008 -0.05833454 -0.039570805
000100 68 38 17 be 08 86 7a 3d 30 59 61 be 47 7f 84 3d
       -0.14767611 0.06116298 -0.22006679 0.06469589
000110 78 f1 01 3e ba c6 ca bd 70 e8 7f be 86 8f fc 3d
       0.1268977 -0.09901185 -0.24991012 0.123320624
000120 f8 0d 6a 3d 64 c7 14 3e 58 20 6a 3d 8d 7c 93 3d
       0.057142228 0.14529186 0.05715975 0.072014906
000130 5a 3e 64 3d c3 e5 36 bd 45 42 84 3d 5b fc 61 be
       0.055723526 -0.04465271 0.064579524 -0.22068922
000140 34 bf 6d be 87 b0 00 3d d4 b0 23 be 8e a5 29 3c
       -0.2321747 0.03141835 -0.15985423 0.010354413
000150 99 76 4b be 4e 5d e9 3a fe 56 03 3c d5 72 2c 3e
       -0.1986946 0.0017804296 0.008016346 0.1684068
000160 ae 01 39 3e 78 c6 c8 bd a2 82 09 3e 7a 46 48 be
       0.18067047 -0.0980348 0.13428739 -0.19558135
000170 aa 4b 3e be f3 9d ab bd 4c dd d6 3d e2 48 c3 bd
       -0.18583551 -0.08379736 0.10491428 -0.09535386
000180 19 18 08 3e 79 17 52 3d 00 fe 06 be 61 e7 0c 3e
       0.13290443 0.051291917 -0.13182831 0.13760139
000190 99 0b 38 be f3 40 80 be 8c ff 3c be f8 64 66 3d
       -0.17973174 -0.25049552 -0.18456858 0.056248635
0001a0 a6 48 54 bc 68 be 97 3c c5 f9 cc 3d f1 30 9a bd
       -0.012956774 0.01852341 0.10008577 -0.07528866
0001b0 14 62 c0 3d 14 5e 43 be b6 4d 59 be 14 22 06 3d
       0.09393707 -0.19078857 -0.2122105 0.032747343
0001c0 06 1a 5b be be 18 93 3d 3c 38 c6 3d 4f 75 53 3e
       -0.21396646 0.071824536 0.096786946 0.20650218
0001d0 b7 5c 6b be aa 41 01 be 18 12 b4 3d 2b 16 a1 bd
       -0.22984587 -0.12622705 0.087925136 -0.07865556
0001e0 fd a1 c9 3d 1d 98 8c bc a0 85 6f be 20 d6 f9 bd
       0.0984535 -0.017162377 -0.23390818 -0.12199044
0001f0 c5 70 15 3e 37 d1 94 3d 78 41 4e be 79 7f ff 3c
       0.145938 0.07266467 -0.20142162 0.031188713
000200 19 b7 e6 bd d9 7b 2b bd 79 e7 24 be 60 fa 2f 3e
       -0.11265392 -0.041866157 -0.16103925 0.17185354
000210 6f 08 c9 bc a7 26 19 3d dd ab 3e 3e 69 ce c6 bd
       -0.024540154 0.037390377 0.18620248 -0.09707338
000220 5f 12 44 bc e1 85 62 bc 7b 9c be 3d 65 24 2b 3e
       -0.011967271 -0.0138258645 0.0930719 0.16713102
000230 c4 6e 12 3e 5d 08 28 be 92 29 2f 3e b8 66 ec 3d
       0.14300066 -0.1640944 0.17105702 0.115430295
000240 bd a4 ed bd ad 6a 8b 3d 1b 3c 1d 3e a9 b0 85 3c
       -0.11603687 0.06807456 0.1535496 0.01631959
000250 13 25 8d 3d 1b f5 ab 3d 01 32 a9 3c 39 8d a2 3d
       0.06891837 0.083963595 0.020653727 0.07937092
000260 3f 63 da 3d af b7 ca 3d 35 25 4f 3d 45 22 11 be
       0.10663461 0.09898316 0.050572593 -0.14173229
000270 17 cd 23 3e d9 22 8c bd 02 d5 a1 3d 2c bc dc 3d
       0.15996204 -0.06842584 0.07901956 0.107780784
000280 4e 5c 13 3d 21 0d 3b 3e d7 2b 1e 3e 4c d4 1b bc
       0.0359767 0.18266727 0.15446411 -0.009511065
000290 54 45 07 bc 6c 0f 31 be b9 c5 d4 3d b8 48 d9 bd
       -0.008256275 -0.17291039 0.10389275 -0.10609573
0002a0 1e a1 28 3e b8 f2 a1 bc b4 33 59 be da 1c bd 3d
       0.16467711 -0.019769058 -0.2121113 0.092340186
0002b0 9f 09 a7 bd ce db 3a bc dc d4 0c 3e 61 03 a2 3d
       -0.08156132 -0.011404945 0.13753074 0.07910801
0002c0 5c 04 9e 3c 42 4b c8 bd 1b 99 3f be 81 12 47 3e
       0.019289188 -0.09779979 -0.18710749 0.19440652
0002d0 ac e5 1b be eb 99 50 3e 68 b5 1d be fd 85 99 bd
       -0.15224332 0.20371215 -0.15401232 -0.07496259
0002e0 cb 30 0a be b4 77 0a 3e bb a1 e3 3d 94 eb 63 3d
       -0.13495176 0.13522226 0.11114832 0.055644587
0002f0 cd 2a 17 be dd 9f 43 be da 59 36 be 9d 73 5b be
       -0.14762421 -0.19103952 -0.17807713 -0.21430822
000300 39 0b f0 3d 40 ab 53 3e 82 b5 d2 3d 76 51 1e 3c
       0.117208906 0.20670795 0.10288526 0.0096629765
000310 ec 99 33 3e 73 0e 02 3e 9b f7 20 be 0e aa d1 3d
       0.17539185 0.12700824 -0.15719454 0.102375135
000320 0b 70 14 3e a2 e6 27 be 90 2e 37 be 15 a3 58 be
       0.14495866 -0.16396573 -0.17888856 -0.21155961
000330 05 6b 05 be 3c b5 04 be 01 ed 99 3c c3 d7 9f bd
       -0.13029106 -0.1295976 0.01878977 -0.07804825
000340 f9 67 92 bc 21 19 17 bd 76 1a a7 bd 76 fb 14 be
       -0.017871844 -0.0368892 -0.08159344 -0.1454905
000350 9b b5 e6 3d 77 b4 dc bd 8a cc a7 3c f0 ad 06 3d
       0.11265107 -0.107766084 0.020483274 0.032880723
000360 6f 74 25 be b8 e6 81 bd a7 f0 ce 3c dd 1d 3e be
       -0.16157697 -0.06342834 0.025261236 -0.1856608
000370 54 92 32 be f4 73 8d 3c d1 f6 ae bc 22 6f 0e be
       -0.17438632 0.017267205 -0.021357926 -0.13909581
000380 cd bf 85 3d 05 84 49 3d 0f 52 45 be 4e 15 f2 bb
       0.06530724 0.04919817 -0.19269584 -0.0073877936
000390 73 b8 05 be 6b 8e 91 3d 83 72 56 be ce be 0e 3d
       -0.13058643 0.07107242 -0.2094212 0.034849934
0003a0 91 a0 12 be 7e 16 93 3d 22 55 33 3e 06 38 33 3c
       -0.14319064 0.071820244 0.17512944 0.01093865
0003b0 ea 82 dd 3d 79 20 45 be d1 0c 3a 3d 0b 30 7e bd
       0.108159855 -0.19250669 0.04542238 -0.062057536
0003c0 ba 00 44 be 5b 27 e9 3c e5 fb 21 be ed d7 0b be
       -0.19140902 0.028461149 -0.15818746 -0.13656588
0003d0 fa 98 fc 3d 97 a9 f8 3c 5d 49 32 3e cd 17 20 be
       0.123338655 0.030354304 0.17410798 -0.1563408
0003e0 b1 ad 62 3d 0f 8e 81 be 3a 1e 17 be f0 d5 64 3d
       0.055341426 -0.25303695 -0.14757624 0.05586809
0003f0 c2 41 10 be fa 24 c7 3d 4a 48 2b be 21 57 8d bd
       -0.14087585 0.097238496 -0.16726795 -0.06901384

Encoder.enc2.weight f4 [40, 256]
000000 44 06 82 ba 0f 75 ef 3a 93 b8 c5 3b 5d 13 b4 3b
       -0.000992008 0.0018269139 0.006033966 0.0054954723
000010 ac 0c 2a bd 64 db 81 bc d0 f7 00 3d ae 92 cb ba
       -0.04151599 -0.015851684 0.031486332 -0.0015531385
000020 9d c1 24 bd 95 41 ae bc 15 7f ef 3c e9 69 24 3d
       -0.040223707 -0.021271506 0.029235402 0.040140066
000030 52 9b a4 3c a6 1b 03 bd 5d 05 67 3c f6 1e 40 bd
       0.020093594 -0.03200879 0.0141004 -0.046904527
000040 eb 75 a5 3a 93 71 65 3d 8c a9 7a 3b 40 2f 63 3a
       0.0012623643 0.056016516 0.003824803 0.00086664036
000050 4b 4d 69 bc 9f c0 04 3d 24 4a 9c 3c 8f ee ed bc
       -0.0142396195 0.03241026 0.019078322 -0.029044418
000060 38 df 76 bc 1c d0 d2 3c f2 ff 86 3c d4 b6 88 3c
       -0.015067868 0.025734 0.016479466 0.016688742
000070 0c 74 8a 3b 27 25 2b 3d 0c b9 75 3c ef 5d 01 3d
       0.0042252596 0.041783478 0.014997732 0.031583723
000080 40 e8 b0 bc 61 9d 6c 3b 36 97 83 bc a7 c8 9d 3c
       -0.02159512 0.0036104547 -0.016063314 0.019260718
000090 5c 89 c8 3c 65 c3 22 3c fb 3b b6 3c 7e 5d 90 3c
       0.02447956 0.009934281 0.022245398 0.017622706
0000a0 0e 17 60 3c 2f 3d ca 3c dd a8 86 3c 86 63 b1 bb
       0.013677372 0.024687378 0.016437942 -0.0054134754
0000b0 60 f4 38 3c aa 22 2b 3c a9 9a a7 bc 24 77 00 3c
       0.011288732 0.010445276 -0.02045949 0.007840905
0000c0 60 e3 46 bb 83 d6 48 3d 9f 54 3f 3d fe 4e 60 bc
       -0.0030347928 0.0490327 0.04671156 -0.013690708
0000d0 5d 13 11 3c 98 85 e5 3b 24 37 85 3c 45 d4 bb 3a
       0.008854714 0.007004451 0.016261645 0.0014330229
0000e0 85 da 30 bd 6d f6 28 3d a1 c4 eb 39 39 76 3a bc
       -0.043177146 0.041250635 0.00044969193 -0.011380726
0000f0 3a 5c f6 bb db 0c 05 3c 95 b1 83 bc 43 85 1c 3d
       -0.0075183185 0.008120741 -0.016075889 0.038213026
000100 fa af 0a 3d 3e bd 62 39 c9 35 8b b9 fa 12 bf bc
       0.03385923 0.00021623538 -0.0002655222 -0.023324478
000110 50 32 f5 3b 9c 8a 5b bc c0 5d b4 3c 96 55 1d 3c
       0.0074828044 -0.013399746 0.02201736 0.009602925
000120 a4 be ec bb de cd 6a bc f5 6a 06 3d 59 0a aa 3b
       -0.0072248746 -0.014331309 0.032816846 0.005189222
000130 42 63 1a bc 4d 26 a8 bc 81 b8 b8 bc 93 15 02 3d
       -0.009423079 -0.020526076 -0.022548916 0.031758856
000140 77 5f 79 3c af 3a d8 3c d2 0c 07 bc 94 67 07 bd
       0.0152205145 0.02639517 -0.008242803 -0.033057764
000150 e7 07 07 bd d0 aa 40 3c 16 f7 05 bc a0 c3 a3 bc
       -0.03296652 0.011759475 -0.008176586 -0.019990742
000160 da 28 7d bc c9 a8 fc 3b 20 7f 62 3c 43 99 bc bc
       -0.015451634 0.0077105504 0.013824254 -0.0230223
000170 df 97 88 38 d4 01 1b bd 52 b4 86 3c 3c 02 c0 3c
       6.5132735e-05 -0.03784354 0.016443405 0.023438565
000180 a0 fd 29 bc 00 68 fb bb 8f b4 57 3c 74 34 d9 bb
       -0.01037541 -0.00767231 0.013165607 -0.0066285674
000190 36 ba 2c bc ae 15 19 bc 84 96 59 3b aa 94 96 3b
       -0.010542443 -0.009343548 0.0033201287 0.004595359
0001a0 68 f3 b9 3b e7 d1 d7 bb 14 ed ca bc 6c 67 3e 3c
       0.0056747682 -0.0065863016 -0.02477125 0.011621337
0001b0 87 b4 74 3c fc 90 a5 3c f8 fe ed 3c d7 b8 3e bc
       0.014935619 0.020210735 0.029052243 -0.011640749
0001c0 d6 27 b4 bc c5 04 88 bc 6a 0d 95 3c af d5 4a 3c
       -0.021991652 -0.016603837 0.018194873 0.012380048
0001d0 cd 1a e3 bb 21 6b 31 3c 4f 7e 65 3c ec c9 1d bd
       -0.006930685 0.010828764 0.014007165 -0.038522646
0001e0 c0 b2 10 bd b6 e0 1b 3c d2 38 1b 3d 0a 7c d7 3c
       -0.03532672 0.0095140245 0.037895985 0.026304264
0001f0 62 a9 33 bc 51 7c 12 3d 4b e0 0b 3d 48 9f 7f bc
       -0.010965677 0.03576309 0.03414945 -0.01560194
000200 89 50 23 3c 73 30 fa bc fe 4b 43 bc cb a7 18 bc
       0.009967932 -0.03054068 -0.011919973 -0.009317349
000210 b8 aa 8f bc c6 b5 9a bc d4 a5 42 bd 38 ee 66 3c
       -0.01753746 -0.018885504 -0.047521427 0.014094882
000220 9e 10 d0 3b 3b fe d5 3c c7 4e 0f 3d 2a e0 95 bc
       0.006349637 0.026122203 0.034987237 -0.018295366
000230 e9 2a a6 bc 3e 23 ea b9 c5 4f 8f 3c d1 1b aa bc
       -0.020284133 -0.00044658215 0.017494092 -0.020765217
000240 5e c6 19 3c 8c 3a 0d bc 36 fe 51 bb 81 c0 9c ba
       0.009385673 -0.008619916 -0.003204239 -0.0011959226
000250 23 81 88 3c 13 3c 80 bc e8 5b b8 bb 9a 90 74 3c
       0.01666314 -0.015653646 -0.0056261905 0.014927054
000260 dd 8f 77 38 0a 00 cd bc b7 32 0b bd 29 c0 3c bc
       5.9023372e-05 -0.025024433 -0.033983912 -0.011520424
000270 17 98 97 3c 8b 0d 1a bc 29 33 01 bd 03 22 1f bd
       0.01850514 -0.009402643 -0.03154293 -0.038850795
000280 7f 08 23 bc 1b b9 86 bd d3 bd 05 3c 11 06 58 bc
       -0.009950756 -0.06578275 0.008162933 -0.01318504
000290 0e 0e 2c bd 65 f6 22 3c 0f 66 1e 3d c2 10 05 bc
       -0.04200559 0.00994644 0.03867155 -0.008121671
0002a0 fd 22 7d 3c 34 ef 09 bc 85 a5 ec 3b cf db 04 bd
       0.015450236 -0.008418847 0.00722188 -0.03243619
0002b0 76 29 a6 3c fa 3e 20 3d b7 96 69 3c 52 9a 82 bb
       0.020283442 0.03912256 0.014257125 -0.0039856816
0002c0 76 52 21 bc ee 85 1a 3c f0 b0 4f bc 92 74 a0 3c
       -0.00984632 0.009431345 -0.0126764625 0.019586835
0002d0 cc 5d 94 bb f2 ff 57 bc b4 a6 a2 bc 98 fc 16 bc
       -0.004527783 -0.013183581 -0.01985488 -0.0092154965
0002e0 93 b4 c9 bc 53 5b 8a bc 7b b0 14 3d 83 4d a9 bb
       -0.024622237 -0.01688925 0.036301117 -0.005166711
0002f0 b5 77 85 3b 41 f6 1c bc d0 88 08 3d 3b 1a bc bb
       0.004073108 -0.009580196 0.0333336 -0.0057404316
000300 46 08 2a 3d 3e 1d 92 bc 70 2b b2 3c 3c ac 77 3c
       0.041511796 -0.01783621 0.021749228 0.0151167475
000310 b5 50 5a bc d5 d0 51 bd 63 7e 86 bc 9d 46 e7 bc
       -0.013324906 -0.05122455 -0.016417688 -0.028231913
000320 3d c8 03 3d 9d d4 de bc df 91 3d bd 0a e2 f7 3c
       0.032173384 -0.027200991 -0.04628169 0.030259151
000330 97 78 c7 3c c8 e0 dc 3c ab ce 1b bd be 9f 9d 3c
       0.024349494 0.026962653 -0.03803889 0.01924121
000340 bf 87 46 bc 90 1c 50 3c 8d 41 5f bb 08 b8 2a bd
       -0.012117325 0.012702122 -0.003406617 -0.041679412
000350 28 27 03 3d a6 09 36 3c 14 26 3c bc 67 93 45 3b
       0.032019764 0.011110699 -0.011483688 0.0030147673
000360 ec f0 ac bc a5 df d1 3c e7 0d 18 bd 98 92 35 3d
       -0.021110974 0.025619337 -0.037122633 0.044329256
000370 48 24 f3 bb 2a 0f 20 bd c8 da a9 bc 41 42 21 bd
       -0.0074200965 -0.03907696 -0.020734206 -0.039369825
000380 1d 5d 48 bc 3d 07 e5 bb 7f 49 68 3c 63 c4 58 bc
       -0.012229231 -0.0069893883 0.014177679 -0.013230416
000390 e2 ac c0 3b 79 9d b5 3b 16 f7 15 3d a3 a3 21 bd
       0.0058799842 0.005542454 0.036612593 -0.039462697
0003a0 7a ff 53 3c bf 43 39 3b d6 80 f9 3c ee 60 cc 3c
       0.012939328 0.002826914 0.030456942 0.024948563
0003b0 e8 c8 8a 3c 0f 82 2f bd 3c b5 d2 bb c8 4a d2 3c
       0.016941503 -0.042848643 -0.006430296 0.025670424
0003c0 ec 9c 15 bc 8a 00 86 bd 8b 8a b6 bc f9 89 ef 3c
       -0.009131651 -0.065430716 -0.02228286 0.029240595
0003d0 db 09 ed bc 61 30 ed 3b a5 c8 7a bc 44 2f 9f 3c
       -0.028935364 0.007238433 -0.015306626 0.019431718
0003e0 37 0f af 3c 79 54 95 bd 58 3c 53 bc 9a 57 bb bc
       0.02136956 -0.072915025 -0.012892805 -0.02286892
0003f0 c8 34 1b bd ba f2 62 bc a3 d9 f8 bc 97 8b a5 bc
       -0.037892133 -0.013851816 -0.030377215 -0.020208163

Encoder.enc2.bias f4 [40]
000000 62 c9 29 3d 0c 4e 38 3d ae a9 2c 3d e1 b2 25 bc
       0.04145182 0.044996306 0.042154007 -0.010113449
000010 17 6a db bc 48 91 5e bd 46 a2 43 bb 62 db de bb
       -0.026783986 -0.05433777 -0.0029851361 -0.006801055
000020 90 6c dc bc da 7b 2f bb b2 f4 6a bb d4 74 21 3d
       -0.026907235 -0.0026776702 -0.0035851416 0.039418057
000030 fb 3e 7d bc c8 10 4d 3d 26 81 5e 3d de 07 6f bb
       -0.01545691 0.050064832 0.054322384 -0.0036473195
000040 51 5f c8 bc 39 3b 8a 3c 19 62 3f 3d 6c c8 ee bc
       -0.024459513 0.016873943 0.046724413 -0.029148303
000050 89 50 d6 3c d2 46 a9 bd c4 c9 1f 3b 09 58 b8 bd
       0.026161449 -0.08265461 0.0024381736 -0.090011664
000060 74 c7 25 3c bb b3 06 3d 2c 0e 12 3d b4 0e 7c 3c
       0.010118354 0.032886248 0.035658047 0.015384365
000070 c7 78 21 bd 6a 92 26 bd cc a8 11 bd 21 74 5c bd
       -0.039421823 -0.040666975 -0.035561368 -0.053821687
000080 b8 43 a6 bc d2 39 73 bd b2 72 cb b8 1a d4 2a bc
       -0.020295963 -0.059381314 -9.701158e-05 -0.0104265455
000090 9a ae c2 bc 51 f2 62 bd 54 82 78 bd 8e 86 02 be
       -0.023764897 -0.055406872 -0.060671166 -0.12746641

Decoder.dec1.weight f4 [256, 20]
000000 5c 58 57 bd 33 c8 33 be 2c 9d 85 bd d5 d5 68 bd
       -0.0525745 -0.17556839 -0.06524119 -0.05684455
000010 3a 3f 45 bd 20 1e a8 3c b0 1a 04 bd 4b 14 e2 bc
       -0.048156 0.020522177 -0.032252014 -0.027597567
000020 7a a9 05 3d 96 c9 ee bd df 6d 32 3e 42 b2 0d 3e
       0.03263233 -0.11659543 0.17424725 0.13837531
000030 d4 f9 0b 3d 3a ca 98 be 8e ca 27 3b 58 e8 81 bc
       0.0341738 -0.29841787 0.002560291 -0.01585786
000040 85 be 08 3d 59 6c cc bd b7 8a 52 3d f8 d5 26 bc
       0.03338482 -0.09981603 0.05140182 -0.01018285
000050 26 9a 9b bc 5d aa 45 bd bb 86 23 bd 02 d6 10 bc
       -0.018994402 -0.048258174 -0.03992341 -0.008840086
000060 67 b6 56 3b 1e e5 97 bc 94 e3 67 bc 05 c5 41 3d
       0.003276253 -0.018541869 -0.01415338 0.047307033
000070 38 bf 1e 3d 44 96 19 3e c5 c0 df bd 8a 36 0a bd
       0.03875658 0.14998728 -0.1092544 -0.03374342
000080 63 57 21 bb 39 dd 85 3e 0e 00 91 3a bb 9a 23 3d
       -0.0024618737 0.26145342 0.0011062638 0.039942484
000090 78 7c 91 bd 82 a5 2c bc 4f c5 af bd 96 37 e1 3d
       -0.07103819 -0.010537507 -0.085825555 0.1099693
0000a0 ab aa b4 3c d6 dc 01 be 6e 1b cb bb 64 8f 3e be
       0.022054037 -0.12681898 -0.0061983382 -0.18609387
0000b0 5f fc ad bb 87 20 46 bc 9a 50 0b 3b d2 87 24 bc
       -0.005309626 -0.012092716 0.002125776 -0.010042148
0000c0 f2 6a 8a 3a 6c 82 2d 3d 10 d0 0b be c7 8a 50 be
       0.0010560437 0.042360708 -0.13653588 -0.2036544
0000d0 bf f5 cc 3c e4 de 65 bd 30 25 a9 3a a6 40 5e bc
       0.025019525 -0.05612077 0.001290476 -0.013565218
0000e0 9d 91 97 3c 90 f1 80 3c af 51 8b 3d a4 d0 21 3d
       0.018502051 0.015740186 0.06802689 0.039505616
0000f0 82 6e 95 bc 67 22 26 3e 94 c9 9a bd 66 9f 8c 3e
       -0.01824117 0.16224061 -0.07557979 0.2746536
000100 ac 45 d4 3b 76 d4 3f bc b0 26 47 3c 82 42 ce 3c
       0.006478032 -0.0117083695 0.01215522 0.025178198
000110 c1 2f 3f bb e0 7b 50 3c 0e 61 b4 3b 44 dd e0 3b
       -0.002917275 0.012724847 0.005504734 0.0068623144
000120 ed f2 64 bc 70 8a 66 3d 92 9c b4 bb ea 39 71 3b
       -0.013973934 0.056284368 -0.0055118287 0.00368082
000130 e7 99 da bd 43 b3 6f 3d 47 e9 22 3e 4c a9 af bd
       -0.10673886 0.058520567 0.159093 -0.08577213
000140 1f 9b 6b bd 88 dc d8 b9 74 99 a8 3a d8 91 7a 3e
       -0.057520982 -0.0004136304 0.0012863115 0.24469697
000150 7a 99 92 3d 9c da 56 3d 48 f5 6b bd 39 9d 3f 3d
       0.071581796 0.052454576 -0.057606965 0.0467808
000160 b3 1c 04 3d 9f 35 b2 bc c9 0e 54 be 7d e7 85 be
       0.032253932 -0.021754084 -0.20708765 -0.26153174
000170 06 7b 3a 3d 96 fa f5 3d c4 58 9a bc f2 62 94 bd
       0.04552748 0.12010686 -0.018841155 -0.07245435
000180 82 07 74 3b a8 e3 c4 3d 09 21 da 3d ac 09 86 3c
       0.003723592 0.096137345 0.10650832 0.016362034
000190 b4 46 9c 35 cb 50 56 bd fc 32 84 3d 05 9e 63 3e
       1.1643483e-06 -0.052323144 0.06455037 0.22228248
0001a0 c9 e0 8f 3c 66 4d b6 3c e2 b5 a1 3c 14 ee 5c bc
       0.01756324 0.022253703 0.019740049 -0.013484497
0001b0 93 c1 7f bc 41 72 ac bd d6 6f da bd 1a ea 59 be
       -0.0156101165 -0.0842023 -0.10665862 -0.21280709
0001c0 bd b8 44 3d c1 40 bc bd a9 76 19 3c 4c 9c 85 bc
       0.048027743 -0.09192038 0.00936667 -0.01630988
0001d0 18 3e fd 3d dd e0 9a bc 2f 43 39 3e f7 84 22 be
       0.12365359 -0.018906051 0.18092035 -0.15871035
0001e0 dc 98 d0 3c c7 50 5a bc 29 97 db 3c 73 23 22 be
       0.025463514 -0.013324923 0.026805477 -0.15833835
0001f0 71 b5 03 3d 1a b4 d8 3c 08 ed 6b bc 5d c2 2b 3d
       0.032155458 0.026453067 -0.014399774 0.041933406
000200 6b f4 47 3a 27 c5 9f 3d 32 10 3f bd d9 4f 50 be
       0.00076276687 0.07801276 -0.046646304 -0.2034296
000210 27 22 36 3d 9d 54 5c bb b0 ca 3b 3d e8 53 ee bb
       0.044466164 -0.003361977 0.045847595 -0.007273186
000220 08 a4 8b bd f4 8d 45 3d 07 b1 dd 3d b6 1b 0a 3e
       -0.06818396 0.04823108 0.10824781 0.13487133
000230 36 6b 0e bd 1c 28 05 be 48 b3 1a 3d ce 34 86 3e
       -0.034770213 -0.13003582 0.037768632 0.26212162
000240 05 5b a1 3d c8 4c f1 3d 53 0a b0 3c 33 8b 8c bd
       0.07878689 0.11782223 0.021489298 -0.06862488
000250 6a 34 8d bd f9 5c f1 3d e0 8c 1e be 72 24 3b be
       -0.06894763 0.11785311 -0.15483427 -0.18275622
000260 cb 3c 4e 3d 8d 8d 52 bc fd 55 46 bd 1f 64 26 3d
       0.050350945 -0.012851131 -0.04842185 0.040622827
000270 80 ef 67 3d b2 54 d8 3d 53 71 5b bd 79 81 f6 3d
       0.05662489 0.10563029 -0.05357487 0.12036414
000280 98 bc 5a 3d 7a 60 ce bd 3e 84 7e bd 57 2b 6d be
       0.053402513 -0.10076995 -0.062137835 -0.23161064
000290 48 79 a3 bd bc 1a 55 3d d5 e0 6d 3c 8d 78 4d bd
       -0.07982117 0.05202745 0.014518936 -0.050163794
0002a0 a1 a2 61 bd a9 1f d0 3d 84 2a 0f be 88 66 b3 3d
       -0.055086736 0.10162289 -0.13981062 0.08759791
0002b0 e2 a1 7c 3c 4b cb cf 3d 0b 96 df 3d 6f f3 7e bd
       0.015419455 0.10146197 0.1091729 -0.062243875
0002c0 29 78 e7 3c 52 c8 9e 3d 56 90 c2 bd 5f 48 a3 3d
       0.028255539 0.07753052 -0.09500186 0.07972788
0002d0 a6 48 23 3c e6 9c c3 bd d0 43 1e 3c 86 af 4a 3c
       0.009966051 -0.095514104 0.009659722 0.01237095
0002e0 f8 04 20 bd cc da cc bc b2 a6 0d bc 6b 31 32 bc
       -0.03906724 -0.025006674 -0.0086457 -0.01087604
0002f0 9f 1f 23 bd c1 d9 13 bc dc 81 8e 3e 2c 11 12 be
       -0.039825078 -0.009024085 0.2783345 -0.14264363
000300 3a ae a7 3c f8 41 c9 bd 0b 29 63 bd 7a 32 d3 3c
       0.02046882 -0.09827036 -0.055459064 0.025780905
000310 44 db 09 bc 1f 00 71 bc f1 52 19 be 29 53 bb 3d
       -0.008414093 -0.0147095015 -0.14973046 0.09146721
000320 18 82 9a 3c f8 cb b6 3d 53 f5 13 bd a0 e4 38 3e
       0.018860862 0.08925623 -0.03612263 0.18055964
000330 cd 9b e9 3c 95 20 f3 3c e1 d4 b3 3c 03 27 84 3c
       0.028516674 0.029678622 0.021952095 0.016131883
000340 d6 3a d8 3b 48 5f 02 3e cc 4d 69 3e 02 3e 26 3e
       0.0065988107 0.1273166 0.22783583 0.16234592
000350 de 38 8b bd ca 13 38 3e 11 a0 fd 3c a6 2a 58 bc
       -0.06797956 0.17976299 0.030960115 -0.013193762
000360 82 c3 5f bd fe 9d d0 bc 2a fa 39 be f7 7c 91 bd
       -0.05462981 -0.025465962 -0.18161836 -0.07103913
000370 de 24 73 bd dc ef 9c 3d b0 71 a3 bc 3b d6 ab 3e
       -0.05936133 0.07662937 -0.019951671 0.33561882
000380 24 33 45 3d 0c 71 4c bd f4 be 78 3d 35 ad fd bb
       0.048144475 -0.049912497 0.060728982 -0.007741595
000390 5d c1 30 3d ac e7 32 be 46 81 25 be 5d 54 06 be
       0.043153156 -0.17471188 -0.16162595 -0.1311812
0003a0 f2 6f 5c 3c c1 ee 24 3e 96 bc ac bc db bc 08 bd
       0.013454424 0.16106702 -0.021086019 -0.03338323
0003b0 3b 14 94 bd 59 42 0f bd fc 3c ee 3d c0 9a 05 3e
       -0.07230421 -0.034975383 0.116327256 0.13047314
0003c0 4f 8d 25 bc 86 56 33 3e 27 81 ac 3b 6e 23 4e 3c
       -0.010104491 0.17513475 0.0052644196 0.012581689
0003d0 c9 6a 21 bc b3 15 d5 b9 cc 20 55 bd 00 e0 19 3b
       -0.00985212 -0.00040642693 -0.05203323 0.0023479462
0003e0 7f c3 26 bc 38 09 4c bc ad d0 1b 3e 34 4a 41 be
       -0.010178446 -0.01245337 0.15216322 -0.18875962
0003f0 d2 0a 22 3d 6e 5a f0 bc ab 96 53 bc 68 14 b1 bc
       0.0395611 -0.029339995 -0.01291434 -0.021616176

Decoder.dec1.bias f4 [256]
000000 98 d1 14 3e 9f 52 2c 3e d7 c5 cb be 9d ee 24 be
       0.14533079 0.16828392 -0.39799377 -0.16106649
000010 7b d3 04 3e 43 ae ad 3b 2b 09 5d be 2b 84 9c 3c
       0.12971298 0.0053003146 -0.21585529 0.019105991
000020 18 6c 8d bd 2f f3 d5 bd b3 03 19 bd 16 9a 67 3e
       -0.06905383 -0.10446774 -0.037357043 0.22617373
000030 61 c2 8c be 88 c2 3c bd cc 99 62 3e 86 f7 56 3e
       -0.2749205 -0.046083957 0.22128981 0.2099286
000040 69 2d f2 3d bb 84 59 be 2b f9 d5 3d 2d 3f 35 bd
       0.118250675 -0.21242039 0.10447916 -0.044249702
000050 32 19 95 bc 56 86 38 be 75 68 e6 bc ae 2a 38 bd
       -0.01820049 -0.18019995 -0.02812598 -0.044962578
000060 07 02 0f bd 56 05 86 be 82 37 d1 3d 80 3f 24 3e
       -0.034914043 -0.26175946 0.102156654 0.16039848
000070 38 86 22 3d cd 8a 8a 3d ed 01 56 be 90 94 0b be
       0.039678782 0.067647554 -0.20899172 -0.13630891
000080 c3 da 66 3e 04 d4 42 3d 7e 38 50 be 98 5d de bd
       0.22544388 0.047565475 -0.2033405 -0.10857695
000090 a8 b3 45 bb 24 2b 12 3d bb 8d 42 be 62 ca 1d be
       -0.0030166898 0.035685673 -0.18999378 -0.15409234
0000a0 b9 40 4f be f3 4d ec bd a6 18 13 3e f1 b6 b0 bd
       -0.20239533 -0.11538305 0.14364871 -0.08628643
0000b0 e3 47 8a 3c f1 e9 59 be fe 2e 2c 3e ee 7a 74 3d
       0.016879981 -0.21280648 0.16814801 0.059687547
0000c0 7e b8 8a be eb 32 27 be aa 94 bc 3d 85 6e ce bd
       -0.2709388 -0.16328017 0.09208043 -0.10079674
0000d0 57 a8 e2 3d d8 43 c3 3b 48 fe 88 3d 70 ac de bd
       0.110672645 0.0059590153 0.06689125 -0.108727336
0000e0 c4 da 10 be fa a5 8f be 51 8a 69 be 62 e8 33 3d
       -0.14145952 -0.28056318 -0.2280667 0.04392279
0000f0 35 2f 8a 3d 4c a3 ae bd d1 73 71 be ce 86 43 be
       0.06747285 -0.0852724 -0.23579337 -0.19094393
000100 80 cf e9 bd 04 fa 34 bd 9e 0e a1 bd 55 7d ab bd
       -0.114165306 -0.044183746 -0.07864116 -0.083735146
000110 e9 0f 13 3e cf 13 03 be bc c3 b9 3d 5a bf 2d be
       0.14361538 -0.12800525 0.090705365 -0.16967526
000120 8a 56 1e be 2f 0d c7 3c 5e 4a bb ba 86 c4 a4 bc
       -0.154627 0.024298279 -0.0014289131 -0.02011324
000130 fa 94 3f bd 32 f2 1a be 68 27 b1 bc a1 5b d4 3d
       -0.046772934 -0.15131453 -0.021625236 0.10369039
000140 fb 48 10 3e dd 2d 5f 3b 5a be eb 3d 55 58 4c be
       0.1409034 0.0034054436 0.11510916 -0.19955571
000150 d4 8c 1b be a6 b4 9b be 9e 0c 20 be b3 b2 19 bc
       -0.1519044 -0.3041126 -0.15629813 -0.009380984
000160 a8 ad aa be fe bb 1c bd fd 99 0b 3e a8 21 17 3d
       -0.33335614 -0.03826522 0.1363296 0.03689733
000170 b1 46 74 3c 49 36 bb bd 8a f4 03 be d6 12 0e be
       0.014909432 -0.091412134 -0.12886253 -0.13874373
000180 40 38 7e bb 16 42 76 3e 97 69 5d bd ef 4b cb 3d
       -0.0038790852 0.24048647 -0.054055776 0.099265926
000190 79 81 01 be 18 1a 9d 3c 14 2d 3d be 91 c0 47 3e
       -0.12647046 0.019177482 -0.18474227 0.19507052
0001a0 07 ec 36 bd 4f ec 67 be 57 5b 96 3d e3 d9 ac bc
       -0.044658687 -0.22648738 0.073416404 -0.02109999
0001b0 53 04 d9 3d 13 7d 16 be 65 f7 ea bd b2 84 05 be
       0.10596528 -0.1469615 -0.11472968 -0.130389
0001c0 d4 3b 49 bd d4 fe b2 bd 92 ea dd bc a9 ee 6c be
       -0.049129322 -0.08740011 -0.02708939 -0.23137917
0001d0 e6 51 1f be 2e a6 29 be 8d 26 01 3e c3 bb dc bd
       -0.15558586 -0.16567299 0.12612362 -0.10778
0001e0 88 77 f3 bc 4c 46 f7 3d d4 5d 0b be f6 79 de bd
       -0.029720083 0.12073955 -0.13610011 -0.10863106
0001f0 b1 0e 3e 3e 01 7e b3 bc a6 8b 1f be b0 9e 9a bc
       0.18560292 -0.02191067 -0.15580615 -0.018874496
000200 8c cd 35 be d4 6a 05 be 74 16 fc 3d 29 a6 2a 3e
       -0.17754191 -0.13029033 0.1230897 0.16664948
000210 16 b9 a1 bd 7d 98 c9 3d 72 43 46 3c fd 72 e8 bc
       -0.078966305 0.09843538 0.012101041 -0.028375143
000220 0c 90 e6 bd 31 1f f6 3d 75 10 e9 3d e8 2c b6 bc
       -0.112579435 0.12017668 0.11380092 -0.02223821
000230 5f 8a 1c 3e 6e 14 8a 3d f2 09 03 be e1 2e 22 bd
       0.1528716 0.06742178 -0.12796763 -0.03959549
000240 20 e6 3d 3d 83 15 93 bc d5 62 19 be 24 94 f9 bd
       0.046362042 -0.017954594 -0.14979108 -0.12186459
000250 a0 e1 a3 3b fa d6 1f 3d 29 cf 90 3c 88 2e 0c be
       0.005001262 0.039023377 0.017676907 -0.13689625
000260 69 8c a2 bc 34 82 62 bd ac ed 21 3e 76 c5 07 be
       -0.019842343 -0.055299953 0.15813321 -0.13258919
000270 75 55 bf bd 49 58 0a be 49 8c 35 be 9b 55 13 3d
       -0.093424715 -0.1351024 -0.17729296 0.03597031
000280 42 00 04 3e cb 2c f9 bd 30 94 07 3d ce e5 9e bc
       0.12890723 -0.12166747 0.033100307 -0.019396689
000290 95 4f 2b be e1 a3 18 3e e0 84 20 be c4 38 2d 3e
       -0.16729577 0.14906265 -0.15675688 0.16916186
0002a0 9d fe fe bc c4 66 33 be 24 4e 34 be 82 7b 7f be
       -0.031127268 -0.1751967 -0.17607933 -0.24949458
0002b0 1b 77 38 be c8 d4 cd bb ee 85 00 3e 64 5d 1a bd
       -0.18014185 -0.006281469 0.1255109 -0.03768672
0002c0 34 04 f6 3d 30 2c 28 be 4f 81 b3 3c 09 f3 da bd
       0.120125204 -0.16423106 0.021912245 -0.106908865
0002d0 58 d1 3b 3e 51 86 42 be 26 d5 99 bd af 95 df 3d
       0.18341577 -0.1899655 -0.07511358 0.10917222
0002e0 1e 6a 9a bd 52 40 2b 3e 22 8c 47 3d 5a 8b 66 be
       -0.075397715 0.16723755 0.048717625 -0.22514096
0002f0 2b a7 2a 3e f3 d4 88 bd 9e 6d d2 3b ed 02 df bd
       0.16665332 -0.06681242 0.006421759 -0.1088923
000300 92 7d 34 be 61 82 8d 3d 94 15 d4 3d 62 1b 07 3d
       -0.17626026 0.069096334 0.10355678 0.0329851
000310 aa 50 c3 bd e3 d1 df 3d 8a aa 08 3e 5f 3d 20 3e
       -0.0953687 0.109287046 0.13346305 0.15648411
000320 1e ce a0 3c be dc f8 3c a3 f7 ec 3c 44 af 15 3d
       0.019629534 0.030378696 0.028926676 0.0365441
000330 5c 96 18 bd af b0 54 3e 73 73 4a 3e 4e 2f 9d bd
       -0.03725277 0.20770524 0.19770603 -0.07675038
000340 b8 ae 5d bc 8a 30 f7 3c 5f 2e 4e 3e b5 64 42 be
       -0.013530426 0.030174512 0.20134877 -0.18983729
000350 4c cb 0d be 43 fe 0b be 3c c5 35 be 01 d1 b0 bd
       -0.13847083 -0.13671212 -0.1775102 -0.08633614
000360 2d e9 eb 3d 36 73 22 be 80 65 b1 3d 12 54 b2 bd
       0.11519084 -0.15864262 0.08661938 -0.087074414
000370 db 9e fd bd 80 8c 81 3e 03 4d bd bd 5f e6 0e be
       -0.12383815 0.25302505 -0.092432044 -0.13955067
000380 db 5e 3b bd c6 2a 0e be 95 2e c2 3d ce 00 64 bd
       -0.045744758 -0.13883504 0.09481541 -0.05566483
000390 b0 45 4d 3e 1f 1e b3 3d e4 20 80 bd c6 00 90 3d
       0.20046115 0.087459795 -0.062562734 0.070313975
0003a0 09 6a 2f bd 33 e1 3e 3c 88 cb 01 3e 73 41 4a be
       -0.042825732 0.011650371 0.12675297 -0.1975153
0003b0 84 88 c5 3c cb d8 55 3d 36 aa 4f 3c c5 2e 2a 3d
       0.024112947 0.052208703 0.012674859 0.04154851
0003c0 f0 c3 88 bd de a7 71 be cb 56 a2 bd 44 2e 00 bd
       -0.06677997 -0.23599193 -0.07926711 -0.031294122
0003d0 df 3e 07 be c7 5a 0e 3e 2f df 8f 3d d9 c3 04 3e
       -0.13207577 0.13901816 0.07024991 0.12965335
0003e0 b0 a0 9d bd 1d 4b 9b bd a6 56 b0 bd 7b 4e c0 3d
       -0.07696664 -0.07582686 -0.08610277 0.09389969
0003f0 3a d0 27 3e 65 85 2c bd 26 2d d6 bd f6 47 66 3c
       0.16388026 -0.042119402 -0.1045783 0.014055243

Decoder.dec2.weight f4 [31, 256]
000000 73 19 7b bd 5f 4f 89 be 55 a6 dc bd ed ca 2c 3e
       -0.061303567 -0.26818368 -0.10773913 0.16874285
000010 e9 20 1e 3c fc 92 b5 bd 6d 75 06 3d 68 6a 0e bd
       0.009651401 -0.08865926 0.03282683 -0.034769446
000020 d7 4a 8c be 39 8b e5 3d 7c 72 5b 3e f0 a5 01 3e
       -0.27400848 0.11208195 0.21430391 0.12660956
000030 6b 7b 04 3e 25 3c 83 be 94 a7 f3 bb db 94 34 be
       0.12937705 -0.25631824 -0.0074357484 -0.17634909
000040 55 59 58 be 7a 66 b6 bd d2 98 14 be 61 81 3d 3d
       -0.21127827 -0.089062646 -0.14511421 0.046265963
000050 0d 52 97 ba 15 8f ec bd 94 34 e7 be 20 3b e0 3d
       -0.0011544839 -0.11550728 -0.451573 0.10948777
000060 0a 80 13 bd 52 a0 b3 bc dd 75 1b 3d a8 da 80 be
       -0.03601078 -0.021927033 0.0379542 -0.2516682
000070 36 49 97 3d ad ac e9 3d 3c 4f 37 3d 5c c2 4d 3d
       0.07387011 0.114098884 0.0447533 0.050234184
000080 e0 2a d9 3d cc ca 3e be f9 14 56 be f2 21 60 3e
       0.10603881 -0.18632048 -0.20906438 0.21887949
000090 33 37 1f 3e 18 f9 fd 3d 53 4b 12 be 14 5a 20 3d
       0.155484 0.124010265 -0.14286546 0.039148405
0000a0 1b 14 05 3e 0d 10 97 3d 5d cd 14 be c5 30 61 be
       0.12995951 0.07376108 -0.14531465 -0.2199126
0000b0 66 1a 6f be e6 ad 00 be e8 94 83 3e af 36 39 3d
       -0.23349914 -0.12566337 0.25699544 0.045218166
0000c0 31 af b4 3a a0 fa e9 bd 57 04 5c be 9d ae c2 bd
       0.0013785121 -0.11424756 -0.2148603 -0.09505961
0000d0 6f fc 3c be 89 e5 98 bc 43 77 71 be 87 2d bc be
       -0.18455671 -0.018664138 -0.23580651 -0.36753485
0000e0 28 50 d1 3d 7b 94 27 3e 39 94 8d be 46 30 a6 bc
       0.10220367 0.16365235 -0.27652147 -0.02028669
0000f0 4f 63 0c 3b 60 8a d0 bd 2c 37 c2 3c 6a 46 97 3e
       0.0021421497 -0.10182643 0.023707949 0.2954591
000100 12 2e c1 bd d9 70 8e be 96 09 58 3d ca f0 75 3e
       -0.09432615 -0.2782047 0.052743517 0.24017635
000110 59 fe 5f 3e 80 19 b4 be ca c1 85 bd 6e 18 2b 3e
       0.2187437 -0.35175705 -0.06531103 0.16708538
000120 96 44 86 3e 4b a9 14 3e cb 04 0d be 05 7a a2 bc
       0.26224202 0.14517705 -0.1377136 -0.019833574
000130 a0 b6 ab 3e ca c3 fa 3d 81 70 a4 3e 23 fe 8d 3e
       0.3353777 0.12244375 0.32117084 0.27732953
000140 94 8c 06 be ab d5 3b 3e 3a e1 4b be 62 0a 74 3d
       -0.13139564 0.18343227 -0.19910136 0.059580214
000150 2e b7 c7 be ba e9 9e 3e e3 15 71 bd 08 3c bb bd
       -0.39006943 0.31037694 -0.058858763 -0.091423094
000160 ec 3e 8c bc 8e d8 1b 3e b0 5d 02 bd cc a5 53 3e
       -0.017119847 0.15219328 -0.03182763 0.20668715
000170 8f d2 88 bd 7b 6a 57 bd 29 a4 bf 3d 31 a3 e4 bd
       -0.06680786 -0.052591782 0.09357483 -0.11163939
000180 c2 83 3f bc 1e ed 61 3b 29 3a 6a bc 51 71 46 be
       -0.011689128 0.0034473608 -0.014296093 -0.19379164
000190 69 16 a8 bd 6f 05 85 be 81 2a d9 be 32 f8 4d 3e
       -0.082073994 -0.25980708 -0.4241524 0.2011421
0001a0 1e 62 f3 3d 9f d3 bc 3e da e3 d3 be 2a e2 c6 3d
       0.11883949 0.36880204 -0.41384774 0.09711106
0001b0 35 8f 50 be 4c 79 79 be b3 c2 11 bc cd 37 93 3d
       -0.20367129 -0.24362677 -0.008896518 0.071883775
0001c0 98 b7 ab be 8c 9f 43 be 7b 27 ca bd 3e 1e b5 bd
       -0.33538508 -0.19103831 -0.098708116 -0.08843659
0001d0 8a a9 cb bc 00 9e 21 be ca 75 aa bd aa 8e da 3a
       -0.024861116 -0.15782928 -0.08323248 0.0016674597
0001e0 0c 79 78 3c 11 d8 e5 bd ea 7f 64 3e 2f de 8a be
       0.015165579 -0.11222852 0.2231442 -0.27122638
0001f0 ec 7b 59 3d 7c 62 28 be 50 f9 61 3e e1 ca 54 3d
       0.053096697 -0.16443819 0.22067761 0.051951293
000200 9e 98 da 3d e4 95 14 3e 56 82 d5 bc 6b 55 53 3d
       0.10673641 0.14510304 -0.026063126 0.051595133
000210 06 a2 a4 3e d6 36 dd 3d ef 0c dc 3d a6 9b 83 be
       0.32154864 0.10801475 0.107446544 -0.25704688
000220 7b 1c 8a 3c 2a 68 ac 3d e0 be b6 be 16 95 42 3d
       0.016859284 0.08418305 -0.356925 0.04750546
000230 bb b6 a4 3d d6 e8 ad be 2c 8c e8 3c 2f a1 cf bc
       0.080426656 -0.33966702 0.028387152 -0.025345413
000240 9f 17 96 bd 0c 10 ed bd 1f 83 f9 3d 00 05 88 3e
       -0.07328724 -0.11575326 0.121832125 0.26566315
000250 31 c5 97 bd c4 ca f4 3c c7 e1 a1 3d 6e 6f ae 3e
       -0.07410658 0.029881842 0.07904392 0.3406939
000260 0b 8d c5 3d 71 d2 05 be a6 1e 8d be 11 a2 2c 3c
       0.096460424 -0.13068558 -0.27562445 0.0105366865
000270 33 0f 05 be bd 0b 1c be ff 33 61 3d b1 9d 34 be
       -0.1299408 -0.15238853 0.054981228 -0.1763828
000280 79 63 28 3e 5b 81 13 3e 09 32 2a bd 6f 79 64 3c
       0.16444196 0.14404814 -0.041551623 0.013944968
000290 64 b2 85 be 81 49 be be bf ad f7 3d 2e f6 cc bd
       -0.26112664 -0.37165454 0.12093686 -0.100078925
0002a0 9b 04 ef 3d 94 46 87 3d 4f 46 c2 3c 7d d1 a5 be
       0.116708 0.066052586 0.023715166 -0.3238639
0002b0 2b b6 72 be 63 91 09 3d 71 17 db be ed 51 5d 3e
       -0.23702304 0.033585917 -0.42791322 0.21613283
0002c0 d9 d2 ad 3d 36 9d b9 3d 77 32 21 bd 3a 95 63 3e
       0.084874816 0.09063189 -0.039354768 0.22224894
0002d0 43 a9 70 be 77 7c 03 bd 9a 2c b2 bc 78 58 52 3d
       -0.23502068 -0.03210112 -0.021749783 0.0513539
0002e0 32 a4 bb 3e db c3 2d be 9b 8e 85 3e 65 01 8d 3d
       0.3664871 -0.16969244 0.26085362 0.068850316
0002f0 0e 80 4b bd 15 24 1f 3d a5 04 9f 3d 9a 54 71 be
       -0.04968267 0.03885277 0.07764558 -0.23567429
000300 6c 90 36 be c1 77 f6 3d 1e f4 36 be 9c ab 00 bd
       -0.1782853 0.1203456 -0.17866561 -0.03141366
000310 80 f4 ab be 74 b6 08 be d9 6c 30 be c0 9e af bd
       -0.33584976 -0.1335085 -0.17229022 -0.08575201
000320 60 a8 5a 3d 58 8e be 3c 59 23 81 3c a5 7d 0c 3e
       0.05338323 0.023261234 0.015763925 0.13719805
000330 8d c3 4d bd 8f 8d ac 3d a4 e1 2c be 5a 64 04 3e
       -0.05023532 0.08425438 -0.1688295 0.12928906
000340 5a 4a 0c 3e f7 f3 9b be d9 37 0f bd b3 33 63 3e
       0.13700238 -0.30459568 -0.03496537 0.2218769
000350 8e e3 49 3d 05 d5 25 be 52 44 cf be ef 96 d4 bc
       0.04928928 -0.16194542 -0.40481812 -0.025950877
000360 6c be e8 bd d2 be 4e 3e 80 29 f7 3c 33 7a 4a 3d
       -0.11364445 0.2018998 0.030171156 0.049432945
000370 86 48 fd 3d e8 05 88 3e e5 72 ee bb 1b 4e 06 bd
       0.123673484 0.26567006 -0.00727688 -0.03278933
000380 f0 42 07 be 1e 86 31 3e b6 fa 71 3e 2b 3d f5 3d
       -0.13209128 0.17336318 0.23630795 0.119745575
000390 70 2f 33 bc 89 f0 6c 3e 68 fe b5 3b 56 76 9a 3e
       -0.010936603 0.23138632 0.005554009 0.30168408
0003a0 53 d3 c7 be 1b bb df 3d 10 aa 36 3e 60 49 0d 3e
       -0.39028415 0.109243594 0.17838311 0.13797522
0003b0 5e 8e e3 3d 4f 55 fe 3d 3f 78 e0 3d 13 13 5c bd
       0.11111139 0.12418615 0.10960435 -0.053729128
0003c0 6a 11 5d be 4b 43 4b bd d1 df 16 3d 96 68 40 3e
       -0.21588674 -0.049624722 0.03683454 0.18789896
0003d0 4f f3 35 be 4b b1 fa 3b 0a 9d 46 3e 54 1c 25 3e
       -0.17768596 0.0076505295 0.19395843 0.16124088
0003e0 f1 cc ef 3e 32 68 cf 3d 91 e7 63 3e 14 73 a9 bd
       0.46836045 0.101272956 0.22256304 -0.082739025
0003f0 0f bc de 3c 07 52 18 3e 2e 0f b5 3d fd dc 93 be
       0.027189283 0.14875041 0.08840786 -0.28879538

Decoder.dec2.bias f4 [31]
000000 9f fa 11 be 4c 63 72 3e 66 b2 17 3f 58 a3 3e bd
       -0.1425576 0.23670691 0.5925659 -0.046542495
000010 a7 89 d3 3e 66 ed cf 3d 12 cf 2a bf 90 a2 17 3e
       0.41315958 0.10152702 -0.66722214 0.14808106
000020 e6 a3 9c 3c fb a6 18 be d7 19 e3 3e 38 52 4c 3e
       0.019121122 -0.14907448 0.44355652 0.19953239
000030 7e 91 a6 3e 2a c0 0d bf 6b 1a 02 3f 78 be 0a bf
       0.32532877 -0.55371344 0.5082156 -0.5419688
000040 6c 6a 9a bc 47 7e d1 3e 4b 4b 30 bd fb 21 54 3e
       -0.018849574 0.40916654 -0.043040555 0.20716088
000050 25 48 8e bd 77 f4 4f 3e 94 8a 85 be db b2 f8 bd
       -0.06947354 0.203081 -0.2608229 -0.12143489
000060 0d ed 22 3d fc 81 13 3f 07 80 08 3d 25 be 15 3f
       0.03977685 0.57620215 0.03332522 0.5849326
000070 82 c3 1f 3d 0d cb 06 3f 9d 9d c3 be
       0.03900481 0.5265358 -0.38206187
