results/7_iid/model_alone_n_2_m_0.pt (torch, 121552 bytes, 8 tensors)

Encoder.enc1.weight f4 [256, 22]
00000000: 3c35 743d 71a2 5e3d 7974 d3bd e62f 463d
00000010: 8f52 29bd e7fa ebbb 8fcb 653c 966b 48bd
00000020: 7335 2fbd 04bb 083c 3c2c 013d c3d5 78be
00000030: 6f6b eabc 164e 2abd aca6 e4bd de1c 8c3c
00000040: 4a77 893d 131a 97bd 48b1 0d3e eab8 5e3d
00000050: 9bef a73d c662 fcbc af1a 243c f771 88be
00000060: 19b2 31bd 4405 65bd 63b9 1bba 1f25 e03d
00000070: 47f6 d13d 9610 e63b fded 853b 0f14 533d
00000080: 8e0f 283d f068 86be 2ef3 31bc bdf0 eabb
00000090: 83ac 3eba 0159 9abd 21c4 f0bd 7a9d d5bb
000000a0: 0fd3 bdbd 80e7 bdbb 01eb 9bbc 522d 83be
000000b0: 6072 f3bb bf8e 56bc b43a 2abd 3195 423c
000000c0: bd09 103c a8d0 4b3d d495 cb3c 8622 05bc
000000d0: 3e59 c4ba fa42 57bc 331c 263d 69b8 4dbd
000000e0: 0409 1f3d 0caf 44bb 4e9c 3ebf 807c f93b
000000f0: a5e3 37bc 4c65 56bc 4add 8b3c e656 92bb
00000100: db15 02b9 a60a dd3b 0319 00be 7691 7a3c
00000110: 1ca0 81bd 5ba1 50bc 2fae 2cbd aac0 58be
00000120: 696f febc bc8c 4fbe f028 09be f81c 90bd
00000130: 41f2 06be 4a47 a2bc 1364 babd a882 8bbc
00000140: 3316 87bc 5060 afbc a4bf 323d 9b76 9ebb
00000150: 0fbd 15bd 1d52 2ebd 7684 f03c d24f c1bd
00000160: 6075 aebb 5cc8 d13d c146 073e 5a3d 55bc
00000170: 9be9 e7bb f896 b83b 0b32 c7bc ef2e ddbb
00000180: cc27 b9bd 9941 bbbd ee12 fcbc 94d6 143e
00000190: a25d b6ba 0fc5 aebd ecbe f43b be46 0ebc
000001a0: d449 273d 5369 853d 9b60 703d 940d b83b
000001b0: 361f 033c 7883 69bd 6368 edbd 9350 9bbd
000001c0: 64ba 55bd 33d1 1f3c d09e 42bc e309 5abc
000001d0: ea13 b3bd c3c9 8cbd 0ee4 a23c 93b9 893b
000001e0: 58d4 17bc cd88 b2bd 9742 30bd 8aae 3c3d
000001f0: 70ea 8dbd d334 4e3c 0621 35be 200e 5ebe
00000200: 879b cdbb c214 9c3b 243f 043d 89dd bebd
00000210: 2eb2 d2bd b3cd a9bd 8d86 7bbd 03b5 c33b
00000220: dc67 d3bd 6fa8 b53d bce2 fcb9 362c 2fbe
00000230: 6c8b 5abc 53db 213d 14b0 76bd d91c 5abe
00000240: c2e7 f7bd 3196 acbc 5089 233d 9a6b b33b
00000250: 4637 b6bd 1ef5 90bd 0c54 99bc a2a3 503d
00000260: 6b80 093d fdbd 77bd a706 2c3c 3f20 893c
00000270: 2908 d4be 1314 2b3c c993 4a3d bae3 533d
00000280: fc2a 4cbe 47df cf3d ac0c 9b3d 6ee9 bfb9
00000290: a2d7 c83b 276e 013e dc89 133d d387 d73c
000002a0: 1755 83be a479 39bd fc83 e03d b2e7 4f3d
000002b0: 7282 17bd adfb 05bd fa05 c13c e6ae 0d3c
000002c0: e210 fabb b2e2 46bd ce45 20bd 415b 09ba
000002d0: 0bc0 18ba 2ee1 da3c e9e7 0fbd 2517 eb3c
000002e0: 4ef1 74bd 6785 9339 ca7f 3fbd 1294 14be
000002f0: 9bab 5bbc 7e8a 71bb 80be 173d e05d 763c
00000300: a937 57bd b842 2ebd 0f2e bfbd f9ef 9dbb
00000310: e74d 903d ad8a 22bd 84f7 fcbb 405e 18bd
00000320: 681f 813c 7ab3 a0bd efc6 acbc 7c2f a439
00000330: 9292 05bc ae9b 3abe 96e0 c23b 1f4e 10be
00000340: c660 2ebd dc19 2cbe 4475 573d 995d 90bb
00000350: 54fe 12bd bdd8 7dbc 8af3 89bd 0a3a 353c
00000360: 9db6 1e3c e29d b53b 360c 423d 7131 febc
00000370: 339c c5bb ca36 d83b 4c44 fcbc 3765 9eba
00000380: 0e01 eebb cd6f a2bb ccd0 0dbc 40a2 16bc
00000390: 74c0 0ebc 81c9 55bc 391a e9b9 4d05 babc
000003a0: 7a37 00bd 01d0 63bc 5ce1 793a 0350 8a3b
000003b0: 4ecf 73ba 87ed 9eba 130d d2bb 3870 7d3d
000003c0: 2ef3 f33e bdb0 2b3b a759 54bd 4706 8bbc
000003d0: 54cf 323b cf59 51bb 77fc 10bc bd07 333d
000003e0: 932f 303c 95ab dc3c fa5f af3c 1d15 7eb9
000003f0: 431a b33d 11af 15be c729 9fbc 94c5 9f3c
0.05962108 0.054354135 -0.1032495 0.048385523 -0.0413385 -0.0072015407 0.014025583 -0.048930727
-0.042775583 0.008345369 0.031536326 -0.24300294 -0.028615681 -0.041578375 -0.11164603 0.017103609
0.06712206 -0.0737802 0.13837159 0.054375567 0.08199998 -0.030808818 0.0100161275 -0.26649448
-0.043382738 -0.055913225 -0.00059404055 0.1094458 0.10252052 0.00702102 0.0040872083 0.0515328
0.04103046 -0.26251936 -0.010861201 -0.0071698115 -0.0007273631 -0.075365074 -0.117561586 -0.006519017
-0.09268772 -0.005795419 -0.019032957 -0.25620514 -0.007429406 -0.013095557 -0.04155989 0.01187639
0.008791384 0.049759537 0.024851717 -0.008125907 -0.001498021 -0.013138527 0.040554237 -0.050224695
0.038826957 -0.0030011563 -0.7445725 0.0076137185 -0.011223708 -0.0130856745 0.017073292 -0.0044659255
-0.00012405908 0.006745654 -0.12509541 0.01529347 -0.063293666 -0.012733783 -0.042158302 -0.21167246
-0.031058984 -0.2026853 -0.13394523 -0.07036775 -0.1317835 -0.019809384 -0.09101119 -0.017030075
-0.016490078 -0.02140823 0.043639794 -0.004835916 -0.036557253 -0.042558778 0.029360037 -0.09439053
-0.005324051 0.10243294 0.13210584 -0.013015116 -0.0070774085 0.0056332313 -0.024315855 -0.0067499797
-0.09040794 -0.09143371 -0.030770745 0.1453498 -0.0013913403 -0.0853368 0.0074690487 -0.008683858
0.040841892 0.065142296 0.05868588 0.005616853 0.008003047 -0.057010144 -0.11592176 -0.07583728
-0.05217971 0.009754467 -0.011878684 -0.013308021 -0.08744033 -0.068744205 0.019884136 0.0042030304
-0.009266935 -0.08717499 -0.043032255 0.04606489 -0.06929481 0.012585836 -0.17688379 -0.21685076
-0.006274644 0.0047632167 0.032286778 -0.09319598 -0.10287891 -0.08291187 -0.061407614 0.005972506
-0.10322544 0.08870017 -0.00048234116 -0.17106709 -0.013338905 0.039515804 -0.060226515 -0.21300067
-0.12104751 -0.02106771 0.039925873 0.0054754736 -0.08897261 -0.070780024 -0.018716834 0.050937302
0.033569735 -0.06048392 0.010499633 0.016739009 -0.41412476 0.010441798 0.049457345 0.05173085
-0.19938272 0.10150009 0.07570776 -0.00036604278 0.006129221 0.12639676 0.036020145 0.026309883
-0.25650856 -0.04528202 0.10962674 0.05075807 -0.036989637 -0.03271072 0.02356242 0.008647656
-0.007631407 -0.048556037 -0.03912907 -0.0005239733 -0.00058269565 0.026718702 -0.035133276 0.02869756
-0.05980044 0.00028137417 -0.04675273 -0.1450961 -0.013407613 -0.003685623 0.03704691 0.01503703
-0.052543316 -0.042544097 -0.09334957 -0.0048198667 0.07046109 -0.039683033 -0.007719936 -0.03719926
0.015762046 -0.078467324 -0.021090953 0.00031315896 -0.008152621 -0.1822345 0.005947183 -0.14092301
-0.04257276 -0.1680674 0.052602068 -0.004405689 -0.035887077 -0.015493569 -0.067359045 0.011061201
0.009687093 0.0055425027 0.047374927 -0.031029435 -0.0060305833 0.0065983282 -0.030794285 -0.0012084608
-0.0072633093 -0.0049571753 -0.008655738 -0.009193957 -0.008712877 -0.013048531 -0.0004446076 -0.022707606
-0.031302907 -0.013904572 0.00095321774 0.004220964 -0.0009300605 -0.0012125232 -0.00641025 0.0618746
0.4764647 0.0026197874 -0.05184331 -0.016970767 0.0027284222 -0.00319444 -0.008849255 0.04370855
0.01075353 0.026937285 0.02140807 -0.00024231193 0.087452434 -0.14617564 -0.0194291 0.019503392

Encoder.enc1.bias f4 [256]
00000000: 99cb 97be ca94 81be c5ac f2bd 53a6 04be
00000010: c019 0b3e 0b05 05be 7dfc 283b 0cf7 87be
00000020: 2ae5 9bbe 0b64 3dbe d671 47be 83b4 7cbe
00000030: bf2d 15be a77a fa3d 99dc 89bd 9724 473b
00000040: 84e6 a63c c45a 393d 080c 80be 283b c1bb
00000050: 1d3c 4abe 4173 12bb 8937 7dbd 5aec babd
00000060: f5f7 e13d efe6 eabb 137c 24be 1a0a f7bc
00000070: 82a2 223e 7137 95be 57ab 90be 9037 98be
00000080: 136d d03d ec44 3bbe 9385 a43d 14d9 3fbe
00000090: 3af4 cc3c ccda 2dbb d97e 8ebe 63ca cdbd
000000a0: 48cc 22be f3a7 8d3c 6b8a d8bd b963 12be
000000b0: bbf6 053e 2c8c e23c d8fd dcbd 34ce b53d
000000c0: d697 8d3d 97ae 843d 3d6a a2bd 7143 103e
000000d0: 99f1 96be b465 29be 5aa1 81be 62f7 40be
000000e0: 519d 3abd ea99 6dbd 3a8b 013e 98ce 9dbe
000000f0: 66de 7bbe 066d 9e3d 9362 debd fd07 95be
00000100: 67b5 423e 8fb8 d7bd 74cb 99be 55bf 4a3c
00000110: aa29 c9bd 8196 b5be 9bf3 42be a7ff 803e
00000120: 99fa 3dbe 3d76 d6bd 0754 8a3b 5490 23be
00000130: 101c 4d3d 985a 43be c818 07be 705a 173e
00000140: 5b45 27be 462d 683e 4665 5fbe c9f0 e43d
00000150: 356b 303d 19c4 e83c 94c6 5ebb f911 9bbe
00000160: a988 7d3d 02d7 863d c0e0 bbbc 5c3a afbd
00000170: f9c6 bcbd be79 6f3e 892b 903e c37a dabe
00000180: 12ef 97be aeb6 953d d972 d03c 9b80 79be
00000190: 733e 48be b1d3 ecbd cf93 1cbe 999b adbe
000001a0: a626 60be 2ad9 2fbe 4164 f03d 3126 833e
000001b0: 3b70 10bd 036d d3bc cb37 62be 6fff 37bd
000001c0: 966a 273e f893 10be fca7 12be 6e24 293d
000001d0: 8a01 f7bd 3a2b 78be 49f0 8d3d 4003 613d
000001e0: af90 85be 11df babd 0b9c 4dbe 5062 8bbe
000001f0: 8266 0bbe 2267 d5bd 5df0 183d cdae 77be
00000200: c98e 1c3e dbc9 aabe f979 e43d 63fd 733e
00000210: 98cc 083e 13e4 1d3b 5f76 84be 6797 b0be
00000220: 2cdd 40bc 147c 683e 1730 2cbe f843 9ebe
00000230: 44c9 cb3d 26a6 a1be faeb 0bbe d40e 6cbe
00000240: d168 3fbe 9d97 8abe 05aa 583d 06e6 4bbc
00000250: 659f 44bd b705 cabd 9158 a3be 6457 003d
00000260: 9235 45be 2c65 ddbc 8799 4dbe 2074 91be
00000270: d6ad 3a3e deb0 a9be 874d 81be 7868 76be
00000280: 163d 0abe 1a3a 6f3c 6d95 cabd 63cb a2be
00000290: 353b 2b3e f1c4 5bbe a47c 22be f9a8 09be
000002a0: fe97 68be d5cd 083c 305d 093e db3b 2bbe
000002b0: 4055 7b3d 7e6b 38bd 5a00 e1bd 6b51 db3d
000002c0: 6b64 e1bd 4b5a 92be da25 d83d 6abf 8bbe
000002d0: 1b1a f0bd a98e 1b3e e48e d0bd 84e6 843d
000002e0: 73be 17be 4425 76be d301 3ebe 5965 9fbe
000002f0: 3bc8 53be 4973 7eba ed6a 2e3c af7b a8bd
00000300: 0da8 adbd e002 8ebe 40c4 f63d f810 cd3e
00000310: 5efb 92bd 426e d23c 0d6b 2a3e bb78 523e
00000320: e26b 5e3e 668b 003e 29c9 a0be 5929 babb
00000330: b477 2c3b 3526 edbd a732 d73c a0c6 47be
00000340: 58fe ddbc 00fb 63bb 306a 623d d508 67be
00000350: 3a4f 90be d299 4cbe e082 29be 0d4f 96be
00000360: ce30 4dbd 60ca 37be 7627 0abe 68dd 3f3e
00000370: 8a1d 52be 1264 f4bd d040 923c d86a babc
00000380: e451 a1bd b5fb 1dbe 03ce 87be 1745 c9be
00000390: 5b7f 64be 7a45 823d 88fd 37be b3e1 b5be
000003a0: 95b2 efbd 61e4 f6bc ecc6 1ebe 24e7 80be
000003b0: 1423 ecbd c096 f93d 55ca 19be b6c5 be3d
000003c0: f5ff 4bbe b828 75be 11e3 88be a739 713e
000003d0: 0ac2 88be 5c75 7cbe f1fb 58be d3bd 843e
000003e0: 76eb 92be fcd9 31bd 6cce 91bc 3c8e 31bd
000003f0: c796 773e dd57 bcbd 64c6 94be 59b0 2bbd
-0.2964752 -0.2530883 -0.118493594 -0.12954073 0.13584042 -0.12990205 0.002578526 -0.2655567
-0.30448276 -0.18495195 -0.19477019 -0.24678235 -0.14568232 0.12230425 -0.06731529 0.00303868
0.02037359 0.045252576 -0.2500918 -0.0058969446 -0.19749494 -0.0022346529 -0.06182054 -0.09127112
0.11033622 -0.0071686427 -0.16062956 -0.030156184 0.15882304 -0.2914386 -0.28255722 -0.2972989
0.10177054 -0.1828801 0.0803329 -0.18735152 0.0250188 -0.0026528118 -0.27831152 -0.10048368
-0.1589824 0.017291998 -0.10573276 -0.14295854 0.13082401 0.02765473 -0.10790604 0.08877221
0.06913726 0.06478613 -0.079304196 0.14088227 -0.294812 -0.16542703 -0.25318414 -0.18844369
-0.045560185 -0.058008112 0.12650767 -0.3082168 -0.24596557 0.07735638 -0.10858645 -0.29107657
0.19014512 -0.10533249 -0.30038035 0.012374719 -0.098224 -0.35466388 -0.1903824 0.25195047
-0.18552627 -0.10471771 0.0042214426 -0.15973026 0.05007559 -0.19077528 -0.13193047 0.14780593
-0.16335051 0.2267352 -0.21815977 0.111787386 0.04307099 0.02841382 -0.0033992874 -0.3028715
0.061897907 0.06583978 -0.022934318 -0.08556053 -0.092176385 0.23386285 0.28158215 -0.42671785
-0.29674584 0.07310234 0.025445389 -0.24365465 -0.19555072 -0.115638144 -0.1529076 -0.33907774
-0.21889743 -0.17172685 0.11737872 0.25615075 -0.03526328 -0.025808817 -0.22091596 -0.044921335
0.16349253 -0.14118946 -0.14321893 0.041294508 -0.120608404 -0.2423524 0.069305964 0.05493474
-0.26086947 -0.09124578 -0.20079057 -0.27223444 -0.13613322 -0.10420062 0.037338603 -0.24187775
0.15288843 -0.33357129 0.11156077 0.23827128 0.13359296 0.0024092242 -0.2587156 -0.3449051
-0.0117714815 0.22703582 -0.1681522 -0.3091123 0.09950498 -0.31572074 -0.13664237 -0.23052531
-0.18692328 -0.27068797 0.05289652 -0.012444979 -0.048003573 -0.09864371 -0.31903508 0.031333342
-0.19258717 -0.027025782 -0.20078097 -0.2840891 0.18230376 -0.3314275 -0.2525446 -0.24063289
-0.13499865 0.014601255 -0.09891782 -0.31795797 0.16721804 -0.21461846 -0.15867859 -0.13443364
-0.2271423 0.008349855 0.13414454 -0.16722052 0.061360598 -0.045024388 -0.10986395 0.107088886
-0.11005481 -0.28584513 0.105540946 -0.27294475 -0.11723729 0.1519114 -0.10183504 0.0648928
-0.14818744 -0.24037653 -0.18555383 -0.3113201 -0.2068185 -0.000970651 0.01064561 -0.08226716
-0.08479319 -0.27736568 0.120491505 0.4005201 -0.07176851 0.02568734 0.16642399 0.20553868
0.21720842 0.12553176 -0.31403473 -0.0056811986 0.0026316466 -0.11579553 0.02626927 -0.19509363
-0.02709882 -0.0034787059 0.05527705 -0.22561963 -0.28185445 -0.19980553 -0.16553831 -0.29357186
-0.050095372 -0.17948294 -0.13491616 0.18736804 -0.20519081 -0.119331494 0.01785317 -0.022756025
-0.078769475 -0.1542805 -0.26524362 -0.39310524 -0.22314207 0.06360908 -0.17967808 -0.35523757
-0.11703984 -0.030138196 -0.1550557 -0.25176346 -0.11530128 0.121869564 -0.1501859 0.09315054
-0.19921859 -0.23941314 -0.26735738 0.23557149 -0.2671054 -0.24654144 -0.21189858 0.25926074
-0.28695267 -0.043420777 -0.017798625 -0.043348536 0.2417861 -0.09196446 -0.2905761 -0.041916225

Encoder.enc2.weight f4 [40, 256]
00000000: 9b85 9ebc 6d89 0c3c 4caf f1ba 688a 8abb
00000010: dab6 063d 511c 643c b8f7 31bb e9b7 583c
00000020: 80e3 753c aeec 483d 780f 7d38 a47c fcbb
00000030: f0cb 433c 6a52 0a3b 73db 32bc 8704 06bd
00000040: 77f4 1dbc b9cd 0ebb ad98 86bb 333c a2ba
00000050: faca 54bb 6bfc 2dbb c610 fbbb 6e47 3fbc
00000060: 3a13 32bc 74de 8cbc 80c8 b4ba 2086 b83b
00000070: 5856 2abc e358 4cbc 490a d039 b39e ccbb
00000080: ec34 33bc 2b54 a73c e218 38bb 0225 233b
00000090: 82ed b13a 920a e93c ddbb 07bc 3294 0938
000000a0: f98c ed3a 1a20 7abd d697 843b eac8 e63b
000000b0: e31d 0d3a 908f b5bb 2ad4 66bb f2b4 fb3a
000000c0: 91ac ab3a 4bfe 65bb 66ec 43bc b2f7 9bbb
000000d0: 2d10 7a3b 88b3 7aba f9c8 4abc 84d5 7ebc
000000e0: 84f6 84bb 94ff 413c 0c53 2d3b 004d 39bd
000000f0: 112f e7bc 60c2 113c 05d0 24bd 8cbf 0f3b
00000100: 2c77 25bb b018 bcbc ac42 dc3b 08ca a43c
00000110: 1e93 2bbc ebad c53b 4925 52bc 6fec e13b
00000120: c8d6 98bc 69c9 54bc ee46 be3d 9168 9b3a
00000130: 9d34 bb3c 6bbf 9c3c 58c7 b6bc 134e aabc
00000140: 657d cdbc 10b3 9cba 2494 0dbc 0f8d 0b3c
00000150: 923b a93b 23ff 043c 9c7e 313c 6be5 8abc
00000160: 9e4d 1dba 3f7f fc3a 336b c8bb 5d6a d0bb
00000170: 8a2f 4e3b 2b76 acbc 6c93 39bc 561c 8e3b
00000180: 8ab8 01bc 83e9 3e3b a48d f9bc 22ae d03c
00000190: c6b4 173b e6dd 1b3b 1d33 b93c 0ac2 dbba
000001a0: 1486 e73b 2da4 e2bb b7c4 2b3a 0312 7fbb
000001b0: 5914 87bc 3999 12bd d130 acbc 3336 3d3c
000001c0: 8efd cdbb e573 1a3c 24be 12bc 6ad7 ec3a
000001d0: ee56 b8bb 99e6 8a38 9b2b 383b 5581 f23b
000001e0: 5dbc e8bb 1a05 46bb 129b aebb 1a21 c4b9
000001f0: b64d 6bbc 4235 773d 9179 7fbc 389e d13b
00000200: a122 b6bb ed83 363c 6540 483b a2de fc39
00000210: 5793 c63c cdd6 c5bb d774 08bb 9d3a c2bb
00000220: f505 98bb ff8a 4e3a 0fec c3bb cb5b 7bbc
00000230: 47b0 35bc 36b5 4abb 6f07 773a 502c 12bb
00000240: b264 333b e000 263c 590e c2bc 5239 ba3a
00000250: 8f4e 5cba 567b 813b dc2f d5bb 17cc 4d3c
00000260: 7da5 fe3b abfd c3b9 7d08 f03c d7be 35bb
00000270: 0932 013d cb7f 04ba cfd6 d83c c863 d83b
00000280: 1c3c 0b39 3c53 493b c66a a9bc 36c7 0b3c
00000290: 3582 67bc c3a7 1cbc 1c20 fdbb 3b6b 8e3a
000002a0: e415 073c d6f1 e53c a733 973a 45d9 e83c
000002b0: 2a06 99bc 58e3 963b a68c cb3c a6d2 b3bb
000002c0: 0686 143b ebba 6a3c 1506 b0bc 67b7 16ba
000002d0: d51e 7a3b e543 12bc 602c d93a f761 823b
000002e0: ce53 e0bc f17c 5c3b 1a13 ed3c 8cff 95bc
000002f0: 5e75 c6bb 5640 85bc e6be 853b 44c0 d13b
00000300: f96f f73a 48f4 babb 93b9 8abb 2031 a63c
00000310: a4cb c4bb bdf3 a73c 3a3b d0bb a505 d13c
00000320: 519c 6cbc 96b3 cabb 1440 98ba 857d 43bc
00000330: 9bdf 423b 94ac 8d3d d400 a1ba 9a8d b73a
00000340: aff2 c2bc 2d3c 20bb 5c60 e63c 3c95 2139
00000350: 8282 0e3c a357 0b3c 4ca5 00bc 3d4b e6b9
00000360: 19dd bdbc 95c9 1e3d 499c 8b3c c01f 0bbd
00000370: 0b1a 18bc 385e 9735 0c4f 153c 2881 583b
00000380: fb94 923c 75d0 0f39 789b 6b3c 8851 faba
00000390: c0e3 b03b 22c6 3f3c dc1c eb3c dfed e43a
000003a0: e071 33bc e606 153d ce8e 143c 1c74 3aba
000003b0: 3ff8 073c 517b 88bb dfa9 013b b5a2 773c
000003c0: d812 92bc 1982 093c a007 fdbb 3b83 3b3c
000003d0: 3a4e 923c ceea 0c3c 40fe eabb 536a 9e3b
000003e0: 83f4 b8bb ff45 c6bb cbf6 23bb a806 033c
000003f0: 5fa8 043d 4b8a f9bb 2bd1 d63c 3972 313b
-0.019350817 0.008577687 -0.0018439083 -0.004227925 0.032889225 0.013922767 -0.0027155709 0.013227441
0.0150078535 0.04905384 6.0334307e-05 -0.007705288 0.011950478 0.0021106252 -0.010916579 -0.03271916
-0.0096408045 -0.00217901 -0.004107556 -0.001237756 -0.0032469616 -0.0026548158 -0.0076619117 -0.011674745
-0.010868842 -0.017195918 -0.0013792664 0.0056312233 -0.0103965625 -0.012472364 0.00039680515 -0.0062445044
-0.0109379105 0.020425877 -0.0028091003 0.0024893885 0.0013574811 0.028447423 -0.008284536 3.2801363e-05
0.0018123678 -0.06106577 0.0040464206 0.007042994 0.00053831766 -0.0055407956 -0.0035221674 0.0019203706
0.0013097693 -0.0035094197 -0.011958217 -0.004759752 0.0038156614 -0.00095634954 -0.012377017 -0.015553836
-0.0040577073 0.01184072 0.0026447205 -0.04523945 -0.028220685 0.00889644 -0.040237445 0.002193424
-0.0025248034 -0.02296099 0.006721815 0.020115867 -0.010472087 0.0060326955 -0.012826272 0.00689464
-0.018657103 -0.012987473 0.092908725 0.0011856725 0.022852236 0.019134244 -0.022311851 -0.020789182
-0.025084207 -0.001195522 -0.0086412765 0.008517518 0.005164572 0.00811747 0.010833409 -0.016955098
-0.00060006406 0.0019263997 -0.006116295 -0.0063603357 0.003146144 -0.02105244 -0.011326652 0.004336874
-0.007917533 0.0029130883 -0.030463047 0.025473658 0.002314852 0.0023783385 0.02260738 -0.0016766202
0.007065544 -0.006916544 0.0006552445 -0.0038920648 -0.016489195 -0.035790656 -0.021019371 0.011548567
-0.0062863296 0.0094270455 -0.008956466 0.001806957 -0.005625597 6.623305e-05 0.0028102163 0.0074006715
-0.007102533 -0.0030215443 -0.0053285444 -0.00037408696 -0.014361789 0.060353525 -0.0155929485 0.006397035
-0.0055583273 0.011139852 0.003055596 0.0004823106 0.024240179 -0.006037569 -0.0020821595 -0.0059273974
-0.004639382 0.00078789884 -0.005979068 -0.015341709 -0.011089391 -0.0030930764 0.000942341 -0.0022304244
0.0027373252 0.010132045 -0.023688482 0.0014207757 -0.000840404 0.0039514704 -0.0065059494 0.012560866
0.0077711926 -0.00037382296 0.029300923 -0.0027732158 0.031541858 -0.0005054443 0.026469616 0.0066036917
0.00013278465 0.0030719778 -0.020680796 0.008531382 -0.014130165 -0.009561482 -0.007724775 0.0010865697
0.008244965 0.028069418 0.0011535779 0.028423915 -0.018679697 0.004604738 0.02484734 -0.0054877577
0.0022662892 0.014326791 -0.021487275 -0.0005749375 0.003816535 -0.00892732 0.0016569011 0.0039789635
-0.027383711 0.0033643807 0.028939772 -0.01831033 -0.0060564717 -0.01626603 0.0040815948 0.0064010937
0.0018877975 -0.00570539 -0.004233548 0.020287097 -0.006005721 0.020501966 -0.0063547166 0.025515387
-0.014441566 -0.006185959 -0.0011615776 -0.011931782 0.002973533 0.06917682 -0.0012283572 0.0014003993
-0.023797361 -0.002444993 0.02812212 0.0001540975 0.008698108 0.008504781 -0.00785191 -0.00043925075
-0.023176717 0.038766462 0.017042296 -0.033965826 -0.009283553 1.1277798e-06 0.0091130845 0.0033035967
0.017893305 0.00013715199 0.014380328 -0.0019097785 0.0053982437 0.011704953 0.028700285 0.0017465911
-0.010952443 0.036383532 0.00906725 -0.00071126386 0.008298933 -0.004165091 0.001978509 0.015114476
-0.017831251 0.008392834 -0.0077218562 0.011444862 0.017859567 0.008600904 -0.0071714222 0.004834452
-0.0056443824 -0.0060508247 -0.0025018926 0.007997192 0.032387134 -0.0076153628 0.026222786 0.0027076139

Encoder.enc2.bias f4 [40]
00000000: 1c18 43bc 9443 cc3b 2d5a 7c3c 1ecf 123d
00000010: c611 47bd cd4f 3fbd 3a6d e33c 3fe4 fd3c
00000020: 6378 883c cc28 17bd 00ea e53c d74e 853c
00000030: c3af 6a3d eb75 c0bc 7c8a 973d f65f c13c
00000040: 52fd 12bd 7f5b a037 4f29 49bc 9c3a aabc
00000050: 75da fd3c 92c7 413c fe26 1cbe 8a0f 63bc
00000060: 66c8 50be dd88 833c 5dff 08be 75db 7abc
00000070: ca84 6ebe eee2 66be 5530 1ebd 0866 ce3c
00000080: 41a4 3abe f36c cc3c 676a 2fbe ea1a 983c
00000090: 9a95 ab3c b3ea debc be5b 6ebc 03b2 14bd
-0.011907604 0.006233642 0.015402359 0.035842054 -0.048600934 -0.046706963 0.027762044 0.030992625
0.016658967 -0.03690414 0.028065681 0.016272945 0.057296526 -0.023493728 0.07399461 0.023605328
-0.035886116 1.9116093e-05 -0.012277915 -0.0207799 0.030987957 0.011827366 -0.1524925 -0.013858685
-0.20388946 0.016056472 -0.13378663 -0.015311112 -0.23292843 -0.22547504 -0.03862031 0.025195137
-0.1822672 0.024954295 -0.17130433 0.018567521 0.020945359 -0.027211523 -0.01454824 -0.036302578

Decoder.dec1.weight f4 [256, 20]
00000000: 2e9a a939 893a 02bb 48f5 2c3d 3734 103b
00000010: e7fe e93b 4219 e039 527c 3f3c 3c9d df3a
00000020: 16e3 07ba 65e5 6cbc d92b b9ba d89f 8cba
00000030: 4f63 4a3c de65 57bb 7cb3 74bb b0f7 af3a
00000040: 9f9a d13a 9226 1c3b 2b03 76bb 3c67 4fba
00000050: b7eb f7ba 72d9 353a d6fe b13c ea83 403b
00000060: 8d70 9ebd 0335 813a 35cc b73c 15b3 2fba
00000070: 3c56 7039 abe6 4ebb c7c7 fcba 3a17 4eba
00000080: 91e6 433c a691 cdb9 7d2f 23bb 5520 fb3a
00000090: ad1f 24ba 4f5e 923a 8a9d 87b9 767f 963a
000000a0: aae7 143b c828 193b 1b03 343c 4c9e 5cbb
000000b0: ef62 c43b 8e99 96b9 211d 26bc 3026 b8ba
000000c0: bb85 f9bb 3d2e ce3d 7929 87bb f8c0 bcbb
000000d0: 42fe 283d d974 a1bb b0ea e33b 3a12 56bb
000000e0: 9ded 5cba b05e 103b edff 523b 7651 643b
000000f0: ae09 493c e7cf 05bb f939 10bc 83bb 2e3a
00000100: caf8 75bd d2a2 9c3b cc59 313b 5b37 00bb
00000110: 9556 fbbb cdab 22bc 5625 8abb 875a 82bb
00000120: 56f3 d03c 18c4 db3b 1917 a13e 412c b53b
00000130: 35c5 ae3b b544 6c3a ea05 a9ba e856 4cbb
00000140: 0bec f93a 812c a0ba 8ddf 8dbb be25 e63a
00000150: 92fc 17bd ecfa 123b 887a e2bc 61ff d7b8
00000160: 820f b1ba 33ac ac3a 66c6 153a 9b44 d639
00000170: 5cbe 7c3a 0fcc 953a 035d edb9 8d79 6aba
00000180: 2cef 08bb 8daf 2ab9 7de1 70ba 8ae2 883a
00000190: 129f cfb9 bda5 15bc 7e1e 993c 1377 813b
000001a0: b556 89bd bffe 203b 29e3 c338 2bb2 973a
000001b0: 525f 8d3e 56d3 df3b 9bae 383a 200a 043a
000001c0: 146b 043d 72eb 94bb a04f 613c 6c00 29bb
000001d0: 89fc a9ba b9ac 0b3b 6a01 1aba 2a64 ee3a
000001e0: 0ef2 41bb 2810 06bc dace 98bc 084b 0a3b
000001f0: 80ed 1d3d 8eca 473b f70b 863c 5ccf 2f3b
00000200: 9a66 75bb 6caf cdbb 9a39 3a3b c536 2a3b
00000210: 4a6c 8bbc 7eea 1739 6ef3 9b3b bd1b 983a
00000220: 5e82 383b 6e78 5abb a68c 8cbb d395 16bb
00000230: 90d5 a7bb 3322 06bb d78d d73c c450 a03a
00000240: 9500 87bd 992a 743c 0c6f 2fbc 7021 1ebb
00000250: f75a 0c3f 1b3f 573c 74f6 27bc 1359 71bb
00000260: 84ae 713d 1f58 47bb 72e7 f43c b947 3cbb
00000270: 9f58 dcba 4fc3 073c 1580 96ba 695b 3cbc
00000280: 785b 973b b6c0 62bb 7ed4 d73c 59cb 013b
00000290: b198 1cbe 14aa 243b cf5e cc3b 796d 1c3c
000002a0: d4ab 6b3c e22d a9bc 7898 283b 3486 b6bc
000002b0: 5823 aa3d 2020 823c 7d2a 383f 1499 f5ba
000002c0: cb29 dabb fc61 03bc 2c13 633b 7af7 1ebc
000002d0: c3ec 1d3a 0444 b93a 1649 95bc 361a 8739
000002e0: 5eaf b43a e024 3fbb 4238 5f3a c65c 55ba
000002f0: 0716 a1ba eda9 23bc 33e5 0c39 4ec3 bc3a
00000300: f68a 8f3d fd01 c73a 0366 2c3b caea dfba
00000310: 1486 573b 6435 75ba cd32 a8ba bb11 a63b
00000320: d652 2f3b e788 b9ba 326b 363c 5c2d 593a
00000330: 8660 41bc e3df 97ba 7391 b4bc 87fa 45bb
00000340: 7e6b f1b8 e902 5f3d b1e3 a13a 208f 623a
00000350: ff9f 473c 2ca6 fa39 63c9 14bb 937f 1739
00000360: 836c e33a 2220 1739 5503 9e3a dec8 f43a
00000370: f4cb fbba ed40 523a f239 afbc 4299 4639
00000380: 11db 0e3c 9a1e fe3a fe43 ea3a 2ede 4cbb
00000390: e13b c0b9 8218 86bc 7b4d e23a f8d8 093a
000003a0: b0ec 813d 4f40 0dba 2e3a 0bbb 7a39 d439
000003b0: 85e5 e7ba f5b0 313b b455 9cba 8a2b 2d3a
000003c0: d993 6abb 5030 1bbb 26ae 773b e5d4 e33a
000003d0: 54a6 35bd e184 c8ba 4316 3dbc 4a48 523b
000003e0: 400e c83b cb30 cbbc 839e 69ba 7739 29bc
000003f0: d092 d93c 462b ed39 ec72 5c3e ff0a ebba
0.00032349065 -0.0019871315 0.042226106 0.0022003779 0.0071409824 0.00042743428 0.011687355 0.0017060409
-0.000518368 -0.014458989 -0.0014127448 -0.001072879 0.012352779 -0.0032867114 -0.0037338426 0.0013425257
0.0015991515 0.00238267 -0.003753851 -0.00079118065 -0.0018914853 0.0006937004 0.02172796 0.0029375502
-0.07736311 0.0009857718 0.02243624 -0.00067024055 0.00022920308 -0.0031570594 -0.0019285613 -0.00078617374
0.011956827 -0.00039209164 -0.0024900131 0.0019159416 -0.00062608236 0.0011167022 -0.00025866582 0.0011482078
0.002272109 0.0023370255 0.0109870685 -0.0033663688 0.005993239 -0.00028724637 -0.010138781 -0.0014049467
-0.007614819 0.10067413 -0.004124817 -0.0057603084 0.041258104 -0.0049272594 0.006955467 -0.0032664672
-0.0008427741 0.0022029094 0.0032196 0.0034838594 0.012270374 -0.002041811 -0.008802884 0.00066655147
-0.060051717 0.004780152 0.002706158 -0.0019564244 -0.0076702335 -0.009928656 -0.0042158766 -0.003978077
0.025506657 0.006706726 0.31462935 0.005528957 0.0053335675 0.00090129237 -0.0012895439 -0.003117973
0.0019067539 -0.0012220294 -0.004329628 0.0017558855 -0.037106104 0.0022427393 -0.027646318 -0.00010299567
-0.001350865 0.0013173878 0.00057134626 0.00040868376 0.0009641403 0.0011428612 -0.00045273462 -0.0008944504
-0.002089451 -0.00016277861 -0.0009188874 0.001044349 -0.00039600633 -0.009133753 0.018691298 0.0039509623
-0.06705991 0.0024565903 9.3406365e-05 0.0011573484 0.27611786 0.006830613 0.0007045061 0.0005036909
0.03232868 -0.004544669 0.013751894 -0.0025787605 -0.0012968938 0.0021312668 -0.00058748445 0.001818781
-0.0029593739 -0.008182563 -0.018653322 0.002110185 0.038556576 0.0030485722 0.016363127 0.0026826477
-0.0037445188 -0.0062770154 0.002841568 0.0025972587 -0.01701941 0.00014487837 0.0047592437 0.0011604946
0.0028153877 -0.0033335942 -0.0042892275 -0.0022977486 -0.005121894 -0.0020467162 0.026312752 0.0012231101
-0.06591908 0.014902734 -0.010707628 -0.0024128817 0.548263 0.013137604 -0.01025163 -0.0036826774
0.05900432 -0.0030417514 0.029895518 -0.0028729273 -0.0016811079 0.008286311 -0.0011482263 -0.011496403
0.004619058 -0.0034599728 0.026346441 0.0019805043 -0.15292622 0.0025125789 0.006236888 0.009547585
0.014384229 -0.020651761 0.0025725644 -0.02228079 0.083075225 0.015884459 0.7193983 -0.0018737637
-0.006657814 -0.008018967 0.0034648878 -0.009702558 0.0006024355 0.001413465 -0.018223327 0.00025768735
0.0013785174 -0.0029166266 0.0008515158 -0.00081391295 -0.001228989 -0.009989244 0.00013436824 0.0014401467
0.070089266 0.0015183088 0.002630592 -0.0017083522 0.0032886313 -0.0009353964 -0.0012832523 0.0050680316
0.0026752255 -0.001415518 0.011133956 0.0008284652 -0.011802798 -0.0011587109 -0.022042012 -0.003020914
-0.000115117975 0.054446135 0.0012351183 0.0008642543 0.012184142 0.00047807524 -0.0022703044 0.00014448007
0.0017351065 0.00014412453 0.0012055436 0.0018675586 -0.0019210563 0.0008020539 -0.021389935 0.00018939844
0.008719222 0.0019387782 0.0017873046 -0.003126036 -0.00036665707 -0.016369108 0.0017265523 0.0005258466
0.06343973 -0.0005388306 -0.0021244395 0.00040478614 -0.0017692304 0.0027113531 -0.0011927397 0.0006605914
-0.003579369 -0.002367992 0.003779301 0.0017382173 -0.044348076 -0.001529839 -0.011540952 0.0032086545
0.0061052144 -0.02480354 -0.0008911865 -0.010328642 0.026559263 0.00045236404 0.21528214 -0.0017932354

Decoder.dec1.bias f4 [256]
00000000: 85b8 9e3c e1c4 13bc 8ea5 03bd 4409 adbe
00000010: a517 013d cb44 8fbe 31cb c03c fd9d 83be
00000020: 5f96 0bbe 8200 be3b 8a33 333a 74dc 023c
00000030: 541d 1ebe bc2e 7fbe 9b99 28be edd8 013d
00000040: 8a64 7cbf 9746 cdbd a87d 463c f201 33bd
00000050: 0219 1b3d e60f 11be 1bea 07bb 1d16 ac3b
00000060: 4fd3 f0bd 1da7 9e3d a495 97be dbbd b0be
00000070: a98d 6abb 6e1b c8be 2860 853b 5eba 513b
00000080: 5bee 49bb 8cb9 093d db30 b53c 7b2e bebd
00000090: 9be5 8b3c e5ce 5c3b 984c 3bbe cea5 37bb
000000a0: 1622 083c 7dff 0fbe bc59 17bd 7453 1b3b
000000b0: 1072 373c c560 5f3b 2fbd a9bd b0d9 0b3c
000000c0: 79d0 8f3c 0f72 e7be d235 113c dc1a fc3a
000000d0: c737 303c bb32 a2be fb52 77be 18e2 41bb
000000e0: ca29 a9be e249 c03c 820e 023d c58f 1bbd
000000f0: 203b 7ebd 3da3 ddbc 6add 783c c43b 103d
00000100: 4937 0bbd 4918 b83c 572a f0bd 238f 1d3c
00000110: 4dc3 92be 6b1a 263c 8b41 fa3b 202f 3f3c
00000120: 67b5 e13a 9d19 903c e42d 15be 0f4b 163d
00000130: 8def c1bc 494b 843b b307 053d 1193 26be
00000140: 9006 d6bd 7ddd 26bb 7b68 923c 4b88 ac3b
00000150: a4da bfbe e8c4 b83d 16f8 4c3b d082 023c
00000160: fefd 103d fb7e e039 b8cc cbbd 6d46 c23d
00000170: f4f7 42be 6d20 7fbe 2035 1e3c 9837 b53c
00000180: 5a8e e1bc 20cf 9f3c 46ed 8d3c cddb 84be
00000190: 9e83 993c 912f 903b 2140 713c bd39 ba3b
000001a0: d8be ff3c 7640 d0be 1847 b2bd 33a6 373b
000001b0: e653 78be 010e ee3b 706a 7fbe 0dd3 bdbd
000001c0: ad9f 14be 77a3 dbbd 33c5 3abe 0efd 5d3c
000001d0: 1145 27bd b5a5 3bbe 0d9b 1a3c 9067 80be
000001e0: 48ec 6b3c e1a1 3b3c b402 003d 6cc4 00bd
000001f0: 0217 e13b b62e fd3c 2ac7 67be 3f46 7dbe
00000200: 68e0 a93b 32a8 98be ba52 7f3c 8bfd ac3c
00000210: df01 c1bd f0ee 283c d472 0bbe a6f7 7ebd
00000220: 2524 133c 85ed c43c b8f8 fe3c 2cfa 2ebc
00000230: 1899 db3b 83ea 753c 830e 95bd 393d 29bd
00000240: 3054 04be 03fb 77bc 252b bfbe 6c66 a83b
00000250: 6b2e 00bc 9233 adbd 6f74 06bd 20e0 4a3c
00000260: cb84 5b3c 0168 5139 2a72 d5be 7645 14bd
00000270: ab3f a8bb f43a a2bb 43e4 b83c e1bc 94bd
00000280: eb1e 9bbd 1667 05be 9ac4 013c 8e2f 6d3c
00000290: 216c aebd 9799 fe3c 89aa 693c 4562 0b3d
000002a0: a660 44be c5ea 053d effc 053d ae0e 573c
000002b0: 1fe4 b53b cbc4 ee3b 4222 86bd 24e5 ce3c
000002c0: a0bc c33c af14 1e3d a9cc 51bf 2473 c0bb
000002d0: 510c 073d 7eb4 96bb 552a 8dbe 066d bfbe
000002e0: 0273 8ebe e919 ab3b 4c91 29be 12d2 d5be
000002f0: 07b8 b1be 843d ea3c 32a7 98bd a95c 6bbe
00000300: b503 00bd 4482 17bd 4437 063d a1a5 cd3b
00000310: 121b 173d 11cb 993c 6718 83bd 49a9 bf3c
00000320: 3164 66bd 7ae2 c9bd 752d 90bd 74ed 88be
00000330: f39b e6ba 7a24 01bc 7e5a b83d 79f0 b23c
00000340: 087d 123d 9ecd 293c e6e4 a6be 927d 2bbf
00000350: 6b0f c3bc 3311 013d b03f b2be 17a3 203b
00000360: 23ca c4bd eef7 e33a 2317 b8be a755 a6be
00000370: 87db 0e3d 87b5 0e3d 2501 893a f5f1 f9bd
00000380: ee26 c8be 7009 e0be e00a 093d f49f 0ebe
00000390: 1d5a 89be 7bbb 503c 15d4 f73b 12f7 753c
000003a0: 42f7 2a3c 2ef4 2c3c 881e d53d 9ca3 613c
000003b0: 53e9 b03b e7af 0b3d 076a 5cbc 8d18 81bd
000003c0: 4f80 b4bb 65d8 62bb 39c4 1c3c 303c 92be
000003d0: ffee 2ebd 4d58 073d 88d0 21be 532f 61be
000003e0: e4b7 d43b 46ad 9abe 3af1 a43c 64b9 9fbe
000003f0: 0c50 acbd adf1 1cbe ca28 813c 323b b6bd
0.019375095 -0.009019108 -0.032140307 -0.33796132 0.03151669 -0.27982172 0.02353439 -0.25706473
-0.13631581 0.0057984004 0.0006835988 0.00798713 -0.15440875 -0.24920171 -0.16464846 0.031701017
-0.9859091 -0.100232296 0.01211492 -0.043703027 0.037865646 -0.14166221 -0.0020738903 0.0052516595
-0.11759054 0.07746718 -0.29606354 -0.34519848 -0.0035790002 -0.39083427 0.0040703006 0.0032001953
-0.0030812237 0.033624217 0.022118023 -0.09286209 0.017077258 0.0033692655 -0.18290937 -0.0028022411
0.008308908 -0.14062305 -0.03695081 0.0023700865 0.011196628 0.0034084779 -0.08288037 0.008535787
0.017555462 -0.45204207 0.008862929 0.0019234079 0.010755486 -0.3167933 -0.24152748 -0.0029584225
-0.33039695 0.02347273 0.031752117 -0.037978906 -0.062068105 -0.027055377 0.015189508 0.035213247
-0.03398827 0.022472518 -0.11726826 0.009616646 -0.28664628 0.0101381345 0.007637208 0.01166895
0.00172202 0.017590338 -0.14568287 0.036692675 -0.023673797 0.004037295 0.032478046 -0.16267039
-0.104504704 -0.0025461607 0.017872086 0.005265271 -0.37471497 0.09021932 0.00312758 0.007965758
0.035398476 0.00042819217 -0.099511564 0.09486089 -0.19039899 -0.24914713 0.009656221 0.022121236
-0.027533699 0.019507945 0.017325055 -0.25948945 0.018739518 0.0044002016 0.014724762 0.0056831525
0.031218931 -0.4067418 -0.08704966 0.0028022646 -0.24250755 0.007264853 -0.24942946 -0.0926877
-0.14514036 -0.10724538 -0.18239288 0.0135491025 -0.04083735 -0.18324931 0.009436381 -0.25079012
0.014399596 0.011452169 0.031252578 -0.031437322 0.006869198 0.030906063 -0.22634569 -0.24733828
0.005184222 -0.29815823 0.015583688 0.021116992 -0.09424185 0.010310873 -0.13618022 -0.062247895
0.0089807855 0.02403904 0.031124458 -0.010679763 0.0067016 0.015009525 -0.072781585 -0.041318152
-0.1292274 -0.015135529 -0.37337604 0.0051391628 -0.007823567 -0.08457102 -0.032825883 0.012382537
0.0133983595 0.00019970538 -0.41688663 -0.036199056 -0.005134543 -0.0049508754 0.022569781 -0.07262588
-0.075742565 -0.13027605 0.007920409 0.01447667 -0.08516718 0.031079097 0.01426185 0.034029264
-0.19177493 0.032694597 0.03271192 0.0131260585 0.005550876 0.007286643 -0.06549503 0.025255747
0.023893654 0.038593944 -0.8195291 -0.005873101 0.03297073 -0.004599153 -0.2757136 -0.37387866
-0.2782212 0.0052215946 -0.16559333 -0.41761833 -0.34710714 0.028593786 -0.07453765 -0.22984566
-0.031253535 -0.036989465 0.03276755 0.006275848 0.03689105 0.018773587 -0.06401139 0.023396151
-0.056247894 -0.0985765 -0.0703992 -0.26743662 -0.0017594084 -0.007882232 0.09001635 0.021843182
0.03576377 0.010363964 -0.3259651 -0.6698848 -0.023811063 0.031510543 -0.34814215 0.0024511272
-0.09608867 0.0017392614 -0.35955152 -0.32487223 0.034877326 0.034841087 0.0010452612 -0.12204353
-0.390922 -0.437572 0.033457637 -0.13928205 -0.26826563 0.012740011 0.007563124 0.015012519
0.010434927 0.010556264 0.10406214 0.013771918 0.005398908 0.0341033 -0.013453013 -0.06303511
-0.0055084596 -0.0034613844 0.0095682675 -0.28561544 -0.042708393 0.033043195 -0.15802205 -0.21990709
0.006491648 -0.30210322 0.020134557 -0.3119613 -0.08413705 -0.15326567 0.01576652 -0.08898009

Decoder.dec2.weight f4 [31, 256]
00000000: 4134 af3e 7f53 983e 9a34 e3bd e024 ae3d
00000010: 5eef 463e 53e1 3fbd 61c5 84be 1b39 c6bc
00000020: bc46 063c c0f6 983e aac3 bfbe 4236 003f
00000030: 5ec2 413d 5efe 7e3d edbf 773c e071 973e
00000040: 2b61 95bf 3357 043e 9b7d f13e 6bdd 5b3e
00000050: add4 d23d 76b5 e9be cef1 37bf 36a3 743e
00000060: 497d 043e cc4a a73d ff42 fbbc b32d 403c
00000070: da98 283f 2cc1 ad3d 9ba7 ef3d 46c6 153f
00000080: 515d 34bf 1bf5 923d 36cd 393f c0ff 6e3e
00000090: b894 223e 4d5e 36bf a050 9abc 9dc2 023f
000000a0: 79ba 063f bf23 7a3e 4ecf 853e 10a0 af3d
000000b0: 0eeb edbe 1605 eebf 84ea abbe 25b8 833e
000000c0: 6ceb aebf cd61 2dbc 60bb b23e 9a10 25bf
000000d0: 494e 94bf e721 873d 48dd e8bc c620 fdbc
000000e0: 732a 07bd 64a9 de3d 2533 8e3d 0586 a13e
000000f0: 392e a5bc f514 8fbe fa52 c1be ce40 133d
00000100: d9ca febe 923a 0bbf 1eef 95bd 5dc8 f23e
00000110: 5834 b33c 7670 363e 91e0 c73e 6df8 81bf
00000120: b84a f83e 756d 87bf 575b c3bc 4ff6 a63d
00000130: da45 9f3e b212 203f 68ef c53d 8ee8 d13b
00000140: 24aa 053d 75c4 aa3e 724c 48bf 69d5 033e
00000150: 260d 0c3d 7388 7b3e c8ec 89bf 3225 ed3e
00000160: 73c4 f93d c26f 12bf 9991 283e 5438 903d
00000170: 1e0e 2bbe dda7 203c d020 563e b957 88bf
00000180: b980 1dbf 8140 9a3e fe46 60bf 290d 523c
00000190: cf15 18bf 177f 0f3e 109a 6bbf df88 b1be
000001a0: 2235 cd3d 6dd6 65bc ff4d 553e ee45 31bf
000001b0: c91e 063d 0717 b9be 146c d13c ddfb 673d
000001c0: 3adc bc3b acc4 9abc bdfe 993d 87bc 4bbd
000001d0: 186b 1ebd fb70 b43c 9d69 933e 2cf1 66be
000001e0: 0e21 333f c45a 783d e0e5 a43d fc79 06bf
000001f0: 6a10 58bf be36 073e 1f76 adbc b6dc 1cbe
00000200: 2b4e 843e aa51 0bbd 89b1 43bf 78f1 c53c
00000210: c00e e1ba 5903 40bf 7ead 43bf 4f1a a1be
00000220: 72c7 cc3e 843f 8f3e d8f9 983d fa91 0b3f
00000230: 4045 fd3e 68d5 1f3f 4b95 96be e9ec 99bd
00000240: 4e82 c1be 0b7a afbd a019 abbc dc09 983e
00000250: cc80 0f3e 0793 b53d e33f 4f3d 8a5d a2bd
00000260: cff2 81bf c5ee f6be 1cc8 543b 68fa b33e
00000270: 7067 7b3e 8ae9 ebbd 7cbd c8be ac6e 283e
00000280: d3b2 a03d e431 083e 3bbc 0bbf 29d5 193d
00000290: 1764 ed3c 2146 6e3d f87a 973d f231 b93c
000002a0: 290f 323d 5033 993d 0b32 963d 7aa2 303f
000002b0: f7fd 9cbe 143b 5ebc 92de 883d 2ff1 1e3e
000002c0: 9d50 44bf 535a ef3d 6fc8 84bf 5245 ffbe
000002d0: 2499 913d cc7e 943e 9124 edbd 32e6 91bb
000002e0: cb5a 05bd b523 f83e dc7d e43d b4d6 723d
000002f0: 7522 d73d 9356 80bf 90ba c33d a55d 74bd
00000300: d70d 013d 68c4 e1bd c85b 693d fb21 d03e
00000310: 9a46 c43d 9da0 403e fcc7 413e f955 7a3e
00000320: c085 73bd 337c f53d d266 5a3e 5e2b 4fbd
00000330: 5584 af3e 3a79 37bd f763 7bbe 132e 33bf
00000340: 328a 9d3d bdc8 183d a612 0dbd c372 70bf
00000350: a479 0ebf 1ab4 3a3b d88e 03bd 1725 2a3f
00000360: 3b63 863c 65a4 233e f68d 3abc 9083 5fbb
00000370: 3793 0f3e 78d8 a63d db22 2bbf 26de 51be
00000380: 5c4b 953e dc2f 22bf 73d5 713d f209 42bd
00000390: 6d4c 003e 3878 17be 0f1f de3e e0b2 c43e
000003a0: 0428 8bbf 64c1 6d3d c9d4 643e fb9c b7bf
000003b0: 9edc 99be 184b 843d 2c4b 82be 6182 963d
000003c0: 0e7e 24bf ea4a 803e 0cd5 1f3e 2e6a 973c
000003d0: 4163 52bf f11c 873d 8237 133d 35a9 07bd
000003e0: 6194 fbbe a230 10bd 0047 32be 4cf3 80bd
000003f0: ad6d 653d fd4c b13b 93a0 a1bf 15c5 4e3d
0.34219554 0.29751202 -0.11094017 0.08503127 0.19427249 -0.046845745 -0.25931838 -0.024197152
0.008195575 0.29875755 -0.37453967 0.5008279 0.047304504 0.062254302 0.015121442 0.29579067
-1.1670278 0.12923889 0.47166142 0.21471183 0.10294471 -0.45646256 -0.7185334 0.23890385
0.12938417 0.08168563 -0.030671595 0.011729646 0.6585823 0.0848411 0.1170189 0.58505666
-0.7045489 0.071756564 0.7257875 0.23339748 0.15877044 -0.7123764 -0.018837273 0.51078206
0.52628285 0.24427699 0.26134723 0.085754514 -0.46468395 -1.8595302 -0.3357736 0.2572643
-1.3665595 -0.0105824 0.3490858 -0.64478457 -1.1586391 0.06598263 -0.028425828 -0.030899417
-0.032999467 0.108721524 0.06943349 0.3154756 -0.020163642 -0.27945676 -0.3775862 0.035950474
-0.49764135 -0.54386246 -0.073209986 0.4741849 0.021875545 0.17816338 0.39038518 -1.0153939
0.48494506 -1.0580279 -0.023847265 0.081524484 0.3110798 0.62528527 0.09664804 0.0064058965
0.032632962 0.3335301 -0.78241646 0.12874378 0.034192227 0.2456377 -1.0775385 0.4631744
0.12195673 -0.5720178 0.16461791 0.07041994 -0.16704604 0.009805647 0.20910954 -1.0651771
-0.6152454 0.30127338 -0.87608325 0.01282052 -0.5940828 0.14013325 -0.92031956 -0.34674737
0.100199 -0.014028174 0.20830534 -0.6924733 0.032744203 -0.3615038 0.025564231 0.05663668
0.0057635577 -0.018892609 0.075192906 -0.04974034 -0.03867635 0.02202653 0.28791514 -0.22552937
0.6997231 0.060633436 0.08051658 -0.52529883 -0.84400046 0.13204476 -0.021174489 -0.1531857
0.25840887 -0.034013428 -0.7644277 0.024162993 -0.0017170534 -0.7500511 -0.76436603 -0.31465384
0.39995915 0.27978146 0.07469529 0.5451962 0.49466896 0.6243501 -0.29410776 -0.0751589
-0.37794727 -0.085682 -0.020886242 0.29695022 0.14013976 0.08865934 0.050598036 -0.079279974
-1.0152224 -0.48229042 0.0032467907 0.35151982 0.24551177 -0.115191534 -0.39207065 0.16448468
0.07846608 0.13300282 -0.5458409 0.0375568 0.02897839 0.05817235 0.07396501 0.022606824
0.04347149 0.0748049 0.07333764 0.6899792 -0.3066251 -0.01356389 0.06683077 0.15521692
-0.76685506 0.1168715 -1.0373667 -0.49857575 0.071092874 0.29002988 -0.1157924 -0.0044524902
-0.03255729 0.48464742 0.11156818 0.059286788 0.10504619 -1.002642 0.09557068 -0.05965962
0.03150734 -0.1102379 0.056972295 0.40650925 0.09583779 0.18811269 0.18923944 0.24446858
-0.059453726 0.1198658 0.21328285 -0.050578468 0.3428065 -0.044793345 -0.24549852 -0.6999218
0.07692374 0.037300814 -0.034441613 -0.9392511 -0.5565436 0.0028488697 -0.03211865 0.66462845
0.016404739 0.1598068 -0.011386385 -0.0034105517 0.14021002 0.08146757 -0.6685006 -0.20494899
0.29159057 -0.6335428 0.05904145 -0.047372766 0.12529154 -0.14791954 0.4338307 0.3841772
-1.0871587 0.05804576 0.22346796 -1.4344782 -0.3005113 0.064596355 -0.25447977 0.073490866
-0.64254844 0.25057155 0.15608615 0.018483248 -0.821827 0.06597317 0.03594161 -0.033120353
-0.49136642 -0.03520263 -0.17409897 -0.06296405 0.056012798 0.005410789 -1.2627128 0.05048092

Decoder.dec2.bias f4 [31]
00000000: 93d6 70be 6cfc 8fbb 1898 0140 dcfe 10bd
00000010: 4417 7140 87fa e83d 1824 0ac0 6403 8a3e
00000020: a47e 51bd 511a 093e fc15 a53f 229a f23e
00000030: d85f b23f 92cc fbbf 1e8b f63f 33e6 cbbf
00000040: aecf 72bd 48d8 3e40 c975 b0bd 746f d1bf
00000050: 97e4 c7bd b0a9 d0bf 394e 00c0 c573 dbbd
00000060: 5fe3 e03c 57fb a940 1a00 c83d de6a ae40
00000070: e894 e33d 5401 2d40 e014 11c0
-0.23519354 -0.0043941047 2.024908 -0.035399303 3.767045 0.11375909 -2.158453 0.26955712
-0.051146165 0.13388945 1.2897334 0.4738322 1.3935499 -1.9671805 1.9261205 -1.5929626
-0.05928009 2.9819508 -0.08616216 -1.6362138 -0.09760397 -1.6301785 -2.0047743 -0.10715441
0.027452169 5.311931 0.09765644 5.4505453 0.11112386 2.703206 -2.266899
