results/7_iid/model_alone_n_2_m_1.pt (torch, 121552 bytes, 8 tensors)

Encoder.enc1.weight f4 [256, 22]
000000 6b 50 e1 bd 14 78 51 3d 36 09 f9 3d 08 63 5a 3c
       -0.11001667 0.051139906 0.1215996 0.013329275
000010 0c a3 15 3e 0d a9 0b 3e f7 1d d4 3d 99 e1 1c 3e
       0.14612979 0.13638707 0.10357278 0.15320434
000020 ce 4f ee 3d 3c a4 ab bd 48 2e a2 3c 7d 02 b6 3d
       0.11636315 -0.083809346 0.01979746 0.08887193
000030 0b d2 b0 3c a3 fb 5e bc 2f 5a 6f bb 38 a8 49 39
       0.021584531 -0.0136098 -0.003652226 0.0001923152
000040 8a 26 bd 3d 1e 10 b6 3d d2 ea 99 3d 6d 0a cc 3d
       0.09235866 0.08889793 0.075154915 0.09962926
000050 b6 9d ab bd 2b 61 fa bd 55 55 91 bb 65 1e bb ba
       -0.0837969 -0.122255646 -0.004435221 -0.0014276026
000060 25 24 76 be a7 aa 26 3b 82 73 a0 bb fa aa 31 3c
       -0.24037226 0.0025431307 -0.004896582 0.010843987
000070 d1 b2 f7 bb 6e 76 c0 bc ec c3 0a 3d 31 eb de bb
       -0.0075591584 -0.023493972 0.033878252 -0.0068029393
000080 fb f7 0c bb 8f 64 7f be 22 25 b4 3c 66 95 ff bb
       -0.0021510113 -0.24940704 0.021990363 -0.007799792
000090 c5 68 8b bc 01 03 4b bc 99 20 4c bb db cb a9 3c
       -0.017017731 -0.012390853 -0.003114736 0.020727089
0000a0 43 ec a2 bc 6e 1d 99 3b ce 7e b3 bb 2d 28 65 bc
       -0.019888049 0.0046726977 -0.005477763 -0.013986629
0000b0 66 89 44 3d 14 30 86 bc 3c 96 ba bb 4f 5c 8f 3d
       0.047982596 -0.016380347 -0.005694179 0.07000028
0000c0 96 bc 48 bd 45 f4 41 be 5b f9 a5 be 67 1d 9b bb
       -0.049007975 -0.18940838 -0.32416806 -0.0047337296
0000d0 fb 1a 13 3d 33 87 2e be 34 ed 3c be a0 0c 54 be
       0.035914402 -0.17043762 -0.18449861 -0.20707941
0000e0 1e 87 d6 3d d1 8e 1a 3d 4c f0 69 bc 0d ba 6a 3d
       0.1047499 0.037733857 -0.014278483 0.057306338
0000f0 39 23 e7 bd 4f da a4 bd e1 78 35 bc 01 4d 9e bd
       -0.11286015 -0.080494516 -0.011076183 -0.07729531
000100 b2 0e 05 3e 98 5c 11 bd 3b 93 2c bd cb 14 62 bb
       0.12993887 -0.035488695 -0.042132597 -0.0034497257
000110 c4 d5 11 3d 52 90 77 3c 86 32 e3 bc e3 a5 8f 3c
       0.035604253 0.015110092 -0.027734052 0.017535156
000120 9f b7 cc 3c 5f 28 ac bc 5b dc c5 3c 30 9f f4 bd
       0.024989901 -0.021015344 0.024152925 -0.11944425
000130 c0 3a 4a 3d 0b 0a 8d bc 4c a0 15 3d 4e d5 36 bd
       0.049372435 -0.017216703 0.036529824 -0.044637017
000140 34 67 36 bb ba b5 4e 3b 86 ea 1d bd 5a 4a be bc
       -0.002783251 0.0031541423 -0.038553737 -0.023228813
000150 5c cb 0f 3a 73 74 8c 3c be ec 4a bb 4d 38 10 3c
       0.000548532 0.017145371 -0.0030963863 0.008802486
000160 2e 4b 55 be 2d cb fa 3c b6 db c8 bd f2 9b 02 bd
       -0.2082946 0.03061446 -0.098075315 -0.031887002
000170 d5 df 9f 3c 8b 47 06 be 04 2d 0b be 0b df b8 bd
       0.019515911 -0.13113229 -0.13591391 -0.09026917
000180 d4 7d f9 bd e4 0c a9 bd 91 1c 2d b9 7a 9b 3e bc
       -0.12182203 -0.08254412 -0.00016509207 -0.011633748
000190 21 14 e3 bc aa 27 5d 3d 2e 99 5e 3d c1 2c 0e bd
       -0.02771956 0.053992905 0.054345302 -0.03471065
0001a0 50 ee 10 3d 74 2c a7 bd 33 4e 21 3d 0e f1 54 3d
       0.035383523 -0.08162776 0.039381217 0.0519877
0001b0 e7 4b 67 3c 06 3a 19 be 8d ae 08 3b 56 6b ca 3d
       0.014117218 -0.1496354 0.0020855993 0.09883754
0001c0 c1 6c 03 be 5b b1 21 3d 7e b6 4a be f0 26 ce 3b
       -0.12834455 0.03947578 -0.19796178 0.006291263
0001d0 db 95 12 bd ac fd 10 3d 74 32 a1 bd 91 16 06 bd
       -0.035787445 0.03539817 -0.07870951 -0.032736365
0001e0 bc 3a db bc 14 48 b3 bd b2 7e 06 3d b7 8a 98 bd
       -0.026761405 -0.08753982 0.03283567 -0.07448333
0001f0 93 7e 94 bd 76 e2 21 3d c2 2a dd bb a2 03 a2 be
       -0.072507046 0.03952261 -0.006749482 -0.31643397
000200 0f 11 5d bc 32 98 b2 3d b5 7a 17 3a f3 14 d5 3d
       -0.013492837 0.08720435 0.00057784776 0.10404386
000210 81 75 6f bd 78 31 90 bb 55 ff bf 3d 22 58 d3 bd
       -0.05846167 -0.0044004284 0.093748726 -0.103195444
000220 66 12 d4 3d 24 98 e8 ba 55 28 0f bb a8 41 0c 3c
       0.10355072 -0.0017745537 -0.0021844108 0.008560576
000230 1c 58 69 bc 54 ff bc bd f5 27 47 bd 04 f0 c4 bc
       -0.014242198 -0.092283875 -0.04862209 -0.02404023
000240 9e 09 b8 bb f3 8b 82 bc fb a2 e0 3d 48 b0 00 3e
       -0.005616381 -0.015935874 0.10968586 0.12567246
000250 ca cc 81 3d be d9 70 3d d3 eb 11 be 0d 01 4e bc
       0.063378885 0.058801405 -0.14250116 -0.012573493
000260 5b 24 03 3e b5 f7 e1 bd 64 3a c1 3c c4 99 18 3c
       0.12806837 -0.110335745 0.023587413 0.009314004
000270 09 8c 03 bc 08 54 18 3c 7f 1a 41 3d 57 d5 bc 3d
       -0.008028992 0.009297378 0.04714441 0.09220379
000280 d2 b6 fd 3b c0 90 26 3d 6c 47 1a bd 98 94 39 bd
       0.007742741 0.040665388 -0.03766577 -0.045307726
000290 e0 ba f9 bc 7f a9 91 3d 4f 3d c4 3c 2c 2f ab 3a
       -0.030484617 0.07112407 0.023955015 0.0013060323
0002a0 35 1a d7 3b 32 ef 9d be ef ec c5 3d e9 f9 82 bc
       0.0065644034 -0.30846554 0.09664332 -0.015988307
0002b0 37 f9 80 bd 07 81 f1 3c 10 72 0a bd 95 91 7d bc
       -0.06297534 0.02948047 -0.033800185 -0.015476604
0002c0 14 37 ab 3d 9b 0e 04 be af a8 a5 bd 16 df a6 bb
       0.08360115 -0.12896197 -0.080888145 -0.005092512
0002d0 9d bf 2f 3d 90 61 0a 3d 11 8e 2e bd 8f c2 86 bd
       0.042907346 0.03378445 -0.042615954 -0.06580078
0002e0 95 09 f9 3c 64 e9 6f bc 5a 19 14 3d 2b 21 91 3d
       0.030400077 -0.014643047 0.03615699 0.070864044
0002f0 8b f1 1f bb 2e df ef b9 c9 5d ec bb b6 55 f7 bc
       -0.0024405445 -0.00045751914 -0.0072133285 -0.030192237
000300 1c c7 90 bc cc 73 5f bd 18 54 12 bd 31 fd aa bc
       -0.017673068 -0.054553792 -0.03572473 -0.020872684
000310 ae 50 92 3d df 0e d6 bc 16 9a 95 3b 5c 3b c2 3b
       0.07144295 -0.026130138 0.0045654876 0.0059274863
000320 e1 9b 98 bc 76 08 6d bc 3d 22 20 3c c9 7f b8 3c
       -0.018629016 -0.014467349 0.009773788 0.02252187
000330 5e e6 1a 3b 93 3e 86 bb 8e 31 ef bb bd bd 87 3b
       0.0023635845 -0.004096815 -0.0072996086 0.0041424916
000340 d2 45 b9 b9 f4 69 0c bd 13 be bc 3c 39 4e 81 3b
       -0.0003533797 -0.034280732 0.023039853 0.0039460924
000350 44 27 01 be f0 6f 18 bf 3c b5 ff 3a 68 cb 32 3c
       -0.12612635 -0.59545803 0.0019508968 0.010912754
000360 84 0b e9 bb 57 51 1d 3b c3 79 89 bb 77 f5 6f bc
       -0.0071119685 0.002400478 -0.0041954233 -0.014645926
000370 7b ed 06 3d 87 b1 80 39 a8 11 5b 3d 38 9b 92 bd
       0.032941323 0.0002454633 0.053483635 -0.07158512
000380 74 65 6f 3d bf 47 55 3d 91 39 ec bb e2 e2 ea bd
       0.058446363 0.052070376 -0.007209011 -0.11469056
000390 81 a2 f6 bc cf 5c 6b 3d fd be 49 3d 8e 4d 10 3e
       -0.030106785 0.057461556 0.049254406 0.14092085
0003a0 a3 05 77 3c f7 c5 52 3c 57 7f 45 3c 83 01 8c bc
       0.0150770275 0.012864581 0.012054286 -0.017090565
0003b0 17 1e d4 3b b6 32 e8 3c b2 ab a3 3d 2a 40 93 3b
       0.0064733136 0.028344493 0.07991733 0.004493733
0003c0 45 d8 da bd 6f f1 d5 3d 3f f5 15 bd e0 32 78 3c
       -0.106857814 0.104464404 -0.036610838 0.015148848
0003d0 6d 73 4b 3d d6 68 4d 3c cc 3b 5b bc bd 21 e4 bb
       0.049670625 0.012537202 -0.013380956 -0.0069620297
0003e0 20 7a 6d 3d ff 3a 73 bc d1 23 5a bd b5 68 0e bc
       0.057977796 -0.014845609 -0.053256813 -0.008691956
0003f0 fd 7a 6c bc 51 6d 06 bc ac f0 8f 3c 84 6b 88 3d
       -0.01443362 -0.008204774 0.017570816 0.06661132

Encoder.enc1.bias f4 [256]
000000 d2 8f 8e 3c 9a 52 e9 3e 3a 8e 97 be 78 ee 26 be
       0.017402563 0.45570832 -0.29600698 -0.16301906
000010 31 f5 7b be 26 76 60 bd c3 0d 9b 3d 08 ec fc bd
       -0.24605252 -0.054800175 0.07570984 -0.12349707
000020 f8 b7 ab be 54 6c 84 be cb 9e 39 3e eb c6 83 3d
       -0.33538795 -0.25863898 0.18126981 0.06434425
000030 c0 67 99 bd 13 f5 66 bc af ad 82 3e a1 2d ae be
       -0.07490492 -0.014096516 0.25523135 -0.34019187
000040 a3 6e a1 bd 93 65 91 3e ec e1 a9 be f6 f8 3e be
       -0.078824304 0.28397807 -0.33180177 -0.18649659
000050 b5 75 e8 3d 1d ed 3a be 28 ce 04 be 4a d6 86 bd
       0.11350576 -0.18254514 -0.12969267 -0.06583841
000060 f8 ed 36 be 4d e7 d0 bd a1 82 e9 bc 2f fb ae 3d
       -0.17864215 -0.10200367 -0.028504672 0.08544003
000070 7c 76 74 3e 95 d4 8e 3d 03 f7 85 be ad c1 38 3e
       0.23873323 0.069741406 -0.26165017 0.18042631
000080 c1 cc 92 be fe f5 41 be 71 3e a5 bd a3 26 a2 be
       -0.2867184 -0.18941495 -0.080685504 -0.31670102
000090 15 a5 85 be 4d f5 db bd 2e 9b 8c 3e 05 3b cd 3c
       -0.2610251 -0.10740147 0.27462143 0.025052557
0000a0 c0 4b e7 bd 79 56 30 be 51 27 4a be 2f 7f 0a 3e
       -0.11293745 -0.17220487 -0.1974156 0.13525079
0000b0 0c 94 f4 3d 93 40 a1 bd 70 e4 17 3d 29 2b 55 bd
       0.119423 -0.07873645 0.03708309 -0.052043114
0000c0 9d 20 b8 3d 21 b3 2a be a8 f9 ce bc d9 25 f3 bd
       0.089905955 -0.16669895 -0.02526553 -0.11872453
0000d0 3f 59 1d bb 49 a8 8d be 4a fb 87 3d 3e c0 70 be
       -0.0024009494 -0.27667454 0.066397265 -0.23510835
0000e0 18 3e 81 bd cc 95 29 3e d5 98 bb be f3 4d 89 be
       -0.063106716 0.16561049 -0.3664004 -0.26817283
0000f0 6c 34 3c 3e 9a ac 8e be 97 4f 0b be 54 04 84 be
       0.18379372 -0.2786606 -0.1360458 -0.25784552
000100 e8 b8 a6 be ef 48 1b bd 7b 69 38 be cc e8 65 be
       -0.32562947 -0.03791135 -0.18008988 -0.22452086
000110 f8 32 96 be d2 c1 c5 bc 51 d3 2b be 85 fb 5a bd
       -0.2933576 -0.024140272 -0.1677983 -0.053462524
000120 5d 37 e3 3d 98 7a 44 be 5e 89 32 bd 10 6d 95 bd
       0.11094544 -0.19187391 -0.043588035 -0.07296193
000130 78 86 2c bd 7a dc 5d bd 93 3f 6c be d5 ae 7c be
       -0.042120427 -0.05416534 -0.23071127 -0.24676068
000140 60 29 1c be 57 d2 12 be 69 f1 2d be 6c 71 b3 3d
       -0.15250158 -0.14338051 -0.16986622 0.08761868
000150 49 d5 99 bd de 0e ad bb 67 a3 86 be 65 1f 54 be
       -0.07511384 -0.0052813133 -0.2629654 -0.20715101
000160 df 82 bf be 28 be 7c bd b2 fa 18 3e cc 25 7c 3e
       -0.37404534 -0.061704785 0.14939383 0.24623793
000170 fa 51 76 bc 14 46 0c be ab 9f 8c be 29 2d ba bd
       -0.015034193 -0.13698608 -0.27465567 -0.09090645
000180 bb 8e 92 3d d4 9c c1 bc 1e 1e 85 be f3 98 9b be
       0.0715613 -0.023634352 -0.2599954 -0.30390128
000190 5a ff ae be 9f e4 11 be c4 32 ae be ce bd 80 3d
       -0.34179193 -0.14247368 -0.34023106 0.06286202
0001a0 a6 ec 8b be 04 84 75 3e ff 92 36 be 8d b8 18 bc
       -0.27328986 0.23976141 -0.17829512 -0.009321344
0001b0 2d 64 83 be 1b cc 59 3e 8c 04 f0 3d 50 86 b0 be
       -0.25662366 0.21269266 0.11719617 -0.34477472
0001c0 5c 29 8f bd 8d ed 50 bc 6e 9e 62 be 0d d4 81 be
       -0.069903105 -0.012751949 -0.22130749 -0.25357094
0001d0 1d dd b9 bb ce 6d 07 be 7a c7 27 3d 33 bf 23 bd
       -0.0056721107 -0.13225481 0.04096172 -0.039977264
0001e0 da b4 37 3e 82 ac 9f bd ba fa 9f be 88 9b a4 3e
       0.17940083 -0.07796575 -0.31245977 0.3214991
0001f0 e8 54 c0 bd e5 15 02 be 66 d5 f5 bd b2 1a 3f 3e
       -0.093911946 -0.12703665 -0.12003593 0.18662527
000200 4e 6c a6 bd 45 b8 7a be 79 fa 95 bd 99 cf 8e be
       -0.08126126 -0.24484356 -0.073231645 -0.2789276
000210 af 16 c1 3d 3c d0 94 bd 53 e8 21 3d 34 4c a8 bc
       0.09428155 -0.0726628 0.039528202 -0.020544149
000220 e8 26 9e bd 9d 47 7e be 04 ce 17 be 78 9a ac 3d
       -0.077222645 -0.24832006 -0.14824682 0.084279
000230 a0 5e 25 be 42 20 f3 bd c7 31 46 3e d4 9f ce 3c
       -0.16149378 -0.11871387 0.19354926 0.025222696
000240 80 95 b7 bd 82 9b 34 3a 48 a1 8b be 9b f2 17 3c
       -0.08964062 0.00068896275 -0.27271485 0.00927415
000250 41 4e 0f be db 85 2a 3d fc c1 44 be 04 f8 07 be
       -0.13994695 0.04163156 -0.19214624 -0.13278204
000260 22 3d 72 3c 31 c6 30 be 56 93 2e be a0 5b 47 be
       0.014785083 -0.17263104 -0.17048392 -0.19468546
000270 db 7b 2c 3e 8d c1 0d be 5e d6 73 bd 2d 9d 97 be
       0.16844122 -0.13843365 -0.05953061 -0.29612103
000280 65 c8 46 3e 4c 41 31 be bb 26 0d be 99 50 84 be
       0.19412382 -0.17310065 -0.13784306 -0.2584274
000290 c8 ae 32 be fd 14 1e be 14 13 ea bd a7 4d c0 bd
       -0.17449486 -0.15437694 -0.1142942 -0.09389811
0002a0 4c 1e 95 be cd 02 df bd 25 e1 4e be 40 25 16 3e
       -0.29124677 -0.10889206 -0.20203073 0.14662647
0002b0 1a d7 9f bd e4 3b ad bd fc b7 b4 bc 7a 9e 44 be
       -0.07804699 -0.08458689 -0.022060387 -0.19201079
0002c0 aa 6d 33 be 54 f8 1c 3b 94 aa 4a 3e 76 30 73 be
       -0.17522302 0.0023951726 0.19791633 -0.23748955
0002d0 6d de 62 3e 50 b4 ae be e8 f2 20 3e 7b 0b 86 3e
       0.22155161 -0.34121943 0.15717661 0.26180634
0002e0 48 43 4d 3e 0b c4 7b be a4 fc 2f bd 83 35 3e be
       0.20045197 -0.24586503 -0.042965546 -0.185751
0002f0 54 34 ac bc e0 67 b6 be e3 53 c2 bc b8 e4 a6 3d
       -0.021021046 -0.35626125 -0.02372164 0.081490934
000300 f5 bc de 3d d7 2c 18 3d ed fb b4 be 47 46 b3 bb
       0.108758844 0.037152138 -0.35348454 -0.005471024
000310 bf bc 7b be cf 71 a3 bd d1 f4 cb 3d 7d 36 46 bd
       -0.2458372 -0.07980692 0.099588044 -0.048391808
000320 a0 41 fa 3d bc fd f8 bd f3 63 fc 3d 6c 10 99 bd
       0.12219548 -0.12157771 0.12323751 -0.07473835
000330 e4 23 3c be 1e 38 88 be 9a fe 74 bd de 2a 75 be
       -0.18373066 -0.26605314 -0.05981312 -0.23942134
000340 33 b5 2e be 16 15 a9 bc 09 91 8f bc 1b c0 4d be
       -0.1706131 -0.020639937 -0.017525213 -0.20092814
000350 d1 e0 c1 3c fb c4 a9 be 31 24 74 bd a6 de 23 be
       0.023666771 -0.33158097 -0.059604827 -0.16002902
000360 9a ac c8 bd de f6 35 3c 3d a1 e2 3d 5a c1 6d be
       -0.09798546 0.011106221 0.1106591 -0.23218289
000370 05 40 02 bd d4 a2 fc bd c4 b0 a6 3d 6c 83 7c 3d
       -0.031799335 -0.123357445 0.08139184 0.06164877
000380 3a bd 97 3e c1 1b d9 bd ad d1 7e be a6 29 71 be
       0.29636556 -0.10600997 -0.24884672 -0.23551044
000390 67 3f 27 3d 91 93 00 be fe 49 b2 be 30 4b 27 bd
       0.04083195 -0.12556292 -0.34822077 -0.04084319
0003a0 d5 de 89 be 54 f5 ca bd df 5c 4d be 8f e1 53 be
       -0.2692782 -0.09910074 -0.20054959 -0.20691513
0003b0 5c 34 83 bd 00 ae 08 bd 26 38 70 bd 22 f8 a2 3d
       -0.06406471 -0.033369064 -0.058647297 0.07957484
0003c0 70 c5 05 3e 4e 1b a7 bd 94 6c 1e 3e a9 94 03 be
       0.13063598 -0.08159505 0.15471107 -0.12849678
0003d0 94 e8 10 3d eb 39 9d bd 32 24 9a bd f2 5a 4c be
       0.035378054 -0.076770626 -0.07526435 -0.19956568
0003e0 9f 5c 99 3c 8d eb a4 3d f6 9d 0f bd 55 9e b8 be
       0.018720923 0.0805274 -0.035062753 -0.36058298
0003f0 b5 02 2c 3b f1 d3 f5 be 15 73 42 3d f2 3b e5 bd
       0.002624673 -0.4801326 0.047473032 -0.11193074

Encoder.enc2.weight f4 [40, 256]
000000 fe c1 e1 3b 87 ed a1 3b 43 98 f7 bc d2 2c dd 3b
       0.0068895807 0.0049416455 -0.030223971 0.0067497278
000010 84 54 b5 bc 25 d5 98 bb fe a4 a0 39 63 46 0d 3b
       -0.022135027 -0.0046640807 0.00030640507 0.0021556846
000020 a7 39 7e bc ee 1d db bb 41 ce 37 3c a6 65 90 3c
       -0.015516675 -0.0066869175 0.011218608 0.017626595
000030 67 83 bf bb 09 07 e8 38 33 fb 50 ba 25 8a 6f 3c
       -0.005844522 0.000110639325 -0.0007972002 0.014620339
000040 b6 19 18 3d 23 12 ec 3a a1 02 5d b9 1f 01 8c bc
       0.037133895 0.0018010776 -0.00021077182 -0.017090378
000050 9d fe 0a 3b 6a 69 bf 3c de 55 61 bc bf 05 91 bb
       0.002120889 0.023365695 -0.0137533825 -0.004425734
000060 4a 1b 10 3b 48 9b b1 3b b2 3d 3a bb b3 04 52 3c
       0.0021988922 0.0054201223 -0.002841812 0.012818503
000070 09 fc f6 3a 42 0d e5 3b 38 ee b5 b9 fd 07 80 ba
       0.0018843423 0.006990106 -0.00034700497 -0.0009768006
000080 be 66 c3 bb 77 41 7f bb fc 6b 0c bb 3a af 86 3c
       -0.0059631756 -0.0038948932 -0.0021426668 0.016440976
000090 23 ea 3d 3b da 85 47 3b ad 3a 09 3c da d5 bb 3a
       0.0028978668 0.0030444772 0.008375806 0.00143307
0000a0 1d 24 2d bd 2b de 8e bc 4c 43 f3 bb c8 68 4a 3b
       -0.04227077 -0.017439922 -0.007423794 0.0030885208
0000b0 19 19 7d bb 25 dc 69 bc 25 7e 12 bc e2 ef f1 ba
       -0.0038619696 -0.014273678 -0.008941208 -0.0018458331
0000c0 b8 3b 23 bc d9 36 0d bc 99 a8 e2 bb 88 6f 1b 3c
       -0.0099629685 -0.008619034 -0.006917071 0.00948704
0000d0 38 15 4a bc 82 ec dc 3b 76 9a e9 ba 2b 28 68 bc
       -0.0123341605 0.006742061 -0.0017822522 -0.014169733
0000e0 b1 3a 0d 3b cf 1e 85 b8 92 12 31 bc 48 4f 11 bc
       0.0021549875 -6.347673e-05 -0.01080765 -0.008869
0000f0 45 67 15 3b 09 97 8b 3c 9b 93 20 bc 1b 45 9b ba
       0.002279715 0.017039793 -0.009800817 -0.0011846157
000100 b9 d3 25 ba 96 08 bd 3c 96 a8 99 3b 58 ba 32 bc
       -0.00063257996 0.023075383 0.0046892865 -0.010908686
000110 43 b0 98 3b 7d 13 74 ba e4 08 ed 3b 3f b7 bd bb
       0.004659684 -0.00093107653 0.007233726 -0.005789667
000120 c4 e7 28 bc 45 e5 cf bb e0 57 13 3c 25 3a f5 39
       -0.0103091635 -0.0063444697 0.008993119 0.00046773363
000130 7f 5d 33 bc c3 d9 51 ba 31 db 7d ba a4 8a 94 bb
       -0.010947584 -0.00080051663 -0.0009683846 -0.004533129
000140 4d 43 93 3c a9 b9 08 3c 8b 3f 6d bc 52 93 69 bc
       0.017976427 0.008345046 -0.014480482 -0.014256315
000150 3e fe 18 3c e6 5a 05 3a a8 ab 4d bc cf 7b 41 bc
       0.00933796 0.0005087092 -0.012553133 -0.011809303
000160 ed e9 86 bb 5f 70 68 3c 51 63 10 3c 6e 76 78 bc
       -0.0041172416 0.014186948 0.008812741 -0.015164955
000170 4b b4 62 3b 80 90 d1 b9 01 9c 85 3c 99 4e 95 3b
       0.0034592326 -0.00039971247 0.01630974 0.0045564887
000180 22 6c 40 bb bb 67 07 bd 4d 03 fc bb 8f dc c4 3c
       -0.0029361327 -0.03305791 -0.007690823 0.024030952
000190 ab 35 34 3c 62 ba c5 3a 09 a0 a3 bb 20 61 e2 bb
       0.010999124 0.0015085454 -0.004993443 -0.006908551
0001a0 9e f4 93 b9 e6 a9 e8 3b 81 7a 35 3c 2a a7 f3 3c
       -0.0002822028 0.0071003316 0.0110765705 0.029742796
0001b0 dd 9c 9d 3c b8 b8 a9 bb 7a 53 52 bc 2c d7 02 3d
       0.019239837 -0.005179491 -0.012837285 0.031943485
0001c0 a3 25 70 bc 78 38 ec 3c f0 43 0f 3c 91 51 11 3b
       -0.014657411 0.02883552 0.008744225 0.0022173862
0001d0 2c f9 b7 bb 44 51 c0 ba 52 6c 98 bb 3f 5a b2 bc
       -0.0056144204 -0.0014672657 -0.0046515847 -0.021771548
0001e0 69 b9 86 bc c4 a5 d0 bb 2d 5b 35 3c d6 78 4c bb
       -0.016445832 -0.006367417 0.011069101 -0.0031199954
0001f0 87 76 9e 3b 67 58 f9 3c 29 51 96 3b 5a d5 9b 3a
       0.004835907 0.030437661 0.0045873118 0.0011889145
000200 14 f9 3f 3b 0e 4a bc 3c f7 e7 5d 3c 9c 00 13 3d
       0.002929275 0.02298453 0.013544074 0.035889253
000210 50 3f cf ba 65 ac e0 3b 39 5f 05 bd 2c 23 55 3a
       -0.0015811715 0.0068564885 -0.032561515 0.0008130546
000220 38 39 8c 3b 31 f1 27 bb 62 e0 98 3c d1 f8 0e 3c
       0.004279282 -0.002562594 0.018661682 0.008726315
000230 e8 ca cd bc b3 09 8c ba 1e 4d d6 39 57 7d 06 bc
       -0.025121167 -0.0010684043 0.00040874718 -0.008208594
000240 73 76 02 bc b2 8b e5 3c bd 69 8d 3c 66 55 51 3b
       -0.007962811 0.028020713 0.017262334 0.003194177
000250 dd 50 95 bc 75 57 2c 3b 2b 77 ca bc 1b 72 58 3a
       -0.018227035 0.0026297246 -0.024715027 0.0008256749
000260 45 45 17 bd 07 79 fc 3b 76 ea 51 bc 6f d5 c2 3c
       -0.036931295 0.0077048573 -0.0128122475 0.023783414
000270 01 a9 38 3c 2d 1b 0c 3a 96 c5 94 3b 46 a6 2d bb
       0.011270762 0.00053446257 0.0045401556 -0.0026496812
000280 a0 35 42 3c 46 54 dc 3c ab b5 a2 3b bf b0 2e 3c
       0.0118536055 0.026895653 0.004965504 0.010662257
000290 45 57 c8 3b 56 ce 4e bc 22 94 53 bc e5 b8 10 3a
       0.006113919 -0.0126224365 -0.012913736 0.00055207155
0002a0 e6 4e d5 ba f2 1a cc bc fc fe 14 bb 92 18 f9 b8
       -0.0016274124 -0.024915192 -0.002273499 -0.00011877822
0002b0 be 7a 02 3d 0e ca a8 3b 6e 92 45 bc e8 44 9c bb
       0.031855337 0.00515104 -0.012058837 -0.0047689565
0002c0 14 b6 4d 3c 8a 0e bc bc 8b c8 52 3c bf 82 49 3a
       0.012555618 -0.022956152 0.012865196 0.0007687024
0002d0 bf e9 18 bc 2f ce 6d 3c 45 17 a9 3c ba 59 56 bb
       -0.009333073 0.01451449 0.020640979 -0.003270729
0002e0 a3 6b 6e 3a f7 44 a4 bc ed be 56 bc 8e c0 96 bb
       0.00090950186 -0.020052416 -0.013107044 -0.004600591
0002f0 be 0c 00 bc 50 fb a3 bc 07 cb 05 3d 79 b2 a4 ba
       -0.007815538 -0.020017296 0.032664325 -0.0012565396
000300 b6 ad c3 35 d4 16 4e 3b b8 ca 2f bb 05 a5 19 3a
       1.4579189e-06 0.0031446712 -0.002682371 0.00058610766
000310 fa 64 0e 3c be 72 a6 39 ea 0e 64 3c af ce 32 3b
       0.008691067 0.00031747477 0.013919571 0.0027283838
000320 69 6d df bb a7 e4 0a bc 0d 9b 48 bb 14 ac 2f 3c
       -0.0068184626 -0.0084773665 -0.0030609996 0.010722179
000330 55 bc 0c b9 77 cd de 3b 88 04 b3 3a 6b c9 1c b9
       -0.000134216 0.0067993957 0.0013657967 -0.00014952353
000340 f0 a1 cb 3a 4f dd 91 ba d4 0b 96 39 8b 2c a8 3b
       0.0015535932 -0.0011128577 0.00028619042 0.005132263
000350 4f c7 27 3b 0c 6a 7a bc 6c 98 30 3a 0a fb 7d 3c
       0.0025600975 -0.015284073 0.000673658 0.015501747
000360 08 c2 83 3c a8 11 f5 3b 25 6e c2 3b 29 7d 9b bb
       0.016083732 0.0074789114 0.0059335404 -0.004745145
000370 06 8a 19 3c c8 d3 37 bc 5c 5f a0 3b 00 d6 00 3b
       0.009371286 -0.011219926 0.00489418 0.0019658804
000380 dc e7 ee 3a b4 2e d2 3a a7 1b 94 bc 19 96 ea ba
       0.0018227058 0.0016035647 -0.018079592 -0.0017897516
000390 3d 17 81 3b 25 3d 42 3c 4e 78 f1 bb 2c 3b 44 ba
       0.003939538 0.011855398 -0.0073690778 -0.0007485624
0003a0 a8 e2 7d 3b 39 f7 a7 bb a4 78 56 bc a4 3a b5 3a
       0.0038739834 -0.005125907 -0.013090286 0.001382668
0003b0 ed 70 7d 3b d9 e8 00 bd 8b e2 6a 3c 24 06 e7 3b
       0.0038672045 -0.03147206 0.014336239 0.0070502926
0003c0 a5 50 c6 3a 0a d5 0e bb a1 5b 2a 3a 42 77 01 b9
       0.0015130235 -0.0021794462 0.0006498639 -0.00012346826
0003d0 d9 b8 11 3c 25 99 df 3b 69 e4 91 3c 03 b2 2f 3c
       0.008894169 0.006823676 0.01780911 0.010723594
0003e0 48 8c 4e bc ff 82 a9 3b 6f ad 70 3b 21 1d af 3a
       -0.012606688 0.0051730867 0.0036724468 0.0013360122
0003f0 73 81 89 3b 66 7e 88 3c d1 79 44 ba d4 d4 39 3a
       0.0041963398 0.016661834 -0.00074949587 0.0007088904

Encoder.enc2.bias f4 [40]
000000 d3 4e 07 bc 7c 15 14 3d 68 ef 81 3d 96 54 87 3b
       -0.008258539 0.0361533 0.06344491 0.0041299565
000010 27 e9 69 3c f9 3e e2 3b f2 00 34 3d af a8 03 bc
       0.014276779 0.0069044796 0.043946214 -0.008035823
000020 81 26 95 3c 23 e2 5b 3c a9 a6 09 3c 18 3f 1c 3d
       0.018206837 0.013420614 0.008401551 0.03814611
000030 4c 25 84 bc 68 22 ff bc b6 af c9 3b 63 71 98 bc
       -0.016131066 -0.031144336 0.0061549796 -0.018608755
000040 5f 31 c8 3c fe 57 02 3d b8 bc 93 bc 17 1b d1 3c
       0.024437604 0.031822197 -0.018034324 0.025525613
000050 ad cb e3 bc 17 5a db bc d6 32 62 be 6e ef df 3c
       -0.027807081 -0.026776357 -0.22089705 0.027335849
000060 43 50 65 be 43 f6 ca 3c fe 91 3f 3c a8 93 5a be
       -0.22393899 0.02477563 0.011692522 -0.21345389
000070 01 b6 11 3d 45 64 35 be d2 3e 48 be 12 51 61 3b
       0.035573963 -0.17714031 -0.19555214 0.0034380597
000080 0f 78 43 bc 20 64 6a bc dd fe 3e bc 34 c5 ec bc
       -0.01193048 -0.014306098 -0.011657444 -0.028902628
000090 24 d0 4c be 13 ae 3d be 0e 8b cb bc 82 63 c9 bc
       -0.20001274 -0.18523435 -0.02484658 -0.024583582

Decoder.dec1.weight f4 [256, 20]
000000 52 56 48 3b 2d be 82 3b 6c 8a 93 3e 98 e7 ef b9
       0.003056903 0.003989956 0.28816545 -0.00045758183
000010 90 0e cf 3a ce 79 72 b8 f8 a8 11 3a 6f 69 5a 3d
       0.0015797187 -5.7810736e-05 0.00055564893 0.053323206
000020 2b f8 1b bc b3 a5 f1 bb 05 4d d8 3b 37 17 e8 bb
       -0.009519617 -0.007374489 0.0066009783 -0.0070828456
000030 ed 39 ac bb 12 55 c3 3b ea bd 90 3b b9 39 a1 bb
       -0.0052559287 0.005961069 0.004417171 -0.004920211
000040 0b a2 36 3b 38 aa 2e 3c ae 1f 47 3a 50 17 b8 39
       0.0027867581 0.0106607005 0.0007595968 0.00035112584
000050 70 c2 c3 b9 41 72 fe b9 8f 2a 46 3a b5 ef 4c ba
       -0.00037338166 -0.0004853178 0.00075594423 -0.00078177016
000060 f5 1c c2 ba 1f 80 ac 39 2d 5c bf 3a 46 8a b7 3b
       -0.0014809655 0.00032901854 0.0014599614 0.0056012003
000070 31 80 fe b7 54 92 5c bd 6e 60 f3 3a c3 c2 a8 b9
       -3.0338853e-05 -0.053850487 0.0018568167 -0.00032188566
000080 9a 07 fc 3a 75 a1 68 39 bc 81 74 3a ca 07 89 38
       0.001922834 0.00022185392 0.0009327193 6.53412e-05
000090 69 8d 7b 3b a7 5f cc 3b 5e 2b 1d bb d1 91 e6 ba
       0.0038383848 0.0062369886 -0.0023982148 -0.0017591064
0000a0 95 f1 bd 3a 26 1a 24 ba 69 af 85 3e 40 c9 a9 bb
       0.0014491553 -0.000626 0.2611039 -0.0051814616
0000b0 08 bb 66 3b 35 35 b0 3a e3 77 0c bc d8 5b 06 3d
       0.0035206694 0.0013443591 -0.008573505 0.032802433
0000c0 24 cd 94 bb 25 c1 3d bc da 8f 8f 3c e5 3a da b9
       -0.004541056 -0.011581694 0.017524648 -0.0004162408
0000d0 a0 b5 9d ba 3e 22 5e 38 fb 79 9b 3a 0e 48 49 ba
       -0.0012032278 5.2960815e-05 0.0011861915 -0.00076782785
0000e0 b9 ad 4d 3c 15 4e 1d 3c 6d 3f 6e 3b 39 0b 2f bb
       0.012553626 0.009601136 0.0036353723 -0.002670957
0000f0 14 98 60 3b 4e 74 a5 b9 c9 65 a9 bb 31 bc 77 3a
       0.0034270333 -0.00031557906 -0.0051696044 0.0009450345
000100 48 b1 cb 38 65 c3 49 ba 07 3b 9d 3b fb d8 0b 3b
       9.7128155e-05 -0.00076966576 0.0047982964 0.0021339047
000110 f6 2d 8a 37 49 37 84 bd 23 83 96 b9 62 b6 4d b8
       1.6472284e-05 -0.06455857 -0.00028707934 -4.9045666e-05
000120 f8 c0 26 ba 04 e5 35 38 2f 1d 61 ba c6 40 0a 3b
       -0.0006361152 4.336705e-05 -0.00085874175 0.0021095737
000130 86 79 da 3a 96 01 e2 bc bb ba f2 39 f2 58 9f b9
       0.0016668297 -0.027588647 0.00046296962 -0.00030393113
000140 9d 26 0b ba 1d 13 19 ba 1f 89 80 3a 10 2a ad 3a
       -0.0005308183 -0.0005839335 0.000980649 0.0013211388
000150 56 5a 2c ba 8c 7e 08 3b c7 b8 a4 39 af f1 58 3c
       -0.00065747404 0.002082738 0.00031418187 0.013241216
000160 c2 8d 63 bb a3 08 bd 3a 6a f2 ce 3c 7c b2 46 bb
       -0.0034721945 0.001442213 0.025262076 -0.0030318787
000170 bc c4 53 bb 22 0a 5e 3b a1 e6 20 ba b5 13 94 39
       -0.0032313308 0.0033880551 -0.0006137882 0.00028243443
000180 90 cb 62 3d 32 70 9b bb 8e ee 4d ba ef 02 23 bb
       0.055369914 -0.0047435993 -0.0007855677 -0.0024873575
000190 91 fc 00 3c 50 19 98 3b d9 b8 09 3d 1b 6b 73 bc
       0.0078727165 0.0046416894 0.03362355 -0.014857079
0001a0 55 a4 a6 3e 3d 73 78 3b 63 d2 21 3b a9 d2 17 3d
       0.3254725 0.0037910484 0.002469205 0.037066136
0001b0 db 60 06 3c 29 d0 cd bc b8 a4 af bc 10 73 25 3b
       0.008201803 -0.025123673 -0.021440849 0.0025245585
0001c0 2c 5e c4 bb 64 77 65 3b 24 71 a0 39 d8 57 c7 39
       -0.0059926715 0.003501379 0.00030601874 0.00038021686
0001d0 9b ff 32 3c d5 9f 08 3c 24 97 f7 3a 3d 9f 98 ba
       0.010925199 0.008338888 0.0018889648 -0.0011644136
0001e0 6e 63 e6 3a 23 10 50 ba b7 2a 98 3b 05 b1 92 b8
       0.001757724 -0.0007936975 0.004643764 -6.994795e-05
0001f0 8f ea 88 3b 64 94 87 ba 77 3c e2 39 d6 30 1e bc
       0.004178352 -0.0010343906 0.0004315113 -0.009655198
000200 81 2f 2a bb 51 0e 20 3d f8 75 d7 b9 b1 23 d7 39
       -0.0025968256 0.039076153 -0.0004109589 0.00041034588
000210 0a 75 3a bb ca 0e ea ba ee 3b 2c bb 44 b3 4e ba
       -0.0028451108 -0.0017857191 -0.0026280838 -0.0007884989
000220 92 38 b6 bb 10 24 05 bb e7 f8 06 3b 7c 8e ce 3a
       -0.005560943 -0.0020315684 0.0020595135 0.0015759016
000230 d8 ea 63 3b 1d a6 45 3b a3 c0 a0 bb 6b c0 5a bb
       0.003477743 0.0030158826 -0.0049057766 -0.003337885
000240 0b d3 01 3c a4 ea f0 bb 14 9e c7 bb 6c 36 4e 3d
       0.007923852 -0.00735219 -0.0060918424 0.05034487
000250 14 07 43 3b 08 1d 81 3b a5 11 57 3d 57 a1 c8 bb
       0.0029758858 0.0039402284 0.05250706 -0.006122749
000260 e3 c5 58 3a 4e a7 8f bb 9b bf 5e 3b 89 6e 37 bc
       0.00082692335 -0.004383958 0.0033988717 -0.011195787
000270 76 e6 81 3e 55 24 b6 bc ef 96 99 3b cb 36 ba 3b
       0.2537114 -0.022234121 0.004687182 0.0056828014
000280 4a f1 35 3b 41 e8 3b 39 43 03 eb 3a d3 4a 14 3b
       0.0027762228 0.00017920231 0.0017930049 0.0022627607
000290 2d 59 80 3b 97 39 5b 3b c4 e0 36 bb 6d 0d e3 bc
       0.0039168806 0.0033451074 -0.0027904967 -0.027716363
0002a0 9c 8d 01 b9 78 33 09 bc c1 03 c9 bc bf 8f 64 ba
       -0.00012355152 -0.0083740875 -0.024537923 -0.00087189296
0002b0 8e 31 98 ba de 67 e3 3a 98 cd 1d 3b c0 d9 41 3b
       -0.0011611448 0.001734968 0.0024078842 0.0029579252
0002c0 11 ec b6 bd 14 2d 77 3b 76 5a b1 ba 4b c4 02 b9
       -0.08931745 0.0037716078 -0.0013530988 -0.00012470891
0002d0 b4 0a c7 ba 31 43 c7 37 e1 8c 44 bb 83 dd 8b ba
       -0.0015185685 2.3753937e-05 -0.0029991197 -0.0010670874
0002e0 7a f1 2c 3b 91 58 37 ba b8 20 b7 3a 9a e9 c4 3c
       0.0026389048 -0.00069940934 0.0013971543 0.024037171
0002f0 86 9c 4a ba bf bc ca 3c 55 64 2f bd 8e 14 94 b9
       -0.0007729012 0.024748204 -0.042820293 -0.00028244074
000300 d6 45 58 3a cf e0 ca ba 35 1c ec 3a 02 fd ce ba
       0.00082501525 -0.0015478375 0.0018013777 -0.0015791955
000310 4c ff 17 3c 28 46 ae b7 9b fd 95 bb a5 87 d2 ba
       0.009277176 -2.0775085e-05 -0.0045773513 -0.0016062154
000320 cd 19 57 3b e9 61 d5 ba a9 97 13 3b 05 76 9c 3a
       0.0032821775 -0.001627979 0.0022520816 0.0011937028
000330 49 f1 17 3a d1 bf 1e 3b 95 54 3e 3b 19 e1 97 3c
       0.0005796147 0.0024223218 0.0029042114 0.018539952
000340 fb 6d 22 bb 70 20 85 bc 75 23 4b 3b 8f 06 a0 ba
       -0.0024784792 -0.016250819 0.0030996476 -0.0012208986
000350 ad 6a 05 3b ba 6c ce ba 38 b6 30 3a 70 15 83 ba
       0.0020357773 -0.0015748956 0.000674102 -0.0010000896
000360 12 14 36 3b 89 ee b9 3d ac ba 93 3a 63 5c 32 3a
       0.002778296 0.090787 0.0011270843 0.0006803928
000370 57 37 bd 3b 48 f8 03 3b a5 e6 96 bc 31 6f 43 39
       0.0057744193 0.0020137 -0.018420527 0.00018638071
000380 54 cf de bb 72 f7 a8 ba c1 e2 07 3b 07 d7 ff 3c
       -0.006799618 -0.0012891127 0.002073452 0.031230463
000390 c2 2a 72 b9 48 ee 16 3d c2 0c 4c 3c 12 18 08 bb
       -0.00023094847 0.036848336 0.012454214 -0.00207663
0003a0 84 06 a5 bb 9e 08 a2 3b 23 bc ec 3b ff 39 cc ba
       -0.005036177 0.004944875 0.007224576 -0.0015581249
0003b0 b6 fc 5c 3d 83 7d e8 bc 3e 74 91 bb e0 5e 45 ba
       0.05395194 -0.028380161 -0.004438906 -0.0007529091
0003c0 04 61 65 39 ac 17 75 3a 65 c3 d7 ba f4 87 ba 3a
       0.00021875283 0.00093495357 -0.001646143 0.0014231191
0003d0 7d aa 23 bb b4 a7 85 3a 3d a3 9b ba 5e 20 e5 3b
       -0.0024973445 0.0010197074 -0.001187421 0.006992384
0003e0 44 25 92 39 fc cf 50 bd 24 a2 a5 3a 52 a1 68 ba
       0.00027875055 -0.0509796 0.0012636823 -0.0008874136
0003f0 45 34 14 3a c9 f3 a2 3a 01 67 e9 3a ea e6 3c b9
       0.0005653541 0.0012432273 0.0017807187 -0.000180151

Decoder.dec1.bias f4 [256]
000000 e0 4b 84 be ef e9 e0 3c 0f f6 91 be a5 36 66 bb
       -0.25839138 0.027455298 -0.2850804 -0.0035127786
000010 77 c8 57 3b 74 b0 7c be 72 71 a8 3c 6f 90 9b be
       0.0032925883 -0.24676687 0.020561907 -0.30383632
000020 ba d6 9a bc 33 4d c9 3c 55 35 af 3a 88 62 c5 3d
       -0.018901218 0.024572944 0.0013367335 0.09637934
000030 65 8a d6 3c 6b bd f3 bd a0 08 d7 3c a7 78 f1 3c
       0.026189039 -0.11901363 0.02624923 0.029476477
000040 a5 81 9c bd e3 3f 1f 3d 2a 62 f5 3c 0c a4 8e be
       -0.07641915 0.038879286 0.029954035 -0.27859533
000050 13 36 d6 bd 48 e7 9f be 97 2a 2c 3c 61 d7 38 bd
       -0.104595326 -0.3123114 0.010508201 -0.045127276
000060 4c e4 08 3d ab 8e 71 3c 5d 5c 29 bd e3 d7 6d be
       0.033420846 0.014743487 -0.04134785 -0.23226885
000070 8e 32 06 3d 51 62 af ba 4f b9 b7 bd c2 fc 0c 3c
       0.032763056 -0.0013380741 -0.08970892 0.008605184
000080 2b 48 52 3c 7a 6c ce bb 43 99 d3 3c e3 d7 da bd
       0.012834589 -0.0062995525 0.025829917 -0.106857084
000090 23 68 08 bc 62 56 0b be 16 97 1a bb 82 8f 04 3d
       -0.008325609 -0.13607171 -0.002358859 0.032363422
0000a0 1e b6 54 3c 86 9f 1f 3c 5a a8 a8 be 70 f7 b4 be
       0.012982873 0.009742623 -0.32940942 -0.3534503
0000b0 70 46 38 bc d8 be f9 bd c7 d4 d2 3c 94 c2 bf be
       -0.011247262 -0.12194604 0.025736226 -0.3745314
0000c0 01 7d 30 bf ce 44 27 3b 8f 39 14 bc 98 b7 27 3c
       -0.6894074 0.0025523189 -0.009046926 0.010236643
0000d0 b7 1e 42 3d 6d 0b 65 3c a7 ba c9 bd d6 a9 99 3d
       0.047392573 0.013979775 -0.09850054 0.07503097
0000e0 70 1e 00 3c af dc 1a be 28 ad 08 3c 8a 65 2a 3b
       0.007819757 -0.15123247 0.008342065 0.0026000463
0000f0 c0 b7 7f be 7c 33 a3 bb 9e 02 6d bc 67 1a e4 3c
       -0.24972439 -0.0049805027 -0.014465956 0.02784462
000100 42 16 9b 3c c7 da 9e 3c c1 d8 a0 be da e0 15 3d
       0.018931512 0.01939143 -0.3141537 0.03659139
000110 c7 12 b1 be 5e b1 49 be 7a ac cf be 97 6b 78 bd
       -0.34584638 -0.19696566 -0.40561277 -0.06064948
000120 f0 d8 86 be f1 78 5e bc 0b 5c d0 3d 53 da e1 3c
       -0.26337385 -0.013578639 0.10173806 0.027569925
000130 d4 46 66 bb 7d 84 73 be 94 96 60 bb 34 81 2b be
       -0.0035137432 -0.23781009 -0.003426944 -0.16748506
000140 6f d9 b2 3c 0e 4f 2d 3c 62 c6 17 be 29 5d 54 be
       0.021832196 0.01057793 -0.14821771 -0.20738663
000150 42 c6 db 3c 05 e6 f2 3c 94 f7 2d 3c d8 83 83 be
       0.026827935 0.029650697 0.010618109 -0.25686526
000160 d1 b9 30 3c 47 1b e0 be d2 4f 82 3c 12 30 7a ba
       0.01078649 -0.4377081 0.015907202 -0.0009543906
000170 1d 24 9a 3c 7b ba fc be 57 56 3c bd a0 71 81 bc
       0.018816048 -0.49361023 -0.045980778 -0.015801251
000180 34 ba e1 be cf 83 8f bc 01 9e ca bc e5 9b c7 3c
       -0.44087374 -0.017518906 -0.024733545 0.024366328
000190 b0 e1 3c be 25 86 8a 3c ad bc e6 be 7a 45 65 b9
       -0.18445468 0.016909668 -0.45065823 -0.00021865024
0001a0 5f d3 20 bd 3c 4d d7 39 a7 9b 48 bb 02 04 df bb
       -0.03926408 0.0004106554 -0.0030610354 -0.0068058977
0001b0 5c 40 a5 be 8f 94 87 3c ec 9f df 3c 89 46 de 3c
       -0.32275665 0.01655033 0.027297936 0.027133243
0001c0 b8 cc 39 be 60 10 3e be 7a 95 aa bd bb 42 c0 bd
       -0.181445 -0.18560934 -0.08329292 -0.09387728
0001d0 fa 1a 0d bc 31 19 95 bd 6e 3c 52 3c 22 b8 4c be
       -0.008612389 -0.072801955 0.01283179 -0.19992116
0001e0 85 d0 59 be 97 cb 59 bc d6 8c f4 3d 17 8e 06 3d
       -0.2127095 -0.0132931685 0.11940925 0.03285035
0001f0 0b e3 f2 bb 43 6b 20 3c 55 22 92 bc ea f2 9f be
       -0.0074123195 0.009791198 -0.017838636 -0.31240016
000200 34 3c 99 bd 55 83 75 be 36 ea e4 3b 4d 9b 91 be
       -0.07482186 -0.2397588 0.006985928 -0.28438798
000210 28 aa 12 3c c3 4b 84 be aa 4e 14 3c 3f e3 26 3b
       0.008951701 -0.25839052 0.009051958 0.002546504
000220 44 77 9a bc c3 40 01 bb 56 97 d8 3c 6f 1b 6e b8
       -0.018855698 -0.001972244 0.02643935 -5.676917e-05
000230 53 20 25 3b 58 ca d7 3c 59 2c 88 be da cb 1f be
       0.0025196269 0.026341602 -0.26596335 -0.15605107
000240 ea a6 9e be 71 18 dc 3c 81 a2 a3 3c ca 29 0d be
       -0.3098672 0.026867123 0.019974949 -0.13785473
000250 b4 bf 8f 39 a8 48 04 3d 3b ce f2 3c db 2d 9e be
       0.00027417915 0.032295853 0.029639354 -0.3089436
000260 dc 4a 06 3d 22 c2 13 bb 40 1b 25 be 6c 3e 03 bd
       0.032786235 -0.0022546132 -0.16123676 -0.032041952
000270 06 c9 a2 bd 4a 14 ab 3a f3 e8 0a be 15 a5 1c 3c
       -0.079484984 0.0013052311 -0.13565426 0.009560843
000280 33 00 09 be 58 84 e2 bb df d3 0d 3c bc e5 15 3d
       -0.13378982 -0.0069127493 0.008656471 0.036596045
000290 3e ab 3d bc 6f 8a 9a 3c 2c c5 83 bc 4e a9 bd bb
       -0.011576472 0.018864838 -0.01608523 -0.005788005
0002a0 a7 78 db 3c e2 44 e3 3c 52 ae 6d be 39 09 70 3c
       0.02679093 0.027742807 -0.23211029 0.014650636
0002b0 ee b5 03 3c 8f 59 39 bd 7d e0 d8 3c 99 00 f7 be
       0.008038981 -0.045251425 0.026474232 -0.48242643
0002c0 8f e1 c7 3b 73 e3 30 be 9c 11 54 ba d5 54 5c be
       0.0060998867 -0.17274265 -0.0008089782 -0.21516736
0002d0 92 93 57 bc 32 41 30 bb c8 a2 2e 3c c4 94 a7 3c
       -0.013157742 -0.0026894328 0.010658927 0.02045668
0002e0 ae fb da bd 1f b2 55 bf 43 e1 99 bd 0c 75 da 3c
       -0.10692535 -0.83474916 -0.075136684 0.02666714
0002f0 71 a9 8c be cd 4b f6 3a a2 46 fd 3c e9 b0 be 3b
       -0.27473024 0.0018790901 0.03091747 0.005819429
000300 d0 f0 26 3c 87 43 dc 3c 92 f4 c8 3b ee 46 6f 3a
       0.01018925 0.026887668 0.0061326707 0.0009127696
000310 87 38 23 bd 47 2e d5 3c 63 9e dc 3c dc e6 99 be
       -0.03984883 0.026023043 0.026930993 -0.30058944
000320 a2 9d 7d bd f8 63 18 3e 69 73 b8 ba 87 a6 29 3c
       -0.06191791 0.14881885 -0.0014072481 0.010354645
000330 45 75 07 3b c7 3f 54 3b b7 04 83 bc 8e 9f 2d be
       0.0020669263 0.0032386647 -0.01599346 -0.16955397
000340 db 60 ee bd 44 c3 cf 3c 14 65 90 bb 60 77 02 3d
       -0.116395675 0.025361665 -0.0044065807 0.031852126
000350 68 ee 24 3c 66 63 df 3c b5 24 ad 3b f4 1a ef 3c
       0.010066606 0.027269077 0.005283917 0.029187657
000360 84 dd 38 3c 56 2c 9a be 55 68 05 3d a2 8a c8 3c
       0.011283282 -0.3011195 0.032570202 0.024480168
000370 c5 6a 0f be 26 19 47 3b 70 e1 c9 be 89 a4 01 bd
       -0.14005573 0.003037998 -0.39429808 -0.031651054
000380 2d b5 05 3d 17 2c a3 bd 1b 7b c6 3b 0e 6a 11 bc
       0.032643486 -0.07967394 0.006057156 -0.008875383
000390 44 2b 9d bd b8 75 e6 bd 2f 8f df be 70 c6 1d 3c
       -0.07674268 -0.11252922 -0.43663928 0.009629831
0003a0 6a 2f 85 bd d0 07 87 3c c5 85 18 3d b4 3a 23 3b
       -0.06503184 0.016483217 0.037236948 0.0024906816
0003b0 30 b2 8d be 6f a8 4a bb 3f 0b dd 3c 2e 7f 0c 3d
       -0.2767501 -0.0030923148 0.026982902 0.034300976
0003c0 e3 f2 93 3c 53 1c a9 3c 42 49 29 be 08 0f 11 3b
       0.018060153 0.020643389 -0.16531852 0.0022134203
0003d0 2e 5e 23 3c 9a d1 86 3c 1c 6c 6d be 22 37 90 bf
       0.009971185 0.016457368 -0.23185772 -1.1266825
0003e0 e5 40 00 bd e7 55 43 be 54 fd 23 3c c1 58 ac bd
       -0.03131189 -0.19075738 0.010009129 -0.08415366
0003f0 27 03 1d 3c b6 13 4d bc 1d 48 af be 21 5f af bd
       0.009583271 -0.0125169065 -0.34234706 -0.08563066

Decoder.dec2.weight f4 [31, 256]
000000 ce 31 93 3d 05 5e 85 3d e6 d1 cd 3d 8c 11 8a 3d
       0.07187234 0.065120734 0.100498006 0.06741628
000010 03 18 f0 3e c3 aa a4 bc 6a f5 f7 be 7d 31 b2 be
       0.4689332 -0.020100957 -0.48429424 -0.34803382
000020 a5 f8 0d bf a4 cc 61 bd 08 db 93 3d 73 7d c8 3e
       -0.55457526 -0.0551268 0.07219511 0.3915821
000030 0b ce 18 3e 59 cc 95 3b 9a 08 e0 3d 2a 94 b4 3e
       0.14922349 0.0045714793 0.109391406 0.3526929
000040 d1 a2 00 bf 0c bc ab be 6e 15 e6 3e 70 4b d1 bc
       -0.5024844 -0.33541906 0.44938225 -0.025548667
000050 be 85 b0 be bc 18 7e bd 44 57 36 3f a2 8b 5b 3d
       -0.34477037 -0.062035307 0.71226907 0.05359996
000060 68 5b 03 3e bf e7 95 3e f5 25 3f bb ef 2b 6b bc
       0.12827837 0.2927837 -0.0029166911 -0.014353736
000070 87 20 34 3e 5d f4 91 3e b9 a3 e2 bb 58 82 a8 bf
       0.17590533 0.28506747 -0.00691649 -1.3164778
000080 1d ab fd 3e 75 43 ea bf c6 5b 88 3d cf 56 99 3d
       0.49544612 -1.8301836 0.066581294 0.074872606
000090 a5 20 4d 3f a5 5d b4 3c c9 47 99 3e 4d 61 d3 3d
       0.80127937 0.02201731 0.2993758 0.10321293
0000a0 65 ee 30 3f 74 5b ea 3e 24 f8 a6 bc 21 18 12 3d
       0.6911376 0.45772898 -0.020381995 0.035667542
0000b0 be c8 32 3f 0b 22 21 3d f6 d2 b1 3d cf 19 02 bb
       0.6983756 0.039339107 0.08682816 -0.001985181
0000c0 04 10 81 bf d3 5d 3c 3f 3f 15 1a 3e e3 2d 71 bf
       -1.0083013 0.73580664 0.15047167 -0.9421064
0000d0 a2 fd 35 bf af 21 9e bf 07 57 95 3c a8 6d c4 bd
       -0.7109014 -1.235403 0.018229974 -0.09591228
0000e0 d3 8d e2 3e 78 2b 9f 3e 83 b4 ce 3e c1 ab fc be
       0.44248828 0.31087852 0.40372095 -0.49349788
0000f0 a3 20 5d bd e7 08 4a bd 49 52 d4 3e 27 21 95 3d
       -0.053986203 -0.049324896 0.4146903 0.07281714
000100 85 d1 21 bf 3a c6 6d 3d 94 90 86 3c 6a ae 92 3e
       -0.63210326 0.05805037 0.016426362 0.28648692
000110 a8 e9 84 bc 87 ff 80 3c 95 72 a8 bb 88 1c c4 3b
       -0.016224697 0.015746845 -0.0051406124 0.0059848465
000120 45 7a ba bc aa 9d 23 bd 10 40 36 3e ef e0 97 be
       -0.02276338 -0.039945282 0.17797875 -0.29663798
000130 eb 40 da 3d 8f 31 03 3d 63 12 5e bf ee 65 56 3d
       0.10656913 0.032029685 -0.86746806 0.0523433
000140 8f 40 84 bf 7f 5c d1 3e f1 c7 2e 3d eb 15 28 be
       -1.0332202 0.4089088 0.042671148 -0.16414611
000150 f4 60 33 3e 3a 60 8d 3d 0f 67 da 3d 78 89 fb bc
       0.17517453 0.069031194 0.10664188 -0.030705199
000160 8f eb 07 3f d3 67 1b 3d 7c 5d 51 bf aa 34 e8 3d
       0.5309381 0.03794081 -0.8178327 0.1133817
000170 b5 c4 a4 be fb 48 9d 3e 42 17 e7 bd 34 eb 94 3e
       -0.32181326 0.30719742 -0.11283733 0.29085696
000180 75 65 b6 3d 65 58 2d 3d 3e c7 d0 3d 36 94 6a bd
       0.0890607 0.042320628 0.101942524 -0.05727025
000190 70 fc fb 3c 4c 39 2d 3f d8 ed 8d 3c f6 c8 05 be
       0.03076002 0.67665553 0.017325327 -0.13064942
0001a0 63 98 0f bd 34 52 a0 bf 8f 16 4b bf e2 bc b9 3d
       -0.035057437 -1.2525086 -0.79331297 0.0906923
0001b0 eb f5 a4 3c 51 0d 2b 3f 90 a6 26 3d 25 ee c5 3d
       0.020136794 0.66817194 0.04068619 0.09664563
0001c0 10 96 98 3d 30 3a 64 3d 88 31 12 3d 1c a9 27 bd
       0.07450497 0.055719554 0.035691768 -0.04093276
0001d0 88 9b 1d 3e a0 97 23 3e c1 b6 20 3f 0f 5e c3 3a
       0.15391362 0.15975809 0.6277886 0.0014905351
0001e0 33 30 e4 bc 66 40 a4 3d 76 6a 0b 3e f9 a3 00 3e
       -0.027855014 0.080200955 0.1361483 0.1256255
0001f0 fa 1f 02 bf 8c 0d e6 bc 50 3d 84 bd a5 40 e3 3d
       -0.5083004 -0.028082632 -0.06457007 0.11096314
000200 f2 8d b8 3c 71 11 98 3c c7 e7 ed 3e 3d 43 b9 bd
       0.022528622 0.018563004 0.46465895 -0.09046028
000210 48 77 91 3d e3 b6 4e bc 06 f1 36 bc f3 5b 7f 3e
       0.07102829 -0.012616846 -0.011165863 0.2493742
000220 76 4e 03 bf ae f0 6c 3e 4e bb 8a 3d 01 4e 6f bf
       -0.51291597 0.23138687 0.06774007 -0.934784
000230 1e 04 bf 3e 22 70 df 3d 11 28 67 3d 7e a4 b9 bd
       0.3730783 0.109100595 0.056434695 -0.090645775
000240 18 90 08 3d 95 57 cf 3d 80 d3 21 bf a3 3a 31 3c
       0.033340544 0.10124127 -0.6321335 0.010817203
000250 32 58 73 bf 22 4e e3 3d 4c b8 2f 3e 10 9a d9 3d
       -0.9505645 0.11098887 0.17160147 0.10625088
000260 af e7 e4 3d d3 17 54 bf c4 b5 a5 3c c6 a9 d7 be
       0.11177003 -0.8284885 0.020228274 -0.42121714
000270 58 72 b0 3d f8 1b c2 be c6 de 63 3c e4 d6 07 3f
       0.08615559 -0.37911963 0.013908094 0.5306227
000280 7b e7 e9 3c 8c 83 49 3d c8 4f e2 be 94 b5 5b bf
       0.028552761 0.04919772 -0.44201493 -0.8582394
000290 6c 19 04 bf 2e 22 25 bf b3 e4 ff 3e c1 b3 ce 3d
       -0.5160129 -0.6450528 0.4997917 0.10092879
0002a0 20 ef fa 3d e3 e6 a2 3d 64 cc b1 bc 0b 0b 8e bf
       0.12252641 0.079541944 -0.021703906 -1.109712
0002b0 19 9d 8d bf b1 61 56 3d 52 0e 70 3d 9a df 30 bf
       -1.1063567 0.05233926 0.058607407 -0.6909119
0002c0 d0 2d a8 bd c3 32 ab be 98 32 26 3f 3f 4f 2c bd
       -0.08211863 -0.33437166 0.6492095 -0.042067762
0002d0 93 51 23 bf e7 77 42 bf 80 85 3b 3e ec 88 37 bf
       -0.6379635 -0.75964206 0.18312645 -0.716933
0002e0 3f 52 f5 be ae 2e 70 bf a8 51 13 be 3f e4 3a 3e
       -0.4791431 -0.9382123 -0.14386618 0.18251131
0002f0 86 2f c8 bd 4a 64 14 bf d8 c0 69 3e 48 71 20 3f
       -0.097746894 -0.5796553 0.2282747 0.62672853
000300 9e 09 75 bf fe 39 98 be 14 4d 2c bf 19 11 28 3f
       -0.957178 -0.29731745 -0.6730511 0.6565109
000310 ee e0 c2 3c cf d7 ae 3d e6 50 8d 3d 1a c3 2b 3c
       0.023788895 0.08537256 0.06900196 0.010483528
000320 ad 0a 80 3e ae 29 c9 3c c1 e9 16 3f 90 5f b6 3e
       0.25008145 0.024556007 0.5895043 0.35619783
000330 c9 c7 11 bf 57 6e 93 3e 16 43 b4 3d 68 7b dc bd
       -0.5694547 0.2879512 0.08801858 -0.107657254
000340 31 fe 01 bf f3 e4 f6 be dd 40 a4 3e 01 6a 0c 3e
       -0.5077849 -0.4822155 0.32080737 0.13712312
000350 56 34 b2 3d 67 0a 1a be a7 64 96 3e a0 80 09 3e
       0.087013885 -0.1504303 0.29373667 0.13427973
000360 b0 69 a4 be 61 51 8f bd 27 16 fc be 6c da e9 3d
       -0.32111883 -0.06997944 -0.4923565 0.11418614
000370 56 29 87 be bd 2d 1f 3f a0 09 80 3c 35 db a0 bd
       -0.26398724 0.62179166 0.01562959 -0.078543104
000380 47 cb d5 3d 6a f1 5b be 4a af 27 3f e7 a5 53 be
       0.10439163 -0.21478811 0.65501845 -0.20668755
000390 5a 22 89 bd ca af fb be a3 fe 9a bc b5 82 04 3f
       -0.06696005 -0.49157554 -0.018920248 0.51761943
0003a0 c7 1a 28 3e 82 c4 84 be 2a 07 f1 3d 2b 02 82 bf
       0.16416465 -0.25931174 0.117689446 -1.0156912
0003b0 ad 14 3d bd 00 4a ab 3e c2 46 a6 3d 72 0d e1 3d
       -0.046162296 0.33454895 0.08118965 0.109888926
0003c0 00 a6 9e bf 89 c0 21 bf e4 cd 47 3b 99 8d 52 bf
       -1.2394409 -0.6318441 0.003048771 -0.8224731
0003d0 38 91 a1 bf d6 8e 99 3d ec df 29 3d cb b1 81 bf
       -1.2622442 0.07497947 0.041473314 -1.0132383
0003e0 e4 89 30 be d3 44 2c 3e b0 6d e1 3e 1e 35 b9 bd
       -0.17240101 0.1682313 0.44028997 -0.090433344
0003f0 55 52 c8 3e d6 6f 54 3e 89 d5 2c bd 0b 90 44 3e
       0.39125314 0.20745787 -0.04219583 0.19195573

Decoder.dec2.bias f4 [31]
000000 b1 ac 99 be 7a 71 8f bd d6 52 08 40 1d 25 e3 bc
       -0.30014566 -0.07004066 2.130056 -0.027727658
000010 b5 82 6e 40 2a b4 f7 3d 76 85 0c c0 9a 22 18 bd
       3.7267277 0.120949104 -2.1956458 -0.037142374
000020 aa 3a b8 be 85 f1 33 be 79 17 a9 3f da 14 0a 3f
       -0.35982257 -0.17572601 1.3210288 0.53938067
000030 c4 85 b2 3f 65 bc f8 bf ff 9e f2 3f b6 ce cf bf
       1.3947072 -1.9432493 1.8954772 -1.6234958
000040 37 21 61 bd 6a 95 6a 40 d4 54 b0 bd 38 d1 c9 bf
       -0.054963317 3.6653695 -0.0860993 -1.5766973
000050 57 ea c7 bd d5 30 c8 bf b3 f8 fc bf 12 54 d0 bc
       -0.09761494 -1.5639902 -1.9763397 -0.025430713
000060 e9 00 15 3d 3f bf 9d 40 88 9c 0c 3e 12 70 a4 40
       0.03637782 4.9295955 0.13731587 5.1386805
000070 5c 2f 0f 3e 07 0d 39 40 e6 c2 13 c0
       0.1398291 2.8914201 -2.3087707
