results/7_iid/model_favg_n_1_m_0.pt (torch, 121540 bytes, 8 tensors)

Encoder.enc1.weight f4 [256, 22]
000000 2a c2 45 3d 7a af b2 bc 83 94 b2 bc bb bd 87 bb
       0.048280872 -0.02181219 -0.021799332 -0.0041424907
000010 ff 1e 12 bb e0 b5 a4 bc c3 1c b6 3a 94 29 51 bc
       -0.0022296307 -0.020106256 0.001389407 -0.012766261
000020 00 81 9e bc e0 9f 0d bd f8 97 ef bc 52 14 2e bd
       -0.019348621 -0.034576297 -0.029247269 -0.042499848
000030 f8 7c fd 3c d5 7d 29 bc 60 a9 98 be 9b 97 79 be
       0.030943379 -0.010344942 -0.29816723 -0.24374239
000040 d6 ca 20 3c 17 78 3b bc c0 59 b7 bc 21 c0 56 3b
       0.009813985 -0.011442206 -0.022381663 0.0032768326
000050 2b 69 7a 3a e4 af c4 3c 1d b8 a8 bb ee 53 5f bc
       0.00095524144 0.024009652 -0.005148901 -0.01363085
000060 04 a6 80 bd ba 6c 91 bb ea 93 a1 bd 7b af 8f bc
       -0.06281665 -0.00443801 -0.078895405 -0.01753973
000070 15 4b 8b bd 64 c5 3f 3c 37 00 ae bc 53 ee 85 bd
       -0.0680143 0.011704776 -0.021240337 -0.06539597
000080 64 94 39 bc 9d 26 e5 bd f7 69 8e 3c cc 19 c6 3c
       -0.011326883 -0.111890055 0.017384512 0.024182223
000090 d0 3f 0c 3c d4 c5 0c be a7 0d 8b 3b 9c 2e 3b 3d
       0.008560136 -0.1374734 0.004243571 0.045698747
0000a0 cd 28 cf bb 5e 0f 7a 3d 41 ba 6a bd 9e f0 fa 3c
       -0.0063220025 0.06104981 -0.05730653 0.030632313
0000b0 59 e4 b7 bd 0a 94 3a 3d 6f 81 92 3c 24 8f f2 bc
       -0.08979101 0.045551337 0.017883984 -0.02960927
0000c0 2f 0e 92 bd f2 fe de bd cd 3d 8a 3c df 50 66 bc
       -0.071316116 -0.10888471 0.016875172 -0.014057367
0000d0 9e 4f a7 bc b0 37 7f 3b 83 ba c0 bd f6 05 a9 bd
       -0.020423707 0.0038943104 -0.09410574 -0.0825309
0000e0 d9 72 2f bd 4d 33 85 bc e2 6e c6 3c 7a aa 14 bd
       -0.042834137 -0.016259814 0.024222795 -0.03629539
0000f0 25 fa b1 3c f2 1a 66 bd 18 c9 eb 3c 95 15 fb 3c
       0.021725724 -0.05617804 0.028782412 0.03064994
000100 8c 08 08 bc 00 ec 78 bd d9 7c 67 be 7a d3 ee 3c
       -0.008302819 -0.060771942 -0.2260622 0.029153574
000110 0f aa 4f be 14 ca db bd 80 44 a2 bc a0 f8 45 bd
       -0.20279716 -0.10731903 -0.019808054 -0.04833281
000120 01 03 ca 3d b4 ca 93 bd 35 bc 59 be 9d 46 f6 3b
       0.09863854 -0.07216397 -0.21263202 0.007515742
000130 ae 34 2d bd 58 0f bf bd f9 e8 40 be 9c 06 d1 3c
       -0.042286567 -0.093290985 -0.18838872 0.025515847
000140 66 e9 7d 3c 92 ef 87 3c f9 c4 fd 3c b7 87 df 3c
       0.015497541 0.016593728 0.030977713 0.027286394
000150 29 a5 35 bd 3e a0 b0 3b 36 c2 b8 3c ea 97 b0 3d
       -0.044346962 0.005390196 0.022553544 0.08622725
000160 c5 db 7b bd 18 0e b1 3c cb 98 51 be 3b cc 49 3d
       -0.061488885 0.021613166 -0.20468442 0.049267035
000170 7f b7 62 3c 15 94 e4 bc e6 7a c9 bd 64 78 96 bc
       0.013837694 -0.027902642 -0.09837894 -0.018367954
000180 0d ea 48 3d 7d 4b b2 bc d3 28 02 be 98 4d 0a be
       0.049051333 -0.021764511 -0.12710886 -0.13506162
000190 f2 2f b7 3d 7e f6 18 3c ad 8c 00 bd 03 93 31 bc
       0.08944692 0.009336112 -0.03138416 -0.010838273
0001a0 24 7f 4f 3d 3b 68 06 3d 58 46 ed 3d 65 f9 42 3d
       0.05065836 0.032814246 0.11585683 0.047601122
0001b0 65 36 7d bd 18 7a 85 3c 5f 78 16 3c 28 2a 87 bd
       -0.061819453 0.01629357 0.009183972 -0.065998375
0001c0 5c c9 ef bd ef de 28 bc 09 ce 6d bd 4f f6 ec 3c
       -0.11708328 -0.010307058 -0.05805782 0.028926043
0001d0 c5 79 2d 3c 18 ba 22 be d7 a1 3d bd 4c 96 ae bd
       0.010588114 -0.15891302 -0.04629692 -0.085247606
0001e0 1a bd 87 bc d8 82 ff bd c3 cb 3d bd 40 4b 5a bd
       -0.016569663 -0.12476128 -0.0463369 -0.05329442
0001f0 de bb 46 bb 16 2c 72 3d 53 fd 6d bd dd 35 d0 bc
       -0.003032438 0.059124075 -0.058102917 -0.025416309
000200 a1 83 35 3d f0 0b 50 3d 73 50 97 3c 94 af 95 3b
       0.044314984 0.050792634 0.018470978 0.0045680497
000210 80 41 60 3c 71 a8 92 bb cb 0d 72 bd 87 db 46 bc
       0.013687491 -0.004475646 -0.059095185 -0.0121373
000220 c2 6b 64 3d 05 bf 6d 3d 43 89 de bc 5d f5 fe bd
       0.05576683 0.0580435 -0.02716506 -0.12449143
000230 e4 80 2c 3d d1 f4 21 bc 48 d5 53 bd 7c d0 ca bd
       0.042115107 -0.009885029 -0.051717073 -0.099030465
000240 5c 57 b1 bc 71 fa 0e 3c 99 c4 09 bd f6 41 27 39
       -0.021648102 0.008726702 -0.033634756 0.00015950933
000250 2e d9 7c bd 47 2c 18 bc 17 ca 2f bc b0 30 65 3c
       -0.061730556 -0.0092879 -0.010729334 0.013988659
000260 0b 12 2d bc c6 1b f2 bd f7 42 fe bd 07 6f e0 3d
       -0.010563384 -0.118217036 -0.12415116 0.10958677
000270 e8 c8 94 be 9a d2 1a 3c 34 6d b6 bd b5 dc 95 bd
       -0.2905953 0.009449625 -0.089075476 -0.07317487
000280 84 af e8 bd f8 70 fd bd 89 fe 68 bd 89 2f 04 be
       -0.11361602 -0.12375063 -0.05688337 -0.12908758
000290 0f 9b b3 3d fa 98 a0 bd fc 53 d9 3d a4 3e 91 bd
       0.087698095 -0.07841678 0.10611722 -0.07092026
0002a0 7d 23 9c 3c db bb 56 bd 14 04 6b bd 8f 4f b9 3c
       0.01905989 -0.052425247 -0.057376936 0.022620944
0002b0 99 27 0d 3b 54 33 f6 3b bf ff dc 3c 12 8e f4 bd
       0.0021538495 0.007513443 0.026977418 -0.1194116
0002c0 40 4b f4 bd a2 b6 8d 3d 47 b5 21 be 95 4e 0d 3d
       -0.11928415 0.069196 -0.15791808 0.03449877
0002d0 5d e2 02 be 5f c8 1c bb b6 09 5d 3d 62 df 2c 3d
       -0.12781663 -0.0023923141 0.05396434 0.042205222
0002e0 26 34 06 be 92 b0 16 be 0d af c2 3c 66 22 d1 bd
       -0.1310583 -0.14715794 0.023765111 -0.10211639
0002f0 40 38 0f be 2b 82 61 bd 75 f6 9a 3d f5 be 75 bc
       -0.13986301 -0.05505578 0.07566539 -0.014999141
000300 33 7d f5 bd 77 dd 72 3d 21 5b 7b 3c ec fc 3a 3d
       -0.119867705 0.059293237 0.015341551 0.04565136
000310 96 51 7d bd c1 36 10 be ad 08 93 3d 46 c1 84 bd
       -0.061845385 -0.14083387 0.07179389 -0.064821765
000320 2b 87 84 be ec ee f3 3c 9a 7b 71 bc a3 dc b3 3c
       -0.25884375 0.029777013 -0.014738942 0.021955794
000330 01 15 86 bd c4 5e dc 3c f8 89 8a bd bb 4b 25 be
       -0.06546975 0.026900657 -0.06764597 -0.1614217
000340 43 47 19 3d 8d c8 f0 bc 73 3a 20 bd 22 2c da 3b
       0.037421476 -0.029392505 -0.03911824 0.006658093
000350 27 46 d5 bc 3a ed 95 3d dd fa 09 be ff 5a b2 bc
       -0.026034428 0.07320638 -0.13474603 -0.021771906
000360 9b ae db 3c 03 6d 99 3d 7b 18 87 bc e8 42 4e bd
       0.026816657 0.074914955 -0.016491165 -0.050356776
000370 c4 b6 33 3e ba 01 24 3e 6e d0 a6 3c 8d 2a 17 bd
       0.17550188 0.16016284 0.020363059 -0.036905814
000380 a7 e1 18 3e 3f 46 4e 3e 0f 4c 90 3d 91 93 d2 3d
       0.1492983 0.20143984 0.07045757 0.10282052
000390 f0 64 11 3e 88 f5 c7 3d 52 ac 8d 3e 9e 11 89 3d
       0.14198661 0.09763628 0.27670532 0.06692813
0003a0 34 6b 73 3e fc 4f be 3d 0d d4 53 3d b6 e7 14 bf
       0.23771363 0.092925996 0.0517159 -0.5816606
0003b0 93 41 5f 3e 68 17 45 3e 9e d2 c8 bd cd 6e d8 3b
       0.21802358 0.1924721 -0.09805797 0.0066050054
0003c0 57 89 96 bc 29 ce 00 3e f2 d1 8a bc 3f 8c 0f bd
       -0.018376036 0.12578644 -0.016945813 -0.03504586
0003d0 84 c8 0f be 3b 39 3c ba 26 9d 64 bd ce 19 bc bc
       -0.14041334 -0.0007180159 -0.05581393 -0.022961523
0003e0 d9 45 f1 3c ff 0c a2 bd 8b 62 df bd b6 85 95 3b
       0.029452251 -0.07912635 -0.109074675 0.0045630587
0003f0 13 3e c2 bc cd 78 39 bd 8b 0e 64 bc 68 6f fa 3c
       -0.02371124 -0.04528122 -0.013919483 0.0305707

Encoder.enc1.bias f4 [256]
000000 6c 1c b8 be d2 19 6a be 9e 47 3e be a9 a6 9f be
       -0.35959184 -0.22861412 -0.18582007 -0.3118184
000010 15 e6 a4 be 8f e3 2c 3d d4 1f e1 bd f0 1a 05 be
       -0.3220679 0.042209204 -0.10992399 -0.12998557
000020 a1 0a b5 be 92 36 1a be 73 78 ce be c2 f0 91 bd
       -0.35359672 -0.1505988 -0.4032627 -0.07125999
000030 d6 a9 ca be 37 2f 8b be 5d 6d 20 bf b4 8e f6 bd
       -0.395827 -0.2718446 -0.62666875 -0.12038937
000040 52 3a 92 3c e4 71 80 3d 24 c0 0c be 64 28 51 bd
       0.017850075 0.06271723 -0.13745171 -0.05106391
000050 1f f5 21 3f ed e8 bb bd f5 5a 38 be 10 55 03 3d
       0.6326465 -0.091752864 -0.18003447 0.032063544
000060 6a 88 3b be 94 1f 17 be 6a 13 73 be ef 58 bc bd
       -0.18313757 -0.1475814 -0.23737875 -0.0919665
000070 b6 fd 0f bd 89 73 4b be 7f 98 96 be 57 b5 f3 bd
       -0.035154067 -0.19868292 -0.2941322 -0.11899822
000080 c7 5a 7e be 73 87 b6 bd 48 ba c5 be c1 2d 94 be
       -0.24839316 -0.08912554 -0.38618684 -0.28941157
000090 0a ec 43 be da c6 40 3d c0 33 59 3e a9 ed 87 be
       -0.1913301 0.04706464 0.21211147 -0.26548508
0000a0 cd 31 55 be 6d b5 ee bd f9 9f 8c be 59 c5 f8 be
       -0.20819779 -0.11655698 -0.274658 -0.48588064
0000b0 3f 24 39 bd 9b 8a 1b be 1b d3 35 be 9a 5f 41 bd
       -0.045200583 -0.15189593 -0.17756312 -0.047210313
0000c0 f2 d7 b5 be 43 74 45 bd 4e 25 4f 3d 70 e2 13 be
       -0.35516316 -0.04820658 0.050572686 -0.14441848
0000d0 e8 e7 79 bd 58 63 a8 be df b1 e9 bc 29 4c 71 3f
       -0.06101218 -0.32888293 -0.028527198 0.94256836
0000e0 76 a1 8a bd b2 20 34 be 70 6e 9a bd a1 d0 e7 bd
       -0.067690775 -0.17590597 -0.075405955 -0.1131909
0000f0 ab f1 89 bd b8 43 b0 be a1 93 a0 b9 76 38 92 be
       -0.06735548 -0.34426665 -0.0003062757 -0.285587
000100 5f 09 29 be 44 b2 75 bd 93 83 bd bc 20 9d 48 be
       -0.16507481 -0.05998446 -0.023134029 -0.19591188
000110 a4 01 6f be 56 b0 d5 bd a0 07 28 3d f7 4b c5 bd
       -0.2334047 -0.10434024 0.041022897 -0.0963363
000120 ae 4a 6d be dc 30 e2 be 3b ee dd be a1 90 ed bd
       -0.2317302 -0.44177902 -0.43345818 -0.115998514
000130 8f 27 b6 bd 13 48 c1 3c a9 2a a2 bd c4 a8 a0 be
       -0.08894264 0.023593938 -0.07918293 -0.31378758
000140 96 fc 86 be 67 7b 87 be 1b 77 6e be 22 f8 f0 be
       -0.26364583 -0.26461336 -0.23287623 -0.4706431
000150 13 6e 54 be 7b a0 5b be 75 a9 cb bc 53 9e 6f be
       -0.20745115 -0.21447937 -0.024861077 -0.2340024
000160 75 e6 8f bd 16 e9 86 bd 1f b3 a9 be e4 c6 15 bd
       -0.07026378 -0.06587426 -0.3314447 -0.03656663
000170 a4 44 20 be 86 64 a5 bd bc f7 26 be 92 72 84 be
       -0.15651184 -0.08075814 -0.1630544 -0.2586866
000180 50 64 2c bf 4b 69 03 be 0d 01 5f be af 01 2f be
       -0.67340565 -0.12833135 -0.21777745 -0.17090486
000190 97 1d 26 be e0 fa 2e be 06 7a 8c be ca 50 27 bd
       -0.16222225 -0.17087889 -0.27436846 -0.04084853
0001a0 61 f6 1e be 01 c4 f5 3b 3f fa 3c bd dc 55 d0 bd
       -0.15523674 0.007500172 -0.04613709 -0.101726264
0001b0 94 44 bb bd 4f 7f 58 be 14 78 d9 be 39 e3 9d bd
       -0.091439396 -0.21142314 -0.42474425 -0.07709355
0001c0 38 dc 4d bd e8 02 03 3d 76 5e b9 bd 08 47 34 be
       -0.050258845 0.031985193 -0.0905122 -0.17605221
0001d0 de c4 88 be 93 f2 93 be 8d 61 81 be 3a 37 23 be
       -0.26712698 -0.28896007 -0.25269738 -0.15939036
0001e0 5d c9 33 be 80 be 9b be f3 db 86 be a0 c8 36 be
       -0.17557283 -0.30418777 -0.26339683 -0.1784997
0001f0 02 8c 2d 3d 08 92 4f be a5 67 1b 3f ef b0 14 be
       0.04236985 -0.2027055 0.60705024 -0.1452062
000200 06 5a 21 bf da c3 71 be ab 93 5f be ca 23 7c 3e
       -0.6302799 -0.23609868 -0.21833675 0.24623027
000210 92 e6 1c be a5 88 24 bb fa e6 2a be 0c ec a1 3d
       -0.1532233 -0.002510586 -0.16689673 0.079063505
000220 2b 7b 58 be fe de 21 3e 0b 10 bf 3d dd 4c 66 bd
       -0.21140735 0.15807721 0.09329232 -0.056225646
000230 1b bd e4 bd bf b2 49 be 1a 5d dd bd 9c 6c 91 be
       -0.111688815 -0.19697092 -0.10808773 -0.28403175
000240 bf ef c2 bc 81 e6 5a be b0 90 e8 bd 69 9b ff bd
       -0.02379596 -0.21376993 -0.11355722 -0.12480814
000250 f6 3b a0 be d0 b1 50 3c 2d 4d cd bd 81 fd 20 be
       -0.31295747 0.012737706 -0.10024486 -0.15721704
000260 7f 5e ef be c0 9c 5e bc 4c 94 72 be 1f 50 8e be
       -0.46751782 -0.013587177 -0.23689383 -0.27795503
000270 82 72 f7 3c 7e a6 cd bc 27 2f 37 bc 40 4e 00 be
       0.030205969 -0.025103804 -0.011180676 -0.1252985
000280 c5 41 81 3d 7e f7 10 bc e0 be 18 be bc 50 12 be
       0.06311373 -0.008848069 -0.14916563 -0.1428861
000290 31 6c 24 bd 82 e0 4a be c7 b6 9a be c0 cb 9f be
       -0.040142242 -0.19812205 -0.30217573 -0.31210136
0002a0 18 15 2c 3d 2d 44 5c be fc 44 7c be 8f 7e ca bd
       0.042012304 -0.21510382 -0.2463569 -0.098874204
0002b0 20 3d b3 bd 1a a2 a1 be 1e b8 0d bf 39 4c 8d 3c
       -0.08751893 -0.31568986 -0.55359066 0.01724826
0002c0 67 55 ae be 77 f3 b7 be 0d cc 97 be 79 0f a8 3e
       -0.34049532 -0.35927936 -0.29647866 0.32824305
0002d0 5c cb 00 be a4 fb 9e bd 93 2e 1e be 10 55 b2 bd
       -0.12577575 -0.077628404 -0.15447454 -0.08707631
0002e0 c8 92 95 be 90 a9 e3 bd 7a 34 84 be 6c 30 84 be
       -0.29213548 -0.11116326 -0.25821286 -0.25818193
0002f0 08 e6 f5 bd 31 ce 2f be c4 ca 16 bd 38 13 50 bc
       -0.120067656 -0.171685 -0.036814466 -0.012699895
000300 90 af 3d be 7c 3e fb bd 67 7a 2a bd 0c 61 b3 be
       -0.18524003 -0.12267777 -0.04162064 -0.35034978
000310 fd 4b 6d be 09 3b e5 bd 25 89 76 be fe a2 a8 be
       -0.23173518 -0.11192901 -0.24075754 -0.32936853
000320 8e e2 64 bc 03 8c c4 bd c4 3f 8b be 0d 4c 84 bd
       -0.0139700305 -0.095970176 -0.27197087 -0.06459818
000330 92 5b 8e bd cd 10 95 bd da 35 1f be 04 bf f9 bd
       -0.069510594 -0.07278595 -0.15547886 -0.121946365
000340 b7 8e 1f be f9 b3 6e be 30 e3 99 3c 32 4c 11 be
       -0.15581785 -0.23310842 0.01878509 -0.14189222
000350 31 87 b2 bd fd d4 46 be b5 0c 9a be 98 0e 5c be
       -0.08717192 -0.19417186 -0.3008782 -0.21489942
000360 63 bb be 3e 87 af 8a be 46 21 a2 bd 26 a5 90 be
       0.3725234 -0.27087042 -0.07916503 -0.28250998
000370 72 89 5f be 49 db 60 be cc 14 b6 be 5a 18 a9 be
       -0.21829775 -0.2195865 -0.35562742 -0.3302639
000380 60 d3 27 3f 98 cc 59 be 1e e3 ab be 78 dc 8f be
       0.6555691 -0.21269453 -0.33571714 -0.28097892
000390 59 4e 1f be c1 fc dc bc cd 3e ec bc d3 1d 04 bf
       -0.15557231 -0.026975991 -0.02883854 -0.5160801
0003a0 e2 65 85 be 07 91 9b be 9f 24 86 bd 1c 0c da bc
       -0.26054293 -0.30384085 -0.06549954 -0.026617102
0003b0 aa f9 88 bd 4b 6d ea be 52 31 8e be 55 53 1c be
       -0.06688245 -0.4578651 -0.27772003 -0.15266164
0003c0 75 14 f2 bd 4f 3d e8 bd f1 84 00 be 65 7f e9 be
       -0.11820308 -0.11339819 -0.12550713 -0.45605007
0003d0 07 b3 0f be 4f cb da bd cc 75 38 be 4e cf 88 3b
       -0.14033137 -0.10683309 -0.18013686 0.0041751033
0003e0 e0 01 de bd 54 2e 49 bd 7c 3e f0 be 12 48 17 3e
       -0.108402014 -0.049116448 -0.46922672 0.14773586
0003f0 27 2b 74 bd 43 a6 df bd 31 45 f7 bd 1b 4d 61 be
       -0.059611466 -0.10920384 -0.12073744 -0.2200207

Encoder.enc2.weight f4 [40, 256]
000000 8f ff 97 bc ed 43 01 3d 69 07 5e 3c 7c da f2 3c
       -0.018554477 0.03155892 0.013551571 0.029645197
000010 8b 65 ac 3d 19 70 05 bd a2 ba 5e 3a 35 ca df bb
       0.08417805 -0.032577608 0.00084964384 -0.006829525
000020 73 1f 12 3d 5a e6 14 bd b7 7c 21 b9 96 1a 27 3c
       0.035674524 -0.036352493 -0.00015400616 0.01019921
000030 a0 84 e9 bb 91 f3 70 bc 4c 3b f5 3c e3 35 31 bc
       -0.007126406 -0.014706508 0.029935502 -0.01081607
000040 52 38 90 3a 3d 89 e9 bc 76 fc ef 3c 89 77 04 3c
       0.0011003113 -0.028507823 0.029295187 0.00808514
000050 d3 9c 81 bd c4 7d 8c bb 5d d9 0a bb f8 db 93 bc
       -0.0632874 -0.0042874534 -0.0021186688 -0.018049225
000060 a6 6a 26 bc c4 15 48 bb 5f b9 71 bc fb d1 e0 3b
       -0.010157263 -0.0030530551 -0.014753669 0.006860969
000070 b0 6b 91 3c 70 ea da 3c 31 c9 67 3c 47 c3 ad 3c
       0.017751545 0.026723117 0.014147089 0.02121128
000080 63 8f a2 bc df db bd 3d 7d f8 ac bd 71 d0 8f 3c
       -0.019843763 0.09270453 -0.08445833 0.017555447
000090 2c 75 71 bc 10 bc dd 3a 03 08 34 bc b6 d7 27 bc
       -0.014737409 0.0016917009 -0.010988238 -0.010244301
0000a0 30 98 cc bb ce 0f df bc 8f ce 0a bd 7a a3 24 bb
       -0.006243728 -0.027229216 -0.033888396 -0.0025121854
0000b0 9c ac a4 3a f2 89 ab 3b 49 84 14 bd 0d 86 6f bd
       0.0012563649 0.00523495 -0.03625897 -0.05847745
0000c0 4a b3 8c 3b ae b4 8d bb a0 f0 36 3d 3d b8 0d 3d
       0.004293834 -0.004324517 0.04466307 0.03459953
0000d0 a7 c2 ca 3c 11 20 d3 3c 6b 4b de 3b 20 38 87 3c
       0.02475102 0.025772126 0.006783893 0.016506255
0000e0 1d a3 4a 3d 8a cf d4 3c ac 02 24 bd 2b 11 da bc
       0.049471963 0.025977869 -0.04004161 -0.026619514
0000f0 c5 89 46 bc c2 99 40 bd cc 3d 87 3c 55 6d 42 bd
       -0.012117808 -0.047021635 0.01650896 -0.04746755
000100 3c d6 ce bb 83 a6 28 3c 67 23 a2 3d 28 71 82 3e
       -0.00631216 0.010293606 0.07916909 0.25476956
000110 08 66 a3 3c af 85 a4 3c dd 64 9d 3b 9d 08 88 3c
       0.019946113 0.020083277 0.0048032836 0.01660567
000120 6c 63 2c be 92 65 b9 bc 14 f4 98 bb ed ed 52 bb
       -0.16834801 -0.02263144 -0.0046677683 -0.0032185272
000130 c8 e2 2a 3b c7 ca f5 3c 29 fc c5 ba 0a 91 f1 3b
       0.0026075114 0.030003918 -0.0015105057 0.0073720263
000140 1c 50 e8 bb ca 78 1e bc 36 2c 00 bd fb 82 83 3b
       -0.007089628 -0.009672353 -0.031292163 0.004013417
000150 e9 8d 0b bc 27 1d 5e bd d1 8f 42 bc 86 36 28 bc
       -0.008517721 -0.05422702 -0.011875109 -0.010266906
000160 1e ab 30 bb d3 0f c3 3c 5f 0f 1e bc ad c5 0c 3c
       -0.0026957463 0.023811257 -0.009647219 0.008592051
000170 e4 dd 7b bc 03 f9 35 bc 6c f0 ba 3c 43 ce 94 bc
       -0.015372727 -0.011106732 0.02281972 -0.01816476
000180 f0 cd 54 3c 89 46 37 bd 13 43 dc bc 5c e8 17 bd
       0.012988552 -0.044745002 -0.026887452 -0.03708683
000190 1f 78 a6 bc a8 33 de bc 16 03 f3 3c 75 20 e8 bb
       -0.02032095 -0.027124241 0.029664557 -0.0070839473
0001a0 06 6a 48 bb 87 a9 2b 3c ea 12 a6 bc 6a 97 0b 3c
       -0.0030580773 0.01047743 -0.02027269 0.008519987
0001b0 35 5c 58 bb 32 ef 51 3b cd d7 81 3c cb 8d 6b 3c
       -0.0033013944 0.003203344 0.015849972 0.014377068
0001c0 5d 3a 0b bc 28 d2 19 3d b0 5b ef bc 56 ad a0 bc
       -0.008497802 0.037553936 -0.029218525 -0.019613903
0001d0 37 0e da ba fa 64 ba 3a 1d 81 f1 bc 4f a9 3d 3c
       -0.0016636316 0.0014220767 -0.029480511 0.011576011
0001e0 0f 60 42 ba 31 24 68 3d 76 d4 8d 3c d4 a3 24 bd
       -0.00074148265 0.05667514 0.017313223 -0.0401953
0001f0 c5 ef 8a 3b a7 24 c5 3b 14 b6 43 bc c9 69 36 bd
       0.0042400085 0.006016332 -0.011945266 -0.04453448
000200 c8 39 da 3a 89 1e 07 bc 84 78 f1 bc 8a 0a 0f bc
       0.00166493 -0.008247026 -0.029476412 -0.00873054
000210 fa 08 1d 3d 1f 6a 81 bd 60 90 62 3b 5a 48 72 3d
       0.03833864 -0.06319069 0.0034570917 0.05915103
000220 2a 91 9f 3c 08 fb 05 bd 4c 3b b3 3d 71 83 0f 3d
       0.0194784 -0.032710105 0.08751544 0.03503746
000230 93 23 2b ba 1b d5 03 bd 67 ae df 3c b0 ec f1 3b
       -0.00065284333 -0.032185655 0.027304841 0.0073829517
000240 53 3d 02 bc 05 67 09 bd 69 97 f1 3c da 58 de bc
       -0.007949191 -0.033545513 0.029491143 -0.027141977
000250 03 7e 56 3c 13 5c c0 3c 36 12 9e 3b 6a 10 89 bb
       0.013091567 0.023481404 0.0048239483 -0.004182865
000260 c5 16 bf bd f3 6b 14 3c 91 8b 6e 3c 7d 44 9e ba
       -0.09330515 0.00905894 0.014559642 -0.0012074854
000270 69 b4 23 3d cc 9b f5 bc a6 c1 9f bd 24 dd 4a bd
       0.039966974 -0.029981516 -0.078006074 -0.049527302
000280 54 d5 4f 3c 1f 7e be 3c 38 c6 9e bc 16 d7 bb bc
       0.012685139 0.023253499 -0.019381627 -0.02292971
000290 5e 1c f1 3c a2 51 e1 3c 49 18 98 3d f8 20 69 bd
       0.029432472 0.027504746 0.07426507 -0.056916207
0002a0 8e f8 28 bb 48 81 94 3b 27 d4 cd bc c7 9a ea bc
       -0.0025782916 0.004532013 -0.025125576 -0.028638257
0002b0 9e 13 6b bc 74 a4 94 3c 1f 27 1e bc 6e c1 32 bd
       -0.014347939 0.018144824 -0.009652882 -0.0436415
0002c0 27 34 c4 bc 42 d5 56 3d 02 50 fd bc a5 e6 85 bd
       -0.02395065 0.052449472 -0.03092194 -0.065381326
0002d0 60 08 44 3c 13 6a e0 3c be 5a d4 3b 5b 6c 22 3d
       0.011964887 0.02739433 0.006480544 0.039654117
0002e0 6d ea 4d bd e5 b7 cb 3c 73 df cc 3b 4f ed e6 3c
       -0.050272394 0.024867961 0.006252223 0.02818933
0002f0 ed e1 b1 3b d0 ae eb bb 19 3a cd bc b7 32 82 bc
       0.005428544 -0.00719247 -0.025052117 -0.015893323
000300 77 cf ff 3b a9 41 74 bc 63 48 62 be b8 21 72 3c
       0.007806714 -0.014908233 -0.22097926 0.014778547
000310 17 08 2c bd a1 60 72 bb 1f 9d 16 bd a8 8e e1 ba
       -0.041999903 -0.0036983865 -0.036770936 -0.0017208653
000320 4b 31 ab 3a 0c 89 85 3c 3c ca 19 bd f0 eb 82 bd
       0.0013060955 0.0163007 -0.03754638 -0.06392658
000330 c5 fe a0 bc 0b b7 d6 bc 31 9c 9c 3c 46 2b cd 3d
       -0.019652734 -0.026210329 0.019117447 0.100180194
000340 d7 43 9f bc 56 cc f8 3c 4f db 48 bd d9 ac d8 ba
       -0.019441528 0.030370872 -0.049037274 -0.0016531005
000350 d7 5d 45 bd f6 05 17 3c c7 67 c0 bc 09 6f 11 3c
       -0.048185196 0.00921773 -0.023486985 0.0088765705
000360 66 1a ca 3d ce 81 26 3b 6e 36 33 3c 40 47 1e 3d
       0.09868316 0.002540696 0.01093827 0.038642168
000370 62 ad 30 be 9d 9b 88 3b 2b 3b 04 3b 88 74 8d bd
       -0.1725364 0.004168941 0.0020176868 -0.06906992
000380 06 17 f1 3a 2b 5e 1b bb d5 28 ac 3b f2 78 b3 bb
       0.0018393702 -0.0023707252 0.005253891 -0.0054770643
000390 ae f7 bb 3c 94 ef 83 3c 8a 3a 0f bc 30 cf 8f bb
       0.022945251 0.01610545 -0.008741984 -0.0043887123
0003a0 85 1b a0 3b 4b 9e d7 3c fc 65 1b 3c f8 c1 43 bd
       0.004886093 0.026320597 0.009484764 -0.047792405
0003b0 5c 72 85 3c 77 32 df ba 4c 0d 48 bc b6 36 82 bc
       0.016289882 -0.001702859 -0.0122102015 -0.015895229
0003c0 d7 9a 26 bd 8a bd c3 bb b7 c3 d1 bb c4 5e 04 3d
       -0.04067501 -0.0059735226 -0.006401505 0.032316938
0003d0 76 3c 2a bd a7 22 5d bc f1 b0 5a 3d 6a 75 e5 3b
       -0.041561566 -0.013497031 0.0533914 0.0070025222
0003e0 2d 04 42 3b 2d 8b 61 3c 92 30 df 39 0e 1d 4f 3b
       0.002960454 0.013766092 0.00042570062 0.0031603011
0003f0 c6 7c 46 ba 2a 08 13 3a db 27 43 3c 99 06 f9 3d
       -0.0007571693 0.00056088215 0.011911358 0.121594615

Encoder.enc2.bias f4 [40]
000000 48 7f 9f bc 7f 7b 04 3a c0 92 9c 3b 6b fb 55 39
       -0.019469872 0.0005053803 0.004778236 0.00020406923
000010 3d 4f 02 39 41 3f 76 bd f6 0d 90 bb bb 4e 19 bc
       0.00012427285 -0.060118917 -0.0043961955 -0.00935715
000020 ff a9 25 bc b9 6b 60 3b a8 38 4e 3c ac 8b 70 3c
       -0.010111331 0.0034243895 0.01258675 0.014681738
000030 b0 9c 64 3d 4a 9d 36 3c 12 30 d5 3a ac 19 18 bd
       0.05581349 0.011145899 0.0016264936 -0.037133858
000040 0f 65 46 bb 78 32 6f 3d 67 03 9d 3c f4 4e 80 bd
       -0.0030272638 0.05839774 0.019166661 -0.06265059
000050 d9 7b 02 bf 01 62 81 bc f5 af 9e bc 0b 11 c4 bc
       -0.50970227 -0.015793802 -0.019371012 -0.023933908
000060 b4 e8 82 bc c5 c9 03 bf ae 7c f3 be 10 41 c8 bb
       -0.015980102 -0.5147975 -0.4755606 -0.0061112717
000070 9c a3 c7 bc cc de fd bb 11 f9 85 bc f0 68 6c bc
       -0.024370007 -0.0077475067 -0.016354116 -0.014429316
000080 7d 36 00 bf 3b c3 94 bc d1 7a 7e bc 5b ba d5 be
       -0.5008314 -0.0181595 -0.015532211 -0.4174374
000090 44 d7 ab bc 94 0b 03 bf 11 32 a8 bc 04 d5 0e bf
       -0.02097667 -0.5118954 -0.020531686 -0.55793786

Decoder.dec1.weight f4 [256, 20]
000000 40 2b c4 bb cb cf b7 3a e2 73 c5 39 85 1a 3d 3a
       -0.005986601 0.0014023719 0.00037661107 0.00072137296
000010 84 68 e1 3a 68 90 92 3b 9b 6a 9e bd 44 4b 08 3b
       0.0017197286 0.004472781 -0.07735177 0.0020796815
000020 45 3a 25 3b 8e bd af ba 13 41 6f bb b3 eb 43 3a
       0.0025211733 -0.0013407932 -0.0036507293 0.00074737816
000030 92 95 ee 3d 23 3d 47 bb b6 97 1b b8 00 f0 5c 3d
       0.11649622 -0.003040143 -3.709617e-05 0.05393982
000040 b9 5b 24 3b 38 7c 12 bb bd b0 05 bb e5 90 ad bb
       0.0025079085 -0.0022351872 -0.0020399534 -0.005296814
000050 97 a5 1a bc d5 39 25 ba 1e a9 6c bb 05 30 39 3b
       -0.009438894 -0.0006302868 -0.0036111544 0.0028257382
000060 b3 61 01 bb b8 a1 54 3b b0 79 b2 bb c2 84 84 bb
       -0.001974207 0.0032445025 -0.005446635 -0.0040441463
000070 cc 68 a5 ba 70 b1 f5 3b 2a 9d 98 bb 12 00 68 bb
       -0.0012619733 0.007497959 -0.0046574073 -0.0035400433
000080 28 32 71 3c b1 4d 8c ba 72 d5 34 3b a7 7b ba 39
       0.014721431 -0.0010704306 0.0027593044 0.00035568813
000090 9c 13 42 bb 06 31 0b bc 02 4e e9 bb 73 f3 ce bd
       -0.002961374 -0.008495575 -0.007119895 -0.10105028
0000a0 cb 74 00 bc 03 75 16 bb 68 82 c1 3a 59 49 f3 3b
       -0.007840346 -0.0022957928 0.0014763596 0.007424515
0000b0 e4 76 57 b9 65 39 3e ba 18 29 db bb 78 8d 60 3a
       -0.00020548288 -0.0007256477 -0.0066882484 0.00085660024
0000c0 e6 14 f5 b8 d9 fb 9f ba 25 e1 b7 bb 9d ef 73 3b
       -0.00011686403 -0.0012205794 -0.005611556 0.0037221678
0000d0 07 c4 62 3c 42 cb c8 ba a8 43 d3 3a 6f cb 42 3a
       0.013840682 -0.0015319365 0.0016118186 0.00074308267
0000e0 e6 cc 42 3a 6d fa c9 bb cd 9c 2e ba f1 97 cc bd
       0.0007431045 -0.0061638863 -0.00066609384 -0.09989918
0000f0 2f 3c 71 3c 93 84 c8 bb 27 a7 ce 3c 23 12 6f 3a
       0.014723822 -0.0061193197 0.025226189 0.0009119829
000100 09 2e 82 bb 1a df 31 3b 22 1c 94 bc d0 33 99 3b
       -0.003972773 0.0027141036 -0.018079821 0.004675366
000110 80 7f 1c ba 97 20 dd bb 78 90 a2 39 7b 7b 8c bc
       -0.0005969927 -0.00674827 0.00031006685 -0.017148724
000120 db 31 ab 3d 60 d0 8d 3a 36 39 1a 3c 32 d5 54 bc
       0.083591186 0.0010819547 0.009413054 -0.012990283
000130 94 0d 00 bc 0b 62 7d 3e 87 c9 05 bc d4 e1 4b 3c
       -0.007815737 0.24744432 -0.008165724 0.012443978
000140 5f bf 0b be bb d8 9e bb 83 74 67 bc 44 38 f9 ba
       -0.13647221 -0.0048476136 -0.0141269 -0.0019013961
000150 34 84 3b bc 18 a9 e8 bc 9f c3 54 bd a7 7b 7d 3c
       -0.011445094 -0.028400943 -0.05194437 0.015471376
000160 0c 0e e5 b9 6f dd a6 3c 5b 0d 68 3c bf 0f 9d bb
       -0.0004368875 0.02036926 0.01416334 -0.004793137
000170 e2 63 fe 3d 89 f5 ab bb eb cb 1a bb 5e ad 94 3c
       0.12421395 -0.005247776 -0.002362008 0.018149074
000180 94 c9 6b 3b aa 65 44 bb 27 2b 23 3c dd d8 cc bd
       0.0035978304 -0.0029967823 0.009959019 -0.10002301
000190 6a a6 a0 bb cf f2 da 3b e1 c7 8e 3a ad f3 9f 3b
       -0.0049026506 0.006681777 0.0010893309 0.0048813433
0001a0 72 84 2f 3b 4c 01 07 3b a6 d9 4b b9 1c 42 1a 3c
       0.0026781824 0.0020600138 -0.00019440669 0.009415176
0001b0 53 5c b9 bb b0 30 cd 3a fd d0 e4 ba c4 6e 56 bb
       -0.005656758 0.0015654769 -0.0017457303 -0.003271983
0001c0 89 ac 15 bc 2c 1d 4b 3b d9 3e ff ba 04 fd 8e 3b
       -0.009135374 0.003099273 -0.0019473686 0.004363658
0001d0 27 84 ea 39 03 22 a9 bb 13 4c c9 ba 55 a9 ca 3b
       0.0004473042 -0.005161525 -0.0015357755 0.0061847367
0001e0 79 2a d1 ba db 09 ea 3b b6 1c 22 ba c6 6a c1 bb
       -0.0015958092 0.007142288 -0.0006184088 -0.005902621
0001f0 9a c4 75 3b e3 ef 88 39 51 b5 3f 3d f2 f5 b5 38
       0.0037501217 0.0002611867 0.046803776 8.6765634e-05
000200 65 3c 07 bb c3 05 29 3a 62 10 6e 3b 75 c5 5a 3a
       -0.0020635363 0.0006447697 0.0036325683 0.00083454634
000210 e1 42 a5 3c b7 79 be bb 6a f5 84 3b 15 19 eb 3c
       0.020173492 -0.0058128494 0.004057576 0.028698483
000220 32 8a 8c 37 b9 3f c6 3a b8 ed 02 ba b4 0f c0 bb
       1.6753653e-05 0.0015125192 -0.00049945293 -0.005861247
000230 0d 01 c7 bc d0 0e 2f bb 8b c5 24 3c f3 26 fa bb
       -0.024292493 -0.002671171 0.010056864 -0.0076340376
000240 87 3f 34 bb b2 02 35 bc 95 f6 77 bd da bf ec 3b
       -0.0027503686 -0.011048006 -0.060537893 0.007225019
000250 bb e1 ee bb 6a 98 b8 ba 7c c2 ab 3b db c6 13 bb
       -0.0072900928 -0.0014083509 0.00524169 -0.0022548947
000260 fa 50 db 3d d8 ee 46 bb 8d 52 e9 bb 2b 22 10 3d
       0.107088044 -0.0030354764 -0.0071204365 0.035188835
000270 09 f1 be ba 55 b2 72 3c ad 82 af b9 f6 98 f2 bd
       -0.0014567684 0.0148130255 -0.00033475962 -0.11845581
000280 c9 04 20 3b 58 8c 2c bb d3 ea e9 3b e9 2f 34 3b
       0.0024416915 -0.0026328769 0.007138589 0.0027494377
000290 ef 46 06 3b cf 3b 08 3a 9e 17 22 3d bd 2e a9 bb
       0.0020489057 0.00051969005 0.039573304 -0.0051630423
0002a0 af e2 42 38 83 96 f6 3a 07 87 90 ba 32 02 b7 b9
       4.646432e-05 0.0018813167 -0.0011026569 -0.00034906116
0002b0 ad 0d 32 3c 78 64 1d bb 9a 6b b2 ba 05 96 fb 3c
       0.010867518 -0.0024016183 -0.001361239 0.030711183
0002c0 f1 22 61 bb fe 7a d9 3a 84 c8 df 3b fa f4 80 3b
       -0.0034353102 0.0016592441 0.0068293232 0.0039354535
0002d0 9c 9c 84 3c ed eb b1 bb 5c 35 ca ba 6a 34 5d 3c
       0.016187958 -0.005429736 -0.0015427279 0.013501266
0002e0 ea f9 5d bc 99 93 e8 bc 80 df bd bc d8 1d ee 3b
       -0.013548354 -0.028390693 -0.023177862 0.0072667412
0002f0 46 7e 6b 3a 49 93 93 3c a4 6e 37 3c c8 e4 5b bc
       0.0008983355 0.018014567 0.011195812 -0.013421245
000300 60 21 2e 3e 8b f3 d7 ba 7d 16 08 3c ad ee 56 3c
       0.17004919 -0.001647578 0.008306143 0.013118428
000310 dd 89 34 bc 14 c2 dc 3c f0 d2 b5 3b 4e 4d 4d bd
       -0.011019197 0.026948012 0.0055488274 -0.05012255
000320 11 e2 ea bd 9e 6a 41 bb a3 c7 bd 3b b2 3c a5 bb
       -0.114689 -0.0029513012 0.005791621 -0.005042636
000330 16 3e d5 3a 97 47 11 b7 e5 0c 84 bb 44 f7 d7 3a
       0.0016269113 -8.659342e-06 -0.0040298575 0.0016476889
000340 ca 5a f0 ba d3 0f 17 3b d5 35 50 3a 2f 9f bc bb
       -0.0018337604 0.0023050203 0.0007942592 -0.005756281
000350 47 b5 60 3c f8 5d ab 39 d8 2e a5 3a b7 60 c8 ba
       0.013715095 0.00032685674 0.0012602462 -0.0015287612
000360 16 d0 8f 3a 7d d6 4d 3b 79 03 24 3b 44 3c 11 bc
       0.0010972049 0.0031408363 0.0025026484 -0.008864466
000370 0a c7 3c bd 15 c6 85 bb be ba 76 3a da 7a bf 3b
       -0.046088256 -0.004082451 0.0009411982 0.0058435025
000380 fd 17 7a bb 35 81 81 be d5 27 e1 bc 18 51 05 bc
       -0.003816127 -0.2529389 -0.027484814 -0.00813701
000390 54 45 0c 3c 50 1e 4c bc aa 8c b0 bb af bf a7 bb
       0.008561451 -0.012458399 -0.005387862 -0.005119286
0003a0 63 59 a3 3d db a8 a3 ba 78 eb d4 bb cd 6f f4 3c
       0.079760335 -0.0012486236 -0.0064977966 0.029838467
0003b0 90 ad c9 3b e2 7c c5 3c 75 d2 a1 bb 6a bd 1b bd
       0.0061547235 0.0241074 -0.0049384185 -0.038022436
0003c0 8a 17 9a bb 61 ec 7d 3a 06 2c 16 3b 0f fc 08 3c
       -0.004702513 0.0009686407 0.0022914424 0.008360877
0003d0 f5 51 dc 3b 1d 0c 85 bb c2 84 e9 3c d5 04 ca ba
       0.006723637 -0.004060282 0.028505687 -0.0015412817
0003e0 9b 2a a0 bb c9 0e 03 39 22 a5 fe ba 47 70 47 bb
       -0.0048878915 0.00012498641 -0.0019427876 -0.0030431913
0003f0 7e 4b dc 3d 92 d6 4c 3b 12 f9 bd ba be 38 8b bd
       0.107565865 0.0031255824 -0.0014493784 -0.06797932

Decoder.dec1.bias f4 [256]
000000 e6 28 4a bd a1 ba 99 3c a6 09 aa 3c 93 14 c9 be
       -0.04935541 0.01876575 0.020756554 -0.3927351
000010 25 c7 d1 be fb bc c4 bd 69 d2 1d 3b e2 59 90 be
       -0.40972248 -0.09606358 0.0024081713 -0.28193575
000020 60 0e 73 bb 6f 39 f6 be 78 97 93 3c f7 82 00 bf
       -0.0037087426 -0.48090693 0.018016562 -0.50199836
000030 66 61 d0 bd 89 1b 13 be 49 96 85 bb b7 01 b9 3a
       -0.10174827 -0.14365973 -0.0040767533 0.0014114891
000040 ab 7c 90 bb f7 cc 78 3c 26 88 e3 bd 45 75 d5 be
       -0.004409393 0.015185586 -0.11109953 -0.41691032
000050 5d fc 06 bf f1 c7 ec 3b cc 6a 75 3c a5 81 dc bd
       -0.52728826 0.0072259833 0.014979076 -0.10766915
000060 51 30 9e be a9 56 bc 3c b3 1b d1 bc f7 b9 cc bd
       -0.30896237 0.022990542 -0.025525903 -0.099964075
000070 4e 88 ab 3b 20 82 29 bf f2 97 6f bc 73 e5 19 bb
       0.0052347546 -0.6621418 -0.014623629 -0.002348271
000080 24 64 c0 be fb d8 4b 3c 9b 72 99 3c 5b dc 57 bc
       -0.375764 0.012441869 0.018731406 -0.013175095
000090 b4 5c c3 3b b2 21 a4 3c 44 97 cb bc ae c5 b5 3c
       0.005961979 0.020035598 -0.024852403 0.022188988
0000a0 3e c5 fb be 37 ff 8a bc 72 0f 90 bd 46 61 1c bc
       -0.4917392 -0.016967399 -0.07034196 -0.009544676
0000b0 96 49 27 bd e4 41 4c bd 60 6e ee be 5e 6e 86 3c
       -0.04084166 -0.049867526 -0.46568584 0.016410049
0000c0 59 40 e5 be 92 6d 12 bc d2 7c 6e be c7 76 32 bd
       -0.44775656 -0.008937256 -0.23289803 -0.043570306
0000d0 dc 83 e2 bd 08 86 8b 3c ff 75 e6 bc e0 7e 13 3b
       -0.110603064 0.017031685 -0.028132437 0.0022506043
0000e0 c9 c3 38 bd 0c 9a 19 bb 50 c8 a0 3c 5b 82 7a bf
       -0.04510859 -0.0023437766 0.019626766 -0.97855157
0000f0 a3 43 85 3b de 6f e1 ba eb 8d 4d bd 98 2f 3d 3c
       0.004066901 -0.0017199477 -0.05018417 0.011546992
000100 8c 46 ae 3c ab e8 25 3b 9d 8c 32 bd 0c 21 b5 3c
       0.021273874 0.0025315683 -0.04359113 0.022110485
000110 af a8 a5 be e6 c1 48 bd 09 43 85 3c d4 0b e6 be
       -0.32355258 -0.04901304 0.016267316 -0.449309
000120 dc a2 60 bc ce 34 d3 bc 3d 6c 2f bc 96 e2 c9 39
       -0.013710704 -0.025782015 -0.010706958 0.00038506527
000130 13 10 26 bc 49 08 58 3c 14 79 8d 3c a0 76 28 bd
       -0.010135668 0.013185569 0.017269649 -0.041128755
000140 90 db 87 3b a3 de fc ba 1a 87 24 be 85 bc c4 be
       0.004146047 -0.0019292425 -0.16067162 -0.3842508
000150 c8 76 7a 3a c3 7a 4d 3c eb 40 da be 75 04 fa bd
       0.0009554443 0.012541476 -0.42627653 -0.12207881
000160 65 67 97 bf 10 7f 66 3c c2 7d 8f 3c 2a 80 ab 3c
       -1.1828429 0.01406838 0.01751602 0.020935137
000170 eb c1 87 3c 46 c6 a0 3a 13 16 af 3c 3e 99 30 3c
       0.01657196 0.0012266121 0.02137283 0.010778723
000180 3d 1e a9 3b 5a 65 fa be e9 71 53 3b 7f 37 56 bd
       0.0051610754 -0.4890545 0.003226394 -0.05229902
000190 31 49 24 bd 2e e8 3c 3c 84 04 c7 be 27 9d 64 3c
       -0.040108863 0.011529965 -0.38870633 0.013953484
0001a0 14 72 58 bc a0 f7 b4 bc d2 75 91 3c be fd 11 bf
       -0.013210792 -0.022090733 0.017756376 -0.57027805
0001b0 ce c5 2a bf b6 29 ca 3c 97 b9 85 3c c1 6b e7 bb
       -0.66708076 0.024678092 0.016323848 -0.007062406
0001c0 84 d1 0d bf e0 07 81 3b b1 ce 02 bf fb ba fe bb
       -0.5539782 0.0039377064 -0.51096636 -0.0077737547
0001d0 88 46 33 bd e8 e0 f3 3b 38 95 68 bc 61 dd 0d bb
       -0.043768436 0.0074425824 -0.014195733 -0.0021646845
0001e0 4c d1 9c bb e6 3a 44 bd ed 1a 91 bc 2f c7 40 bd
       -0.0047856923 -0.047907732 -0.017713035 -0.047064956
0001f0 29 a1 b6 39 13 f5 39 3b 4a 1e a9 3c 62 05 05 be
       0.0003483382 0.0028374835 0.020644326 -0.12990335
000200 8b 86 00 bf 0b 41 91 3c a3 a2 8b 3c be 82 a7 be
       -0.50205296 0.01773121 0.017045325 -0.32716936
000210 36 61 7b bd d4 a2 56 bd 2c 02 a4 3c 01 0d a6 bc
       -0.061372004 -0.05240138 0.020020567 -0.020269873
000220 b3 db 00 bf b8 c2 4e bd cb 34 85 3c a4 a1 45 bd
       -0.50335234 -0.050478667 0.016260525 -0.048249856
000230 d3 5b 9e 3c 5f d4 91 3c a1 13 dc be d1 3f 4b be
       0.019330895 0.017801462 -0.42983726 -0.19848563
000240 9a 19 5a 3c 82 99 4d bf c7 1c 47 bb fb 8a 07 be
       0.013311768 -0.8031236 -0.0030382143 -0.1323661
000250 7c 83 e4 ba 94 65 d7 be b7 41 92 be c2 4a 85 3c
       -0.0017434205 -0.42069685 -0.2856576 0.016270999
000260 8c 7e 1c bf 4c e6 51 3c e5 e3 1c 3c 9c 3c 13 bf
       -0.61130595 0.012811255 0.009575819 -0.5751436
000270 95 d0 48 bc 15 b7 d5 bd 6a b6 9e bf 03 cd 03 be
       -0.012256761 -0.10435311 -1.2399418 -0.12871175
000280 af ef 10 3c 46 9d 9b bc 1c d0 aa be 8e 61 39 bc
       0.0088462075 -0.018995892 -0.333619 -0.011314763
000290 9d 16 55 bd 44 0a 49 3c cf 2c 30 ba d5 e8 0d be
       -0.05202352 0.012270514 -0.0006720544 -0.1385835
0002a0 5c 1e 75 bd f9 ad da be bc 69 f6 bb 37 80 6f bb
       -0.059843406 -0.42710856 -0.0075199287 -0.0036544928
0002b0 b8 ee 88 bd 75 10 12 bb 63 fe 05 bf fd 44 cc 3a
       -0.06686157 -0.0022287641 -0.5234129 0.0015584525
0002c0 d6 7a a3 3c a0 6e 5f bd 4e 97 8a bc e3 9a 0a bf
       0.019956034 -0.05454886 -0.01691785 -0.5414259
0002d0 fc 8a 0a bf cb 05 a9 be df 32 35 3b f7 75 53 bd
       -0.54118323 -0.33012232 0.002764873 -0.051626172
0002e0 68 76 9b 3c cd 4a ee be 0d 5a 41 3b 9b 6c 72 3c
       0.018977359 -0.46541443 0.0029503137 0.014796401
0002f0 57 5d 88 3c 12 83 2e 3c 5d b0 1f 3c 84 88 8e bb
       0.01664607 0.010651367 0.009746638 -0.00434977
000300 45 8c b9 37 2d 20 4b bd ef a0 d3 3a 68 2d be be
       2.2119037e-05 -0.049591232 0.0016145984 -0.37144017
000310 2d f6 51 3c cf d3 52 bd 17 d7 03 bf 13 30 af 3c
       0.012815041 -0.051471528 -0.51500076 0.021385228
000320 76 99 a8 be 4e f4 73 3c 32 08 7b bb 9f 95 a7 3c
       -0.3292958 0.01488979 -0.0038304445 0.020457087
000330 92 90 08 bf 92 46 fb bb 57 d1 9a bb 92 57 3e 3c
       -0.53345597 -0.0076683247 -0.0047246623 0.011617558
000340 79 34 85 3c 3f 35 3b bb 2d dd ab 3c 98 ff 44 3c
       0.016260372 -0.0028565673 0.020979488 0.012023829
000350 e5 1c 34 bf 96 17 89 bb 6b e4 40 3c a2 0a d0 be
       -0.7035659 -0.00418372 0.011773209 -0.40633112
000360 84 e8 82 3c 49 02 ad 3c 6a c1 37 bc ce 22 4d 3c
       0.015980013 0.021119254 -0.011215547 0.012520505
000370 3d 96 10 be c7 3e e5 bb 5d 57 51 bd b4 aa b1 3b
       -0.14119811 -0.006996009 -0.051108707 0.0054219607
000380 8e c5 ca bd c6 56 00 bf 69 6c 5b bd f9 4b ca bd
       -0.09900962 -0.50132406 -0.053570185 -0.09877772
000390 56 24 36 bf 4e 0c c4 be 64 65 3d bc 9a fe bd be
       -0.71149194 -0.38290638 -0.011559818 -0.37108308
0003a0 ce b0 fe be fc 35 e7 bd e7 80 b7 bc 09 63 f7 be
       -0.49744266 -0.112895936 -0.022400333 -0.48317745
0003b0 e4 83 13 bd 58 92 40 3c 65 30 cd 3a d0 f0 a1 3c
       -0.036014453 0.011753641 0.0015654681 0.019768149
0003c0 24 0d 06 bf 97 79 2c bc cf 77 c6 be 88 fb e0 bd
       -0.523638 -0.010527036 -0.38763282 -0.10985476
0003d0 5c 3d 48 bd 7d 85 b9 bd fb ee 2b be f8 94 15 bc
       -0.04888664 -0.09058664 -0.16790383 -0.009129755
0003e0 96 0f eb be a7 31 e7 be 0f b4 9c 3c 14 ad 40 bd
       -0.4591033 -0.4515507 0.019128827 -0.04704006
0003f0 2c e8 29 bb b0 77 3f bd b2 52 ac 3c 22 47 dd be
       -0.0025925739 -0.046745002 0.021035526 -0.43218333

Decoder.dec2.weight f4 [31, 256]
000000 c6 ab 81 3e 87 34 6a 3d 87 47 44 3c 8f e8 ce 3d
       0.25326365 0.057179 0.011979944 0.10102951
000010 26 c8 36 3e a3 bb db 3e 5d 28 e3 be 61 15 9d 3d
       0.17849788 0.42916593 -0.44366732 0.07670093
000020 94 f9 95 be f5 0e db 3d 93 3f 1e 3d 8d 14 e4 bb
       -0.29291975 0.10696212 0.038634848 -0.0069604577
000030 17 c4 46 bd 68 7e fb 3d 85 b2 60 3f 90 1d 1a 3d
       -0.04852685 0.122799695 0.877724 0.03762585
000040 e6 56 5f 3f 71 5c 0d 3d 01 ea 63 3f c7 a4 e1 3d
       0.8724197 0.034511987 0.89028937 0.11017757
000050 7c 7e 61 be 76 87 c6 3c d0 ae e5 3c 97 df 86 3c
       -0.22020906 0.024234515 0.028037459 0.016464038
000060 d2 2c 77 3d db b6 73 3d 6a 3e 76 3e a3 ff 85 bf
       0.06034548 0.059500556 0.24047247 -1.0468639
000070 2f 25 57 bf 7e f8 18 be 6f cc 80 3e ef b0 2b 3f
       -0.8404111 -0.14938542 0.2515597 0.67066854
000080 99 9f 4e bd 3d 00 29 bc e4 76 db 3d 04 bd f2 3e
       -0.050445173 -0.010314998 0.10716036 0.47409832
000090 09 fd 80 bf 1c ae 79 3d 36 a4 25 3e 5c b9 87 3d
       -1.007722 0.06095706 0.16175923 0.06627151
0000a0 9e 10 bc 3d 4d 0b b2 3e c4 c1 1b 3d 38 31 37 bf
       0.09182857 0.34774247 0.038026586 -0.71559477
0000b0 38 9c 81 be ad ac 01 bf 93 c8 4f bd 3c 4c 03 3e
       -0.25314498 -0.5065411 -0.05072839 0.1282205
0000c0 82 5a 89 bd 74 a1 a7 3d ea 51 1c bf db ae 9d be
       -0.06706716 0.081850916 -0.6106249 -0.30797467
0000d0 60 bc ef bd c9 b9 64 3d 5e 7f 9f 3d 4c a6 19 bf
       -0.117058516 0.05584124 0.07787965 -0.60019374
0000e0 04 2d 27 be 68 1b ae 3e b7 6c 91 3d 22 2c 16 bf
       -0.16325766 0.34005284 0.07100814 -0.5866109
0000f0 bf c9 23 bf 9e 88 e2 be 28 5c 65 3e 29 e3 2b 3d
       -0.63979715 -0.44244856 0.22398436 0.041964684
000100 72 0c b0 3d da 0b 35 bf eb b3 76 be 59 65 a3 3d
       0.08596124 -0.7072121 -0.24092071 0.07978315
000110 c1 45 e4 3c 65 99 94 bf 21 1f 18 3d 05 69 e0 bd
       0.027865293 -1.1609312 0.03713906 -0.10957531
000120 37 f3 23 c0 c9 f4 b3 3e 33 38 6c 3e 82 09 94 bf
       -2.5617197 0.35147694 0.23068313 -1.1565402
000130 51 ca 8e 3e d2 c3 fa bb 85 11 6f 3d b4 68 cd be
       0.2788873 -0.007652738 0.058366317 -0.40118945
000140 49 30 04 bf 0e f6 9f bf 99 f9 8a bd c7 1e ef 3c
       -0.5163618 -1.2496965 -0.06785888 0.02918948
000150 0d 05 46 bf 5f 8f 86 3c f4 7e 76 bf a6 69 bb 3e
       -0.77351457 0.016425787 -0.96287465 0.3660404
000160 8e fd 82 bf 12 92 22 bd 50 aa 92 3d 03 f4 8c 3d
       -1.0233629 -0.039690085 0.07161391 0.06882479
000170 b0 2a 83 3d de 4d 30 3f 61 f3 d9 3d 3e 3c 34 3d
       0.06404626 0.68868816 0.10642124 0.044002764
000180 5e 3a 48 bf e7 80 08 be 92 5c ab bf 49 92 73 3e
       -0.7821406 -0.13330422 -1.3387625 0.23786272
000190 bb d6 3d be 27 88 8b bf 38 d6 13 3d ea 0d a3 3d
       -0.18538944 -1.0900925 0.036092967 0.07961638
0001a0 19 f7 b5 3e ca c4 9e 3e c2 e2 9a 3d 04 06 f2 3d
       0.35540083 0.31009513 0.07562782 0.11817554
0001b0 29 d5 be 3e d5 87 8c 3d 57 08 9c 3d 26 6e 9e 3f
       0.37272003 0.068618454 0.07618778 1.2377365
0001c0 e7 d6 9d 3e 02 df dd be de 69 4b bd 03 25 66 3f
       0.3082802 -0.43334204 -0.04966151 0.89900225
0001d0 81 80 29 be 24 0b 49 bf 3a 7b ed 3e 65 90 35 3f
       -0.16552927 -0.78532624 0.46383077 0.70923454
0001e0 f3 f6 69 bf 4a 2d 93 3e 78 80 e0 3e d8 49 9e 3e
       -0.9139244 0.2874549 0.43848014 0.30915713
0001f0 c3 ca 3d 3f b2 d2 62 bf 6b d9 26 bd 14 4a 09 bf
       0.74137515 -0.88602746 -0.04073469 -0.5362866
000200 46 70 b4 bd 78 05 f3 3c c2 ef 7f 3d 54 28 32 3c
       -0.08810477 0.029665694 0.06248451 0.010873873
000210 ad e5 ad 3e 36 13 96 3e bc a5 ec 3d 5b a3 9c 3e
       0.3396429 0.29311532 0.11555049 0.3059338
000220 30 78 82 bd d2 e7 79 3e 26 4a 66 3d 9a 80 90 3e
       -0.0637058 0.24404839 0.056223057 0.28223115
000230 90 d9 47 3d 25 90 3f 3b e0 3b f1 bd 01 b4 46 bd
       0.04879147 0.0029230204 -0.117789984 -0.04851151
000240 25 05 16 3d fc c3 35 bf e6 0f 4c 3f e1 ff 7e 3e
       0.036626 -0.71002173 0.7971176 0.24902298
000250 63 be 35 3f 05 89 cd 3d f9 c1 44 3e 4c a2 82 3d
       0.7099363 0.100359 0.1921462 0.06378612
000260 54 4e 98 bf df f3 5e 3d f9 93 41 bf 16 2e 14 3e
       -1.1898904 0.054431792 -0.75616413 0.14470705
000270 04 28 c0 3e 66 d9 d4 be 74 75 8f bf 14 35 97 be
       0.3753053 -0.41572112 -1.1207719 -0.29532683
000280 28 46 b8 3d 92 b0 07 bf 40 2d e1 bc 0f 8b cb 3e
       0.08997756 -0.530038 -0.027487397 0.3975453
000290 fa 8b fc be e6 5f 82 3d 1c 0f d3 be 6f ce 5a 3d
       -0.49325544 0.063659474 -0.41222465 0.053419527
0002a0 7e a5 ad bd bc 97 9a bd a0 b0 a0 bf a4 61 fe 3e
       -0.08478831 -0.07548472 -1.2553902 0.4968387
0002b0 c2 00 4a be f8 d2 45 3f 3e c3 e4 ba d2 94 2f bf
       -0.19726852 0.7727504 -0.0017453206 -0.68586457
0002c0 bc ef 64 3d e5 0f 93 3e ae 01 8b 3e bf 77 f3 bb
       0.05589269 0.28723064 0.2714972 -0.0074300463
0002d0 b6 63 99 3c d2 66 03 3d 9f 24 6b bf e0 9f 56 3e
       0.018724304 0.03208048 -0.91852754 0.20959425
0002e0 50 53 bc 3d 92 a8 23 be 07 c5 1e bf 0b 8d b3 3d
       0.09195578 -0.15982273 -0.6201939 0.08767136
0002f0 09 60 f4 3d 1c 78 29 3d e4 17 62 bf ed 3d f2 be
       0.1193238 0.04137431 -0.88317704 -0.4731287
000300 35 1a 8a bf c5 7b 95 3e 7e 08 07 bf e4 04 9a 39
       -1.0789248 0.2919599 -0.52747333 0.00029376813
000310 17 a6 62 3d 28 6a 8c 3e ad 6b db bd 09 8b ab 3d
       0.055334177 0.2742474 -0.10713897 0.08376128
000320 10 d5 ed 3c f5 bf db 3c 54 0c 20 3f 22 c3 29 3d
       0.02903226 0.02682493 0.6251881 0.04144586
000330 90 96 2d be 0b 0e 96 3e f6 c1 c5 3e 83 bb 96 3d
       -0.16951966 0.2930759 0.38624543 0.07359984
000340 e8 50 6f 3d 88 8c 62 bf dc 57 fd 3c 38 4d 94 3d
       0.058426768 -0.88495684 0.030925684 0.07241291
000350 3c b6 ed 3d ce 93 21 3f c4 3e 5f 3d f0 8f dd 3d
       0.11607024 0.6311616 0.054503217 0.108184695
000360 b6 46 18 be 3b 4a 86 3d 3d 70 f1 3e a6 e0 0f 3d
       -0.14870724 0.06557127 0.47155944 0.03512635
000370 c4 4d be 3d 82 03 95 be 55 0b 8a 3e 1c 03 86 3d
       0.09292176 -0.2910424 0.2696177 0.06543562
000380 e5 47 cd bb 66 c4 84 bc d9 6a 8f 3e 1a 8a 31 40
       -0.006264674 -0.016206931 0.28011206 2.774054
000390 92 9e 9b bd 3c 24 3f 3d b3 6d 5e 3d c1 88 95 3d
       -0.07598604 0.046665415 0.054303836 0.07301474
0003a0 85 b9 cf bd fc 5b 30 bd 28 97 8b bf 10 0a 6e bc
       -0.10142807 -0.043056473 -1.0905504 -0.014528766
0003b0 9a 65 fa 3e b5 8d 2d 3d 2a 7c 39 bf fd 66 88 3d
       0.4890564 0.04237147 -0.72455084 0.066602685
0003c0 a1 69 01 3d c2 59 99 3e a3 32 59 bf 52 ec 16 3f
       0.031594876 0.29951292 -0.8484289 0.58954346
0003d0 52 66 77 3e c3 7e 4d bf 79 41 1f bf 91 ab d0 3e
       0.24160126 -0.8027155 -0.6220928 0.40755895
0003e0 3b a3 78 bb 9a d2 c3 bd dd cc 49 3d 4a 73 ae 3e
       -0.003793909 -0.095616534 0.04926764 0.34072334
0003f0 71 a1 48 bf 21 d6 c2 3e 5f b5 07 3d 0c 8d 84 bd
       -0.7837134 0.38053992 0.033131953 -0.06472215

Decoder.dec2.bias f4 [31]
000000 df 30 26 bf b6 42 84 bc 0a a5 4c 40 a4 fb 1b bd
       -0.6491832 -0.016145092 3.1975732 -0.03808178
000010 cf 1c 2f 41 a2 c1 1a bf e4 97 7f c0 ec 94 8e 3f
       10.944533 -0.6045171 -3.9936457 1.1139197
000020 97 04 e5 3e 18 72 21 3f dc 50 01 40 69 d3 34 3f
       0.44730064 0.6306472 2.0205603 0.70635086
000030 fa b5 f2 3f 7c ca 29 c0 9d 97 68 40 fa 1d 58 c0
       1.8961785 -2.6529837 3.6342537 -3.3768296
000040 84 b0 c4 bd 6f c3 62 c0 49 26 b0 bd 01 d4 87 c0
       -0.0960398 -3.5431783 -0.08601052 -4.2446294
000050 93 d4 c7 bd 3d ce 89 c0 81 7d 68 c0 ad 3e 82 3e
       -0.09757342 -4.3064256 -3.6326602 0.25438443
000060 92 87 17 3c ba d1 63 41 bf a4 47 3e e2 94 83 c0
       0.009248631 14.238703 0.1949644 -4.111924
000070 4b ac 42 3e ca d6 7e c0 92 80 50 c0
       0.19011037 -3.9818597 -3.2578473
