results/7_iid/model_alone_n_2_m_0.pt (torch, 121552 bytes, 8 tensors)

Encoder.enc1.weight f4 [256, 22]
-0.09339944 0.02524786 -0.2537495 -0.013827886 -0.06922005 -0.20594764 -0.034921374 -0.09165427
-0.06716427 -0.15398456 -0.107813425 -0.24584879 -0.15789573 -0.0058289845 -0.023814142 0.025231713
0.051845346 -0.09671659 0.07337978 0.023586173 0.0025421015 -0.031066742 0.019984445 -0.033613358
-0.16148035 0.004274578 -0.04852094 -0.08261442 -0.0164512 -0.040867917 -0.124000706 -0.024654588
0.121138185 -0.112129785 -0.10880495 -0.02724047 -0.00096567144 -0.021999784 0.07381371 -0.048787016
-0.11611412 -0.07295912 0.042762905 -0.062169652 0.033539187 0.0002837447 -0.04161364 -0.07142463
0.00042892175 -0.01698108 -0.006421105 -0.018997423 -0.018677887 -0.0020004937 0.010734729 -0.027306495
-0.061619904 -0.0045317295 -0.021461528 -0.009748837 -0.012577424 0.0034365423 -0.016014263 -0.0024747348
0.006528571 -0.006772026 0.01614298 -0.06703018 0.01834262 -0.008069487 -0.019410446 0.019963617
-0.05158013 0.042329047 0.0043368884 -0.10235623 0.0077485433 -0.09629536 -0.0055473987 0.044305105
0.005861334 -0.02983184 0.03902721 0.0012058014 0.021839986 0.036804426 0.06704585 -0.04093182
0.025954125 -0.043487646 0.022957738 0.00804192 -0.13263842 0.09846924 0.0021640884 -0.08862679
0.02848757 -0.015522695 0.0016232175 -0.10122796 -0.018324073 0.000953071 0.0036836849 -0.078453854
0.074944094 0.009222452 -0.0015968172 -0.015380694 0.057561457 -0.098306134 -0.09516182 -0.027233094
-0.15387301 0.016838472 -0.062017165 0.03683859 0.048842873 -0.16721304 -0.08994485 -0.20516801
0.066151604 -0.15615387 -0.15775385 -0.030183403 -0.07748787 -0.055415098 0.17171511 -0.19911018
-0.06115339 0.04528895 -0.0007656394 0.163807 -0.035579067 -0.046713907 0.01779547 -0.008855717
-0.08528441 0.029474773 -0.017924733 -0.05202489 -0.11517422 0.016682386 -0.084261194 -0.14916651
-0.038909692 -0.0050762 -0.010681634 0.016684199 0.0004510904 -0.01732768 0.047206245 0.030754423
-0.024369812 -0.0007414762 -0.16833821 -0.17836325 -0.14542046 -0.008642398 -0.09417118 0.040933777
0.0037873238 0.02530132 -0.20400205 0.009579285 0.07134882 -0.10932206 -0.06528774 0.026197216
0.04793239 -0.064057976 0.10859343 0.09039064 0.058574464 0.14117993 0.011087386 -0.0061236303
0.050274942 -0.13412808 -0.14362243 0.036069002 -0.045273807 0.06561846 -0.02501915 -0.050787758
-0.03459003 -0.035875045 0.011282118 -0.21272756 -0.10188083 -0.12989761 -0.03990787 0.096248776
-0.071926616 -0.023269854 0.04615721 -0.006692935 0.094306074 0.08953875 -0.077580824 -0.047138736
-0.2357227 -0.07093466 -0.13798971 -0.1562468 0.021016004 -0.00078731606 -0.16286266 -0.10356111
-0.023467423 -0.19662614 -0.040030025 0.11050745 -0.03011578 -0.1526256 -0.11114398 -0.12457798
0.056735292 0.005971913 0.047309555 0.0047835596 0.08687336 0.090804525 0.012320589 -0.024884908
0.06990176 0.08406437 0.03793384 0.065451026 0.087367885 0.078979746 0.08994232 0.09260232
0.12080608 -0.28276676 -0.07354064 -0.083060876 0.10789794 0.1061524 0.06513171 0.01803632
-0.22448704 0.056869403 -0.021861298 -0.16470636 -0.13234293 0.011938368 -0.14519504 -0.1993125
0.03801156 -0.10280196 -0.14283048 -0.25402611 -0.04189861 -0.2378352 0.050887708 -0.0047992417
00000000: 3548 bfbd 9ad4 ce3c 74eb 81be 5c8e 62bc
00000010: 3ec3 8dbd f0e3 52be b709 0fbd 3cb5 bbbd
00000020: 6c8d 89bd 21ae 1dbe 49cd dcbd c9bf 7bbe
00000030: 6baf 21be 1101 bfbb e015 c3bc bdb2 ce3c
00000040: c95b 543d 5913 c6bd 2348 963d ca37 c13c
00000050: 6399 263b ae7f febc 6bb6 a33c 29ae 09bd
00000060: 1b5b 25be c211 8c3b e5bd 46bd c031 a9bd
00000070: abc4 86bc 1e65 27bd 15f4 fdbd 6bf8 c9bc
00000080: 4c17 f83d 4da4 e5bd 21d5 debd 6827 dfbc
00000090: 1d25 7dba e438 b4bc a42b 973d e5d4 47bd
000000a0: 3dcd edbd 976b 95bd 2828 2f3d 9ba5 7ebd
000000b0: 6360 093d 92c3 9439 1073 2abd 1447 92bd
000000c0: e7e0 e039 e81b 8bbc 2268 d2bb 7ca0 9bbc
000000d0: 5e02 99bc b71a 03bb b7e0 2f3c dfb1 dfbc
000000e0: 2765 7cbd e77e 94bb 16d0 afbc 96b9 1fbc
000000f0: 8a11 4ebc 9d37 613b 5830 83bc 292f 22bb
00000100: 9fed d53b dfe7 ddbb 483e 843c 1e47 89bd
00000110: 4343 963c e235 04bc a802 9fbc bd8a a33c
00000120: b045 53bd 3961 2d3d 751c 8e3b 25a0 d1bd
00000130: 7ee7 fd3b 8036 c5bd f4c6 b5bb 4579 353d
00000140: 6f10 c03b e761 f4bc ffda 1f3d fb0b 9e3a
00000150: c5e9 b23c 3dc0 163d 564f 893d 20a8 27bd
00000160: bf9d d43c 1a20 32bd de11 bc3c 42c2 033c
00000170: 5ed2 07be 3eaa c93d 61d3 0d3b f681 b5bd
00000180: c45e e93c e752 7ebc 24c2 d43a 9b50 cfbd
00000190: 5e1c 96bc 83d7 793a fa69 713b 6aac a0bd
000001a0: 4a7c 993d c419 173c 4b4c d1ba 4eff 7bbc
000001b0: 90c5 6b3d ba54 c9bd 33e4 c2bd f017 dfbc
000001c0: e390 1dbe d6f0 893c b605 7ebd 10e4 163d
000001d0: 770f 483d e539 2bbe 0135 b8bd 9017 52be
000001e0: 7e7a 873d cde6 1fbe 3a8a 21be 2f43 f7bc
000001f0: f6b1 9ebd f1fa 62bd 16d6 2f3e 8ae3 4bbe
00000200: fa7b 7abd e880 393d 31b5 48ba 06bd 273e
00000210: 5bbb 11bd 1557 3fbd cec7 913c 9217 11bc
00000220: 98a9 aebd 1475 f13c e4d6 92bc 0d18 55bd
00000230: 76e0 ebbd 80a9 883c 2291 acbd 1bbf 18be
00000240: c55f 1fbd 4056 a6bb 0502 2fbc 4dad 883c
00000250: 5480 ec39 c7f2 8dbc 565b 413d b3f0 fb3c
00000260: 33a3 c7bc a05f 42ba da60 2cbe dba4 36be
00000270: 1ae9 14be d898 0dbc d2dc c0bd 2daa 273d
00000280: c034 783b b744 cf3c eae5 50be 6ff2 1c3c
00000290: 551f 923d 3fe4 dfbd 94b5 85bd 8b9b d63c
000002a0: c154 443d d430 83bd 3b66 de3d ba1e b93d
000002b0: c7eb 6f3d 7991 103e dea7 353c bca8 c8bb
000002c0: 19ed 4d3d df58 09be c211 13be 17bd 133d
000002d0: 0771 39bd f962 863d f6f4 ccbc d306 50bd
000002e0: 46ae 0dbd b6f1 12bd a2d8 383c 41d5 59be
000002f0: e6a6 d0bd e103 05be 6f76 23bd 141e c53d
00000300: 434e 93bd 6ca0 bebc 580f 3d3d 6850 dbbb
00000310: 8b23 c13d 1860 b73d b2e2 9ebd 8c14 41bd
00000320: 4b61 71be 3146 91bd 2d4d 0dbe 29ff 1fbe
00000330: c129 ac3c e363 4eba 78c5 26be d917 d4bd
00000340: c13e c0bc 5d58 49be 86f6 23bd bb51 e23d
00000350: 5eb5 f6bc e349 1cbe 749f e3bd bd22 ffbd
00000360: 4463 683d 0ab0 c33b aac7 413d 68bf 9c3b
00000370: a9ea b13d b9f7 b93d 4cdc 493c 6fdb cbbc
00000380: a728 8f3d f129 ac3d 8460 1b3d 300b 863d
00000390: efed b23d 22c0 a13d ae33 b83d 49a6 bd3d
000003a0: 2e69 f73d cec6 90be 7a9c 96bd d21b aabd
000003b0: 98f9 dc3d 6e66 d93d c663 853d e8c0 933c
000003c0: eedf 65be e4ef 683d 7716 b3bc c9a8 28be
000003d0: e884 07be 2599 433c 02ae 14be 9318 4cbe
000003e0: 02b2 1b3d d689 d2bd 2742 12be b60f 82be
000003f0: e09d 2bbd 128b 73be a16f 503d f542 9dbb

Encoder.enc1.bias f4 [256]
0.155132 -0.26347956 -0.13288458 -0.187214 -0.19778654 -0.14549533 -0.05302677 -0.2548688
-0.14979781 0.06030612 -0.11524809 -0.25025028 -0.0076595712 -0.8258609 -0.05361979 -0.23127092
-0.19093615 -0.18073983 -0.2136702 -0.33110327 -0.05466556 -0.2896075 -0.27223465 -0.25286654
-0.051585943 -0.25858316 -0.11458422 -0.11111433 -0.030699005 -0.27349764 -0.23234396 0.0013875117
-0.29979858 -0.057966027 -0.117118664 -0.22751302 0.1344984 -0.43997854 -0.2390883 -0.24761449
-0.31414294 -0.032517638 -0.29489768 -0.27642822 -0.19427054 -0.28723893 -0.3511654 -0.23833829
-0.24942565 -0.16913703 0.021611901 -0.033131775 -0.11488667 -0.22202845 -0.046907984 -0.1400443
-1.1446909 -0.20077276 -0.4743066 -8.309526e-05 -0.10479997 0.11580524 -0.30745155 -0.1881395
-0.23390268 -0.28648764 -0.1799738 1.0147259 -0.11329019 -0.13141872 -0.27538303 -0.54162836
-0.12132204 0.01755755 0.009258573 -0.22812325 0.13650116 -0.6155246 0.587071 -0.31671467
-0.1883271 -0.21354002 -0.06676236 -0.043062903 -0.46799162 -0.13890918 -0.06391103 -0.10320813
-0.17328283 -0.17312488 -0.16565448 -0.2260733 -0.21931465 -0.048332218 -0.02408994 -0.2360512
0.0568855 -0.047646794 -0.16241941 -0.2361439 -0.086983465 0.07659231 -0.38836047 0.3818435
-0.25412652 -0.05183783 -0.26836336 -0.35554972 -0.29692587 -0.098460026 -0.2508418 -0.1854082
-0.08683732 0.009591952 -0.46320605 0.2792108 -0.406296 -0.25905764 -0.12231052 -0.10466497
-0.14166827 -0.60887104 -0.07489665 -0.4024522 0.05649977 -0.45337743 -0.091498844 -0.5666536
-0.34072614 -0.08414229 -0.11615544 -0.3208881 -0.13259158 0.43315202 -0.26573592 -0.016682655
-0.1213748 -0.3740575 -0.3161058 -0.17711382 -0.048818022 -0.19548228 -0.22795871 -0.6047332
-0.0094723115 -0.25859603 -0.22363652 -0.21357255 0.06501694 -0.033955127 -0.17293516 -0.024738291
0.016753968 -0.17076384 -0.09596079 -0.27015823 0.0078582885 -0.29470155 0.048196737 0.026093481
-0.14167047 -0.31881207 -0.20895866 -0.23721741 -0.1485144 -0.44451043 -0.17472039 -0.3684287
-0.29345235 -0.11791931 0.031096604 -0.09322303 -0.3168846 0.2224515 -0.3543905 -0.027785903
-0.24297048 0.008391086 -0.054899927 0.07568013 -0.3195683 -0.19036548 -0.022017593 -0.076945186
-0.39175072 0.023457577 -0.46933478 -0.22646631 -0.11201362 -0.056821078 -0.23937017 -0.08997827
-0.08350797 -0.077863485 -0.19788893 -0.15941885 0.043616686 -0.17562085 -0.28894424 -0.0023081212
-0.26917654 -0.08947109 -0.03449891 -0.327522 -0.23628166 0.004786372 -0.44661212 0.031239392
-0.20149302 -0.2036244 -0.31126553 -0.19156681 -0.17640989 -0.06463451 -0.16125311 -0.016783848
-0.57103956 -0.16434647 -0.06507842 0.019874016 -0.03393612 -0.1712509 -0.23794457 -0.36470768
0.12235268 -0.02606267 -0.33306128 0.06037263 0.017013121 -0.02062261 -0.27725077 -0.29486632
-0.0364474 -0.35152838 -0.26151812 0.2527719 -0.25643513 -0.106118515 0.4927901 -0.02401694
-0.07725134 -0.2923945 -0.042760286 0.013186826 0.05636174 -0.11600758 -0.09506788 -0.3447552
-0.28630167 -0.31497204 -0.14873448 -0.17207745 0.007820125 -0.14438224 -0.26573855 -0.11149655
00000000: ecda 1e3e cbe6 86be e512 08be 07b5 3fbe
00000010: 8e88 4abe bafc 14be 9932 59bd 2a7e 82be
00000020: 9964 19be 8d03 773d 3107 ecbd ce20 80be
00000030: 24fd fabb 9f6b 53bf 6da0 5bbd 49d2 6cbe
00000040: c484 43be dd13 39be 5ccc 5abe 5e86 a9be
00000050: ffe8 5fbd 6f47 94be 5762 8bbe b977 81be
00000060: c84b 53bd 0365 84be 22ab eabd e98f e3bd
00000070: 7b7c fbbc e207 8cbe 93eb 6dbe 2bdd b53a
00000080: 337f 99be c96d 6dbd e9db efbd 2cf9 68be
00000090: f3b9 093e de44 e1be 90d3 74be a78e 7dbe
000000a0: 58d7 a0be 3731 05bd d4fc 96be 0088 8dbe
000000b0: dbee 46be fb10 93be f4cb b3be f40e 74be
000000c0: 7069 7fbe 4232 2dbe 710b b13c 2fb5 07bd
000000d0: b449 ebbd 6d5b 63be 9622 40bd c667 0fbe
000000e0: 3b85 92bf 6097 4dbe 51d8 f2be 6e43 aeb8
000000f0: 5ea1 d6bd 4c2b ed3d 4a6a 9dbe a4a7 40be
00000100: 2f84 6fbe 82ae 92be 0d4b 38be 8ae2 813f
00000110: b004 e8bd a192 06be 01ff 8cbe 28a8 0abf
00000120: b177 f8bd dad4 8f3c 45b1 173c 2499 69be
00000130: f6c6 0b3e 0593 1dbf 494a 163f 6d28 a2be
00000140: d2d8 40be 3caa 5abe b4ba 88bd ba62 30bd
00000150: 999c efbe 353e 0ebe c9e3 82bd c95e d3bd
00000160: 0e71 31be a647 31be 54a1 29be c27f 67be
00000170: 0594 60be 01f8 45bd 4458 c5bc 68b7 71be
00000180: c500 693d 4929 43bd 4651 26be b5cf 71be
00000190: 6324 b2bd 6edc 9c3d 2fd7 c6be fe80 c33e
000001a0: df1c 82be e853 54bd ec66 89be 9d0a b6be
000001b0: ab06 98be 69a5 c9bd 566e 80be a6db 3dbe
000001c0: c4d7 b1bd 9027 1d3c 5829 edbe b8f4 8e3e
000001d0: 0806 d0be 34a3 84be f07d fabd 965a d6bd
000001e0: 7d11 11be f9de 1bbf 6a63 99bd 370e cebe
000001f0: 4e6c 673d 1621 e8be bf63 bbbd 3610 11bf
00000200: a873 aebe cb52 acbd e7e2 edbd 724b a4be
00000210: 16c6 07be 1ac6 dd3e 8a0e 88be 10aa 88bc
00000220: 5a93 f8bd 7784 bfbe 9fd8 a1be 535d 35be
00000230: 68f5 47bd 822c 48be 026e 69be cccf 1abf
00000240: c131 1bbc b366 84be f900 65be c3b2 5abe
00000250: 9a27 853d 8814 0bbd ea15 31be f5a7 cabc
00000260: 9e3f 893c b7dc 2ebe 1787 c4bd 2e52 8abe
00000270: 0dc0 003c 1fe3 96be f169 453d ffc1 d53c
00000280: 1012 11be 563b a3be 42f9 55be 1fe9 72be
00000290: 2914 18be df96 e3be e7e9 32be b0a2 bcbe
000002a0: 633f 96be ae7f f1bd 4ebe fe3c b7eb bebd
000002b0: b33e a2be 53ca 633e ac72 b5be 439f e3bc
000002c0: 41cd 78be c47a 093c bfde 60bd 2ffe 9a3d
000002d0: 759e a3be 2bef 42be 3d5e b4bc 7095 9dbd
000002e0: 8d93 c8be 1b2a c03c a64c f0be c9e6 67be
000002f0: 6667 e5bd 38bd 68bd 741d 75be 8746 b8bd
00000300: 3a06 abbd e476 9fbd 65a3 4abe b23e 23be
00000310: 69a7 323d f4d5 33be 80f0 93be d943 17bb
00000320: 82d1 89be 9e3c b7bd bb4e 0dbd f7b0 a7be
00000330: d2f3 71be 00d7 9c3b 58aa e4be c1e9 ff3c
00000340: 3054 4ebe ea82 50be 325e 9fbe 172a 44be
00000350: cba4 34be 195f 84bd 891f 25be 487e 89bc
00000360: a62f 12bf 714a 28be d647 85bd d5ce a23c
00000370: 9a00 0bbd 655c 2fbe bea7 73be f7ba babe
00000380: 0b94 fa3d 6181 d5bc 0287 aabe 4a49 773d
00000390: 1a5f 8b3c bff0 a8bc d0f3 8dbe b8f8 96be
000003a0: de49 15bd 87fb b3be b4e5 85be 526b 813e
000003b0: 774b 83be aa54 d9bd fc4e fc3e 2cbf c4bc
000003c0: f335 9ebd bbb4 95be 6925 2fbd 8f0d 583c
000003d0: 91db 663d 6295 edbd f3b2 c2bd c183 b0be
000003e0: 2296 92be 0444 a1be da4d 18be 1235 30be
000003f0: fb1f 003c f0d8 13be e20e 88be 4e58 e4bd

Encoder.enc2.weight f4 [40, 256]
-0.019571042 0.035971113 0.005620347 0.0040024044 -0.0075924415 0.013434499 0.006382567 0.007334806
0.04735877 0.021254316 -0.0028853104 -0.046372384 0.020280752 -0.0111378 -0.005174386 0.028298022
0.061462056 0.0641503 0.021266336 -0.010378378 0.020627836 -0.019951465 -0.0046509383 0.04666922
0.008054232 0.029537156 -0.017716784 0.011632917 0.048818026 0.032860443 0.05298319 -0.005768873
-0.0007057072 0.0042566024 -0.012503887 0.04583951 -0.045405015 -0.0170987 -0.026878726 -0.00961765
0.014727813 -0.021769296 0.029749556 -0.0038117915 -0.058368623 0.027241249 0.00827775 0.0020406204
-0.002723303 -0.05834329 -0.020827936 0.004173218 -0.0011363421 -0.009256453 0.0011979456 -0.0061523076
0.032421187 0.0024670663 0.0066106487 0.025604581 0.04386257 -0.0038315554 2.1023865e-05 0.03657887
0.017792005 -0.026912427 0.0076484494 0.004849643 0.013364423 0.026748102 -0.01289808 -0.023934947
0.046863087 0.009663626 0.04616111 -0.017204791 -0.03914361 -0.007652705 0.005351866 -0.012949201
0.03324271 -0.034825377 -0.012260476 0.014747646 -0.017947126 -0.05844499 -0.08737749 0.016518347
0.038840972 0.004552561 -0.010579846 -0.008372791 -0.03928263 0.016662564 0.008398036 0.0030038678
-0.02700878 0.02668863 0.02166825 -0.016319599 0.03499994 -0.018805467 -0.052181154 -0.008073797
0.025197081 -0.034280993 -0.033015735 0.042663738 -0.0045011723 0.010847317 0.024596758 0.016965486
-0.026125094 0.041185617 0.010891665 0.0006484323 0.011246703 -0.009289462 0.042699896 0.021488823
-0.011091478 0.022479298 -0.027964462 -0.00060969725 -0.0050417944 -0.02802846 0.008991583 -0.015532095
-0.04056309 -0.03122716 0.017630879 0.014817297 0.009912179 -0.001574176 -0.02669681 0.0068839546
0.06592462 0.0014232835 -0.00884054 0.018050881 -0.012248875 -0.010720238 0.019041184 0.0031892234
0.008176279 0.0076356065 0.028763581 0.007478536 -0.033152666 -0.011604554 -0.025434036 -0.029805752
0.0122013595 -0.034482487 -0.030159034 0.0012470663 0.009488719 -0.03427397 0.0141708655 0.02716521
0.013292041 0.023440074 0.03716145 0.028993635 0.06826515 0.012004402 -0.019818677 0.032505076
0.0220239 0.010233445 -0.05605302 0.0041862642 0.0034040746 -0.013500526 0.011284957 -0.0011948763
0.016292911 0.04515402 0.0078219315 0.032054704 0.010117868 0.011934274 -0.03463603 -0.049207296
0.026391566 0.014090664 0.015998166 0.004746382 0.01564647 0.032882437 0.011991112 0.024111252
-0.027148524 0.013708761 0.019356584 -0.010458031 -0.016534481 0.027498785 0.03323229 -0.022420768
-0.0112753585 -0.027709872 0.017894477 -0.009184751 -0.010791525 -0.031152247 -0.009466509 -0.06870897
0.015010458 -0.004251532 0.023153719 -0.010103025 -0.020781215 0.018633258 -0.020496193 0.023554325
5.802085e-05 -0.030159146 -0.022832595 -0.0022341989 -0.004707464 -0.016967498 0.0017716892 0.027488599
0.011544707 0.023418741 -0.0018868614 0.0047648423 -0.0308351 0.004548912 0.023823356 0.012491035
-0.024884311 -0.021126935 0.036589224 0.0032450892 -0.00409186 0.02921708 0.0017065777 0.029761862
0.0035060118 -0.0025885496 -0.06726129 -0.014316464 0.017987516 -0.004087061 -0.035461497 -0.0057936776
-0.029497635 -0.032329038 0.012371463 0.009764601 -0.019976908 0.0018123256 -0.0012192135 -0.017776549
00000000: 7353 a0bc 7256 133d e32a b83b 9a26 833b
00000010: 04ca f8bb 5f1c 5c3c da24 d13b d058 f03b
00000020: 45fb 413d 881d ae3c 7a17 3dbb f8f0 3dbd
00000030: d223 a63c 527b 36bc e58d a9bb 41d1 e73c
00000040: a3bf 7b3d 3c61 833d bd36 ae3c 130a 2abc
00000050: b5fb a83c 4171 a3bc e666 98bb 3928 3f3d
00000060: e6f5 033c e8f7 f13c ca22 91bc fe97 3e3c
00000070: 69f5 473d ac98 063d e704 593d d008 bdbb
00000080: 35ff 38ba f87a 8b3b 1add 4cbc 36c2 3b3d
00000090: 9cfa 39bd 9312 8cbc c630 dcbc 5993 1dbc
000000a0: ed4c 713c 8655 b2bc 57b5 f33c 40cf 79bb
000000b0: f013 6fbd 0a29 df3c 669f 073c eebb 053b
000000c0: 7179 32bb 60f9 6ebd 599f aabc 7dbf 883b
000000d0: 50f1 94ba 61a8 17bc 6204 9d3a 4c99 c9bb
000000e0: 14cc 043d 81ae 213b 249e d83b b3c0 d13c
000000f0: 3da9 333d d51a 7bbb 685c b037 bad3 153d
00000100: 8ac0 913c 7377 dcbc d89f fa3b c1e9 9e3b
00000110: 74f6 5a3c d61e db3c 7852 53bc 3913 c4bc
00000120: 82f3 3f3d 2f54 1e3c 6f13 3d3d 10f1 8cbc
00000130: 0d55 20bd 8bc3 fabb b55e af3b e328 54bc
00000140: 8229 083d 0ea5 0ebd 2ae0 48bc 1ca0 713c
00000150: da05 93bc 0464 6fbd f8f2 b2bd 7c51 873c
00000160: b617 1f3d a62d 953b 1757 2dbc 082e 09bc
00000170: d3e6 20bd ee7f 883c ea97 093c 8adc 443b
00000180: 8441 ddbc 1da2 da3c 9d81 b13c aeb0 85bc
00000190: 195c 0f3d ec0d 9abc e8bb 55bd f647 04bc
000001a0: 1c6a ce3c 3a6a 0cbd 823b 07bd 2cc0 2e3d
000001b0: 927e 93bb f2b8 313c 247f c93c 34fb 8a3c
000001c0: 4b04 d6bc 40b2 283d f472 323c 8efb 293a
000001d0: 1744 383c d432 18bc 16e6 2e3d 5409 b03c
000001e0: 08b9 35bc 8126 b83c ba15 e5bc 17d4 1fba
000001f0: a335 a5bb f19b e5bc 6f51 133c 547a 7ebc
00000200: 7c25 26bd 1ad0 ffbc a26e 903c 40c4 723c
00000210: b166 223c 9554 ceba 45b3 dabc cc92 e13b
00000220: 7d03 873d 788d ba3a ead7 10bc 71df 933c
00000230: 81af 48bc f0a3 2fbc 42fc 9b3c 4a02 513b
00000240: cdf5 053c 1c34 fa3b 9aa1 eb3c 820e f53b
00000250: 17cb 07bd 0721 3ebc 0a5b d0bc 312b f4bc
00000260: 36e8 473c 823d 0dbd 1410 f7bc 9a74 a33a
00000270: 9276 1b3c dd62 0cbd eb2c 683c 9389 de3c
00000280: dcc6 593c 6605 c03c 9b36 183d 0f84 ed3c
00000290: 99ce 8b3d 1cae 443c c75a a2bc 0b24 053d
000002a0: 776b b43c 2eaa 273c da97 65bd ee2c 893b
000002b0: e516 5f3b 4f31 5dbc 8ae4 383c 659d 9cba
000002c0: b678 853c 6cf3 383d 8f27 003c cb4b 033d
000002d0: 6ac5 253c f987 433c 83de 0dbd 978d 49bd
000002e0: 2033 d83c 87dc 663c 960e 833c 8a87 9b3b
000002f0: 072d 803c bcaf 063d 5e76 443c f684 c53c
00000300: 9566 debc b69a 603c b391 9e3c 2958 2bbc
00000310: 5273 87bc 2245 e13c 951e 083d c2ab b7bc
00000320: 48bc 38bc d0ff e2bc 7097 923c a37b 16bc
00000330: f0ce 30bc ff32 ffbc 6b19 1bbc 4ab7 8cbd
00000340: 6dee 753c 6f50 8bbb deac bd3c 2887 25bc
00000350: 5e3d aabc c6a4 983c a2e7 a7bc 00f5 c03c
00000360: 6a5b 7338 5010 f7bc 6c0b bbbc a36b 12bb
00000370: 1241 9abb 6cff 8abc 0638 e83a c52f e13c
00000380: 0326 3d3c a9d8 bf3c 9050 f7ba 6522 9c3b
00000390: e499 fcbc 0a0f 953b 3329 c33c 33a7 4c3c
000003a0: 2fda cbbc 6512 adbc 95de 153d 90ab 543b
000003b0: 0215 86bb a858 ef3c 3faf df3a 26cf f33c
000003c0: 1ec5 653b a8a4 29bb 4ac0 89bd 9a8f 6abc
000003d0: 8e5a 933c c1ec 85bb 1340 11bd e4d8 bdbb
000003e0: 06a5 f1bc 746b 04bd adb1 4a3c b4fb 1f3c
000003f0: 9da6 a3bc 8e8b ed3a 04ce 9fba 20a0 91bc

Encoder.enc2.bias f4 [40]
-0.0016736592 0.0014820432 -0.0048322324 -0.08171077 -0.0003790669 -0.032920834 -0.04946371 0.004133896
0.0028291133 0.044085696 -0.038536794 -0.0034087251 -0.0037387183 -0.005417237 -0.013057234 0.0027256329
0.0011905866 -0.0045350734 0.015972717 -0.0026404914 -0.0122622745 -0.009037411 -0.009522334 -0.4782498
-0.008264576 -0.46779576 -0.47820815 -0.011428534 -0.01034512 -0.34016553 -0.48802066 -0.0058077876
-0.006871363 -0.007972871 -0.43102524 -0.011548581 -0.017422423 -0.007914645 -0.34733024 -0.0064067086
00000000: af5e dbba 1e41 c23a b457 9ebb fa57 a7bd
00000010: 80bd c6b9 ffd7 06bd 769a 4abd a275 873b
00000020: a568 393b 3493 343d c2d8 1dbd eb64 5fbb
00000030: 4905 75bb 1483 b1bb 02ee 55bc 88a0 323b
00000040: 750d 9c3a f49a 94bb 37d9 823c 180c 2dbb
00000050: b5e7 48bc a611 14bc 9003 1cbc 28dd f4be
00000060: 2568 07bc ed82 efbe b3d7 f4be bf3e 3bbc
00000070: 947e 29bc 2d2a aebe d8dd f9be 414f bebb
00000080: 2c29 e1bb a5a0 02bc 57af dcbe 4236 3dbc
00000090: 78b9 8ebc 6dac 01bc 45d5 b1be 5eef d1bb

Decoder.dec1.weight f4 [256, 20]
0.0045837243 0.007974758 -0.012741368 -0.10190112 -0.00081142527 -0.004527163 0.005124238 -0.007715398
-0.0034440658 -0.0027788694 -0.026831634 0.0039578327 0.0058078505 0.0016691479 -0.0037420185 0.0064417436
-0.012262545 -0.0010447605 -0.19105229 0.013183634 0.0011758154 0.0008836378 -0.011262563 -0.03023227
-3.5037803e-05 0.008440392 -0.10025918 0.0001994514 -0.0021639264 -0.0024559419 -0.13842164 -0.006154454
0.0038938213 0.006439363 -0.00082377443 -0.0062724166 0.00037333215 0.001494175 0.002668008 0.011566573
0.004625462 0.005183292 0.0039037627 0.21041957 0.0033864526 -0.019252071 -0.00085808506 -0.0011930068
0.00029070769 0.01150515 0.008176258 -0.002940907 0.0018056848 0.0017028545 0.014271018 -0.00381828
0.0056887507 0.0022948582 -0.004792358 0.0029287934 -0.008718772 0.005741119 -0.0034962858 -0.16843599
-0.011174368 -0.012091187 -0.04525032 -0.010694287 -1.8003432e-06 0.012943602 -0.0032474124 -0.004366437
-0.009028528 -0.0023423592 0.0011244243 -0.0046716407 0.005518831 -0.010217831 -0.17638196 -0.0036515177
0.006266701 -0.0058479486 -0.0051575 0.0032047043 0.0009557053 0.006100012 -0.004185841 -0.007748874
-0.00936789 0.0014062909 -0.00816 -0.012595172 0.004359934 0.006935169 -0.001598612 0.003272107
0.0006655549 -0.007842146 -0.0034236899 -0.0016301214 -9.988399e-06 0.0018411189 0.00031153174 -0.13584869
-0.0038985438 0.008484854 -0.007421157 0.0015165751 0.0019127752 -0.006454269 -0.0011220673 0.00035062185
-0.003454578 -0.0025346633 -0.010889127 -0.0034456837 0.0002595219 -0.002176546 0.0038611114 -0.0013076625
-0.0028857084 -0.000995812 0.0015446199 -0.016580729 0.001764821 0.0030663635 -0.090142034 -0.0031448659
0.0051229033 -0.0032719118 -0.007844708 0.0030951605 0.00062370504 -0.0063638217 -0.002138146 0.0016124883
-0.0024207854 0.0042312634 -0.0007444652 -0.004392356 0.0018697715 -0.020279616 -0.010359478 -0.03722164
-0.0074986094 -0.117889725 -0.006560543 -0.0030233043 0.019322498 0.001843981 0.010051255 0.004758877
-0.0016807684 0.009968549 0.111168645 0.009420065 0.0001322182 -0.005242301 0.008492871 -0.01294946
0.0031323675 0.0009821239 -0.0007939555 0.015543683 0.007047054 -0.07760757 -0.0032022744 -0.00081171916
0.0003340217 0.013550023 -0.0050708037 0.00013062605 0.0023153026 -0.0003300464 -0.056809116 0.0012800813
0.0032255885 -0.008762261 -0.009379892 -0.005638093 0.0046801474 -0.0046091657 0.002828636 -0.0066176285
-0.0024474575 0.0462643 -0.009010997 0.0016597192 0.0014146988 -0.0056405915 0.001863191 0.0034388953
-0.0033587036 0.0020174137 0.043696105 -0.0036433244 0.0009033534 0.0017215688 0.0019445223 -0.0034911202
-0.00016922603 -0.005331365 0.003447303 -0.024561763 0.005719392 -0.003587998 -0.08708648 -0.00024882544
-0.002614166 -0.004768234 -0.012710303 0.0013605683 -0.0016560224 -0.00726989 0.003812989 -0.0029781046
0.0020364781 -0.00064297405 -0.00016380705 -0.0015503925 0.0006395133 0.0012816035 0.0032099837 -0.016817173
0.005323961 0.0072409837 -0.097963735 0.0039804475 -0.0043815784 0.0020045508 -0.013310805 -0.0032005173
-0.0019191325 -0.0008600594 0.0050208513 -0.005290357 -0.0016843317 0.0031891975 0.0024906285 0.0037070047
-0.002960536 -0.0002459093 -0.0055186744 0.1740538 -0.004870213 -0.0132042095 -0.008896209 0.00828698
-0.0045948606 0.0008338336 0.005951801 0.001115278 0.0049117617 0.0040502897 0.015793603 0.0050972938
00000000: 1133 963b 8fa8 023c 2cc1 50bc 89b1 d0bd
00000010: d4b5 54ba 9958 94bb 39e9 a73b 73d1 fcbb
00000020: d6b5 61bb b11d 36bb 04ce dbbc b5b0 813b
00000030: c84f be3b 4fc7 da3a a73c 75bb 4315 d33b
00000040: d7e8 48bc 58f0 88ba 36a3 43be 2b00 583c
00000050: d11d 9a3a eea3 673a 9d86 38bc aaa9 f7bc
00000060: 8ef5 12b8 9249 0a3c af54 cdbd d423 5139
00000070: a9d0 0dbb def3 20bb 67be 0dbe 4dab c9bb
00000080: 7b2f 7f3b 4b01 d33b 91f2 57ba d888 cdbb
00000090: cbbb c339 32d8 c33a bfd9 2e3b b981 3d3c
000000a0: 3091 973b 9bd8 a93b 45d6 7f3b 3a78 573e
000000b0: 3fef 5d3b 85b6 9dbc 1df1 60ba aa5e 9cba
000000c0: 206a 9839 1980 3c3c b6f5 053c 3bbc 40bb
000000d0: baac ec3a 5132 df3a fdd0 693c 1c3c 7abb
000000e0: b368 ba3b 5565 163b 3609 9dbb 00f1 3f3b
000000f0: 2ed9 0ebc ff1f bc3b f121 65bb 7c7a 2cbe
00000100: b214 37bc 1d1a 46bc 6658 39bd 1737 2fbc
00000110: 52a3 f1b5 6711 543c 8ad2 54bb 5414 8fbb
00000120: 64ec 13bc 4482 19bb 6b61 933a 9014 99bb
00000130: 4fd7 b43b b068 27bc 799d 34be 4d4e 6fbb
00000140: e658 cd3b 26a0 bfbb 3f00 a9bb 0406 523b
00000150: 4c88 7a3a 9ce2 c73b 6129 89bb 44ea fdbb
00000160: c77b 19bc 4b53 b83a 85b1 05bc fb5b 4ebc
00000170: c7dd 8e3b 6a40 e33b 8588 d1ba d970 563b
00000180: a278 2e3a 587c 00bc fc5f 60bb cca9 d5ba
00000190: d993 27b7 b351 f13a 1555 a339 eb1b 0bbe
000001a0: b67e 7fbb 0f04 0b3c 2d2d f3bb d1c7 c63a
000001b0: 16b6 fa3a 557e d3bb 5512 93ba abd3 b739
000001c0: 3466 62bb 981c 26bb 4f68 32bc fbd0 61bb
000001d0: 7110 8839 62a4 0ebb b30a 7d3b df65 abba
000001e0: 271e 3dbb e885 82ba d874 ca3a 4fd4 87bc
000001f0: 9151 e73a 0bf5 483b 639c b8bd 181a 4ebb
00000200: 07de a73b 926d 56bb 1787 00bc 2dd8 4a3b
00000210: 2380 233a 9b87 d0bb 2320 0cbb 215a d33a
00000220: 0aa6 1ebb 69a6 8a3b 3728 43ba c1ed 8fbb
00000230: 1f13 f53a 7021 a6bc cdba 29bc b875 18bd
00000240: e5b6 f5bb 2b70 f1bd d3f9 d6bb a122 46bb
00000250: 374a 9e3c bcb1 f13a 05ae 243c 5bf0 9b3b
00000260: 3b4d dcba 2053 233c 63ac e33d 9e56 1a3c
00000270: 0ea4 0a39 9cc7 abbb af25 0b3c f929 54bc
00000280: 6848 4d3b 9cba 803a 7421 50ba efaa 7e3c
00000290: f9ea e63b b8f0 9ebd 40dd 51bb 8dc9 54ba
000002a0: a21f af39 ea00 5e3c fc28 a6bb aaf8 0839
000002b0: 55bc 173b 140a adb9 adb0 68bd 67c8 a73a
000002c0: 6564 533b 968f 0fbc 1eae 19bc c1bf b8bb
000002d0: ec5b 993b 7c08 97bb a360 393b b1d8 d8bb
000002e0: 8665 20bb a27f 3d3d dca2 13bc ef8a d93a
000002f0: 6a6d b93a b6d4 b8bb 5136 f43a 175f 613b
00000300: b21d 5cbb 9636 043b b0fa 323d d7c4 6ebb
00000310: 05cf 6c3a 43a6 e13a 57df fe3a 47cb 64bb
00000320: 4472 31b9 bbb2 aebb 26ec 613b c035 c9bc
00000330: bd69 bb3b 9e24 6bbb 655a b2bd c974 82b9
00000340: 6d52 2bbb d93e 9cbb e03e 50bc 1955 b23a
00000350: e40e d9ba 4238 eebb 57e3 793b 4e2c 43bb
00000360: 6f76 053b 428d 28ba 9fc3 2bb9 8a36 cbba
00000370: 03a5 273a 7afb a73a 975e 523b 2bc4 89bc
00000380: 9f74 ae3b c645 ed3b 36a1 c8bd 6a6e 823b
00000390: 5893 8fbb c85e 033b 9015 5abc c5bf 51bb
000003a0: 678b fbba 9c75 61ba f485 a43b bb5a adbb
000003b0: cbc4 dcba db01 513b d039 233b 38f1 723b
000003c0: 8d05 42bb 63ed 80b9 ffd5 b4bb 293b 323e
000003d0: 4f96 9fbb 7856 58bc 68c1 11bc 1dc6 073c
000003e0: 7c90 96bb a095 5a3a 5307 c33b 852e 923a
000003f0: d8f2 a03b 4bb8 843b 9661 813c 3307 a73b

Decoder.dec1.bias f4 [256]
-0.4323491 -0.14274949 0.027618833 -0.4094607 -0.13300514 -0.08335148 0.0028077504 -0.24672239
-0.0094390735 -0.004685139 0.013562824 0.0034111068 0.003578436 0.0067033316 -0.36214426 0.014456474
0.014050414 -0.32171455 0.0057448745 0.004642993 -0.015466745 0.006757176 -0.6615303 -0.08945382
-0.30767247 0.008152106 0.00309147 -0.7016367 -0.38755512 -0.011884774 -0.015523954 0.013170863
-0.0037165764 0.011262019 -0.1668889 -0.0121401725 0.012384435 0.004214228 -0.0014298252 -0.116163775
-0.09133425 -0.8084231 -0.08983434 -0.68343866 0.010381722 0.009716322 -0.807301 0.009229968
0.010408398 -1.2940805 0.0024453853 -0.0026422164 0.010506346 0.013198556 -0.014553688 -0.112892956
-0.0019016161 -0.01978915 0.0061493604 -0.11301556 -0.44098127 0.0021334256 -0.38857365 0.0007494445
-0.007346523 -0.16650918 -0.46499273 0.0073647215 -0.36217377 -0.09056618 -0.36745745 0.002437469
-0.012145768 0.0048415796 0.0003999988 -0.09518442 -0.028796576 -0.017941127 -0.004313834 -0.4442914
-0.6131139 0.008155176 -0.5430572 0.012485082 -0.0014284523 0.0010369958 -0.4366453 -0.33768296
-0.0037749966 0.0031840843 -0.5505565 -0.09083431 0.013600945 -0.09164396 0.0024849493 -0.599497
0.0052988515 0.0069176457 -0.6265214 -0.08991188 -0.61553603 0.003919965 -0.6385767 -0.11410717
0.009166897 -0.090862125 -0.12701036 -0.09291299 -0.003913466 0.012122645 0.005410137 -0.09010767
-0.0066205254 -0.5307745 -0.11453304 -0.1399774 0.0044945343 -0.5408508 -0.00174711 0.0060057086
-0.118274465 -0.13073133 -0.10328065 -0.0053695072 -0.38889226 0.005288001 -0.3930671 -0.10313155
-0.01636244 -0.6551601 -0.08480436 -0.05075698 -0.008989464 -0.026279638 0.0150070265 -0.7419588
-0.0016835288 0.0002116264 0.014064279 -0.13401109 0.012945397 -0.084488995 -0.3604481 -0.017752966
-0.7155941 0.01610335 0.000874591 0.004029366 -0.43448144 -0.009449863 0.0073240325 -0.0041618138
-0.40224823 0.003504886 -0.10348827 -0.0064863274 -0.3212324 0.033121657 0.0026720744 -0.11461691
-0.46783292 0.007258665 -0.009569382 -0.08556391 0.00474662 -0.0054418063 0.0030621411 -0.11898636
0.0028057867 0.0058893072 -0.029931104 0.007990759 -0.09005731 -0.6591667 0.011078502 0.013991984
-0.71641845 -0.42775032 -0.47417995 0.022488333 -0.08527054 -0.6737805 0.0012306515 -0.070754826
0.010043345 0.00783555 -0.08803709 -0.54667866 0.004295849 -0.08192952 -0.07544879 0.0020631817
0.008903383 -0.008779402 0.006132149 -0.40406048 0.007297309 0.013667873 0.0005610261 -0.005649864
-0.019785717 -9.049121e-05 0.001839345 -0.14291166 0.015847968 -0.013576017 0.009439315 -0.1542735
0.008400936 -0.086020716 0.0043780617 0.004574942 -0.37142965 -0.651121 -0.01576938 -0.018010216
-0.015073876 -0.09370531 -0.0027797315 -0.5632727 -0.0060213185 -1.0861168 -0.014290179 -0.021287814
-0.090583205 -0.022217536 4.0628103e-05 -0.016007364 0.010449673 0.0019886568 -0.009849365 0.009742927
0.0017730042 -0.15755366 -0.610112 -1.219416 -0.011336408 -0.54223126 0.005603011 0.007831336
0.010432301 0.003580263 -0.113808945 -0.0009347859 0.013958515 -0.12180258 -0.088707104 -0.8426747
-0.0014595476 0.00084177835 0.023743922 0.026650993 -0.45710137 0.012118479 0.026443262 -0.015499293
00000000: dc5c ddbe ec2c 12be e440 e23c d5a4 d1be
00000010: 8032 08be 2eb4 aabd 3c02 383b cba4 7cbe
00000020: 58a6 1abc cb85 99bb 9b36 5e3c e08c 5f3b
00000030: 3284 6a3b 9fa7 db3b f96a b9be d9da 6c3c
00000040: b533 663c c5b7 a4be 803f bc3b 4024 983b
00000050: 3b68 7dbc 4d6b dd3b 0d5a 29bf 9033 b7bd
00000060: 3f87 9dbe 6990 053c 439a 4a3b 769e 33bf
00000070: a06d c6be 5bb8 42bc 2f58 7ebc 9aca 573c
00000080: ce91 73bb 5584 383c ece4 2abe 93e7 46bc
00000090: 16e8 4a3c 8217 8a3b f968 bbba 46e7 edbd
000000a0: 740d bbbd d1f4 4ebf 11fb b7bd d6f5 2ebf
000000b0: 1918 2a3c 3531 1f3c 47ab 4ebf 4b39 173c
000000c0: fc87 2a3c 6ea4 a5bf c242 203b 0929 2dbb
000000d0: cf22 2c3c c23e 583c 9772 6ebc 6c34 e7bd
000000e0: a63f f9ba db1c a2bc 9380 c93b b474 e7bd
000000f0: 4cc8 e1be f1d0 0b3b 20f3 c6be 5e76 443a
00000100: 1abb f0bb 6281 2abe 8713 eebe c353 f13b
00000110: d76e b9be c37a b9bd 6223 bcbe f2bd 1f3b
00000120: 0bff 46bc 1da6 9e3b eeb6 d139 0df0 c2bd
00000130: cce6 ebbc 45f9 92bc 105b 8dbb 2a7a e3be
00000140: 08f5 1cbf 4a9d 053c cc05 0bbf 3b8e 4c3c
00000150: e83a bbba ceeb 873a f98f dfbe c8e4 acbe
00000160: ef65 77bb 12ac 503b 45f1 0cbf 5707 babd
00000170: 7fd6 5e3c d4af bbbd 88da 223b a378 19bf
00000180: fda1 ad3b 6bad e23b b563 20bf b823 b8bd
00000190: c593 1dbf 0d73 803b c379 23bf 05b1 e9bd
000001a0: c130 163c ec15 babd 010f 02be 2a49 bebd
000001b0: 883c 80bb 0f9e 463c 8547 b13b 5f8a b8bd
000001c0: fef0 d8bb d6e0 07bf 4c90 eabd 3c56 0fbe
000001d0: e346 933b 3375 0abf 49ff e4ba 89cb c43b
000001e0: e239 f2bd 6fde 05be ce84 d3bd b1f2 afbb
000001f0: e31c c7be f846 ad3b 1740 c9be a236 d3bd
00000200: 860a 86bc 93b8 27bf e9ad adbd 8de6 4fbd
00000210: 8b48 13bc 6548 d7bc 08e0 753c 03f1 3dbf
00000220: daa9 dcba 07e8 5d39 dd6d 663c 343a 09be
00000230: ee18 543c 9108 adbd a78c b8be ab6e 91bc
00000240: 2d31 37bf 2ceb 833c cf44 653a c608 843b
00000250: 5a74 debe 99d3 1abc 70fe ef3b d35f 88bb
00000260: 7bf3 cdbe 3bb2 653b a8f1 d3bd 428b d4bb
00000270: 9378 a4be 93aa 073d f81d 2f3b 45bc eabd
00000280: cc87 efbe 18da ed3b e6c8 1cbc 223c afbd
00000290: 8989 9b3b 2e51 b2bb 34ae 483b 1faf f3bd
000002a0: 4ae1 373b 17fb c03b 1332 f5bc aceb 023c
000002b0: f86f b8bd 26bf 28bf 9b82 353c a23e 653c
000002c0: 3367 37bf 1702 dbbe b7c7 f2be 7439 b83c
000002d0: 52a2 aebd e17c 2cbf d04d a13a e8e7 90bd
000002e0: d88c 243c ae60 003c ca4c b4bd 22f3 0bbf
000002f0: 31c4 8c3b aaca a7bd e584 9abd 7236 073b
00000300: 7fdf 113c 7bd7 0fbc 32f0 c83b 04e1 cebe
00000310: 441e ef3b 37ef 5f3c d311 133a 7f22 b9bb
00000320: a815 a2bc 19c6 bdb8 2d16 f13a 6f57 12be
00000330: 99d3 813c f16d 5ebc 5ba7 1a3c dff9 1dbe
00000340: 14a4 093c a12b b0bd d875 8f3b 65e9 953b
00000350: 072c bebe deaf 26bf c92e 81bc 298a 93bc
00000360: 6bf8 76bc 92e8 bfbd 282c 36bb a432 10bf
00000370: 7b4e c5bb e005 8bbf 5b21 6abc c863 aebc
00000380: b083 b9bd 8d01 b6bc 1868 2a38 e021 83bc
00000390: 1b35 2b3c 2054 023b 3b5f 21bc cca0 1f3c
000003a0: 2664 e83a bf55 21be 4d30 1cbf d315 9cbf
000003b0: 57bc 39bc abcf 0abf 7799 b73b 014f 003c
000003c0: 3eec 2a3c d8a2 6a3b aa14 e9bd 6b0c 75ba
000003d0: 41b2 643c a273 f9bd 12ac b5bd 87b9 57bf
000003e0: 4a4e bfba caaa 5c3a 9d82 c23c 2f53 da3c
000003f0: 3109 eabe 968c 463c 8a9f d83c bff0 7dbc

Decoder.dec2.weight f4 [31, 256]
0.23345666 -0.049260795 -0.41538414 0.0143839875 0.2319533 0.25346428 0.0717976 -0.5846228
-1.1659663 0.63034296 0.022275563 -0.03410855 -0.09412453 -0.957538 0.004696133 0.06691121
-0.010260519 0.04568611 -0.7415276 0.060339164 0.29428038 0.04560967 0.042044338 0.25221086
-0.5723461 0.026424058 -0.08872688 -0.6704792 -0.098370746 0.38986176 0.3626731 0.04530067
0.16351882 0.058172803 -0.020690946 0.33473936 0.04376536 0.06809874 0.13950738 1.9447452
0.2371167 0.05951475 0.23271653 0.021687262 0.011216354 0.0787656 0.22466613 0.09508085
0.06841513 -1.3072984 0.058597162 0.7147335 0.050304737 0.047442947 -2.2906194 0.7845277
-0.5917905 -0.45084697 -1.2024847 -0.14608704 -0.055986974 0.054097902 -0.09095091 0.045845352
-0.32590467 -0.014131851 0.070923865 0.09907731 -0.014078585 0.27550176 0.008691678 -1.1380712
0.14001344 0.04199052 0.47853705 -0.15279624 0.4801053 0.13129297 -0.7977272 -0.36236468
0.3056054 0.04823823 -0.03397632 0.01391872 0.5854235 0.11064677 -0.1369127 -0.014075065
-0.0031607316 -0.4637245 -0.05599739 0.21910532 0.13842888 0.2298366 0.06496329 -0.05036869
-0.85551137 0.09035767 -0.004945953 0.47329423 -0.0712037 0.06261539 -0.109442435 0.567791
-1.0789702 0.22390044 0.33007213 0.20777617 0.69368947 0.02933995 -0.6510702 0.28091216
-1.751718 -0.018961845 -0.11369575 -0.40653569 0.04297762 -0.083901085 0.67204094 -0.7444767
0.31230855 0.8451819 -0.41677016 0.28525984 0.009826412 -0.61474794 0.084787 0.3450207
0.50622976 -0.058552854 0.24287014 -0.028575981 -0.60917586 0.1138514 0.042592473 -0.088687755
-0.43832 -0.8708703 0.016952636 0.005698423 0.022938833 0.3223597 0.017520068 0.07797695
0.021029187 -0.4389106 0.69562393 0.05890587 0.05053402 -1.0572368 0.0018213559 -0.7246569
0.055485677 0.9216995 0.92369264 -0.3599533 -0.731602 -0.09587467 0.007306612 -0.6012633
-0.07938892 0.03621276 -0.35989556 0.2767522 0.07561904 -1.0435317 0.069758266 -0.2958842
0.05252479 0.07796284 0.3254403 -0.81289506 0.23012896 -0.14504449 0.06774387 0.021147888
0.106427856 0.0914039 0.20733236 -0.34451017 0.27341723 0.04624477 0.036703378 0.09978239
-0.0200103 -1.0079302 -0.026806748 -1.0123053 0.6257038 -0.39531866 0.38886413 0.08213967
0.10581108 0.2969327 0.018928183 -0.10260262 0.058318254 -1.0656536 -1.1285197 0.3605609
0.3008243 0.5198214 -1.0223846 -0.032584485 -0.70058435 0.2554128 0.058685195 0.54894793
0.068831675 0.83139473 0.05620725 0.6598011 -0.00035010386 0.023408622 0.32000554 0.821438
0.37065592 0.24304682 0.4771122 0.12324375 -0.21848011 -0.55305284 0.31546825 -0.045583192
0.20599914 0.5740867 0.67580324 0.18727212 0.027395139 -0.82163066 0.3750582 0.07234363
0.7243542 -0.035296276 -0.06809291 -0.6995639 0.2841687 -0.5196666 0.020047551 0.0540426
0.04996826 -0.8231688 -1.170046 -0.7500129 0.075240485 -0.2956407 0.2643381 -0.7042883
-0.5424891 -0.80642074 -0.4413112 -0.1253397 -0.13150148 -0.48523134 -0.15858409 0.4615878
00000000: 430f 6f3e b0c5 49bd 3bad d4be d1aa 6b3c
00000010: 2a85 6d3e 12c6 813e 9f0a 933d d7a9 15bf
00000020: 623e 95bf 285e 213f 3e7b b63c 68b5 0bbd
00000030: 5dc4 c0bd 3621 75bf 05e2 993b bf08 893d
00000040: bc1b 28bc 5c21 3b3d c1d4 3dbf 3326 773d
00000050: ebab 963e 35d1 3a3d af36 2c3d c821 813e
00000060: 4685 12bf 4477 d83c 70b6 b5bd 86a4 2bbf
00000070: 9a76 c9bd f69b c73e 4ab0 b93e 328d 393d
00000080: 7a71 273e 9b46 6e3d 0f80 a9bc f562 ab3e
00000090: 4e43 333d 5a77 8b3d 06db 0e3e 69ed f83f
000000a0: b8ce 723e bdc5 733d 3e4d 6e3e 7ca9 b13c
000000b0: ccc4 373c dc4f a13d e10e 663e c0b9 c23d
000000c0: 3b1d 8c3d 8e55 a7bf 9403 703d c6f8 363f
000000d0: 570c 4e3d 8953 423d 8299 12c0 cfd6 483f
000000e0: 957f 17bf 6ad5 e6be 05eb 99bf d797 15be
000000f0: 9952 65bd c395 5d3d 7844 babd 56c8 3b3d
00000100: fadc a6be 4789 67bc 8840 913d 0be9 ca3d
00000110: dea9 66bc 910e 8d3e 8a67 0e3c 51ac 91bf
00000120: af5f 0f3e 40fe 2b3d cf02 f53e 9e76 1cbe
00000130: 5dd0 f53e aa71 063e da37 4cbf dd87 b9be
00000140: 5078 9c3e 7395 453d c12a 0bbd 580b 643c
00000150: 51de 153f c69a e23d d832 0cbe 1a9b 66bc
00000160: 4724 4fbb 4c6d edbe 855d 65bd 255d 603e
00000170: 4dc0 0d3e 495a 6b3e 790b 853d 664f 4ebd
00000180: cb02 5bbf 710d b93d a911 a2bb 9f53 f23e
00000190: 3fd3 91bd 7f3c 803d 5b23 e0bd c05a 113f
000001a0: b21b 8abf 2846 653e 37ff a83e 47c3 543e
000001b0: a295 313f 565a f03c 89ac 26bf b8d3 8f3e
000001c0: 4c38 e0bf df55 9bbc 51d9 e8bd 7225 d0be
000001d0: 4d09 303d 55d4 abbd e00a 2c3f 0696 3ebf
000001e0: e8e6 9f3e d75d 583f e662 d5be 940d 923e
000001f0: f6fe 203c 1f60 1dbf cfa4 ad3d 8ea6 b03e
00000200: 4698 013f 1ed5 6fbd f3b2 783e 2d18 eabc
00000210: f3f2 1bbf ec2a e93d 7275 2e3d eda1 b5bd
00000220: 7b6b e0be 5bf1 5ebf 41e0 8a3c d6b9 ba3b
00000230: 38ea bb3c 550c a53e 3f86 8f3c 61b2 9f3d
00000240: 6745 ac3c e4b8 e0be 6914 323f 4847 713d
00000250: c3fc 4e3d 8953 87bf 90ba ee3a 1d83 39bf
00000260: f344 633d 80f4 6b3f 1f77 6c3f cd4b b8be
00000270: 454a 3bbf f059 c4bd 4e6c ef3b 64ec 19bf
00000280: a896 a2bd d553 143d 3b44 b8be 77b2 8d3e
00000290: 28de 9a3d 7292 85bf 6cdd 8e3d 227e 97be
000002a0: 3c24 573d fbaa 9f3d 1ca0 a63e e419 50bf
000002b0: eda6 6b3e 8b86 14be 4cbd 8a3d 563e ad3c
000002c0: d9f6 d93d f831 bb3d ef4e 543e a363 b0be
000002d0: 58fd 8b3e 286b 3d3d 4856 163d b65a cc3d
000002e0: a4ec a3bc db03 81bf d399 dbbc 3893 81bf
000002f0: 202e 203f 3567 cabe 3319 c73e d838 a83d
00000300: 7bb3 d83d 9007 983e 470f 9b3c 5321 d2bd
00000310: 1fdf 6e3d 5667 88bf 5573 90bf 709b b83e
00000320: a505 9a3e 0413 053f 80dd 82bf 4f77 05bd
00000330: 7f59 33bf 77c5 823e e35f 703d da87 0c3f
00000340: 9ff7 8c3d 49d6 543f 9339 663d bae8 283f
00000350: 258e b7b9 70c3 bf3c c4d7 a33e c349 523f
00000360: 9dc6 bd3e 44e1 783e 0d48 f43e 3867 fc3d
00000370: 40b9 5fbe df94 0dbf 0e85 a13e 71b5 3abd
00000380: 70f1 523e 59f7 123f 7101 2d3f 43c4 3f3e
00000390: c56b e03c 6356 52bf a107 c03e e628 943d
000003a0: 476f 393f d492 10bd 4c74 8bbd 9f16 33bf
000003b0: 8f7e 913e df08 05bf c33a a43c c65b 5d3d
000003c0: 85ab 4c3d 31bb 52bf 11c4 95bf d800 40bf
000003d0: af17 9a3d 385e 97be 5357 873e 3d4c 34bf
000003e0: 91e0 0abf 9771 4ebf 8bf3 e1be 0d59 00be
000003f0: 53a8 06be 3e70 f8be de63 22be 3c55 ec3e

Decoder.dec2.bias f4 [31]
-0.6070335 0.009365984 3.2777169 -0.049313996 13.470863 -0.5601698 -3.961173 1.1445123
0.46153018 0.6396781 2.0322433 0.73557407 1.9229066 -2.5857 3.6369708 -3.3921654
-0.09595147 -3.4939568 -0.08617161 -4.2526674 -0.09755027 -4.3340116 -3.5947456 0.31185615
0.012606286 14.812419 0.19506887 -4.1584034 0.19023155 -4.037651 -3.200868
00000000: 8c66 1bbf c973 193c 1dc6 5140 79fd 49bd
00000010: a888 5741 4a67 0fbf dc83 7dc0 617f 923f
00000020: af4d ec3e f2c1 233f 4610 0240 954e 3c3f
00000030: ce21 f63f 1c7c 25c0 21c4 6840 3d19 59c0
00000040: 3482 c4bd fd9c 5fc0 be7a b0bd da15 88c0
00000050: 70c8 c7bd 39b0 8ac0 5010 66c0 9cab 9f3e
00000060: 998a 4e3c abff 6c41 22c0 473e a411 85c0
00000070: 0fcc 423e 7034 81c0 05db 4cc0
