results/7_iid/model_drs_n_2_m_1.pt (torch, 121528 bytes, 8 tensors)

Encoder.enc1.weight f4 [256, 22]
-0.054934047 0.00032494482 0.008060995 0.034468677 -0.067361735 0.06720579 -0.04539931 -0.13274024
-0.03160557 -0.12111375 -0.20164408 -0.22249447 -0.13748163 -0.01410169 0.011362879 0.057287883
0.023687214 0.029367225 0.14543459 0.013990897 0.14537889 -0.14115283 -0.12366747 0.024168734
-0.25850263 0.06745562 -0.007913749 0.05344452 -0.10928815 -0.1250958 -0.21004812 -0.18566355
0.017572463 -0.06227822 -0.26055393 -0.08575287 -0.08630469 0.040072437 0.005803178 -0.04034967
0.02887326 -0.004097292 0.09676496 0.03555526 -0.13062161 0.12337914 -0.23791361 0.017101955
0.10461315 0.24340722 -0.19391829 -0.024553424 -0.13340767 -0.058634743 -0.21694848 -0.18655664
0.0039853677 0.07808292 -0.03710172 -0.18902186 -0.26089537 0.039698716 0.010665841 0.063592665
-0.0249822 0.02387775 -0.0037468872 0.018674595 0.15251431 -0.15602046 0.0052442374 0.012281698
0.004845821 -0.023717957 0.0028297908 0.0034004387 -0.048317816 -0.067453146 -0.013430051 -0.007964896
-0.06732994 0.007605736 -0.016741024 0.0055052117 -0.1131853 -0.007743512 -0.03321769 0.0066975104
0.03650586 -0.041702833 -0.026770588 -0.05691285 -0.035380352 -0.050355364 0.014765557 -0.018125048
-0.011994978 0.024781656 -0.038813848 -0.086254716 -0.049145833 -0.12347874 -0.015379106 0.13986877
-0.0077677383 -0.00950803 -0.035862207 0.027501373 -0.00841682 -0.022164611 0.023012662 -0.043406602
0.0778572 0.037118822 -0.032078166 -0.003196423 -0.020971673 -0.15448289 -0.06266129 0.14203924
-0.016701529 0.044349376 -0.030644825 0.021490915 0.051356353 -0.056282967 -0.0070141256 0.10660512
0.073039025 -0.07544992 -0.055808187 -0.052134763 -0.09856056 -0.015620922 0.117175765 0.059585374
-0.060627878 0.06372334 0.01176127 -0.047691487 -0.017847594 0.12547217 0.030351799 0.03769242
0.105311394 -0.085453376 0.03355014 0.120819464 -0.013487616 0.019146178 0.03495802 0.07157801
-0.1458049 0.042358365 -0.0038007726 0.0009489195 0.07791519 0.0029898083 -0.006200836 -0.0074020093
-7.894865e-05 -0.00217842 0.00080066867 -0.0023092276 -0.002570197 -0.011476961 0.00079881464 0.00490876
-0.008637045 -0.0035450938 -0.004186539 9.609443e-05 0.0019856626 0.7216 -0.024341997 -0.0071577574
0.11007065 0.12380652 -0.1663675 -0.03638088 -0.06494138 -0.090373814 0.043611992 -0.011604448
0.07857996 -0.112674996 -0.015719485 -0.11516502 -0.015903085 0.23003991 0.03765044 -0.14812547
-0.05356709 0.050893184 -0.014978909 0.014581042 -0.13609289 0.019216722 -0.0068666255 0.052193955
-0.040255506 -0.064877756 -0.14314413 0.027006783 -0.071546026 -0.19875936 -0.19191161 -0.16608553
-0.011091995 -0.042223506 0.03576814 -0.008624559 -0.026317762 -0.052725114 0.11142068 0.05424093
0.0039946456 0.045052733 0.09810563 -0.12774853 0.03402952 -0.2563532 -0.18990691 -0.050248846
0.04519476 -0.040494174 -0.27584302 0.016718425 -0.14490142 -0.039731853 0.08290709 -0.23991297
0.07383894 -0.04770633 0.07048493 -0.027318196 -0.048630968 -0.07235841 0.026304577 0.12064224
0.06824209 -0.16311358 -0.004649543 -0.0041198367 -0.0041209674 -0.24969785 0.0017864249 0.00519376
-0.0012188541 0.009671469 0.0018841922 0.09886749 -0.0021503123 -0.0067435107 -0.0047938856 0.018468566
00000000: 8602 61bd 5b5d aa39 4312 043c 072f 0d3d
00000010: f3f4 89bd 30a3 893d a0f4 39bd 0fed 07be
00000020: d874 01bd 7c0a f8bd c97b 4ebe 97d5 63be
00000030: fcc7 0cbe c60a 67bc 5e2b 3a3c b3a6 6a3d
00000040: b00b c23c 8993 f03c ceec 143e 133a 653c
00000050: 34de 143e 5e8a 10be 5f45 fdbd 82fd c53c
00000060: 755a 84be 2c26 8a3d aba8 01bc a4e8 5a3d
00000070: 77d2 dfbd 1d19 00be db16 57be 961e 3ebe
00000080: 20f4 8f3c 7217 7fbd 5367 85be 339f afbd
00000090: 83c0 b0bd ff22 243d 9628 be3b b245 25bd
000000a0: 9d87 ec3c 9442 86bb b52c c63d 64a2 113d
000000b0: acc1 05be 34ae fc3d a09f 73be 6619 8c3c
000000c0: 6b3f d63d be3f 793e 8492 46be 4324 c9bc
000000d0: 059c 08be fc2a 70bd be27 5ebe b408 3fbe
000000e0: b097 823b f0e9 9f3d f9f7 17bd f28e 41be
000000f0: 1494 85be 1f9b 223d c8bf 2e3c df3c 823d
00000100: 78a7 ccbc 459b c33c 568e 75bb 77fb 983c
00000110: b62c 1c3e d4c3 1fbe dad7 ab3b 2d39 493c
00000120: b1c9 9e3b 294c c2bc 0374 393b e5d9 5e3b
00000130: e7e8 45bd e024 8abd b709 5cbc 327f 02bc
00000140: 48e4 89bd 8a39 f93b 7924 89bc 1065 b43b
00000150: b2cd e7bd 49bd fdbb 460f 08bd ca76 db3b
00000160: 2b87 153d 97d0 2abd fe4d dbbc 731d 69bd
00000170: fdea 10bd 6d41 4ebd 3ceb 713c fb7a 94bc
00000180: 9686 44bc e602 cb3c 45fb 1ebd 50a6 b0bd
00000190: 244d 49bd 6ce2 fcbd a5f8 7bbc c239 0f3e
000001a0: 8388 febb 91c7 1bbc 40e4 12bd 8f4a e13c
000001b0: b4e6 09bc 8f92 b5bc 0d85 bc3c 1fcb 31bd
000001c0: 9873 9f3d e809 183d 6564 03bd 147b 51bb
000001d0: c9cc abbc c330 1ebe 9054 80bd bc72 113e
000001e0: a5d1 88bc b1a7 353d db0a fbbc b70d b03c
000001f0: 0a5b 523d f888 66bd c0d6 e5bb c953 da3d
00000200: 7c95 953d 7d85 9abd 2097 64bd 438b 55bd
00000210: 1eda c9bd e5ee 7fbc d9f9 ef3d cb0f 743d
00000220: f054 78bd 6281 823d 58b2 403c 2658 43bd
00000230: 1e35 92bc c77b 003e 56a4 f83c 5e63 1a3d
00000240: 80ad d73d 2e02 afbd df6b 093d 3270 f73d
00000250: 29fb 5cbc 72d8 9c3c 2430 0f3d 7e97 923d
00000260: e14d 15be f77f 2d3d 6216 79bb e9c0 783a
00000270: 0092 9f3d a9f0 433b 6230 cbbb 8e8c f2bb
00000280: 3c91 a5b8 d3c3 0ebb f7e3 513a 6956 17bb
00000290: c070 28bb dd09 3cbc 8b67 513a aad9 a03b
000002a0: 6482 0dbc ce54 68bb 3c2f 89bb 4e86 c938
000002b0: e421 023b c7ba 383f de68 c7bc 9f8b eabb
000002c0: b96c e13d 468e fd3d 3e5c 2abe 1e04 15bd
000002d0: fcff 84bd e815 b9bd 7da2 323d 9520 3ebc
000002e0: 88ee a03d 26c2 e6bd 26c6 80bc a3db ebbd
000002f0: 3047 82bc 958f 6b3e 5937 1a3d 34ae 17be
00000300: 2a69 5bbd 5f75 503d 196a 75bc 53e5 6e3c
00000310: ef5b 0bbe 636c 9d3c 6e01 e1bb 54c9 553d
00000320: f5e2 24bd a1de 84bd 6094 12be 543d dd3c
00000330: b986 92bd 9387 4bbe 7a84 44be 5312 2abe
00000340: 33bb 35bc 8ef2 2cbd 9d81 123d 064e 0dbc
00000350: 5998 d7bc 4af6 57bd 8730 e43d bd2b 5e3d
00000360: 84e5 823b 3789 383d 9beb c83d 83d0 02be
00000370: 8a62 0b3d ba40 83be f576 42be bcd1 4dbd
00000380: 241e 393d 38dd 25bd 4c3b 8dbe 14f5 883c
00000390: 0a61 14be debd 22bd 31cb a93d bfab 75be
000003a0: df38 973d b667 43bd 675a 903d 69ca dfbc
000003b0: 4431 47bd a530 94bd b27c d73c 4713 f73d
000003c0: 82c2 8b3d 3f07 27be 325b 98bb b2ff 86bb
000003d0: 2e09 87bb cbb0 7fbe 7926 ea3a 6b30 aa3b
000003e0: f5c1 9fba 1575 1e3c 00f7 f63a 0a7b ca3d
000003f0: 41ec 0cbb abf8 dcbb 0716 9dbb 644b 973c

Encoder.enc1.bias f4 [256]
-0.22964796 -0.17790383 -0.2272087 -0.080134735 0.20588054 0.21927057 0.24668163 -0.010543113
0.15795703 -0.115954064 -0.19603059 -0.17238742 -0.20446952 -0.04047177 -0.09217636 0.12707107
0.010172884 0.05882988 -0.22371915 0.20208831 -0.08805802 -0.13133931 0.2938786 -0.12029972
-0.3056342 -0.26620334 -0.39916494 -0.19696751 -0.22485802 -0.34243745 -0.118984446 -0.096182324
-0.29927447 0.12715264 -0.15467802 0.1054678 -0.2937566 -0.23964368 -0.06949949 -0.09601369
-0.22480169 0.16484384 -0.056600157 -0.1551044 -0.2130048 -0.0834861 0.26952887 -0.20161471
-0.19513309 -0.0025313331 0.027837554 0.10585221 -0.1723296 -0.1273612 -0.08542258 -0.26303434
-0.25600585 -0.08696688 -0.018814547 -0.33871105 -0.15856273 -0.24013448 0.13262902 -0.34226185
-0.061852098 -0.065005906 -0.25942272 0.114586204 0.06651497 -0.04133747 -0.01799562 -0.021496177
-0.28618374 -0.11770401 0.25035763 -0.10720857 -0.36685148 -0.17408642 -0.1932506 -0.21235828
-0.16512635 -0.101090714 0.013999665 0.054861415 -0.22997448 -0.1511679 -0.11119544 -0.0966493
-0.24741079 0.21788949 -0.21834208 -0.17463861 -0.031083526 -0.15033075 -0.08919034 -0.16069561
0.07318359 -0.02651524 -0.31863147 0.0139063755 0.062421605 0.06527697 -0.045155764 0.2437097
-0.2415556 -0.28460547 -0.1262476 -0.18686529 -0.31333235 0.06029563 -0.18560597 0.10677114
0.1222775 -0.11315325 -0.23351066 -0.24389617 -0.02013658 -0.20838852 -0.13137157 0.07376176
-0.08590731 -0.19954601 -0.017256295 -0.082224935 0.07157373 -0.19982962 0.089741684 -0.1510477
0.020175224 -0.021283993 0.098778054 -0.18530603 -0.104598045 0.0032041308 0.19672437 -0.13583602
-0.036324788 -0.30327705 0.17714311 -0.051561948 0.3625206 -0.046961594 -0.3530165 0.14596604
-0.19876929 -0.21170937 -0.08162301 -0.30829844 -0.25139517 -0.21435362 0.04972905 -0.29706866
-0.08516334 0.09356896 0.04045926 -0.2336841 0.1951299 -0.03822717 -0.1872627 -0.10246325
-0.09028452 0.12695082 0.06926051 -0.24246961 -0.01252304 -0.22143178 -0.11679266 0.028394856
0.06565859 0.25585642 -0.0013399802 -0.22806382 0.05094122 0.10666 -0.17277823 0.15705355
-0.049525727 -0.15597613 0.04220971 0.08185133 -0.20687592 -0.33279628 -0.030955404 -0.08552078
-0.22959638 0.0061648316 0.23199612 -0.09829494 -0.10697456 -0.17552468 0.077886604 0.18712866
0.0034569607 -0.036443096 -0.21050102 -0.10788035 0.009328069 -0.051300257 0.14235915 -0.12076125
-0.2904451 0.11346871 0.056584332 -0.13392434 -0.018106792 -0.2842539 0.2178821 -0.23788898
-0.28633517 -0.15007798 -0.15832844 -0.30184305 -0.21575041 0.026085403 -0.071115315 -0.24633008
-0.12226177 -0.3402856 0.19791141 -0.079858646 0.016658602 -0.18831821 -0.120790675 -0.013024538
-0.04426681 -0.2000903 -0.3029158 -0.16411883 0.15511079 0.017940179 0.12873375 -0.17167988
-0.2982889 -0.12538186 -0.061498433 -0.0731951 -0.11188074 -0.12511575 0.21208882 0.16878976
-0.14397556 -0.30090415 -0.21368684 -0.20320234 0.11238052 -0.2371034 0.099875145 -0.27842212
-0.021824086 -0.32805362 -0.064735375 -0.23531759 -0.09747941 0.043963183 0.082617894 0.13924135
00000000: d628 6bbe 6c2c 36be 66a9 68be ae1d a4bd
00000010: 59d2 523e 7788 603e 1c9a 7c3e 05bd 2cbc
00000020: 7dbf 213e 5379 edbd 3ebc 48be 5486 30be
00000030: 7560 51be bac5 25bd f6c6 bcbd eb1e 023e
00000040: 2bac 263c 9af7 703d a216 65be 3df0 4e3e
00000050: c357 b4bd d07d 06be 4177 963e b35f f6bd
00000060: 167c 9cbe ce4b 88be 595f ccbe dab1 49be
00000070: 2e41 66be f653 afbe 1eae f3bd 3dfb c4bd
00000080: 813a 99be 4d34 023e ea63 1ebe 80ff d73d
00000090: 4467 96be 2765 75be c055 8ebd d3a2 c4bd
000000a0: 6a32 66be d3cc 283e 91d5 67bd b0d3 1ebe
000000b0: ee1d 5abe c3fa aabd b0ff 893e 1674 4ebe
000000c0: f8d0 47be b9e4 25bb 950b e43c 0bc9 d83d
000000d0: 2c77 30be f96a 02be 09f2 aebd 70ac 86be
000000e0: 3313 83be b11b b2bd f720 9abc 896b adbe
000000f0: 455e 22be d0e5 75be e7cf 073e f23c afbe
00000100: a058 7dbd d121 85bd 0ed3 84be 2cac ea3d
00000110: 0039 883d 7b51 29bd 8d6b 93bc c018 b0bc
00000120: ad86 92be cd0e f1bd e02e 803e 2b90 dbbd
00000130: f5d3 bbbe b643 32be 7ce3 45be 7374 59be
00000140: e216 29be a608 cfbd da5e 653c 5db6 603d
00000150: 6e7e 6bbe c2cb 1abe 6fba e3bd 11f0 c5bd
00000160: 4159 7dbe 6c1e 5f3e 1195 5fbe 77d4 32be
00000170: e1a2 febc 4ef0 19be 6da9 b6bd 648d 24be
00000180: 47e1 953d 7d36 d9bc aa23 a3be 91d7 633c
00000190: ccad 7f3d efaf 853d 40f5 38bd 098f 793e
000001a0: 5a5a 77be cfb7 91be 0d47 01be 9d59 3fbe
000001b0: 196d a0be 8df8 763d 7e0f 3ebe d4aa da3d
000001c0: a06c fa3d e4bc e7bd 6b1d 6fbe ebbf 79be
000001d0: 78f5 a4bc cd63 55be 4586 06be 6810 973d
000001e0: 2cf0 afbd ca55 4cbe 135d 8dbc 8c65 a8bd
000001f0: 3f95 923d 23a0 4cbe 7dca b73d 40ac 1abe
00000200: 8346 a53c c55b aebc 264c ca3d ddc0 3dbe
00000210: 8037 d6bd 65fc 513b 1d72 493e 9918 0bbe
00000220: 4dc9 14bd 2147 9bbe 0165 353e 9f32 53bd
00000230: 4d9c b93e cd5a 40bd 94be b4be 1f78 153e
00000240: 2d8a 4bbe 57ca 58be f729 a7bd 4bd9 9dbe
00000250: deb6 80be 847f 5bbe b0b0 4b3d 6219 98be
00000260: 1e6a aebd 15a1 bf3d 9cb8 253d e24a 6fbe
00000270: 22d0 473e 1894 1cbd cbc1 3fbe 41d8 d1bd
00000280: 17e7 b8bd 65ff 013e 74d8 8d3d f449 78be
00000290: 702d 4dbc 03bf 62be fd30 efbd 549c e83c
000002a0: 0378 863d 9dff 823e 46a2 afba 9089 69be
000002b0: bea7 503d 8f70 da3d c7ec 30be a5d2 203e
000002c0: 7ddb 4abd 35b8 1fbe 17e4 2c3d aca1 a73d
000002d0: 48d7 53be 4664 aabe 3096 fdbc 8525 afbd
000002e0: 501b 6bbe 5b02 ca3b 6490 6d3e dc4e c9bd
000002f0: 7a15 dbbd bebc 33be 0383 9f3d a89e 3f3e
00000300: 2d8e 623b 5b45 15bd 948d 57be 5ff0 dcbd
00000310: c2d4 183c 3820 52bd 99c6 113e ad51 f7bd
00000320: 38b5 94be 4862 e83d f9c4 673d 7623 09be
00000330: b254 94bc ba89 91be 7c1c 5f3e 2b99 73be
00000340: 869a 92be 0bae 19be da20 22be 2c8b 9abe
00000350: aded 5cbe 0eb1 d53c e8a4 91bd f43d 7cbe
00000360: 6164 fabd ea39 aebe 4aa9 4a3e ee8c a3bd
00000370: 9f77 883c 7dd6 40be 1a61 f7bd df64 55bc
00000380: 1d51 35bd 79e4 4cbe c817 9bbe c40e 28be
00000390: 5dd5 1e3e 48f7 923c c8d2 033e dacc 2fbe
000003a0: 53b9 98be 1a64 00be c8e5 7bbd 50e7 95bd
000003b0: bb21 e5bd 581e 00be d02d 593e 39d7 2c3e
000003c0: 546e 13be 1c10 9abe b9d0 5abe 4614 50be
000003d0: c227 e63d 3ccb 72be 578b cc3d 588d 8ebe
000003e0: 6dc8 b2bc a5f6 a7be fb93 84bd 18f7 70be
000003f0: 49a3 c7bd bd12 343d 9233 a93d 4995 0e3e

Encoder.enc2.weight f4 [40, 256]
0.007860051 -0.05519763 -0.005795021 -0.0006401898 -0.0037161475 -0.016773997 0.019211084 0.00064209313
0.019690279 0.009587176 -0.004922971 0.00014036767 0.0011615561 -0.002379224 0.0047336696 0.0032805838
-0.025865765 0.010310952 0.012144573 -0.0034895688 -0.0034062332 -0.010042644 0.0260843 -0.001557163
-0.03464095 -0.020161545 -0.0043046656 -0.005162794 -0.0034786311 -0.020845959 0.0015841367 0.0065271393
0.040707413 0.0070515303 -0.005395394 0.008983287 -0.015253547 -0.008768364 -0.005269206 0.01295831
-0.0062389425 0.018102162 0.0021203435 0.0054765595 -0.0014851714 0.0017082924 0.0054802187 0.003769666
-0.017217198 -0.0031939836 -0.035505436 0.008265387 -0.0012941918 0.008598177 0.013016546 0.04437403
-0.017201724 -0.018373713 0.0030803804 -0.009296377 -0.0026229827 0.030283267 -0.0076039787 0.002393366
0.005792875 0.002526956 -0.05841509 -0.0016910188 0.005246146 0.004382426 0.00094594934 -0.0071352064
0.023379853 0.020659488 -0.0018836788 -0.006278012 0.00062684435 -0.00071929366 0.053714536 0.022951422
-0.00536473 0.009020445 -0.0003407879 0.006622667 0.0018269748 -0.0022335616 -0.018843016 0.010982938
-0.012365121 -0.012119673 0.011103333 0.0024735234 0.0025551657 0.014197413 -0.007426105 0.002787065
-0.012673236 0.0021446028 -0.020024128 -0.0052983 -0.026117012 -0.027618008 0.021625526 -0.0045181005
-0.0020938634 0.001889 -0.00068745686 0.0030752292 -0.01539338 0.0027249472 0.0071580177 -0.002554368
0.010574491 0.028324269 -0.0029916754 0.0113078905 -0.0037541094 0.0437273 -0.020493038 0.007290405
0.0064551174 -0.011274983 0.004706563 0.016668098 0.000344049 -0.0023853446 0.01969212 -0.0028060018
-0.016366454 -0.009302397 0.009672785 -0.004387769 -0.015566814 0.0030449561 0.017936572 0.016624046
0.00081514375 -0.018840699 -0.0078502605 0.0023903723 0.00970127 0.0069616176 0.00055807957 0.009675983
-0.018422255 -0.002796295 0.0048764967 0.009604737 0.0030598768 0.0055483724 -0.00035958877 0.023516843
-0.008197631 0.012402126 -0.00068988383 0.0029102804 -0.006769505 -0.00029194995 -0.027516805 -0.022394167
0.0053396784 -0.0059745917 0.0026237727 -0.0011868629 0.005749499 -0.009479961 0.015582397 -0.013855281
0.0011213667 0.00044567056 -0.021513272 -0.0019090341 0.02889395 -0.007171722 0.021227222 -0.015118124
-0.0143499235 -0.010293925 0.008896704 0.014727598 0.007475826 0.015122639 0.002547752 0.0006186806
0.03526785 0.021260438 -0.015837539 0.04545876 -0.01370087 -0.00077781285 -0.04255312 0.0057673273
-0.01885986 -0.018967811 -0.010033389 0.018230995 -0.0040207435 -0.014723405 -0.0071445103 -0.04922826
0.0030077586 0.0017005276 -0.026984036 -0.023214612 -0.014676919 -0.004650502 0.0132408 -0.0057955524
0.0019442722 0.013440598 0.011916997 -0.016029892 0.0022483764 -0.020631585 -0.01770034 0.0009057816
0.045923285 0.0052713538 -0.0023415268 0.023454225 0.009387998 0.031181013 -0.0024566674 -0.029325832
0.0012772047 -0.060362596 -0.012956753 0.0014434702 -0.003421162 0.0026805613 0.0054561645 -0.0030106474
-0.0026836018 -0.0016218603 0.0032949212 0.006234236 0.004869637 -0.001619424 0.02103616 0.0011601226
0.012817933 0.04402004 0.015841953 0.00082956866 -0.0038647237 0.011378816 -0.011475949 -0.0074728173
0.011281577 0.004599733 0.006741114 0.0025219526 0.0032529954 0.0033606552 -0.0044728573 0.0018175057
00000000: 71c7 003c e916 62bd 29e4 bdbb 69d2 27ba
00000010: 9c8a 73bb 9f69 89bc 9060 9d3c 2452 283a
00000020: 824d a13c 8813 1d3c e050 a1bb a92f 1339
00000030: 5b3f 983a c1ec 1bbb e61c 9b3b 10ff 563b
00000040: 71e4 d3bc 44ef 283c 08fa 463c 40b1 64bb
00000050: 1c3b 5fbb e789 24bc beae d53c b819 ccba
00000060: abe3 0dbd d329 a5bc 270e 8dbb a82c a9bb
00000070: bff9 63bb 25c5 aabc cfa2 cf3a 9de1 d53b
00000080: d1bc 263d 8610 e73b d8cb b0bb a32e 133c
00000090: 03ea 79bc 2fa9 0fbc 4ea9 acbb 174f 543c
000000a0: 0b70 ccbb fc4a 943c 76f5 0a3b b674 b33b
000000b0: 15aa c2ba c8e8 df3a 6893 b33b 800c 773b
000000c0: 150b 8dbc 2752 51bb 266e 11bd 8c6b 073c
000000d0: dfa1 a9ba 5edf 0c3c 5a43 553c 8bc1 353d
000000e0: a1ea 8cbc 7884 96bc 35e0 493b d54f 18bc
000000f0: 59e6 2bbb 9d14 f83c cc2a f9bb 05da 1c3b
00000100: 28d2 bd3b 499b 253b a944 6fbd 2da5 ddba
00000110: dde7 ab3b 749a 8f3b 96f9 773a 73ce e9bb
00000120: 1b87 bf3c 163e a93c c6e5 f6ba c8b7 cdbb
00000130: d052 243a fb8e 3cba c603 5c3d 9f04 bc3c
00000140: 9eca afbb 7dca 133c c7ab b2b9 f502 d93b
00000150: 1a77 ef3a f260 12bb ab5c 9abc c8f1 333c
00000160: 1497 4abc 9891 46bc c1ea 353c d61a 223b
00000170: 9174 273b 449c 683c af56 f3bb 31a7 363b
00000180: 68a3 4fbc 778c 0c3b a409 a4bc 5d9d adbb
00000190: 58f3 d5bc 293f e2bc 0428 b13c 930c 94bb
000001a0: 3339 09bb 5298 f73a 7336 34ba c989 493b
000001b0: 8434 7cbc 0795 323b ce8d ea3b 2f67 27bb
000001c0: a140 2d3c 4c08 e83c fc0f 44bb bb44 393c
000001d0: 8107 76bb 661b 333d 04e1 a7bc 5ae4 ee3b
000001e0: 7385 d33b b5ba 38bc 8339 9a3b 898b 883c
000001f0: 7a61 b439 7153 1cbb 5e51 a13c e6e4 37bb
00000200: f112 86bc 1569 18bc 9a7a 1e3c 46c7 8fbb
00000210: f30b 7fbc e38d 473b b8ef 923c 272f 883c
00000220: 5faf 553a cf57 9abc 619e 00bc cba7 1c3b
00000230: 13f2 1e3c 481e e43b 164c 123a 0488 1e3c
00000240: 45ea 96bc 0c42 37bb 05cb 9f3b 305d 1d3c
00000250: 3788 483b 1fcf b53b 3087 bcb9 65a6 c03c
00000260: 5b4f 06bc 4932 4b3c 52d9 34ba 67ba 3e3b
00000270: b9d2 ddbb dc10 99b9 ec6a e1bc f973 b7bc
00000280: 78f8 ae3b 82c6 c3bb 9af3 2b3b 8390 9bba
00000290: 4b66 bc3b d751 1bbc 4f4d 7f3c 4301 63bc
000002a0: d3fa 923a e4a8 e939 9a3c b0bc 8e38 faba
000002b0: 01b3 ec3c c400 ebbb b6e4 ad3c 02b2 77bc
000002c0: f11b 6bbc daa7 28bc 7bc3 113c 064c 713c
000002d0: c6f7 f43b f2c4 773c 30f8 263b f42e 223a
000002e0: 0575 103d 5f2a ae3c babd 81bc f732 3a3d
000002f0: 9d79 60bc 23e6 4bba 2e4c 2ebd d9fb bc3b
00000300: fe7f 9abc 6262 9bbc 1563 24bc 2b59 953c
00000310: 71c0 83bb 703a 71bc 7f1c eabb 92a3 49bd
00000320: d11d 453b 3de4 de3a a00d ddbc 922c bebc
00000330: 7677 70bc 3d63 98bb f1ef 583c 9ee8 bdbb
00000340: f3d6 fe3a f435 5c3c 823f 433c 1f51 83bc
00000350: 7f59 133b 9203 a9bc 4e00 91bc f971 6d3a
00000360: 0e1a 3c3d 52bb ac3b 4d74 19bb 1323 c03c
00000370: 1ed0 193c 536f ff3c 0a00 21bb ba3c f0bc
00000380: e167 a73a c53e 77bd 9048 54bc d332 bd3a
00000390: 9335 60bb 5bac 2f3b a0c9 b23b 484e 45bb
000003a0: 5edf 2fbb 9a94 d4ba 9bef 573b 9048 cc3b
000003b0: 7a91 9f3b da42 d4ba 0654 ac3c 410f 983a
000003c0: 4f02 523c 5c4e 343d fcc6 813c 6977 593a
000003d0: 4e47 7dbb 376e 3a3c 9e05 3cbc 89de f4bb
000003e0: 5dd6 383c 5bb9 963b 90e4 dc3b 5847 253b
000003f0: 3530 553b 703e 5c3b 0c91 92bb 5f39 ee3a

Encoder.enc2.bias f4 [40]
-0.013137179 -0.019152915 0.042000946 -0.042218678 -0.015587511 -0.0054763714 0.02795376 -0.011485579
-0.01121813 -0.019260107 0.034474514 0.031547274 0.016540686 0.014485133 0.005093293 0.007112211
-0.0039915754 -0.005895461 0.0012298996 -0.010287538 -0.030317437 -0.0131828105 -0.18874338 -0.2117896
-0.22211815 0.018264847 -0.03736743 -0.23475409 -0.028689815 -0.20526911 0.0076711006 -0.24141043
0.006878403 -0.0030752856 -0.20106693 0.017439308 0.022482803 -0.0048061823 -0.013428339 -0.021473493
00000000: 533d 57bc 93e6 9cbc 2f09 2c3d 7eed 2cbd
00000010: c262 7fbc 2273 b3bb 49ff e43c 032e 3cbc
00000020: 3fcc 37bc 5fc7 9dbc 2635 0d3d b737 013d
00000030: 5580 873c 0d53 6d3c a3e5 a63b 8d0d e93b
00000040: c3cb 82bb b62e c1bb 9534 a13a 108d 28bc
00000050: 465c f8bc b7fc 57bc f245 41be 5fdf 58be
00000060: f172 63be 29a0 953c 970e 19bd 6063 70be
00000070: e706 ebbc 1132 52be db5d fb3b 4c34 77be
00000080: 3a64 e13b bb8a 49bb 7de4 4dbe e1dc 8e3c
00000090: db2d b83c 2e7d 9dbb 8902 5cbc 2ee9 afbc

Decoder.dec1.weight f4 [256, 20]
-0.0024463204 0.0015870522 0.00031414413 -0.0022897534 0.0039764633 -0.0020891 0.0008861117 -0.024009863
0.00051667215 0.06561513 -0.000757512 -0.0021392847 -0.00313408 -0.0009785404 -0.0002074268 -0.0021658298
0.0010704466 0.0017446125 -0.0012987454 -0.0015642294 -0.0015038941 -0.0030978352 0.02864537 0.007258656
-0.0003333061 -0.0001595869 0.0015105441 -0.073373474 -0.0014360585 -0.0055837748 0.0005549215 -0.008856369
-0.0009458733 -0.0022589078 0.0055935946 0.001953402 0.0019656057 -0.0021154624 -0.0014889061 9.558439e-05
0.0007993708 -0.0012338735 0.008119501 0.0013745711 0.04553563 -0.0001221889 -0.0010413438 0.012381424
-0.00022105603 -0.045864075 0.0011325122 0.0040665534 0.0029658538 0.0025335948 -0.0042225136 0.004313593
0.0022914764 -0.001542035 0.0002657855 0.0038043992 -0.0004998127 0.0010160406 -0.003154322 0.0017940518
-0.001432627 -0.0011358396 9.005251e-05 -0.0105700325 0.00023772877 0.0017076096 -7.175181e-05 0.0014795817
0.0015906565 0.0016325224 -0.04393408 -0.00017968561 0.0006080681 -0.0008043139 0.00025674846 -9.6146556e-05
0.0024321913 -0.0024528757 0.011318794 -0.0060644727 0.049740367 0.013340263 0.0030023893 -0.13756071
0.0025158066 -0.012286732 -0.0028442468 0.0028864236 0.005408951 0.0024169188 -0.18741505 -0.0024842662
-0.004386617 -0.0015657897 -0.0054884613 -0.00048505497 -0.0031385405 0.0014180277 0.0009776182 0.004601494
-0.008453595 -0.0034216146 0.00264708 -0.1334568 0.0009634504 -0.017946627 -0.00043245289 -0.009081743
-0.0023869944 0.0011566132 0.043892547 0.0009485572 -0.0004093258 -0.00083293184 -0.001483122 0.0016592023
0.0006660699 -0.0015973178 -0.062039167 -0.00046508768 -0.0005681612 0.0004698659 0.00010900279 -0.006002001
-0.0008674402 0.0020530599 -0.0026591846 0.0007783166 0.0016267664 0.0025372691 -0.0035015522 0.00082982494
-0.001181175 0.0011435301 -0.0035502985 0.0012041468 -0.00013249002 0.003709593 -0.1365606 -0.0027917603
0.0022737675 -0.0020046935 -0.0012311712 0.008020493 -0.0021796066 -0.007387447 0.000733628 -0.0011564748
0.0023571777 0.005533522 0.0886927 -0.0034768274 0.0027464598 0.004269695 -7.2520634e-05 -0.0015996994
0.00064699334 -0.002747882 0.08311328 0.014203227 0.006467818 -0.0044607045 -0.00014374348 0.037085716
-0.009952725 0.028204279 -0.005926737 -0.015164734 0.0014118088 -0.000888127 0.055601653 0.008230125
-0.00044172598 0.0008363658 -0.00012364666 0.0032776864 -0.0032460606 0.0043099807 0.00022947705 -0.0033591634
0.0037422383 0.0032712545 -0.0014305341 0.012487889 0.0027145147 0.044113506 0.003311148 0.0043558674
0.0011217293 0.00097420276 -0.006075392 -0.0007611457 0.0023373852 0.002339126 0.0004711047 0.0011907223
0.007560484 0.0024513719 -0.026053295 -0.012671147 -0.023380341 -0.0038972541 -0.0017574413 -0.14073753
-0.0010283027 0.002678495 0.0020404523 0.28871337 0.005022463 0.009597502 -0.004073591 -0.0031708428
0.0051327245 0.00643877 0.006632116 0.0022281841 -0.0012654286 0.00028765964 -0.017628577 -0.29579616
-0.01073536 9.509263e-05 0.0034879115 -0.11758438 0.0047477386 -0.029499184 0.0074648047 0.01147652
-0.00620624 -0.00034545027 -0.021239376 -0.011219931 0.0034395691 -0.0032886548 -0.006608026 0.006597797
-0.0022387502 -0.00061463023 -0.0020742526 0.0012012197 -0.000651751 0.00090658513 0.00068580726 -0.064928085
-0.0013867493 -0.0027095014 -0.0006442915 -0.0023624096 -0.0012504255 -0.0005495785 0.001873807 -0.00033655963
00000000: 7252 20bb a304 d03a b6b3 a439 b00f 16bb
00000010: fe4c 823b 48e9 08bb f349 683a 55b0 c4bc
00000020: 4871 073a 3a61 863d c593 46ba 3e33 0cbb
00000030: 2365 4dbb 5e42 80ba b580 59b9 98f0 0dbb
00000040: 3a4e 8c3a 7bab e43a aa3a aaba d406 cdba
00000050: 501e c5ba 0d05 4bbb b2a9 ea3c 05da ed3b
00000060: 96bf aeb9 c856 27b9 73fd c53a d544 96bd
00000070: 213a bcba 19f8 b6bb 2778 113a 4e1a 11bc
00000080: 7cf4 77ba 2f0a 14bb 794a b73b a604 003b
00000090: 64d1 003b 92a3 0abb 6627 c3ba 7b74 c838
000000a0: de8c 513a edb9 a1ba a807 053c f42a b43a
000000b0: 9283 3a3d d51f 00b9 b37d 88ba 75db 4a3c
000000c0: 47cb 67b9 f8db 3bbd ce70 943a b940 853b
000000d0: c55e 423b ab0a 263b 035d 8abb 0a59 8d3b
000000e0: 982c 163b 1c1e caba 2059 8b39 3a53 793b
000000f0: dd05 03ba aa2c 853a beb8 4ebb 6426 eb3a
00000100: fcc6 bbba 74e0 94ba 93da bc38 ee2d 2dbc
00000110: d546 7939 dfd1 df3a 7679 96b8 86ee c13a
00000120: 937d d03a 5dfa d53a 39f4 33bd fd69 3cb9
00000130: c266 1f3a 98d8 52ba 329c 8639 4aa2 c9b8
00000140: 6665 1f3b 6dc0 20bb 7772 393c 7cb8 c6bb
00000150: 8ebc 4b3d 1e91 5a3c bcc3 443b b7dc 0cbe
00000160: 3be0 243b 4a4e 49bc 8b66 3abb 272a 3d3b
00000170: 923d b13b 2b65 1e3b bbe9 3fbe 12cf 22bb
00000180: 9cbd 8fbb 2f3b cdba 8dd8 b3bb fa4e feb9
00000190: f9af 4dbb 1ddd b93a 6c23 803a 21c8 963b
000001a0: f380 0abc 2b3d 60bb a27a 2d3b e6a8 08be
000001b0: 1090 7c3a ce04 93bc d8ba e2b9 97cb 14bc
000001c0: 1f6f 1cbb 8099 973a acc8 333d 99a8 783a
000001d0: c79a d6b9 1c59 5aba 5165 c2ba 9779 d93a
000001e0: 329b 2e3a 175d d1ba c81c 7ebd 03d7 f3b9
000001f0: a7f0 14ba 5558 f639 6d98 e438 6fac c4bb
00000200: ed64 63ba a18c 063b b745 2ebb f107 4c3a
00000210: 3939 d53a 5048 263b 4c7a 65bb 9c88 593a
00000220: a8d1 9aba 81e2 953a 20ac 68bb 76d4 9d3a
00000230: 05ed 0ab9 a51c 733b 8bd6 0bbe f7f5 36bb
00000240: 7d03 153b 2d61 03bb 405f a1ba 6368 033c
00000250: bbd7 0ebb 6612 f2bb f150 403a db94 97ba
00000260: e17a 1a3b 8c52 b53b 85a4 b53d 7cdb 63bb
00000270: f3fd 333b cce8 8b3b 3816 98b8 01ad d1ba
00000280: fd9a 293a cf15 34bb 4c37 aa3d a7b4 683c
00000290: fdef d33b 1a2b 92bb d9b9 16b9 31e7 173d
000002a0: c110 23bc a90c e73c 1335 c2bb 8175 78bc
000002b0: 710c b93a 32d1 68ba 8fbe 633d a5d7 063c
000002c0: 7597 e7b9 8f3f 5b3a 26a7 01b9 74ce 563b
000002d0: dcbb 54bb bd3a 8d3b c79f 7039 6925 5cbb
000002e0: 5740 753b 8b62 563b c280 bbba 019a 4c3c
000002f0: 00e6 313b 5db0 343d d8ff 583b aabb 8e3b
00000300: fd06 933a a461 7f3a 1514 c7bb a087 47ba
00000310: d12e 193b 064c 193b 9afe f639 0312 9c3a
00000320: f0bd f73b 32a7 203b b86d d5bc a49a 4fbc
00000330: 2188 bfbc 1369 7fbb f259 e6ba 801d 10be
00000340: 1dc8 86ba b089 2f3b 1cb9 053b 3dd2 933e
00000350: 7993 a43b d73e 1d3c c27b 85bb eacd 4fbb
00000360: 6a30 a83b 51fc d23b 3952 d93b ba06 123b
00000370: bddc a5ba 06d1 9639 ce69 90bc 9872 97be
00000380: 5de3 2fbc 786c c738 7295 643b 14d0 f0bd
00000390: eb92 9b3b 46a8 f1bc 529b f43b 0408 3c3c
000003a0: b75d cbbb 8d1d b5b9 33fe adbc cdd3 37bc
000003b0: 656a 613b 7986 57bb 2488 d8bb 5532 d83b
000003c0: ffb7 12bb 231f 21ba 2ff0 07bb 3f72 9d3a
000003d0: 45da 2aba e6a7 6d3a bfc7 333a 04f9 84bd
000003e0: 96c3 b5ba e491 31bb ace5 28ba a8d2 1abb
000003f0: 51e5 a3ba 9711 10ba 889a f53a 4574 b0b9

Decoder.dec1.bias f4 [256]
-0.008144202 0.049365424 -0.003851857 0.031082107 -0.1305403 -0.03600801 0.02660409 -0.0814795
0.11385892 0.00498295 -0.3278757 -0.30755177 0.009436187 -0.19020063 -0.0048990827 -0.11189372
0.017823776 0.024116213 0.025488673 0.035428602 0.010127358 -0.00020502848 -0.09055329 0.005125638
0.025241956 -0.0144324275 -0.11093685 -0.0071713454 -0.002440084 0.029718213 -0.0035685687 -0.7186679
0.009956376 0.0039089047 0.030195376 -0.2378963 0.15361202 -0.23532286 0.005980089 0.029783204
-0.22722873 0.010867156 -0.11540232 -0.0068257554 0.04748064 -0.25610363 -0.24645661 -0.0014635854
-0.89190763 -0.12551582 -0.2782841 -0.23697418 0.036859296 0.0011021958 0.008892544 -0.10474506
-0.006428408 0.005779506 0.05477017 0.015436668 0.0025097905 0.024086926 -0.120669596 -0.3089428
-0.01536318 0.021547597 0.020326668 -0.0017720314 0.024924442 -0.25920913 0.0086012175 0.0045489687
0.010746669 -0.07212823 -0.1381446 0.0074717836 -0.26335645 0.023985922 -0.17816186 -0.0047176047
0.024403041 -0.12919135 0.012184291 -0.09021855 -0.23783456 0.003375206 0.0013706543 0.01826298
0.00879898 0.03163826 0.11465252 0.01041878 0.029712407 -0.45392457 0.118887275 -0.39568308
0.02950517 0.018246675 -0.011804846 -0.22742626 -0.23941949 -0.023914775 0.0015772296 -0.054929435
0.031834975 -0.02211847 -0.17074807 0.06169116 0.028450305 0.008644696 0.009731594 -0.01059118
-0.004580974 -0.13681515 -0.0036293874 0.024167145 -0.2360396 0.067503415 0.0068462645 -0.024562836
-0.04116724 0.0059516346 -0.042674735 0.01587327 -0.003017584 -0.14151946 0.02366195 0.019557746
0.0037379528 -0.0021437372 -0.3985586 -0.3872346 0.017638292 -0.023209153 0.1364485 0.03115202
-0.19745098 0.0137822805 -0.36301982 -0.29548314 -0.1530387 0.024535773 0.008597261 0.011086162
0.024175705 -0.15134008 0.0034178717 -0.008292142 -0.058706716 0.025368119 -0.14078878 -0.25908443
0.015893674 0.031629063 0.023790924 -0.118003406 0.029206578 0.024236301 0.009539939 -0.14438471
-0.17724669 -0.07592804 0.026278852 0.0066895257 0.025247287 0.022576656 -0.22626762 -0.097459786
-0.010560609 -0.15477973 0.00205648 -0.118546404 0.02663257 0.0037566852 0.0073175235 -0.03833805
-0.0013048252 0.039643787 0.0023994918 0.0031674602 -0.085359104 -0.31291997 -0.005501068 -1.0236608
-0.18969026 0.03140643 0.03143893 0.009332686 -0.22204182 -0.01245846 -0.04080669 0.0005053197
-0.1218827 -0.3702143 -0.25422034 0.003751458 -0.004176226 -0.08462854 -0.015335515 -0.34081686
-0.23527153 -0.035459522 -0.037532054 -0.02840342 -0.012454585 0.00058078143 -0.011377805 -0.1598374
0.02307328 -0.029411847 0.019261215 -0.19508559 0.013526896 -0.13000284 -0.22141683 0.02297058
-0.10989078 -0.03341178 0.0055158134 -0.3352722 0.024011357 -0.28293592 -0.01528747 -0.014862098
0.012652631 0.010982589 0.02450317 0.04433054 0.0017243455 0.007070532 -0.11306105 -0.32952344
0.017927373 -0.12931378 0.051406518 0.015115524 0.02058738 -0.010262257 -0.2825897 0.01050317
-0.35398263 -0.34197792 -0.027021758 -0.06586165 0.013617281 0.025967933 -0.0060414355 -0.009150142
0.020798571 0.019125849 0.003868173 -0.15273452 0.0032213328 0.0022536677 -0.31637347 -0.034994498
00000000: 426f 05bc 6633 4a3d 706f 7cbb e79f fe3c
00000010: 5bac 05be 237d 13bd d2f0 d93c b9de a6bd
00000020: de2e e93d 0448 a33b 53df a7be 6d77 9dbe
00000030: 3d9a 1a3c f4c3 42be 7c88 a0bb 8928 e5bd
00000040: 2b03 923c 5d8f c53c 9fcd d03c 951d 113d
00000050: 38ed 253c eafc 56b9 0174 b9bd f8f4 a73b
00000060: 38c8 ce3c fd75 6cbc dc32 e3bd 9bfd eabb
00000070: d1e9 1fbb 9c73 f33c a6de 69bb 9ffa 37bf
00000080: 1120 233c 4516 803b 4b5c f73c 169b 73be
00000090: 784c 1d3e 7af8 70be 9ff4 c33b e8fb f33c
000000a0: a6ae 68be 280c 323c 0d58 ecbd 96aa dfbb
000000b0: 0f7b 423d 0420 83be 1f5f 7cbe c7d5 bfba
000000c0: 0f54 64bf 3887 00be 417b 8ebe 5ca9 72be
000000d0: c6f9 163d 8e77 903a 08b2 113c 9484 d6bd
000000e0: 65a5 d2bb 0362 bd3b b056 603d 14ea 7c3c
000000f0: 4c7b 243b f251 c53c 9f21 f7bd c02d 9ebe
00000100: d9b5 7bbc 9684 b03c 1d84 a63c 8243 e8ba
00000110: 582e cc3c 0fb7 84be 1fec 0c3c 840f 953b
00000120: cc12 303c f7b7 93bd c775 0dbe ddd5 f43b
00000130: a8d6 86be 207e c43c 1070 36be 2396 9abb
00000140: e3e8 c73c bd4a 04be 9fa0 473c 81c4 b8bd
00000150: e78a 73be 8f32 5d3b 87a7 b33a 3f9c 953c
00000160: 9929 103c 1f97 013d f1ce ea3d 88b3 2a3c
00000170: 6f67 f33c cd68 e8be 2c7b f33d f996 cabe
00000180: d4b4 f13c 0d7a 953c 1d69 41bc 6ee2 68be
00000190: 622a 75be ebe8 c3bc 0bbb ce3a b0fd 60bd
000001a0: 6465 023d cb31 b5bc 95d8 2ebe dfaf 7c3d
000001b0: 9d10 e93c 7ca2 0d3c 4371 1f3c a186 2dbc
000001c0: ff1b 96bb 4519 0cbe 04db 6dbb 2dfa c53c
000001d0: 5db4 71be 3b3f 8a3d a156 e03b 0038 c9bc
000001e0: fb9e 28bd ee05 c33b b4cb 2ebd a908 823c
000001f0: a9c2 45bb 7aea 10be b5d6 c13c 9137 a03c
00000200: 71f8 743b f17d 0cbb df0f ccbe 9d43 c6be
00000210: 2e7e 903c 1f21 bebc 28b9 0b3e 8532 ff3c
00000220: 9730 4abe 13cf 613c bcdd b9be 9149 97be
00000230: 2db6 1cbe 3fff c83c 87db 0c3c bca2 353c
00000240: 210c c63c e5f8 1abe 5ffe 5f3b c4db 07bc
00000250: 7476 70bd cdd0 cf3c ef2a 10be b7a6 84be
00000260: 7333 823c 7a8d 013d 2fe5 c23c c5ab f1bd
00000270: a242 ef3c 358b c63c 684d 1c3c 96d9 13be
00000280: 2880 35be 2980 9bbd bf46 d73c cf33 db3b
00000290: 66d3 ce3c aef2 b83c b3b2 67be ff98 c7bd
000002a0: 6806 2dbc 947e 1ebe 02c6 063b 75c8 f2bd
000002b0: 8c2c da3c b832 763b d6c7 ef3b 5c08 1dbd
000002c0: ab06 abba 8661 223d cb40 1d3b 2a95 4f3b
000002d0: c1d0 aebd 0c37 a0be 4e42 b4bb 5107 83bf
000002e0: 2a3e 42be 07a4 003d 1cc6 003d 1fe8 183c
000002f0: ee5e 63be 921e 4cbc ea24 27bd 6e77 043a
00000300: a39d f9bd bb8c bdbe 2b29 82be 05db 753b
00000310: b9d8 88bb ba51 adbd d041 7bbc 8c7f aebe
00000320: 05eb 70be 013e 11bd 36bb 19bd 4aae e8bc
00000330: 510e 4cbc 953f 183a f969 3abc 6aac 23be
00000340: 2d04 bd3c 1df1 f0bc b2c9 9d3c 84c4 47be
00000350: ea9f 5d3c 771f 05be 18bb 62be cc2c bc3c
00000360: 6b0e e1bd cada 08bd ffbd b43b cca8 abbe
00000370: 77b3 c43c fadc 90be 4c78 7abc 2880 73bc
00000380: fb4c 4f3c 51f0 333c dfba c83c f193 353d
00000390: 6f03 e23a ecaf e73b 8d8c e7bd 4cb7 a8be
000003a0: 6ddc 923c d56a 04be a48f 523d 1aa7 773c
000003b0: dda6 a83c 0723 28bc 99af 90be 7d15 2c3c
000003c0: 363d b5be bb17 afbe bc5c ddbc 79e2 86bd
000003d0: 041b 5f3c b4ba d43c 3cf7 c5bb 7aea 15bc
000003e0: c461 aa3c d0ad 9c3c 2d81 7d3b 7066 1cbe
000003f0: ff1c 533b 45b2 133b b4fb a1be 6456 0fbd

Decoder.dec2.weight f4 [31, 256]
0.4764844 0.26929617 -1.3603427 0.1274021 -0.036502108 0.2301024 0.06590128 0.038471792
-0.2519553 0.70000076 0.12733804 -0.028201394 0.40285277 -0.31287608 -0.8161617 -0.70028573
-1.2622586 0.07431464 0.09447151 0.08816514 0.37137318 -0.97919637 -0.004997544 0.76138574
0.11019499 0.21534884 -0.06117403 0.21983138 0.5717756 0.13649347 0.3035266 -0.99936855
0.46620667 -0.7985641 0.16444439 -0.078558385 -0.14713906 -0.02004006 0.4546373 0.08170852
0.07894946 0.45428604 -0.20026048 -0.85120696 -0.562611 -0.04539041 -0.023480492 0.34965184
-0.95158577 0.02409506 0.06059898 -0.07206265 -0.15493321 0.38386434 0.61275613 -0.019752936
-0.7490395 0.7311376 0.20946075 0.084282175 -0.6152304 0.11890211 -0.009328263 -0.01230432
0.037380107 0.012743892 -0.58148015 0.0051052803 0.124410935 -0.072030276 0.56264573 0.37512535
0.4494557 -0.007486986 -0.1932256 -0.6162367 -0.08855338 0.085511826 0.019774627 0.16823518
0.098910354 0.008895841 0.37045074 0.009907504 -0.001305965 -0.806392 0.62784916 -0.34188998
0.021319577 0.106861144 -0.025208957 -0.4048461 0.09170097 0.29643637 -0.18265608 -0.08234333
0.06522525 -0.5944125 0.0063575883 -0.026624702 -0.013145135 0.18684804 -1.1500748 0.2402936
0.078130685 -0.055746734 0.09732679 0.016922543 0.40500048 0.39993298 -0.87238944 0.04902596
0.22972946 0.06843248 0.10885092 0.071450405 -0.04015193 0.2898412 -1.230147 0.15968454
-0.014859703 0.5231037 0.0865027 0.55901855 0.3894048 -0.13378729 0.076825544 -0.61341256
-1.9297771 0.38486788 -0.6143903 -0.032802448 -0.13939041 0.034267448 0.20469211 0.11042374
-0.043686725 0.7134863 0.02401678 -0.016343122 0.023576899 0.1349919 -0.74848735 0.4157364
0.09936576 -0.00044031316 -0.46766412 -0.6003911 0.007175217 0.16026676 0.03426985 0.0072450154
-1.1633228 0.07809473 0.0894887 -0.01388507 0.16984914 0.11500076 0.11114525 0.13713351
-0.6795622 -0.08821776 0.110884205 -1.0269271 0.1014126 0.07315501 0.018441917 -0.018730115
-0.122692734 0.048313312 0.10341708 0.01763312 0.070430025 -0.85219544 0.7153379 0.29535487
-0.04046108 -0.52374876 0.11209153 -1.2350681 -0.09391401 -0.05319544 0.6749196 -1.1455531
-0.045677718 0.1966145 0.12826331 -0.68406045 -0.037254605 -0.57764506 -0.48138496 -0.36929223
0.04987003 0.00946825 0.09991234 0.6752786 0.08833104 -0.07256161 0.089545056 0.009430341
-0.03619031 0.058185887 -0.27558264 -0.4912219 -0.111754775 -0.7041156 -0.35749546 0.02739648
0.058743738 0.041131336 -0.61244524 -0.057818215 0.19229956 -0.08753154 -0.027421521 0.11554071
0.019416433 0.41129202 0.8007396 0.1043074 0.117105864 -0.09341601 0.15894438 -0.21347545
0.38338682 0.43561122 0.12143776 -0.60179245 0.10131762 -0.6969253 -0.1417462 -0.34336135
-1.0905455 -0.0037153552 -0.041340094 0.07603898 -0.52863586 0.27007562 -0.006896124 -1.0603421
-0.020689711 0.062059466 0.29404554 0.14915703 0.5277768 0.094670944 -0.33220568 0.77938104
0.73181146 -1.0107647 0.5524767 0.23136677 -0.5472268 0.16205892 -0.0963818 0.09799276
00000000: c3f5 f33e 30e1 893e b61f aebf b275 023e
00000010: 3c83 15bd f79f 6b3e 40f7 863d 9994 1d3d
00000020: 4900 81be 4033 333f e764 023e 9c06 e7bc
00000030: b842 ce3e 4b31 a0be f9ef 50bf ed45 33bf
00000040: b191 a1bf 4632 983d 477a c13d ed8f b43d
00000050: a024 be3e 9dac 7abf 70c2 a3bb 2dea 423f
00000060: e9ad e13d 6884 5c3e 9f91 7abd 7a1b 613e
00000070: e35f 123f f2c4 0b3e d767 9b3e 9ed6 7fbf
00000080: a4b2 ee3e b26e 4cbf 1c64 283e 38e3 a0bd
00000090: 9fab 16be 0d2b a4bc 38c6 e83e cc56 a73d
000000a0: 41b0 a13d 2e98 e83e 1511 4dbe b3e8 59bf
000000b0: 4607 10bf 4beb 39bd 295a c0bc 9105 b33e
000000c0: 209b 73bf 0163 c53c a336 783d 9595 93bd
000000d0: d0a6 1ebe de89 c43e 96dd 1c3f e9d0 a1bc
000000e0: 0dc1 3fbf d52b 3b3f e17c 563e 229c ac3d
000000f0: bd7f 1dbf f382 f33d 92d5 18bc 0f98 49bc
00000100: e21b 193d c2cb 503c e2db 14bf 324a a73b
00000110: 29cb fe3d 9c84 93bd 8d09 103f 6e10 c03e
00000120: 0f1f e63e 6455 f5bb efdc 45be b0c1 1dbf
00000130: 795b b5bd d320 af3d 66fe a13c d845 2c3e
00000140: 8391 ca3d ddbf 113c b8ab bd3e 1553 223c
00000150: ea2c abba b56f 4ebf b9ba 203f 340c afbe
00000160: 65a6 ae3c 04da da3d 0483 cebc fd47 cfbe
00000170: b8cd bb3d 82c6 973e 320a 3bbe 9fa3 a8bd
00000180: d194 853d 6b2b 18bf 5153 d03b 0c1c dabc
00000190: b15e 57bc 1855 3f3e a735 93bf 870f 763e
000001a0: fb02 a03d b056 64bd 4553 c73d 25a1 8a3c
000001b0: 395c cf3e 04c4 cc3e ea54 5fbf 72cf 483d
000001c0: 333e 6b3e 5426 8c3d 3bed de3d 9754 923d
000001d0: 5a76 24bd 1166 943e 7575 9dbf 5884 233e
000001e0: 1d76 73bc 20ea 053f 5428 b13d d71b 0f3f
000001f0: 1160 c73e 89ff 08be b656 9d3d 9b08 1dbf
00000200: f002 f7bf 670d c53e af48 1dbf dc5b 06bd
00000210: 5cbc 0ebe 065c 0c3d cf9a 513e d825 e23d
00000220: daf0 32bd 0aa7 363f d7be c43c 03e2 85bc
00000230: 5724 c13c 513b 0a3e de9c 3fbf 67db d43e
00000240: 4780 cb3d d5d9 e6b9 ac71 efbe 3bb3 19bf
00000250: 151e eb3b f81c 243e 8b5e 0c3d 9867 ed3b
00000260: c3e7 94bf 21f0 9f3d da45 b73d 347e 63bc
00000270: efec 2d3e 8585 eb3d 1fa0 e33d ba6c 0c3e
00000280: caf7 2dbf 83ab b4bd 4217 e33d 5972 83bf
00000290: 69b1 cf3d 4bd2 953d 8113 973c e66f 99bc
000002a0: 5446 fbbd 2ee4 453d 56cc d33d 5573 903c
000002b0: 9e3d 903d 7b29 5abf 6220 373f c138 973e
000002c0: 84ba 25bd 6614 06bf 3e90 e53d b616 9ebf
000002d0: fd55 c0bd 76e3 59bd 88c7 2c3f 7ca1 92bf
000002e0: 8f18 3bbd 5055 493e 7557 033e 961e 2fbf
000002f0: 4998 18bd 8ce0 13bf 1778 f6be df13 bdbe
00000300: 8444 4c3d b820 1b3c d79e cc3d 0fdf 2c3f
00000310: e8e6 b43d 2e9b 94bd 6663 b73d b881 1a3c
00000320: 4a3c 14bd 5354 6e3d 2b19 8dbe 7081 fbbe
00000330: b0df e4bd ec40 34bf a509 b7be 956e e03c
00000340: 469d 703d 5579 283d 36c9 1cbf cbd2 6cbd
00000350: 2dea 443e bc43 b3bd 19a3 e0bc 9ca0 ec3d
00000360: 360f 9f3c de94 d23e 45fd 4c3f 1e9f d53d
00000370: 33d5 ef3d e550 bfbd 51c2 223e 4f99 5abe
00000380: 474b c43e 6f08 df3e 5cb4 f83d 120f 1abf
00000390: 9d7f cf3d b269 32bf ea25 11be 0fcd afbe
000003a0: ff96 8bbf 517d 73bb 3b54 29bd 53ba 9b3d
000003b0: ae54 07bf 5a47 8a3e e2f8 e1bb 4ab9 87bf
000003c0: 787d a9bc 1132 7e3d 238d 963e 9fbc 183e
000003d0: 611c 073f d7e2 c13d dd16 aabe 8485 473f
000003e0: ff57 3b3f bd60 81bf 1d6f 0d3f 69eb 6c3e
000003f0: 0e17 0cbf c6f2 253e d263 c5bd 6eb0 c83d

Decoder.dec2.bias f4 [31]
-0.25430983 -0.004563508 2.1303551 -0.03645017 4.326178 0.22581011 -2.1319387 -0.055099543
-0.39682662 -0.19113952 1.3174872 0.50172836 1.3940063 -1.9072158 2.0112498 -1.6616305
-0.04026271 4.405718 -0.0861806 -1.5750288 -0.09759979 -1.5485394 -1.947755 -0.031640016
0.024376364 5.1879206 0.19488823 0.7058609 0.14694758 1.916037 -2.2471194
00000000: e634 82be 7b89 95bb bd57 0840 c64c 15bd
00000010: 0d70 8a40 c43a 673e af71 08c0 0fb0 61bd
00000020: dc2c cbbe 14ba 43be 6ca3 a83f 4571 003f
00000030: cc6e b23f a61f f4bf 51b8 0040 4fb0 d4bf
00000040: 83ea 24bd a4fb 8c40 747f b0bd 8b9a c9bf
00000050: 66e2 c7bd 8a36 c6bf 0950 f9bf f698 01bd
00000060: f1b0 c73c 7203 a640 c890 473e 4db3 343f
00000070: 6d79 163e b340 f53f ced0 0fc0
