results/7_iid/model_alone_n_1_m_0.pt (torch, 121552 bytes, 8 tensors)

Encoder.enc1.weight f4 [256, 22]
-0.018401563 0.043900583 -0.0095255235 -0.036977805 0.111119784 0.14767504 -0.086466715 0.10452389
-0.065691575 0.06446102 0.056011867 -0.114984825 0.11758175 -0.003888802 -0.026452703 -0.2589123
-0.050059132 -0.117230825 -0.017541224 0.021754678 0.028262883 0.07513098 -0.015343525 -0.008220569
-0.0925517 0.00330719 0.0012932257 -0.022727799 -0.02571194 0.036588144 0.021402882 0.101100616
0.00481568 -0.15511164 0.015488955 -0.0058392333 -0.014368624 0.015714392 -0.25120562 0.011801186
-0.05391651 -0.03716351 0.30948192 -0.047632456 -0.052460503 0.08454475 0.026770454 -0.0150785
-0.08872173 -0.084604025 0.05124075 -0.043623406 -0.014182606 -0.074503064 0.15977083 0.02162388
0.0066222134 -0.00464694 -0.15955628 -0.029487325 -0.10376191 0.050544813 0.09129586 0.07813502
0.0035004744 -0.17494754 0.0026738287 0.09986673 0.13331082 -0.031511895 0.05438255 0.043752037
0.02728585 -0.13133638 0.07240682 0.08446195 0.053476278 -0.12326204 -0.061449315 0.013799084
-0.042238805 0.1700893 -0.15075414 -0.04640638 -0.08532289 0.026857782 -0.047517926 -0.11545489
-0.09805094 -0.24880046 0.06426914 -0.1154201 -0.075402506 -0.07182025 -0.044468086 0.053996135
-0.13171153 -0.13471684 -0.0880668 -0.14806618 0.019025784 -0.036936942 -0.11519795 0.07392773
0.015584764 0.057863556 0.026885143 -0.06768037 -0.01985112 0.10533518 0.025250956 -0.013294839
0.20257017 0.094718054 0.037290633 -0.12672114 -0.0063161114 -0.003087585 0.042048335 0.10935789
0.124772556 -0.06801196 0.07179549 -0.09791172 0.109658934 -0.06987111 0.060055744 -0.040995542
0.11578406 0.054585394 -0.047627743 -0.015418631 0.013179412 -0.079198 -0.09115126 0.008945788
-0.01048255 0.018094504 0.007196795 0.0028325215 -0.088442735 0.03629371 -0.00089378486 -0.1624103
0.04789394 -0.02425225 -0.009503502 -0.03830878 0.098342925 -0.0885469 0.01341079 0.012351341
0.022141024 0.030666322 0.036346916 -0.17603728 0.032988694 0.035455022 -0.26238474 -0.014329771
-0.20376779 0.08657639 -0.24652939 -0.14295328 0.22873951 0.058540586 0.013530731 -0.011207321
-0.015335919 -0.010944771 -0.008661596 -0.23786262 0.09510176 0.086192615 -0.06387049 0.10008492
0.042011373 0.059279665 -0.16697481 0.004838314 0.044768568 0.0028386235 -0.013544041 0.041036386
-0.33279192 0.067073226 -0.0064125736 -0.10292121 -0.18621123 0.03207861 -0.30532122 -0.123245515
-0.049706213 -0.010726245 -0.01583461 0.039769493 0.028158609 -0.30020338 -0.15349321 -0.0037877809
-0.14466047 0.028412651 0.043045465 0.15869525 -0.1999026 0.16510443 -0.1995626 0.06919055
0.14194393 -0.18360923 -0.21139753 0.13157555 0.072675645 -0.090732984 0.094999745 -0.22133312
0.06887436 0.15516296 -0.07509583 -0.09979404 -0.20559497 0.042496257 -0.3056817 0.0790449
0.012070904 0.17485616 -0.09051878 0.05764211 -0.109587215 -0.23807932 0.06019668 -0.16354844
0.18733831 -0.16520703 -0.05721518 0.14209197 -0.06245379 -0.13041641 -0.081192195 -0.06308625
-0.10127508 0.13132146 0.0077966736 0.11597653 -0.26760447 -0.011648476 0.03681843 0.07730353
-0.023284854 -0.15489356 -0.0895912 -0.13186188 -0.15827937 -0.16311508 -0.15519325 -0.18181275
00000000: e0be 96bc 19d1 333d f110 1cbc 0a76 17bd
00000010: c592 e33d 2038 173e 7615 b1bd 9f10 d63d
00000020: 4e89 86bd 2404 843d b36c 653d 2a7d ebbd
00000030: b3ce f03d 45db 7ebb 57b3 d8bc 2790 84be
00000040: ce0a 4dbd b716 f0bd 9db2 8fbc de36 b23c
00000050: 9087 e73c 45de 993d 6963 7bbc 91af 06bc
00000060: bf8b bdbd 71bd 583b 7481 a93a a62f babc
00000070: d9a1 d2bc 73dd 153d 1955 af3c d70d cf3d
00000080: dacc 9d3b 96d5 1ebe 63c5 7d3c 0a57 bfbb
00000090: 616a 6bbc 78bb 803c 069e 80be c359 413c
000000a0: 8fd7 5cbd c438 18bd 6a74 9e3e 401a 43bd
000000b0: d3e0 56bd cc25 ad3d b64d db3c d00b 77bc
000000c0: bdb3 b5bd e044 adbd d2e1 513d 75ae 32bd
000000d0: 295e 68bc 1095 98bd f79a 233e 9024 b13c
000000e0: 27ff d83b 5c45 98bb b962 23be 678f f1bc
000000f0: 2081 d4bd 1408 4f3d 53f9 ba3d 4105 a03d
00000100: 3768 653b 7325 33be 673b 2f3b ee86 cc3d
00000110: a282 083e 9e12 01bd 3dc0 5e3d 5635 333d
00000120: 9386 df3c 0b7d 06be 074a 943d 63fa ac3d
00000130: f109 5b3d cf70 fcbd 47b2 7bbd 8e15 623c
00000140: 9902 2dbd e42b 2e3e 4b5f 1abe 9e14 3ebd
00000150: c4bd aebd da04 dc3c 28a2 42bd 9d73 ecbd
00000160: eece c8bd 8cc5 7ebe 8a9f 833d 6061 ecbd
00000170: a16c 9abd 7f16 93bd 2b24 36bd 0d2b 5d3d
00000180: 63df 06be 36f3 09be 5e5c b4bd a99e 17be
00000190: f6db 9b3c 314b 17bd e7ec ebbd 6c67 973d
000001a0: 3d57 7f3c 5602 6d3d 3b3e dc3c 019c 8abd
000001b0: d19e a2bc f9b9 d73d 18db ce3c 99d2 59bc
000001c0: 8e6e 4f3e 8afb c13d 10be 183d 30c3 01be
000001d0: 62f7 cebb 1559 4abb e03a 2c3d 08f7 df3d
000001e0: c188 ff3d db49 8bbd 8409 933d f185 c8bd
000001f0: dd94 e03d 9618 8fbd 03fd 753d f1ea 27bd
00000200: 3120 ed3d ef94 5f3d 4f15 43bd 6d9e 7cbc
00000210: 76ee 573c 9032 a2bd 83ad babd 5b91 123c
00000220: 00bf 2bbc ed3a 943c 18d3 eb3b d3a1 393b
00000230: 7721 b5bd b7a8 143d e34c 6aba e34e 26be
00000240: 702c 443d a8ac c6bc 94b4 1bbc abe9 1cbd
00000250: 0468 c93d 1458 b5bd eeb8 5b3c 475d 4a3c
00000260: 1861 b53c f037 fb3c 81e0 143d 1e43 34be
00000270: 271f 073d 4939 113d 4b57 86be 6ac7 6abc
00000280: 81a8 50be f64e b13d 3372 7cbe 5862 12be
00000290: b13a 6a3e 41c8 6f3d 00b0 5d3c e99e 37bc
000002a0: 8243 7bbc b251 33bc 5ee9 0dbc 4292 73be
000002b0: b6c4 c23d c185 b03d 88ce 82bd 53f9 cc3d
000002c0: 1e14 2c3d 3ccf 723d 72fb 2abe b88a 9e3b
000002d0: 3f5f 373d 3308 3a3b d3e7 5dbc c515 283d
000002e0: b463 aabe b05d 893d 9120 d2bb 5bc8 d2bd
000002f0: 28ae 3ebe dc64 033d 1053 9cbe 2568 fcbd
00000300: be98 4bbd 22bd 2fbc 96b7 81bc 56e5 223d
00000310: e2ac e63c 42b4 99be 532d 1dbe 6b3c 78bb
00000320: e021 14be a6c1 e83c 7150 303d 0281 223e
00000330: 44b3 4cbe 2311 293e 235a 4cbe c6b3 8d3d
00000340: c059 113e 0f04 3cbe 9878 58be bebb 063e
00000350: f8d6 943d 37d2 b9bd 3a8f c23d 26a5 62be
00000360: 000e 8d3d 0ae3 1e3e d8cb 99bd d160 ccbd
00000370: 7d87 52be 8e10 2e3d 5082 9cbe 4be2 a13d
00000380: 0ac5 453c 7e0d 333e e961 b9bd 221a 6c3d
00000390: 436f e0bd 11cb 73be cb90 763d 3e79 27be
000003a0: 9dd5 3f3e 082c 29be 775a 6abd 8f80 113e
000003b0: 8ccf 7fbd e18b 05be 1848 a6bd 5d33 81bd
000003c0: 4f69 cfbd 2279 063e 3d7b ff3b 1a85 ed3d
000003d0: 7403 89be 40d9 3ebc ecce 163d 5051 9e3d
000003e0: e1bf bebc 6b9c 1ebe 977b b7bd cd06 07be
000003f0: fd13 22be a407 27be fbea 1ebe 1f2d 3abe

Encoder.enc1.bias f4 [256]
-0.26199633 0.0019524569 -0.24508516 0.15514958 -0.05863601 -0.099367455 0.024741488 -0.25902516
-0.008760158 -0.22464901 -0.2727943 0.09968126 -0.11392851 -0.28048345 -0.04874875 -0.18886335
-0.12861414 -0.26096547 0.027341515 -0.086148396 0.03660692 -0.06443828 -0.23059879 -0.2950521
0.10441458 0.15591168 -0.023326037 -0.077047795 0.07441 -0.32520172 0.18896961 0.026468817
-0.18029855 -0.030907622 0.07112634 0.08335988 -0.25326177 -0.1586105 -0.23701462 0.0815078
-0.2493534 -0.07906216 0.05347415 -0.2038088 -0.0031326318 0.1957545 0.018080698 0.18791649
-0.21729106 -0.3129718 -0.24554713 -0.3143676 -0.26336092 0.042762764 -0.111836486 -0.17020462
-0.12024206 -0.23929197 -0.17314716 -0.054467693 -0.2489897 0.081519574 -0.26413366 -0.21031491
0.04559287 -0.28687686 -0.19243269 -0.0026548842 -0.05589646 -0.0007678328 0.07950482 -0.10268184
0.058300015 0.02510663 0.039383516 -0.11317617 0.11831627 0.024686476 0.07835447 0.13248004
0.033190574 -0.13236706 0.021236703 -0.14982739 0.05409077 -0.06004469 -0.01785285 0.006469635
-0.09631447 0.0189973 0.02272217 -0.14669804 -0.0112466365 -0.28546417 0.065388024 0.171976
0.0016103173 0.15249431 -0.13556069 0.17983693 -0.0027603358 0.058862824 0.204321 -0.28373447
-0.11129346 -0.08209647 -0.06752042 -0.10199476 -0.065639384 -0.14934549 -0.04251773 0.057072256
0.02238635 0.037356567 -0.143391 -0.02004736 -0.19105871 0.07397827 0.02886535 -0.077318914
-0.274356 -0.01900897 -0.14239597 -0.018289344 0.17438434 -0.01827338 0.014423574 -0.22600693
-0.21075386 -0.032114636 -0.27664095 0.009404151 -0.08051588 -0.0029708222 0.0821208 0.111242294
-0.098364644 0.07386646 -0.296085 -0.15355378 0.07343907 -0.062424973 -0.021192523 -0.05332291
-0.25273743 -0.17034653 -0.04888567 -0.28745332 -0.023482617 -0.031874634 0.09826251 0.016663142
-0.18701567 0.0065950076 -0.26163933 -0.27797526 0.050687935 -0.1816599 0.018218724 -0.002632278
0.13062151 0.20523427 0.1113687 -0.2806353 -0.08429384 -0.16280732 -0.16064037 0.031245224
-0.24642606 -0.1628926 -0.019011553 -0.14867401 -0.2513819 0.1355626 0.21135432 0.028440557
-0.14874585 0.10781212 0.08787983 -0.21263455 0.077098034 0.13111882 -0.20295124 -0.26122606
-0.18677063 0.0030696308 0.11168313 -0.10569409 0.025891474 -0.002842091 0.16767927 -0.03473158
-0.11369716 -0.00015931344 0.09533722 -0.23411866 -0.10730676 0.09548624 -0.03796781 0.07878644
-0.19784978 0.09925143 -0.25605315 0.024103122 -0.007951413 -0.21575518 -0.30949527 0.16546725
-0.1088109 -0.13531063 -0.2344384 -0.13895445 -0.17647754 0.14355491 -0.12336258 0.06760175
-0.025390817 -0.25067955 0.032625433 0.14455499 -0.13996702 0.055031765 -0.1598337 0.1632219
-0.055817306 -0.012583873 0.052732084 -0.0383793 -0.17691703 -0.017891794 -0.2766408 -0.14699273
-0.19669306 0.06616693 0.19194822 -0.062036883 0.042408165 0.11666143 -0.094475724 0.03224952
-0.04014229 0.14685339 0.13413532 -0.23423816 -0.19005021 0.068214364 -0.13909921 -0.2794911
-0.1944495 -0.11490989 0.16011459 -0.26386416 -0.2551233 -0.084755756 -0.0037993842 -0.26838776
00000000: 6224 86be 95e9 ff3a 9bf7 7abe 88df 1e3e
00000010: 502c 70bd 2a81 cbbd a9ae ca3c f29e 84be
00000020: c486 0fbc 640a 66be b2ab 8bbe b025 cc3d
00000030: 5a53 e9bd 879b 8fbe c5ac 47bd 6565 41be
00000040: 6db3 03be 449d 85be 50fb df3c 926e b0bd
00000050: 23f1 153d 38f8 83bd 1722 6cbe 1211 97be
00000060: 50d7 d53d 50a7 1f3e 3f16 bfbc 3ccb 9dbd
00000070: 4564 983d d780 a6be 4081 413e 22d5 d83c
00000080: 2fa0 38be fb31 fdbc b0aa 913d 96b8 aa3d
00000090: 87ab 81be ca6a 22be f6b3 72be 90ed a63d
000000a0: 7f56 7fbe 57eb a1bd b607 5b3d 41b3 50be
000000b0: d74c 4dbb de73 483e f91d 943c 2e6d 403e
000000c0: 8c81 5ebe d73d a0be b570 7bbe caf4 a0be
000000d0: 3ed7 86be 0228 2f3d 870a e5bd 1f4a 2ebe
000000e0: 7841 f6bd f408 75be 7d4d 31be 8419 5fbd
000000f0: 28f7 7ebe bcf3 a63d 873c 87be cb5c 57be
00000100: 97bf 3a3d 86e1 92be 130d 45be 91fd 2dbb
00000110: b0f3 64bd 6348 49ba 6cd3 a23d db4a d2bd
00000120: ffcb 6e3d 6bac cd3c 9c50 213d e8c8 e7bd
00000130: cd4f f23d 4b3b ca3c 4f78 a03d d9a8 073e
00000140: d7f2 073d 3b8b 07be 98f8 ad3c 5a6c 19be
00000150: 498e 5d3d 6cf1 75bd 2440 92bc 3bff d33b
00000160: 8540 c5bd 3aa0 9b3c d823 ba3c 0338 16be
00000170: d043 38bc 5c28 92be 28ea 853d 7a1a 303e
00000180: 4811 d33a 7827 1c3e 6cd0 0abe 2c27 383e
00000190: c0e6 34bb 251a 713d 8639 513e a545 91be
000001a0: d3ed e3bd 3222 a8bd 2548 8abd a1e2 d0bd
000001b0: f16d 86bd 06ee 18be 1227 2ebd 99c4 693d
000001c0: 9463 b73c 3303 193d 17d5 12be 5c3a a4bc
000001d0: e5a4 43be eb81 973d 0777 ec3c 6159 9ebd
000001e0: 6478 8cbe b3b8 9bbc 40d0 11be 89d3 95bc
000001f0: cf91 323e 0eb2 95bc db50 6c3c 5c6e 67be
00000200: dccf 57be a38a 03bd e2a3 8dbe de13 1a3c
00000210: 82e5 a4bd 20b2 42bb f32e a83d 00d3 e33d
00000220: 6773 c9bd 4c47 973d 7498 97be 343d 1dbe
00000230: 3967 963d 54b1 7fbd f19b adbc 2069 5abd
00000240: cd66 81be 526f 2ebe 573c 48bd 152d 93be
00000250: 9e5e c0bc fa8e 02bd db3d c93d 2481 883c
00000260: 0981 3fbe ef1a d83b 97f5 85be c652 8ebe
00000270: 279e 4f3d 0e05 3abe 6f3f 953c 4c82 2cbb
00000280: a5c1 053e ef28 523e 4615 e43d 6eaf 8fbe
00000290: 40a2 acbd f6b6 26be e97e 24be fcf5 ff3c
000002a0: 1d57 7cbe 51cd 26be 1ebe 9bbc 003e 18be
000002b0: 21b5 80be ecd0 0a3e 446d 583e 2cfc e83c
000002c0: d550 18be 9acc dc3d 57fa b33d dfbc 59be
000002d0: 93e5 9d3d 0344 063e 73d2 4fbe 6cbf 85be
000002e0: cd40 3fbe dc2b 493b 20ba e43d 2576 d8bd
000002f0: 5b1a d43c 6042 3abb 1db4 2b3e b442 0ebd
00000300: 0eda e8bd 600d 27b9 2940 c33d cdbc 6fbe
00000310: a6c3 dbbd 4a8e c33d 2284 1bbd c95a a13d
00000320: 2299 4abe 5544 cb3d 6619 83be e973 c53c
00000330: a546 02bc edee 5cbe 2a76 9ebe 3f70 293e
00000340: 40d8 debd df8e 0abe 9f10 70be 134a 0ebe
00000350: 87b6 34be 0f00 133e 85a5 fcbd c972 8a3d
00000360: 6700 d0bc 1259 80be 3fa2 053d 3906 143e
00000370: 8453 0fbe fd68 613d 72ab 23be a423 273e
00000380: b0a0 64bd 972c 4ebc 99fd 573d 9d33 1dbd
00000390: bd29 35be d091 92bc dda3 8dbe 4385 16be
000003a0: e869 49be 8782 873d 138e 443e 631a 7ebd
000003b0: 2fb4 2d3d 30ec ee3d 7d7c c1bd 1318 043d
000003c0: 3e6c 24bd bc60 163e c55a 093e 21dc 6fbe
000003d0: 869c 42be f9b3 8b3d 0670 0ebe 7519 8fbe
000003e0: c51d 47be e055 ebbd 14f5 233e 3419 87be
000003f0: 859f 82be 6d94 adbd 17ff 78bb 1f6a 89be

Encoder.enc2.weight f4 [40, 256]
-0.009287285 -0.0036754375 -0.016506318 0.012002992 -0.018020876 0.004428363 0.0055319807 0.0018060112
-0.002444389 0.03520033 -0.028953731 -0.007171143 -0.0060989275 0.0136974575 0.015967686 -0.060965426
0.009238123 -0.00031622898 -0.009108456 -0.0051346323 -0.013040618 4.6898476e-05 0.0031881956 0.004971719
-0.004504308 0.0060498924 0.0057714833 -0.009841658 -0.008162864 0.01607866 -0.017238967 0.008550435
-0.009703505 0.0017294311 -0.0046376446 0.0015671633 0.0017332338 -0.0069607426 0.006278162 0.0008100256
0.018060345 0.018548865 0.010784896 -0.017502872 -0.00826411 0.011416289 0.0065690745 -0.0024652607
-0.028662005 0.00044020175 -0.019033676 -0.0010613068 0.041638285 0.0053745974 -0.0046243155 0.025825333
0.0011704317 0.0025803433 -0.038225397 -0.004801198 -0.006570539 0.007281346 -0.014232902 -0.0056751226
0.013227838 -0.005888185 0.00061725517 0.0038438537 -0.029049348 0.0055506886 -0.0008215731 0.018109983
-0.005234916 0.0055789747 0.0074847187 0.008935181 -0.017223718 0.0032442259 -0.009768619 -0.011200549
0.013049001 -0.0048453305 0.0052832495 0.023210889 0.0054299743 0.009656331 0.0077364314 0.011295912
-0.021994445 -0.009643073 -0.0033241531 -0.045993034 -0.005644379 -0.0005288835 0.0001516979 0.017947046
-0.012594329 0.01148299 -0.026204094 0.010080205 0.0024086786 -0.0018720403 -0.0074016675 0.020399341
-0.02018849 -1.584077e-05 -0.0029816113 0.00333368 0.04187061 0.07183082 0.008416505 0.005409187
-0.004161376 -0.015550734 -0.0030265532 0.017933821 -0.02974728 -0.00465388 0.0020636863 -0.019269666
-0.0057010017 0.025750592 0.0054336116 0.003275858 -0.010052974 -0.0003717095 -0.020099707 0.021926109
-0.021034865 0.009626981 0.012066263 0.0026894372 0.0019526124 -0.004385935 0.008711038 -0.011826916
0.03323117 0.014441373 0.0011888198 0.028559405 -0.022421798 0.0057781637 -0.012958647 0.00090001704
-0.0018377462 0.019307308 0.020908726 0.0005965927 -0.0054454077 -0.024119386 -0.0036719318 -0.0098353205
0.018885672 0.016478857 0.002940082 -0.0080454955 -0.014986764 -0.0060533006 0.0013385131 -0.00035157672
-0.0069076293 0.008146823 -0.00573763 -0.0025141577 -0.009895619 0.009497518 -0.010534418 0.0061808503
0.021273945 -0.0008212413 -0.007931747 -0.0014304289 -0.013168826 0.010097659 0.00061135617 -0.012777501
-0.010687337 -0.005194163 0.0019079006 0.0023932362 -0.010074036 0.0031548026 0.0019075582 -0.009804002
-0.0063676587 -0.004567648 -0.0015615186 0.006900702 0.009283184 0.002612866 -0.007215592 -0.0056965575
-0.012395894 0.046179984 0.002528469 -0.046153713 0.030841593 0.012436685 -0.005187348 0.015230823
0.008306584 -0.0022548316 -0.0043128636 0.019500116 -0.0071032927 0.020588558 0.013054565 0.010860521
0.0013658665 -0.04548517 -0.0018499636 0.022391547 -0.000579881 0.0038872806 0.017190242 0.010481162
0.026159836 -0.009802872 0.0027377426 0.013467653 -0.00077466393 0.00574873 -0.0027653584 0.00980587
0.007233003 0.0064759892 0.01580207 -0.0060646674 -0.0022023492 -0.007791377 0.026223127 -0.005410081
-0.016965056 -0.00037662848 0.007606831 0.0013419435 -0.013911274 -0.0039311564 -0.032622322 -0.01808001
0.009111199 0.009637573 0.011305012 0.011129869 -0.024760133 0.010534618 -0.018747795 -0.00066661614
0.005554979 0.024052722 0.0013272419 -0.0012763676 -0.0021795847 0.015018454 0.0039166356 -0.0018357101
00000000: b229 18bc 9cdf 70bb 4238 87bc 33a8 443c
00000010: 84a0 93bc cd1b 913b 9e45 b53b aeb7 ec3a
00000020: 0b32 20bb 392e 103d 6030 edbc e8fb eabb
00000030: 83d9 c7bb 4d6b 603c aace 823c e2b6 79bd
00000040: 7f5b 173c 89cb a5b9 a23b 15bc 6b40 a8bb
00000050: 51a8 55bc dbb4 4438 0cf1 503b cde9 a23b
00000060: e098 93bb 2d3e c63b b61e bd3b e83e 21bc
00000070: 88bd 05bc 65b7 833c bc38 8dbc 2017 0c3c
00000080: 73fb 1ebc 14ae e23a 62f7 97bb 4669 cd3a
00000090: ad2d e33a f116 e4bb 0ab9 cd3b e657 543a
000000a0: 4af3 933c caf3 973c 22b3 303c 2f62 8fbc
000000b0: 3166 07bc 630b 3b3c 6441 d73b 3690 21bb
000000c0: 95cc eabc e1ca e639 83ec 9bbc 8c1b 8bba
000000d0: e88c 2a3d 641d b03b 9287 97bb a68f d33c
000000e0: 2c69 993a fa1a 293b 3c92 1cbd 5e53 9dbb
000000f0: ad4d d7bb 5b98 ee3b 1e31 69bc 61f6 b9bb
00000100: 93b9 583c adf1 c0bb 4bcf 213a 2ae9 7b3b
00000110: e6f8 edbc 8de2 b53b d65e 57ba 635b 943c
00000120: a989 abbb d5cf b63b 5f42 f53b de64 123c
00000130: c118 8dbc 149d 543b 8f0c 20bc 8282 37bc
00000140: 7acb 553c 94c5 9ebb 1c1f ad3b c324 be3c
00000150: eded b13b 9635 1e3c e481 fd3b 7d12 393c
00000160: b22d b4bc fbfd 1dbc 09da 59bb 3163 3cbd
00000170: 7cf4 b8bb c5a4 0aba 1811 1f39 af05 933c
00000180: 7258 4ebc 2723 3c3c f8a9 d6bc 7227 253c
00000190: ecda 1d3b 405f f5ba b089 f2bb 851c a73c
000001a0: 5562 a5bc cbe1 84b7 2367 43bb df79 5a3b
000001b0: 8480 2b3d 091c 933d 61e5 093c 8d3f b13b
000001c0: 275c 88bb 81c8 7ebc 2359 46bb f3e9 923c
000001d0: 91b0 f3bc 937f 98bb e93e 073b 6bdb 9dbc
000001e0: 78cf babb e8f2 d23c 700c b23b c7af 563b
000001f0: 3bb5 24bc 01e2 c2b9 24a8 a4bc 629e b33c
00000200: 4f51 acbc 7cba 1d3c 93b1 453c 4541 303b
00000210: cdee ff3a e4b7 8fbb beb8 0e3c aec5 41bc
00000220: 681d 083d 829b 6c3c 2cd2 9b3a 6af5 e93c
00000230: ebad b7bc c056 bd3b 8150 54bc 1fef 6b3a
00000240: 88e0 f0ba 5c2a 9e3c c748 ab3c a964 1c3a
00000250: 646f b2bb 0596 c5bc cba4 70bb 5324 21bc
00000260: 20b6 9a3c abfe 863c 64ae 403b 41d1 03bc
00000270: 0b8b 75bc c45a c6bb 0c71 af3a d453 b8b9
00000280: 6559 e2bb 417a 053c bb02 bcbb 91c4 24bb
00000290: 3c21 22bc 7a9b 1b3c 8d98 2cbc bb88 ca3b
000002a0: b246 ae3c 9248 57ba 28f4 01bc 3b7d bbba
000002b0: 0fc2 57bc a770 253c 6b43 203a b958 51bc
000002c0: f119 2fbc cc33 aabb 8512 fa3a d7d7 1c3b
000002d0: 920d 25bc cec0 4e3b 0807 fa3a f7a0 20bc
000002e0: cba7 d0bb 35ac 95bb dfab ccba 491f e23b
000002f0: 7f18 183c 9e3c 2b3b c670 ecbb 30aa babb
00000300: 2618 4bbc 3927 3d3d acb4 253b ad0b 3dbd
00000310: 82a7 fc3c 3dc3 4b3c a1fa a9bb b48a 793c
00000320: 5718 083c ccc5 13bb ec52 8dbb b5be 9f3c
00000330: bdc2 e8bb 56a9 a83c d0e2 553c 54f0 313c
00000340: e006 b33a a84e 3abd 7a7a f2ba 7a6e b73c
00000350: 2803 18ba bfc1 7e3b 8dd2 8c3c 2eb9 2b3c
00000360: 274d d63c 3a9c 20bc b36b 333b 6ea7 5c3c
00000370: d112 4bba d85f bc3b 043b 35bb cda8 203c
00000380: d402 ed3b 8934 d43b 5873 813c 1eba c6bb
00000390: 4a55 10bb cf4e ffbb e2d1 d63c 0c47 b1bb
000003a0: 4dfa 8abc 3876 c5b9 b942 f93b 27e4 af3a
000003b0: 1dec 63bc eed0 80bb fc9e 05bd 871c 94bc
000003c0: 2347 153c e9e6 1d3c a838 393c 0e5a 363c
000003d0: c3d5 cabc 6499 2c3c fa94 99bc dabf 2eba
000003e0: 8b06 b63b 370a c53c d9f6 ad3a ca4b a7ba
000003f0: 5dd7 0ebb f60f 763c 1f57 803b 369c f0ba

Encoder.enc2.bias f4 [40]
-0.014370542 0.009962486 -0.027776232 -0.024911804 -0.043543898 0.0023586012 -0.004533603 0.0102332365
-0.03450871 -0.0013141923 -0.0375174 -0.00017732062 0.015693408 -0.005074047 0.0018871014 -0.0145816505
-0.010185467 0.030687872 0.012536037 0.012213115 -0.014971595 -0.048992455 -0.1908597 0.0006022495
-0.21600364 -0.012980155 -0.17088158 -0.15196839 0.009145479 -0.022090849 0.010511602 -0.03367061
-0.01734135 -0.24945436 0.000105763145 -0.030161107 -0.027283272 -0.22332314 -0.16652545 -0.0038414204
00000000: 6c72 6bbc b239 233c fb8a e3bc d713 ccbc
00000010: 165b 32bd c392 1a3b 9e8e 94bb 4ea9 273c
00000020: 0159 0dbd fa40 acba d8ab 19bd 24ef 39b9
00000030: 768f 803c 3144 a6bb 9e58 f73a e0e7 6ebc
00000040: f2e0 26bc 2265 fb3c f363 4d3c 8419 483c
00000050: 6c4b 75bc 50ac 48bd ba70 43be 48e0 1d3a
00000060: 0f30 5dbe b7aa 54bc 95fb 2ebe 9a9d 1bbe
00000070: ebd6 153c def7 b4bc db38 2c3c 32ea 09bd
00000080: 720f 8ebc f770 7fbe 28cd dd38 6d14 f7bc
00000090: 2b81 dfbc d2ae 64be a685 2abe 57c0 7bbb

Decoder.dec1.weight f4 [256, 20]
0.01121068 0.0057362216 0.107197225 0.005876614 -0.10950772 0.011740742 0.012238596 0.15224834
0.011447668 -0.0069493954 0.0011415139 -0.004346065 -0.0028050202 -0.08444005 -0.010305564 -0.0144656245
0.0036937553 0.12396731 -0.027617937 -0.0013097604 0.0004286839 0.0016137362 0.008516728 -0.008782637
0.043698054 0.013077271 0.11731513 0.15949497 0.00013105894 0.008322166 -0.0028238874 0.011551282
-0.0054696286 0.18150288 -0.0029556532 -0.0067993095 -0.0034433883 0.007651734 -0.040954683 0.008114297
-0.0052211876 -0.009443737 0.2138033 -0.0013031849 -0.13497882 -0.003865435 -0.042311255 0.037837297
-0.0016305805 -0.003371923 -0.010946549 0.00038158937 0.004186083 0.06995824 -0.0010186123 0.006337799
0.007177215 -0.05803434 0.00015559973 -0.0065735243 -0.0105474405 0.0001263998 -0.11094672 0.00701538
-0.19387257 -0.006469059 -0.04747446 -0.084385246 0.006370403 0.0005905646 -0.013363268 -0.0028451355
0.015661404 0.028907418 0.00511699 -0.0010846663 0.0012043623 -0.15704115 -0.015758943 -0.01147696
-0.0036057425 0.0031563595 -0.03158526 0.0072953235 0.15407677 -0.0102605745 -0.10731405 0.0110984985
-0.0003666778 0.0019976262 -0.001222604 -0.012251337 -0.0010230023 -0.023244616 -0.0048026736 -0.0048747836
0.0037898398 -0.015064007 -0.029568555 0.0031637994 0.0059334473 0.005210847 0.16256054 -0.0023220591
0.092655174 -0.0027086919 0.04701607 -0.057937965 -0.0013038554 0.0051687737 0.012954983 0.0031071755
-1.5268235e-05 -0.026138928 -0.009273897 0.012615484 -0.002021201 0.024841521 0.0125066005 -0.0052235513
0.005921063 0.0061968938 0.13890216 -0.00039602257 -0.17056227 0.0008091702 0.046848886 -0.0016727218
-0.0048924135 -0.012681803 0.0026586044 -0.00044325533 0.008589458 -0.14140524 0.0008562785 -0.003181495
0.0024132747 0.114464566 -0.0030461217 -0.009008272 -0.0014609053 0.014313111 -0.09504005 -0.0019394732
-0.14491473 -0.010925471 0.060796592 0.13947245 -0.005002975 1.6116227e-06 -0.010917831 -2.498637e-05
-0.007129144 0.068611816 -0.0017973327 0.0023734951 0.0070852 -0.07377928 0.0017284637 -0.013729052
-0.005286824 -0.0065991525 0.017915668 0.011007276 0.032203283 -0.007645513 0.056701243 0.17193557
0.005219238 0.002882773 -0.008201797 -0.010277666 -0.0029223685 -0.046721336 0.0024235367 -0.0071754586
-0.009100749 -0.031017171 0.0130668515 -0.00084658596 -0.004732521 0.002579995 0.029827742 -0.0017189829
0.091229714 -0.0013512486 -0.0052924505 -0.025253376 -0.005628052 -0.0052526826 0.006718097 0.0039518136
0.0070937527 -0.12612578 -0.0069993874 0.008595926 -0.0025533352 0.0021330456 -0.0028955964 -0.0015437041
0.004966948 0.008159477 0.028304026 -0.00505619 -0.18747231 0.0062043094 0.09698963 0.056859832
0.0005970981 0.0044012913 -0.0035503812 0.0001490768 -0.0026799096 0.065412804 -0.0012481326 0.009744233
0.0038510307 0.12966135 -0.013505509 -0.0067606773 -0.0011599787 0.0043648113 -0.065440305 0.0064124363
0.04825862 0.0070577273 -0.0719174 -0.061043087 -0.0048630745 0.0032223056 -0.0073115886 0.0043542627
-0.0010770732 0.06673929 0.0012586807 -0.00209993 0.0017747008 -0.08489691 0.014090055 0.0021892781
0.0003844762 -0.0012317462 -0.008560367 0.0027676788 -0.011463154 0.009204835 0.018382033 0.12680835
0.00076756295 -0.0021352533 -0.0028113525 0.015144629 0.0074708313 -0.0935414 0.007237993 -5.5211152e-05
00000000: 00ad 373c eaf6 bb3b 388a db3d 9c90 c03b
00000010: 9545 e0bd 3e5c 403c 6484 483c fde6 1b3e
00000020: 008f 3b3c c1b7 e3bb da9e 953a 7069 8ebb
00000030: 6ed4 37bb e8ee acbd abd8 28bc 3a01 6dbc
00000040: ee12 723b 93e2 fd3d 033f e2bc 44ac abba
00000050: fbc0 e039 0084 d33a bf89 0b3c 0de5 0fbc
00000060: bbfc 323d 0d42 563c ea42 f03d a652 233e
00000070: de6c 0939 b259 083c f810 39bb 9741 3d3c
00000080: 923a b3bb e4db 393e a2b3 41bb becc debb
00000090: 78aa 61bb 66bb fa3b 19c0 27bd d4f1 043c
000000a0: 7f16 abbb e7b9 1abc 41ef 5a3e a1cf aaba
000000b0: e337 0abe 3d53 7dbb 914e 2dbd 48fb 1a3d
000000c0: 34b9 d5ba 7bfb 5cbb 2759 33bc 0f10 c839
000000d0: 692b 893b 4446 8f3d f582 85ba 50ad cf3b
000000e0: d82e eb3b 6bb5 6dbd 7c28 2339 b866 d7bb
000000f0: 2ccf 2cbc 308a 0439 0938 e3bd 46e1 e53b
00000100: 8886 46be 66fa d3bb 9474 42bd 2cd2 acbd
00000110: d0be d03b 1fd0 1a3a 9cf1 5abc 7475 3abb
00000120: 584c 803c 40cf ec3c 6cac a73b 5d2b 8eba
00000130: b1db 9d3a 65cf 20be e618 81bc dc09 3cbc
00000140: 524e 6cbb edda 4e3b 8c5f 01bd 9c0d ef3b
00000150: 4dc6 1d3e f81b 28bc 78c7 dbbd 7ad6 353c
00000160: a93e c0b9 9bea 023b c83f a0ba d5b9 48bc
00000170: 4316 86ba 7e6b bebc bf5f 9dbb a6bc 9fbb
00000180: f65e 783b 06cf 76bc c139 f2bc bf57 4f3b
00000190: 5d6d c23b c1bf aa3b 4576 263e b02d 18bb
000001a0: ffc1 bd3d 4f84 31bb ec93 403d 5c50 6dbd
000001b0: 21e6 aaba d15e a93b 2341 543c c1a1 4b3b
000001c0: 4914 80b7 4e21 d6bc 8bf1 17bc 2db1 4e3c
000001d0: 2076 04bb 7280 cb3c 7ce8 4c3c 532a abbb
000001e0: 7a05 c23b 500f cb3b 5e3c 0e3e 40a1 cfb9
000001f0: e0a7 2ebe 7e1e 543a 9ee4 3f3d 3b3f dbba
00000200: 8a50 a0bb 56c7 4fbc fb3b 2e3b b964 e8b9
00000210: ccba 0c3c 89cc 10be e177 603a a180 50bb
00000220: 0828 1e3b 666c ea3d 71a1 47bb 6e97 13bc
00000230: d97b bfba 8a81 6a3c 5ca4 c2bd ec35 feba
00000240: 8764 14be bf00 33bc d905 793d ded1 0e3e
00000250: ffef a3bb ef4e d835 b4e0 32bc d299 d1b7
00000260: 989b e9bb 5a84 8c3d 7a94 ebba a48c 1b3b
00000270: f72a e83b 9719 97bd 9e8d e23a d1ef 60bc
00000280: 183d adbb b43d d8bb e1c3 923c dd57 343c
00000290: 97e7 033d 3687 fabb 903f 683d e10f 303e
000002a0: 2406 ab3b e8ec 3c3b d460 06bc a863 28bc
000002b0: 3585 3fbb df5e 3fbd 33d4 1e3b 1c20 ebbb
000002c0: 4f1b 15bc b917 febc 5916 563c 6ced 5dba
000002d0: 4313 9bbb 2215 293b 4f59 f43c 7f4f e1ba
000002e0: a5d6 ba3d 611c b1ba 4b6c adbb 2be0 cebc
000002f0: 866b b8bb b21e acbb 7b23 dc3b 377e 813b
00000300: b672 e83b 1e27 01be 1e5b e5bb edd5 0c3c
00000310: db55 27bb 91ca 0b3b 0cc4 3dbb 1d56 caba
00000320: c8c1 a23b 54af 053c d8dd e73c 65ae a5bb
00000330: bef8 3fbe 854d cb3b 80a2 c63d dbe5 683d
00000340: 9386 1c3a b538 903b 83ad 68bb 8051 1c39
00000350: 6ca1 2fbb 26f7 853d 6198 a3ba 47a6 1f3c
00000360: 9361 7c3b f2c5 043e 3646 5dbc ac88 ddbb
00000370: 6d0a 98ba b106 8f3b 9105 86bd 6a1f d23b
00000380: d5aa 453d 8244 e73b 6e49 93bd 5108 7abd
00000390: 6d5a 9fbb 512d 533b 0d96 efbb 34ae 8e3b
000003a0: 942c 8dba 9cae 883d 51fa a43a fb9e 09bb
000003b0: 149d e83a 6ede adbd f9d9 663c fe79 0f3b
000003c0: 8693 c939 8b72 a1ba c840 0cbc f261 353b
000003d0: f4cf 3bbc e0cf 163c eb95 963c 0cda 013e
000003e0: 4736 493a 9bef 0bbb ab3e 38bb 2e21 783c
000003f0: e0cd f43b a292 bfbd b02c ed3b 8692 67b8

Decoder.dec1.bias f4 [256]
-0.051069826 -0.11129794 -0.093377724 -0.09133138 0.007995912 -0.017161468 -0.085674584 -0.06826249
-0.033398595 0.041897226 -0.08292362 -0.0012580429 0.007943082 0.0077337613 -0.045199327 -0.20994414
0.038741358 0.0364813 -0.030137934 -0.00024890044 -0.081549086 -0.013529688 0.025435386 0.06142752
-0.017186696 0.0394719 -0.18312311 0.121184476 -0.16397835 -0.33231604 -0.022685166 -0.0021054042
-0.0352026 -0.00094255427 -0.25554684 -0.01895775 -0.025579264 -0.012649097 -0.09973146 -0.175658
0.032294445 0.002853268 0.022353228 -0.01943524 -0.09004202 -0.03485431 -0.097373486 -0.6428244
-0.047799986 0.028894426 -0.36355388 -0.20781139 0.096291944 -0.075680405 0.0790339 -0.028609494
-0.10431789 0.104899764 0.007983526 -1.009275 -0.06353441 -0.03171224 -0.061770864 -0.35840124
0.01168852 -0.15982114 0.03823019 -0.037703447 -0.053084224 0.01680272 -0.01936099 0.045880083
-0.15076014 -0.053894874 -0.0780695 0.032809142 -0.00040060142 -0.032565385 -0.1820111 -0.039236836
-0.15160155 -0.34827283 0.008637429 0.0015942553 -0.121185295 -0.076633096 -0.012065447 -0.052350327
-0.047515552 -0.31164345 0.020628633 0.077634215 0.07230583 0.052309297 -0.024232466 -0.059129413
-0.19227736 0.06386984 0.0007783951 0.10293753 -0.11253526 -0.17793378 -0.105279 -0.084568426
0.0974035 -0.1501443 -0.4191737 -0.07582362 -0.2294602 -0.31278595 0.052696418 -0.1517948
-0.0018283398 0.01889829 -0.12803034 -0.06811842 -0.21984272 0.0695116 -0.19525878 -0.04303187
-0.041840818 0.04620275 -0.2431727 -0.15920936 -0.08828553 0.08017794 -0.26572853 0.04780748
-0.039068308 -0.0070733353 0.099379316 0.0063759685 -0.27924567 -0.05194961 -0.029824425 -0.051881313
-0.019767689 -0.12635744 -0.025511552 -0.10094276 -0.16294904 0.0115563115 0.0342378 0.0019541539
0.015913168 -0.076341465 -0.105505854 -0.08557571 -0.14721538 -0.12823074 0.010135093 0.10114724
-0.056939606 -0.031262156 -0.01390034 -0.032097846 0.039654296 -0.05822809 0.094319165 -0.11691925
-0.021908289 -0.05456041 0.10600484 0.0145079605 -0.041136198 -0.19353245 0.0029294223 0.010891285
-0.26749733 -0.026053065 0.008445619 0.0139215235 -0.076805055 -0.122205585 0.06109427 -0.017668834
0.010475307 -0.060180176 -0.29126215 -0.02046643 0.033970706 -0.07433254 -0.15860483 0.021500692
0.045024484 -0.008971308 -0.053953383 -0.119421124 -0.0018090626 -0.04238172 0.015208565 0.04265896
0.03802964 -0.00913997 -0.029259052 -0.06437787 -0.030751439 -0.023836195 -0.028981933 -0.1990959
-0.21364468 0.028521309 -0.17473815 -0.06141886 -0.067163385 -0.33668637 -0.08202808 0.05080679
-0.16102654 0.0036718433 -0.035890266 -0.057596732 -0.2401126 0.0010737353 -0.017925639 -0.061409626
-0.10849621 0.010208104 0.029728323 -0.20955768 0.003943306 -0.023752654 -0.23238122 -0.047188636
0.030864777 -0.07221241 -0.08588626 -0.09109031 0.014795523 -0.13111156 0.024353465 -0.06768505
-0.035350807 -0.035280194 0.018341964 -0.13635378 0.034742244 -0.09008884 -0.08769188 0.008519077
-0.105334304 0.06893651 -0.10079778 -0.9050066 -0.07849895 0.054149114 -0.24001703 -0.0860466
-0.3076077 -0.36622325 -0.02671066 -0.08021313 -0.26849875 -0.13383606 -0.019577054 -0.023477875
00000000: 982e 51bd 2df0 e3bd d23c bfbd f20b bbbd
00000010: 4901 033c 3596 8cbc 2876 afbd 34cd 8bbd
00000020: f7cc 08bd 6d9c 2b3d dcd3 a9bd eae4 a4ba
00000030: b323 023c 7e6b fd3b ee22 39bd 99fb 56be
00000040: 42af 1e3d 6a6d 153d d4e3 f6bc da7e 82b9
00000050: 3503 a7bd a0ab 5dbc df5d d03c 6c9b 7b3d
00000060: 1dcb 8cbc 49ad 213d a084 3bbe 912f f83d
00000070: f1e9 27be 5425 aabe 3ed6 b9bc d2fa 09bb
00000080: 9a30 10bd bf15 77ba 09d7 82be 494d 9bbc
00000090: 9b8b d1bc 283e 4fbc 0240 ccbd b1df 33be
000000a0: 2e47 043d e5fd 3a3b 1e1e b73c a736 9fbc
000000b0: f367 b8bd 65c3 0ebd c06b c7bd 2490 24bf
000000c0: ebc9 43bd 01b4 ec3c bc23 babe 82cc 54be
000000d0: b634 c53d 54fe 9abd 86dc a13d 755e eabc
000000e0: 9ea4 d5bd b0d5 d63d 56cd 023c ec2f 81bf
000000f0: 541e 82bd b2e4 01bd 7203 7dbd 5e80 b7be
00000100: 3581 3f3c 27a8 23be 4297 1c3d ee6e 1abd
00000110: d86e 59bd dca5 893c f09a 9ebc c1ec 3b3d
00000120: de60 1abe dfc0 5cbd e7e2 9fbd e162 063d
00000130: d007 d2b9 4863 05bd 1e61 3abe ceb6 20bd
00000140: 703d 1bbe d150 b2be 0184 0d3c 55f6 d03a
00000150: ff2f f8bd d0f1 9cbd 27ae 45bc 4c6d 56bd
00000160: ab9f 42bd bb8f 9fbe 61fd a83c b0fe 9e3d
00000170: 1415 943d 4642 563d 2a83 c6bc af31 72bd
00000180: 5be4 44be 31ce 823d 360d 4c3a e9d0 d23d
00000190: e378 e6bd 4634 36be 849c d7bd 3632 adbd
000001a0: 7c7b c73d 6dbf 19be ef9d d6be 6a49 9bbd
000001b0: 9df7 6abe 7b25 a0be 33d8 573d 1970 1bbe
000001c0: e7a4 efba 96d0 9a3c 631a 03be ac81 8bbd
000001d0: 731e 61be 195c 8e3d ebf1 47be 3042 30bd
000001e0: 4761 2bbd 183f 3d3d 4402 79be c707 23be
000001f0: 0bcf b4bd 5534 a43d 920d 88be c7d1 433d
00000200: 1706 20bd 70c7 e7bb 6287 cb3d 80ed d03b
00000210: 4af9 8ebe 1dc9 54bd 5a52 f4bc 8081 54bd
00000220: d9ef a1bc d863 01be 9afd d0bc 14bb cebd
00000230: 1ddc 26be af56 3d3c ef3c 0c3d 4311 003b
00000240: 555c 823c ea58 9cbd 7413 d8bd 5142 afbd
00000250: a1bf 16be eb4e 03be a90d 263c 4926 cf3d
00000260: 8139 69bd bf0c 00bd 40be 63bc 0879 03bd
00000270: 8b6c 223d 9480 6ebd 682a c13d 5c73 efbd
00000280: 0379 b3bc bd7a 5fbd 1119 d93d ccb2 6d3c
00000290: 6e7e 28bd 5f2d 46be 8dfb 3f3b 5c71 323c
000002a0: 69f5 88be 3d6d d5bc 7e5f 0a3c 1a17 643c
000002b0: f84b 9dbd ec46 fabd fc3d 7a3d 3bbe 90bc
000002c0: 9fa0 2b3c 7d7f 76bd 5020 95be 37a9 a7bc
000002d0: de24 0b3d a93b 98bd 4e69 22be 3822 b03c
000002e0: 986b 383d 65fc 12bc 39fe 5cbd 1093 f4bd
000002f0: 111e edba 7498 2dbd 582d 793c 29bb 2e3d
00000300: f8c4 1b3d d0bf 15bc aeb0 efbc 8bd8 83bd
00000310: 71ea fbbc 2044 c3bc 856b edbc ccdf 4bbe
00000320: acc5 5abe 85a5 e93c 8fee 32be 5892 7bbd
00000330: f58c 89bd 2862 acbe 57fe a7bd c81a 503d
00000340: 24e4 24be 4fa3 703b ac01 13bd 8dea 6bbd
00000350: 14e0 75be 94bc 8c3a cad8 92bc a988 7bbd
00000360: 4333 debd e43f 273c d088 f33c 4a96 56be
00000370: d936 813b ed94 c2bc 58f5 6dbe df48 41bd
00000380: 21d8 fc3c 1ae4 93bd 23e5 afbd 8e8d babd
00000390: ec68 723c 1c42 06be eb80 c73c 769e 8abd
000003a0: 02cc 10bd f781 10bd e341 963c 53a0 0bbe
000003b0: e24d 0e3d 7f80 b8bd cd97 b3bd 9993 0b3c
000003c0: 83b9 d7bd 962e 8d3d 116f cebd 83ae 67bf
000003d0: 0fc4 a0bd 76cb 5d3d 06c7 75be 3339 b0bd
000003e0: c27e 9dbe 9d81 bbbe 50d0 dabc c846 a4bd
000003f0: ab78 89be 520c 09be 0f60 a0bc ac54 c0bc

Decoder.dec2.weight f4 [31, 256]
0.12270712 0.33856294 -0.06708132 -0.021464337 -1.3792709 0.17553194 0.18767187 0.2394721
0.14277534 -0.7898 0.4091962 0.12929039 -0.02839489 0.22931466 0.36442578 -0.10974563
-0.10056529 0.20333143 0.095508456 -0.19299507 -0.10594022 -0.011684051 -0.00092463836 0.15979874
-0.83688104 -0.04709192 -0.26875407 0.027760133 0.102295056 0.015717285 0.098664716 -0.0049607307
0.23701425 -0.5874741 0.33849517 -0.28668308 0.06893672 -0.1879218 -0.657291 -0.41169944
0.23990445 -0.144454 -0.12715422 -0.2461945 -0.12605932 0.06666342 -0.6870704 -1.0823003
0.40555307 -0.5634253 0.2211079 -0.05480891 0.1083479 0.2804626 0.12695716 -0.11507099
-0.24129444 -0.068261735 -0.07663473 -2.0364532 0.08199003 -0.2011581 -0.45735675 -0.120867684
-0.4858454 0.086317755 0.2820976 0.41609663 0.105251215 -0.36622065 -0.065205656 -0.20038919
0.7047512 0.16411354 -0.37020397 -0.46348447 0.041572846 -0.0710512 0.56218594 0.14845547
0.41892815 -0.003661905 0.1166342 -0.1410154 0.119694114 0.3448091 0.3968756 -0.017430164
-0.42378896 0.19102989 0.015134563 0.022482604 0.03378139 0.35371637 0.025319064 0.2284344
-0.15872923 -0.05144962 -0.20809901 0.06382169 0.47444928 0.07213725 -0.21254782 0.09770928
0.037708815 0.2574204 -0.54630476 0.09190241 -0.03770294 0.27545312 0.03720044 -0.26134625
-0.23847696 -0.076424494 0.13016397 0.2667999 0.23219776 -0.022582956 0.200938 -0.3026443
0.15653494 -0.11091628 -0.078837916 0.14254534 0.65175647 -0.4305074 -0.038143784 -0.08384381
0.12357694 -0.13989419 -0.08393976 0.17320627 0.099090196 -0.28261694 0.06868288 0.061583553
0.06895635 -0.1352833 0.08917333 0.6523561 0.037784733 -0.21635799 -1.0309258 0.055071555
0.087314785 -0.48914364 -0.21474887 0.25880423 -0.17314772 -0.45793316 0.10682718 0.08063086
0.6911983 -0.22660701 -0.32727894 -0.04616028 -0.12064647 0.07594951 0.13331139 0.21462548
-0.7222834 -0.027405646 -0.035507593 0.09137776 0.0018156643 0.38274625 0.0072441455 -0.024131397
-0.2076988 0.050339125 -0.015419333 -0.25204432 0.10325073 0.18923661 0.36106294 0.3765742
0.13098747 -1.0053993 0.10257759 0.07723727 -0.14051208 -0.18301462 -0.39259714 -0.5068608
0.02502999 -0.12285881 -0.49206612 0.401147 -0.08151007 0.12108041 0.005519723 0.17318842
-0.06767496 0.2117538 -0.11021129 -0.06686388 0.26835254 -0.0036961914 -0.42402992 0.07796552
-0.26359624 -0.38767716 0.09146902 -0.9088973 -0.13335621 0.17208344 -0.35056734 -0.102784
-0.15672152 -0.07809682 -0.28216645 0.083163805 -0.13375369 0.30158442 0.29840285 0.109845236
0.003459548 -0.34695363 -0.21593285 -0.044924755 0.19670933 0.23815952 -0.1257459 -0.20097147
0.04935067 0.18908645 0.026825592 -0.16388772 0.33306122 -0.068126075 -0.04713717 0.07707593
-0.09441186 0.042978078 -0.4368653 0.75668997 0.5700275 -0.04584855 -0.6422698 -0.22113004
0.06425235 -0.40796238 0.20226511 -1.6976843 -0.14067732 0.36558068 -0.10624822 0.4350347
0.05839254 -0.30098745 -0.43088272 -0.36444816 -0.04084838 0.10094771 0.4280224 -0.28795156
00000000: df4d fb3d 1f58 ad3e ee61 89bd fad5 afbc
00000010: f38b b0bf a5be 333e 0e2d 403e 2d38 753e
00000020: b333 123e 5530 4abf 2a82 d13e b364 043e
00000030: 669c e8bc 76d1 6a3e 0496 ba3e 51c2 e0bd
00000040: 2df5 cdbd 1d36 503e f099 c33d 80a0 45be
00000050: 30f7 d8bd 766e 3fbc 6e63 72ba 48a2 233e
00000060: d63d 56bf 75e3 40bd 229a 89be 3869 e33c
00000070: 1280 d13d 89c1 803c ba10 ca3d a08d a2bb
00000080: ddb3 723e b464 16bf 3d4f ad3e 20c8 92be
00000090: b22e 8d3d 936e 40be 3944 28bf 45ca d2be
000000a0: 83a9 753e c0eb 13be b734 02be 691a 7cbe
000000b0: b215 01be d586 883d d9e3 2fbf d188 8abf
000000c0: a7a4 cf3e a43c 10bf 1c6a 623e 4f7f 60bd
000000d0: 81e5 dd3d cb98 8f3e 0f01 023e 57aa ebbd
000000e0: e415 77be cfcc 8bbd abf2 9cbd 4055 02c0
000000f0: 64ea a73d 64fc 4dbe aa2a eabe 7a89 f7bd
00000100: bac0 f8be 5dc7 b03d 196f 903e 9e0a d53e
00000110: f38d d73d 4681 bbbe 8b8a 85bd d332 4dbe
00000120: 936a 343f 610d 283e 608b bdbe d64d edbe
00000130: 4a48 2a3d 4b83 91bd 6beb 0f3f b604 183e
00000140: c07d d63e 92fc 6fbb e9dd ee3d 5766 10be
00000150: 3022 f53d d18a b03e 4733 cb3e b4c9 8ebc
00000160: defa d8be 579d 433e f5f6 773c 702d b83c
00000170: 5b5e 0a3d 501a b53e ed69 cf3c b5ea 693e
00000180: ea89 22be d6bc 52bd e817 55be f2b4 823d
00000190: 04eb f23e b2bc 933d 23a6 59be ce1b c83d
000001a0: 8f74 1a3d 9bcc 833e a1da 0bbf 5537 bc3d
000001b0: 666e 1abd 3108 8d3e 7d5f 183d 2dcf 85be
000001c0: 4e33 74be 7284 9cbd b449 053e ff99 883e
000001d0: 40c5 6d3e e4ff b8bc b1c2 4d3e 32f4 9abe
000001e0: b24a 203e 1328 e3bd c675 a1bd 68f7 113e
000001f0: 83d9 263f 776b dcbe a83c 1cbd 4eb6 abbd
00000200: e815 fd3d 6c40 0fbe 9ce8 abbd fc5c 313e
00000210: cdef ca3d 2bb3 90be 9ca9 8c3d 093f 7c3d
00000220: fd38 8d3d b587 0abe 82a0 b63d cf00 273f
00000230: 2ac4 1a3d f38c 5dbe 60f5 83bf b692 613d
00000240: 18d2 b23d 0971 fabe 21e7 5bbe fd81 843e
00000250: a34d 31be 3776 eabe 35c8 da3d cb21 a53d
00000260: 5ff2 303f ab0b 68be 1b91 a7be 9012 3dbd
00000270: 7f15 f7bd 6b8b 9b3d c882 083e c8c6 5b3e
00000280: 91e7 38bf ce81 e0bc 6970 11bd 4324 bb3d
00000290: 96fb ed3a 51f7 c33e 4c60 ed3b 35af c5bc
000002a0: ffae 54be 6630 4e3d 5fa1 7cbc f40b 81be
000002b0: 1e75 d33d 3ec7 413e 3edd b83e 55ce c03e
000002c0: 9421 063e edb0 80bf 3314 d23d 932e 9e3d
000002d0: 66e2 0fbe 2f68 3bbe 7e02 c9be a1c1 01bf
000002e0: b20b cd3c 669d fbbd 17f0 fbbe 2463 cd3e
000002f0: c0ee a6bd 02f9 f73d cbde b43b 4e58 313e
00000300: 2b99 8abd fdd5 583e 75b6 e1bd eeef 88bd
00000310: 8165 893e cd3b 72bb 731a d9be 63ac 9f3d
00000320: 16f6 86be 9f7d c6be 1c54 bb3d 7ead 68bf
00000330: 888e 08be a436 303e 907d b3be 6b80 d2bd
00000340: 9b7b 20be 3af1 9fbd 1f78 90be c951 aa3d
00000350: baf6 08be 4669 9a3e 42c8 983e 8af6 e03d
00000360: 96b9 623b e8a3 b1be 801d 5dbe 0503 38bd
00000370: 2c6e 493e 17e0 733e 89c3 00be 77cb 4dbe
00000380: ee23 4a3d e19f 413e 58c1 db3c 2fd2 27be
00000390: 0087 aa3e af85 8bbd e812 41bd fcd9 9d3d
000003a0: 015b c1bd c809 303d cfac dfbe 6fb6 413f
000003b0: 52ed 113f b0cb 3bbd cb6b 24bf ea6f 62be
000003c0: bc96 833d 72e0 d0be 961e 4f3e b84d d9bf
000003d0: b70d 10be 642d bb3e ab98 d9bd debc de3e
000003e0: 042d 6f3d 071b 9abe a99c dcbe f398 babe
000003f0: a250 27bd acbd ce3d c125 db3e 636e 93be

Decoder.dec2.bias f4 [31]
0.032784615 0.47780752 1.5408738 -0.02746339 1.379136 0.27946118 -1.4732544 0.21900487
0.03939761 0.052757945 1.188542 0.30938086 1.0296824 -0.8295879 1.1649016 -1.2502685
-0.051730398 1.6552875 -0.08623585 -0.70436156 -0.09684619 -0.6296328 -0.90982985 -0.094288595
0.024978736 1.9761927 0.06874348 2.282258 0.08034879 1.8111786 -1.175997
00000000: 2949 063d 30a3 f43e 5a3b c53f e7fa e0bc
00000010: 8787 b03f 8915 8f3e 9a93 bcbf d042 603e
00000020: 635f 213d b718 583d 2522 983f 2b67 9e3e
00000030: a2cc 833f df5f 54bf 7f1b 953f cc08 a0bf
00000040: 41e3 53bd 76e0 d33f 6c9c b0bd 0a51 34bf
00000050: 4c57 c6bd 9d2f 21bf 9cea 68bf 611a c1bd
00000060: 35a0 cc3c e2f3 fc3f 62c9 8c3d 8410 1240
00000070: e88d a43d b3d4 e73f 1287 96bf
