results/7_iid/model_alone_n_1_m_2.pt (torch, 121552 bytes, 8 tensors)

Encoder.enc1.weight f4 [256, 22]
0.20549124 -0.13157962 0.18957084 -0.10028191 0.0376524 0.12227156 -0.096592896 0.20410757
0.016081251 -0.17285272 -0.21192776 0.21146876 -0.05504904 -0.123927616 -0.024080064 0.1590095
0.091030836 0.008659599 0.036410864 0.04375828 -0.16270123 -0.12183075 -0.09505899 -0.0730214
0.16636364 -0.044486873 -0.12323265 0.060406335 -0.09651911 0.026399702 0.1720925 -0.02874068
-0.024391018 -0.05683835 0.10511925 0.0051113516 0.029395895 -0.029979266 -0.09199612 -0.15452851
-0.04910714 -0.16507094 0.1916936 0.18587933 -0.159123 0.06583511 -0.022403933 9.6190204e-05
-0.13935776 -0.23584671 0.07274764 -0.1128224 0.18962106 -0.13515359 0.07940133 0.18492386
0.0066643017 -0.03603197 0.029506642 0.03983119 0.059454028 -0.0741251 0.12564805 -0.14712027
0.15609518 0.14873326 0.1193891 0.10736778 -0.075821 0.09261332 0.11030216 0.044391036
-0.1604592 -0.194051 -0.11783598 -0.18551795 -0.08941784 -0.13327524 -0.089494266 -0.1743316
0.016967822 -0.13419951 0.157363 0.035758927 0.029689083 -0.16108781 -0.019487923 -0.08028273
0.13955963 -0.115528576 0.0911866 -0.15023844 -0.030295197 -0.122627616 -0.12690087 -0.1529813
-0.08541139 0.15909468 0.2285805 0.15103619 0.06650916 -0.11109221 -0.11571487 0.17414504
-0.1399707 0.119228385 -0.015250859 -0.16236211 -0.05992442 -0.12343671 0.0027762088 -0.070454165
0.10425276 -0.027131345 0.020035144 0.23616752 -0.15298674 -0.15293562 -0.12721246 -0.051187832
-0.01983868 -0.152601 0.03570125 -0.0810658 -0.02526444 0.064449504 0.09310587 0.1303655
-0.16664319 -0.07745077 0.11184463 -0.0336358 -0.058610473 -0.12275351 -0.0010765666 0.05475177
0.1493416 -0.14875552 -0.036944788 -0.027779361 -0.02265115 -0.14803697 0.1453891 -0.05962045
0.122711524 -0.007503925 0.18110742 0.019983223 -0.0984244 -0.10203058 0.07702318 0.062194098
-0.033741057 -0.08243988 0.17384438 0.1450793 0.0127700195 0.1455879 0.041792914 0.11072983
0.068191126 -0.17639747 -0.11234796 0.021324733 -0.014417319 -0.21149236 0.13608082 -0.13831075
0.06598228 -0.16630635 -0.10076129 -0.08650301 0.16879252 0.18511398 0.09910387 -0.22029038
0.006702369 0.13248527 -0.10739198 -0.09629321 -0.1323271 -0.07624483 -0.15126768 -0.048265025
0.0708441 0.0059771356 0.16020858 0.049980313 -0.11283461 0.15403092 -0.013786009 0.079760216
0.10748492 0.013083503 0.040324777 0.14824632 0.046435434 0.12138698 0.013402802 0.089846194
-0.14053525 0.116000175 -0.12640806 -0.06436573 0.1484655 0.14509405 -0.13401559 0.00059173163
-0.05031069 -0.1485407 0.097769834 -0.004086369 0.007222987 0.20721239 -0.097412236 0.1459693
-0.122905426 -0.07242132 -0.17103882 0.09260874 -0.006523663 -0.020322321 0.007371434 -0.17111552
-0.20894639 0.19383718 0.03946405 0.10266037 -0.14550772 0.14815737 0.13218749 -0.022682386
-0.04104802 0.088615015 0.11623993 -0.05757531 -0.15578829 -0.11995956 -0.048444487 -0.10238094
0.043937217 0.117763765 0.068398856 0.1383757 0.18926595 0.13307713 -0.17143005 0.055737358
0.0044364347 -0.11037396 -0.15704404 0.18443398 0.10688683 -0.22375953 -0.108542226 -0.15628585
00000000: 4c6c 523e cfbc 06be dc1e 423e 9a60 cdbd
00000010: 6739 1a3d 8369 fa3d 7fd2 c5bd 9301 513e
00000020: d4bc 833c 4e00 31be 9703 59be 448b 583e
00000030: 1a7b 61bd c3cd fdbd 8e43 c5bc 63d3 223e
00000040: 606e ba3d fee0 0d3c 8f23 153d e23b 333d
00000050: 279b 26be 6682 f9bd 4aae c2bd 3e8c 95bd
00000060: 3b5b 2a3e de37 36bd 6661 fcbd a26c 773d
00000070: d0ab c5bd 3044 d83c 0439 303e 9371 ebbc
00000080: accf c7bc 54cf 68bd c348 d73d 207d a73b
00000090: a9cf f03c 1497 f5bc 7668 bcbd b93c 1ebe
000000a0: 9224 49bd 5b08 29be 544b 443e 2757 3e3e
000000b0: 24f1 22be 8fd4 863d 7488 b7bc b9b9 c938
000000c0: cdb3 0ebe cd81 71be b7fc 943d 6e0f e7bd
000000d0: 062c 423e b465 0abe 2a9d a23d ae5c 3d3e
000000e0: 3760 da3b 4296 13bd eab7 f13c 0826 233d
000000f0: 1186 733d e7ce 97bd e2a9 003e b2a6 16be
00000100: 6ad7 1f3e 884d 183e 4682 f43d a3e3 db3d
00000110: 0a48 9bbd 0dac bd3d 19e6 e13d 60d3 353d
00000120: 6b4f 24be 4eb5 46be fe53 f1bd 6bf8 3dbe
00000130: b320 b7bd 4e79 08be c548 b7bd fc83 32be
00000140: 1a00 8b3c 996b 09be c423 213e f477 123d
00000150: 8536 f33c 34f4 24be 23a5 9fbc 466b a4bd
00000160: b8e8 0e3e 3f9a ecbd 0ac0 ba3d 1bd8 19be
00000170: a22d f8bc 3024 fbbd 4df2 01be 21a7 1cbe
00000180: 2bec aebd b7e9 223e 0211 6a3e 3ba9 1a3e
00000190: f435 883d 5084 e3bd ebfb ecbd 1453 323e
000001a0: 7b54 0fbe 032e f43d bdde 79bc 4142 26be
000001b0: 4f73 75bd 63cc fcbd 0ef1 353b 464a 90bd
000001c0: 7982 d53d 8e42 debc be20 a43c e6d5 713e
000001d0: 8ea8 1cbe 289b 1cbe fc43 02be 55aa 51bd
000001e0: ba84 a2bc 7043 1cbe 793b 123d d305 a6bd
000001f0: 5ff7 cebc 1afe 833d 4aae be3d 897e 053e
00000200: 83a4 2abe 829e 9ebd cc0e e53d b1c5 09bd
00000210: 8911 70bd 3166 fbbd 951b 8dba 6443 603d
00000220: 01ed 183e 5e53 18be 6b53 17bd 8b91 e3bc
00000230: e88e b9bc 0197 17be e1e0 143e 9334 74bd
00000240: 2e50 fb3d 7ce3 f5bb 3974 393e dbb3 a33c
00000250: bb92 c9bd 69f5 d0bd 54be 9d3d 3dbf 7e3d
00000260: 1034 0abd 3dd6 a8bd 4304 323e ab8f 143e
00000270: 5839 513c ff14 153e 0c2f 2b3d 52c6 e23d
00000280: caa7 8b3d 8aa1 34be b016 e6bd 35b1 ae3c
00000290: 9e36 6cbc 7491 58be c558 0b3e 55a1 0dbe
000002a0: b821 873d 364c 2abe ef5b cebd 7d28 b1bd
000002b0: f2d7 2c3e 858e 3d3e f8f6 ca3d cd93 61be
000002c0: 8c9f db3b 38aa 073e 54f0 dbbd 6035 c5bd
000002d0: c180 07be 4026 9cbd eae5 1abe 8cb1 45bd
000002e0: b616 913d d9db c33b b80d 243e 28b8 4c3d
000002f0: d515 e7bd 48ba 1d3e b6de 61bc 5359 a33d
00000300: 0e21 dc3d 305c 563c 982b 253d e2cd 173e
00000310: 1533 3e3d bd99 f83d 6d97 5b3c 4801 b83d
00000320: 79e8 0fbe 8091 ed3d 1d71 01be 2ed2 83bd
00000330: 5707 183e 8993 143e 623b 09be 701e 1b3a
00000340: 9512 4ebd 0e1b 18be 8d3b c83d f3e6 85bb
00000350: ceae ec3b 7c2f 543e 1180 c7bd fa78 153e
00000360: d7b5 fbbd a151 94bd cd24 2fbe a7a9 bd3d
00000370: 74c4 d5bb ff7a a6bc 128c f13b e838 2fbe
00000380: 0bf6 55be 417d 463e 0ea5 213d 9a3f d23d
00000390: faff 14be 91b6 173e 285c 073e 69d0 b9bc
000003a0: f821 28bd ca7b b53d 330f ee3d 17d4 6bbd
000003b0: f786 1fbe 5cad f5bd ba6d 46bd 19ad d1bd
000003c0: 83f7 333d 212e f13d b314 8c3d 5cb2 0d3e
000003d0: efce 413e 5f45 083e 5c8b 2fbe db4c 643d
000003e0: 835f 913b be0b e2bd 27d0 20be 43dc 3c3e
000003f0: 7be7 da3d 3821 65be 634b debd 6609 20be

Encoder.enc1.bias f4 [256]
0.11230236 0.0830579 -0.05708554 0.16855904 0.0307923 0.119388655 -0.098167874 -0.074050955
0.111373484 0.05000463 -0.17839135 -0.19600737 0.009252846 -0.015389923 0.07546412 -0.09228099
-0.10299208 -0.1282205 -0.12937583 0.08014203 0.2094795 -0.07590736 0.064773954 -0.0035440265
0.05203597 0.09758325 0.09940581 0.17303763 -0.11970277 -0.12133772 0.12841775 0.1707408
-0.0005371011 -0.044562567 0.09243391 -0.15384859 -0.014226727 0.03586626 0.06302304 0.18737611
0.032241173 0.14534773 0.15721613 0.025494495 0.013136963 -0.22801389 -0.039307136 -0.21186616
-0.21634074 0.14459193 -0.15861039 0.09257167 0.19272459 0.010653354 0.07336213 -0.057376206
0.16600646 -0.15619959 0.12605295 -0.082677856 -0.08559794 -0.033622287 -0.042686462 -0.04456783
0.12455973 -0.10303144 -0.07189228 -0.0026403363 -0.19171317 0.09439522 -0.14004275 -0.22715357
0.03198021 0.21878166 -0.06447517 0.06910393 -0.10823241 0.114998594 -0.0614436 -0.13427043
0.12164079 -0.008507522 -0.03760846 -0.108544715 0.11326469 0.105084956 -0.19682242 -0.11197469
0.09338801 -0.17954382 0.010473515 0.18971044 -0.13254158 0.08029959 0.037131757 -0.11730799
0.06995272 -0.14121746 0.14529605 0.08477098 0.17533067 -0.046916664 -0.23417994 -0.092579275
-0.020918712 0.035052907 -0.118865706 -0.007574673 -0.036147308 -0.20733972 0.038838558 -0.018866247
-0.24961238 -0.25861508 0.19016439 -0.08968803 0.05356965 -0.15323395 -0.1818052 0.18328167
-0.025610369 -0.10529988 -0.12141093 -0.09231036 -0.14087918 -0.23241006 0.19147992 -0.15300924
0.13386297 -0.03238079 0.124666706 0.056595527 0.0350506 0.055949792 0.12971435 0.21115799
-0.05138479 -0.070914336 0.1107428 -0.18006171 0.16754663 -0.058393396 0.023958042 0.036804583
-0.048018962 -0.12042083 0.15264013 0.0603368 0.20536655 0.04010347 -0.0026467973 -0.019369105
-0.13299376 -0.2302549 -0.22572382 0.007872561 -0.021603389 -0.19592471 0.18261221 -0.11468653
-0.089198016 0.0052125454 0.055919643 -0.13563694 0.07700072 -0.07771759 0.09443099 -0.14746808
-0.061242618 -0.17932604 0.07580493 -0.09364853 -0.091530606 0.016721757 -0.096040495 -0.0030163713
0.0073684044 -0.20203681 0.07892492 0.170439 -0.17721118 -0.2414755 -0.17282484 -0.1690006
0.15393834 -0.1687375 0.18835643 0.029289406 0.1333129 -0.23284099 0.10362093 0.04879447
0.009595334 -0.20673196 -0.06338155 -0.07806299 -0.055430006 0.10242318 0.019781495 0.1777546
0.059918933 -0.028598618 0.19291905 -0.1383842 -0.03737783 -0.12785818 -0.03764668 0.09493146
0.019757804 0.14656782 -0.20457019 -0.023030248 0.05952878 -0.12597021 -0.081512526 0.006670289
0.07059088 -0.035392597 -0.14467286 0.006483977 -0.18629678 -0.023584308 -0.16724199 0.15509544
-0.21728988 0.010307382 -0.018334024 -0.081403255 0.096380815 -0.20940003 0.20383555 -0.16134492
0.15985101 0.044921603 -0.1339231 -0.019044282 -0.1563043 0.12959033 0.097619765 0.03371233
-0.19794488 -0.06429711 0.0013543062 -0.04226963 0.10957344 0.036681 -0.114717014 -0.12869154
0.09200959 0.18405457 -0.047407698 -0.035986673 -0.20841877 -0.04080223 -0.12582187 0.17818162
00000000: c8fe e53d 431a aa3d 87d2 69bd be9a 2c3e
00000010: 2240 fc3c 0a82 f43d 3d0c c9bd 07a8 97bd
00000020: c817 e43d a8d1 4c3d 39ac 36be 28b6 48be
00000030: 4099 173c 0426 7cbc ef8c 9a3d d1fd bcbd
00000040: 83ed d2bd 3c4c 03be 197b 04be 8121 a43d
00000050: cb81 563e 5175 9bbd 35a8 843d e642 68bb
00000060: ab23 553d bad9 c73d 4695 cb3d c730 313e
00000070: ba26 f5bd e97f f8bd f17f 033e add6 2e3e
00000080: 3fcc 0cba 3d87 36bd fd4d bd3d 7c8a 1dbe
00000090: 3817 69bc 80e8 123d 3912 813d 86df 3f3e
000000a0: 520f 043d 09d6 143e 44fd 203e d5d9 d03c
000000b0: 6b3c 573c 797c 69be 8500 21bd 71f3 58be
000000c0: 6d88 5dbe e80f 143e c36a 22be 3796 bd3d
000000d0: 9859 453e 688b 2e3c e23e 963d 5003 6bbd
000000e0: 99fd 293e c9f2 1fbe 0614 013e 0253 a9bd
000000f0: f94d afbd 86b7 09bd 00d8 2ebd c28c 36bd
00000100: 2c19 ff3d 2602 d3bd 423c 93bd 7e09 2dbb
00000110: 7550 44be 4852 c13d 5e67 0fbe f29a 68be
00000120: aefd 023d 4d08 603e 8f0b 84bd 5c86 8d3d
00000130: f4a8 ddbd 6284 eb3d 49ac 7bbd 307e 09be
00000140: ce1e f93d 2263 0bbc 540b 1abd b14c debd
00000150: 51f7 e73d c836 d73d d18b 49be fc52 e5bd
00000160: 3742 bf3d 56da 37be 1b99 2b3c 7443 423e
00000170: fbb8 07be 1d74 a43d 7817 183d 2c3f f0bd
00000180: 5f43 8f3d 4f9b 10be 7dc8 143e 689c ad3d
00000190: e289 333e b02b 40bd decc 6fbe 349a bdbd
000001a0: b85d abbc a393 0f3d dd6f f3bd f634 f8bb
000001b0: 330f 14bd dd50 54be 2e15 1f3d 638d 9abc
000001c0: 639a 7fbe 3269 84be 74ba 423e 5cae b7bd
000001d0: d96b 5b3d 5ce9 1cbe 242b 3abe 31ae 3b3e
000001e0: d6cc d1bc 77a7 d7bd 4ba6 f8bd 370d bdbd
000001f0: a242 10be e7fc 6dbe 5013 443e 74ae 1cbe
00000200: 6013 093e b8a1 04bd 4251 ff3d b6d0 673d
00000210: 3891 0f3d 9c2b 653d d7d3 043e cd39 583e
00000220: dc78 52bd 893b 91bd 1fcd e23d 1962 38be
00000230: 5891 2b3e ea2d 6fbd a843 c43c 67c0 163d
00000240: 88af 44bd 329f f6bd b24d 1c3e b823 773d
00000250: 9c4b 523e 8943 243d e475 2dbb f5ab 9ebc
00000260: 842f 08be f1c7 6bbe 2524 67be eafb 003c
00000270: 97f9 b0bc 7da0 48be b2fe 3a3e c5e0 eabd
00000280: 73ad b6bd 00ce aa3b ff0b 653d 69e4 0abe
00000290: 8eb2 9d3d 662a 9fbd 0965 c13d df01 17be
000002a0: 8ad9 7abd 3fa1 37be 9d3f 9b3d cdca bfbd
000002b0: 6674 bbbd 11fc 883c e1b0 c4bd 50ae 45bb
000002c0: a872 f13b bde2 4ebe 63a3 a13d 9087 2e3e
000002d0: d976 35be 5a45 77be fff8 30be 7e0e 2dbe
000002e0: 03a2 1d3e 86c9 2cbe 82e0 403e 56f0 ef3c
000002f0: 2d83 083e de6d 6ebe 3637 d43d b6dc 473d
00000300: bf35 1d3c 8bb1 53be 30ce 81bd 7ddf 9fbd
00000310: 930a 63bd 3fc3 d13d cd0c a23c 4d05 363e
00000320: 8e6d 753d a647 eabc 928c 453e 96b4 0dbe
00000330: 7f19 19bd 41ed 02be 6833 1abd 6d6b c23d
00000340: 1edb a13c e015 163e d97a 51be eea9 bcbc
00000350: 73d4 733d 56fe 00be 0af0 a6bd 7192 da3b
00000360: f491 903d d4f7 10bd 1f25 14be 8b77 d43b
00000370: 95c4 3ebe e133 c1bc 7c41 2bbe 57d1 1e3e
00000380: 3d81 5ebe 4be0 283c 3c31 96bc c0b6 a6bd
00000390: 4e63 c53d f66c 56be 44ba 503e 9a37 25be
000003a0: fcaf 233e b7ff 373d 2323 09be c102 9cbc
000003b0: 3c0e 20be 54b3 043e dfec c73d f115 0a3d
000003c0: 10b2 4abe 34ae 83bd fa82 b13a eb22 2dbd
000003d0: 0a68 e03d d13e 163d c1f0 eabd b7c7 03be
000003e0: 866f bc3d cd78 3c3e 932e 42bd c366 13bd
000003f0: bb6b 55be 3d20 27bd 73d7 00be 3e75 363e

Encoder.enc2.weight f4 [40, 256]
0.037728213 -0.011905653 0.009047739 0.0024785881 0.023364926 0.0067751235 -0.027189096 -0.007715894
-0.002985344 0.010937531 -0.009332554 -0.013110442 -0.021928182 -0.026375253 0.04727956 0.02333013
-0.0025389662 -0.003571202 0.017001132 0.044359043 -0.0003810959 -0.0015366634 -0.00056786276 0.01385815
0.009758383 -0.0068873465 0.004366913 -0.012944082 -0.0022464301 -0.031233195 0.0070389304 0.019731374
0.016486231 -0.0064663105 0.008606596 -0.0059902025 0.030955259 0.023729023 0.03257422 -0.052277535
0.023918143 -4.4449203e-05 -0.015481194 0.023130061 -0.019519545 0.017192267 -0.016430402 0.007365224
0.013941931 -0.017036306 -0.0077141873 0.031474415 -0.040409733 0.030249072 0.02246103 -0.0001704584
-0.017260276 -0.020338697 0.008813111 -0.0011712533 -0.0013814734 0.023692498 0.023381948 -0.011304981
0.002197502 -0.020916693 -0.02143475 0.0070246295 -0.028781988 -0.014182867 -0.034006912 -0.0041423487
0.021738386 0.0064492757 0.017659914 0.041103568 0.024429055 0.0067502703 -0.0035084873 0.0075719645
-0.022621768 0.008102236 -0.024714686 0.015505424 0.020086665 -0.03248482 0.01226145 0.01720387
-0.008853126 0.020683894 0.019748494 -0.045373313 -0.041043382 -0.008115361 0.031409215 0.024166776
0.0068602692 -0.02654191 0.024919514 -0.010723925 -0.017967507 -0.02052856 0.00548554 -0.008502582
-0.005864404 0.01292344 -0.019038672 0.010245939 0.0077723144 -0.019486574 -0.019151961 0.020638432
-0.0012649655 0.002323085 0.0036519263 0.012157508 -0.036734752 0.0057477476 -0.014841276 -0.02834825
0.053670466 -0.00868425 0.003831544 -0.026975824 0.025674658 0.037678573 0.028091107 0.0077461186
-0.024785254 -0.03022887 -0.026426952 -0.011502419 0.0008139527 0.036445998 0.009236094 0.008997125
0.05697457 0.005741535 -0.0021373057 0.010688279 0.017427135 -0.02243618 -0.03989862 -0.026147343
-0.008810157 -0.03577943 -0.011875166 0.027798176 0.02698584 0.015017952 -0.01381997 -0.016275793
0.03347749 0.013665081 -0.008415464 -0.009521075 0.004106309 -0.012763508 0.00984239 0.01865556
0.019008119 0.010290315 0.01748812 -0.020777749 0.0057198275 0.000997656 0.0049102237 0.00087173085
-0.0074513783 0.012903032 -0.0006780477 0.010751699 -0.034476917 0.013767365 -0.019980617 -0.013698334
0.040015563 -0.012086452 0.0022305637 0.013587667 -0.01922693 0.008188057 -0.006891062 0.010736644
0.0023569695 -0.020671606 0.010332925 0.023949739 -0.022724476 -0.010268531 0.033814456 0.020524591
-0.04715655 -0.012783249 0.017672716 -0.026447052 0.018996501 -0.017920509 0.03092501 0.0047057667
0.013949201 -0.011022013 -0.036414 0.017745221 -0.009870611 -0.012636614 -0.014096491 0.019475248
0.0031387103 0.0049233628 0.013953758 -0.004481604 -0.042018272 0.022519935 0.02541581 0.031821404
-0.021260561 0.001740495 0.01905747 0.010315082 0.011632023 0.04672861 -0.019643458 -0.0014739023
-0.009824123 -0.030697005 -0.0037370042 -0.01495128 -0.009566456 0.015809558 0.012330257 -0.0073198928
0.025478628 0.008932603 -0.046274096 0.012174983 0.026501633 -0.0003404113 0.03074769 -0.020829631
-0.01762647 -0.024118058 -0.030334996 -0.018932605 0.030241566 0.013861424 -0.026927494 7.72399e-05
-0.013625154 -0.029905356 0.012629671 0.025491506 0.0016837596 -0.009686262 -0.0074624144 -0.014240311
00000000: e688 1a3d ee0f 43bc f83c 143c cf6f 223b
00000010: cd67 bf3c db01 de3b abbb debc 9cd5 fcbb
00000020: c3a5 43bb 5433 333c 92e7 18bc 2ecd 56bc
00000030: bba2 b3bc ea10 d8bc 36a8 413d d41e bf3c
00000040: c964 26bb d40a 6abb f545 8b3c d4b1 353d
00000050: d3cd c7b9 de69 c9ba a0dc 14ba 4b0d 633c
00000060: a0e1 1f3c 40af e1bb 5218 8f3b 6a13 54bc
00000070: d838 13bb c2dc ffbc d4a6 e63b b1a3 a13c
00000080: 220e 873c 58e3 d3bb ae02 0d3c 7649 c4bb
00000090: e295 fd3c 5e63 c23c 8c6c 053d f820 56bd
000000a0: fbef c33c f86e 3ab8 d5a4 7dbc 417b bd3c
000000b0: 74e7 9fbc ccd6 8c3c 0d99 86bc fa57 f13b
000000c0: b26c 643c b98f 8bbc 4bc7 fcbb 51eb 003d
000000d0: ad84 25bd e7cc f73c 3200 b83c 14bd 32b9
000000e0: 6c65 8dbc 579d a6bc de64 103c bd84 99ba
000000f0: 8e12 b5ba c516 c23c 808b bf3c 8738 39bc
00000100: f703 103b 7c59 abbc ee97 afbc dd2e e63b
00000110: 34c8 ebbc 415f 68bc d54a 0bbd 8abc 87bb
00000120: b314 b23c 7254 d33b 86ab 903c 375c 283d
00000130: 711f c83c 5f31 dd3b a6ee 65bb 3e1e f83b
00000140: 4951 b9bc 3ebf 043c 7476 cabc 760a 7e3c
00000150: ca8c a43c cd0e 05bd 40e4 483c 21ef 8c3c
00000160: b40c 11bc 4571 a93c 98c7 a13c 5ed9 39bd
00000170: 1b1d 28bd 4bf6 04bc f3a6 003d 67f9 c53c
00000180: 1ccc e03b 6b6e d9bc 0224 cc3c 67b3 2fbc
00000190: 9830 93bc 832b a8bc 0bc0 b33b 6a4e 0bbc
000001a0: 302a c0bb d6bc 533c fdf6 9bbc 95de 273c
000001b0: e6ae fe3b 4fa2 9fbc 93e4 9cbc ee11 a93c
000001c0: 33cd a5ba e63e 183b 2855 6f3b 4930 473c
000001d0: 2e77 16bd 9a57 bc3b d328 73bc 973a e8bc
000001e0: 90d5 5b3d 6248 0ebc a41a 7b3b 67fc dcbc
000001f0: a953 d23c d954 1a3d 521f e63c 27d3 fd3b
00000200: 720a cbbc 89a2 f7bc 567d d8bc a474 3cbc
00000210: 715f 553a 6648 153d fc52 173c ad68 133c
00000220: 2b5e 693d 7d23 bc3b 0a12 0cbb e41d 2f3c
00000230: 5ac3 8e3c 14cc b7bc bc6c 23bd f432 d6bc
00000240: 7a58 10bc 748d 12bd 0e90 42bc 00b9 e33c
00000250: 6911 dd3c db0d 763c 286d 62bc d054 85bc
00000260: b11f 093d 81e3 5f3c 04e1 09bc 48fe 1bbc
00000270: 378e 863b 081e 51bc fa41 213c 8cd3 983c
00000280: eab6 9b3c b698 283c 3f43 8f3c 1936 aabc
00000290: 646d bb3b c8c3 823a f1e5 a03b de84 643a
000002a0: b12a f4bb 3d67 533c 03bf 31ba e527 303c
000002b0: ab37 0dbd 8490 613c 64ae a3bc fa6e 60bc
000002c0: 5ce7 233d 4106 46bc a62e 123b ce9e 5e3c
000002d0: cb81 9dbc 3327 063c 6bce e1bb c0e8 2f3c
000002e0: 6377 1a3b 8057 a9bc 6e4b 293c 3e32 c43c
000002f0: ae28 babc 573d 28bc 0781 0a3d 3023 a83c
00000300: 3a27 41bd d570 51bc 5fc6 903c 7da7 d8bc
00000310: 8d9e 9b3c 08ce 92bc 7256 fd3c d532 9a3b
00000320: 318b 643c ac95 34bc d926 15bd 6d5e 913c
00000330: 58b8 21bc cd09 4fbc f8f4 66bc 8e8a 9f3c
00000340: d2b2 4d3b 2954 a13b 4e9e 643c 6bda 92bb
00000350: 5a1b 2cbd ba7b b83c d134 d03c 2957 023d
00000360: a12a aebc 5221 e43a 691e 9c3c 9700 293c
00000370: 3e94 3e3c 8066 3f3d 51eb a0bc f42f c1ba
00000380: 5cf5 20bc 4978 fbbc 87e8 74bb 37f6 74bc
00000390: a0bc 1cbc 0c83 813c d904 4a3c b6db efbb
000003a0: 8eb8 d03c 0d5a 123c e889 3dbd 9479 473c
000003b0: f419 d93c 3b79 b2b9 94e2 fb3c e7a2 aabc
000003c0: 6365 90bc 3c93 c5bc 1981 f8bc 8d18 9bbc
000003d0: 29bd f73c 071b 633c 0c97 dcbc dbfb a138
000003e0: 0a3c 5fbc 14fc f4bc aeec 4e3c 90d3 d03c
000003f0: 99b1 dc3a 21b3 1ebc 4587 f4bb 3250 69bc

Encoder.enc2.bias f4 [40]
-0.017529458 0.012497879 -0.0023381389 0.03634066 0.044889554 0.024127552 -0.031643912 0.041387018
-0.022088775 0.007853151 0.0030977016 -0.016868845 -0.044542566 -0.004657842 -0.018360391 0.022432033
-0.039171267 -0.038498063 0.04417025 0.038931675 -0.038200058 -0.084913164 -0.04449992 0.004428309
-0.14609592 0.031695373 -0.14473955 -0.062836215 -0.049264304 -0.055870716 -0.032561455 -0.031885304
-0.07333938 0.02629967 -0.025436042 -0.10624367 0.021225011 -0.013988204 0.022235239 0.013395489
00000000: f099 8fbc e7c3 4c3c 763b 19bb f2d9 143d
00000010: 1cde 373d 25a7 c53c 0c9d 01bd 6f85 293d
00000020: 85f3 b4bc 81aa 003c cf02 4b3b 8830 8abc
00000030: 4472 36bd d0a0 98bb 8868 96bc 62c3 b73c
00000040: 0d72 20bd 25b0 1dbd ddeb 343d d276 1f3d
00000050: aa77 1cbd f4e6 adbd 8c45 36bd 591b 913b
00000060: 2b9a 15be 02d3 013d 9b36 14be 46b0 80bd
00000070: 5ec9 49bd b1d8 64bd 295f 05bd 2a9a 02bd
00000080: f532 96bd 6872 d73c 3f5f d0bc 4896 d9bd
00000090: 13e0 ad3c c82e 65bc ad26 b63c c178 5b3c

Decoder.dec1.weight f4 [256, 20]
-0.015304948 0.29533985 0.01711553 0.026148759 -0.14641833 -0.0014410709 -0.03556418 0.016360987
-0.024279863 -0.23128076 0.22556572 0.00076175714 0.25467467 0.0045360187 -0.0023640192 0.012545512
0.0111517785 0.006368155 -0.10210238 -0.006431933 0.005059946 0.26536295 0.0013623645 0.0067075803
0.10518312 0.011641982 -0.005826909 -0.0042364276 -0.00933861 0.19372009 -0.059256088 0.00090964546
-0.1902669 -0.0039831125 0.0032322211 0.012993201 0.0033394902 0.00042436566 0.008000094 -0.0013668647
0.0047131637 -0.12583813 -0.00309426 0.0076073133 0.25495937 -0.0051474045 0.06022544 0.010787173
-0.045665015 -0.121282175 0.18511908 0.03464296 0.018063445 0.018981336 0.01776565 0.23919117
0.03537282 0.015219924 0.0029987788 0.030058276 -0.005099855 0.10544984 -0.036582287 -0.009422214
0.056567732 0.0131821465 0.27149913 -0.016938472 -0.014663049 -0.119936325 0.14321473 0.0100962985
-0.17672633 -0.027234426 0.03121029 -0.010206954 0.024296777 0.026147828 -0.072752856 0.044173345
-0.028111948 -0.101519294 0.028473511 -0.0061383387 0.12204387 0.0036782317 0.19435231 -0.008688423
0.040481403 0.0039997464 0.022989834 -0.014679618 -0.18262659 -0.0073856357 0.036294542 -0.19998835
-0.028446635 -0.010233586 0.07651629 -0.028600268 0.067623 -0.04740262 -0.1667159 0.12339791
-0.091847695 0.025934966 -0.2954352 0.13473336 -0.14800468 -0.14727817 -0.36095035 -0.09946985
0.15229951 -0.008404065 0.054902375 0.3857775 -0.09357802 0.07533223 -0.1670517 -0.15275481
0.014724541 0.055452175 0.0013243839 -0.0025773118 0.03818021 -0.026038887 -0.027664805 0.028109487
0.0045793788 0.19834043 0.24584693 0.030277358 0.15250441 -0.0035346535 0.020317411 0.03517618
0.018980667 -0.004855271 -0.006340389 -0.0038327577 -0.013943766 0.2795279 -0.035991132 0.035860214
0.12493053 -0.008581967 -0.010612531 0.029593391 -0.006039649 0.18643151 -0.14368463 -0.020090085
-0.197365 -0.029476754 0.030060405 0.021534003 -0.011012362 -0.009380973 0.016752573 -0.025708545
0.017225783 -0.12045335 -0.016807236 -0.022862088 0.07852662 0.0057369783 -0.22292237 -0.0008091948
0.04480735 0.0038134214 -0.13062076 -0.017266877 0.18217412 0.025135243 -0.025117999 0.11035935
-0.012536887 0.012186722 0.0843277 0.025201635 0.027582362 0.12769184 0.00027078245 -0.012508095
-0.06716734 0.011697055 -0.24538387 0.037465442 -0.0439115 -0.12108304 -0.15447557 -0.017557446
0.08618768 -0.008792316 -0.02164151 -0.2935625 -0.019615076 0.017181236 0.02310508 0.0030663414
-0.025696155 0.061986867 0.040679604 0.015083919 -0.1958583 0.002719494 0.21009548 0.036009282
-0.014126269 0.11956908 -0.083042465 0.04119371 0.07650797 0.015481043 0.032141455 0.19750398
0.009487605 0.022569122 0.038041115 -0.01843558 0.018136984 -0.05656348 -0.010656696 -0.02006895
0.050684094 0.0101688765 0.3200268 0.011101785 0.019526292 0.09896438 -0.029775355 -0.018821448
0.070285544 -0.0013548002 -0.0020447895 0.19935471 -0.016208576 0.037232153 0.079629295 0.041663013
-0.03404794 0.18491533 0.026363047 -0.0134648485 0.062172845 -0.0153402025 -0.25554103 0.10408071
0.028561845 -0.23780315 -0.07051775 -0.010751557 0.025566496 -0.022866849 -0.0017257445 0.3273365
00000000: 9bc1 7abc c936 973e de35 8c3c ec35 d63c
00000010: b0ee 15be 51e2 bcba bfab 11bd 7a07 863c
00000020: 90e6 c6bc ddd4 6cbe b3fa 663e a8b0 473a
00000030: b864 823e e2a2 943b a9ed 1abb b18b 4d3c
00000040: f3b5 363c f5ab d03b 0d1b d1bd f7c2 d2bb
00000050: e7cd a53b a7dd 873e 5e91 b23a 43cb db3b
00000060: 3f6a d73d 03be 3e3c a8ef bebb bbd1 8abb
00000070: f800 19bc 8f5e 463e 83b6 72bd 4675 6e3a
00000080: 54d5 42be c584 82bb acd3 533b 6fe1 543c
00000090: 59db 5a3b 657d de39 d412 033c 5e28 b3ba
000000a0: e270 9a3b b6db 00be 12c9 4abb c546 f93b
000000b0: 098a 823e 8fab a8bb f3ae 763d afbc 303c
000000c0: 3d0b 3bbd ca62 f8bd db8f 3d3e c7e5 0d3d
000000d0: caf9 933c bf7e 9b3c 4589 913c 88ee 743e
000000e0: 17e3 103d fd5c 793c 2987 443b c63c f63c
000000f0: af1c a7bb 16f6 d73d 4fd7 15bd a15f 1abc
00000100: 91b3 673d eef9 573c ef01 8b3e 8dc2 8abc
00000110: 493d 70bc 2da1 f5bd e2a6 123e f26a 253c
00000120: bff7 34be bb1a dfbc b9ac ff3c 113b 27bc
00000130: 090a c73c f833 d63c 73ff 94bd 1cef 343d
00000140: 074b e6bc 59e9 cfbd 4841 e93c 1e24 c9bb
00000150: 23f2 f93d 7d0e 713b 4b04 473e e359 0ebc
00000160: d4cf 253d 4e10 833b 2d55 bc3c c882 70bc
00000170: 7702 3bbe 3403 f2bb 96a9 143d bfc9 4cbe
00000180: eb08 e9bc c5aa 27bc 93b4 9c3d 1c4b eabc
00000190: ed7d 8a3d 4029 42bd 93b7 2abe 0bb8 fc3d
000001a0: a51a bcbd 9175 d43c 4843 97be 8bf7 093e
000001b0: 8a8e 17be 17d0 16be 7cce b8be d9b6 cbbd
000001c0: 67f4 1b3e 34b1 09bc 50e1 603d a184 c53e
000001d0: d5a5 bfbd c947 9a3d 9a0f 2bbe c26b 1cbe
000001e0: 343f 713c d221 633d f396 ad3a 1ee8 28bb
000001f0: da62 1c3d 814f d5bc 4da1 e2bc de45 e63c
00000200: 9d0e 963b c119 4b3e 4cbf 7b3e 3908 f83c
00000210: 1e2a 1c3e a5a5 67bb b370 a63c e614 103d
00000220: 587d 9b3c f718 9fbb 0ac3 cfbb 012f 7bbb
00000230: 6574 64bc 481e 8f3e 706b 13bd 29e2 123d
00000240: 94db ff3d 619b 0cbc 2ee0 2dbc d76d f23c
00000250: 3fe8 c5bb e7e7 3e3e 1022 13be f693 a4bc
00000260: 0d1a 4abe 3c79 f1bc 3d41 f63c 1468 b03c
00000270: 326d 34bc a7b2 19bc b13c 893c ba9a d2bc
00000280: 161d 8d3c 3fb0 f6bd 54af 89bc 4649 bbbc
00000290: 91d2 a03d 43fd bb3b c345 64be 2520 54ba
000002a0: e987 373d 98ea 793b 73c1 05be 4473 8dbc
000002b0: da8b 3a3e 6de8 cd3c 43c4 cdbc 1504 e23d
000002c0: 8467 4dbc d1aa 473c 00b4 ac3d a973 ce3c
000002d0: 68f4 e13c a6c1 023e cef7 8d39 c1ee 4cbc
000002e0: 088f 89bd 01a5 3f3c e945 7bbe 5d75 193d
000002f0: 8cdc 33bd 63fa f7bd d82e 1ebe a2d4 8fbc
00000300: 2b83 b03d a50d 10bc 8949 b1bc d34d 96be
00000310: ccaf a0bc aabf 8c3c dd46 bd3c acf4 483b
00000320: be80 d2bc f1e5 7d3d a89f 263d 8b22 773c
00000330: 148f 48be 8a39 323b 4523 573e 787e 133d
00000340: de71 67bc a2e0 f43d 2b12 aabd bcba 283d
00000350: 36b0 9c3d 33a4 7d3c c2a6 033d 7c3e 4a3e
00000360: e671 1b3c e1e2 b83c 00d1 1b3d 3706 97bc
00000370: 0394 943c 1caf 67bd 6c99 2ebc a367 a4bc
00000380: 209a 4f3d 5c9b 263c 8dda a33e 43e4 353c
00000390: 9af5 9f3c d6ad ca3d 72eb f3bc 702f 9abc
000003a0: def1 8f3d 8d93 b1ba e001 06bb a423 4c3e
000003b0: d9c7 84bc be80 183d af14 a33d d6a6 2a3d
000003c0: da75 0bbd 725a 3d3e 51f7 d73c ab9b 5cbc
000003d0: f4a8 7e3d 7955 7bbc 46d6 82be 4428 d53d
000003e0: 88fa e93c ab82 73be 9c6b 90bd 4c27 30bc
000003f0: d470 d13c 4253 bbbc 6032 e2ba a698 a73e

Decoder.dec1.bias f4 [256]
-0.19636308 0.04989123 0.027058465 0.08927378 -0.14069188 0.21691896 -0.15682253 -0.109875515
0.060866475 -0.05984719 -0.23246095 -0.22121681 -0.0031263505 -0.06223854 -0.06637363 0.07571592
-0.045636367 -0.06341587 -0.15513149 -0.032257672 -0.011370926 -0.005887732 -0.24807496 0.1584996
0.05668571 -0.17586564 -0.224873 -0.047378834 -0.053760152 -0.0945257 0.121366546 -0.08641109
0.018890843 -0.11210657 -0.13829283 -0.0458788 -0.15183912 0.023693835 -0.2380267 -0.012202283
0.044302735 0.04096878 0.15745859 0.15297577 -0.08841532 -0.08819795 0.16852865 -0.089256965
0.062359646 -0.0018752887 0.016694749 -0.021136414 0.059056662 0.029773483 -0.11192441 0.025960982
-0.05253941 0.17707194 -0.02629881 -0.11710076 -0.12158026 -0.3050237 0.09330526 0.0030751077
-0.15072963 -0.039740533 -0.038849715 0.057516415 -0.22979248 -0.25577033 -0.42543593 -0.09912238
-0.10137765 0.079909794 0.0117556555 0.010729907 -0.0070636785 -0.017512616 0.1353546 -0.046424158
-0.07927104 -0.03251203 0.24248514 -0.20155816 -0.020472264 0.081979565 -0.02842849 -0.16914807
-0.111748464 -0.081642665 0.04582007 -0.0078754695 0.016474666 -0.08805356 -0.13124286 0.1399088
-0.0232042 -0.2093655 -0.13697466 0.1618111 -0.069706835 -0.0025978782 0.05662054 -0.20954643
-0.031331543 -0.021557448 0.040747643 0.06377041 -0.2946751 -0.040596776 -0.16190858 0.00045962405
-0.26738414 -0.084885724 0.12622099 -0.10627103 0.11948335 -0.11340364 0.077170394 -0.14556651
-0.058402717 0.06167964 0.081280194 -0.12728776 0.12624142 -0.07579192 0.18663606 -0.047648717
-0.1931877 -0.11407594 0.05323505 0.02530909 -0.3787917 0.03561954 0.011645429 0.039878394
0.11754918 0.11937616 -0.13359533 -0.098204315 -0.080218196 0.10865516 0.09278855 0.16778018
0.049530547 -0.2747977 0.09715357 0.12727012 -0.16181926 -0.119705245 0.2123067 0.10696869
0.018242283 -0.14135045 0.01621403 -0.1463146 -0.33885312 -0.075993255 -0.016944211 0.09894801
-0.063631214 -0.0590524 0.0246956 0.12508544 -0.05285831 -0.010738613 -0.14949459 0.016180156
0.09274956 -0.098615736 -0.0958435 -0.1867728 -0.1388617 0.09781131 -0.012344651 -0.07868186
-0.19072756 -0.28939545 0.14657053 -0.13631639 -0.16355382 -0.11168065 -0.0012777491 0.08250756
0.058792002 0.109761566 -0.33169687 -0.04957498 -0.058777135 0.14834632 -0.08333209 -0.06851379
-0.12700504 0.11267014 -0.1808726 0.020018712 0.020274455 -0.086247325 -0.034981947 0.13896912
0.0127866315 -0.22461066 0.13575698 -0.090699434 -0.0013354068 -0.12760408 -0.26387015 -0.03978215
-0.12936136 -0.14162707 0.021254513 0.046787523 0.20000336 -0.066136755 0.16220461 -0.12690681
-0.10908094 -0.12487559 -0.11809798 -0.061644442 -0.18200882 0.0035596425 -0.3270736 0.10588553
0.14642978 -0.16873698 0.2039319 0.08675095 -0.18084608 0.08325193 -0.065959394 -0.19953491
-0.08439325 -0.08447555 -0.21749346 0.0072640986 -0.21830112 0.009567275 0.052486386 0.09505466
0.0373435 -0.045613322 -0.07136425 -0.058797825 -0.097139746 0.1573814 -0.08881031 0.008213923
-0.2030711 -0.1297278 -0.028455576 -0.16695923 -0.0018992916 -0.010703597 -0.21330182 -0.09609317
00000000: 6713 49be bf5a 4c3d b7a9 dd3c 2cd5 b63d
00000010: 8811 10be 0120 5e3e 1696 20be 6a06 e1bd
00000020: 204f 793d 5422 75bd 3e0a 6ebe a986 62be
00000030: 75e3 4cbb d7ed 7ebd e6ee 87bd f310 9b3d
00000040: 33ed 3abd 2ee0 81bd cada 1ebe 9f20 04bd
00000050: 1f4d 3abc e0ed c0bb 5d07 7ebe b84d 223e
00000060: 462f 683d 1f16 34be 1c45 66be 4f10 42bd
00000070: 9b33 5cbd b196 c1bd 068f f83d 4cf8 b0bd
00000080: f8c0 9a3c 2198 e5bd a39c 0dbe 69eb 3bbd
00000090: b77b 1bbe 9319 c23c 45bd 73be 16ec 47bc
000000a0: c976 353d e1ce 273d d33c 213e aea5 1c3e
000000b0: 1713 b5bd 20a1 b4bd c692 2c3e 5bcc b6bd
000000c0: d46c 7f3d 3fcc f5ba 6dc3 883c 4626 adbc
000000d0: 66e5 713d 85e7 f33c a038 e5bd 20ac d43c
000000e0: 9033 57bd 5952 353e 9a70 d7bc 86d2 efbd
000000f0: 12ff f8bd 112c 9cbe d416 bf3d bf87 493b
00000100: de58 1abe f8c6 22bd e120 1fbd 5596 6b3d
00000110: b84e 6bbe 54f4 82be bdd2 d9be ad00 cbbd
00000120: 169f cfbd bfa7 a33d cb9a 403c 7ecc 2f3c
00000130: 6e76 e7bb 9e76 8fbc 659a 0a3e 4227 3ebd
00000140: db58 a2bd 562b 05bd 064e 783e 4365 4ebe
00000150: 73b5 a7bc e7e4 a73d dde2 e8bc 2735 2dbe
00000160: 61dc e4bd 4534 a7bd d3ad 3b3d 1d08 01bc
00000170: e1f5 863c 6d55 b4bd 8764 06be 4144 0f3e
00000180: bc16 bebc e963 56be 1643 0cbe cfb1 253e
00000190: 75c2 8ebd 2a41 2abb f0ea 673d 5793 56be
000001a0: 8155 00bd 3f99 b0bc 00e7 263d 109a 823d
000001b0: a8df 96be ce48 26bd 5dcb 25be b2f9 f039
000001c0: 93e6 88be 91d8 adbd 1340 013e a0a4 d9bd
000001d0: b0b3 f43d 2b40 e8bd 830b 9e3d 630f 15be
000001e0: b037 6fbd caa3 7c3d 3b76 a63d b957 02be
000001f0: 6e45 013e cb38 9bbd 861d 3f3e 4d2b 43bd
00000200: ffd2 45be a5a0 e9bd ff0c 5a3d 0255 cf3c
00000210: fcf0 c1be cbe5 113d 78cc 3e3c 8757 233d
00000220: a0bd f03d 7d7b f43d 37cd 08be 581f c9bd
00000230: 7049 a4bd 9986 de3d ec07 be3d 91ce 2b3e
00000240: 8be0 4a3d 49b2 8cbe 73f8 c63d 1953 023e
00000250: f3b3 25be 0628 f5bd ed66 593e 6712 db3d
00000260: d770 953c 2cbe 10be 49d3 843c 7fd3 15be
00000270: 287e adbe 5aa2 9bbd 96ce 8abc 41a5 ca3d
00000280: 1551 82bd eee0 71bd 6d4e ca3c 6616 003e
00000290: f581 58bd 02f1 2fbc 1c15 19be 3f8c 843c
000002a0: 7bf3 bd3d 0cf7 c9bd 9949 c4bd 5e41 3fbe
000002b0: c331 0ebe 4c51 c83d 3841 4abc f423 a1bd
000002c0: 164e 43be a42b 94be 9616 163e 8696 0bbe
000002d0: a77a 27be d3b8 e4bd 257a a7ba b9f9 a83d
000002e0: e2cf 703d acca e03d 2cd4 a9be 220f 4bbd
000002f0: 4bc0 70bd 19e8 173e 04aa aabd f550 8cbd
00000300: 9c0d 02be 9abf e63d ab36 39be 48fe a33c
00000310: 9d16 a63c 70a2 b0bd 3b49 0fbd ec4d 0e3e
00000320: 057f 513c 5600 66be e103 0b3e a0c0 b9bd
00000330: d108 afba a5aa 02be fd19 87be 9cf2 22bd
00000340: 4e77 04be b006 11be f21d ae3c 46a4 3f3d
00000350: aecd 4c3e b572 87bd f718 263e dcf3 01be
00000360: d465 dfbd c6be ffbd 5bdd f1bd e27e 7cbd
00000370: 8560 3abe e448 693b 3176 a7be 83da d83d
00000380: b0f1 153e 63c9 2cbe 86d3 503e 7baa b13d
00000390: b72f 39be fd7f aa3d b815 87bd e152 4cbe
000003a0: 5ed6 acbd 8401 adbd 9bb6 5ebe ad07 ee3b
000003b0: 548a 5fbe 0fc0 1c3c f7fb 563d 05ac c23d
000003c0: 7ff5 183d 09d5 3abd 6b27 92bd fdd5 70bd
000003d0: 34f1 c6bd 9728 213e 2ee2 b5bd b193 063c
000003e0: dff1 4fbe 5dd7 04be ab1b e9bc 5cf7 2abe
000003f0: a7f1 f8ba 245e 2fbc cb6b 5abe 7fcc c4bd

Decoder.dec2.weight f4 [31, 256]
0.3998829 0.07674926 -0.13449776 0.21151827 0.18837538 0.08379538 0.05700324 -0.09094169
-0.2999656 -0.039601214 0.11662255 -0.3223862 -0.16011563 -0.13796873 0.24257162 0.13552502
-0.10648944 0.21193133 0.0953246 -0.10625298 0.1099845 0.11026096 -0.28869694 0.043076772
0.04456779 -0.08278458 -0.14991313 0.11649037 -0.2170649 0.13311139 0.07964641 0.33228058
-0.013062442 0.27546948 -0.36314625 -0.01830636 -0.25335905 -0.13124067 0.19469756 -0.04702578
0.0019051743 0.1562138 0.043995287 0.18086676 0.11768258 0.21317141 -0.07273659 0.13500473
-0.06226854 0.2706578 0.056982804 -0.12671398 -0.03936078 -0.039853983 -0.01639886 0.17169385
0.08333945 -0.19996254 -0.15045969 0.06280239 -0.060490448 0.011174709 -0.09718161 -0.2019718
0.10517279 0.06790595 0.0045159715 0.023830794 -0.13715519 0.22416423 -0.13557461 -0.2055977
0.09539962 -0.19538136 0.07340561 0.24518684 0.053233024 0.10948731 -0.094478644 -0.15991503
-0.0069021424 0.119557895 0.11434891 -0.14391693 -0.13610321 -0.15554069 -0.022410113 0.1994863
-0.08614954 0.3190015 -0.2197882 0.17764607 0.042775776 0.062358607 -0.3641068 -0.08819879
0.0040882323 -0.13976595 0.03576591 -0.077685304 -0.12758453 -0.011237807 -0.24659482 -0.02622423
-0.30754468 -0.092292696 0.0721646 -0.10301877 0.041137792 -0.20738156 -0.16823661 0.02955565
0.32887125 -0.010405688 -0.2101481 -0.083703145 -0.19938572 -0.012883019 -0.006125138 -0.04522786
-0.038599942 -0.24547137 0.15790872 -0.003331739 -0.11513063 0.03545753 0.11041696 -0.05988761
-0.13647407 -0.13638875 0.13990392 -0.101979606 -0.16250595 0.11414286 -0.07686621 -0.23201133
0.13746527 -0.09183678 -0.16319534 0.38936704 0.1430936 -0.08370941 0.00434911 0.14045745
-0.025927166 0.15134613 -0.04040853 0.19218735 -0.017596878 -0.012119703 8.078759e-05 0.057458375
0.16104051 0.13734604 0.081470236 0.11389957 -0.21198863 -0.08106523 -0.14355886 0.17188613
0.034992598 0.14692244 0.11697633 -0.056280445 0.102605924 -0.10725512 -0.42393187 0.06762537
0.0038647975 0.08739699 -0.038404163 -0.14732404 0.10529528 0.022573782 -0.16172431 0.0052926666
0.17933698 -0.47768143 0.07402178 0.28454703 -0.000477967 0.035553202 0.20710073 0.019203912
-0.003988978 -0.06485343 -0.03514244 0.19193155 -0.3964288 0.16848044 -0.030826727 -0.20456003
-0.003705996 0.110398576 0.23636834 -0.14767425 -0.21676031 -0.27421415 -0.17292395 -0.073608406
-0.27985474 -0.0019106944 0.06628066 -0.119090326 0.03156612 -0.28952935 0.017536495 0.019271761
0.19875543 0.05039587 0.12867977 0.14575008 -0.14144392 -0.09754095 0.098319896 0.15623945
0.04543177 -0.47203958 0.2594435 -0.09620436 0.016068948 -0.1705781 -0.25448284 -0.004378338
-0.26490107 0.14367852 0.1068707 -0.21749358 0.05366398 -0.041076854 0.043207645 -0.033634957
-0.18265888 0.21623775 -0.14810121 -0.034775205 0.24141096 -0.008605156 -0.22498639 -0.123197034
-0.07092425 0.106357016 0.056784224 0.18565343 -0.08605454 0.028052377 0.10860141 0.053597953
-0.042973213 -0.08475394 0.14103618 -0.07295448 -0.09223417 -0.050295014 -0.2720568 -0.15190703
00000000: 74bd cc3e b72e 9d3d c8b9 09be 3f98 583e
00000010: 7ae5 403e ea9c ab3d 3b7c 693d a33f babd
00000020: 1795 99be e234 22bd ced7 ee3d ce0f a5be
00000030: 5af5 23be ad47 0dbe b264 783e 12c7 0a3e
00000040: 2317 dabd 8704 593e 8b39 c33d 2a9b d9bd
00000050: 8e3f e13d 80d0 e13d 16d0 93be 4571 303d
00000060: b78c 363d f68a a9bd d482 19be 8192 ee3d
00000070: 4346 5ebe 5a4e 083e a81d a33d ae20 aa3e
00000080: da03 56bc 560a 8d3e 4eee b9be 38f7 95bc
00000090: 47b8 81be f463 06be cc5e 473e 1b9e 40bd
000000a0: 0bb7 f93a 83f6 1f3e 6734 343d 2335 393e
000000b0: 9103 f13d 9b49 5a3e ecf6 94bd ae3e 0a3e
000000c0: 4c0d 7fbd a993 8a3e cd66 693d 4fc1 01be
000000d0: c538 21bd ee3d 23bd e756 86bc 83d0 2f3e
000000e0: e0ad aa3d fbc2 4cbe 1b12 1abe 8a9e 803d
000000f0: d5c4 77bd 2016 373c 2707 c7bd b2d1 4ebe
00000100: d564 d73d 4612 8b3d b7fa 933b cc38 c33c
00000110: 6972 0cbe 4f8b 653e 12d4 0abe 3488 52be
00000120: e060 c33d 0d12 48be ae55 963d 4212 7b3e
00000130: df0a 5a3d e23a e03d 057e c1bd c4c0 23be
00000140: 5e2b e2bb c5da f43d c32f ea3d f65e 13be
00000150: a45e 0bbe 0f46 1fbe 6a95 b7bc 2346 4c3e
00000160: 2c6f b0bd 2a54 a33e 2810 61be dae8 353e
00000170: a735 2f3d bd6b 7f3d 356c babe 91a1 b4bd
00000180: 94f6 853b ce1e 0fbe 467f 123d 7919 9fbd
00000190: 85a5 02be c71e 38bc 5a83 7cbe 32d4 d6bc
000001a0: 7f76 9dbe f403 bdbd 09cb 933d 81fb d2bd
000001b0: 1a80 283d d55b 54be 3846 2cbe b11e f23c
000001c0: d061 a83e 9e7c 2abc 1031 57be 8e6c abbd
000001d0: c52b 4cbe 4c13 53bc 62b5 c8bb d940 39bd
000001e0: f91a 1ebd d95c 7bbe d3b2 213e 4e59 5abb
000001f0: 9cc9 ebbd ea3b 113d 4a22 e23d b64c 75bd
00000200: dcbf 0bbe 7ea9 0bbe f942 0f3e afda d0bd
00000210: f667 26be bbc3 e93d 086c 9dbd 6194 6dbe
00000220: b2c3 0c3e ec14 bcbd ae1c 27be 1e5b c73e
00000230: 2187 123e d76f abbd fb82 8e3b 14d4 0f3e
00000240: 3565 d4bc 7bfa 1a3e 6a83 25bd c3cc 443e
00000250: 5427 90bc b891 46bc 826c a938 7959 6b3d
00000260: cee7 243e 71a4 0c3e ded9 a63d 2e44 e93d
00000270: 8c13 59be 8705 a6bd 1801 13be eb02 303e
00000280: 6654 0f3d d672 163e 4991 ef3d 5386 66bd
00000290: 0e23 d23d 93a8 dbbd 990d d9be 2c7f 8a3d
000002a0: 8b48 7d3b 31fd b23d af4d 1dbd 1ddc 16be
000002b0: 0da5 d73d a7ec b83c 0f9b 25be 1b6e ad3b
000002c0: 1da4 373e a992 f4be bb98 973d 26b0 913e
000002d0: a597 fab9 3ca0 113d 3712 543e 8651 9d3c
000002e0: f9b5 82bb e0d1 84bd 85f1 0fbd b489 443e
000002f0: b7f8 cabe 2386 2c3e 5588 fcbc 2f78 51be
00000300: 4ce0 72bb a618 e23d 8b0a 723e eb37 17be
00000310: 6af6 5dbe cc65 8cbe fa12 31be 01c0 96bd
00000320: 1f49 8fbe 4470 faba 28be 873d a1e5 f3bd
00000330: 7a4b 013d 313d 94be b2a8 8f3c d0df 9d3c
00000340: 8b86 4b3e e66b 4e3d a1c4 033e 823f 153e
00000350: add6 10be 8dc3 c7bd f15b c93d 3cfd 1f3e
00000360: aa16 3a3d 2caf f1be c7d5 843e cb06 c5bd
00000370: 07a3 833c 07ac 2ebe 934b 82be 2978 8fbb
00000380: 1da1 87be 7620 133e 07df da3d a3b6 5ebe
00000390: c3ce 5b3d 3440 28bd 80fa 303d cfc4 09bd
000003a0: ee0a 3bbe 6e6d 5d3e d8a7 17be 7270 0ebd
000003b0: 6f34 773e a4fc 0cbc d562 66be ba4e fcbd
000003c0: bc40 91bd b5d1 d93d 9396 683d ef1b 3e3e
000003d0: 5d3d b0bd 19ce e53c 6b6a de3d 8789 5b3d
000003e0: ae04 30bd 7993 adbd ca6b 103e 2969 95bd
000003f0: 45e5 bcbd 2502 4ebd 074b 8bbe 848d 1bbe

Decoder.dec2.bias f4 [31]
-0.08711144 0.32953373 0.763115 -0.039249945 0.6184623 0.14029975 -0.8699758 0.05997957
-0.08140832 -0.18689181 0.61677086 0.25055054 0.604892 -0.59269756 0.7588568 -0.7684179
-0.037365537 0.73272157 -0.067313075 0.3304926 -0.08229268 -0.012277001 -0.5409122 -0.039014008
-0.00097537535 0.6483435 0.039448235 0.7321655 0.05541635 0.6656458 -0.6796014
00000000: 7c67 b2bd a5b8 a83e 815b 433f 8dc4 20bd
00000010: 8c53 1e3f bdaa 0f3e bcb6 5ebf 23ad 753d
00000020: 68b9 a6bd 9160 3fbe b2e4 1d3f 2948 803e
00000030: 34da 1a3f 07bb 17bf 7044 423f 09b7 44bf
00000040: 9b0c 19bd a493 3b3f 70db 89bd 5336 a93e
00000050: 1189 a8bd 7925 49bc 3979 0abf 27cd 1fbd
00000060: 55b0 7fba d7f9 253f 7994 213d 336f 3b3f
00000070: 41fc 623d c367 2a3f 5bfa 2dbf
