results/7_iid/model_alone_n_2_m_2.pt (torch, 121552 bytes, 8 tensors)

Encoder.enc1.weight f4 [256, 22]
000000 51 e1 20 3b 4b 55 dd 3c 7e ee b4 bc f3 4d 30 bb
       0.0024548362 0.02701821 -0.022086378 -0.002690193
000010 5c 29 e7 bc f7 8d ea bd fd 6a 1a 3d 70 b5 ad 3d
       -0.028217964 -0.11452859 0.03769969 0.08481872
000020 cc 5a 23 bd 82 90 05 3d 41 f6 c0 3d 2b 72 8a bd
       -0.039881513 0.032608517 0.09421969 -0.06760057
000030 17 79 2f 3d 11 80 29 bd de 50 82 3b 0e d9 e2 bc
       0.04284009 -0.0413819 0.0039769253 -0.02769139
000040 5a 36 aa bd 05 d0 3d 3b 35 13 ca bd 56 0b 86 bd
       -0.08311148 0.00289631 -0.09866945 -0.06545131
000050 1d b3 a4 3c 67 ed a3 bd c2 2b 95 3a a4 f9 86 bd
       0.02010494 -0.08004265 0.0011380839 -0.06590584
000060 2e f9 22 be cd 2c 85 bd 4a 7e 2c 3c 86 d9 50 3d
       -0.15915367 -0.06502686 0.0105281565 0.050988697
000070 1b e6 3c 3d b0 a7 48 3c de 61 a5 3c 69 30 ad bd
       0.046117883 0.012247011 0.020188268 -0.08456499
000080 54 ea 25 be 76 26 f9 bd 29 c9 a2 bd 33 ef b5 bc
       -0.1620267 -0.12165539 -0.079485245 -0.022208786
000090 8b 03 cb bb 54 48 8b 3c 1f 6a 64 bb 30 74 bc bc
       -0.0061954907 0.017002262 -0.0034853292 -0.023004621
0000a0 3b e1 46 3e e5 5b dd 3d ce 64 c0 3d 30 84 3b 3c
       0.19421856 0.10808543 0.09394227 0.01144509
0000b0 ab 5e ea bd 60 22 c9 bc c8 cb 0d be 41 b2 29 3c
       -0.11443838 -0.024552524 -0.13847268 0.01035744
0000c0 39 3f fb bd 55 96 d0 bc 39 1c 13 bd 5b 7a 59 be
       -0.12267918 -0.025462309 -0.035915587 -0.21238081
0000d0 60 3a 77 be 77 72 aa bd 76 62 d6 3c 02 c7 c7 bc
       -0.24143362 -0.08322614 0.026169997 -0.024386887
0000e0 ae f6 79 bd 2a 24 0f bd 7f d9 4e bc f3 a8 28 3d
       -0.061026268 -0.034946598 -0.012625097 0.041176748
0000f0 10 9b a2 bd 65 17 78 bc 0c 05 30 3d f9 e1 da 3c
       -0.07939732 -0.015142296 0.042973563 0.02671908
000100 a0 43 0d bd 27 61 34 bd b9 c5 90 bc e8 e6 81 3c
       -0.03448832 -0.044037964 -0.017672407 0.015857175
000110 c8 17 a2 bd 4e cc 92 be 92 81 ed 3b b3 31 2c bc
       -0.07914692 -0.28671497 0.007248112 -0.010509896
000120 b6 2b 2f bc 04 4f bc 3b 42 c6 57 bb d2 d1 91 bc
       -0.010691574 0.005746724 -0.0032924567 -0.017800245
000130 9b 91 55 3b c9 8c fa bd ec 91 60 bb 63 28 ef bc
       0.0032588008 -0.12233884 -0.0034266664 -0.029194063
000140 66 d0 fe bb a4 17 5a 3a be ce 26 bc ef c1 14 bc
       -0.007776308 0.0008319563 -0.010181127 -0.0090794405
000150 62 5e 93 3c be d7 55 bb 4d 0c f9 3c 51 ad d5 3c
       0.017989341 -0.0032629813 0.030401373 0.02608362
000160 1a 62 1c bb dc 70 c6 3b 62 d2 89 3d c3 da c5 ba
       -0.0023862184 0.0060559344 0.067295805 -0.0015095103
000170 cf 2d 85 bb c2 1d d2 bc 1a 19 66 3b 23 94 c0 bb
       -0.0040642987 -0.025648955 0.0035110177 -0.0058770343
000180 51 00 e3 3b 7a c6 56 bc fb 4b 58 3c 51 78 48 bd
       0.006927528 -0.013108844 0.013201709 -0.048942868
000190 64 2d 2f bc f1 f8 04 be 59 eb 67 bb be 66 49 ba
       -0.010691974 -0.12985589 -0.003538808 -0.0007682851
0001a0 a9 4a 32 bc 9b db 7d 3a 08 b0 d0 3b 65 03 84 3e
       -0.010882058 0.0009683908 0.006368641 0.2578384
0001b0 36 94 61 3c d5 ec b6 3a 66 8e 79 bd ea 23 f9 bb
       0.013768246 0.001395608 -0.060926817 -0.0076031582
0001c0 b8 a2 a4 3d 5e 20 12 3d d7 93 f3 bd 43 3f 64 bb
       0.08038849 0.0356754 -0.118934326 -0.0034827746
0001d0 fd 8a 81 bd c7 e5 8c bd 2f d7 3c 3d e2 51 16 bd
       -0.06325338 -0.06879764 0.046103653 -0.036699183
0001e0 95 77 02 bc d9 8a 6d bd 61 76 11 bd 6d 9b cb 3d
       -0.007963081 -0.057993744 -0.035513286 0.099417545
0001f0 ba 7e 29 3c b1 b1 7f bd 5c 0c 11 bd 4b c7 06 3d
       0.010345155 -0.06242532 -0.035412177 0.032904904
000200 e5 9c 9d bd f8 5b 50 3d b9 04 f1 3c 26 8d 9c bd
       -0.07695941 0.05086896 0.029421197 -0.076441094
000210 ef f4 d3 3c 26 8d 45 3c b7 8a e8 bd 70 e5 5e 3c
       0.02587363 0.012057578 -0.11354583 0.013604507
000220 78 1d 22 bc e5 bf ae 3d 69 ae df bc 92 85 56 bc
       -0.009894721 0.08532695 -0.027304845 -0.013093369
000230 48 32 99 bd 78 e8 68 3c dc e0 01 bd c4 ca 1b be
       -0.074802935 0.014215581 -0.031708583 -0.15214068
000240 75 82 2f bc 0d 9b 8b bd af f3 79 bd 9f 0a 84 3d
       -0.010712256 -0.06816683 -0.06102341 0.06447338
000250 79 08 8a bd 58 79 0f be 31 dc 34 bd 39 1f d2 3a
       -0.06739897 -0.14011133 -0.044155303 0.0016031034
000260 55 c3 21 be 15 df 54 3d 9c ad 3e 3c 37 c1 8d 3c
       -0.1579717 0.05197056 0.011638071 0.017304046
000270 67 6a 07 3e d4 29 0d 3d 96 a3 14 3d 54 33 f6 3c
       0.13224183 0.03446372 0.03628882 0.030053772
000280 e3 f8 c6 3c 4c 59 98 3c 7e fa ca 3c 66 44 8e 3c
       0.0242886 0.018597268 0.024777647 0.0173666
000290 da 9a 66 3d a7 1c 1f 3d be e0 ae 3c 85 f6 cc bc
       0.05630002 0.038845684 0.0213474 -0.025019893
0002a0 12 23 d5 be 17 8c b5 3c 58 bd ac 3c 65 eb 1e 3d
       -0.4162832 0.022161527 0.02108638 0.03879871
0002b0 96 21 60 bd d5 04 81 bb 9d 3b 96 bc 48 31 69 3d
       -0.05471953 -0.0039373436 -0.018338973 0.056931764
0002c0 75 c3 5c bd f6 c3 1a be 2e 35 ac be 87 fb 65 bd
       -0.05389734 -0.15113816 -0.33634323 -0.05614808
0002d0 58 34 cd bd ef cc 37 be 9a 58 ed 3c c0 06 3a bd
       -0.100197494 -0.1794927 0.028972913 -0.045416594
0002e0 f5 00 14 be 6d f7 6b bd f8 91 41 be ba a9 d9 bd
       -0.1445349 -0.05760901 -0.18903339 -0.10628076
0002f0 ac 99 0f be 44 e1 6b bd f8 84 d3 3d b0 50 59 3c
       -0.14023465 -0.057587877 0.10328096 0.013263866
000300 43 86 83 3d 41 d7 9c bd ba 14 a3 3c 53 7c e4 ba
       0.06422093 -0.07658244 0.019907344 -0.0017432071
000310 bf 85 9b 3c af b4 2a be 87 b3 cc bd 44 94 c8 bd
       0.018984674 -0.16670488 -0.099951796 -0.097939044
000320 28 7c 47 be e6 ed dc 3d 8e fe 24 3d 8b ec df b7
       -0.19480956 0.10787563 0.040281825 -2.669382e-05
000330 26 4e 11 3d 7a 02 34 3d b2 85 a7 3d 6c 2a a3 bd
       0.03547492 0.043947674 0.08179797 -0.07967076
000340 9c 1a 48 3c be 8b e8 ba 81 3d 80 bc b7 bf 88 bd
       0.012213375 -0.0017741842 -0.015654327 -0.06677192
000350 f5 68 0f bd 89 9f 99 3d b9 e4 aa 3c 35 75 3f bd
       -0.035012204 0.07501132 0.020861017 -0.046742637
000360 2f 26 49 bd c4 eb 9d bc c3 f3 95 3d ea 0e ed bc
       -0.04910868 -0.01927746 0.073218845 -0.028937776
000370 b5 25 fd bc 5d f3 81 bd 1a 89 b7 bd ac 07 7b 3d
       -0.03090177 -0.06345246 -0.08961697 0.061286613
000380 df 4a e0 3b 21 3f 40 3c 0e 0c 44 3a 99 37 d3 bd
       0.006844863 0.011733801 0.0007478603 -0.10313339
000390 4d d7 d1 b9 f8 64 93 bc 7b d3 79 bd 65 ea 28 be
       -0.00040023998 -0.017992482 -0.0609927 -0.16495664
0003a0 bb 9b ae 3b f3 f9 9a bd 91 bd b7 bc f5 4d b4 3c
       0.005328623 -0.07567205 -0.02242926 0.022009829
0003b0 2b 0d 13 bd 40 14 1d bb df b1 92 3b 14 48 15 be
       -0.03590123 -0.0023968369 0.0044767703 -0.14578277
0003c0 fa 75 01 be 78 49 93 39 3e 43 28 bd 5b 2e 9b bd
       -0.1264266 0.00028092763 -0.041079752 -0.07577201
0003d0 08 1c 7d be 96 90 20 3c 2a 4d a1 bc c0 bd c2 3c
       -0.24717724 0.009800097 -0.019690115 0.02377212
0003e0 2d d8 e3 bc 50 6f 55 3d e7 3b 1c be 59 b5 c3 bc
       -0.027813042 0.05210811 -0.15257226 -0.023890184
0003f0 b5 c9 5c 3d 2e cf 11 bd 11 e8 ba bc 28 8c b9 39
       0.0539033 -0.035597973 -0.022815736 0.00035390374

Encoder.enc1.bias f4 [256]
000000 a1 fb 7e be f6 73 20 be 53 3e e8 3b 0a 46 1d bd
       -0.24900676 -0.15669236 0.0070875078 -0.038396873
000010 f9 53 d7 bd a5 2a 81 be cc 14 4c be 29 e7 59 bd
       -0.105140634 -0.25227848 -0.19929808 -0.053198967
000020 94 3e b9 3d 6e fc 0f 3e f5 dc 97 be 6e 76 e8 bd
       0.09045139 0.14061138 -0.29660764 -0.11350714
000030 a8 21 d4 ba e0 76 ff 3d 18 47 8d 3b 42 24 b2 3d
       -0.0016184347 0.124738455 0.0043114536 0.08698322
000040 05 ca 8a bd 35 d3 3b be b9 44 8f bc 89 e5 9e bd
       -0.067768134 -0.18342288 -0.017488824 -0.07758624
000050 14 1b 07 3e b3 d5 09 3e f3 3e a3 bd a4 2e 9a bc
       0.13193923 0.13460426 -0.07970991 -0.018821068
000060 c7 27 c2 bd d4 a9 23 bc b3 21 11 3e 2a 08 5d be
       -0.09480243 -0.009989221 0.14173011 -0.21585146
000070 f6 f5 84 3e 63 1e 3d be 71 ba 0a be 48 17 34 bd
       0.25968903 -0.18468623 -0.13547684 -0.043967515
000080 1d e1 a9 be cc 14 d0 3d f2 fe 0b 3e fd d7 6d bd
       -0.3317956 0.10160217 0.13671473 -0.05806731
000090 33 1f e3 bd 42 2c 85 be 7f dc 36 be c4 3c 9a be
       -0.11089935 -0.2601033 -0.1785755 -0.30124485
0000a0 bb 34 2d be 70 8d 5b bd 20 e6 a9 be 4b 51 0c 3e
       -0.16914646 -0.053601682 -0.33183384 0.13702886
0000b0 5d 57 95 3d 96 f6 2f be 30 81 be bd 51 24 6e be
       0.07292054 -0.17183909 -0.09301984 -0.23256041
0000c0 f2 f8 35 3e 42 0f b4 bd b1 75 96 be 61 92 8b be
       0.17770746 -0.08791973 -0.29386666 -0.27260116
0000d0 c3 69 9c bd dd ab f0 bd 27 f6 14 be 97 bd 7d 3e
       -0.0763736 -0.1175153 -0.14547025 0.24779354
0000e0 54 dc 19 be 45 ee 4b be 8c e6 b5 3d 2c 78 48 bd
       -0.15025455 -0.19915111 0.08881864 -0.04894273
0000f0 5c dc a9 3d 52 25 dd bd fd b9 5c be 81 17 4e 3d
       0.08293983 -0.10798134 -0.21555324 0.050315384
000100 1d fe 64 be 83 da 00 be 61 86 83 bd 19 a4 42 3c
       -0.22362562 -0.12583356 -0.06422115 0.011879944
000110 eb 80 d9 bd e8 8e 70 3e fa a3 67 be d6 44 13 bd
       -0.10620292 0.23492014 -0.22621146 -0.03595432
000120 21 20 e9 bd 08 cd 19 3e a6 bb 03 be a6 c8 ee bd
       -0.11383081 0.1501962 -0.12864551 -0.116593644
000130 d7 92 f3 3d 84 0a 22 be 13 3a 42 bd ac d2 6f be
       0.11893242 -0.15824324 -0.047418665 -0.23420209
000140 b4 e0 7f 3d 93 ec 8c be 7e b3 29 be 29 f9 28 be
       0.062470153 -0.27524242 -0.16572377 -0.16501297
000150 8b 44 22 be 42 0d 77 be ea b3 5b 3d 2b 8c 7b be
       -0.1584646 -0.24126151 0.053638376 -0.24565189
000160 bb f9 97 be 4f 01 05 be 36 3b 11 3e e3 59 59 be
       -0.29682717 -0.1298878 0.14182743 -0.21225695
000170 f0 55 52 bd 1e aa 50 be 09 7f 6f bd 52 34 2e 3e
       -0.051351488 -0.20377395 -0.05847076 0.17012146
000180 a8 c0 85 be ff 43 b1 bc 08 48 0b be 3f 6a 18 be
       -0.26123548 -0.021638868 -0.13601696 -0.1488428
000190 5a 23 be bd b9 c7 b0 be c0 96 9c 3b 90 73 12 3e
       -0.092840865 -0.34527376 0.004778713 0.14301896
0001a0 04 76 32 3d 3b d1 4b be 18 bd 1f bd 7e 58 6d 3e
       0.04356958 -0.19904034 -0.038998693 0.23178288
0001b0 48 7a 72 3e ff fe 71 3e 07 a6 5c be 67 9e 5a be
       0.23679459 0.2363243 -0.2154771 -0.21349488
0001c0 e4 e4 87 3e e2 4f 8f be 9c fc a6 3d 4a 0a 41 be
       0.26541817 -0.27990633 0.0815365 -0.18851581
0001d0 34 9e 76 bd 37 6f 92 3d 6b e8 03 be 06 d3 60 be
       -0.060209468 0.07150119 -0.12881629 -0.21955499
0001e0 1e a6 fd 3d e8 20 83 be d0 23 23 be 65 ba 9f bd
       0.123852 -0.25611043 -0.1593163 -0.07799224
0001f0 d2 4b d1 3d 27 5c 6b be 55 30 94 be dd 1c 62 bc
       0.1021954 -0.22984372 -0.28943124 -0.013800827
000200 c2 8a 95 be 64 2a d4 3d 68 4c 29 bd 34 e6 74 be
       -0.29207426 0.10359648 -0.041332632 -0.2391594
000210 97 50 9a be 25 45 ad bb 15 29 a1 be 08 e7 a3 be
       -0.3013961 -0.0052877837 -0.31476656 -0.320122
000220 c5 40 a9 3d d5 03 3d 3e ec 18 84 bd 58 d8 82 bd
       0.08264307 0.18458493 -0.06450066 -0.063889205
000230 c1 3d 6e 3e cf 8c 2d be d2 f4 9b be 80 d7 a8 3c
       0.23265745 -0.16948245 -0.3046022 0.02061057
000240 b5 10 70 bd d2 d7 81 be 95 4f 47 3d 82 7e bc be
       -0.058609683 -0.2535997 0.04865988 -0.36815268
000250 b2 8b 3a 3e ec 47 5f 3e 97 8f 27 be 37 cd c4 3d
       0.18217352 0.2180478 -0.16363369 0.09609454
000260 7a 3c 89 be 7c 2f 2a be 95 e3 a2 be dd fb 86 be
       -0.26803952 -0.16619676 -0.31814256 -0.2636403
000270 f7 72 38 3e bd 8e 08 3e fb f0 9d 3d 03 86 a0 be
       0.18012606 0.133357 0.07711979 -0.31352243
000280 ec 84 19 be b0 f7 06 3e 0a db e4 bd b1 00 0c be
       -0.14992112 0.13180423 -0.11174591 -0.13672139
000290 c9 e3 e8 3c 64 67 92 3c df 2e 9d be 3d 26 27 3e
       0.028428929 0.017871566 -0.30699822 0.1632318
0002a0 f6 5f ec bd 6a 7b 8e 3d 9f 04 30 3e eb 85 a9 be
       -0.115417406 0.06957133 0.17189263 -0.33109984
0002b0 f2 e0 73 be 2a 0b 08 3e 63 98 aa be 2c 92 ab be
       -0.23816279 0.13285509 -0.33319387 -0.33509958
0002c0 ca 1e 82 be 30 74 0e be 76 1e f6 bd 35 ce 92 3d
       -0.25414115 -0.1391151 -0.12017529 0.07168237
0002d0 e6 d5 a4 be ab 23 8c be f4 41 b4 be 4d 52 a4 be
       -0.32194442 -0.27370963 -0.35206568 -0.3209404
0002e0 d8 38 29 be 0c f6 9c bd 45 aa 4f be 20 73 5d be
       -0.1652559 -0.07664117 -0.20279796 -0.21625948
0002f0 b0 af 90 be 75 8f 17 be fa 7e 60 be dd 0e 2f be
       -0.2825904 -0.14800818 -0.21923438 -0.17095514
000300 1c 22 27 bd f3 ad 04 3e 6a a8 9e be 20 a9 75 3d
       -0.040804014 0.12956981 -0.30987865 0.059975743
000310 bf d6 9b bd 63 f5 76 be 24 5d 98 be 6c 4f 45 bd
       -0.07609319 -0.24117045 -0.2975856 -0.048171446
000320 15 65 43 3d 65 b2 48 be eb 21 a0 bd 1a 1e 01 be
       0.04770382 -0.19599302 -0.07818969 -0.12609139
000330 66 ed 25 bd 49 bb 7c bd 1b 93 0d 3d c4 de 17 be
       -0.040509604 -0.061702047 0.03456412 -0.14831072
000340 33 bc 27 be ff 1d fc 3d 5c 28 e7 bd 49 8a 83 3d
       -0.16380386 0.12310409 -0.11286995 0.0642286
000350 6b f4 77 be 86 00 af be 09 ad bf bc 1b d6 d4 3d
       -0.24214332 -0.34180087 -0.02339794 0.103924
000360 1f 93 ad be 9b 90 61 be c2 45 84 3e 5b 9a 53 3d
       -0.33901307 -0.22027819 0.2583447 0.051660877
000370 7b bf eb 3c 99 23 73 bd 8b 95 71 be 5f bd 3e 3e
       0.028777828 -0.05936012 -0.23592202 0.18626927
000380 51 38 61 bd a3 fc 8d bd 83 25 a8 3c d1 e2 49 3e
       -0.054985348 -0.06932952 0.0205257 0.1971543
000390 98 e4 1c be 30 43 9a be fc 9a b5 3e 06 30 68 bd
       -0.15321577 -0.30129385 0.35469806 -0.056686424
0003a0 47 42 8e bd d1 f2 7b be ef 6d aa be 4f 60 f3 bc
       -0.06946235 -0.24604346 -0.33286998 -0.02970901
0003b0 73 86 f0 3c 23 74 fc bd 49 a6 18 3e 09 87 28 be
       0.029360985 -0.12326839 0.14907183 -0.16457762
0003c0 21 f9 a6 bd b1 60 5d be 2b 68 18 be a2 d7 ac bd
       -0.08152986 -0.21618916 -0.14883487 -0.08439566
0003d0 40 fd 6c 3e bd 19 da bc 8d b2 ca 3d 92 10 47 be
       0.23143482 -0.026623601 0.09897337 -0.19439915
0003e0 e1 a2 d7 bd 51 f6 90 3e 63 e5 65 be ab 30 89 bc
       -0.105291136 0.28312925 -0.22450785 -0.01674684
0003f0 4a 3c cd 3d 40 19 8a 3e cb 18 72 be 25 24 5b 3e
       0.10021265 0.2697239 -0.2364227 0.21400507

Encoder.enc2.weight f4 [40, 256]
000000 19 a4 4e bc 9e 80 10 bd a2 d4 68 3c 64 06 0d 3b
       -0.012612366 -0.03527891 0.014210852 0.0021518702
000010 74 b3 75 3d 46 00 34 3d d8 d5 bd bc 87 5a 09 38
       0.059985593 0.043945573 -0.023173258 3.2747655e-05
000020 73 65 14 bb 72 dd aa bb 62 d0 fa bc fe 4c cf 3c
       -0.0022643476 -0.0052143866 -0.030616943 0.025305267
000030 34 64 a1 bb 38 3c a7 3d e0 43 02 bc 43 14 2d 3d
       -0.004925275 0.08165783 -0.007950753 0.04225565
000040 d6 d8 64 3c d7 34 32 3b 8a 2e 0c bd 6a 0e 17 bb
       0.013967713 0.002719214 -0.03422407 -0.0023049363
000050 75 46 68 3d 7e 52 85 3b 5a 45 07 bd ce cc 3c bc
       0.056707818 0.0040686717 -0.033025123 -0.011523439
000060 aa 05 a7 ba 06 56 2d 3b 11 ab 1f 3c d0 a3 c7 3c
       -0.0012742777 0.002644898 0.009745375 0.024370104
000070 57 df 5a bc 43 75 45 3d 4f 21 b3 3b 4c 06 b2 3c
       -0.013358912 0.048207533 0.005466617 0.021731518
000080 99 dc a6 3b 75 b7 95 b8 fc 7e 31 bc 9d 27 a3 3b
       0.0050922153 -7.139045e-05 -0.010833498 0.0049790875
000090 c4 5f 04 3c 27 ec 9b bb 11 90 11 3c 04 52 07 3c
       0.008079473 -0.004758376 0.008884446 0.0082593
0000a0 ec db 5e bd 5e f4 86 bc e4 c9 1d bd 05 f9 c8 bb
       -0.054408953 -0.016473945 -0.038522616 -0.006133201
0000b0 85 f4 24 bc bb ea 7b 3c 90 ac fa 3b 0c bc 60 b9
       -0.010068064 0.015375788 0.0076499656 -0.00021432358
0000c0 ff 75 4a bc 8f 8e 76 bb b6 f3 df bb 11 30 65 3c
       -0.012357234 -0.0037621593 -0.0068344725 0.013988511
0000d0 e2 9f 29 3c 32 30 9d bc f9 31 d8 3c c6 34 84 3a
       0.01035306 -0.01918802 0.026391016 0.0010086528
0000e0 21 03 2a 3c 1c 73 fc 3b 94 d2 4b 3c 1a ea 20 3d
       0.010376723 0.007704152 0.012440342 0.039285757
0000f0 23 ae 90 3c bc d6 ea 3c 93 6f 99 3c 72 53 88 bb
       0.01766116 0.028666846 0.01872996 -0.004160338
000100 ba 01 94 ba 95 d8 1a 3c 98 f8 3a bd b0 0b fa 3c
       -0.0011292018 0.009451051 -0.045647234 0.030523151
000110 21 9c 09 3d a4 81 84 bd 88 a8 4f bd 01 fc 96 bc
       0.03359616 -0.064700395 -0.050697833 -0.018430712
000120 a3 64 80 3c 04 04 6f 3c 1d 61 18 bb de 71 9f bb
       0.015672987 0.01458836 -0.0023251243 -0.004865869
000130 82 0d 2f 3d f8 74 c9 bc 23 17 76 bb 48 7e 05 3d
       0.04273749 -0.024591908 -0.0037550412 0.032591134
000140 67 d2 fb 3a ac d0 87 3b e5 8a 14 3c ce 3b 79 3c
       0.0019212485 0.0041447487 0.009066318 0.015212012
000150 d3 9e 5b 3c 9b 8b 3d bb 73 63 c4 b9 51 b8 3c bd
       0.013404566 -0.0028922323 -0.0003745813 -0.046074215
000160 2c ac fc bc 6b 05 83 3b 65 1b 22 bd 75 d4 1f 3d
       -0.030843817 0.0039984486 -0.039576907 0.039020974
000170 3f 46 79 bc 83 73 0e 3c 86 6e 26 bc cf ba 5b bd
       -0.015214502 0.008694532 -0.010158187 -0.05364495
000180 25 0c e7 3c cb 3e 8a 3c 2f d6 da 3b bd 95 ff 3b
       0.028204033 0.016875645 0.0066783647 0.0077998326
000190 a1 b8 53 bc f6 8d 23 3c 50 73 11 bc 0c 1b 21 bd
       -0.012922437 0.009982577 -0.00887759 -0.039332435
0001a0 08 45 d6 3c ed 2e 1b bc 9b d2 98 3c 30 78 cf bc
       0.026155964 -0.009471637 0.018655112 -0.025325865
0001b0 c1 00 b5 ba b9 3f 96 39 82 f7 40 3c e9 86 ca 3b
       -0.0013809429 0.00028657707 0.01177776 0.0061806333
0001c0 1f e2 2e bc b2 aa 53 bc 1b 47 fd 3b d9 31 24 bc
       -0.010674029 -0.012919115 0.0077294237 -0.01002165
0001d0 26 6a bd ba eb 42 ae 3b aa cf dc bd 06 01 4b 3c
       -0.001445119 0.005318036 -0.10781796 0.012390381
0001e0 a3 34 23 bb 27 65 14 bc 50 85 47 3b 93 d0 06 ba
       -0.00249032 -0.00905732 0.003044445 -0.00051427743
0001f0 c0 aa cb bb f6 a5 69 3d 2e 76 da bc 3f c0 b0 3b
       -0.0062154233 0.05704304 -0.02666768 0.0053940113
000200 9e 35 4f bb 06 8f 18 3d e5 b0 fd 38 23 b0 f8 ba
       -0.0031617652 0.037245773 0.00012096929 -0.0018973391
000210 17 6f 23 bc 24 0e 3e bc 24 91 27 3c f2 71 5c be
       -0.009975216 -0.011600051 0.010227475 -0.21527842
000220 6b ab 61 3d 90 16 c2 3b 82 69 70 bc 12 08 6b 3c
       0.055095118 0.0059231 -0.0146735925 0.014345186
000230 ae 3d ad bb 5a 21 88 3d f5 88 8c 3b aa 3e 54 3c
       -0.005286894 0.06646986 0.0042887875 0.012954393
000240 54 66 07 bd 38 43 32 3c 96 91 64 3c 80 f6 e2 bd
       -0.033056572 0.010880284 0.013950726 -0.110821724
000250 4b ed d3 3b 76 e3 29 bd 11 9f 35 bc db 3c d1 3c
       0.0064674965 -0.04147669 -0.011085288 0.025541713
000260 4f 1e 48 b9 a2 a4 c6 bc 88 79 e4 3c a2 e5 bd 3a
       -0.00019084777 -0.024248425 0.027889982 0.0014487992
000270 58 c5 36 3c c6 6e 97 3c 89 17 be bb a4 89 78 3b
       0.011155449 0.018485438 -0.0058011455 0.0037923837
000280 40 b4 83 bb af a9 3f 3d 03 e2 f0 bb 78 a8 03 3b
       -0.00401929 0.046792682 -0.0073511614 0.002008943
000290 76 9a c5 bb ca 7a a4 bb f9 ca ae 3a e4 35 a2 3c
       -0.006030376 -0.0050195204 0.0013335637 0.019801088
0002a0 4c 31 07 ba 15 33 61 3b 54 f8 b8 3b be 7a 38 3c
       -0.0005157187 0.0034362723 0.0056448374 0.011259733
0002b0 cc b2 46 bb 5d c0 dd bc cc 64 1c bb 7e 57 05 bd
       -0.0030318974 -0.027069265 -0.002386379 -0.032554142
0002c0 e9 b5 96 3c 42 a4 9b b7 e2 f2 2c bd ca 70 b8 bc
       0.018397288 -1.8553928e-05 -0.04222382 -0.02251472
0002d0 ce 5a db 3c 83 34 03 bc 66 03 03 3d bd 2b 42 3b
       0.026776697 -0.008008125 0.031985663 0.002962812
0002e0 63 b3 f0 bb c4 65 f9 bb a4 3c 9e 3c e1 45 55 3c
       -0.0073456033 -0.0076110084 0.019316025 0.013017149
0002f0 06 ef 1a 3c 9a 9f 51 3c a3 a7 fe 3d 8c bc d4 bc
       0.009456402 0.0127944 0.12434318 -0.025968812
000300 4d da 9b 3b 7b 79 a6 3c bb 97 03 bb 61 38 69 3b
       0.004756248 0.020321598 -0.0020079452 0.0035586583
000310 62 05 a5 bc b3 45 0e bb 88 3b dd ba 3e e4 27 bd
       -0.020144168 -0.0021709024 -0.0016878704 -0.040989153
000320 26 c3 c1 ba 98 8f d2 bc 52 d3 4a 3d 70 c9 a1 3b
       -0.001478289 -0.025703236 0.049517937 0.0049373433
000330 8b 1c ea 38 5c ba 0d 3d 14 13 d3 bc 79 b8 ad bc
       0.00011163306 0.034601554 -0.025765933 -0.021206127
000340 e4 6f ec bc 35 71 aa 3c d7 b3 46 bd e0 2e 21 bd
       -0.028861947 0.020805934 -0.048511352 -0.039351344
000350 58 f2 c9 3b 02 18 65 bd 4a 11 9e 3c cc 9c 59 bb
       0.006162923 -0.0559311 0.019295353 -0.003320503
000360 11 e9 1a 3b eb 1d a9 bb a1 ca 2c bc 2d df c8 3c
       0.0023637454 -0.005161037 -0.010546357 0.024520481
000370 7c fb ea bc a0 cc 12 bd 63 8e bd 3c 61 99 43 bd
       -0.02868437 -0.035839677 0.023139184 -0.047753695
000380 ab 1b b6 bc 41 e3 62 3d 5d 5e ff bc 58 45 bb ba
       -0.02222999 0.055392507 -0.031172926 -0.0014287634
000390 80 a2 de bb 9e 60 e6 bc ec 7c 98 3b 71 a2 c1 bc
       -0.006794274 -0.028122243 0.0046535637 -0.023637028
0003a0 f2 6f 26 3c 77 02 3a 3c 8f 2a a0 bd 3b 50 1c 3c
       0.010158526 0.011353127 -0.078206174 0.009540613
0003b0 3a 96 cc 3b 6f 44 53 3b 97 61 04 3c 42 db 67 bd
       0.0062434943 0.0032236835 0.008079908 -0.056605585
0003c0 94 4a af ba 41 78 69 3b c3 4a 96 3b 9a 2a aa bc
       -0.0013373666 0.0035624655 0.004586549 -0.020772267
0003d0 8b 0f 3d 3c d8 86 0d bc f6 b8 ea 3b 65 3b 91 bd
       0.01153935 -0.008638106 0.0071631623 -0.07091407
0003e0 77 be 0f 3b dd 1c 3c bc c1 00 aa ba fd 23 01 bd
       0.0021933594 -0.011481491 -0.0012970195 -0.03152846
0003f0 54 3e 65 bb 58 93 e9 bb 77 4e 19 bc 49 4b 23 bc
       -0.0034979777 -0.0071281604 -0.009357086 -0.00996668

Encoder.enc2.bias f4 [40]
000000 67 0a 6a 3c 36 ce 0e bd 02 7d 15 bb bb 17 6e 3c
       0.014284707 -0.034864627 -0.0022810106 0.014532025
000010 ec 94 5f bd 1b af 14 bd c1 00 f9 bc 19 29 22 3c
       -0.054585382 -0.036299806 -0.030395867 0.009897494
000020 af 4c 0e bd 00 e4 88 ba e3 5b 16 3b 3b c5 a5 3c
       -0.0347411 -0.0010443926 0.0022942952 0.020235648
000030 35 47 02 bd bf 92 8f bc b1 de 0e bd 0b f4 00 3d
       -0.03180619 -0.017526029 -0.034880344 0.031482738
000040 29 6f 81 3c 93 cb 00 bd 17 1e b2 3c 55 e7 aa bc
       0.015800076 -0.031444144 0.021742864 -0.02086226
000050 3a 40 59 be b1 b8 96 bb 8a 36 88 bc 32 ec ad 3c
       -0.21215907 -0.0045996537 -0.016627569 0.02123079
000060 52 9e 40 be a3 f4 f6 bc 38 fe 3c be ec ae 47 bb
       -0.18810394 -0.030145949 -0.18456352 -0.0030469252
000070 0f 68 5e be 87 f4 e1 bc db 34 4d be bd ad 41 3c
       -0.21719383 -0.02758242 -0.20039694 0.011821208
000080 8b a8 ca 3c 18 fb c9 bc af ad b0 3c 16 9c 33 be
       0.02473857 -0.024655864 0.021567194 -0.17540011
000090 ef 2c 49 be 47 8e b1 bc 4f 78 23 bc ad f6 90 bc
       -0.19646047 -0.021674288 -0.009977414 -0.01769575

Decoder.dec1.weight f4 [256, 20]
000000 25 d2 8b bb c4 22 35 bb a6 bf 74 bb b2 b0 9f b9
       -0.0042669945 -0.002763913 -0.0037345677 -0.00030458492
000010 7b 38 89 3b 63 21 df b9 4b cb 36 bd 54 d4 a1 ba
       0.004187641 -0.0004255875 -0.04462747 -0.0012346604
000020 ad 9f 02 3c 08 09 fb 39 3d fd 0f ba 2e 05 fb 39
       0.00797264 0.0004788118 -0.00054927525 0.0004787831
000030 71 c7 0f 3b 53 39 30 bb 0a 4a 08 3a 8e 0d e4 3b
       0.0021938945 -0.0026889637 0.0005199021 0.0069596237
000040 5c db 89 bc f6 9a 88 ba 11 71 31 3a 2d 36 67 ba
       -0.016828232 -0.0010422159 0.00067688624 -0.00088200235
000050 8a 86 c1 bb 80 59 14 bb 3b 75 12 bb 1d f2 54 ba
       -0.005905931 -0.0022636354 -0.0022347707 -0.0008123236
000060 48 8b 62 3a 02 dc 47 b9 32 11 6f be fd b3 1c bc
       0.00086419703 -0.00019060078 -0.23346403 -0.009564397
000070 fa d2 d4 3b df c6 1b 3c 04 75 b4 bc 1a 8b ae bb
       0.006494877 0.009507864 -0.022028454 -0.005326641
000080 9e e5 e0 bb 10 46 1e bb 3d 9a 3e bb 9a 75 0c 3b
       -0.00686331 -0.0024150647 -0.0029083632 0.00214324
000090 a0 ae 41 bd 03 b4 18 bb 26 1d af 3b 9d 1b 3e bb
       -0.047285676 -0.0023300655 0.005344051 -0.0029008158
0000a0 d2 63 a5 3b 17 7e 1a 3a 77 68 ce ba bb 80 97 39
       0.0050473 0.00058934226 -0.0015747686 0.00028896876
0000b0 ec e6 f6 bb ea 23 23 3b 05 db dc 3c c0 98 16 3b
       -0.0075348523 0.0024893233 0.026959905 0.002297923
0000c0 b6 fa 4c bb ac 81 9d 3b 55 63 14 bb a1 ba eb ba
       -0.0031277365 0.004806718 -0.0022642214 -0.0017984697
0000d0 fe f4 83 39 12 cf 80 bb 5a e6 bd b8 b1 6d e7 bc
       0.000251688 -0.0039309347 -9.0551286e-05 -0.028250547
0000e0 44 0b 48 bd c2 41 a5 39 f6 a8 bc ba 4c 95 ac b9
       -0.04883887 0.00031520246 -0.0014393616 -0.0003291763
0000f0 e3 91 d1 ba e2 36 42 3a 9f 3f 03 bb 0e 96 a4 3a
       -0.0015988912 0.0007408691 -0.0020026935 0.0012556927
000100 71 36 7d bb 9c fa eb ba ec 2b 36 3d fb ae 8a ba
       -0.0038637186 -0.0018003765 0.04447548 -0.0010580713
000110 89 e9 9c 3a 80 40 21 3b 9d f1 6b 39 c7 c4 79 bb
       0.0011971454 0.0024605095 0.00022501354 -0.0038111673
000120 70 2e 5b ba 09 4d 64 3b f0 c5 97 3b c4 52 da ba
       -0.0008361107 0.0034835956 0.0046317503 -0.0016656746
000130 81 03 99 bc 96 ab cf 3a d1 76 7e 3a ed ba 0b bb
       -0.018678429 0.0015843983 0.0009707036 -0.0021321133
000140 47 62 5a bb 57 a4 d0 3a 8d 40 a7 3a dd 65 57 3b
       -0.0033322738 0.0015918118 0.0012760326 0.0032867112
000150 69 1d 87 3a 46 c2 dc 38 17 db 1d 3c c7 78 a9 ba
       0.0010308448 0.00010526604 0.009634755 -0.0012929671
000160 08 05 6e 3d d0 e3 00 39 d2 d6 9e 3b d1 cb 3c b8
       0.058110267 0.00012291898 0.004847386 -4.501251e-05
000170 f3 87 ec ba c2 13 bc ba c8 44 86 ba e6 b4 a3 3b
       -0.0018045887 -0.001434915 -0.0010243887 0.00499593
000180 63 c2 00 bc 93 d7 f0 ba 85 41 64 39 4d 3d a3 3a
       -0.007858845 -0.0018374793 0.00021768182 0.0012454182
000190 cf 9b 10 bd 8a c5 00 bb fe 24 72 bb e2 ac 80 bb
       -0.03530484 -0.0019648992 -0.0036948319 -0.0039268592
0001a0 13 77 c2 3b 16 64 dd 3b d6 df 05 3c 6a 1e 04 3b
       0.005934605 0.006756316 0.008171042 0.002015973
0001b0 23 7a 8e 3e d5 39 67 bb 5c 6f c1 b9 32 ef 95 bb
       0.27827558 -0.0035282273 -0.00036894798 -0.0045756334
0001c0 ed eb 4b 3b 7d a0 8b bb cc 91 09 3a ce bd 06 bd
       0.0031115965 -0.004261075 0.00052478607 -0.032895856
0001d0 5f d0 52 3c ff 6a f6 bb 29 ea 9e 3b 9e 72 99 3b
       0.012867062 -0.007520079 0.0048496914 0.004682853
0001e0 e5 77 84 bd b2 d0 08 3b e7 da 19 ba 81 4b f4 39
       -0.064681806 0.0020876345 -0.0005869106 0.0004659556
0001f0 50 28 c0 3a cd ee f9 b9 33 c0 96 ba 90 87 bf ba
       0.0014660452 -0.000476709 -0.0011501372 -0.0014612544
000200 2e cb 65 bb 6e 83 fb ba c9 6e 71 39 d1 ff 7d 3b
       -0.0035063731 -0.0019188949 0.00023024822 0.0038757215
000210 d2 c7 99 ba 59 52 d2 38 26 6e fc ba 9f 3b 11 ba
       -0.0011732525 0.00010028919 -0.0019258901 -0.0005540195
000220 dd 71 2b 3c e4 48 2f 3a 80 05 9f 3a 5b 32 ee b9
       0.010464159 0.0006686582 0.0012132376 -0.00045432415
000230 31 07 54 3d 2b 21 b3 3b d8 f8 a5 bb 8f c1 43 39
       0.05176467 0.0054666004 -0.005065065 0.00018668755
000240 3b 87 dd 3b 0f db 98 39 d4 af b4 bd c2 db 74 b8
       0.0067605055 0.0002915491 -0.08822599 -5.83788e-05
000250 0f 01 c0 3b d5 1c ec bb 64 37 8e 3a 2e e4 b2 b9
       0.005859501 -0.0072055855 0.0010850248 -0.00034120813
000260 fc 70 7b b9 08 d0 28 3b 08 a7 6b 3b f5 d1 a6 bd
       -0.00023979315 0.0025758762 0.0035957713 -0.08145515
000270 6e 76 30 3e be 26 aa 3a ee 86 1c bb 29 a6 b1 ba
       0.17232677 0.0012981517 -0.0023884135 -0.0013553548
000280 b0 11 0c bd 26 ae 69 bb 93 8c 2e ba d9 a7 03 bb
       -0.034196556 -0.003565678 -0.00066585204 -0.0020089059
000290 bc 46 b8 3a 32 c4 ec b9 ab e5 06 ba 63 53 60 b8
       0.0014059166 -0.00045159605 -0.00051459175 -5.348342e-05
0002a0 eb d7 b4 3b f6 d0 ea 39 83 c4 23 ba 5c d5 b5 ba
       0.0055189035 0.00044787646 -0.0006247239 -0.001387279
0002b0 3f d4 88 3a cc 72 44 3a da 9c d1 39 65 bb 5b 3c
       0.0010439231 0.00074939127 0.0003998045 0.013411378
0002c0 b7 ae c3 3d bd 60 c0 39 bc 63 b3 3a 16 c8 bb ba
       0.095548086 0.0003669317 0.0013686339 -0.0014326598
0002d0 54 0f ec 39 1b 35 96 3a 94 eb 49 bb fb 03 27 bc
       0.00045024848 0.0011459918 -0.0030810582 -0.01019382
0002e0 3e b7 92 be 3b f0 13 3c aa ec 47 bb 87 ab 0d b9
       -0.28655428 0.009029443 -0.0030506053 -0.00013510707
0002f0 b4 b6 a9 3c 94 96 19 bb ea f3 c3 b8 df 8e fb bb
       0.020717002 -0.0023435699 -9.343757e-05 -0.0076769437
000300 94 18 30 3b 90 88 61 3c 9d ab 01 3c e0 12 ad 3c
       0.0026870118 0.013765469 0.007914451 0.021127164
000310 9e 30 0f 3e 18 46 01 3a 78 ec 99 3b 52 ba 82 bb
       0.1398339 0.0004931404 0.0046973787 -0.0039894963
000320 4d 87 79 bb 78 c5 47 bb 3b 4e 2d 3a 48 d8 52 3b
       -0.003807503 -0.003048269 0.00066110835 0.003217237
000330 03 57 5d 39 ee 3a 8b ba c8 20 5c 39 8e a8 84 38
       0.00021108617 -0.0010622421 0.00020993047 6.325646e-05
000340 e9 97 90 3d 3e d9 90 3b a6 82 2d 39 b3 f9 0b 3b
       0.070602246 0.0044204285 0.00016547236 0.002135855
000350 8f 92 f9 38 40 75 00 3b fe 92 96 ba 75 4c 01 3c
       0.00011900544 0.0019601136 -0.0011487899 0.007891764
000360 16 15 f5 ba 74 8f 0d 3a f4 66 2c 3a 6c 43 ad b9
       -0.0018698301 0.00054000993 0.00065766205 -0.00033047365
000370 6b 8a d2 3c bc 3c c9 3a fd 01 63 b9 68 9d 07 bb
       0.025700768 0.0015353183 -0.00021649148 -0.0020693187
000380 6c d6 c3 3a 5b 46 4a b7 dd bb 19 bb ae 6d 77 ba
       0.0014941222 -1.2056519e-05 -0.0023457923 -0.0009438646
000390 ef 38 91 3b 5c ee b4 b9 a6 a9 35 3b 73 fc a3 b9
       0.004431836 -0.00034509867 0.0027719527 -0.00031277872
0003a0 53 56 68 3a 57 d3 92 37 6b 97 07 b9 51 a5 86 bc
       0.0008862961 1.7502969e-05 -0.00012931011 -0.01643625
0003b0 9b 21 9e 3d 41 a7 8a ba 43 b1 ca ba ca 75 40 3a
       0.077212535 -0.001057841 -0.0015464205 0.00073417707
0003c0 e0 7f a1 bc 26 4c 22 39 ce 60 a1 ba 9e 15 85 38
       -0.019714296 0.00015477891 -0.0012312175 6.345961e-05
0003d0 93 9f 2a bb b7 09 87 3a 6d 08 b9 3c da c0 a6 3a
       -0.0026035055 0.0010302578 0.022587026 0.0012722269
0003e0 ae be 0e 3c 9e 9a 5a ba c4 1d b3 ba 79 ec 08 ba
       0.008712454 -0.000833908 -0.0013665487 -0.00052232255
0003f0 8f 1e 0b bb dd 98 78 3a ea bb a3 3a ba 16 ac 3c
       -0.002122793 0.00094832276 0.0012491916 0.02100693

Decoder.dec1.bias f4 [256]
000000 bc a2 f2 3b 3b 8b 2f be 83 58 9c 3c 52 b9 17 3c
       0.0074046534 -0.17142956 0.019085174 0.009260492
000010 b8 cd 7d 3c ef 88 80 be e9 9a 7a 3a 09 19 ea bd
       0.015490942 -0.25104472 0.00095598266 -0.11430556
000020 c2 9f 1d bc 0e ea 9e be b2 a9 c6 3b 1d 1a ff 3b
       -0.009620609 -0.31037945 0.0060627097 0.0077850954
000030 bf 09 ee 3b bf 1a df bd 66 dc b5 bb 69 8a c4 3c
       0.0072643454 -0.10893773 -0.005549955 0.02399178
000040 d0 02 06 3d 5c c7 d8 bc 97 12 a0 be 4e 7a 07 be
       0.032717526 -0.02646225 -0.31264183 -0.1323025
000050 84 26 2e 3c f5 3e da bc fa c6 f6 3b 37 ed c2 be
       0.0106293 -0.026641348 0.007531044 -0.38071606
000060 0e 7d f5 3b 1c 73 31 be 61 14 c5 be 1c a3 87 bf
       0.0074917143 -0.17329067 -0.3849211 -1.0596652
000070 74 a0 18 be 1d 84 6f bd 74 06 b4 bc fa ac 52 be
       -0.14904958 -0.058475602 -0.021975733 -0.20573798
000080 fe 5d b7 3c ee 0e 89 3c bb 2c 21 3a d3 71 ad bd
       0.022383686 0.016730752 0.0006148328 -0.08468976
000090 f6 17 06 bc fe 65 6d be d4 cb cf bc cc c6 be be
       -0.008184424 -0.23183438 -0.025365748 -0.37261045
0000a0 cf f5 92 bd ca a9 5e bd c8 ac ac be 10 24 a8 bc
       -0.071757905 -0.054361142 -0.33725572 -0.020525008
0000b0 d9 3b 1b 3c 81 37 b0 3d 92 72 07 3d 11 e9 a8 be
       0.009474718 0.086043365 0.033068247 -0.32990316
0000c0 51 62 e0 3b c4 b4 b1 3b 78 ff 8f bb 5a b7 47 3c
       0.0068476577 0.0054231603 -0.004394468 0.0121897105
0000d0 d4 b3 b9 be db 54 06 be 33 b1 d0 3c e8 7d 27 be
       -0.3627001 -0.13118307 0.02547512 -0.16356623
0000e0 81 45 85 3c 19 2c a3 be d6 de c9 3b d0 0a 07 3d
       0.016268494 -0.3186958 0.0061605973 0.032969296
0000f0 16 77 ab 3b a6 33 c1 be 67 74 8c be b6 ad f8 bc
       0.005232702 -0.37734717 -0.27432558 -0.03035627
000100 0c 17 cd bd 17 7d a4 3c 42 d7 2b 3b 05 4e 3a 3c
       -0.100141615 0.020079179 0.0026220833 0.01137114
000110 26 7a f3 3d 7a 42 09 be 59 72 7f 3c e7 52 34 be
       0.11888532 -0.13404265 0.015591227 -0.1760975
000120 b0 21 d3 3b ac fa a9 3b b1 ca d3 bc 5e d6 02 3d
       0.006443225 0.005187353 -0.025853487 0.031942718
000130 02 26 dc be 1c 45 75 3c 9e 1a 12 be 07 4a 12 bc
       -0.42997748 0.01497009 -0.14267966 -0.008928782
000140 9a b6 86 be cf 43 6f 3c 61 2c 04 3d f0 b7 db be
       -0.2631119 0.014603569 0.032268886 -0.4291377
000150 a3 b5 05 3d af 5d 18 3d e9 cd 6a be d5 e3 b6 be
       0.032643925 0.03719872 -0.22930111 -0.35720697
000160 c5 d4 af be 93 7b a3 be 09 f1 c5 3a a1 0a dc bb
       -0.34342018 -0.31930217 0.0015101741 -0.0067151343
000170 54 6e 30 bd d8 94 cd 3d fc 5f 59 bd f1 88 be 3c
       -0.043073967 0.10038155 -0.053070053 0.023258658
000180 c8 20 37 3c de 94 f7 3b fb e2 22 3d d6 da 5a bc
       0.011177249 0.007555588 0.039767247 -0.013357839
000190 b4 2b 18 3d c7 59 02 be 97 85 c5 3c b2 56 d1 3b
       0.037151054 -0.1272956 0.024111552 0.0063885087
0001a0 a3 fe 46 3c 0e 38 20 3d 0f 48 9f 3b 74 59 7f bd
       0.012145671 0.039115958 0.004860885 -0.06234117
0001b0 d4 ef a0 be 13 ba 45 3c a3 87 39 bd 3d 1a 0b 3d
       -0.31432974 0.012068289 -0.04529537 0.03396057
0001c0 48 8a 35 3b 49 c8 02 3e 42 4f f7 3b a5 19 d8 bb
       0.002770083 0.12771715 0.00754729 -0.006594854
0001d0 f0 23 01 3c bf 40 9f bc 85 c9 1c 3d f5 f7 bb 3c
       0.007882103 -0.019440053 0.03827812 0.022945384
0001e0 4f b0 91 be dd 20 93 3c e6 d9 15 3d 0c 0f 17 bc
       -0.28454825 0.017960006 0.036584757 -0.009219896
0001f0 28 af 06 bd b8 a0 c4 be 57 55 dd 3a fe a6 f6 bc
       -0.032881886 -0.3840387 0.0016886395 -0.030108925
000200 63 6a 1b 3d 1a c9 0c ba 8b 1c 61 3c 6a cd 6c 3c
       0.037943255 -0.00053705426 0.013739715 0.014453271
000210 66 9b 9f 3b 70 40 53 3c 41 31 2b be 79 8c 10 bc
       0.00487082 0.012893781 -0.16718008 -0.008822554
000220 e7 d2 75 bc 5c ab 40 bb 0b e1 08 3d b7 03 e3 bc
       -0.015003896 -0.0029399013 0.033417743 -0.027711732
000230 ef c1 8c 3c 11 4b fd 3c 7b 43 4d bb 21 6d 34 bb
       0.017182318 0.030919584 -0.003132074 -0.0027530866
000240 12 ea 5f 3b fb 2e 88 3c a0 2d ab be 4a fa b1 3c
       0.0034166616 0.016623965 -0.33433247 0.021725792
000250 e2 f4 40 bd 28 75 fa 3c 7f 3b 6e bc 27 07 e6 3c
       -0.04710854 0.030573443 -0.014540552 0.028079582
000260 b7 0d df bc 3e c8 20 be de 83 83 3b 0d 82 d9 bd
       -0.02722822 -0.15701386 0.0040135225 -0.10620508
000270 85 0c b3 be 99 4e 83 be 0d 43 ac bd 24 b5 3c 3b
       -0.3497049 -0.25645903 -0.084112264 0.0028794492
000280 e5 3e be 3c 46 7a 59 3c f5 c9 84 bb 70 d0 a6 be
       0.02322335 0.013273781 -0.0040523955 -0.325809
000290 fe 39 46 bc b5 85 44 bb 89 2a 95 3c 8b 50 0c be
       -0.012098787 -0.0029986922 0.018208759 -0.137026
0002a0 f8 69 c7 bd 5e d3 c6 3c 1a 14 81 3b ef d8 44 bd
       -0.09737009 0.02427071 0.003939164 -0.048058446
0002b0 91 47 03 3d 14 fd 81 bd bb 42 5c 3c 08 f8 e2 3a
       0.032050673 -0.06347099 0.013443644 0.0017316351
0002c0 27 1d 38 3b ca 92 28 3d be 15 04 3d 72 dc 9b be
       0.0028093548 0.041155614 0.032247297 -0.30441624
0002d0 41 59 c1 3a 8b 56 fb 3c 67 34 15 bf 58 a4 b4 3b
       0.0014751331 0.030680915 -0.58283085 0.0055127554
0002e0 a4 ad b1 3c f2 f1 05 3d 42 bb 08 3d 74 73 89 be
       0.021689244 0.03270144 0.033381708 -0.26845896
0002f0 81 b8 a3 bb c5 27 5d bb 64 67 0d bd aa a6 45 3d
       -0.00499636 -0.0033745628 -0.03452243 0.048254646
000300 39 7b 37 bb 1f 9c 00 3c 63 03 85 3c 78 ac 86 be
       -0.002799703 0.007849722 0.016236966 -0.26303458
000310 bf fc eb 3b f2 28 d1 bc 3d ce 15 bd ac 95 ff bd
       0.0072017605 -0.02553222 -0.036573637 -0.124797195
000320 fa 39 78 bc 04 6f 16 bc f7 6c 88 bc 1b de 86 bd
       -0.015150541 -0.009181742 -0.016653521 -0.06585332
000330 33 c8 12 be b9 10 18 3c e9 7b 43 be 31 25 e2 bd
       -0.14334182 0.009281331 -0.19090237 -0.1104225
000340 4f 7b af be 49 13 b0 bb b4 2a 02 3d 80 d8 e0 3c
       -0.34273764 -0.0053733927 0.031779006 0.027446985
000350 92 4d 14 bd 08 82 68 3c 1a c3 57 bf a1 81 78 be
       -0.03620679 0.014191158 -0.84282076 -0.242682
000360 da e7 05 3d a5 bd 13 3d c5 25 0c 3d 30 14 1a 3d
       0.032691814 0.03606953 0.034215707 0.03761691
000370 5e 44 ad be eb a3 2a 3d a6 cf 0d 3c d7 2e 3c bd
       -0.33841223 0.04166023 0.008655464 -0.045943107
000380 39 0c 8b be f7 91 9e be d3 b9 7b bc 7d 0f b9 bd
       -0.27157763 -0.30970737 -0.015364128 -0.09036157
000390 14 d5 5f be 0c 90 29 3d 52 b9 3f 3c 84 5a a4 3b
       -0.21858627 0.04139714 0.011701899 0.005015673
0003a0 88 ef a0 bb a1 9d 54 be ac 12 3b be cd e1 30 3c
       -0.004911367 -0.20763256 -0.18268842 0.010796023
0003b0 9b 25 d3 be fe 1d df bd 5e ff 62 bd 9e 90 43 3c
       -0.41239628 -0.108943924 -0.05541932 0.011936335
0003c0 8b 39 dc bc 15 0f 33 3c b0 30 f1 bd b3 ac d0 be
       -0.026882907 0.010928889 -0.117768645 -0.4075676
0003d0 6b b2 12 be 21 c0 c0 be 87 15 06 3d d4 1e 84 3c
       -0.14325874 -0.37646583 0.032735374 0.016127981
0003e0 c2 6b 2f be 16 cf 95 bd 7e b6 16 3d 13 7e 79 bb
       -0.1713095 -0.07314889 0.03679513 -0.003806953
0003f0 99 ba d3 b9 ff b7 04 3d e7 44 cc 3c 23 86 83 bd
       -0.00040384082 0.032402035 0.024935199 -0.06422069

Decoder.dec2.weight f4 [31, 256]
000000 a1 de 73 bf ce da 4b be b5 aa 84 bd 49 79 d4 3e
       -0.9526158 -0.19907686 -0.06477872 0.41498783
000010 0e 12 41 3f 45 a4 2b be 36 7c ea bd b5 a7 da 3d
       0.75418174 -0.16761883 -0.114494726 0.10676519
000020 5f ac 1d 3e b5 4a 0d 3d ae dd f9 3e a7 8f dc 3e
       0.15397786 0.034495074 0.4880194 0.43078348
000030 63 ae da 3e 53 58 b6 3c cc 0d 8a be db fb 19 bf
       0.42711172 0.022258913 -0.2696365 -0.60149926
000040 4f f3 61 3d 67 d8 0e bf c0 16 75 bd 59 54 97 3c
       0.055163678 -0.55798954 -0.05983615 0.018472837
000050 f2 4f 82 bf c2 81 22 3e 7c f9 c3 3e 40 00 f4 ba
       -1.0180647 0.15869811 0.3827628 -0.0018615797
000060 82 03 d9 3e a8 50 08 3d 11 84 c8 3c 7f a9 97 bf
       0.4238549 0.033280045 0.024477037 -1.1848601
000070 74 ee c1 3d ff 1e c6 bc 16 d5 c2 3e 8e 19 46 3d
       0.094693094 -0.024184702 0.38053197 0.048364215
000080 7c af ea 3d dc 82 b3 3e 79 dd 1c 3f f3 e0 8c 3e
       0.11459252 0.35060775 0.6127544 0.27515373
000090 69 51 fe 3e d7 0d 77 3b c0 c7 a0 3e e7 43 f8 bc
       0.49671486 0.0037697458 0.31402397 -0.030305816
0000a0 14 91 6f 3e 6c 98 1f 3d 23 cf e2 bc e3 74 97 3d
       0.23395187 0.03896372 -0.027686661 0.07395341
0000b0 bc 88 be 3e 53 7d b5 be 52 b1 16 3c c8 8f 98 bc
       0.37213695 -0.35447177 0.00919755 -0.018623248
0000c0 62 29 e0 3e bb bd 32 bf 55 52 b1 3c ed 24 3f 3d
       0.43781573 -0.69820756 0.021645704 0.046666075
0000d0 94 47 db bd 19 86 51 be 31 35 51 be a2 07 36 be
       -0.10707012 -0.2046131 -0.20430447 -0.17776349
0000e0 45 91 5c bf fa 8e c3 bc 49 c9 23 bf 1b 37 e1 3d
       -0.86159164 -0.023871887 -0.6397901 0.10996839
0000f0 e7 ba 83 bf 25 c0 3f 3d a9 78 bd 3d ce 7c 55 3c
       -1.0291413 0.046814103 0.0925153 0.013030244
000100 0b 51 54 bd 4a ed 19 3f 33 22 d7 be 57 a8 1a bf
       -0.0518351 0.601277 -0.4201828 -0.60413116
000110 ee f3 b4 3d 6d 73 a8 3c 7f f4 2b bf f5 f9 55 bd
       0.088355884 0.020562852 -0.67169946 -0.05224033
000120 29 31 2b bf 0b 6f 08 3f eb fd 8b 3e 1d a7 95 3d
       -0.6687189 0.5329444 0.27342162 0.07307265
000130 d3 c5 0f 3d fb 0c d2 bf c6 58 46 3c ac 53 84 be
       0.03510077 -1.6410211 0.012106126 -0.25845087
000140 0e b5 8c be 1a 8b 81 3e 21 50 09 3d 3c bf 36 bf
       -0.27481884 0.2530144 0.033523683 -0.7138555
000150 91 a7 81 3d 50 29 9a 3d a3 56 60 bb 9c b9 c0 3c
       0.06330789 0.07527411 -0.0034231327 0.023526005
000160 57 50 01 bd db 6d 3a bc 3f bf 95 bf 15 d6 61 3e
       -0.03157076 -0.011378731 -1.1698989 0.22054322
000170 3d 10 65 bf 8a 11 97 3d 54 db d3 bd 4d 98 19 bf
       -0.894779 0.07376392 -0.10344568 -0.5999802
000180 0a ed 2f 3f 05 c3 0a 3f fa 0d 79 3d 92 8f 1f bf
       0.6872107 0.54203826 0.060804345 -0.62328446
000190 4e a7 93 3e 59 93 d8 3d 5b 1c 91 3d 51 f0 9b 3e
       0.2883858 0.10574979 0.070854865 0.30456784
0001a0 d2 42 8d bf dd 4e 8a 3d 81 08 35 3e a3 43 39 bd
       -1.1036017 0.06753323 0.17679025 -0.04523052
0001b0 a8 17 d0 ba 56 28 90 bf ce 1a 6a bd 10 e2 a3 3d
       -0.0015876191 -1.126231 -0.05715447 0.080021024
0001c0 1b 46 c9 be 73 70 e1 bb 40 11 cd 3e b2 c8 9f 3e
       -0.393113 -0.00687986 0.40052223 0.31207806
0001d0 39 6b a9 3e 34 71 bb 3e 06 cd 76 bf a0 8b 05 bf
       0.33089617 0.36609805 -0.9640659 -0.52166176
0001e0 fe 23 9a bd f4 ba c0 3e e8 e1 17 3e ab 69 2f 3e
       -0.07526396 0.37642634 0.1483227 0.17130153
0001f0 b5 2f 1c 3e ce 23 20 bd c6 e6 86 3e b0 94 b0 be
       0.15252574 -0.039096646 0.2634794 -0.3448844
000200 39 db 18 3d 99 fc ba bf ce 34 72 bf 97 92 ad bf
       0.037318442 -1.4608337 -0.94611824 -1.3560361
000210 49 51 72 3e ba 88 8b 3d 00 4f db bd 16 00 19 be
       0.2366382 0.06813188 -0.107084274 -0.14941439
000220 37 f2 b5 bd 2e 42 34 bf 93 ea 8f 3d 80 13 c9 3e
       -0.088840894 -0.7041348 0.07027163 0.3927269
000230 e6 63 ab bf b8 89 96 3d 83 c0 16 3f b6 b0 e6 be
       -1.3389862 0.073504865 0.588875 -0.45056695
000240 c3 c5 bc 3e f7 3b 49 be fc 0d 82 bd d4 58 9e 3e
       0.3686963 -0.19651781 -0.063503236 0.30927145
000250 20 57 8c 3d b8 62 4f 3d 6e a0 ef 3e 29 d1 57 bf
       0.06852555 0.050631255 0.46802086 -0.8430353
000260 97 d7 7b be 94 f1 c1 be 11 e7 08 3f 1e ac b3 be
       -0.2459396 -0.37879622 0.5347758 -0.35092252
000270 77 75 8e ba 15 af 30 bd 15 b3 a1 3b 8e 15 e3 3e
       -0.0010868747 -0.04313572 0.0049346783 0.44352382
000280 c7 b2 8c 3e 9b f9 b7 bd 64 cb 46 bf b4 c5 da 3d
       0.27480146 -0.08983155 -0.776541 0.1068224
000290 62 0d e4 be b6 c2 4e 3e 2d 17 09 3e e1 3e 2e 3d
       -0.4454146 0.20191464 0.13387747 0.042540435
0002a0 e4 34 df 3d 16 7c 13 bf 44 4a 71 bf 47 bb 11 3e
       0.1089876 -0.57611215 -0.94253945 0.14231597
0002b0 4d ff 8c bb f2 43 b2 bd 5b 47 ba 3d 76 3d b2 be
       -0.004302895 -0.08704366 0.09095641 -0.34812516
0002c0 29 d1 bd be 14 33 91 3d e4 ab a6 3d a5 d1 10 be
       -0.3707364 0.070898205 0.08138254 -0.14142473
0002d0 d7 4e 87 3e b1 b7 89 3d 71 42 86 bf 84 a9 13 bf
       0.26427338 0.067244895 -1.0489026 -0.57680535
0002e0 f6 24 ed 3e 57 6a dd 3d 41 46 c2 3d 13 c3 e9 bb
       0.4631726 0.10811298 0.09486056 -0.0071338504
0002f0 bc 0a bb bc 93 46 81 bf 1d 35 af 3d 09 96 8f 3e
       -0.022832267 -1.0099663 0.085550524 0.28044155
000300 e3 35 41 bf 25 c9 d8 3e 9c f3 34 3e f5 76 76 3d
       -0.7547285 0.4234096 0.17671055 0.06017204
000310 9f 63 e2 3e f2 16 84 3e ea 60 98 bc 29 69 a5 3d
       0.4421663 0.25798756 -0.0186009 0.08076698
000320 b5 1e b6 bd 56 d2 b9 3c 65 41 21 bf 2b b0 51 3d
       -0.08892576 0.022683304 -0.6299041 0.051193397
000330 45 12 d1 3c 68 3d 5e bf 8b ab 16 bd 0c a4 f3 be
       0.025521407 -0.8681245 -0.03678469 -0.47586095
000340 84 16 2f bd ba 75 8c 3c 0f 3b 24 3d 6a a4 d0 be
       -0.042746082 0.01714598 0.040095385 -0.40750438
000350 7d bc 54 bd 9f 26 1a 3f f0 1d 75 bf 86 e5 ec 3d
       -0.05193757 0.6021518 -0.95748806 0.115672156
000360 b2 4d 6f 3d 80 47 04 3e 42 08 97 3d be 57 c7 3d
       0.058423705 0.129179 0.07374622 0.09733532
000370 ea 18 cb bc 30 37 65 3d 17 c5 e9 3e b2 b1 1f be
       -0.024792153 0.055960834 0.4565818 -0.15595129
000380 7a 95 b0 bc 47 7b e6 bb 75 7f a1 3d 85 4d 85 bd
       -0.021555651 -0.007033739 0.078856386 -0.06508926
000390 b8 2d dd bc 45 5f e3 3e a7 32 92 3e af 86 be 3e
       -0.02699934 0.44408622 0.2855427 0.3721213
0003a0 8f d2 27 3f 54 46 ae 3d 8e 0b ec 3c c3 82 37 bf
       0.6555566 0.08509508 0.028814103 -0.716839
0003b0 61 c7 e1 3c 9b 71 a8 be 66 95 2e be 3d 2d ba 3d
       0.027560892 -0.32899174 -0.17049178 0.0909066
0003c0 57 6b 79 3e f1 7a 7e bf f4 b5 a4 3b b0 d5 41 3e
       0.24357353 -0.99406344 0.0050265733 0.18929172
0003d0 a8 a7 9b 3c d2 09 7b 3d 85 f9 84 3d 00 8a b6 bd
       0.019000843 0.061288662 0.064929046 -0.0891304
0003e0 4f bb 0b 3d 06 23 8f 3e 98 6d 0c 3e 49 92 b8 3e
       0.03411418 0.27956408 0.13713682 0.36049107
0003f0 90 ab 7e be 6c 2c 81 3e 57 b7 38 3f af 6c ed bd
       -0.24870133 0.25229204 0.72154754 -0.115929954

Decoder.dec2.bias f4 [31]
000000 4b 94 87 be 2f 25 1d 3d f2 c4 08 40 13 a5 1f bd
       -0.26480326 0.03836554 2.1370206 -0.038975786
000010 bc 42 94 40 55 f8 82 3d 83 19 06 c0 a5 a6 90 3e
       4.6331463 0.06395022 -2.095307 0.2825214
000020 67 f3 16 bd dc 75 1e 3e 7c 09 ad 3f 84 54 f5 3e
       -0.03685322 0.15474647 1.3518519 0.47916043
000030 3d db ae 3f 72 bf fd bf 16 b7 f2 3f 01 19 c5 bf
       1.3660656 -1.982405 1.8962123 -1.5398256
000040 53 28 07 bd 75 9c 26 40 4d 6a b0 bd 9a ae cd bf
       -0.03299744 2.6032994 -0.08614025 -1.6068909
000050 43 f2 c7 bd a8 b3 c6 bf ef ae ee bf 87 65 32 be
       -0.09763005 -1.5523577 -1.8647135 -0.17421542
000060 60 06 de 3c fd e4 ab 40 d8 9d d8 3d 7b da ad 40
       0.02710265 5.3717027 0.10576981 5.43292
000070 2d f4 f0 3d 21 3d 93 40 49 cb 10 c0
       0.11765323 4.601212 -2.2624075
